raisimGymTorch/data/ouzel_only_planning/2022-05-09-12-17-53/full_30000.pt (torch, 162032 bytes, 36 tensors)

architecture.0.weight f4 [64, 27]
000000 96 bc 0e 3d 77 43 c3 ba 37 95 9f 3e 5d eb 7d bc
       0.03484782 -0.0014897425 0.3116853 -0.0154980095
000010 d0 be a3 3e 1b 3a 3b be 91 4f b8 be bb bb d7 3e
       0.31981516 -0.18283884 -0.35998204 0.42135414
000020 ed 86 c3 3d 90 99 22 3f dd 45 4d be c4 e9 aa bd
       0.095472194 0.6351557 -0.20046182 -0.083453685
000030 ee 35 28 3e 80 9d 76 be 18 e2 86 bd 65 f3 d0 be
       0.16426823 -0.24083519 -0.06586093 -0.40810695
000040 5b 26 6d 3f 1a 32 a1 3e 1b 39 fe bd bc b2 78 bb
       0.9263665 0.31483537 -0.12413236 -0.003794833
000050 61 47 a2 bb 0c 3f f4 bb ab 66 94 3c c5 46 de 3d
       -0.0049523567 -0.007453805 0.018115362 0.10853342
000060 7e 0a 1b 3f 74 2a 04 bf 5d c4 87 bc e2 08 89 3e
       0.60562885 -0.5162728 -0.016573125 0.2676459
000070 a3 82 f5 bd 12 e6 e1 be 89 fe bb 3d 92 58 7d 3e
       -0.119878076 -0.44120842 0.09179408 0.24740818
000080 60 1c 29 3e eb 77 ea bd 7a 33 fa 3c 91 1a fa bd
       0.1651473 -0.11448654 0.030542124 -0.122120984
000090 2e 1e 6d bd 7c 18 b1 be 17 78 b6 3d c1 bb 83 be
       -0.05789011 -0.34588993 0.08909624 -0.25729182
0000a0 d2 c5 58 3e bc dc c1 be 4d 5f e3 3e 2d 70 c1 bd
       0.21169212 -0.3786372 0.44408646 -0.09445224
0000b0 0c 95 b3 3e 09 af 8a 3e ae 6b 79 3e 37 fa d3 3e
       0.3507465 0.27086666 0.24357483 0.41401836
0000c0 5e be 17 be 12 99 c8 3d 9b 88 7f be bb 33 16 bf
       -0.14818713 0.09794821 -0.24954455 -0.58672684
0000d0 b4 14 0f bd 3f 93 4f be aa 8e b3 3d a0 35 20 3f
       -0.034931853 -0.20271014 0.087674454 0.62581825
0000e0 4c 5c 67 3e 27 6e f4 3e 69 20 12 3e 1d f5 89 3d
       0.22593802 0.4774029 0.14270176 0.06736205
0000f0 ad 7f 1f be 3f 70 3e be a9 35 ec be b0 47 34 bb
       -0.15576048 -0.18597506 -0.4613469 -0.002750855
000100 40 af 80 bd 88 f3 7d 3c 7e 6c 99 bd d1 b0 9a 3e
       -0.06283426 0.015499957 -0.07491396 0.30213025
000110 e5 a2 f5 bd 31 dd 71 3d 28 93 68 be 5d 1a dd 3e
       -0.1199396 0.059048835 -0.22712386 0.43184176
000120 77 03 32 be 67 06 5e 3e 48 6f 92 3e 78 8d 45 bc
       -0.17384134 0.2168213 0.28600526 -0.012057655
000130 36 50 c9 3c 48 49 d0 bd 59 9b cf bd 5c c2 3a be
       0.02457438 -0.10170227 -0.10137052 -0.18238205
000140 eb 98 20 bd 16 bd 79 be 4f 3c 34 bd de 4c 48 bc
       -0.039208334 -0.24388537 -0.044002827 -0.012225358
000150 83 b3 a4 3d 84 cc 0a 3e de 95 8d 3e 38 67 5a bd
       0.08042052 0.13554579 0.27653402 -0.053321093
000160 c4 86 7a be f4 40 20 bc 3f 10 96 bc 57 1b 6f be
       -0.24465472 -0.009781111 -0.018318294 -0.23350273
000170 5f 70 3a 3a 73 2c 87 bf c1 94 8f 3e b9 84 41 3e
       0.00071120815 -1.056044 0.28043178 0.18898286
000180 57 ad 1c 3e 4d 5b f8 3d 4e d7 cf 3c c8 e8 ac 3d
       0.15300499 0.12126789 0.02537122 0.08442837
000190 84 db 5a 3e fe 85 84 bd a7 32 b2 3d a1 8e 67 be
       0.21372801 -0.064708695 0.087010674 -0.22613002
0001a0 92 3b d1 3d 65 45 9c 3e d7 25 54 3d e7 e1 ee bd
       0.1021644 0.30521694 0.0517939 -0.11664181
0001b0 9e 56 ac bd 80 1d 0a bd 1d 33 17 bf 8c 78 a1 3e
       -0.084149584 -0.03371954 -0.5906237 0.31537282
0001c0 ee d1 4c 3e 5d e3 8f be f7 60 a0 3e 09 c6 7d 3e
       0.20001957 -0.28103152 0.31323978 0.24782576
0001d0 9d c7 93 bc 62 62 66 3d a3 17 d7 be cc 83 64 bb
       -0.018039519 0.05624617 -0.4201022 -0.0034868596
0001e0 2c 37 6f 3e 65 e1 76 3e 00 e2 9d 3e 22 c7 ee 3c
       0.2336089 0.24109419 0.30836487 0.029147688
0001f0 e3 b6 da bd ec bc f8 3e 14 02 bd 3e 63 ed f5 3e
       -0.10679414 0.48581636 0.36915648 0.48032674
000200 dd 5c ab be 9e 5f 8e 3e 2f 56 6e 3e 5f 99 3c 3c
       -0.33469287 0.27807325 0.23275064 0.011511176
000210 0c 47 c1 3d a6 c3 b3 be b2 1d 7a bd 9f 32 c2 be
       0.09437379 -0.35110205 -0.061063476 -0.37929246
000220 aa 80 38 be b8 33 78 be aa 07 8c 3d 34 b7 84 bd
       -0.18017831 -0.24238479 0.06837399 -0.06480256
000230 af 08 2d 3e de 44 a8 3d 94 67 ea be 4d 53 b6 bd
       0.16897844 0.082162604 -0.4578215 -0.08902607
000240 07 47 22 be f4 ae 28 3e a4 9b 07 3e ec 2d 2b bd
       -0.15847407 0.1647299 0.13242966 -0.04179184
000250 72 34 8f 3d 47 81 d3 3e 6b 4f 11 3a 45 15 63 be
       0.06992425 0.41309568 0.0005543145 -0.22176082
000260 d1 7a 14 bd 44 46 c9 bd b5 bc 9c be 08 61 8c be
       -0.03624994 -0.09827855 -0.30612722 -0.2741778
000270 d8 bb 76 3e 13 c3 6d bf e4 a1 8d 3d 0b 19 3b be
       0.24095094 -0.92875785 0.06915644 -0.18271272
000280 cd 78 83 3e b1 f4 3e be 3a 0a 1a bd 6d ac 29 bf
       0.256781 -0.1864803 -0.03760741 -0.66278726
000290 67 c1 81 be 93 b3 b7 3e 93 c0 bb be ea ab e8 3d
       -0.25342867 0.35879192 -0.3667036 0.11360915
0002a0 a4 9f 7b 3d 02 5f 0b bd 29 f6 f2 be b2 6c b1 3e
       0.061431542 -0.034026153 -0.4745343 0.3465324
0002b0 c3 63 0b be 76 c1 84 3e c0 19 93 3e 58 ab d7 3c
       -0.13612275 0.2592885 0.28730583 0.02632682
0002c0 18 0c 4d 3e 2c dc 4f 3e a3 47 00 be e9 c0 03 bf
       0.20024145 0.20298833 -0.12527327 -0.5146623
0002d0 93 af 3f 3e f7 60 3a be a5 46 a3 3c 05 a4 9e 3e
       0.1871932 -0.18201052 0.019931147 0.30984512
0002e0 44 ac 17 bb f2 10 07 3e d4 3c 95 3d 19 2f 87 3d
       -0.002314345 0.13190058 0.07286993 0.0660078
0002f0 e8 d2 4e 3d 3b c2 67 be 4f 99 4a be b7 9c 0c bf
       0.050494105 -0.22632687 -0.19785045 -0.5492663
000300 a2 3b 9e 3e 5b f8 a1 bd 82 14 77 be b2 e9 59 3e
       0.3090487 -0.07908698 -0.24128917 0.21280554
000310 9e c5 97 3d da f3 54 be 8d 97 1e bd bd e1 e7 bd
       0.07410739 -0.20796147 -0.03871875 -0.11322353
000320 7e bd 50 be 16 45 bc 3d 34 9e 29 3f aa 5c 86 bd
       -0.20384786 0.091928646 0.66257024 -0.06560643
000330 7a 33 9f be 56 d1 8f be 20 e9 42 3e 57 38 77 bd
       -0.3109396 -0.28089398 0.19034243 -0.060356464
000340 11 56 ff 3d d3 a7 e8 3d e2 fb dd bd 42 c3 2a be
       0.12467588 0.11360135 -0.108390585 -0.16676047
000350 42 1c 8b be 12 64 94 3d 9b 46 9b 3c dc b2 15 3d
       -0.27169997 0.072456494 0.018954566 0.036547527
000360 85 84 87 be ee 7c f5 bd b1 8b 05 bd 20 cb e8 be
       -0.26468292 -0.11986719 -0.032603923 -0.45467472
000370 98 ee 6f 3e e4 8c 7d 3e 0d cb 0b 3e f4 8a a6 bc
       0.2343086 0.24760777 0.13651676 -0.02032993
000380 56 bb c7 bd 85 ac b6 bd 47 59 36 3d fb cc f6 3d
       -0.09752528 -0.08919624 0.044518735 0.12050816
000390 03 b4 08 3e 4f 59 15 bf 01 7e 71 3f e4 2b 40 be
       0.13349919 -0.583394 0.9433289 -0.18766743
0003a0 0a b2 6e 3c 65 07 7e 3d 21 72 70 3e b7 a5 b8 be
       0.014568815 0.06201877 0.23481037 -0.3606393
0003b0 6a c2 18 be 52 a8 8c 3e d5 7e 05 3e 8b 0b df 3d
       -0.14917913 0.27472168 0.13036664 0.108908735
0003c0 aa a7 a1 be 8b 33 17 be b0 67 4f be 23 70 db 3e
       -0.3157323 -0.14765756 -0.20254397 0.4285899
0003d0 33 cd 0a 3e 0d c8 88 bd c3 ea fd be 18 a4 62 3e
       0.1355484 -0.06678782 -0.4959317 0.2213291
0003e0 ee c6 0c be 84 f9 9e 3e 01 2e 9c be 7d 9b a0 be
       -0.1374776 0.3104974 -0.30503848 -0.31368628
0003f0 0f 9e 69 be 21 5c 1c bd 47 32 a7 ba 38 16 ad be
       -0.22814201 -0.0381738 -0.0012756073 -0.33806014

architecture.0.bias f4 [64]
000000 f1 ce b6 bc 0b 52 a3 be b1 56 74 3f 45 63 5d 3e
       -0.022315474 -0.3189853 0.9544478 0.216199
000010 cf e4 27 3e 8c 64 12 bf fe 95 33 bf f3 35 51 bf
       0.16395877 -0.5718467 -0.70150745 -0.81722945
000020 90 2f 6f bf fc 58 0c 3e b8 7b 27 bf e8 9a a8 3e
       -0.9343195 0.1370582 -0.65423155 0.32930684
000030 c9 07 8a 3f 4f fe 87 bf 75 8f 8e 3f ae 68 80 3f
       1.0783626 -1.0624484 1.113753 1.0031946
000040 ae eb 22 bf 67 a3 b7 be dc 3e 71 bf f4 fe 88 3e
       -0.6364087 -0.35866854 -0.9423654 0.26757014
000050 93 67 ac 3f f0 71 80 bf d7 dc 5e 3f 07 83 58 bf
       1.3469108 -1.0034771 0.87055725 -0.8457493
000060 85 95 06 3e 75 13 c7 3e 43 a0 7b 3e 3d 71 6d bf
       0.13142975 0.38882032 0.24572854 -0.9275091
000070 26 63 17 bf 4a 3a 9d bc 79 d5 aa bd 97 02 09 bf
       -0.59135664 -0.019192833 -0.08341498 -0.53519577
000080 ed eb 6d bf 24 04 4f bf 2a ae 3f bf 82 9f 27 3e
       -0.9293812 -0.80865693 -0.7487513 0.16369441
000090 95 37 8b 3f 77 ca bb be 92 f6 ee 3e 07 a8 ce bc
       1.0876337 -0.36677906 0.46672493 -0.025226606
0000a0 b2 2d da be f6 c1 0b bf d5 0a 76 3f 9e 9c 41 be
       -0.42612988 -0.54592836 0.9611028 -0.18907401
0000b0 39 68 22 3d 46 47 10 3f 47 b0 7d be b0 12 dc be
       0.039650176 0.56358755 -0.24774276 -0.42983007
0000c0 4c af 90 3e 1d 5c 8b 3f c9 da 4d 3f bf 6b 1d 3f
       0.2825874 1.0887486 0.80411965 0.6149253
0000d0 a3 6f 2e bc 37 d1 89 bf b1 54 0e bf 28 3e 97 3e
       -0.010646733 -1.0766972 -0.5559798 0.2953961
0000e0 92 c5 33 bf a5 8a 99 bf ac 05 7d 3f bb 90 8f 3f
       -0.70223343 -1.1995436 0.9883678 1.1216043
0000f0 09 87 9b 3f 46 f7 4a 3f 79 70 15 be 55 bf 2d 3e
       1.2150584 0.7928356 -0.14593686 0.16967519

architecture.2.weight f4 [64, 64]
000000 ff 85 d2 bd 17 b7 2d 3e 4a 38 c9 be df 86 af bd
       -0.10279464 0.16964374 -0.39300758 -0.085706465
000010 d1 03 c0 bd e2 6e e6 3e 2d fb 67 3d cb 53 a2 3e
       -0.09375728 0.45006472 0.056636024 0.31704554
000020 2f 4d 0b 3f db 26 0f be 97 6c f2 3e bd e1 6f bd
       0.5441465 -0.13979666 0.47348472 -0.05856489
000030 e3 dd 19 bf f7 b2 1e be df 9e ee bd fb c1 e4 be
       -0.601042 -0.15497957 -0.11651396 -0.44679245
000040 d0 78 e6 ba 16 52 5f 3e 9d cc 97 3e 6a 83 2e be
       -0.0017583612 0.21808657 0.29648295 -0.17042318
000050 44 85 49 bf 81 15 de 3e aa 3d a3 be 03 b3 61 3e
       -0.7871897 0.4337578 -0.31882983 0.22040944
000060 51 94 ee 3d 26 b0 c9 bd b6 25 52 bd 9e 2c 0b 3f
       0.11649383 -0.09848051 -0.051305495 0.54364955
000070 dd 18 ab 3c bb 12 eb bd a4 a2 1d 3e e3 42 7c 3e
       0.02088588 -0.11478182 0.15394074 0.2463489
000080 a5 44 7b 3e d5 a9 fb 3e 38 c0 93 3d 1b bf 81 3e
       0.24537905 0.4915301 0.07214397 0.25341114
000090 0e b9 96 be 63 71 37 be 1b 06 76 bd 5a d4 ae 3e
       -0.2943806 -0.17914347 -0.060064416 0.34146386
0000a0 16 bc 66 3e c3 c7 d9 bc a9 82 46 3d 1c 27 84 be
       0.22532687 -0.026584512 0.04846445 -0.25811088
0000b0 9c 31 92 be 63 f0 9c bc d5 e9 49 3d 90 59 0a bd
       -0.28553474 -0.019157594 0.049295265 -0.03377682
0000c0 95 4f c3 3d 87 d0 84 3c 18 21 f4 bd 3a 8b 8d 3e
       0.095366634 0.016212715 -0.11920375 0.27645284
0000d0 2d 05 d3 bc 5d 35 62 3e ae fb 4c 3e 10 e8 83 3d
       -0.025759304 0.22090669 0.20017883 0.06440747
0000e0 db d5 5e bc 35 e6 9a 3d 47 1e 1e bf 47 1d c0 bc
       -0.013600792 0.0756344 -0.6176495 -0.02345146
0000f0 42 e4 08 bf 13 b6 e6 be f2 7d 99 be 49 fb 88 bc
       -0.53473294 -0.45060787 -0.299789 -0.016721385
000100 f3 81 35 bd 15 4d 51 be 25 54 36 3d bf 6a 09 bd
       -0.044313382 -0.2043956 0.04451384 -0.033549067
000110 63 2c 03 bd 85 c7 16 be cf 2a 1f bd 3f 01 1b be
       -0.032024752 -0.14724548 -0.038859185 -0.15137194
000120 7b 56 db 3e 6c 2f d1 3c 82 03 fb bc 28 69 71 bc
       0.42839417 0.025535308 -0.030641321 -0.014734544
000130 5b 87 03 3c 47 f0 c5 3e 21 ff 75 3e c2 19 7e 3e
       0.008027877 0.3865988 0.24023105 0.24814513
000140 76 a7 16 be c2 ac eb 3d da 88 a6 be 8f b2 f8 bd
       -0.14712319 0.1150756 -0.32526284 -0.12143432
000150 43 e7 d4 3e 3e 99 7a bd b6 54 c4 bc d4 7e 47 be
       0.4158269 -0.0611813 -0.023966175 -0.19481975
000160 94 fe cb 3c 10 13 6f 3e c8 8e 9a bd 97 a7 3b bd
       0.024901666 0.23347116 -0.075467646 -0.045814123
000170 0a 24 05 3f 0b 94 fe 3d c9 dd 7d bc bb dc 81 3e
       0.52008116 0.12430581 -0.015494772 0.25363716
000180 3d 6a c3 be d7 24 e2 bd 2e 78 c9 bc c1 63 4d 3d
       -0.3816699 -0.11042183 -0.024593439 0.05014396
000190 e8 ea 5c 3e f7 28 84 be b0 99 5b be ec bd 8a 3d
       0.21573985 -0.25812504 -0.21445346 0.06774506
0001a0 07 17 e0 3d cd 50 c4 bc c7 b9 93 be 04 f9 bb 3c
       0.10941892 -0.02396431 -0.28852674 0.022945888
0001b0 7f 32 68 3e 55 ac 9d be b7 25 07 3e bd 75 ed bc
       0.22675513 -0.3079554 0.13197981 -0.028986806
0001c0 75 7e 5d be 1e 65 36 be 67 1f 11 bd 8f b9 81 3d
       -0.21630271 -0.1781201 -0.03543034 0.063342206
0001d0 46 da ac be a7 7c 14 3f 9b 18 66 3d 60 d9 bf 3d
       -0.3376028 0.58002704 0.05617581 0.09367633
0001e0 4b 53 2f 3e cc 0a 0c 3f ca 6b 56 bd 16 0f 8a 3e
       0.17121617 0.54703975 -0.05234889 0.26964635
0001f0 a9 bb 32 3f 77 49 0d be 06 f6 77 3e 1a 08 c5 3d
       0.69817597 -0.13797556 0.24214944 0.09620686
000200 53 23 aa 3e 3d a1 02 bf 7a b8 04 be 23 01 84 be
       0.33230075 -0.5102728 -0.12960997 -0.25782117
000210 fb 26 e8 3d 7b 92 21 bd 3e 59 bd 3d ab f8 af 3d
       0.1133556 -0.039446335 0.09245537 0.085923515
000220 81 da 1b 3e eb b6 da bc 65 1a 3d be 52 00 45 bb
       0.15220071 -0.02669855 -0.184671 -0.0030060005
000230 52 98 c1 bd 4d 12 be be a1 cc a5 ba d2 4d cc be
       -0.09452881 -0.37123337 -0.0012649485 -0.39903122
000240 21 f0 78 be 6e 07 28 bd a7 16 81 be 3a f3 b9 bc
       -0.24310352 -0.04102271 -0.25212595 -0.022698987
000250 07 e4 48 3f bc 46 70 be a5 9d 8e 3e 64 58 83 be
       0.7847294 -0.23464483 0.27854648 -0.25653374
000260 39 05 cc 3e 80 a9 ce bd 17 99 2c bd ef 38 a1 3e
       0.39847735 -0.10090923 -0.042138185 0.3148875
000270 29 5d 88 bc a9 1d a5 be 02 3e d3 3d 77 7e f3 bc
       -0.016645985 -0.3224919 0.103145614 -0.02972339
000280 b7 8a d4 bd af 25 42 3e cc bf ab be 6d c7 3d bd
       -0.1037802 0.18959688 -0.33544767 -0.046332765
000290 4f 1b e6 3e c0 0b 58 3d 18 6e 2a be 09 89 7a 3e
       0.4494271 0.05274558 -0.1664356 0.24466337
0002a0 b3 19 c5 bd 96 06 83 be 84 07 c1 3e 0b 32 a0 be
       -0.09624042 -0.25590962 0.37701046 -0.3128818
0002b0 56 ca 8b bd af c7 ff 3e 94 62 39 be bb 1f 28 be
       -0.06825702 0.49957034 -0.18104011 -0.16418354
0002c0 14 b2 a4 3d 50 50 e6 3e 7b 7a ab be 87 bf 86 3e
       0.08041778 0.4498315 -0.33491883 0.26318
0002d0 cb 60 02 3f 17 3e fe bd b4 55 af be 89 2d c8 bd
       0.50928944 -0.124141864 -0.34245074 -0.0977431
0002e0 6a a2 9d be a4 16 4d bf 7f 5c dd 3e 93 6d 4a 3e
       -0.30787975 -0.8011267 0.4323463 0.19768362
0002f0 3d cc 8f be f2 13 79 3d b3 32 5d 3e ae 39 0d bc
       -0.2808551 0.060810037 0.21601371 -0.008619709
000300 6c e1 02 3e ac c8 99 bd ee 33 5d be d8 ee ab be
       0.12781304 -0.07508978 -0.21601841 -0.3358066
000310 f9 e1 5c 3e 77 2b d7 bd 64 6c 96 bd f2 b7 4e be
       0.21570577 -0.10506337 -0.073448926 -0.20187357
000320 15 f0 a2 3e 82 9b 88 be 7f 63 29 3f a9 45 0c bf
       0.31823793 -0.26681143 0.66167444 -0.5479379
000330 7c 96 f8 be c2 e3 98 3e ca 3f 94 be b0 fe 83 be
       -0.4855231 0.29861265 -0.28954917 -0.2578025
000340 1b e1 8d 3e 6a a3 19 3c a8 cd 8d 3e da 43 4b 3e
       0.27710804 0.00937734 0.27695966 0.19850102
000350 a7 a6 b9 be b0 b2 af 3e 9c 5c 4a be 6d 7a 12 be
       -0.36259958 0.34316015 -0.1976189 -0.14304514
000360 0d 1c 92 be f0 0d bc 3d b7 1f d1 be f5 9e be 3e
       -0.28537026 0.09182346 -0.4084451 0.3723065
000370 06 67 4a 3a 93 40 2a be 0c 40 b0 be db 5e a9 be
       0.000772104 -0.16626196 -0.34423864 -0.3308018
000380 d6 43 0e 3f 19 9a 9d be 15 14 b2 3e b3 4c 70 3e
       0.5557226 -0.3078163 0.34780946 0.23466758
000390 5f 5d 3d be 1c ff 9d 3e f9 f3 38 be 6b d3 ed 3e
       -0.1849265 0.30858696 -0.18061818 0.46450362
0003a0 47 63 33 3e 86 b8 23 3e 4c 6f 87 be 8b e0 0a be
       0.1751834 0.15988359 -0.264521 -0.13562219
0003b0 c5 b3 8a 3e 5b f1 27 bf 60 f6 23 3f 48 aa 8a bd
       0.27090278 -0.65602654 0.64047813 -0.0677076
0003c0 e6 45 1e bd 1e 9f 38 3d 3d b0 b9 bd 7b f4 8a bd
       -0.03864088 0.04507362 -0.09066818 -0.06784912
0003d0 42 07 fa 3d b9 42 56 3e 07 90 18 3e 85 c7 93 3e
       0.122084156 0.2092389 0.14898692 0.2886316
0003e0 c4 26 ea 3d 63 02 ad 3d 24 76 4b 3e 73 ad 0f bc
       0.11433175 0.08447721 0.19869286 -0.008769381
0003f0 8f 2d ca be 6d 58 9a be 1d 94 c5 bc 30 96 70 be
       -0.39487883 -0.3014559 -0.024118477 -0.23494792

architecture.2.bias f4 [64]
000000 a5 7b 4e bf b0 de e2 3c a0 86 3b 3f de 0e 48 bf
       -0.80657417 0.027694076 0.73252296 -0.78147686
000010 6e 69 a9 be 02 46 f6 be e6 fd 84 3e 32 cc 0a bf
       -0.3308825 -0.48100287 0.2597496 -0.5421783
000020 2f 61 86 be e0 d5 ca be b4 9e 1a bd 9e a2 43 bd
       -0.2624602 -0.396163 -0.037749007 -0.047762506
000030 df 06 1c 3e 68 4d d9 be c8 69 9c 3e ce 94 09 bd
       0.15236996 -0.4244187 0.30549455 -0.033589177
000040 ee 4e 9d 3e 32 b9 16 3f 65 d7 cf 3f a0 33 0b 3f
       0.3072428 0.58876336 1.6237608 0.5437565
000050 e7 08 f5 be b6 bc 96 3d 64 e6 bb bd 76 d7 38 bf
       -0.47858354 0.073602125 -0.09174803 -0.7220377
000060 1b ac 53 bf eb 50 09 3f 2a 30 d6 3d cd 86 56 3e
       -0.8268449 0.53639096 0.10458405 0.2094986
000070 54 8b c9 3f 00 b0 60 be e2 f2 fb 3e 45 ab 77 3e
       1.5745645 -0.21942139 0.49208742 0.24186428
000080 ea 5d 82 be c7 c9 0a bf 7c 22 d3 3e 24 8b 89 bb
       -0.25462276 -0.5421414 0.41237247 -0.004197495
000090 a1 ad ce be 66 bc c6 bd 09 28 ed be f2 43 24 3f
       -0.40366843 -0.09703903 -0.46319607 0.64166176
0000a0 49 2b c4 bf a2 6b 1e 3e 90 e2 91 be bf 36 be bd
       -1.532571 0.15470746 -0.28493166 -0.09287786
0000b0 52 0c d1 3e e0 e9 68 3f 4d 36 89 bf d0 13 a3 3d
       0.40829712 0.90981865 -1.0719696 0.07962763
0000c0 c3 b5 3e 3e 31 2d f8 bd 16 16 60 bf 62 83 94 be
       0.18624024 -0.121179946 -0.875337 -0.29006487
0000d0 01 15 70 3e 86 e3 1e bb 21 35 4a bf 1f 24 8a 3f
       0.23445512 -0.0024244501 -0.7898732 1.0792273
0000e0 96 e0 cd bd 84 04 5f 3e 35 76 f7 3d 3f 0c 0e 3e
       -0.10052602 0.21779066 0.12083093 0.13871859
0000f0 22 38 e7 bc 6c a4 88 3e b0 ac 7e 3c c3 65 b5 bd
       -0.028225008 0.26687944 0.015544102 -0.088573

architecture.4.weight f4 [9, 64]
000000 99 c0 f1 bc 08 2e a8 3d 07 24 88 bd e2 27 54 3b
       -0.029510783 0.08211905 -0.06647497 0.0032372405
000010 bb 53 9b 3c 1e 0b 11 bd 21 b2 03 3c d8 12 90 bc
       0.018960824 -0.035410993 0.008038075 -0.01758711
000020 4e cd 51 3a f5 ba e1 bc 8f 49 87 3c 9b da 2b bd
       0.000800331 -0.027554968 0.016514568 -0.041956525
000030 f1 ab f3 3a 88 9a 1f bd 21 7a 79 3c 02 1c a9 3c
       0.0018590671 -0.03896573 0.015226872 0.020643238
000040 6b 59 40 bd 1a 3a 82 3c ec eb 33 bc ba c7 6a 3d
       -0.046960276 0.015896846 -0.010981541 0.05731938
000050 c9 08 d7 3b da 83 5d bd db 2e 82 bb 8b 25 88 bc
       0.0065623266 -0.05408082 -0.0039728708 -0.016619464
000060 6a 17 57 3b 8a 32 24 bd ef 1f 02 3c d8 e5 4e bb
       0.0032820352 -0.04008726 0.007942184 -0.0031570103
000070 96 62 27 3d 8b ef a8 3b 62 54 8c bb e7 8c 07 bc
       0.040865503 0.005155509 -0.00428252 -0.00827334
000080 96 6e e0 bd ea 85 9b 3c a7 d8 98 bb b5 b1 1a bc
       -0.109585926 0.018984754 -0.004664499 -0.009441783
000090 90 c2 d2 ba 38 28 52 bc a5 22 4b 3d 66 95 4c 3d
       -0.0016079713 -0.012826972 0.049593586 0.049947165
0000a0 59 59 66 bd 12 90 5b 3a ff d3 1a bd 55 d9 16 3b
       -0.056237552 0.0008375655 -0.03779983 0.0023017724
0000b0 be 1d a9 3d 64 92 4b bc 30 21 c8 bb 88 9a 02 bc
       0.08257626 -0.012425039 -0.006107472 -0.007971413
0000c0 ec 10 ad 3b 4d fd 8e 3c e1 7b 09 bc de 75 b5 bd
       0.0052815583 0.017454768 -0.008391351 -0.08860372
0000d0 68 b6 cb ba b5 7a fa 3a af f9 66 3c e0 07 23 bd
       -0.0015542032 0.0019110056 0.014097615 -0.039802432
0000e0 4b b4 86 bd 62 e7 ce bc 8c d0 0f bc a4 ec 73 3c
       -0.06577357 -0.025256816 -0.008777749 0.0148879625
0000f0 b5 61 99 3c 35 2d b6 bc 56 62 c7 bc 15 d7 b4 3c
       0.018723348 -0.022238353 -0.024338882 0.022075215
000100 ae 73 d1 bd 34 96 0d 3e 02 fd 50 3c 7c ca 4d bb
       -0.10227142 0.13826829 0.012755634 -0.0031401208
000110 a7 61 1f bd 23 b3 ef 3c 99 4a 95 bc c3 62 df 3c
       -0.038911488 0.029260224 -0.018224047 0.027268773
000120 ea 71 1c 3d d2 19 59 3d 61 fb 5a bc 00 53 48 bc
       0.038194574 0.05300314 -0.013365597 -0.01222682
000130 c4 26 b6 3d 76 46 82 3d 21 17 b7 bc 96 23 fc 39
       0.08894113 0.063610956 -0.022349896 0.000480917
000140 6b ab 0c bd df 1e 5f ba fb 13 9e 3d 63 fd ba bd
       -0.034343164 -0.0008511375 0.07718655 -0.09130361
000150 83 b2 7f bd be ca eb bb 97 cb 42 bd 72 3c 65 bd
       -0.0624261 -0.0071957996 -0.04755744 -0.05596585
000160 d5 3c 35 3b d5 00 45 3d 75 9b 37 3c 23 c6 7c 3a
       0.0027654667 0.048096497 0.011206497 0.0009642562
000170 83 5e 08 3d 9f 61 7c bb 2d 14 95 3c 55 e0 40 bc
       0.03329326 -0.0038510335 0.018198097 -0.011772235
000180 e8 53 2a 3d f2 4a 01 bd f5 6c 54 3c 9f 89 81 bc
       0.041583925 -0.031565614 0.0129654305 -0.015812693
000190 72 1a 41 3c 45 2f 9f 3c 99 c0 ec 3c b4 12 1d 3b
       0.01178609 0.01943172 0.028900431 0.0023967447
0001a0 8b 7a d5 3d 3d 09 32 bb b4 94 22 bd 29 b0 0b 3c
       0.10423764 -0.002716615 -0.039692596 0.008525887
0001b0 91 8f 93 3c 17 e9 7a bd dd c3 53 3d 70 34 d6 3a
       0.018012794 -0.061257448 0.05170046 0.0016342532
0001c0 48 0f 01 bd 56 d9 0f 3c b6 8c 91 3d f2 75 30 bd
       -0.031508714 0.008779844 0.071069166 -0.04308123
0001d0 bd 50 06 3a e9 b8 0a bb d2 70 83 bc 8f 52 a0 3c
       0.0005123725 -0.0021167344 -0.016045008 0.019570617
0001e0 a7 57 94 3d e1 55 b0 3b 2d a2 0a bc eb fe 31 bc
       0.07243281 0.0053813313 -0.008461517 -0.010864
0001f0 2f 9f fa 3c 3c 30 6c bc b3 6e fb 3b f1 4c 93 3d
       0.030593483 -0.014415797 0.0076731085 0.0719241
000200 df 99 d7 3c c0 04 ee bd 74 82 56 3b 5e d4 85 3c
       0.026318489 -0.11622 0.0032731565 0.016336616
000210 af 5f fc bc 30 f0 16 3c 73 78 90 bc c1 fd d5 3b
       -0.030807344 0.009212539 -0.01763556 0.006530494
000220 4b ae 58 3b 0a 43 80 bc 2f 9b 48 3b ef 79 e1 bc
       0.003306287 -0.015656967 0.0030610075 -0.027523963
000230 f8 a4 c2 3d 6a 5f 93 bc 43 29 2b bc d3 ea 52 bb
       0.095041215 -0.017989833 -0.010446849 -0.0032183423
000240 97 98 98 3d 32 f6 f9 3b ea 37 f6 bd 08 e2 79 bd
       0.07450979 0.0076282257 -0.120223835 -0.061006576
000250 50 42 9d 3c 22 bb 9b 3b 73 64 d3 bc 6d 26 1d 3c
       0.01919666 0.0047525326 -0.025804734 0.009591681
000260 2a f8 9e bd b6 49 0e 3d 5d 58 39 bb 84 07 0c bc
       -0.07762177 0.034738265 -0.0028281428 -0.008546714
000270 7f e2 41 3e 8b 92 1b 3c 5b 98 ff 3a 72 ee 26 bc
       0.18934058 0.009495388 0.0019500362 -0.010188686
000280 7f 14 c2 bd c3 0c 02 b9 f2 22 4e bd 0e 15 e8 bc
       -0.094765656 -0.0001240252 -0.050326295 -0.028330352
000290 f0 4b 11 bb 7c 8c b6 bc ae 1a b2 3c ee 13 20 bc
       -0.0022170506 -0.022283785 0.021741237 -0.009770377
0002a0 b8 a9 41 3d 6c b2 24 bb b5 1d 6f bd 40 bb 88 bb
       0.047280997 -0.0025130762 -0.05837794 -0.0041727126
0002b0 b8 6f bc bb 64 a4 d9 bb 3f 18 5e bc 37 ca 8f bc
       -0.0057506226 -0.0066419113 -0.013555585 -0.017552478
0002c0 61 bb 64 bd 0e d3 27 3a af c2 8d 3c 7b 16 46 3d
       -0.05584276 0.0006401994 0.017304746 0.048361283
0002d0 43 02 77 3b 0c 3d de bb f4 67 74 3d 02 cb 12 3d
       0.0037690557 -0.0067821797 0.05966945 0.035838135
0002e0 1b 99 6d bc c6 f3 b0 bc 14 e7 af bb 46 d5 22 bc
       -0.014501835 -0.021600615 -0.005368123 -0.009938544
0002f0 f9 79 dc 3b bd 06 d0 bc 66 93 d7 3b f8 33 4c bd
       0.0067284075 -0.025393838 0.0065788506 -0.04985425
000300 47 a1 09 bf 8f 4a 6e 3b 91 97 05 3f 6e 58 d9 be
       -0.53761715 0.0036360358 0.52184397 -0.4245028
000310 76 fd 3b bc 7f 77 6b be 5b fd 14 3d 7c 74 f7 bd
       -0.011474004 -0.22994803 0.03637443 -0.120827645
000320 43 08 7e be 79 85 78 3c 1f 11 63 be 04 f0 f0 3d
       -0.24807839 0.015168541 -0.221745 0.11764529
000330 3e 05 0c 3d 1a c0 c4 be 8c b1 12 bc f9 57 b6 3e
       0.034184687 -0.38427812 -0.008953463 0.35613993
000340 7e 65 d7 3d 11 92 f5 3e 31 58 01 3f 54 71 82 3e
       0.10517405 0.47963002 0.50525194 0.25477087
000350 4a 00 03 bf 8b 6c 39 be 52 20 27 bb 8c f0 f3 be
       -0.51172316 -0.18107812 -0.0025501442 -0.4764446
000360 df 74 f2 be 8b b1 a9 3e cc 17 36 3d 25 18 1c 3e
       -0.4735479 0.33143267 0.04445629 0.15243585
000370 65 0f d4 3e fa 18 9b be ab 2a 4f 3d 81 c5 39 3d
       0.41417995 -0.30292493 0.0505778 0.04535437
000380 48 d0 d4 3c 9f 13 1d be 7e 4b 7b 3e 16 af 9f be
       0.025978222 -0.15339516 0.24540517 -0.31188267
000390 bd db 66 be a7 00 e7 3c 89 ab 44 be 44 ad 06 3e
       -0.22544761 0.028198553 -0.1920606 0.13152033
0003a0 3a 64 b5 be 96 12 e3 bd 44 65 49 bd 0d b8 59 3e
       -0.3542803 -0.11087529 -0.04916884 0.21261616
0003b0 f5 2f 03 3f 00 4b 1e 3f c9 cc 39 be 01 0e e4 bd
       0.5124505 0.6183319 -0.18144526 -0.111354835
0003c0 a0 94 4a bd b9 fe da 3d e0 44 c4 bd 7a a9 6d 3c
       -0.049458146 0.10693116 -0.09583449 0.014505738
0003d0 19 6c 06 bd c1 b5 f8 3d d9 ad f6 be e6 68 ab 3e
       -0.032817934 0.12144042 -0.4817951 0.3347847
0003e0 6f dd 01 3b 8e 0d b4 bd 23 75 01 3f 48 8e 07 3e
       0.0019815823 -0.08791648 0.5056936 0.1323787
0003f0 2e 21 21 3d 8f 31 98 3b 8c 63 a2 be 10 df ac bd
       0.039338283 0.0046445797 -0.31716573 -0.08440983

architecture.4.bias f4 [9]
000000 70 94 b5 bd db 00 3c 3d fa fc cb bc e3 d8 2d 3f
       -0.08866203 0.045899253 -0.024900902 0.6790907
000010 eb 2a a9 3d 86 dc 33 bd 24 75 75 bd 40 78 1c 3f
       0.08260139 -0.04391148 -0.059926167 0.61120987
000020 5c 33 13 be
       -0.14375061

std f4 [9]
000000 cd cc 4c 3e cd cc 4c 3e cd cc 4c 3e cd cc 4c 3e
       0.2 0.2 0.2 0.2
000010 cd cc 4c 3e cd cc 4c 3e cd cc 4c 3e cd cc 4c 3e
       0.2 0.2 0.2 0.2
000020 cd cc 4c 3e
       0.2

architecture.0.weight f4 [64, 27]
000000 79 8d b1 bc 7e c1 2d bd d7 e9 ff bc 59 de 6c 3e
       -0.021673905 -0.042420857 -0.031239433 0.23131694
000010 a2 75 17 3f 81 14 d4 be 5f e1 0b bf ef cf 17 bf
       0.5916387 -0.41421893 -0.54640764 -0.59301656
000020 75 ce 8c bf 39 44 82 3d b4 53 09 3e 1d dc 07 3d
       -1.1000506 0.06360669 0.13410836 0.0331689
000030 cd c0 5a 3c b0 63 e3 3b 6d 2c 34 3b cc 68 08 bc
       0.013351631 0.006939374 0.00274923 -0.008325767
000040 c9 b8 b5 3b 74 26 04 bf 78 d3 2d be 5f 3e 1b bf
       0.0055457097 -0.51621175 -0.169752 -0.60642046
000050 ad e8 e3 3e ac d0 0e 3f fb b6 1a 3f 26 ab 90 3f
       0.44513455 0.5578716 0.60435456 1.130223
000060 d1 bd c4 bd 5f 3f e9 bd 76 48 8c bd 7b c9 50 3c
       -0.09606517 -0.1138904 -0.06849758 0.012743349
000070 cd 8e 10 3b 86 66 84 3d 85 58 38 bd eb aa a0 bc
       0.0022057772 0.06464867 -0.045006294 -0.01961275
000080 b0 1d bd 3d 30 4b d8 bd 82 77 d2 be 13 df 09 3e
       0.09234178 -0.10561216 -0.41106802 0.13464002
000090 b2 9e bf 3d 22 f2 87 be bb f9 04 be 7e c8 a9 3d
       0.093564406 -0.2655192 -0.1298589 0.08290194
0000a0 e6 da ad 3d ad a8 0a be fe d9 12 3e d2 21 a8 bd
       0.08489017 -0.13540907 0.1434097 -0.08209576
0000b0 c0 a7 0f bd d1 27 a4 be 0f 89 01 3e f9 39 26 3d
       -0.03507209 -0.32061628 0.1264994 0.04058263
0000c0 9a 94 6e bd 2c 59 00 3f 41 d5 51 3d bb c6 1f 3e
       -0.058247186 0.50136065 0.051228765 0.15603153
0000d0 02 b2 b7 bd ad 44 26 be 15 7e 06 be 9f 5a 48 bd
       -0.08969499 -0.16237135 -0.13134034 -0.048914548
0000e0 6e 4f fe bc 5d a8 4c 3e 91 cf af be 8a 87 08 3f
       -0.031043734 0.199861 -0.34338048 0.53331816
0000f0 49 31 d2 3e 82 8d 0d 3f 85 ac ab be 69 15 d3 3d
       0.41053227 0.5529405 -0.3353006 0.10306818
000100 b2 3a 94 bc 2c 5c b6 3d c4 e2 1f be dc f0 0b be
       -0.018094394 0.08904299 -0.15613848 -0.136661
000110 38 11 98 bc 96 59 78 3e e0 e3 f4 bd bd be 6b 3d
       -0.018562898 0.24252924 -0.11957526 0.05755495
000120 34 de b2 bd 08 6d ab 3e 57 60 1b bf 85 a0 bb be
       -0.08733788 0.33481622 -0.6069388 -0.36645904
000130 5b a7 1b bf 81 42 d8 3e 14 d1 4f 3c 12 fd fb 3d
       -0.6080224 0.42238238 0.012684125 0.12304129
000140 9d 7e 14 be 1f c5 d4 3c 63 3f 0b bd 7f 22 a5 3e
       -0.14501424 0.0259729 -0.033995997 0.3225288
000150 eb eb d1 be e4 0b 41 3e 6c bb 0f 3e 28 37 aa 3d
       -0.41000304 0.18852192 0.1403634 0.083113015
000160 ad 84 61 be 74 5f 62 3e 43 55 c4 be 36 11 c6 3e
       -0.22023268 0.22106725 -0.383463 0.38685006
000170 05 6e 7b 3e 33 a4 92 bc bc e1 71 bd 3d fa a5 bc
       0.24553688 -0.017900562 -0.059053168 -0.020260924
000180 38 db 0a 3c 0f d3 81 bc e1 ca 3f bb c6 e7 c8 3e
       0.008475117 -0.01584771 -0.0029265212 0.3923933
000190 26 a2 3d be 17 f6 03 be c4 cc 1a be f0 8d 5a 3e
       -0.18518886 -0.12886845 -0.15117174 0.21343207
0001a0 26 55 fb bd 8a a6 a6 3e f6 b5 a7 be d2 ca 8c be
       -0.122721 0.32548934 -0.32756013 -0.2749849
0001b0 e2 ac 64 3c dc 2d f3 3c 35 2b 3f bc 18 17 ca bc
       0.013957234 0.029684953 -0.011668016 -0.024669215
0001c0 02 9e fa 3d ea 9d 78 be 78 dc 91 be 7e 27 e7 3d
       0.12237169 -0.2427899 -0.28488517 0.112868294
0001d0 dc 45 9a 3d f7 8a 4a 3e 49 30 13 bd c3 12 57 3d
       0.07532856 0.19779573 -0.03593472 0.052508127
0001e0 66 07 b1 bd 7e 46 0f 3e b4 bd 87 be 84 71 1d 3d
       -0.08643989 0.13991734 -0.2651192 0.038438335
0001f0 24 38 1d bd 78 94 cd 3c 84 66 0f ba 02 70 52 be
       -0.038383618 0.02509521 -0.0005470293 -0.2055054
000200 8b 0a 85 3d 12 ca e3 3d 29 73 20 be 4c 12 b0 3d
       0.064961515 0.11122526 -0.1566893 0.0859724
000210 a1 11 79 3e 8b df 58 3d 41 da 04 be 75 b9 31 ba
       0.24323131 0.052947562 -0.12973882 -0.00067796494
000220 a6 aa 51 bc d9 b7 f7 bc d2 b8 8b 3d 8c 9c 23 bc
       -0.012797033 -0.030239033 0.06822361 -0.009986054
000230 57 b8 57 bd 00 02 c7 3b fe 9b a1 3d 90 03 7d bd
       -0.052666035 0.0060732365 0.07891081 -0.061770976
000240 f3 31 72 3d 0d 49 b8 bb 01 2a 97 3d 0c 6e 6b 3e
       0.059129667 -0.0056239427 0.073810585 0.22991198
000250 94 e9 ea 3e d1 f7 64 3f 8c e5 01 3e 33 80 d4 bd
       0.4588133 0.8944064 0.12685221 -0.103760146
000260 94 50 36 be d4 75 e3 bc 99 fe ee bc fc 5c 5f 3d
       -0.17804176 -0.027766146 -0.029174136 0.054532036
000270 e1 ec fc bb 42 d8 45 bd 34 99 5d 3d 7c 6c 24 3c
       -0.007718668 -0.048301943 0.054101184 0.01003563
000280 e6 c4 1b bd 04 e9 af bc 1f 4c ca bb 7b bf 0d bb
       -0.038029574 -0.021473415 -0.006173625 -0.0021629024
000290 a2 b2 51 3d 51 fb e6 bd e7 8f f1 3d 48 20 06 bd
       0.05119575 -0.112784036 0.11795025 -0.03274563
0002a0 12 22 c5 bd a9 08 35 bd 2f cd 50 3d 7a dc 16 3d
       -0.09625639 -0.044197712 0.05097693 0.036831357
0002b0 be d1 85 bc 79 b7 c0 bd 3c 5a 91 bd 54 c0 23 be
       -0.016335364 -0.09409995 -0.07097289 -0.15991336
0002c0 1f dd 53 3c 4b 05 24 bc d8 99 9d bb 25 12 24 3a
       0.012931137 -0.010011028 -0.0048095994 0.0006258807
0002d0 97 1a cf 3d 28 e8 0e 3d ba 03 f3 3d 9a 41 2d 3d
       0.101124935 0.03488937 0.11865945 0.04229889
0002e0 91 c1 93 3d 88 05 08 3e 38 89 bd bd 1d c9 60 3c
       0.07214654 0.1328336 -0.09254688 0.013719824
0002f0 c8 64 1c 3e ff fa 39 bd 05 07 b2 3c 27 45 0a ba
       0.1527282 -0.045405384 0.021731863 -0.0005274587
000300 b9 e9 f8 3d 2b 50 c5 bd ae 59 3b 3e 29 9f 84 bd
       0.12153954 -0.096344315 0.18295929 -0.0647567
000310 79 74 36 3e 2c 8a c7 bc e5 c5 cb 3d 27 dd b8 3d
       0.17817868 -0.024357878 0.09949855 0.090265565
000320 e6 19 c7 bc 8e 7b e9 3e fd 12 02 bf 65 e2 35 3e
       -0.024304342 0.45602077 -0.50810224 0.17762144
000330 da bd 3b 3d a2 9f 7e bc d6 1e a6 3c 48 3a 57 bd
       0.045835353 -0.015540989 0.020278376 -0.052545816
000340 60 47 ad 3c 85 f1 95 bc c9 ca 5f bb fe 9a c5 bd
       0.021152198 -0.018303642 -0.003414797 -0.09648703
000350 ba 8f b6 bd a7 64 b7 bd f7 27 74 bc d2 3b 06 3d
       -0.089141324 -0.08954745 -0.0149021065 0.032771893
000360 d5 93 5a bd c1 72 77 bd 14 8e 0b be 2a ab 94 bd
       -0.05336364 -0.060412172 -0.13628417 -0.072592095
000370 02 84 8a 3e 60 06 b4 be de fe c5 3b 18 a6 d2 3d
       0.2705384 -0.35161114 0.0060423454 0.10285586
000380 82 e7 87 3e ec b4 74 be 8d 1b 02 3e 47 12 56 be
       0.26543814 -0.23897141 0.12705822 -0.2090541
000390 12 c3 03 be a5 fc 14 3d df 1a a1 be e6 a0 00 3d
       -0.12867382 0.036373753 -0.31465814 0.031403445
0003a0 a0 c2 96 3e d7 4c 00 3e fb 92 40 bd 69 a2 58 be
       0.29445362 0.12529312 -0.04701517 -0.21155705
0003b0 1c b8 9c 3e e2 ee 2c 3e 17 f3 bd 3c 41 31 58 3d
       0.30609214 0.16888002 0.023187203 0.052781347
0003c0 99 99 10 3e 6d 90 83 bd c2 eb 77 be 35 32 94 3e
       0.14121093 -0.064240314 -0.24211028 0.28944555
0003d0 d3 ed e9 bd c9 64 35 bd 7a 8d 13 bd 51 3e b5 3e
       -0.114223145 -0.04428557 -0.036023594 0.35399106
0003e0 ab 32 de bd 5a 72 12 3e 05 c4 7b be 36 0b a7 3e
       -0.10849508 0.14301434 -0.24586494 0.3262574
0003f0 58 2f 58 3e 0d ad 90 be 40 60 fa 3e dd 52 fc 39
       0.2111181 -0.28257027 0.48901558 0.00048126924

architecture.0.bias f4 [64]
000000 c3 fd 12 ba c8 69 7b bf 5d 19 a8 3d e4 75 aa 3f
       -0.00056072715 -0.98208284 0.08207963 1.3317227
000010 3f 34 7d 3f 17 a2 6a bf c2 bb b9 bf bd 38 5d 3f
       0.98907846 -0.9165358 -1.4510424 0.864147
000020 60 ff 92 3e 19 cd b4 3f 53 33 21 bf b6 1e 26 3f
       0.2871046 1.4125091 -0.6296894 0.6489061
000030 e1 ef 98 3f 11 bb 06 3f 1a 88 9c bf 6c 08 5d 3f
       1.1948205 0.5262919 -1.2229035 0.86340976
000040 59 af c9 3e d7 44 10 3f 72 d2 87 bf b3 b5 9b bf
       0.39391592 0.5635504 -1.0611098 -1.2164825
000050 1b 59 9e bf 73 ec bc bf 87 ed 9a bf 89 b9 ca 3d
       -1.2370943 -1.4759659 -1.2103738 0.09898669
000060 d0 1b 4a bf 03 53 d8 3e 3f 93 9e bf 85 e0 30 bf
       -0.7894869 0.42250833 -1.2388686 -0.6909259
000070 fc 73 14 bf 24 19 90 bf c2 92 77 bf 80 8d 51 bf
       -0.5798948 -1.1257672 -0.9670831 -0.81856537
000080 66 fe b0 bf c1 14 4c 3e 3e d2 cc be 90 f1 6d 3f
       -1.3827636 0.19929792 -0.40004152 0.9294672
000090 83 63 63 3f 9e e5 0d bf 43 9a a4 bf ea b7 ce bd
       0.8882372 -0.55428493 -1.2859577 -0.100936726
0000a0 e6 55 2b 3e ed 13 9c 3f d6 0b 5f bf a0 a1 10 3f
       0.16731986 1.2193581 -0.87127435 0.5649662
0000b0 8e 19 89 be 0b 0d 96 bf 34 95 5e 3f dd d6 5d 3f
       -0.2677731 -1.172273 0.86946416 0.8665598
0000c0 25 18 db bd f6 a3 56 3f 1e cb 8f bf 22 b2 65 3f
       -0.106979646 0.83843935 -1.1233861 0.89724934
0000d0 01 e7 b2 bf 6b b8 bd 3f c1 8d 84 3e 7a e6 a4 bf
       -1.3976747 1.4821905 0.258894 -1.2882836
0000e0 df 27 82 bf 3e d5 9b 3f 68 98 df bb 7a a0 80 bf
       -1.0168418 1.2174451 -0.006823588 -1.0048974
0000f0 49 55 83 3e 91 b2 fb bc 57 ae ea be 89 cf 67 bd
       0.25651005 -0.030724796 -0.45836136 -0.056594405

architecture.2.weight f4 [64, 64]
000000 8c e4 b4 be e3 99 08 bf 53 4f 8c 3d 2a fb 19 bf
       -0.35330617 -0.5335981 0.068510674 -0.6014887
000010 e4 7b eb 3e 54 7b da bb 93 ea 95 3e 27 b6 1d bc
       0.4599296 -0.006667534 0.29280528 -0.009625948
000020 77 8d 9f 3e fb 1b 37 bf 65 d3 87 be 11 64 fb 3d
       0.31162617 -0.7152707 -0.2652847 0.122749455
000030 45 15 4e be 33 fe 6d 3d 69 fe b9 3e 6e e6 26 3e
       -0.20125301 0.05810375 0.36326912 0.1629884
000040 88 5d 25 3e e4 37 05 bf ec 38 d9 3e fa 41 8b bd
       0.1614896 -0.5203841 0.4242624 -0.067996934
000050 d8 42 27 3e 82 ac fb be f3 57 dd 3e d8 73 9d bd
       0.16334093 -0.4915505 0.43231162 -0.07688111
000060 d1 fc a3 bd bd 3e 85 3d cf ff 1d 3f c9 a1 f2 bd
       -0.08007205 0.06506107 0.6171846 -0.11847264
000070 dc 6a a5 3d 40 c0 c6 3e d2 8e 1e 3e 9c e8 32 3d
       0.080770224 0.3881855 0.15484169 0.043678865
000080 b5 2f 4a 3f f3 1d 6a 3e 8d ee f2 bc 09 8b ee 3d
       0.78979045 0.22862987 -0.029654766 0.116476126
000090 e9 ae 0a 3d 15 21 d8 bd ee c3 73 3e c4 8d bf bd
       0.033858214 -0.10553185 0.2380521 -0.093532115
0000a0 c8 3f aa 3e cc ce 1f 3e 6c 5a 08 3e 11 d0 66 3f
       0.33251786 0.1560623 0.13315743 0.90161234
0000b0 04 13 0f 3d db 3a 05 3f 9c 00 29 3f 26 d7 1d 3e
       0.034930244 0.5204293 0.66016555 0.15414104
0000c0 46 5e 52 bb 1f 44 4e 3e d4 8c e1 3a 4e 9a 48 3d
       -0.0032099648 0.20143174 0.0017208108 0.04897528
0000d0 59 7d 26 be 9f 18 2c 3e 2d af e2 3d 05 ab f8 3e
       -0.16258754 0.16806267 0.110685684 0.48567978
0000e0 2e d2 87 3b 27 ed 9d be 7c c5 97 bf e5 10 a5 3d
       0.0041449284 -0.30844995 -1.1857142 0.08059863
0000f0 d3 66 c6 3e 90 94 01 3f f0 a0 8d be 7e 85 4c 3d
       0.38750324 0.50617313 -0.27661848 0.049931996
000100 4e b3 c0 be 4e ef 35 bf 75 a6 be 3e c8 86 2e 3f
       -0.376368 -0.71068275 0.37236372 0.6817441
000110 bd db 07 3f f2 69 08 bf 94 fa 6b bf 15 88 ca 3e
       0.5306967 -0.5328666 -0.92179227 0.39556947
000120 90 f7 cf 3e 91 86 d2 3e 27 94 13 bf a1 78 d1 3e
       0.40618563 0.4111829 -0.5764794 0.40912345
000130 5a c9 45 3e cd 6b 49 3e e3 e6 fa be 91 df 79 3e
       0.19315091 0.19670029 -0.49004278 0.2440169
000140 8e 7e da 3c a5 b1 ae 3e a1 2c 01 bf d3 73 80 bf
       0.026671674 0.34119907 -0.50458723 -1.0035347
000150 74 85 09 bf e2 cc 86 bf 80 6e 0c bf e5 c4 50 bd
       -0.5371926 -1.0531275 -0.5485611 -0.050969023
000160 b5 f9 90 be 7c 51 ce bd e3 ba d5 be 02 86 9c 3e
       -0.2831551 -0.10074136 -0.41744146 0.3057099
000170 46 fd 99 be fa e0 2a bf de 95 f8 be 02 e5 0d bf
       -0.30076045 -0.66749537 -0.4855184 -0.55427563
000180 ba 3e 30 bf 71 91 82 3e b5 c0 0d bf 67 9c 00 3f
       -0.68845713 0.25501588 -0.5537217 0.5023865
000190 a7 5c 84 3e bc a4 d6 be 50 17 47 be 41 96 dc bd
       0.25851938 -0.41922557 -0.19442487 -0.10770846
0001a0 67 61 35 3e 42 84 fc 3e 6e 12 b3 be 94 fb c6 ba
       0.17712937 0.49319655 -0.34974998 -0.0015181177
0001b0 ba 5f 54 be 5c a6 1e 3d bc 51 19 be 6e 6b 9e 3e
       -0.20739642 0.03873287 -0.14972585 0.30941337
0001c0 21 87 5e be 40 50 1f 3e 39 72 f3 be 0a c2 8e bc
       -0.21731235 0.15557957 -0.47548082 -0.01742651
0001d0 06 31 17 bf 43 1f 3d 3f 43 30 d7 3b df f6 26 bf
       -0.5905918 0.73875827 0.0065670325 -0.65220445
0001e0 8e a7 ad be a2 bd 53 3f bb cd 98 be 5b b2 ff be
       -0.33916897 0.8271123 -0.2984446 -0.49940762
0001f0 9b 69 1c be 12 16 8e be 16 7e bc 3d 41 39 da bc
       -0.1527466 -0.27751213 0.092037365 -0.026638629
000200 e2 08 07 3f 9d a5 2b 3f ad 9d e7 be 58 11 7a bf
       0.5274793 0.6704958 -0.45237485 -0.97682714
000210 f9 f8 a9 be 26 1b 1c 3f 34 7a 24 3f 4b e2 1a bf
       -0.33197764 0.60978925 0.6424897 -0.60501546
000220 23 f4 dc be c5 32 2b bf 01 f3 ba 3e fe 79 a2 be
       -0.43155012 -0.66874343 0.36513522 -0.31733698
000230 02 5f 43 be 79 45 c8 be 65 26 02 3f 71 e3 0b bf
       -0.19079211 -0.39115503 0.50839835 -0.54643923
000240 25 6f 58 be c7 32 6a be da 7c 51 3f f2 7a 3e 3f
       -0.21136148 -0.22870933 0.81831133 0.7440635
000250 8f ac 5f 3e 32 7e 66 3f fe 0e 7c 3e 62 4e ec bd
       0.2184317 0.9003631 0.24615094 -0.11538388
000260 fb 88 9f 3e 5e ef 4a bd f9 45 cc 3e 7b 77 17 be
       0.31159195 -0.049544685 0.39897135 -0.14791672
000270 94 f4 e7 3d 3c 2e 11 3f 99 de 3a 3f 6c 6f 0e 3f
       0.113259465 0.56711173 0.7299591 0.55638766
000280 fb 53 56 3f be ce d3 bc bc d8 0b 3f 47 fb b7 be
       0.83721894 -0.025855418 0.54627585 -0.35933897
000290 96 3a 9c be 0c 38 24 3f 8d 8b e8 bd 38 05 9d 3e
       -0.30513448 0.6414802 -0.11354742 0.30668044
0002a0 50 9c bd 3d 7c 38 59 bf fe c0 e1 3e e1 5d 0d bd
       0.0925833 -0.84851813 0.44092554 -0.034513358
0002b0 8d 41 23 be 53 25 e4 bd 57 9f 02 bd 5f 64 01 bf
       -0.15942974 -0.111399315 -0.03189024 -0.5054378
0002c0 72 75 03 3d 2d 4c 05 be ab 0c 88 3c 32 ea c1 be
       0.032094426 -0.1301734 0.016607603 -0.3787399
0002d0 6a 4a 15 3f 27 6a 35 bf 80 49 09 be 46 50 ed 3d
       0.5831667 -0.708651 -0.13406944 0.115875766
0002e0 b2 f7 29 3f 01 2f b6 bf a3 d9 dd 3e 9d 81 49 3f
       0.6639358 -1.4233094 0.43330106 0.787134
0002f0 61 5c 80 3e db 21 e4 3e c2 32 ce bd bc 51 74 3c
       0.2507048 0.4455708 -0.10068275 0.014912065
000300 db dc e2 bd ed bc 9b be 29 2f e9 be 51 3c 67 3f
       -0.11077281 -0.30417576 -0.45543793 0.9032641
000310 6c e0 b8 3d 6c 4e 05 be 13 15 9a 3e ed b5 78 3e
       0.0902718 -0.13018197 0.30094203 0.24288149
000320 95 a8 a5 3e ad 9f 17 3f ac b3 d2 bd 7b 65 41 3e
       0.3235518 0.5922802 -0.10288176 0.18886368
000330 84 e5 68 3e 24 95 c3 be d0 9c f1 be 06 58 d0 3d
       0.22743803 -0.38199723 -0.4718995 0.10173039
000340 9a 46 9f 3e 84 7c 40 bf dd ed 07 bf 8b b7 4e 3f
       0.31108552 -0.75189996 -0.53097326 0.80748814
000350 f8 5b e2 3e b4 8b 86 3e a8 13 dc be f8 05 19 bc
       0.44210792 0.2627846 -0.42983747 -0.009339802
000360 43 fe ed 3e e4 6b 40 be 46 fe 53 bf 4d 8b b1 3d
       0.4648305 -0.18791157 -0.82809865 0.08669148
000370 3c 44 e4 bc 6a 34 02 3f ce 89 22 be fb 52 9f 3e
       -0.027864568 0.5086123 -0.15872881 0.31117997
000380 2b 2c 42 bf ed b6 5d be 1e 38 d0 3e 0e f5 02 3e
       -0.75848645 -0.21651812 0.40667814 0.12788793
000390 cf ea 32 3d a9 ce 54 3e bf b5 8b 3d 6c 15 02 3f
       0.043680962 0.2078196 0.06821775 0.5081394
0003a0 93 bc 6e 3e c2 14 43 3f 39 1c dc 3b 16 35 86 3e
       0.23314123 0.7620355 0.0067172316 0.26212376
0003b0 13 65 0b 3f 96 1d 1e bf 9c 26 61 3e f0 39 ea bd
       0.544511 -0.61763895 0.21987385 -0.11436832
0003c0 68 59 3a be 14 10 d7 be 8a 8f 0f be 58 a5 a8 bd
       -0.18198168 -0.42004454 -0.140196 -0.08234662
0003d0 76 ad fa 3e 10 0c 0f bf 5b 21 99 3e 77 5e e7 be
       0.48960465 -0.5587778 0.2990826 -0.45189258
0003e0 66 a8 61 3e 8a 09 33 3e a9 da c9 be 88 4d e2 bc
       0.22036895 0.17484108 -0.39424637 -0.02762486
0003f0 4c c4 3b 3e 39 bc d1 3d 20 91 92 be 41 f9 1e be
       0.183366 0.10240979 -0.28626347 -0.1552477

architecture.2.bias f4 [64]
000000 dc 79 c1 3e 76 90 86 3f a9 9f a2 bf ae 2c c0 be
       0.37788284 1.0512836 -1.2704974 -0.37534088
000010 7c 69 37 3e 6d e0 95 bf f1 02 8f 3f f6 2b 76 bf
       0.17911333 -1.1709114 1.1172773 -0.9616083
000020 31 6b a6 bf 0d 92 46 3f 0d b6 2a 3f ff 53 a4 bf
       -1.3001462 0.77566606 0.6668404 -1.2838134
000030 25 5b 8b bf b3 48 db 3e 9e 2f 27 3e 91 fe 28 3f
       -1.088719 0.42828903 0.16326758 0.6601344
000040 20 0a a0 3f ef cb 08 3f 89 5c 04 bf 37 2d 9d 3f
       1.250309 0.5343618 -0.517037 1.2279423
000050 18 b7 b7 3e 11 1a 60 bf 6e 3b dc 3e e0 c2 a4 3f
       0.35881877 -0.87539774 0.4301409 1.2871971
000060 34 27 fb be 4a e1 17 3f fc 34 ad 3f 93 18 88 be
       -0.49053347 0.5932814 1.3531795 -0.2658125
000070 82 d9 61 bf 83 41 b9 be fc 39 9f bf 46 dd f4 bc
       -0.88222516 -0.36182794 -1.243957 -0.029890668
000080 8d 2c a2 bf 1c ca c4 3e 85 3b 18 3f 5a 00 9d bf
       -1.2669846 0.38435447 0.5946582 -1.2265732
000090 cb bc a1 bf dd 91 b9 3f 36 4c 18 bf 2a 3b 40 bf
       -1.263574 1.4497639 -0.5949129 -0.7509028
0000a0 e9 d8 e9 be 9d 88 a3 bf 12 1d 5b bf af c5 1d 3f
       -0.45673302 -1.2776066 -0.8559123 0.61629766
0000b0 8b 2c 9c bf b4 dd 20 3f 56 65 c0 be da be 4f 3f
       -1.2201093 0.6283829 -0.37577313 0.8115059
0000c0 80 4e fb be 3b 36 98 3f ff bb b7 3f 62 37 de be
       -0.49083328 1.189155 1.4354247 -0.4340163
0000d0 8a 7c a1 bf 6b df 6e bf 39 30 58 bf 99 a5 64 3e
       -1.2616131 -0.9330966 -0.8444858 0.22328795
0000e0 c7 46 f8 3e 49 b0 f1 3e f2 0f eb be 6c 5a 76 3f
       0.484915 0.47204807 -0.45910603 0.9623172
0000f0 ec 65 54 bf c9 bb 2f 3f ee 1b 96 bf 4f 5a 9e 3f
       -0.8296802 0.6864591 -1.1727273 1.237131

architecture.4.weight f4 [1, 64]
000000 aa 82 ff c0 cf ed a6 c0 6b 0b a6 40 db 1f fe 40
       -7.9847 -5.2165294 5.188894 7.9413886
000010 e4 e4 e3 c0 a9 4c a5 40 bb 5b a4 c0 78 3b a7 40
       -7.1216908 5.165608 -5.1361976 5.2260094
000020 b1 84 a7 40 5e c6 ab c0 c6 4b a3 c0 1d a3 a8 40
       5.2349477 -5.3679647 -5.1029997 5.2699113
000030 ca 7b a8 40 05 00 fc c0 0b 46 d5 c0 1e 7a cf c0
       5.265111 -7.8750024 -6.6648 -6.483657
000040 15 06 ac c0 c5 10 f3 c0 66 02 d1 40 bf 72 ab c0
       -5.3757424 -7.595797 6.531543 -5.357757
000050 94 f6 da c0 d3 c5 cc 40 94 c4 d4 c0 4f 14 a7 c0
       -6.8426 6.3991485 -6.6489964 -5.221229
000060 b5 aa d4 40 ca 14 05 c1 ad 42 a4 c0 72 9d eb 40
       6.6458383 -8.317575 -5.133139 7.3629694
000070 62 58 ac 40 ed a8 d6 40 07 23 a6 40 bb 25 00 41
       5.385789 6.708121 5.191776 8.009212
000080 b5 85 a4 40 7c e9 e4 c0 b8 93 f3 c0 5f c0 a3 40
       5.1413217 -7.1535015 -7.611782 5.117233
000090 59 53 a5 40 ff cb a4 c0 53 a0 8d 40 f5 b8 a7 40
       5.1664243 -5.149902 4.425821 5.241328
0000a0 b3 a9 d6 40 1d 1a a3 40 a6 96 96 40 68 8e a5 c0
       6.708215 5.0969377 4.7058897 -5.1736336
0000b0 e3 28 a8 40 d4 9b f5 c0 e4 89 c2 40 57 73 ae c0
       5.254991 -7.675272 6.0793324 -5.4515796
0000c0 06 bb ce 40 ed 10 a6 c0 2d bb a3 c0 a1 df f3 40
       6.46033 -5.189566 -5.1165986 7.6210485
0000d0 6d 82 a3 40 b0 af 90 40 21 8a a6 40 11 a3 03 c1
       5.109671 4.521446 5.2043614 -8.227311
0000e0 31 61 f9 c0 f3 aa ae c0 65 92 f0 40 39 b8 b0 c0
       -7.793114 -5.458368 7.5178704 -5.522488
0000f0 e1 56 a6 40 48 3e a9 c0 af 10 a2 40 03 28 a9 c0
       5.1981053 -5.2888527 5.0645366 -5.2861342
