raisimGymTorch/data/ouzel_only_planning/2022-05-09-12-17-53/full_86000.pt (torch, 162032 bytes, 36 tensors)

architecture.0.weight f4 [64, 27]
00000000: 188c 953a 6ce0 04bf 6b2e 1c3d 3c38 0f3f
00000010: 70b5 f4bd 0c6a 94be a8f2 1d3d 9e1a 213f
00000020: a41a 073e 3939 253e f8a8 0c3d 8263 a2bd
00000030: 5c03 f03d db6d 01bf a049 4fbf 939c 06bd
00000040: 3778 bb3f 541a c03f a2d2 d23e 7986 b4be
00000050: f711 f6bd 83dd dd3e 8ab2 7e3e 218b 873d
00000060: 6f86 8b3e fabe a7be a475 693d 837f d23d
00000070: 28df 1d3e 1068 24be 552c 4cbe 1fb6 1a3e
00000080: 1d65 993d 5f89 6abd 764a 01bc 764c f9bd
00000090: ca31 a0bc 7f5e 54be af47 433e 0d8e cebf
000000a0: d53f 37be e473 12bf 6196 3c3f 0d04 c2bd
000000b0: 49a0 053f c313 03be 5d12 803d 0491 893e
000000c0: dc2a 87ba 62f4 a8bd e3f7 573d 76db 05bf
000000d0: e779 99bd 0168 a8be 89c1 be3e bd04 273f
000000e0: 4ebb 253e 2b83 183f 130c 9f3e 62b6 083f
000000f0: 0073 cdbe c445 c2bd 9695 23bf 19c6 a0bb
00000100: 7c11 6fbe 4ff7 d6bd 244d efbe c377 213f
00000110: d02d e5be 7ace 39bd 9c67 c2be f45e 103f
00000120: 3bdc 0d3c 8e26 803e 12fb 523f c2a7 82be
00000130: 54cf 3c3e 1677 a4be 575c 7cbd 4ff4 68be
00000140: b112 4dbe 2903 93bf fcd3 1fbf 3ada fe3d
00000150: 2fd4 cbbd 7011 a1be 870d 5cbd 7f20 91be
00000160: b7bf 883d 30ca 6cbe cdb7 f23c ae33 d9be
00000170: b10a 5e3d c211 fcbf e748 4a3e d95c 933f
00000180: 55c2 503d 472b b1bd 63d1 803c 5a52 24be
00000190: 422d a6be f1af b6be c13e 07bd b8d6 063d
000001a0: 768c 54be 0838 6b3e 6a55 2ebd 81a6 f8bd
000001b0: e293 ee3e db44 883e e674 f9be 6963 d03e
000001c0: 96b4 20be 5739 06bf 7683 e33e 26b7 67bc
000001d0: fcee 503d 8da1 aebe e28a dcbe 44b5 c3bd
000001e0: 0ce0 da3e f854 ec3e 16ea 653f d6fc 10bf
000001f0: 6aae ccbc 3813 033f ef6e 953e 4045 843e
00000200: 7397 25bf 48b4 bd3e 8387 8f3c da83 ff3d
00000210: 5ae1 1fbe 8fa1 50be aaed 1cbe 7e16 983e
00000220: aea7 57be 12f1 eebe 04e1 48bd 0549 78be
00000230: 2372 8dbd 0f28 2dbe 59a8 ccbe 8569 e3be
00000240: 1975 78be 1ddd a43e a293 b83e 8f4d 43be
00000250: 0310 4c3f 1769 1d3f 5cc2 303f 7f50 993e
00000260: 6bf9 8fbe 9f7f fabd 9d76 e9be 765b 16bf
00000270: 0bae 8b3d ef1d 55bf fff6 99be 209f 12be
00000280: 3249 c03e d414 c93d f544 773c 3012 24bf
00000290: cabe 08bf 01c0 253e 0e57 d6be 5d79 393d
000002a0: 0041 91be 86cb 95bd 2885 f9be e3c1 a43e
000002b0: b2ca bf3d bcb0 7a3e 3077 3dbc f903 663f
000002c0: f4d5 9d3e 0eba 1d3f b764 25be 8063 67bf
000002d0: e3f6 1dbd 4ce6 28be 9038 11be f024 5abe
000002e0: 0456 b9bd 1f92 9b3d b5d0 183e 8c28 ce3e
000002f0: 85e2 9bbc 6819 073f cf38 c2be 0580 febe
00000300: eed2 e13d 495a 4ebd b6fc 87be 12cf 863e
00000310: d6d6 c23e eb0c dabe 10bf 0d3e 10c5 1abd
00000320: d969 043f 25d3 1d3e 3e7d a03f 4236 86bf
00000330: 3e12 16bd f02f 6c3e 7386 093a 4d43 debe
00000340: eef3 473e e15a 78bd 5da0 87bd c27b a4bc
00000350: 560d e6be 76ae 983e fc36 eb3c 4d8a 1b3f
00000360: 8773 8dbe 5697 083f e07c f03e f872 efbe
00000370: ede1 6e3e 00a6 513e f735 0c3e 49d6 06be
00000380: 1822 acbd ed53 bebe 059b f8bc def3 df3e
00000390: f10a 283e fc7e 0bbf 9882 a93f a4a5 0abe
000003a0: ea7a a73e 3450 e83e 1013 a23e 927e b4be
000003b0: 204d 9bbe b59c 723e 09f8 1e3d 45fc 93bc
000003c0: 1814 12bf 12e3 3bbd d3f5 b43a 85bd a83e
000003d0: b9bb 853e e1ab 173e 42b7 ebbe 7479 393f
000003e0: ace6 b73e 7cb9 693e 71b2 f2bd 728a 64bf
000003f0: 08dc e2bd b313 ac3e 666a bbbe 8a7e b7bf
0.0011409549 -0.5190494 0.038130205 0.5594518 -0.11948669 -0.28987157 0.038561493 0.6293124
0.13193756 0.1613511 0.03434083 -0.07929136 0.11719391 -0.5055825 -0.8097172 -0.032864165
1.4646062 1.5008035 0.41176325 -0.35258844 -0.12015145 0.43333063 0.24872795 0.066183336
0.27251002 -0.3276289 0.056996956 0.10278227 0.15417159 -0.16055322 -0.19938786 0.15108536
0.07489989 -0.057259914 -0.007891288 -0.12172787 -0.019554991 -0.20739172 0.19070314 -1.61371
-0.17895444 -0.57208085 0.7366696 -0.09473429 0.521977 -0.12800507 0.062535025 0.2686845
-0.0010312456 -0.08249737 0.052726638 -0.52287996 -0.07493954 -0.3289185 0.3725703 0.65241605
0.16184732 0.59575146 0.310639 0.53403294 -0.401268 -0.09485963 -0.63900125 -0.0049064276
-0.23346514 -0.10496389 -0.4673854 0.63073367 -0.44761515 -0.045362927 -0.37969673 0.56394887
0.008658464 0.25029415 0.8241435 -0.25518614 0.18438464 -0.32122105 -0.0616115 -0.22749446
-0.20026661 -1.1485339 -0.6243284 0.12443967 -0.0995258 -0.31458616 -0.05372384 -0.28345105
0.06677192 -0.23124003 0.029628659 -0.4242224 0.054209415 -1.9692919 0.19754373 1.151271
0.05096658 -0.086508326 0.015724843 -0.1604704 -0.32456404 -0.35681108 -0.03301883 0.032919616
-0.20756707 0.22970593 -0.042561926 -0.12141133 0.465972 0.26615033 -0.48722 0.40700844
-0.15693888 -0.52431244 0.44436234 -0.014142787 0.051009163 -0.34107628 -0.4307471 -0.09556058
0.4274906 0.46158576 0.8981031 -0.566358 -0.02498551 0.512012 0.29186198 0.25834084
-0.6468422 0.37051606 0.017520672 0.124763206 -0.15613309 -0.2037413 -0.15325037 0.2970466
-0.21060058 -0.46668297 -0.049042717 -0.24246605 -0.069065355 -0.16909812 -0.3997219 -0.44416443
-0.24263419 0.32199946 0.36050135 -0.19072555 0.7971193 0.6148848 0.6904657 0.29944226
-0.28119978 -0.12231373 -0.45598307 -0.5873331 0.068203054 -0.832488 -0.30071256 -0.14318514
0.37555844 0.09818426 0.015092124 -0.6409025 -0.5341612 0.16186525 -0.41863292 0.045281757
-0.28369904 -0.0731421 -0.48734403 0.32179174 0.09364833 0.24481481 -0.011564061 0.8984981
0.30827296 0.6161202 -0.16151701 -0.903862 -0.038565528 -0.16494101 -0.14181733 -0.21303153
-0.09049609 0.0759623 0.14923365 0.4026531 -0.019028911 0.5277314 -0.37933967 -0.49707046
0.1102656 -0.05037907 -0.2655999 0.26329857 0.38054532 -0.4258798 0.13842416 -0.03778559
0.5172401 0.15412576 1.2538221 -1.0485308 -0.03663849 0.23065162 0.000524617 -0.4341072
0.19526646 -0.060633544 -0.06622384 -0.020078544 -0.4493205 0.29820603 0.028712742 0.60757905
-0.27627203 0.5335592 0.46970272 -0.46767402 0.23328371 0.2047348 0.13692461 -0.13167681
-0.0840494 -0.37173405 -0.030347357 0.43740743 0.16410424 -0.5449064 1.3242979 -0.1353975
0.32710963 0.4537369 0.3165517 -0.35252815 -0.3033228 0.23692591 0.038810764 -0.018064627
-0.5706191 -0.045870848 0.0013806171 0.32957092 0.26119784 0.1481166 -0.46038252 0.7245095
0.35918176 0.22824663 -0.11850441 -0.8927375 -0.11077124 0.3360878 -0.36604613 -1.4335492

architecture.0.bias f4 [64]
00000000: a868 0f3f 60f1 32bf 8e0a a63f 5530 343e
00000010: 1f1e 903e 6884 60bf 65ca a1bf 30d1 a4bf
00000020: fec8 88bf f687 aa3e d874 01bf 0297 183f
00000030: e76c c23f beb6 c4bf 9651 a13f 926a d43f
00000040: b47f 5abf f6a9 0cbf d824 9fbf 7036 093f
00000050: 2d72 fa3f c0b4 9fbf 39cd 803f 3af1 a6bf
00000060: e97a f73d 9809 253f 5efd bb3d 601e edbf
00000070: 2ced 43bf ea7e f43c 5b4e 493c cb09 86bf
00000080: 2215 a3bf 76e6 a0bf 5be0 93bf 8f06 b63e
00000090: 8cb3 a03f 394d 35bf 0800 643f 1d11 9fbe
000000a0: eaec 7fbf eab3 39bf 1088 cc3f 3bda 7ebf
000000b0: 9133 a2be e23a e13e d78f ffbd 211b 33bf
000000c0: 635f cd3e 3672 a33f d265 963f 2bb5 813f
000000d0: 86fa 6b3e bda6 b7bf 0346 58bf c8ee e33e
000000e0: d026 3ebf 439c b4bf 95e6 bb3f fc51 d03f
000000f0: ef7a db3f a3ec b03f f3b7 42bd abf0 c43d
0.5601907 -0.6989956 1.2971971 0.17596562 0.2814798 -0.87702036 -1.2639891 -1.2876339
-1.0686338 0.33306855 -0.50568914 0.5960542 1.5189484 -1.5368268 1.2603023 1.6595023
-0.8535111 -0.5494684 -1.2433119 0.5359869 1.9566094 -1.2477036 1.0062629 -1.3042367
0.1208399 0.64467764 0.09179185 -1.8524895 -0.7653377 0.029845674 0.012286748 -1.0471739
-1.2740824 -1.2570331 -1.1552843 0.3555188 1.2554793 -0.7082096 0.8906255 -0.31067744
-0.9997088 -0.7254015 1.5979023 -0.99551743 -0.31679967 0.43990237 -0.12478607 -0.6996327
0.40111837 1.276923 1.1749823 1.0133413 0.23044786 -1.434776 -0.8448183 0.44518113
-0.74277973 -1.4110187 1.4679743 1.627502 1.7146891 1.3822216 -0.04753871 0.09616216

architecture.2.weight f4 [64, 64]
00000000: a5de 3b3d 65ed 9d3e c671 ebbe 3fe2 9d3d
00000010: 29d4 dc3c 58bd 393d 332c 933e dbef f83e
00000020: b482 073f 7879 bebd 8297 773e 1662 ecbd
00000030: 7da5 0abf 1362 ae3d 1a37 cebe a6a7 94be
00000040: 60ec f6bd 2ce2 803d 6dc6 173f 24ed 1cbe
00000050: 7f1a 88bf 83f0 ee3e a5a0 e0be 2ddf f83e
00000060: 0c8b 93bc 5ff1 e33d d346 b43d d823 0c3f
00000070: 9790 c03e 4823 e73c c249 aebd d2d0 be3e
00000080: 739b d43e 12aa 9f3e 6465 473e 4b7c ae3c
00000090: 2d2a 9abe b4fe ecbd 4957 b9be f9e4 043e
000000a0: 1e25 563e e040 313e a782 1fbd d2bc 4a3e
000000b0: f571 46be b261 b6be 48ff 103d b3ff a03e
000000c0: 2d46 1b3e 111b 16be 327b 9dbe 3edd 073f
000000d0: 1fca 08bd 7252 843e a2e9 da3e c5e8 ed3e
000000e0: e888 e13c e8da cd3e ef9b 7dbf e730 c5be
000000f0: 3716 23bf c83e 50bf 5867 8abe c690 5b3e
00000100: 7b99 ad3d 4493 88be 5ea4 673d cb0f b53e
00000110: 0bc8 06be 4ff1 97bd 46b7 4bbe 09fc 10bf
00000120: 509c 363f 7b53 de3d 8923 0ebc eb6b ecbc
00000130: ae4e 34bd 2b11 303f 8378 c23e b2dc 3a3e
00000140: 6a9e c73d 949e 053e e14d dabe 0bd7 393d
00000150: c0c4 543f bd77 af3e ab14 cd3c c1b1 3fbe
00000160: c066 423e 40a0 f93e 20dd 6dbc 509d a1bd
00000170: 208a 493f 4225 c83e fad0 21be 5c44 213f
00000180: b454 cabe 3d04 14be c68d 5abc a181 023e
00000190: a9a7 8c3d 08ca f9bd 2e25 1bbe 0988 ac3d
000001a0: 9b9d 703e 0d24 10bd 662d 8ebe c019 903e
000001b0: 8dc1 48bd 8582 79be 31fc 39be caa6 32bd
000001c0: 6bd2 e0bc 92fc ffbe 66e0 da3d e626 7c3e
000001d0: 7cbc 44be 557c 743f 3789 703e ae57 b9bd
000001e0: 77e8 603e d2a4 393f 49c4 ebbb 8247 293f
000001f0: ba9c 6c3f 3903 8fbe f7bb c53e f24d a73d
00000200: e56b 013e d0c8 bebe e3e9 423e fcaf b7be
00000210: cac7 06be fbdb 07bd edba f13d 8544 16bf
00000220: 1fb6 c9be f848 bc3e 4f13 7fbb b583 da3b
00000230: c075 3bbe 7a6b 45bd e727 e63c 71b4 76be
00000240: 2d42 07bf 2dc9 3e3f e9e3 37bf 2126 c5be
00000250: 512d 5f3f 9124 46bf c158 233d 64d6 16bd
00000260: 492b 063f 010c 4bbd b16d 293f f9ee c43e
00000270: 402c 45be 843a f0be 01d9 383f d20c 8abf
00000280: 785d 1d3e 545f 073f b4e7 43bf c260 493e
00000290: e558 c93e 9c07 e3be 46f8 a03e 14e0 463f
000002a0: 6a86 0e3f 46b0 d5be 869e 953e 5332 90bf
000002b0: 3c6e 843d 46ec 053f af2c a1be 98b4 11bf
000002c0: 1993 55bd 4927 193f ab2b 9dbe 9dc3 db3e
000002d0: 4232 0a3f 4e47 6a3d 5a9d 3dbf f38f 15bf
000002e0: 6272 2c3e ae78 2bbf 4c63 1b3f 4064 a83e
000002f0: d8fd 77be edc6 e13d 6006 50bd e2da 62bd
00000300: 24f9 23bf c7e9 ba3d 4452 51be 4c8d 923e
00000310: 2253 0a3f e6e6 333e 6239 293f b579 cebe
00000320: 60e7 b13e aa99 18bf 8a63 4b3e b47a 33bf
00000330: 9f7d 2c3e 2d02 013f 7061 4fbe 4ed7 fabe
00000340: 3c71 083f 4641 123e a0fc 5b3e 7230 793f
00000350: 6629 27bf b9f6 b73d 32ec 18bf 8d43 36bf
00000360: d1aa dfbe 483b 05be dde4 2ebf 13d0 3d3d
00000370: 3b0b 793d 596d bb3e c867 3cbe 197b 033f
00000380: fab9 003f b0fd 79bf d786 6b3e aee7 9a3e
00000390: 6d12 38bf d205 003f 928b 37bf 468a 633e
000003a0: afab 73be b5d5 843f 40f0 83bc a072 b3be
000003b0: 4a2c 373f 4e0a 87bf 8086 393f 4c77 95be
000003c0: be2d fe3c 93df 02bf 4db7 da3e d6f2 46bf
000003d0: 25a3 d5be dc8f 04bf b2e3 913e 9a74 813f
000003e0: 343d 243f 1bd3 dabe 2693 33be 2574 933e
000003f0: 1b23 2a3e f492 933e 4d6f 993d b3b9 3ebf
0.045866627 0.3084518 -0.4598524 0.07709169 0.026956635 0.045346588 0.2874466 0.48620495
0.5293381 -0.09300512 0.2417889 -0.11542146 -0.54158765 0.085148 -0.40276414 -0.29034156
-0.12056804 0.06293139 0.5928715 -0.15324837 -1.0633086 0.4666787 -0.43872562 0.4860777
-0.018010639 0.11130022 0.08802571 0.54742193 0.37610313 0.028215066 -0.08510162 0.37268692
0.41524848 0.3118444 0.19472271 0.021299502 -0.30110303 -0.11572018 -0.36199406 0.12977971
0.20912597 0.17309904 -0.03894296 0.19798592 -0.19379409 -0.3562141 0.035399705 0.31445083
0.15163489 -0.14658763 -0.30758053 0.53071964 -0.033395883 0.2584415 0.42756373 0.46466652
0.027531102 0.40206075 -0.9906606 -0.38513872 -0.6370577 -0.81345797 -0.2703197 0.21441945
0.0847654 -0.26674855 0.056553237 0.35363612 -0.13162248 -0.07419073 -0.19894132 -0.56634575
0.71332264 0.108557664 -0.008675464 -0.028860053 -0.044020347 0.68776196 0.37982568 0.18248251
0.09747012 0.13048774 -0.42637542 0.045371097 0.83112717 0.3427104 0.02503427 -0.18720151
0.18984509 0.48755074 -0.014518052 -0.07891333 0.7872639 0.39090925 -0.15802374 0.62994933
-0.39517748 -0.14454742 -0.0133394655 0.12744762 0.06867916 -0.121967375 -0.15150902 0.08424384
0.23497622 -0.03519063 -0.2776901 0.28144646 -0.04901271 -0.24366195 -0.1816261 -0.043616094
-0.027444085 -0.49997383 0.10687332 0.24624214 -0.19212526 0.95502216 0.23489843 -0.09049927
0.21963678 0.7251712 -0.00719503 0.6612474 0.92426646 -0.27932146 0.38619968 0.08169164
0.12638815 -0.37262583 0.19034533 -0.35876453 -0.13162151 -0.033168774 0.118032314 -0.586983
-0.3939676 0.3677442 -0.003892142 0.0066685327 -0.18306637 -0.0481982 0.028095199 -0.2409227
-0.5283535 0.7452572 -0.7183214 -0.38505653 0.8717852 -0.77399546 0.039879564 -0.036825553
0.524098 -0.049571995 0.66183 0.38463572 -0.19255161 -0.46919644 0.7220612 -1.0785162
0.15367687 0.52879834 -0.76525426 0.19665816 0.39325634 -0.44341743 0.31439418 0.77685666
0.5567385 -0.41736048 0.29222506 -1.1265358 0.06466338 0.5231365 -0.31479403 -0.5691619
-0.052142236 0.5982557 -0.3069738 0.4292268 0.5398294 0.057196908 -0.74068224 -0.58422774
0.16840509 -0.6698102 0.6069839 0.32888985 -0.24217927 0.1102427 -0.05078733 -0.055384524
-0.64052033 0.09126621 -0.20441538 0.28623426 0.540331 0.1756855 0.66103184 -0.4032723
0.34746838 -0.5960947 0.1986219 -0.70109105 0.16844796 0.50393945 -0.20252013 -0.4899239
0.5329778 0.14282712 0.21483088 0.97339547 -0.65297544 0.089826055 -0.59735405 -0.71196824
-0.4368501 -0.13010895 -0.6831797 0.046341013 0.060801726 0.36606863 -0.18398964 0.5135971
0.5028378 -0.9765272 0.23000656 0.30254883 -0.71903116 0.5000888 -0.7169734 0.22220716
-0.23795961 1.0377718 -0.016105771 -0.3504839 0.71551955 -1.055002 0.72470856 -0.2919258
0.031027671 -0.511224 0.42717972 -0.7771429 -0.41726032 -0.5178201 0.2849403 1.0113709
0.6415589 -0.42739186 -0.17536601 0.2879955 0.16614954 0.28823054 0.07491932 -0.74502105

architecture.2.bias f4 [64]
00000000: edff 07c0 9693 063e be55 9c3f f8f8 12bf
00000010: d7d3 e8be 9944 18bf b1f4 3d3f 07a6 57bf
00000020: 28de 61be 50b0 11bf 847f f2be fb5e 0d3e
00000030: 2f9d 193e 22a0 3fbf 0af1 5f3f 12ec 823e
00000040: fd0c 863f 7d3f 4f3f 5f45 1040 b7cd 423f
00000050: cd63 32bf 36f7 923e cbf3 aabe 3493 6bbf
00000060: 655a 80bf 846b 093f ffd1 443d 387c 233e
00000070: 41b3 3e40 9005 7dbe 1d71 da3e c84b 023f
00000080: 5678 89be e090 41bf 49be 193f b63a 183f
00000090: c985 26bf f68c 413d bbf1 3abf 4765 de3f
000000a0: 3fc3 0cc0 ab72 f13e 8a0c 1bbf f4ae 0f3e
000000b0: f36c d43e c750 a73f 9ea8 e2bf 3246 0e3f
000000c0: 56da e73e fed9 15bf 2e79 a9bf e396 49bf
000000d0: 105d 6e3f 325b 153f 21c5 87bf 0f54 2340
000000e0: 6436 89bc 7c04 cd3e ac79 233e 5033 2bbe
000000f0: c8da 44be 5e25 553e 9675 493e 6bdd 31bf
-2.1249955 0.13142237 1.2213666 -0.57411146 -0.4547412 -0.5947967 0.74201494 -0.8423771
-0.22057402 -0.56909657 -0.47362912 0.13805763 0.15001367 -0.7485372 0.8747717 0.25570732
1.0472714 0.8095625 2.254234 0.76095146 -0.69683534 0.28704232 -0.33389124 -0.9202149
-1.0027586 0.5367968 0.04805183 0.15965354 2.9796908 -0.24709153 0.42664424 0.50896883
-0.26849622 -0.75611687 0.6005598 0.59464586 -0.6504789 0.04725357 -0.730251 1.7374657
-2.1994169 0.47157797 -0.6056601 0.14031583 0.41489372 1.3071526 -1.7707708 0.5557586
0.45283765 -0.58535755 -1.3240106 -0.7874586 0.9311075 0.5834228 -1.0607034 2.5520055
-0.016749568 0.40042484 0.15964383 -0.16718793 -0.19224083 0.20815036 0.19673762 -0.6947848

architecture.4.weight f4 [9, 64]
00000000: f6fc 92bc 2a91 3b3d 9c7d 9939 24db 6fbc
00000010: 8a39 f83b 1f95 84bc b54b 073c 063f 213c
00000020: 3a9e dabb 90b8 25bc 1273 733c 46b7 aaba
00000030: 7a75 2d3d b8cf b03a f11b 6b3c ce79 9bbb
00000040: d406 10bd 689a 93b7 a311 ad3c f75c 053c
00000050: 02c6 033c 4270 b73b fc53 dbbc 0a55 073c
00000060: b06e 1c3a f93d 3fbb 2a8f aab8 359e bab9
00000070: 0124 f13c d481 0bbc 478c b73a 1543 ceba
00000080: 5673 2bbe dab3 593c 687b cabc 1473 02bc
00000090: 77c1 673b 3ef1 ebbb 1151 6b3c 86de 023d
000000a0: a140 36bc 7a25 5b3c 3476 e0bc 3ab8 af3c
000000b0: fc35 cbbc 4dad 813c 118d 84bc 41a1 ecbc
000000c0: 950a 77bc 8d87 733c d059 cebc 4380 96bc
000000d0: 287f ba3a bc1e e0ba f9ac f73b 9cea ddbc
000000e0: 5a64 32bd ea3f 10bb cc73 0a3b 0488 093a
000000f0: ca4c 46bc bb60 16bc e22e 423c 86f6 b1bb
00000100: 3809 6abd 8602 9e3d a95a aabc 7fda c23c
00000110: be49 8abc c96b de3c 9dd3 6dbd 4bd8 c63c
00000120: 2405 ba39 47d3 02bb 8c12 99bc efaa 14bb
00000130: 2079 1c3e 4b7f 1bbd 8a04 883b 941a a9bb
00000140: 4ee6 8b3b bcfd 2cbc 9007 453c ca63 90bc
00000150: 7cb3 283c 94e3 bb3c 0190 7ebc d620 b5bc
00000160: 2b11 27bc f4be afbb ba1f 9a3b a879 0bbc
00000170: 9163 8cbc ddfd 88bc b2c2 eabb 53a4 c63b
00000180: 316b 363d 0f03 e03a 4e79 e83c 3638 b93a
00000190: 87b5 83ba 7b51 08bb 8f53 043c e8e3 3b3c
000001a0: 8813 1a3a 4a4c bf3c 1d4f 74bd 5ef4 07bc
000001b0: 0cc6 1dbb 2ab4 bcbc fff6 39bb 492d 23bd
000001c0: e5c7 5bbd a279 a13c adf0 2dbc 23fe 093d
000001d0: 0bf5 f03b 1763 1f3c b514 453c 677e c0bc
000001e0: b299 043d ebed d83b cd7f 16bc e248 10bc
000001f0: 5b0a a83c 26bd ae3c 3428 333c a54a 1b3c
00000200: 2637 173d 6855 1bbe 58a9 793c ab04 2cbc
00000210: bd30 2c3b 2f42 973b fa25 8fbc c1e7 5e3c
00000220: 04ae 90bc cfed 7c3c 6923 a93a 2742 8abc
00000230: 0025 743d 9067 0c3c 673c 9d3b 2f9d 85ba
00000240: 0318 b9bc 9eb9 94bc 3937 babc 8c91 9a3b
00000250: be9a 98bc 05cd 32bc d375 32bd 441f 35bc
00000260: 0b9f 4dbc 7909 f43b 73a2 63bb 207a 0ebc
00000270: 1e15 203e e68c 193a 1b41 7d3b ddd0 423c
00000280: 9148 61bd 4b64 1f3c adcf ddbc 7f31 3b3c
00000290: fd9f 01bc 1db6 783b 284e 383c d9ae 6e3c
000002a0: 6ad7 173c 857f febb 4d4a bbbb 833a c53c
000002b0: 5c63 d7ba b3ed c23a 7659 153c 5e35 5f3c
000002c0: 91f3 33bc 5914 63bc 5e67 07bc 5bee 953d
000002d0: 307f 85bc 8d20 573c d749 893b 2da0 abbc
000002e0: b674 c5bb c3ab e3bb cafc e1bb d807 0bbc
000002f0: 6939 6c3c 9bac a83c 0097 2cbb f13d b4bc
00000300: 8dcc 5ebf 5e4c 1ebe 04db 383f 990d 11bf
00000310: 1a99 17be 100a a5bd c9d4 fd3d 7cca d0be
00000320: ce9f aabe ad40 9dbe 2066 50be 5eda 9f3d
00000330: 1da3 873e 0c4f 39bf d04c 1e3e 5d5d 2a3e
00000340: 9286 dd3e c0a9 233f 0b66 5f3f f3eb 8f3e
00000350: 6ed2 e0be a91e b13e df87 273b e05f 65bf
00000360: a1ce 7ebf 4e5c b43e 7dd6 8fbe e6f1 da3d
00000370: bfd4 4e3f 8f27 03bf 6a1e 633e 0ca7 1fbd
00000380: 1cfb 67be a025 9cbe c741 043f 7334 9bbd
00000390: 14ef ccbe a5d9 6a3e 1a23 bcbe cf07 ef3e
000003a0: 4f01 2abf f131 2d3e 92c1 62be def7 053e
000003b0: 07f1 1d3f d74c 493f 6772 d3be d3a5 853e
000003c0: a197 bf3c 3d48 7abe dcfd a3be 3dd6 75be
000003d0: 894a 073e 21e5 193e 3acf 34bf dd29 383f
000003e0: 2d98 92bd 58ab 1d3e aa0f a83c ed99 c6bd
000003f0: 70ad 0cbe 47de 5ebe b7b7 413e 0323 cbbe
-0.017942887 0.045792736 0.0002927602 -0.01463965 0.0075752186 -0.016184388 0.008257796 0.009841686
-0.006671694 -0.010114804 0.014858978 -0.001302459 0.042348363 0.0013489639 0.0143499235 -0.004744745
-0.03516276 -1.7595667e-05 0.021126574 0.00813984 0.008042814 0.005598099 -0.026773445 0.008260021
0.00059674215 -0.0029181226 -8.132898e-05 -0.00035594558 0.029436113 -0.00851484 0.0014003598 -0.0015736545
-0.16743216 0.013287509 -0.024717048 -0.007962007 0.0035363117 -0.007200389 0.014362589 0.031950496
-0.011123807 0.013375634 -0.027400114 0.02145015 -0.024806015 0.015829707 -0.016180547 -0.028885486
-0.015078207 0.014863861 -0.02518931 -0.018371707 0.0014228569 -0.0017099003 0.0075584617 -0.02708941
-0.043552734 -0.0022010752 0.002112615 0.0005246403 -0.012103269 -0.009178336 0.011851998 -0.005430999
-0.057137698 0.07715325 -0.020795183 0.023785828 -0.016880866 0.027151005 -0.05806314 0.024273058
0.00035480515 -0.0019962357 -0.018685602 -0.0022684892 0.1528058 -0.037963193 0.0041509317 -0.005160639
0.004269398 -0.010558542 0.012025729 -0.017625708 0.010296699 0.022935666 -0.015537263 -0.022110384
-0.010196964 -0.0053633396 0.004703489 -0.008512892 -0.01713732 -0.016722614 -0.007164323 0.0060620694
0.04453582 0.0017090755 0.028378155 0.0014131132 -0.0010048606 -0.002080052 0.008076563 0.011467911
0.0005877544 0.023351807 -0.05964576 -0.008298008 -0.0024074344 -0.023035128 -0.002837598 -0.03983811
-0.05365743 0.01971132 -0.010616464 0.03368963 0.00735343 0.009728215 0.012028863 -0.023497773
0.032373138 0.006620159 -0.0091857435 -0.008806439 0.02051275 0.021330427 0.010934878 0.009478246
0.036917828 -0.15169299 0.015238129 -0.01049916 0.0026274167 0.004616044 -0.017474163 0.013605059
-0.017661102 0.015437557 0.001290423 -0.016877247 0.0596056 0.008569613 0.0047984603 -0.0010193939
-0.022594457 -0.018154915 -0.02273141 0.0047170576 -0.018628474 -0.010913138 -0.043569397 -0.011054818
-0.012550126 0.0074474183 -0.0034734278 -0.008696109 0.15633056 0.00058574823 0.0038643542 0.011890617
-0.055000845 0.009728502 -0.027076567 0.011425375 -0.007911679 0.0037950345 0.011249103 0.014568054
0.009267667 -0.0077666664 -0.0057156445 0.024075752 -0.001643281 0.0014871865 0.009115567 0.013623564
-0.010983364 -0.013859832 -0.008264391 0.07320853 -0.016296 0.013130319 0.0041897106 -0.020950401
-0.006025876 -0.006947966 -0.00689659 -0.008485757 0.0144179845 0.020590117 -0.002633512 -0.022002192
-0.8703087 -0.1545882 0.7220919 -0.56661373 -0.14804497 -0.0805856 0.12394101 -0.40779483
-0.33325046 -0.30713406 -0.20351458 0.07805322 0.26491633 -0.7238624 0.15458989 0.16637178
0.43266732 0.6393089 0.8726508 0.28109702 -0.43910545 0.34593704 0.0025563163 -0.8959942
-0.9953404 0.35226673 -0.2809333 0.1069067 0.80793375 -0.51232237 0.22179571 -0.038977668
-0.22654384 -0.30497456 0.5166287 -0.07578363 -0.40026152 0.22934587 -0.3674553 0.46685645
-0.66408247 0.16913582 -0.22144154 0.13082835 0.61695904 0.78632873 -0.4129822 0.26103076
0.023387732 -0.24441619 -0.32029617 -0.24007507 0.13212027 0.15028812 -0.706287 0.7193888
-0.071579315 0.15397394 0.020515282 -0.09697328 -0.13738036 -0.2176448 0.18917738 -0.3967515

architecture.4.bias f4 [9]
00000000: 3fb3 93bd f41f 09bc 3ffe 98bd 9741 8c3f
00000010: ddf6 883d 6204 c7bc d65c a8bd 6134 413f
00000020: c296 63be
-0.07211923 -0.008369435 -0.074703686 1.0957516 0.066877104 -0.024294082 -0.08220832 0.7547055
-0.22225478

std f4 [9]
00000000: cdcc 4c3e cdcc 4c3e cdcc 4c3e aec9 aa3e
00000010: cdcc 4c3e cdcc 4c3e 482e 933e 947f 713e
00000020: cdcc 4c3e
0.2 0.2 0.2 0.33356994 0.2 0.2 0.28746247 0.23583823
0.2

architecture.0.weight f4 [64, 27]
00000000: 764e 05bc 8b48 8ebc 0b8d 9fbd 6df7 7a3d
00000010: 6d4e cb3f 81a2 78be 8dc5 8abf 2215 f1be
00000020: 867c 5fbf 718f d0bd 5461 333e 67f8 7b3d
00000030: 66b5 febc 8563 fd3d b2ad 93bd 21a1 013d
00000040: cbfd 34be be30 85c0 ea23 6bbe b123 d4bf
00000050: cdc9 943e d601 993f 9415 103f 5fd5 763f
00000060: dae0 693d f58e 10be 4ff8 89be 4f34 a83c
00000070: 930e 6e3c 461a 7dbc 2d29 e13c 4f2a 46be
00000080: 6513 f13e 4bd7 1bbe d354 01bf ebb7 653e
00000090: 8a9b 4c3d 32b2 67bc 6148 d6be e356 1d3e
000000a0: db86 313e 8157 abbe 6a49 ca3d dd58 013e
000000b0: 056c 80bb c6d7 92bd 12cc 3a3e 66e2 7ebe
000000c0: a31c 543e 2eb8 d33e a1ef b33d b391 8e3c
000000d0: ca43 22be daee 71be 6551 e3bd 8b3c 82bd
000000e0: cfa5 723d 2a44 b83e 39a4 43bf 18ce 623f
000000f0: e3a1 673f e973 663f cc78 49bf 0ec7 503e
00000100: e672 3dba 904e 8e3c 00f0 d83c d2f6 eabd
00000110: d6c5 57bc 44ad 0b3d 17b9 dbbe b5ac 16bf
00000120: 4223 bebe 04f5 2c3f 7e6e 58bf ebc5 75bf
00000130: a528 5ebf 92e4 413f 463b 50be 3e1e 6ebc
00000140: e8d4 12be a28a 87bd 65c6 d5bd d880 dd3e
00000150: c40b d7be 8cea a93d c768 f8bc 84cd 8c3e
00000160: e885 bfbe d437 853e 501c c5bd 527a 263e
00000170: bc36 d03d 1ebd 10bd 2299 86bc e609 0e3c
00000180: ae20 35bc a77f 04bd 77ea 76ba 089b c53e
00000190: e3d2 a2bd 8fdf 7f3a 4b4e 85be 65ba a03e
000001a0: 9e1b 67be 08c1 7b3d f214 23be cbfd 02be
000001b0: 73ea e53c beb7 82bb 3f3b 54bb 6ca1 aa3d
000001c0: 629e a6bd 5325 a8be 0195 003e 2d74 3a3d
000001d0: aa3f 35bd 3f19 783d e2d0 dabd acce 70be
000001e0: 1af7 c1be 5d00 ec3d 7c2f 95be 367e d7bb
000001f0: 689e d4bc f899 6fbb 395c fd3d f0c7 babd
00000200: a910 01be 8956 d5bd 602a b03d 5619 833e
00000210: 45d3 023e 955a a4bb fe21 ffbd 1395 b2bc
00000220: 3640 9fbb 4e8a 41bd cf88 5d3c e0fc 303d
00000230: 8a1f a53d 4f00 7bbd d016 a13c c9da 4d3d
00000240: 9ffd 21bc e4fc fbbc 89f7 1a3e e67f 4c3f
00000250: fba6 813d 9f09 0c40 748d f2bb e16e 453d
00000260: cb5c 27bd 205c 31bc 7fde 50bd 72da 8dbc
00000270: 31ed 853d 17b9 62bc 0c91 bcbc 13ff b73b
00000280: 40d2 2a3c 246c 703c 035c 8cbc 9d2a 973c
00000290: 868c bcbc 2f92 c5bd a816 853d 2eb1 54bd
000002a0: 8f18 27be fa99 2ebe 6bff d33c b9bb 0b3e
000002b0: c86a 8fbd c6cf 93bd bc78 523c 0df8 4e3c
000002c0: 0c36 923b fcae 003d 3465 7d3c 8b97 9c3e
000002d0: 3795 703d 7f10 17be 9c51 043e efd5 f43c
000002e0: 0127 1b3e 85d1 70bd 7b33 0c3e c08e 31bd
000002f0: 242d e93d 2735 13bd 1f50 753c b8c8 a23c
00000300: 18cd 1ebd 79a2 203d 6d87 bd3c ece6 bdbc
00000310: 442d 51bd 04d2 bcbd 997e 1c3d 5204 a03c
00000320: 54b6 45bc 862c d33f 7917 d2bf 8b9a 203e
00000330: 538b 85bc bf22 0abd a341 3ebe 621c 443d
00000340: 1ca6 10bd 2d45 363d c343 e8bc fe25 153c
00000350: f6d6 dcbb 0799 df3a 5060 30bd a378 d2ba
00000360: 34b7 04bd db0c 793c 131d 3ebc 0523 27be
00000370: fdf2 a73d 85b0 f9be 96e8 a93e 2d74 c23c
00000380: bee3 e33e d548 67be 8723 413e 4d94 b5be
00000390: 965f 56be d750 6f3e 21d1 8bbe 5b1d 47bd
000003a0: b178 2fbe 1220 39bc 9783 19be 4542 fc3d
000003b0: 0dc0 06bd e084 98bc 8f06 cfbd 06d5 80bb
000003c0: 4b12 55be afeb feba ec2b 51be c31a d83e
000003d0: c762 21bd 7ecf 31be 73e6 d0bc 9bca d83e
000003e0: 4bf1 ecbd bae8 263e e79c 5abe 8e37 963e
000003f0: 9780 7c3e d66b ffbd 6897 a23e 01d0 8f3b
-0.008136382 -0.017368576 -0.07790574 0.06127112 1.5883309 -0.2428074 -1.0841538 -0.47086436
-0.8729938 -0.10183609 0.17517596 0.06151619 -0.031092357 0.123724975 -0.07210864 0.031647805
-0.1767494 -4.1622 -0.22962919 -1.6573392 0.29060212 1.1953685 0.56282926 0.9641933
0.0570992 -0.14117034 -0.26947257 0.020532755 0.014529842 -0.015448159 0.027485454 -0.19352077
0.4708511 -0.15218846 -0.50520056 0.2243344 0.04995302 -0.014141606 -0.41852096 0.15365176
0.173366 -0.33465198 0.09877284 0.12631555 -0.003919127 -0.07170062 0.18241909 -0.24891052
0.20714049 0.41351455 0.0878594 0.01740346 -0.15846172 -0.23626271 -0.11099509 -0.06359204
0.05924016 0.35989505 -0.7642246 0.88595724 0.90481395 0.90020615 -0.78699946 0.20388433
-0.0007226899 0.017371446 0.026481628 -0.114728585 -0.013169726 0.034100786 -0.4291465 -0.5885728
-0.37136275 0.67561364 -0.845436 -0.96005124 -0.8678077 0.75739396 -0.20335111 -0.0145335775
-0.1433903 -0.06618239 -0.104382314 0.43262362 -0.42001164 0.082966894 -0.0303234 0.27500546
-0.3740685 0.26019156 -0.09624541 0.16257599 0.1016669 -0.035336606 -0.016430441 0.008669352
-0.011055155 -0.0323483 -0.0009419093 0.38594842 -0.0795038 0.0009760791 -0.26036295 0.31392208
-0.22569129 0.061463386 -0.15925959 -0.12792127 0.028065896 -0.003989189 -0.0032383946 0.0833157
-0.08135678 -0.32840976 0.1255684 0.04552095 -0.044250168 0.06057095 -0.106843725 -0.23516339
-0.37883836 0.11523507 -0.2913779 -0.006576325 -0.02595444 -0.0036560278 0.12371106 -0.09120166
-0.12604012 -0.10416896 0.086018324 0.25605267 0.12775905 -0.005015681 -0.12457655 -0.0217996
-0.0048599495 -0.04725104 0.013521387 0.04320991 0.08062656 -0.06127959 0.019664198 0.050257478
-0.009887128 -0.030760236 0.1513349 0.7988266 0.06330677 2.1880872 -0.0074021164 0.048201445
-0.04085998 -0.010825187 -0.05099344 -0.017316077 0.06539381 -0.013838074 -0.023018382 0.005615124
0.010426104 0.01467422 -0.017133718 0.018452937 -0.023016226 -0.09647023 0.06498462 -0.051926784
-0.16317962 -0.17050925 0.025878629 0.1364583 -0.07002789 -0.07217364 0.012846168 0.012632382
0.0044620093 0.031416878 0.015466023 0.30584368 0.058736052 -0.14752387 0.12921757 0.029887168
0.15151598 -0.058793563 0.13691513 -0.043349028 0.11385563 -0.035939362 0.014972716 0.0198711
-0.03876981 0.039217446 0.023135865 -0.023181401 -0.05106856 -0.09219745 0.03820667 0.01953331
-0.012067396 1.6497962 -1.6413413 0.15683953 -0.016301787 -0.033724543 -0.18579726 0.04787863
-0.035314664 0.044499565 -0.028352624 0.009103296 -0.0067394925 0.0017059156 -0.0430606 -0.0016057681
-0.03240128 0.015200819 -0.0116036115 -0.16321953 0.08200643 -0.48767486 0.3318526 0.023737038
0.4450969 -0.22586377 0.18861209 -0.35464707 -0.209349 0.23370682 -0.2730799 -0.04861198
-0.17135884 -0.01129915 -0.14991604 0.123173274 -0.032897998 -0.018618047 -0.10108673 -0.0039316444
-0.2080776 -0.0019448901 -0.20426911 0.42207918 -0.039400842 -0.17364308 -0.025500512 0.42342076
-0.115694605 0.16299716 -0.21348916 0.2933926 0.24658428 -0.1247174 0.3175614 0.0043888097

architecture.0.bias f4 [64]
00000000: d6f3 ff3d 765d c1bf 51c2 fa3d d0ee b83f
00000010: 4809 993f 5c42 7abf 45f6 11c0 66b6 5a3f
00000020: 0f0e 2c3f f625 b03f 8d84 33bf 2878 643f
00000030: e8c8 953f 2b8a cf3d 7442 bbbf 5399 a63f
00000040: 74cc 04bd b235 003e 2901 98bf e534 d3bf
00000050: 7e59 f6bf 9d14 cdbf b3af acbf 5152 933d
00000060: f076 97bf aba2 493f de54 a2bf 8521 43bf
00000070: 997e 8bbf 0180 95bf d9bb dbbf aeff a2bf
00000080: 20a9 a8bf 0393 37bd 9e1b 4ebf b738 b83f
00000090: 399d 693f 2c47 1dbf 9fd0 9dbf 6bbb 9e3d
000000a0: e55f 313f 4251 b43f 962c 2abf b039 f13d
000000b0: 3250 313e e6c6 a6bf 8744 083f 6805 7b3f
000000c0: 69f6 84bd 1976 1f3f 46bc a5bf 0e06 d13f
000000d0: b480 a8bf 450f f73f 3101 3abd fefd bbbf
000000e0: 53cd aebf 0fcb be3f 5c22 b73b 4426 98bf
000000f0: ad2d 553c 4984 96bd b2dc 07be 9edc 3dbd
0.1249768 -1.5106647 0.12244094 1.444788 1.1955957 -0.97757506 -2.280656 0.8543457
0.6720895 1.3761585 -0.7012413 0.89245844 1.1701937 0.10133775 -1.4629655 1.3015541
-0.032421544 0.12520483 -1.1875354 -1.6500517 -1.9246061 -1.6021916 -1.3491119 0.07193435
-1.1833172 0.78763837 -1.268215 -0.7622302 -1.089801 -1.1679689 -1.7166702 -1.2734277
-1.3176613 -0.044817936 -0.8051089 1.4392308 0.9125553 -0.61436725 -1.2329291 0.07750591
0.6928695 1.4087298 -0.6647428 0.11778581 0.17315748 -1.3029449 0.53229564 0.98055124
-0.064923115 0.6228958 -1.2948081 1.6329973 -1.3164277 1.9301535 -0.045411292 -1.4686887
-1.365641 1.4905719 0.0055888128 -1.1886678 0.013011378 -0.0734945 -0.13267782 -0.046352975

architecture.2.weight f4 [64, 64]
00000000: 1ad3 14be ce6c 0abf 31d5 afbe b324 e5be
00000010: a99a 103e 3ff7 9cbd 4fe9 fd3e 74ad 873d
00000020: 6b6e 66be cfcd 25bf 4076 a53c 3876 3e3d
00000030: 09e7 063e 7fa3 e33e 8372 4d3f 954f 4d3e
00000040: df89 943d a848 e3be e242 f23e d9eb 3abe
00000050: 5855 4d3e 0a36 8dbe a7bf 1c3f 5289 bfbd
00000060: 088a 6a3c 8911 ebbe ace8 1f3f b1d5 9fbe
00000070: 8a80 06bf af40 f43d dd99 95be c9f0 533d
00000080: 03ba 5c3f e488 953e e1c9 b33d d21f dabb
00000090: 28cf 113e cbc0 c8be 5fe3 1a3e d1da f63e
000000a0: 2529 76be 5e00 e43e b21a 76bd ae2f d53f
000000b0: 8ac8 9c3d 0fd5 e13e 2801 823f cc90 b13d
000000c0: 666d 15be 8064 70be 3c22 af3e 5d92 0dbe
000000d0: d6fe 8a3d 94ad d23d 6bf8 4dbe b269 e53e
000000e0: 9210 15bc 00bc 653c faff 48bf 3eb4 e53e
000000f0: 123a c3be 2100 7c3e 8b37 893e be99 dcbc
00000100: e2b8 c0be b6e5 35bf dda2 be3e 54ad 2e3f
00000110: 49db 073f 7795 08bf edee 6bbf a345 ca3e
00000120: 5bc1 cf3e ae50 d23e ae9a 13bf e964 d13e
00000130: 4b7a 453e 6aa0 483e f57e fabe 9b64 7a3e
00000140: 44bc d63c 4e6e af3e 9a15 01bf 0961 80bf
00000150: 2093 09bf cec7 86bf 5644 0cbf 91c4 4fbd
00000160: e39e 90be 3367 d0bd 8dca d5be f683 9c3e
00000170: 57a7 99be 6bd5 2abf a787 f8be 83ce 0dbf
00000180: e44f 30bf 889a 823e 1e9b 0dbf b397 003f
00000190: 5d46 843e edb4 d6be 40df 46be 7ebc dcbd
000001a0: 952a 353e d674 fc3e 8f59 b3be 670a 0bbb
000001b0: 84d3 55be 12f2 1f3d 9391 19be dfbe 9e3e
000001c0: dd80 5dbe cd7c 1f3e 3111 f3be 4722 90bc
000001d0: 7c47 17bf 3f06 3d3f cfd7 d23b 46a6 26bf
000001e0: e09a adbe 7ed8 533f 0621 99be 57af ffbe
000001f0: 1414 1dbe 7282 8ebe b2c9 bd3d e8d3 d4bc
00000200: 35e3 073f 7fae 2a3f 82da e6be 0fd4 79bf
00000210: 5bc9 a9be 7a21 1d3f 697f 233f 0857 1bbf
00000220: 63c6 dcbe 4d52 2abf c3ca ba3e 86de a3be
00000230: b07e 40be d1fa c6be 182c 013f 15e4 0bbf
00000240: bf06 55be 3a9d 6abe e0ce 503f 968a 3e3f
00000250: f1fa 5c3e b6a4 653f 2791 783e 2bb1 eabd
00000260: 7e8b 9d3e f701 3dbd ecd3 ca3e 7a71 17be
00000270: da1b e93d 4f3a 103f 0f30 3b3f 5b10 0f3f
00000280: 3b97 553f f68e c3bc ff16 0b3f 85b6 b7be
00000290: ed79 9abe a408 253f b740 ebbd 00e9 9b3e
000002a0: 1380 c53d 1b7a 58bf bf8f e03e 20e3 0bbd
000002b0: 67b0 1dbe 94f4 eabd 0b46 08bd 2993 01bf
000002c0: 5756 e63c 8694 03be 67b4 5e3c 88df bfbe
000002d0: 36ae 143f bf06 35bf 9856 04be e336 e43d
000002e0: cc51 293f f87a b6bf 99db de3e f27e 493f
000002f0: edb4 813e 0f30 e53e cb12 d5bd 9842 3b3c
00000300: 709d d8bd 0a51 99be 5044 62be f000 713f
00000310: 670c 8f3d 9daa cc3b e84b da3e e9e5 883c
00000320: a8d8 a43e 0e62 273f be98 17be ab8a 063f
00000330: a109 2f3e 701f b1be 3b32 f3be 06d1 963d
00000340: 8f2c 9c3e 404f 8ebf 7091 afbe 28cc 6b3f
00000350: 7b40 153f 82af b93e 05dd dbbe 5c20 bc3e
00000360: 3321 173f b68d 2cbe ba82 40bf 87ef aebc
00000370: 6625 de3e 5231 323f 0bb1 93be 03a3 983e
00000380: 1d51 3bbf 91cd 89be b9e0 733e 7ddb c83e
00000390: 5942 0b3d 80ad b83d 7b9b c83d ca63 af3e
000003a0: 9778 ad3d 08d9 633f 7448 65bd 6e01 9d3e
000003b0: 21f6 473f d1ab 0abf 6296 bb3c 138e 213d
000003c0: 2400 ff3c 5f01 94be 9d23 f8bd 9e28 683e
000003d0: e2d3 b23e 7659 3dbf 0128 483c 4452 7e3c
000003e0: 2cff b13e 651c d33e 1383 12bf 74df ddbd
000003f0: e8f6 393e 54fb 963e 0464 e3be 4209 073e
-0.14533654 -0.5407227 -0.3434234 -0.44754562 0.14121498 -0.07664346 0.49592063 0.066248804
-0.22503059 -0.64767164 0.020197988 0.04649946 0.1317407 0.44460675 0.80252856 0.2004989
0.07252859 -0.4439137 0.47316653 -0.18254031 0.20052087 -0.2758029 0.6122994 -0.09352364
0.014315136 -0.45911816 0.62464404 -0.3121772 -0.52539885 0.119264 -0.2921895 0.051743302
0.8622133 0.29206002 0.0877874 -0.0066566253 0.1423918 -0.3920959 0.15125798 0.4821382
-0.24039133 0.4453153 -0.060084052 1.6655176 0.07655437 0.44107863 1.0156603 0.08670196
-0.14592513 -0.23475838 0.34205806 -0.13825364 0.06786887 0.10287014 -0.20114295 0.44807202
-0.009098189 0.0140218735 -0.7851559 0.44864076 -0.38130242 0.24609424 0.26800188 -0.026928779
-0.37641054 -0.71053636 0.3723363 0.6823323 0.5306898 -0.53353065 -0.92161447 0.39506254
0.40577206 0.4107718 -0.576579 0.408973 0.19284932 0.19592443 -0.48924986 0.2445244
0.026212819 0.34263843 -0.50423586 -1.0029613 -0.5374012 -1.0529726 -0.5479177 -0.05072457
-0.2824622 -0.10175934 -0.41756096 0.30569428 -0.30010483 -0.667319 -0.48540995 -0.55393237
-0.68871903 0.25508523 -0.55314815 0.50231475 0.25834933 -0.4193491 -0.194211 -0.107781395
0.17692025 0.4930789 -0.35029265 -0.0021215917 -0.20881468 0.039049216 -0.14996938 0.31004998
-0.21631189 0.15574951 -0.47474054 -0.01759447 -0.5909345 0.73837656 0.006434418 -0.65097463
-0.33907223 0.82752216 -0.29908007 -0.4993846 -0.1533969 -0.27833897 0.09266986 -0.025979951
0.53081065 0.6667251 -0.45088583 -0.975892 -0.33161435 0.61379206 0.6386629 -0.60679674
-0.43120107 -0.6653183 0.3648282 -0.3200571 -0.18798327 -0.38863233 0.50457907 -0.546449
-0.20803355 -0.2291154 0.81565666 0.74430215 0.21580102 0.89704454 0.24274121 -0.11459573
0.30770487 -0.046144452 0.3961481 -0.14789382 0.113822654 0.5633897 0.73120207 0.5588433
0.83433884 -0.02387188 0.54331964 -0.3588144 -0.30171147 0.6446631 -0.11486953 0.30451202
0.09643569 -0.8456132 0.4385967 -0.03415215 -0.15399323 -0.11472431 -0.033269923 -0.50615174
0.028117342 -0.12849626 0.013592816 -0.37475228 0.58078325 -0.7071342 -0.12923658 0.11143281
0.6614044 -1.4256277 0.43526915 0.7870933 0.25333348 0.44763228 -0.10403975 0.011429451
-0.10576904 -0.2994464 -0.22096372 0.94142056 0.069847874 0.0062459246 0.42636037 0.016711192
0.32196546 0.65383995 -0.1480436 0.5255534 0.17093517 -0.34594297 -0.4749926 0.07364087
0.30502746 -1.1117935 -0.34290648 0.9210839 0.58301514 0.36266714 -0.42942062 0.36743438
0.59035033 -0.16850933 -0.7519947 -0.02135445 0.43387908 0.69606507 -0.2884601 0.29811868
-0.73170644 -0.26914647 0.23816194 0.39229956 0.03399882 0.090174675 0.097952805 0.3425582
0.08470266 0.8900304 -0.0559773 0.30665153 0.7810994 -0.5416842 0.022898857 0.039442133
0.031127997 -0.28907296 -0.12116168 0.22671744 0.3492728 -0.7396463 0.012216569 0.015522543
0.34764993 0.412326 -0.57231253 -0.10833636 0.18160594 0.29488623 -0.44412243 0.13187125

architecture.2.bias f4 [64]
00000000: 62db 5f3e 1a8b 863f c81f a2bf 1a7e 0bbf
00000010: f734 a73e 77ab 95bf 7bda 5f3f c342 09bf
00000020: 1e33 a6bf 3cfb 2c3f 095d 483f 9c25 a4bf
00000030: 558e 70bf 378a 193f 7507 0fbe 87ab 563f
00000040: bafd 9f3f fe09 f73e a252 31bf ce25 9c3f
00000050: dcfd b73e 2110 4fbf 2150 073f c9a3 a43f
00000060: ba6a 34bf 38f8 4a3f 503e ad3f 49c7 dabe
00000070: fa80 88bf 2d81 cabe 8ed7 9ebf 0c67 f23e
00000080: 60ed 3cbf b5de e03e c785 443f dfce 9cbf
00000090: 8b81 a1bf b385 b93f aa5a 30bf d83f 38bf
000000a0: af43 36bf 93e0 a2bf c185 0bbf bb21 393f
000000b0: 1cdf 9bbf af1b 163f 9945 1bbf b3e6 7f3f
000000c0: 1529 32bf de51 983f e3bd b73f 2225 12bf
000000d0: 826c a1bf 1bb7 92bf 55a4 50bf 4c2f 713d
000000e0: 73cc b63e 6ee4 e13e be28 d0be fc46 503f
000000f0: 6137 8fbf 501d 423f b1f5 95bf 085b 9e3f
0.21861032 1.05112 -1.2665949 -0.5448929 0.32657596 -1.1692952 0.8744275 -0.53617495
-1.298435 0.67570853 0.7826696 -1.2823977 -0.9396718 0.59976524 -0.13967688 0.8385548
1.2499306 0.4824981 -0.6926671 1.2199037 0.35935867 -0.80883986 0.5285664 1.2862483
-0.7047535 0.79285 1.3534641 -0.42730168 -1.066436 -0.39551678 -1.2409532 0.47344244
-0.73799706 0.43919912 0.7676663 -1.2250632 -1.2617658 1.4493927 -0.6888834 -0.7197242
-0.71197027 -1.2724785 -0.5450097 0.72317094 -1.2177463 0.5863599 -0.6065307 0.99961394
-0.69593936 1.1899984 1.4354824 -0.5708791 -1.2611239 -1.1462129 -0.8150075 0.058882996
0.35702857 0.4411959 -0.40656084 0.81358314 -1.1188775 0.7582598 -1.1715604 1.237153

architecture.4.weight f4 [1, 64]
00000000: d338 03c1 3800 a6c0 d41d a540 7ad9 0241
00000010: f695 e9c0 125f a440 b531 a3c0 89f6 a540
00000020: 1a97 a640 48cb aac0 7006 a2c0 86b5 a740
00000030: d16b a740 df77 edc0 24f8 ddc0 0e33 d3c0
00000040: 7e18 abc0 b513 f8c0 e542 d440 2885 aac0
00000050: 099a e4c0 b123 cb40 1b84 d7c0 b826 a6c0
00000060: c15f db40 9529 09c1 1655 a3c0 d8ee f240
00000070: 0132 ab40 acf8 c140 7035 a540 d442 0341
00000080: 0445 a340 cfb7 e4c0 1a8b f4c0 c8d2 a240
00000090: c265 a440 68de a3c0 b6b5 8440 1375 a640
000000a0: b95f dc40 862c a240 a670 9540 732e abc0
000000b0: 4c3b a740 648d ffc0 1c65 c940 bc3f adc0
000000c0: de09 da40 5623 a5c0 96cd a2c0 f43c f340
000000d0: d694 a240 9a1c 8240 1274 a540 5df8 05c1
000000e0: 2194 01c1 596c adc0 6a82 f840 7899 afc0
000000f0: d5f5 b240 5a19 a8c0 1823 a140 6c3a a8c0
-8.201373 -5.1875267 5.159891 8.178095 -7.299556 5.1366053 -5.0998178 5.1863446
5.205945 -5.3373146 -5.063286 5.2409086 5.231911 -7.4208827 -6.9365406 -6.5999823
-5.34674 -7.7524056 6.633166 -5.3287544 -7.143803 6.348107 -6.734876 -5.1922264
6.8554387 -8.572652 -5.1041365 7.5916557 5.349854 6.0616055 5.162773 8.203815
5.1021748 -7.1474376 -7.64198 5.08823 5.1374216 -5.120899 4.1471815 5.2017913
6.886685 5.067935 4.670001 -5.34942 5.2259884 -7.9860096 6.2935925 -5.41403
6.8137045 -5.1605635 -5.087596 7.6011906 5.0806684 4.0659914 5.1704187 -8.373136
-8.098664 -5.419476 7.7659197 -5.487484 5.592509 -5.2530947 5.035534 -5.2571316

exp_avg f4 [64, 27]
00000000: bcd6 3d38 f200 bdb9 d6dc 78b9 4cf7 0338
00000010: b294 8b38 8465 2938 4599 66b8 de74 5db8
00000020: be58 54b7 8183 b4b8 9842 94b8 4476 16b8
00000030: bb79 01b7 7915 c537 c12f 4338 396c cd38
00000040: b1ad 1fb7 79da 73b8 8087 c837 54cc 0938
00000050: 0aaa 0a38 f5cb e1b6 9c8a 9eb7 c59d d6b6
00000060: b827 7fb8 047f e3b8 7591 34b8 9efa b538
00000070: 3184 fc37 c9d4 0338 d287 aeb8 1957 c9b7
00000080: 49cb 7b38 824d d6b8 1958 8db8 b2f4 d538
00000090: fd7b 0836 5a40 36b7 18cc a5b8 40e0 0738
000000a0: d11a 1038 29e2 26b8 8e8e 6d37 cc05 0bb6
000000b0: f129 1fb8 ff3a b8b8 17b7 24b8 d34e 4138
000000c0: 8760 f4b8 83ba 8fb8 85fd cd38 5437 5d37
000000d0: 17a4 a4b6 2357 d5b8 5a66 6bb8 054e 4439
000000e0: b6a9 4c38 3c47 b6b8 9d16 7238 40fd 2b39
000000f0: b4c4 9839 382a 23b9 3c71 07b7 7e37 94b8
00000100: c6d8 ff38 4af1 62b9 d3e9 4439 79ff 26b9
00000110: 8bff 4eb8 e38a 35b7 674e ccb7 8119 9ab8
00000120: a71d f5b8 e18f 6d38 984d 1339 82f1 8439
00000130: ed9b f0b8 d790 c7b7 9b7a a7b8 c2a4 c438
00000140: 7110 80b9 8f55 8438 52f1 5c38 2260 1439
00000150: df45 4237 89e9 0539 bbf6 88b8 34c7 2bb9
00000160: 68dd e8b7 1c12 a338 1e60 78b8 6212 e6b8
00000170: 9fae feb8 cf61 44b7 54eb c738 e555 7038
00000180: 7a30 c837 daf2 0b38 b496 84b8 8ff5 0038
00000190: 6158 0d39 5ca2 c5b8 e8c4 48b9 e75b a1b7
000001a0: 41bf b838 ff42 4db8 acb4 07b9 595d e2b8
000001b0: b23e 0cb9 7d23 72b9 0e66 3839 3c3f fe38
000001c0: 75e4 0f38 d88a a7b8 2051 e637 116a 8db8
000001d0: 7525 3eb9 ee7a 9a38 d051 3fb8 7cd3 c038
000001e0: 0fbb 8db7 9c4c 5038 5fd1 a638 629d 5037
000001f0: 56ba b4b7 b39e dcb7 22fc 0939 d23c 8538
00000200: 784f eeb7 a947 dd38 020f b5b8 18f6 28b9
00000210: 0ad1 7238 313d a5b6 d6b6 1239 3b46 f937
00000220: 22ed a0b8 d06c f437 25b9 b6b8 1f3f 6f38
00000230: 8327 ffb8 5609 48b8 754e 9b38 9536 9038
00000240: c52b a638 dedd 8e38 6396 0b39 8d16 e9b8
00000250: 770e f8b7 febf c438 ea37 35b7 5ec3 8b36
00000260: f278 14b8 409c 93b8 94ce 4838 a290 e3b8
00000270: e9ce 12b8 65ce 6c38 d251 9938 b264 ab38
00000280: bdaf 9f38 e431 1539 1fda 61b9 bcd1 eeb8
00000290: 2504 1439 02b5 9538 b3b2 4538 44f0 afb8
000002a0: 1fc9 1fb8 9019 52b8 de2f 90b8 7adb 9938
000002b0: cd4b beb7 173b b737 93e5 3738 8bba 0637
000002c0: f2bf e738 0ed4 44b8 7bde 02b8 4c46 c4b7
000002d0: 969e 8638 40c3 5638 ba8d 95b8 e3be 06b7
000002e0: 5a36 3eb8 7001 91b8 a0fa 8c38 2456 78b7
000002f0: 80a2 1a38 84c1 bcb5 dc1d cfb7 be2c 16b8
00000300: f417 c536 c379 25b8 3ea1 4f38 c404 2238
00000310: bd7a 1cb8 b3fd 65b8 52c3 f837 589f 4037
00000320: 4803 a0b7 691a d537 25a6 0133 b9e5 0bb7
00000330: 943a 9635 ca62 00b7 7a12 f2b7 cf13 dd36
00000340: 5235 5ab8 0787 5538 3c8a 3738 6a6a 10b8
00000350: b0dc 83b8 142d d837 3e71 6337 e5e0 80b7
00000360: 42e8 3c38 6866 f2b8 7229 91b9 cef3 0338
00000370: 02e7 bc38 c763 b8b8 0865 a0b7 9712 0437
00000380: bf45 69b8 ada4 0c38 b2b8 bdb7 d037 1438
00000390: 0a78 a438 2de8 1839 e24c ca38 0319 5938
000003a0: 4611 94b8 ce18 2536 4f3e d837 be52 db38
000003b0: 5b4c afb8 c4bf dcb5 54ed b137 f70a 70b8
000003c0: 3aff 1338 3ad6 3ab7 6ef6 0638 44db 16b9
000003d0: 6304 2b39 2dc5 4a39 e800 6f38 ec90 73b8
000003e0: f393 a7b7 5b04 6e37 1b41 2138 2949 7fb8
000003f0: a7c9 7438 0649 b838 be94 d637 c25b 6338
4.52611e-05 -0.00036049593 -0.00023733391 3.1463147e-05 6.655733e-05 4.0387284e-05 -5.4979017e-05 -5.2799347e-05
-1.2656847e-05 -8.607563e-05 -7.069594e-05 -3.587293e-05 -7.717342e-06 2.3494229e-05 4.6536097e-05 9.79532e-05
-9.517579e-06 -5.8139183e-05 2.3904955e-05 3.285364e-05 3.3060125e-05 -6.7292663e-06 -1.8899613e-05 -6.396064e-06
-6.083373e-05 -0.00010847862 -4.305081e-05 8.677434e-05 3.0102297e-05 3.1431005e-05 -8.322265e-05 -2.4001625e-05
6.0032387e-05 -0.00010218752 -6.7398134e-05 0.000102022095 2.033775e-06 -1.0863028e-05 -7.9058285e-05 3.2395357e-05
3.435725e-05 -3.9788112e-05 1.4159492e-05 -2.0715988e-06 -3.7947615e-05 -8.7847926e-05 -3.9271163e-05 4.6088197e-05
-0.00011652806 -6.853512e-05 9.8223834e-05 1.3185509e-05 -4.9066834e-06 -0.00010172862 -5.612369e-05 0.00018721081
4.8795446e-05 -8.691705e-05 5.7718356e-05 0.00016402174 0.00029138254 -0.00015560619 -8.0729915e-06 -7.067526e-05
0.00012199725 -0.00021642927 0.00018779123 -0.00015926165 -4.935222e-05 -1.0820778e-05 -2.4355204e-05 -7.348043e-05
-0.000116880336 5.66392e-05 0.00014047918 0.0002535694 -0.00011473135 -2.3790095e-05 -7.9860176e-05 9.376697e-05
-0.00024426312 6.310187e-05 5.2676834e-05 0.00014150192 1.1579569e-05 0.00012770867 -6.5309425e-05 -0.0001638204
-2.7759655e-05 7.775819e-05 -5.9217324e-05 -0.00010970679 -0.000121441895 -1.1705283e-05 9.532893e-05 5.7300455e-05
2.3864432e-05 3.3366356e-05 -6.322321e-05 3.0746272e-05 0.00013479732 -9.423934e-05 -0.0001914684 -1.9235491e-05
8.8094275e-05 -4.8938204e-05 -0.00012941909 -0.00010793907 -0.00013374796 -0.00023092139 0.00017585626 0.00012123442
3.4306624e-05 -7.989042e-05 2.7455913e-05 -6.74316e-05 -0.00018133766 7.36619e-05 -4.5614142e-05 9.1946655e-05
-1.6895616e-05 4.9662412e-05 7.954495e-05 1.243441e-05 -2.1544442e-05 -2.6299944e-05 0.00013159265 6.353263e-05
-2.8408816e-05 0.00010551449 -8.633548e-05 -0.00016113406 5.789198e-05 -4.924507e-06 0.00013991757 2.9715817e-05
-7.673564e-05 2.9137736e-05 -8.712922e-05 5.7040827e-05 -0.00012166707 -4.769241e-05 7.40559e-05 6.876622e-05
7.9236495e-05 6.8124136e-05 0.00013312096 -0.00011114506 -2.957064e-05 9.3817696e-05 -1.0801459e-05 4.1652665e-06
-3.539859e-05 -7.03861e-05 4.7876107e-05 -0.000108511435 -3.5001813e-05 5.6459005e-05 7.310849e-05 8.1726714e-05
7.6144446e-05 0.00014228333 -0.00021538929 -0.000113877904 0.00014115924 7.138589e-05 4.7134887e-05 -8.389403e-05
-3.8095863e-05 -5.009171e-05 -6.875371e-05 7.336489e-05 -2.2685063e-05 2.1842816e-05 4.3844408e-05 8.030455e-06
0.00011050691 -4.6927533e-05 -3.1201616e-05 -2.3397755e-05 6.419157e-05 5.1203417e-05 -7.131272e-05 -8.031467e-06
-4.535015e-05 -6.9144065e-05 6.722403e-05 -1.4802008e-05 3.68678e-05 -1.4063412e-06 -2.4690227e-05 -3.5804456e-05
5.873846e-06 -3.9452465e-05 4.9502814e-05 3.8628248e-05 -3.7307607e-05 -5.483413e-05 2.9654857e-05 1.1481192e-05
-1.9075014e-05 2.5403877e-05 3.018626e-08 -8.338532e-06 1.1192919e-06 -7.652396e-06 -2.8857252e-05 6.5886193e-06
-5.202491e-05 5.090891e-05 4.375934e-05 -3.443138e-05 -6.287673e-05 2.5770198e-05 1.3556621e-05 -1.5363514e-05
4.5039e-05 -0.00011558534 -0.00027687434 3.1459895e-05 9.007567e-05 -8.792389e-05 -1.9120533e-05 7.872141e-06
-5.5616485e-05 3.3531967e-05 -2.2616561e-05 3.533793e-05 7.8424884e-05 0.00014582342 9.646431e-05 5.1760126e-05
-7.0604074e-05 2.4601354e-06 2.5778221e-05 0.00010458146 -8.3588726e-05 -1.6447088e-06 2.1210559e-05 -5.723067e-05
3.528523e-05 -1.1136342e-05 3.2177595e-05 -0.00014386798 0.00016309465 0.00019337675 5.6982884e-05 -5.8070684e-05
-1.9976846e-05 1.41869195e-05 3.8446025e-05 -6.0864873e-05 5.8361937e-05 8.7874054e-05 2.5580051e-05 5.4206474e-05
