raisimGymTorch/data/ouzel_only_planning/2022-05-09-12-17-53/full_85000.pt (torch, 162032 bytes, 36 tensors)

architecture.0.weight f4 [64, 27]
00000000: 440d 383d 6acc 02bf c538 46bd df06 123f
00000010: 3081 88bd 1080 5bbe 7c64 8cbd ff09 293f
00000020: cec0 f83d a721 303e 70d5 c33d 41a5 e7bd
00000030: eba7 e93d 484d 02bf 5f9b 50bf 5386 63bd
00000040: cc80 be3f a64a bf3f a57a d33e d7eb 9cbe
00000050: 0db4 92bd 4db2 a83e 312a 863e 2c41 553d
00000060: 7a12 a23e 181b 8abe 271e 8b3c c91a 1d3e
00000070: acf5 743e c173 18be e618 34be 5f2b 1d3e
00000080: a647 b23c 5b16 acbd b802 023d f02e 00be
00000090: f67b b2bc f78f 4ebe 4a0a 543e 7360 d0bf
000000a0: 5af8 e0bd 6e9d 0dbf 457c 103f 1623 01be
000000b0: 9ff2 083f 43d6 d9bd 0711 a23d b160 693e
000000c0: 70e8 e6bc c463 2bbd 6a4c 2f3d 90a0 06bf
000000d0: 240e 93bd 51e1 9fbe 48c2 bc3e 14db 1f3f
000000e0: cbb2 093e 5be6 073f ed6e 873e 460d 0c3f
000000f0: 8780 b0be d753 d1bd 77b6 28bf 1d45 e1bc
00000100: 57f1 7cbe 7f58 fbbd 34c8 eabe b1e4 2c3f
00000110: 86d1 e6be bf8f 84bd 4254 b5be 58ad 1f3f
00000120: e592 2cbd 1b68 653e 34c8 513f 7544 5ebe
00000130: 1732 333e 023b acbe abab a1bd 9e8e 70be
00000140: 8237 60be bcfc 84bf 48c1 1bbf 7705 4e3d
00000150: 00ff bebd 2e21 a1be 8cea d43c 1c39 84be
00000160: e46a a43d 3cf4 6dbe 06b3 de3c 7d94 d5be
00000170: 5635 663d b7aa 08c0 e807 3c3e 60ab 8f3f
00000180: 8d84 a0bc e279 78bd 341a 653d bbe0 18be
00000190: 2a15 a8be 5950 97be c9f0 9fbc 900e 193d
000001a0: e258 5fbe e409 743e cd47 9cbc 3ef7 e8bd
000001b0: e6f4 eb3e 7133 a03e fdd8 e3be 2d08 c33e
000001c0: 539b 38bd a912 05bf 8752 f33e 4867 a2bc
000001d0: 4b28 d73d 4670 aabe 69a2 d6be 341e abbd
000001e0: 566a e43e d8db e93e 65bf 5d3f 2f1a edbe
000001f0: 9d07 a13d 7ec7 f13e 1a5c 883e 92d3 bd3e
00000200: fc66 24bf 8278 d23e aabf 453c 7f64 2a3e
00000210: 0ebb 1ebe 5f0d 5abe ace9 12be 3bd4 9d3e
00000220: 7109 5dbe c0c6 fdbe 9462 b9bd 5a2b 91be
00000230: 9bd8 9fbd e063 1fbe ee35 babe 1412 eabe
00000240: 2e83 1dbe f595 893e 9ee1 bf3e f40d 40be
00000250: 3952 413f c71b 183f 216f 3a3f 4492 a23e
00000260: 5f17 7cbe 3b53 16be 4b8e f6be a691 19bf
00000270: 51f4 643d c283 4bbf 18bb 9abe 67b7 a1bd
00000280: 7fcf 9f3e a7f8 ee3d 0005 f9bc b00e 1cbf
00000290: ce9a 11bf 626b fa3d 47db b5be 207e 013e
000002a0: ea1e 84be 7491 d9bc 0eb0 e8be 1dfa 963e
000002b0: df47 013d bd56 893e c8ff 08bd 3684 573f
000002c0: cd1c ac3e 9cae 1a3f db64 13be fce0 73bf
000002d0: 1ae3 b9bd 1221 e4bd 09f4 9bbd 5f75 47be
000002e0: 22b0 31bd da12 053e 6c1e e83d a618 a73e
000002f0: 6ebe 83ba 6177 153f 48af bcbe 5026 e9be
00000300: 074a 0a3e 5ead ccbd c2bb 4dbe 2363 803e
00000310: 3591 c03e f60e e1be 6d4e ce3d 9a07 1bbd
00000320: cb02 0c3f b127 c13d df83 9b3f 41d4 81bf
00000330: 4327 b2bd c0b6 973e 0f54 0f3d 13be cabe
00000340: 4c54 143e 256a 1e3c b23a 5fbd 9337 9fbc
00000350: 85e5 eabe 6979 843e 4a3d 0a3d db86 253f
00000360: ad9c 89be b761 103f 9cd3 dd3e 928a e9be
00000370: 6a2e 763e 7112 603e 8908 273e 5b6a 05be
00000380: 069d ffbd 939a b3be 9b58 40bd 22d9 e73e
00000390: 9429 523e c155 1abf ac41 a03f f0b9 41be
000003a0: 345b be3e c4f6 fb3e 8979 a03e 667c b7be
000003b0: 8506 9fbe a46b 8e3e 7b57 013d df2c 1dbd
000003c0: 0cac 0abf e6c1 91bd d2bb 943c 6e61 993e
000003d0: d21f 8b3e bd0f 6a3e 519f 09bf ac4d 283f
000003e0: 77da 893e 9a1f 713e b4c0 17be 311e 60bf
000003f0: 620c 15be fc0b db3e 78a9 cfbe c245 b4bf
0.044934526 -0.5109316 -0.048393983 0.57041734 -0.066652656 -0.2143557 -0.068551034 0.6603088
0.121461496 0.17200337 0.09562194 -0.113108166 0.11408981 -0.5089917 -0.8148708 -0.055548023
1.4883056 1.4944656 0.41304508 -0.30648682 -0.07163248 0.32948533 0.26204064 0.052064106
0.31654721 -0.26973796 0.016982151 0.15342249 0.23921841 -0.14887907 -0.17587623 0.15348576
0.02176268 -0.084027015 0.031740874 -0.12517905 -0.021787625 -0.20172106 0.2070705 -1.6279434
-0.10984869 -0.55318344 0.5643962 -0.1261104 0.5349521 -0.1063657 0.07913404 0.22790791
-0.028187007 -0.04184319 0.042797484 -0.5258875 -0.071804315 -0.3122659 0.36866975 0.6244366
0.1344711 0.5308587 0.26451817 0.54707754 -0.3447306 -0.10221069 -0.6590342 -0.027498776
-0.24701439 -0.12272739 -0.45855868 0.67536455 -0.4508173 -0.0647273 -0.35415846 0.62373877
-0.042132277 0.22402994 0.8194611 -0.21705802 0.17499577 -0.3363877 -0.07894071 -0.23491904
-0.21896175 -1.0389628 -0.608418 0.05029818 -0.09325981 -0.31470627 0.025990747 -0.2582482
0.080282 -0.232377 0.027184974 -0.4171485 0.05620321 -2.1354196 0.18362391 1.1224174
-0.019594455 -0.06066311 0.055933192 -0.14929478 -0.32828647 -0.29553488 -0.019523995 0.037367404
-0.2181125 0.23831898 -0.019077206 -0.11375283 0.4608528 0.31289247 -0.44501486 0.38092175
-0.045070004 -0.519816 0.475239 -0.019824639 0.10505732 -0.33288783 -0.41920784 -0.0835537
0.44612378 0.4567554 0.8662017 -0.4630904 0.0786278 0.47222513 0.26632768 0.37075478
-0.6421964 0.41107565 0.012069622 0.16639899 -0.15501043 -0.21294163 -0.14346951 0.30825981
-0.21585633 -0.49565697 -0.090520054 -0.28353387 -0.07804986 -0.15565443 -0.3636927 -0.45716918
-0.15382072 0.2687222 0.3747682 -0.18755323 0.75516087 0.59417385 0.7282582 0.31752217
-0.2461829 -0.14680187 -0.48155436 -0.59987867 0.05589706 -0.7949792 -0.30220866 -0.07896309
0.31212994 0.116685204 -0.030397892 -0.6095991 -0.5687684 0.12227513 -0.35518858 0.12645769
-0.25804836 -0.026558615 -0.4544682 0.29487696 0.031562682 0.2682399 -0.033447057 0.8418611
0.33615723 0.6042268 -0.14393942 -0.95265174 -0.09076519 -0.1113912 -0.076149054 -0.19478367
-0.043380864 0.12995473 0.113339275 0.32635993 -0.0010051259 0.5838528 -0.3685248 -0.45537043
0.13504802 -0.09994005 -0.20091155 0.25075635 0.37610784 -0.43956727 0.10073552 -0.037849046
0.5469176 0.09431399 1.2149619 -1.01429 -0.08698895 0.29631615 0.034992274 -0.3959814
0.14485282 0.0096688615 -0.054499336 -0.01943568 -0.45878235 0.2587388 0.033749856 0.646589
-0.26877347 0.563991 0.43325508 -0.45613533 0.24041143 0.21882035 0.1631185 -0.13028853
-0.12481122 -0.35078868 -0.0469595 0.45282847 0.20523673 -0.602871 1.2520041 -0.18918586
0.37178957 0.49211705 0.31342724 -0.35837096 -0.31059662 0.27816498 0.03157757 -0.03837287
-0.5416877 -0.07117061 0.018155966 0.29957145 0.27172714 0.22857566 -0.5375872 0.6574352
0.26924488 0.23547211 -0.14819604 -0.8754607 -0.14555505 0.4278258 -0.40558982 -1.4083788

architecture.0.bias f4 [64]
00000000: e8e7 163f ff93 37bf 0135 a83f c459 343e
00000010: 2bc4 ab3e bd58 66bf a7e1 a6bf ed17 a5bf
00000020: ba63 85bf f8fc 8c3e 57cb ecbe 4a7a 153f
00000030: 8722 c83f ee20 cabf b904 9e3f c5c6 da3f
00000040: f921 54bf 0931 16bf eacd 9bbf e0a5 fc3e
00000050: 167e fa3f 5ba9 9fbf bd98 853f 6ac7 a3bf
00000060: 00c4 8d3d 9843 263f 11d4 9e3d a9b0 ecbf
00000070: 5915 3ebf b281 573d 8c0f 98bc a0b0 86bf
00000080: 33d3 a2bf 5075 a0bf fc42 91bf d74e b63e
00000090: d9af a23f b3a7 2fbf f30c 653f e6d7 9cbe
000000a0: 2dc8 84bf 4b83 34bf b198 c83f 5a54 80bf
000000b0: b864 98be 2245 e03e 4ec2 3fbe ff96 38bf
000000c0: 4356 d23e 0be4 a33f e3b0 983f 75e7 803f
000000d0: dc5d 823e 03ef b7bf f421 4dbf 388c c93e
000000e0: b084 46bf 934e b2bf 635e bb3f 887d d13f
000000f0: e812 d93f 2b63 ab3f ca96 45bd 90b8 a23d
0.5894761 -0.717102 1.3141176 0.17612368 0.33548102 -0.89979154 -1.3037614 -1.2897927
-1.0421059 0.2753675 -0.46248886 0.58389723 1.5635537 -1.5791299 1.2345191 1.709191
-0.8286434 -0.5866857 -1.2172215 0.49345303 1.9569728 -1.2473558 1.0437237 -1.2795231
0.0692215 0.6494689 0.07755292 -1.8491412 -0.74251324 0.05261392 -0.0185621 -1.0522652
-1.2720703 -1.2535801 -1.1348567 0.35607025 1.2709914 -0.68615264 0.89472884 -0.30633467
-1.0373589 -0.7051284 1.5671598 -1.0025742 -0.29764342 0.43802744 -0.18726465 -0.721054
0.41081437 1.2803968 1.1928982 1.0070635 0.25462234 -1.4369816 -0.80129933 0.3936479
-0.77546215 -1.3930229 1.463818 1.6366434 1.6958895 1.3389639 -0.048239507 0.07945359

architecture.2.weight f4 [64, 64]
00000000: d591 c03c ff4c 8f3e 181e fdbe 4a44 5c3d
00000010: 80e9 693d 6ad1 7b3c 1059 a03e ff2f 0a3f
00000020: fd88 fe3e 49f9 b8bd 0adf 813e 011b 39be
00000030: 059f fdbe 9712 383e e48a cbbe 2a7f a4be
00000040: 52a3 0bbe 15dc 2c3d ab94 0a3f 7325 23be
00000050: 4b1f 7abf e7a6 043f 72da c7be 1c22 033f
00000060: befd 71bc 9294 2d3e e5a8 783d 4281 123f
00000070: 9325 bd3e a1d6 2bbb 42c5 81bd 4e11 db3e
00000080: f49b dc3e 0c12 963e bb72 463e 01f4 8b3a
00000090: af4b 83be 701d a9bd 00fa c0be 3725 2e3e
000000a0: 4dfd 6b3e 3956 263e 5a23 1cbd 2749 833e
000000b0: db3c 59be f895 a5be a1eb cabb 5e6d ac3e
000000c0: b5bd d93d facc 0cbe 4f34 6abe 9da5 0c3f
000000d0: 2b06 1b3b f1aa 8a3e 042a ca3e 2c55 d73e
000000e0: d791 07bc bcbe e43e dc20 84bf 9f69 cdbe
000000f0: 3669 11bf e9af 44bf b766 9abe eeb8 863e
00000100: 01b3 c53d e1b1 7ebe 21f8 303d 68f8 8f3e
00000110: 6d69 1ebe 7d5c 28bd 3fe2 39be 08f3 11bf
00000120: d825 373f 5409 923d 9e64 a93c 0370 6e3c
00000130: ff26 64bd 9907 273f 0eb3 bb3e 072a 203e
00000140: 2bf3 cb3d f9c5 033e 9f87 dcbe cbd5 b03d
00000150: 1b7d 553f 9bf6 ad3e cf61 8fbb 1fb3 25be
00000160: 458e 423e b582 003f 143a a1bc 9818 abbd
00000170: c37c 4d3f 0728 cb3e 465a ddbd 434a 1d3f
00000180: cf9f bfbe e342 2bbe 08ea ac3c b9b8 3a3e
00000190: 7fa7 4b3d 5408 05be 07cd 36be e8c8 a13d
000001a0: 8380 6b3e 5f76 43bd 8ec6 89be 8ab1 8e3e
000001b0: 99be 8abc 12f6 85be 9497 23be 3d37 b0bc
000001c0: 65f2 873c 48ed 02bf 8a4a e53d df81 863e
000001d0: cc1c 4bbe 6c58 743f 7595 563e 1fe0 cabd
000001e0: 3218 663e b071 383f 7092 57bc 0e1d 283f
000001f0: 1449 6a3f 126f 9dbe eacb e23e 9458 6e3d
00000200: 8256 eb3d 620b d0be ad83 513e 1cdf bfbe
00000210: 4b53 28be bacb 4cba 1367 da3d 649a 14bf
00000220: 868a c6be d744 bd3e ab1b 50bc f8cb cdbc
00000230: 3fb1 14be 142b d43b 5ac7 86ba 38a6 75be
00000240: 9ec6 fabe 6fe4 453f 95d8 41bf 6d6f cabe
00000250: 8e15 533f 2acc 3dbf d814 ab3d 416d a6bd
00000260: 3994 083f 8d43 4abc b700 293f d4d0 c43e
00000270: c489 6cbe 1776 dcbe 2665 233f 972d 8ebf
00000280: ae4f 353e 203a 0c3f 8a77 44bf b403 553e
00000290: a335 d63e e169 f1be 41f8 cf3e 3dbd 353f
000002a0: 3d84 093f adf5 d5be 9158 883e 905e 7ebf
000002b0: cf41 303d 2d88 0e3f c41b 9abe 9f58 17bf
000002c0: dda4 9bbc 6e04 1a3f 0629 9dbe 8ca2 b33e
000002d0: 7914 0f3f 2952 7d3d 1b27 3dbf 5f0b 14bf
000002e0: f40c 023e bd05 36bf a790 2a3f 4ebd 973e
000002f0: 8c6a 7ebe cde9 d83d bf0a 9bbd fed9 c5bd
00000300: 680d 3dbf f92a dc3d 4601 65be 6a0a 463e
00000310: bc21 173f 3628 543e 40f7 2b3f de4a b7be
00000320: 0594 ca3e 5ff4 09bf cebb 993e ac39 46bf
00000330: a080 1d3e 2656 0f3f 028d 8ebe ad25 17bf
00000340: 9840 123f c809 f13d 5a10 983e 3aef 6b3f
00000350: ad10 2dbf 8ce3 fa3d a89a 32bf dcf7 22bf
00000360: defb cbbe ed02 15be d2fa 2bbf cd55 ff3d
00000370: 38ad 8f3c efdb 993e 8589 07be 7e24 fb3e
00000380: e65a 0a3f 159d 70bf 0d3d 5c3e e4d5 873e
00000390: 1f26 46bf 7614 0a3f c8b4 34bf f08b 8b3e
000003a0: a2e9 12be 6c37 833f af17 6fbd a6b1 9dbe
000003b0: 534b 343f f8c6 83bf f805 333f 7ff7 8abe
000003c0: e14c 093b 97c5 06bf ccca ba3e f281 4dbf
000003d0: 9242 abbe 2246 e1be d23d 983e 4be0 6d3f
000003e0: f19c 2c3f 3e8a b3be 049c 7dbe 6d5e 6f3e
000003f0: 1ad6 dc3d 942c 7d3e dd5a 993d 9801 1fbf
0.023507038 0.2798843 -0.49437022 0.053776063 0.05710745 0.015369752 0.3131795 0.53979486
0.4971389 -0.09031922 0.25365478 -0.18076707 -0.49535385 0.17975841 -0.39754403 -0.32128268
-0.1363652 0.042202074 0.541331 -0.15932254 -0.97704 0.5181717 -0.39033848 0.5122392
-0.0147699695 0.16951206 0.060707945 0.5722848 0.3694273 -0.0026220458 -0.06336452 0.4278664
0.43087733 0.29310644 0.19379704 0.0010677577 -0.2564368 -0.08257568 -0.37690735 0.17006384
0.23045845 0.16243829 -0.03811965 0.25641748 -0.21214621 -0.3234098 -0.00619264 0.3367719
0.10631887 -0.13750067 -0.22871517 0.54940206 0.00236548 0.27083543 0.3948518 0.42057168
-0.008274517 0.4467677 -1.0322528 -0.40119645 -0.56801164 -0.7683092 -0.3015649 0.26312965
0.09653283 -0.24872543 0.043205384 0.28119206 -0.15469904 -0.04110383 -0.18152712 -0.5701146
0.7154212 0.071306854 0.02067786 0.014553073 -0.055701252 0.6524597 0.36660045 0.15641032
0.0995849 0.1286849 -0.4307222 0.08634528 0.8339402 0.33977208 -0.0043756734 -0.1618161
0.18999584 0.50199443 -0.019681014 -0.083543 0.80268496 0.39678976 -0.10808234 0.6144144
-0.37426612 -0.16724734 0.021107689 0.18234529 0.049720284 -0.12991458 -0.17851649 0.07899648
0.22998242 -0.04772031 -0.26909298 0.27869827 -0.016936587 -0.261643 -0.15975791 -0.021510715
0.016595075 -0.5114331 0.11195858 0.2627096 -0.19835204 0.9544742 0.20955451 -0.09906029
0.22470167 0.72048473 -0.013157472 0.65669334 0.9151776 -0.30748802 0.442962 0.058189943
0.114911094 -0.40633684 0.20460387 -0.37474906 -0.16438024 -0.000781234 0.10664191 -0.5804808
-0.3877756 0.36966583 -0.012701909 -0.025121674 -0.14520739 0.006474862 -0.00102828 -0.23989189
-0.48979658 0.77301687 -0.757211 -0.39538136 0.82454765 -0.74139655 0.08353585 -0.08126307
0.5335117 -0.012345207 0.66016716 0.38440573 -0.23099428 -0.43058845 0.63826215 -1.1107663
0.17706177 0.5477619 -0.767449 0.20802194 0.41837797 -0.47151092 0.4061909 0.7099188
0.53717405 -0.41788998 0.2663007 -0.9936304 0.04303151 0.5567654 -0.30099308 -0.591196
-0.018999511 0.6016301 -0.3069536 0.3508495 0.55890614 0.061845932 -0.73887795 -0.5782985
0.12700254 -0.71102506 0.6662697 0.29636616 -0.24845332 0.10591469 -0.07570409 -0.09660719
-0.7384858 0.10750384 -0.22363767 0.1933991 0.5903585 0.20718464 0.6717415 -0.35799307
0.39566055 -0.53888506 0.30026096 -0.7743175 0.15381098 0.5599083 -0.27841955 -0.59041864
0.5712981 0.11769444 0.29699975 0.92161906 -0.6760357 0.12250432 -0.69767237 -0.63659453
-0.39840597 -0.14551897 -0.67179596 0.12467537 0.017538652 0.3005061 -0.13236053 0.4905128
0.5404495 -0.9398969 0.21507664 0.26530373 -0.7740192 0.5393747 -0.7058835 0.272552
-0.14346936 1.0251288 -0.058372196 -0.30799598 0.70427436 -1.0295095 0.6993098 -0.2714195
0.0020950364 -0.5264525 0.36482847 -0.80276406 -0.33449227 -0.4399882 0.29734665 0.9292037
0.67426974 -0.35066408 -0.24766546 0.23375864 0.10783024 0.24724036 0.07488034 -0.62111807

architecture.2.bias f4 [64]
00000000: c8d6 07c0 3553 f63d 6b7f 9d3f 1d6b 24bf
00000010: edb6 02bf fa10 1abf a446 393f 5aaa 6ebf
00000020: 89d5 6ebe 54f2 0abf d81e d6be e2fa d13d
00000030: 2b5d 153e d0a2 31bf 8aa4 6e3f 3854 893e
00000040: e9a0 7f3f 17c5 533f a902 0f40 d187 433f
00000050: e391 39bf 6af8 743e 94b6 bcbe 9e86 6cbf
00000060: 8ccf 79bf 5b85 0f3f 9e8b f83b 15fa 2b3e
00000070: 4b7a 3c40 aa8e 61be d0f8 e03e 0b5b e33e
00000080: 03d9 87be ea36 44bf 9f16 153f e6ab 073f
00000090: 0392 23bf 96dd c23c 6cbf 38bf 371c dd3f
000000a0: fb5d 0dc0 8e1d db3e c38e 0ebf 0a9b 063e
000000b0: 71cd c03e 331f aa3f 2e8a e1bf cd9b 123f
000000c0: 99fb ef3e ee9c 33bf 41db a8bf a1dc 44bf
000000d0: 7f6b 633f 9ed6 153f 3039 84bf 968d 1f40
000000e0: 62bd e8bc c522 c73e dba8 7c3e 9183 3dbe
000000f0: 1a68 3bbe 45fa 213e de39 233e cb53 25bf
-2.1224842 0.12027589 1.230451 -0.6422594 -0.5106037 -0.60182154 0.72373414 -0.93228686
-0.23323645 -0.54276013 -0.41820407 0.1025293 0.14586322 -0.6938906 0.93219817 0.26822066
0.99854904 0.8272261 2.2345374 0.76379114 -0.7248823 0.23922887 -0.36858046 -0.9239291
-0.97582316 0.5606286 0.007585003 0.16794617 2.9449642 -0.22027078 0.4393983 0.44405398
-0.26532754 -0.7664629 0.5823764 0.5299667 -0.6389467 0.023787301 -0.72167087 1.7274235
-2.208861 0.42795986 -0.5568659 0.1314508 0.3765674 1.3290771 -1.7620294 0.57268983
0.4687164 -0.7016133 -1.3191911 -0.76899153 0.888359 0.58530605 -1.0329952 2.4930167
-0.028410617 0.38893715 0.24673788 -0.1850722 -0.1830143 0.15818126 0.15940043 -0.6458098

architecture.4.weight f4 [9, 64]
00000000: 57aa 3fbc 8ffe d33d 9d00 e93c bd6c 91bc
00000010: b210 87bc 5f8c f93b f1d8 9a3c bd69 e83c
00000020: 4323 a7bb a6c1 7dbb 280d d1bb bb1d 9a39
00000030: 6ab6 d73c 75c2 09bc 4a66 0e3d d6e0 193a
00000040: 3cfc ccbc 0cef 0e3c 8f38 ce3c c161 2cbc
00000050: f9e8 ec3b e886 553b cb4d c2bc 4d83 ac3a
00000060: 405e 523a f502 e6ba 5928 493b 1f5f a3bb
00000070: 88c3 c03c b26d 25bc 7b6b e6bb e5d0 e9bb
00000080: e58d f9bd 16a6 063c 2665 8dbc 9a46 68bc
00000090: 94f0 113c f46b 143b 07cf 563b 8805 d83c
000000a0: 8bbc cabb 4ef2 673c 56e3 f5bc b56f 753c
000000b0: da5d 7c3b 4724 d93c 5706 ca3a f857 b9bc
000000c0: 058a b2bc 50df 463c eccb 0abd 167b 1abc
000000d0: 23ae 8d38 c696 d4bc fb7d 623c 228b 06bd
000000e0: e1b4 43bd 295f 2eba 091d a4bb 9356 c5bc
000000f0: fad0 53bc 0ea4 0cbc 0148 95b9 fca5 5ebc
00000100: d851 67bd 91b1 793d 143c 27bc 1ce4 473c
00000110: 941f b8bc bb94 493c c8e8 92bd 3d5b f43c
00000120: a4b2 3cbc 01c6 5bbb 258f c9ba 5653 8cbc
00000130: 12bc 1c3e bbf1 19bd 5368 32bc cd1e 86bc
00000140: e31d ac3b 30c2 6abc b988 f9bb 95ce 54ba
00000150: 288b 083b 1629 ef3c 0f05 75bc 0133 183c
00000160: c07d bebb ff01 a6bc 65b0 eb3b b323 8fba
00000170: d924 92bc 3a54 0dbc 5f37 11bc 8fe4 d93a
00000180: 1fd4 1d3d 6bdc 00bc 8076 c43c 9ac6 1b3c
00000190: c9f1 423b 6b01 333c ea42 993c c8cb 353c
000001a0: 0375 2fba cc95 a3ba b027 5fbd 2971 b73b
000001b0: bcd5 8b3a 1545 e2bc b1ac 83bc 4cb5 2cbd
000001c0: 1d76 1fbd 0419 833c 306b e4bc c1dc 2b3d
000001d0: 8856 e33b e229 5aba 297d bd3c 0050 c9bc
000001e0: c21e fb3c 490d 8a3b d636 723b a0fb 3fbc
000001f0: 2ddb 393c 17a9 823c 9caf 583c 0b44 ad3c
00000200: e2bd e53c e642 24be 8133 4d3c 87ba 3d3a
00000210: 320c 9ebb 0aea 8a3b a232 c7bc 7368 833c
00000220: 5a41 b6bc 6e5a 493c 58e4 d83c c67c e1bb
00000230: 50d9 793d d02e 853c 83ef 4d3c f518 bdba
00000240: 8a87 12bc 0709 fdbc 9ab6 90bc bdff 1bbc
00000250: 3b57 1ebc 0730 97bc cb24 d6bc 84a3 84bc
00000260: 20f6 1cbc 0f7f 403c e53a c63b 2562 243c
00000270: ab37 293e e076 113b 6b9f d3bb a8f8 8ebc
00000280: 2fa1 71bd 9632 21bc 4db7 eebc 8293 263c
00000290: ec71 f53b 57c1 93ba b23c 343c 7f8f c13c
000002a0: 40e5 923b 0e3f aabc b94d d5bb 4d51 283b
000002b0: 684b 18bc 9bb3 0f3c e810 383c d94e f7bb
000002c0: 6e7a 43bc 9c8c 65bc fab2 6dbc 3b82 993d
000002d0: 46b9 a8bc 8318 0cbb 5d0b b3bc e852 47bc
000002e0: ef6c c6bb 3a8f b9ba d3d3 dc3b 61d7 02bc
000002f0: 3655 663a 015d b63c e971 fbbb 9b9c c0bc
00000300: f869 5bbf cd7a 37be 325f 3b3f c19c 19bf
00000310: 6032 d4bd a465 7bbd abb0 313e 731e cebe
00000320: 37ed b5be 95dd a9be 1d06 40be 51ed 8e3d
00000330: dabe 703e 2709 3ebf b2eb 173e 2cd0 1d3e
00000340: a650 d93e 42d7 2a3f 4200 5d3f 391a a33e
00000350: 66f5 e1be c9c6 ae3e a2ae 2a3b db44 6dbf
00000360: 3958 7dbf 1637 d43e c3d1 a7be 3193 cd3d
00000370: ba68 4b3f f933 0abf c19f 263e 7739 80bd
00000380: d8f1 76be dd0a b4be 789e 083f 1d6a 9dbd
00000390: 5c10 ccbe 5628 423e aea8 c3be 1aa0 e73e
000003a0: 5401 27bf 9753 423e 00c8 66be 34b8 1e3e
000003b0: c27e 1a3f d1fc 483f 7997 dabe e823 7a3e
000003c0: 5aff 943c 7bfe 6bbe a471 98be 0089 6abe
000003d0: 0e81 f13d 5c33 1f3e ef83 2fbf 64b5 343f
000003e0: 7f51 61bc 9463 263e 28f2 f6ba 8cb8 b2bd
000003f0: 1614 00be 139a 55be 4478 4f3e 72cd c8be
-0.011698327 0.103512876 0.028442675 -0.017752046 -0.016487453 0.0076156105 0.018902274 0.028370732
-0.005100639 -0.003872016 -0.006379742 0.0002939532 0.026332099 -0.008408179 0.03476552 0.000586999
-0.025022618 0.008723985 0.025173454 -0.010521353 0.007229921 0.003258163 -0.023718735 0.0013161689
0.00080249086 -0.0017548489 0.0030694215 -0.0049857046 0.023530737 -0.010096954 -0.0070318556 -0.007135498
-0.12185267 0.008218309 -0.017260145 -0.014176989 0.008907456 0.0022647353 0.0032777207 0.026369825
-0.006187027 0.014156891 -0.030015629 0.014980246 0.0038508088 0.026506556 0.0015413266 -0.022624955
-0.021794328 0.012138203 -0.03388588 -0.00942876 6.7558394e-05 -0.0259508 0.013823981 -0.03284753
-0.04777992 -0.0006651753 -0.005008344 -0.024089133 -0.012928242 -0.008584036 -0.00028473142 -0.013589378
-0.056474537 0.060960356 -0.010207195 0.012200382 -0.022475995 0.0123035265 -0.07173306 0.029828662
-0.011517201 -0.0033534768 -0.0015377743 -0.017129581 0.15306118 -0.037584048 -0.010889131 -0.016372109
0.005252586 -0.0143285245 -0.0076151756 -0.00081179413 0.0020834897 0.029194396 -0.014954819 0.009289504
-0.0058133304 -0.020264624 0.0071926587 -0.0010920673 -0.017839836 -0.008626038 -0.008863299 0.0016623902
0.038532373 -0.007865052 0.023982286 0.0095077995 0.0029746166 0.010925631 0.018708665 0.0110959485
-0.00066931563 -0.0012480556 -0.05448121 0.0055982065 0.0010668556 -0.027620832 -0.016073557 -0.042165086
-0.038931 0.01600314 -0.027883142 0.041958574 0.0069378056 -0.0008322281 0.02313097 -0.02457428
0.030654315 0.0042130095 0.0036958954 -0.011717707 0.0113437595 0.015949769 0.013225462 0.02115061
0.028044645 -0.16041145 0.0125244865 0.00072375726 -0.004823231 0.0042393254 -0.024316136 0.016041016
-0.022247959 0.0122896265 0.02647607 -0.006881329 0.06099826 0.016257674 0.012569311 -0.0014426993
-0.008943448 -0.030888094 -0.017665196 -0.009521422 -0.009664352 -0.018455518 -0.026140591 -0.016191252
-0.009580165 0.011749043 0.0060495012 0.010033165 0.16525142 0.00221961 -0.006458213 -0.017452553
-0.058991607 -0.009838721 -0.029140139 0.010167005 0.007490387 -0.001127283 0.011000799 0.023627995
0.004482895 -0.02078202 -0.0065095094 0.0025683225 -0.009295322 0.008770849 0.0112344995 -0.007547241
-0.011931045 -0.014010575 -0.014508003 0.074955426 -0.020596158 -0.0021376915 -0.021856004 -0.0121657625
-0.0060554664 -0.0014157065 0.0067391186 -0.007985921 0.0008786501 0.022261145 -0.0076734913 -0.023512175
-0.8570857 -0.17917939 0.7319213 -0.6000481 -0.10361171 -0.06137623 0.1735255 -0.40257606
-0.35532543 -0.33176866 -0.18752332 0.06978858 0.23510304 -0.74232715 0.14836004 0.15411443
0.42444342 0.6673471 0.8632852 0.31855944 -0.44132537 0.34136036 0.002604403 -0.9268319
-0.9896274 0.41448277 -0.32777223 0.1003784 0.79456675 -0.53985554 0.16271879 -0.062609605
-0.24115694 -0.35164538 0.53366804 -0.07686255 -0.3985623 0.189607 -0.3821463 0.45239335
-0.652364 0.189772 -0.22537231 0.15499955 0.6034967 0.7851077 -0.4269369 0.2442776
0.018188167 -0.23046295 -0.297742 -0.22903824 0.11792193 0.15546936 -0.6856069 0.7058928
-0.01375234 0.16248924 -0.0018840479 -0.08726606 -0.12507662 -0.20859556 0.20260721 -0.39219242

architecture.4.bias f4 [9]
00000000: fec8 9fbd fa47 15bc dfbf 86bd 578b 8a3f
00000010: 8d63 ac3d 514a 0bbd eec6 b2bd 8053 443f
00000020: 92e6 58be
-0.07802008 -0.009111399 -0.06579565 1.0823773 0.08417425 -0.03400642 -0.08729349 0.7668991
-0.21181706

std f4 [9]
00000000: cdcc 4c3e cdcc 4c3e cdcc 4c3e 711f c63e
00000010: fd8d 573e cdcc 4c3e 4d80 8d3e ccea 6f3e
00000020: cdcc 4c3e
0.2 0.2 0.2 0.38695863 0.21050258 0.2 0.27636948 0.23429412
0.2

architecture.0.weight f4 [64, 27]
00000000: 859b 08bc 112b f7bc cdba bbbc d3d9 b63d
00000010: b14b cb3f 1b94 6abe 2388 8abf ad0f f1be
00000020: 23ec 5dbf 361c d2bd d068 403e 5fe4 9d3d
00000030: 8e80 9d3c be9a 093e 1f50 b1bd 068f 873d
00000040: 7b6c 2fbe e346 84c0 f76f 54be 3ff7 d0bf
00000050: 7f68 9c3e 05c0 983f ee7f 0f3f a9a2 7e3f
00000060: 9f12 783d 5efb 0dbe cb0a 81be 3bdd 13bc
00000070: 56b1 813b c1e5 77bc 5e40 2e3d db26 35be
00000080: 9e31 fb3e 7e00 40be 10a1 09bf 53b4 513e
00000090: 2ed3 753d 5b3f b1bb 3122 ccbe 7ce8 153e
000000a0: 4a49 243e 3b5b b0be 8060 bb3d 058d 0e3e
000000b0: cd22 7dbb 1886 69bd d48c 483e 9473 71be
000000c0: efa8 353e 6ff2 cb3e 2083 963d 7d66 453d
000000d0: 0ff6 15be ca06 5ebe a0a7 89bd 2f3a 87bd
000000e0: d5fe a93d 1246 ba3e e80e 3fbf b20f 603f
000000f0: 2102 683f 0d51 633f 8c06 41bf d425 4c3e
00000100: fb89 c5bc 4009 343d 3511 1c3d 3485 00be
00000110: 57bd 3cba 1eb5 823c 346c cebe 1f06 0ebf
00000120: 8dca bebe 7ec2 2c3f 75a3 59bf 8870 75bf
00000130: c4aa 62bf 4834 443f b48c 4cbe 727b 79b9
00000140: f762 14be b0d5 6ebd 5408 c6bd ca38 e03e
00000150: 44dd d9be 3009 a63d 1879 66bc 07de 833e
00000160: 48d5 c2be 8855 763e 8522 b3bd f0e4 1d3e
00000170: b26b d43d 50b2 b1bc 74e6 8ebc adc4 a23a
00000180: 79f7 13bc 377b 29bd d557 863c 2f56 c43e
00000190: c3a5 9fbd c351 893c 43e1 84be 1451 9e3e
000001a0: 7821 70be 270c a73d 9047 30be 0640 01be
000001b0: 596c 6e3c 4a55 763c 62f8 993b ac02 8d3d
000001c0: 6373 46bd b178 aabe e598 e33d 0248 493d
000001d0: c37a 2abd a762 683d da8c eebd ae4e 78be
000001e0: e24c bdbe 2e4e 7e3d be60 98be 10d0 1e3d
000001f0: d015 943b a271 803c 2640 e43d 16ee 5fbd
00000200: e7ab 13be 8002 c5bd 3e26 a33d e14c 803e
00000210: 2074 ff3d aebb 99bc 94b3 04be 3cfb 19bc
00000220: d222 183a 5feb 43bd e8d0 d53b 33a1 463d
00000230: 3a49 3d3d dc51 adbd 7a78 023d 94c2 433d
00000240: 69cf a5bc fffe 24bc 4b47 283e beda 5c3f
00000250: 312e 563d 928c 0a40 d736 06bd e0f5 733d
00000260: a965 68bd 48ba 2fbc 790c 13bd b077 1bbd
00000270: 4243 9c3d 3f74 dfbb bf3e 9dbc 9668 dd3c
00000280: 97d4 2fbb 52a4 913c aee5 b63a 55c3 bf3c
00000290: 361d 27bc c95b a6bd 0d90 cc3d dd6c c0bd
000002a0: d222 4bbe 3707 1dbe 9cf5 8f3d 06a9 2a3e
000002b0: 7068 89bd e718 92bd 8113 f5ba a0ec 06bc
000002c0: d195 753b 8881 aabc 971b ac3c 250b 8a3e
000002d0: 0643 973d 5202 bbbd 2487 cb3d 4095 edbb
000002e0: d087 223e bb9f a5bb 6cc6 2b3e 4f02 38bd
000002f0: 4327 fa3d 8d17 00bd 3041 6d3c eb7e e23c
00000300: 26ad 0ebd df1c e53c 4b7b 1b3c e459 003c
00000310: 7e4c 34bd 9071 babd 714d 7c3b 5f29 dc3c
00000320: 4eba 03bd 3f96 cf3f ba04 cfbf c013 273e
00000330: fbe6 f7ba 6b53 38bb 61b3 60be 7cb6 243d
00000340: 1545 86bd f4d8 453d 6735 0c3c 9695 b63c
00000350: a820 fb3b 1125 1cbd 0faa fdbc 5185 a0bc
00000360: e878 41bd ea27 af3c 2eb3 e23b 5fe8 53be
00000370: 2939 6b3d c993 f5be 2672 c43e e22a b33c
00000380: 67d5 de3e 9f94 87be 3938 1c3e 84d4 ccbe
00000390: ebcc 81be ff08 6a3e 8d88 9abe be86 2cbd
000003a0: d29b 15be fa93 18bd e2ab 35be 1422 ae3d
000003b0: f662 e6bc 05af 553c 1588 b3bd 8a88 20bc
000003c0: 4600 79be 0b46 27bd 7c7d 68be 63e4 d83e
000003d0: 71ae 37bd 6ad1 2ebe c516 12bd 77a7 ce3e
000003e0: 3a69 f1bd 171e 1d3e 3f06 55be 39b4 933e
000003f0: 0345 723e 65e8 f5bd f576 a33e c28f 5bbc
-0.00833786 -0.030171903 -0.022916222 0.089282654 1.5882474 -0.2290806 -1.0822796 -0.47082272
-0.8668844 -0.10259287 0.18789983 0.07709574 0.019226339 0.13437936 -0.0865786 0.066190764
-0.17131226 -4.133653 -0.20745836 -1.6325454 0.30548474 1.19336 0.5605458 0.9946695
0.060564633 -0.1386542 -0.25203547 -0.009024913 0.0039579077 -0.015130461 0.042541854 -0.17690603
0.49061292 -0.18750188 -0.53761387 0.20478944 0.06001585 -0.005409164 -0.39869836 0.14639467
0.16043583 -0.34444603 0.09149265 0.13920982 -0.003862548 -0.057012647 0.19584972 -0.23579246
0.17740224 0.398334 0.07349229 0.048193444 -0.14644645 -0.21682277 -0.06721425 -0.066028945
0.083005585 0.36381584 -0.7463212 0.8752395 0.9062825 0.8879555 -0.75400615 0.19936305
-0.024113646 0.043954134 0.038102347 -0.12550813 -0.00071998447 0.015955504 -0.40316927 -0.5547809
-0.3726391 0.6748427 -0.8501504 -0.95874834 -0.8854182 0.76642275 -0.19975549 -0.00023792477
-0.14490877 -0.058309257 -0.09669557 0.43793327 -0.42551625 0.08107221 -0.014066957 0.2575533
-0.38053346 0.24056065 -0.087468185 0.15419364 0.10372104 -0.021691471 -0.017443873 0.0012418233
-0.00903117 -0.041377272 0.016399303 0.38347003 -0.077952884 0.01676262 -0.2595311 0.30921233
-0.23450267 0.08156615 -0.17214799 -0.12622079 0.014552199 0.015034983 0.004698799 0.06885275
-0.048449885 -0.33295205 0.11113147 0.049140938 -0.04162098 0.056734707 -0.11647959 -0.24248764
-0.3697272 0.062086277 -0.29761308 0.038772643 0.004519202 0.015679184 0.11145048 -0.054670416
-0.14421044 -0.096196175 0.079662785 0.25058654 0.12473321 -0.01876625 -0.12959129 -0.009398278
0.00058035285 -0.04783189 0.0065251477 0.048493575 0.046212412 -0.08462879 0.031853177 0.047792986
-0.020240502 -0.010070561 0.16433446 0.86271274 0.052290145 2.1648297 -0.032767143 0.059560657
-0.056737576 -0.010725565 -0.035900567 -0.03795594 0.07630016 -0.0068192775 -0.019194959 0.02702741
-0.0026829594 0.01777855 0.0013953948 0.023408571 -0.0101998355 -0.081229754 0.09988413 -0.09395764
-0.19837502 -0.15334783 0.07029268 0.1666604 -0.06709373 -0.07133656 -0.0018697829 -0.008235127
0.003747333 -0.020813718 0.02100925 0.26961628 0.073858306 -0.09131302 0.099378854 -0.007250458
0.15872121 -0.0050544417 0.1677491 -0.044924077 0.1221452 -0.03127246 0.014480874 0.02764841
-0.034833096 0.027967868 0.009489845 0.007833932 -0.04401826 -0.091036916 0.0038498307 0.026875196
-0.032160096 1.6217726 -1.6173317 0.16316128 -0.0018913442 -0.0028125893 -0.21943428 0.040213093
-0.06556145 0.048302606 0.008557654 0.022288125 0.007663805 -0.038121287 -0.03096488 -0.01959482
-0.047234446 0.021381337 0.0069183325 -0.20694111 0.05742756 -0.47964314 0.38368338 0.021871034
0.43522188 -0.26480576 0.15255822 -0.40005887 -0.25351653 0.22854994 -0.30182305 -0.042120688
-0.14610222 -0.037250496 -0.1774135 0.08502594 -0.02812336 0.013042216 -0.0876619 -0.009798178
-0.2431651 -0.040838283 -0.22704118 0.42361745 -0.044844095 -0.17072073 -0.035666246 0.4036214
-0.117876485 0.1534351 -0.20803164 0.28848436 0.23659138 -0.12007216 0.31926695 -0.013400974

architecture.0.bias f4 [64]
00000000: 08fb f43d 5bec c0bf 0e43 043e acfe b73f
00000010: 1362 993f 2491 7abf 7db8 10c0 4070 5e3f
00000020: 1d32 273f 7938 b03f 48ba 29bf 8477 5c3f
00000030: 6894 963f 1cab d73d cd9f babf bbe8 a23f
00000040: ed75 e43b 3f82 0b3e 5888 98bf 62dd d5bf
00000050: 4a0b f4bf 62f5 ccbf 6471 adbf a0e4 443d
00000060: 64b6 99bf 14fd 453f a9e5 a1bf bfbb 4abf
00000070: 5f76 87bf c09d 94bf f89f dcbf 4de9 a1bf
00000080: b153 a8bf d0a8 fdbc 9471 49bf 3416 b83f
00000090: 3564 673f 4171 14bf a402 9ebf def2 cd3d
000000a0: 3141 303f b4c2 b13f 1017 2bbf d27f 023e
000000b0: 0341 223e 25a9 a7bf d390 0b3f 17a8 7c3f
000000c0: 4a0c a6bd 6b6d 203f 8f7e a5bf 8f09 d13f
000000d0: 16db a8bf 8a9e f63f a5ab 29bd 38af bbbf
000000e0: fda3 afbf b52b be3f 0623 b13c f7c8 97bf
000000f0: cb52 373b 1659 a0bd c7cb 01be 1fbe 63bd
0.11961943 -1.507213 0.12916204 1.4374595 1.1983055 -0.97877717 -2.2612603 0.8689003
0.6531084 1.3767234 -0.6629987 0.86119866 1.176404 0.105306834 -1.4580017 1.2727274
0.0069720657 0.13623904 -1.1916609 -1.6708186 -1.9065945 -1.6012385 -1.3550229 0.048069596
-1.2008786 0.7733929 -1.2648212 -0.7919273 -1.0582999 -1.1610641 -1.7236319 -1.2649323
-1.315054 -0.030964285 -0.7868893 1.4381776 0.9038728 -0.5798531 -1.2344556 0.10056089
0.68849474 1.3887544 -0.66832066 0.12744072 0.15845113 -1.3098494 0.5451786 0.98693985
-0.08107813 0.6266696 -1.2929248 1.6331042 -1.319186 1.9267132 -0.04142346 -1.4662848
-1.372192 1.4857088 0.021623146 -1.1858205 0.0027972932 -0.07829492 -0.12675391 -0.055601235

architecture.2.weight f4 [64, 64]
00000000: 8056 08be b19a 08bf ca05 9abe 422c eebe
00000010: fdf9 1b3e 3246 cabd 2fca fa3e d920 be3d
00000020: 8537 4dbe 5576 27bf 8f3a 85bb f439 433d
00000030: 4949 ed3d fe41 e03e 4daa 4d3f 28dd 483e
00000040: dabe 023e e17b e2be ac45 fa3e 3ba6 38be
00000050: 53f2 4b3e f816 92be b9ab 213f 9982 a5bd
00000060: cbbb 033d c63e d3be 193d 273f 4bba a0be
00000070: 09ad 0dbf 4e18 cb3d 38c1 94be cc21 8c3d
00000080: 6f0d 5d3f 4ffc a93e 7dd4 8c3d dd53 adbc
00000090: 4cd3 343e d3cc cfbe 3774 123e a189 fd3e
000000a0: c4e7 53be c73c e23e 6436 b2bd 2472 d23f
000000b0: d40a ea3d 3098 df3e 02a4 763f 0583 9d3d
000000c0: 0165 1dbe 49c6 72be 86fa 9f3e 2c11 08be
000000d0: db4a 873d f559 dd3d ab77 55be c86f e13e
000000e0: 4bad 17bc c08c 2a3b 0676 4dbf 5cff ee3e
000000f0: 9623 a6be ed35 8e3e 52da 603e 5a9f f33a
00000100: 7bb7 c0be 07e5 35bf 25a4 be3e e3ac 2e3f
00000110: e3da 073f 2996 08bf 52ee 6bbf 3c44 ca3e
00000120: 76c2 cf3e d54f d23e dd9a 13bf ed63 d13e
00000130: 9077 453e 90a2 483e 997d fabe c866 7a3e
00000140: eed2 d63c 156f af3e 1a15 01bf 3861 80bf
00000150: a492 09bf d2c7 86bf e643 0cbf 88b9 4fbd
00000160: 809d 90be ad6c d0bd 45c9 d5be 5d85 9c3e
00000170: f6a5 99be f0d4 2abf 5486 f8be 3bce 0dbf
00000180: 9d4f 30bf ef9b 823e 839a 0dbf 2f98 003f
00000190: f644 843e 88b3 d6be b9dc 46be e4b6 dcbd
000001a0: cb27 353e 7273 fc3e 5058 b3be cb13 0bbb
000001b0: aad5 55be fbfc 1f3d 198f 19be 46c0 9e3e
000001c0: b083 5dbe 8c7a 1f3e da0f f3be b638 90bc
000001d0: d647 17bf 9105 3d3f e116 d33b a8a5 26bf
000001e0: 7d99 adbe dcd8 533f f721 99be d2ae ffbe
000001f0: 3113 1dbe 6881 8ebe 4ccf bd3d 49cf d4bc
00000200: f9e2 073f 67ae 2a3f d1e2 e6be bdd3 79bf
00000210: 40c8 a9be dc21 1d3f 187f 233f c059 1bbf
00000220: fcc7 dcbe 5c52 2abf 5bc8 ba3e 1ee1 a3be
00000230: a97b 40be e3fb c6be c02b 013f c2e3 0bbf
00000240: f707 55be 7b9f 6abe b8ce 503f 5f8a 3e3f
00000250: 8af7 5c3e a6a4 653f 908f 783e bcb6 eabd
00000260: 3a8a 9d3e ab06 3dbd 20d3 ca3e e572 17be
00000270: c022 e93d 133a 103f f02f 3b3f b90f 0f3f
00000280: fc95 553f 3aa4 c3bc b516 0b3f 6ab7 b7be
00000290: b777 9abe 3c06 253f 483a ebbd cfe2 9b3e
000002a0: 1483 c53d 6779 58bf 878e e03e 62e2 0bbd
000002b0: fcb5 1dbe 46f6 eabd 3349 08bd e490 01bf
000002c0: 6b5e e63c e58f 03be f1a8 5e3c aede bfbe
000002d0: 56ad 143f dd06 35bf 6b61 04be 1e39 e43d
000002e0: 6d51 293f 1a7b b6bf 00e2 de3e 397e 493f
000002f0: 86b5 813e af34 e53e 411a d5bd c62f 3b3c
00000300: 56f2 96bd 40a7 99be 64d8 56be 59a8 703f
00000310: 9710 8b3d a9b2 8a3a 43bf d83e bc08 d53b
00000320: 0e28 a63e d238 273f f144 16be d6db 013f
00000330: d00d 353e 4665 aabe 5b29 f1be 5fb5 aa3d
00000340: bb17 a33e 7abb 91bf 1a9b b1be a505 6b3f
00000350: 959c 133f b476 b73e 0f5e dcbe 3c3e b23e
00000360: 6a77 163f 0c5a 2bbe 7b60 41bf e0ed 69bc
00000370: 4e70 d83e 98ce 2f3f ed0e 98be 9138 963e
00000380: a227 3cbf b9e5 8bbe 908f 773e e3b6 ce3e
00000390: d2d8 273d 930d b93d 5a79 c83d 14bb a83e
000003a0: daf3 c33d 5833 653f bbef 74bd aa0e 973e
000003b0: a080 483f 8be3 0bbf d8f7 e23c 35f5 0f3d
000003c0: 37a6 5abc 8fe5 90be 5e3f f6bd bd09 613e
000003d0: bca7 b43e 6eec 3bbf 5d40 6c3c 7cba e93b
000003e0: dfe7 b03e bd93 d33e a4af 12bf 49f2 debd
000003f0: a39b 413e 6209 903e 3890 d9be 8178 0b3e
-0.13314247 -0.5336104 -0.30082542 -0.4651814 0.15232082 -0.0987667 0.4898238 0.09283609
-0.2004071 -0.65414935 -0.0040658186 0.04766269 0.11586244 0.43800348 0.80337983 0.19615614
0.12768117 -0.44235137 0.4888128 -0.18032162 0.19916658 -0.2853315 0.6315265 -0.0808155
0.032161515 -0.4125883 0.653276 -0.3139213 -0.55342156 0.09916745 -0.29053664 0.06842384
0.86348623 0.3320031 0.068764664 -0.021158153 0.17658728 -0.40585956 0.14302145 0.49519065
-0.2069388 0.44186994 -0.087017804 1.6441083 0.114278466 0.43670797 0.96344006 0.076910056
-0.15370561 -0.23708452 0.31245822 -0.132878 0.066060744 0.108081736 -0.20846431 0.44030595
-0.009257625 0.0026023835 -0.80258214 0.466792 -0.32449025 0.27775517 0.21958283 0.0018586919
-0.37639984 -0.71052593 0.37234607 0.68232554 0.5306837 -0.53354126 -0.9216052 0.39505184
0.4057805 0.41076532 -0.5765818 0.4089655 0.1928389 0.19593263 -0.48923948 0.2445327
0.026223626 0.34264436 -0.50422823 -1.0029669 -0.5373938 -1.052973 -0.54791105 -0.050714046
-0.28245163 -0.10176978 -0.4175512 0.30570498 -0.3000943 -0.66731167 -0.48539984 -0.5539281
-0.6887148 0.25509593 -0.5531389 0.50232214 0.25833863 -0.41933846 -0.19420137 -0.10777071
0.17690961 0.49306828 -0.35028315 -0.0021221514 -0.20882288 0.03905962 -0.14995994 0.31006068
-0.21632266 0.15574092 -0.4747303 -0.017605167 -0.5909399 0.7383662 0.0064419364 -0.6509652
-0.33906165 0.82752776 -0.29908726 -0.49938065 -0.15339352 -0.27833104 0.09268054 -0.025977748
0.5308071 0.66672367 -0.45094922 -0.9758871 -0.3316059 0.6137979 0.63865805 -0.6068382
-0.43121326 -0.6653192 0.36480984 -0.32007688 -0.18797173 -0.3886405 0.5045738 -0.54644406
-0.2080382 -0.229124 0.8156543 0.7442989 0.21578804 0.8970436 0.24273515 -0.11460635
0.3076952 -0.046148937 0.396142 -0.14789923 0.11383581 0.56338614 0.7312002 0.55883366
0.83431983 -0.02388202 0.54331523 -0.3588212 -0.3016946 0.6446264 -0.11485726 0.3044648
0.09644142 -0.84560245 0.4385874 -0.034151442 -0.15401453 -0.11472754 -0.033272933 -0.5061171
0.028121194 -0.1284786 0.013590083 -0.3747458 0.5807699 -0.707136 -0.12927787 0.11143707
0.6613987 -1.4256318 0.435318 0.78708225 0.25333804 0.44766757 -0.10405398 0.011424964
-0.07370441 -0.30010414 -0.20980984 0.9400688 0.06790274 0.0010581809 0.4233342 0.0065012854
0.32452434 0.65321076 -0.14674737 0.5072607 0.1768105 -0.3328039 -0.47101864 0.08335375
0.31854042 -1.1385338 -0.34688646 0.9180549 0.576608 0.3583275 -0.4304051 0.34813106
0.5877596 -0.16733569 -0.7553784 -0.014277905 0.42273182 0.6867461 -0.29698887 0.29340032
-0.73497975 -0.27323702 0.24175858 0.40373906 0.04097826 0.09035792 0.09788771 0.3295523
0.09567995 0.8953147 -0.059798937 0.29503375 0.78321266 -0.5464408 0.027706072 0.035145957
-0.013345293 -0.2830014 -0.12023805 0.21976371 0.3528422 -0.7340764 0.014419642 0.0071328264
0.34551904 0.41323653 -0.57299256 -0.10886056 0.18907027 0.2813216 -0.42492843 0.13620187

architecture.2.bias f4 [64]
00000000: 4623 653e c28a 863f 991f a2bf 21a1 0abf
00000010: 99f8 a53e 77ab 95bf 04a1 5e3f f009 0cbf
00000020: 1e33 a6bf 5f7f 2b3f 3970 473f 9c25 a4bf
00000030: ae64 71bf 639d 193f bc52 04be e629 553f
00000040: bafd 9f3f 7ba8 f83e 022e 30bf ce26 9c3f
00000050: a8ae b73e 6ad4 55bf fb5b 063f dca3 a43f
00000060: f77f 33bf fe2d 493f 503e ad3f fa47 d9be
00000070: 3ddc 84bf 5af2 c9be 20d8 9ebf fd41 f23e
00000080: 3f58 3abf 16ff e03e 957d 433f dfce 9cbf
00000090: e187 a1bf 1f85 b93f 3cf9 2fbf 8610 38bf
000000a0: f447 34bf b7e0 a2bf 2839 10bf 3153 383f
000000b0: c9de 9bbf 9863 163f 00cd 1abf b219 823f
000000c0: ecd2 31bf de51 983f e3bd b73f 3df6 10bf
000000d0: 9d6c a1bf 81db 91bf 7db1 51bf 9b02 793d
000000e0: 7b0e bb3e 8a6f e43e 09af cfbe 342c 553f
000000f0: 1e90 8ebf 794e 433f b1f5 95bf 085b 9e3f
0.22376737 1.0511096 -1.2665893 -0.54152113 0.32416227 -1.1692952 0.8696444 -0.54702663
-1.298435 0.6699123 0.77905613 -1.2823977 -0.9429425 0.6000578 -0.12922186 0.83267057
1.2499306 0.4856604 -0.688202 1.2199342 0.3587544 -0.83527243 0.524841 1.2862506
-0.70117134 0.78585804 1.3534641 -0.42437726 -1.0379711 -0.39442712 -1.2409706 0.4731597
-0.727909 0.43944615 0.763635 -1.2250632 -1.2619592 1.449375 -0.68739676 -0.7190021
-0.7042229 -1.2724828 -0.56337214 0.7200194 -1.2177364 0.5874572 -0.60469055 1.0164092
-0.69462466 1.1899984 1.4354824 -0.5662573 -1.2611271 -1.1395112 -0.8191145 0.0607935
0.36534485 0.44616348 -0.4056323 0.83270574 -1.1137731 0.76291615 -1.1715604 1.237153

architecture.4.weight f4 [1, 64]
00000000: d62c 03c1 6ee5 a5c0 0a03 a540 55d5 0241
00000010: 469a e9c0 4844 a440 f518 a3c0 c3db a540
00000020: 507c a640 74b0 aac0 bcef a1c0 bc9a a740
00000030: 9450 a740 41f7 edc0 daee ddc0 7a34 d3c0
00000040: b4fd aac0 3012 f8c0 2365 d440 5e6a aac0
00000050: be8c e4c0 8209 cb40 c2a3 d7c0 ee0b a6c0
00000060: 2966 db40 f127 09c1 4c3a a3c0 27f5 f240
00000070: a61c ab40 8fca c240 a61a a540 a242 0341
00000080: d32c a340 00f2 e4c0 b9ac f4c0 feb7 a240
00000090: f84a a440 9ec3 a3c0 ccc9 8440 9d59 a640
000000a0: 7c42 dc40 bc11 a240 2b56 9540 af57 abc0
000000b0: 8220 a740 7583 ffc0 0586 c940 5a24 adc0
000000c0: f4f4 d940 8c08 a5c0 ccb2 a2c0 5f59 f340
000000d0: 0c7a a240 4a0b 8240 0d59 a540 54fc 05c1
000000e0: 3a8e 01c1 f455 adc0 2f6c f840 1f7f afc0
000000f0: 4dea b240 56fe a7c0 4e08 a140 a21f a8c0
-8.198446 -5.1842566 5.156621 8.177083 -7.300082 5.133335 -5.0967965 5.1830764
5.202675 -5.3340397 -5.0605145 5.2376385 5.228586 -7.4364324 -6.9354067 -6.600156
-5.3434696 -7.75222 6.637346 -5.3254843 -7.1421804 6.3449106 -6.73874 -5.1889563
6.8562207 -8.572251 -5.1008663 7.592426 5.347247 6.0872264 5.159503 8.203768
5.0992217 -7.154541 -7.6460843 5.08496 5.1341515 -5.117629 4.1496334 5.198439
6.883116 5.064665 4.6667686 -5.3544536 5.2227182 -7.984797 6.29761 -5.4106874
6.8111515 -5.1572933 -5.084326 7.6046596 5.0773983 4.063878 5.1671205 -8.374104
-8.097223 -5.4167423 7.763206 -5.4842677 5.591101 -5.249797 5.0322638 -5.2538614

exp_avg f4 [64, 27]
00000000: c35a db37 74e1 1db8 b595 db38 17d0 f836
00000010: 8de1 75b8 c541 1f38 dd08 0337 41ab b8b7
00000020: 85ef 3f38 1502 a1b7 b21e b3b8 e913 04b7
00000030: 27ac 63b8 2407 8336 5098 b136 6b21 da37
00000040: 28e7 e735 dcd6 cab7 ef73 e9b6 f58b 61b8
00000050: ab55 aa37 4f3f c237 da86 01b7 d4bd 4338
00000060: 72b1 9c35 2ac6 a2b8 858c a8b7 a90a 15b9
00000070: 44c0 8b38 35c4 1bb9 f828 50b7 dfe6 9338
00000080: 4e85 9a38 24f5 e838 88a6 bd37 e993 46b7
00000090: af85 1db8 7377 3938 bbef 7fb8 7bef ccb6
000000a0: 7b27 38b3 122f 28b8 e997 71b8 448a de38
000000b0: 6898 34b8 2896 dfb7 632f 8138 22e5 cc38
000000c0: b71e d738 4201 2a38 9dfd 9636 4a38 81b7
000000d0: 96aa 6b38 e55c 75b8 f0c4 76b8 564c 02b8
000000e0: cf6c 32b7 b0dc ba37 da94 3938 65f7 0438
000000f0: 6044 33b6 1712 2e38 4b87 9237 93fb 2cb7
00000100: 9098 9238 28bc 0cb5 55b0 0738 b686 20b7
00000110: 7938 90b7 5c0b 75b8 9819 15b8 7763 b2b7
00000120: 9e9c b737 178b 4138 1b13 4638 3c3d 30b7
00000130: 5bcc 4038 2b86 7f37 7802 4cb7 2996 9538
00000140: fb3d 6db6 6f35 b4b7 4c02 86b7 fd99 2d37
00000150: ac1b 5a38 b62d bd37 f7ca 3d38 2269 8638
00000160: 4eab 3138 2640 bab8 cfdd a7b8 1ed1 a337
00000170: 65d2 2c38 444d 4536 d4d3 6cb8 d112 30b7
00000180: 57e7 60b8 e72a 0d38 599e 6c38 5669 4a38
00000190: 0ea8 9737 de56 1938 ca7e 8838 7593 f537
000001a0: 5961 d5b8 f9ba a6b8 8143 1338 60f6 3238
000001b0: edc6 37b8 fd4b 71b7 f835 7cb6 a970 f537
000001c0: f0e1 4db8 2ddf 3437 0686 aa37 4df9 ef36
000001d0: 1f9e 7e37 e2b2 3cb8 605f 7cb7 1b37 2f38
000001e0: 064e 5bb6 968c 1f37 2ec9 e737 d4e4 4337
000001f0: 12d3 bab7 ea51 cbb6 a1c7 0238 1009 2ab8
00000200: d106 e236 c2ba 7737 a822 0936 48af 6f37
00000210: 9526 49b8 4871 ccb7 6930 2a38 c6f5 b2b8
00000220: 23ed 97b7 e662 4d38 8bb0 9636 5a09 d4b7
00000230: f07b 55b8 b609 8fb8 a8ba 4d38 528b 0e38
00000240: f4a2 bab7 d673 2c38 5d56 69b7 11fe fa37
00000250: 9e1c 85b7 155c 1d38 dc01 9d37 a544 c637
00000260: b235 ce38 0963 38b7 d0b6 11b8 e5e4 98b8
00000270: 9654 40b8 0477 4938 1258 be37 7c48 0eb8
00000280: 384f 7038 b2e4 3bb7 28b1 a6b6 0f4e 5238
00000290: 6f38 6f38 21ae 61b7 b9cc 9e37 cfdf 1bb8
000002a0: 8dc7 3537 9f0c f437 a2cc 00b8 11e1 c735
000002b0: af90 b738 b61d b5b7 4af5 cfb6 07ee 8736
000002c0: 5a6f 0538 f4ce 32b6 843c e137 2cdc e2b7
000002d0: 4655 e0b7 51ea 29b5 c92e 2cb8 ce0f b137
000002e0: 7917 1138 bac8 1fb8 ea42 4ab6 17cb a138
000002f0: 83e6 9ab7 4dba 97b8 96db 0db7 b1a9 4a38
00000300: 8936 c138 ccdb 2eb8 00c1 e9b7 829b ac37
00000310: 6f14 d738 2b5c d9b7 3cf7 e5b7 01e9 1e37
00000320: d722 4838 b677 fab7 2314 00b8 b8f9 8237
00000330: f219 9234 c3e3 5838 688a d937 8ff3 9838
00000340: 2c5e 83b8 307f 24b8 5d13 2b38 4d2f ca38
00000350: 9f6d 2db8 8874 43b8 144a a437 d25a 8038
00000360: fbcf 6d38 75ef 12b8 7954 7f36 7c5e b2b8
00000370: 5884 28b8 8679 84b8 79bc 9d37 52bf 6fb8
00000380: 5076 0b37 4a72 c2b7 f3fc 41b7 0bdf b0b8
00000390: 043e bcb7 1f54 66b7 a85b 9a38 f2e4 9a37
000003a0: 179b a537 7ff0 8b37 813b b9b8 3101 18b8
000003b0: 6841 98b8 d68f f237 810d 5db8 25ae 4e37
000003c0: e21f 08b7 9ad2 7cb7 f50b b4b8 fe45 dbb7
000003d0: 5e81 edb8 462d 6b38 00d0 53b8 a9fe d3b7
000003e0: 6664 cdb7 d255 39b8 3695 00b8 fd9a 8637
000003f0: 1b71 dbb6 117a 2a38 532c 89b8 d31f 2a38
2.6149099e-05 -3.7641687e-05 0.00010470619 7.415201e-06 -5.8622612e-05 3.7969807e-05 7.810272e-06 -2.2014256e-05
4.576102e-05 -1.9193665e-05 -8.5411026e-05 -7.872449e-06 -5.4281347e-05 3.9049355e-06 5.2927426e-06 2.6003187e-05
1.7278117e-06 -2.4180328e-05 -6.9574376e-06 -5.3774525e-05 2.0305471e-05 2.3156083e-05 -7.720397e-06 4.6668414e-05
1.1674549e-06 -7.761673e-05 -2.0092595e-05 -0.00014213719 6.663849e-05 -0.00014855045 -1.2407305e-05 7.052509e-05
7.368122e-05 0.00011108283 2.2608103e-05 -1.1836158e-05 -3.755622e-05 4.4218683e-05 -6.1020004e-05 -6.107553e-06
-4.2876746e-08 -4.009816e-05 -5.7600355e-05 0.00010611539 -4.3057284e-05 -2.6653594e-05 6.160026e-05 9.770157e-05
0.0001025772 4.053233e-05 4.499873e-06 -1.540421e-05 5.6187237e-05 -5.8499067e-05 -5.8834383e-05 -3.106551e-05
-1.0634961e-05 2.2275693e-05 4.4246066e-05 3.1701657e-05 -2.6712878e-06 4.150168e-05 1.7467557e-05 -1.0310573e-05
6.9902395e-05 -5.242787e-07 3.235073e-05 -9.568108e-06 -1.7192435e-05 -5.842313e-05 -3.5548204e-05 -2.126557e-05
2.188823e-05 4.6144323e-05 4.7224672e-05 -1.0504675e-05 4.5966688e-05 1.5230423e-05 -1.2159922e-05 7.132843e-05
-3.535183e-06 -2.1482554e-05 -1.5975114e-05 1.0347457e-05 5.200102e-05 2.2551842e-05 4.5250137e-05 6.4092004e-05
4.235963e-05 -8.88112e-05 -8.0044956e-05 1.9528492e-05 4.120394e-05 2.9400262e-06 -5.6464065e-05 -1.04947985e-05
-5.3621214e-05 3.3656976e-05 5.6414257e-05 4.8258655e-05 1.807886e-05 3.6558944e-05 6.508602e-05 2.9274941e-05
-0.00010174764 -7.950323e-05 3.51104e-05 4.266796e-05 -4.3815864e-05 -1.4382412e-05 -3.758234e-06 2.9258737e-05
-4.908623e-05 1.0780798e-05 2.0327989e-05 7.1517775e-06 1.5176395e-05 -4.498929e-05 -1.5042577e-05 4.1774572e-05
-3.2678959e-06 9.509871e-06 2.7631027e-05 1.1676184e-05 -2.2271215e-05 -6.0594075e-06 3.1180334e-05 -4.05396e-05
6.7361184e-06 1.476583e-05 2.0434763e-06 1.4286321e-05 -4.7958067e-05 -2.4371446e-05 4.0576244e-05 -8.53348e-05
-1.8111028e-05 4.8967915e-05 4.4909007e-06 -2.5276724e-05 -5.0898583e-05 -6.82058e-05 4.9049646e-05 3.398519e-05
-2.2248809e-05 4.1115876e-05 -1.390799e-05 2.9920631e-05 -1.5868161e-05 3.7517475e-05 1.8716724e-05 2.3635404e-05
9.832847e-05 -1.0990313e-05 -3.474095e-05 -7.29056e-05 -4.5855144e-05 4.8032976e-05 2.2690776e-05 -3.3922945e-05
5.7294237e-05 -1.1199316e-05 -4.967809e-06 5.01406e-05 5.70346e-05 -1.3451588e-05 1.89304e-05 -3.7163318e-05
1.0834902e-05 2.9092944e-05 -3.0708157e-05 1.4892158e-06 8.7530694e-05 -2.1590717e-05 -6.197636e-06 4.0510236e-06
3.1813375e-05 -2.664453e-06 2.685027e-05 -2.7043825e-05 -2.674259e-05 -6.329838e-07 -4.1051568e-05 2.1107404e-05
3.4592555e-05 -3.8095495e-05 -3.0139295e-06 7.714907e-05 -1.8465571e-05 -7.234942e-05 -8.455381e-06 4.831859e-05
9.213115e-05 -4.1689535e-05 -2.7865637e-05 2.0576412e-05 0.00010255805 -2.5911335e-05 -2.7414055e-05 9.471784e-06
4.7716163e-05 -2.9858067e-05 -3.0536332e-05 1.5613492e-05 2.7213497e-07 5.1710533e-05 2.5932866e-05 7.293291e-05
-6.264108e-05 -3.92191e-05 4.078761e-05 9.640921e-05 -4.1348507e-05 -4.660015e-05 1.9584819e-05 6.120432e-05
5.66989e-05 -3.5032124e-05 3.804713e-06 -8.5053005e-05 -4.0177576e-05 -6.316886e-05 1.8803623e-05 -5.716022e-05
8.312592e-06 -2.3179822e-05 -1.1562591e-05 -8.433879e-05 -2.2440225e-05 -1.3728654e-05 7.3603645e-05 1.8464842e-05
1.9741752e-05 1.6682081e-05 -8.832571e-05 -3.6240734e-05 -7.260108e-05 2.8915627e-05 -5.2703082e-05 1.2319103e-05
-8.113655e-06 -1.5069405e-05 -8.585296e-05 -2.6139427e-05 -0.00011325137 5.607053e-05 -5.0500035e-05 -2.5271745e-05
-2.4484656e-05 -4.4187364e-05 -3.065654e-05 1.6046217e-05 -6.539876e-06 4.064484e-05 -6.540925e-05 4.0560797e-05
