raisimGymTorch/data/ouzel_only_planning/2022-05-09-12-17-53/full_69000.pt (torch, 162032 bytes, 36 tensors)

architecture.0.weight f4 [64, 27]
-0.1589301 -0.4951906 -0.08969142 0.29812813 0.17343721 -0.25105232 -0.058187697 0.9438594
0.20887943 0.22340915 -0.13574705 -0.15080112 0.36440018 -0.1404642 -0.050194215 0.13578029
1.2185695 0.99488455 0.16131175 -0.05723045 -0.10080255 0.32170683 0.50613886 0.101625755
0.34712073 -0.47769332 -0.05210289 0.09695796 0.30805534 -0.069201544 -0.06360912 0.07040423
0.084988795 -0.19749202 -0.16606145 -0.076418996 0.06808946 -0.34185788 0.16517279 -1.1005385
-0.5104875 -0.33242023 0.09631454 -0.1552518 0.71523786 0.025902959 -0.0023491927 0.32309052
-0.11837221 -0.19037685 -0.012237444 -0.44303417 -0.19391358 -0.27843854 0.060747113 0.5922346
0.35049433 0.7095705 0.23109244 0.32572633 -0.07584445 -0.17284821 -0.7076072 0.049942106
-0.29256907 -0.037879214 -0.5639724 0.33755046 -0.33505186 0.15172821 -0.07827081 0.67417854
0.086074956 0.24334477 0.57820946 0.12924364 0.100274116 -0.44378206 0.03786587 -0.3472951
-0.1412857 -0.7985747 -0.71919525 -0.25091463 -0.09417768 -0.2468429 0.03145912 -0.3561471
-0.047068775 -0.2514754 0.088795036 -0.3579797 -0.02118397 -1.5373796 0.04045791 0.86314183
0.31863877 -0.4539034 0.12293672 -0.111010395 -0.2654051 -0.2797558 -0.07456847 -0.08638374
-0.16501388 0.3268644 -0.05005139 -0.17650108 0.29634356 0.8021363 -0.30656654 0.32347617
0.18378195 -0.38314065 0.36952123 0.016381862 -0.13013202 -0.22935236 -0.23118295 -0.13273758
0.6382071 0.3539874 0.5832542 -0.13791683 0.020204175 0.27764252 0.29040584 0.515862
-0.4370883 0.32437703 0.077857904 -0.08469693 -0.11408051 -0.09160876 -0.19572641 -0.052935492
-0.17956929 -0.3926191 -0.14783032 -0.06552592 -0.0068275994 -0.062679306 -0.4822947 -0.45782036
0.03819035 0.4429563 0.31812516 0.10471385 0.45299733 0.09332533 0.6730532 -0.04026513
-0.15544689 -0.2332328 -0.24898991 -0.50906515 0.11515637 -0.92709285 -0.24646847 0.056847613
0.47184703 0.037973065 -0.0527555 -0.76976955 -0.4078215 0.070246816 -0.59963745 0.016341312
-0.0047086016 -0.1643017 -0.5523012 0.39192364 -0.25493404 0.13789503 -0.16704349 0.65096605
0.15738338 0.60886544 -0.42329577 -0.5594798 -0.12724066 -0.31862375 -0.17907187 0.08878097
-0.13956343 0.10963133 0.14577621 -0.043809492 -0.119594224 0.4171105 -0.23593593 -0.39818376
0.32405996 0.03018673 -0.2013256 0.14477876 0.22645627 -0.32565755 -0.004624969 0.16230524
0.39292127 0.105160154 0.8242468 -1.0043832 -0.48804015 0.3091613 0.1887467 -0.14671004
0.22209294 0.056613684 -0.017763631 -0.11331563 -0.4236646 0.14173985 0.2807734 0.5273922
-0.224939 0.3215235 0.3542462 -0.3786714 0.20354392 0.14516462 0.18107045 -0.05557916
0.005523993 -0.3813884 -0.05227888 0.27535367 0.18454605 -0.46519622 1.1910359 -0.3005032
0.34406406 0.15254208 0.38506293 -0.38560525 -0.34277695 0.31190294 0.07103051 0.20562865
-0.5165041 -0.16315313 -0.11696764 0.24117813 0.40817812 0.048466388 -0.6672332 0.5697645
0.12481676 0.15498817 -0.4270242 -0.6899093 -0.26260343 0.4021261 -0.44421044 -1.104215
00000000: 92be 22be 9f89 fdbe 23b0 b7bd 40a4 983e
00000010: 8699 313e ee89 80be 3956 6ebd c5a0 713f
00000020: 7de4 553e 5ec5 643e 4601 0bbe 9c6b 1abe
00000030: a992 ba3e d9d5 0fbe 7398 4dbd fd09 0b3e
00000040: 16fa 9b3f c1b0 7e3f e82e 253e 7a6a 6abd
00000050: 9171 cebd c2b6 a43e 5192 013f 2a21 d03d
00000060: cfb9 b13e 3894 f4be d769 55bd e591 c63d
00000070: 6eb9 9d3e 8ab9 8dbd 8045 82bd 1830 903d
00000080: 9b0e ae3d 593b 4abe 030c 2abe 9081 9cbd
00000090: 7d72 8b3d ff07 afbe 0e23 293e 72de 8cbf
000000a0: 4faf 02bf fc32 aabe 8f40 c53d 54fa 1ebe
000000b0: d419 373f 7132 d43c eaf4 19bb 1f6c a53e
000000c0: 216d f2bd 26f2 42be 8f7f 48bc 60d5 e2be
000000d0: 4891 46be 7f8f 8ebe f7d1 783d b09c 173f
000000e0: fe73 b33e 6aa6 353f 7fa3 6c3e 9ac5 a63e
000000f0: 5654 9bbd 1fff 30be bf25 35bf 1890 4c3d
00000100: 9dcb 95be 3c27 1bbd 7f60 10bf 6ad3 ac3e
00000110: eb8b abbe a45e 1b3e 724c a0bd f796 2c3f
00000120: 1148 b03d 5f2f 793e 8905 143f 7258 043e
00000130: 845c cd3d 6737 e3be 3e19 1b3d aad0 b1be
00000140: 33ad 10be 646f 4cbf 2e1d 38bf e277 80be
00000150: 3ae0 c0bd 63c4 7cbe 47db 003d ea58 b6be
00000160: 30cb 40bd 62c1 80be 2cda b53d 1e49 b7be
00000170: 018a adbc dbc8 c4bf 32b7 253d ddf6 5c3f
00000180: 9f24 a33e 0766 e8be 3fc6 fb3d 6b59 e3bd
00000190: 2de3 87be 273c 8fbe 5bb7 98bd f5e9 b0bd
000001a0: 66f9 28be c55a a73e b002 4dbd b3bc 34be
000001b0: 58ba 973e ce58 4d3f 4af6 9cbe ab9e a53e
000001c0: 5631 3c3e 032b c4be e331 bd3e 4133 863c
000001d0: 5441 05be 58db 6abe 39bb 6cbe 5cec 07be
000001e0: 8a61 233f d63d b53e 2650 153f 123a 0dbe
000001f0: 3a83 a53c 2927 8e3e 13b0 943e 880f 043f
00000200: 0aca dfbe bf14 a63e f773 9f3d 9675 adbd
00000210: 0ba3 e9bd 609d bbbd 816c 48be e3d2 58bd
00000220: 03e1 37be 5f05 c9be d560 17be 7432 86bd
00000230: 0eba dfbb 025e 80bd 55ef f6be 6e67 eabe
00000240: 7c6d 1c3d 2bcb e23e 4de1 a23e 3774 d63d
00000250: 44ef e73e 5a21 bf3d 374d 2c3f 0ded 24bd
00000260: 782d 1fbe 94d4 6ebe 36f7 7ebe 1852 02bf
00000270: 1ad7 eb3d f555 6dbf 3b62 7cbe 0bd9 683d
00000280: ef95 f13e a589 1b3d 2716 58bd 9e0f 45bf
00000290: fbcd d0be 90dd 8f3d d781 19bf 37de 853c
000002a0: 9d4a 9abb b43e 28be 9d63 0dbf 37aa c83e
000002b0: b786 82be 5b34 0d3e 730d 2bbe b6a5 263f
000002c0: 1c29 213e 9bde 1b3f 39ba d8be 113a 0fbf
000002d0: 604b 02be a722 a3be 9e5e 37be ccd2 b53d
000002e0: b7e9 0ebe 6486 e03d 5c46 153e 9571 33bd
000002f0: d1ed f4bd 828f d53e 3099 71be bede cbbe
00000300: 30eb a53e 294a f73c 4c28 4ebe e240 143e
00000310: 27e4 673e 96bc a6be 0d8d 97bb 5833 263e
00000320: fa2c c93e 355e d73d d701 533f a18f 80bf
00000330: 66e0 f9be 644a 9e3e d146 413e 283b 16be
00000340: 556c 633e c0e3 673d 0985 91bc 0612 e8bd
00000350: 91ea d8be 4024 113e 88c1 8f3e 2d03 073f
00000360: 6956 66be ba9e a43e c25f b53e 38e1 c1be
00000370: d16d 503e 09a6 143e 886a 393e f9a6 63bd
00000380: 9d02 b53b 5745 c3be 6122 56bd 28fb 8c3e
00000390: a4f9 3c3e 332e eebe dd73 983f 8edb 99be
000003a0: 2a29 b03e fe33 1c3e f826 c53e 0d6e c5be
000003b0: 7680 afbe beb1 9f3e 7278 913d 5190 523e
000003c0: 9d39 04bf 9d11 27be bb8c efbd 66f7 763e
000003d0: b9fc d03e b184 463d cccf 2abf 16dc 113f
000003e0: ee9f ff3d 38b5 1e3e eaa2 dabe e59d 30bf
000003f0: f573 86be 79e3 cd3e 8d6f e3be eb56 8dbf

architecture.0.bias f4 [64]
0.5542792 -0.5693094 1.2320691 0.033409774 0.35758185 -0.8347686 -1.0460753 -1.0588651
-1.0553575 0.34879848 -0.5965087 0.35975093 1.5507361 -1.5329907 1.0820384 1.409208
-0.75363606 -0.54710597 -1.1563413 0.37204313 1.803939 -1.3070775 0.94122124 -1.2239386
-0.04366746 0.612977 0.24349397 -1.7011864 -0.8073173 -0.023668123 -0.05229689 -0.9153733
-1.2384629 -0.90640336 -1.1673056 0.22757159 1.2938955 -0.5966867 0.68434596 -0.29170108
-0.66255826 -0.64777184 1.3443774 -0.7691429 -0.35423198 0.40589952 -0.22141185 -0.63687485
0.39454505 1.1318436 1.1179765 0.79641485 0.26982775 -1.4255259 -0.7121621 0.20672344
-0.6657611 -1.3273449 1.3515491 1.4937367 1.4729587 1.3463871 -0.19932471 0.2852646
00000000: 3ee5 0d3f 43be 11bf 71b4 9d3f b0d8 083d
00000010: f814 b73e 65b3 55bf cce5 85bf e488 87bf
00000020: f415 87bf b795 b23e cbb4 18bf 4631 b83e
00000030: 857e c63f 0a39 c4bf 3c80 8a3f ee60 b43f
00000040: 4bee 40bf 230f 0cbf fe02 94bf 707c be3e
00000050: 79e7 e63f 514e a7bf e0f3 703f 05aa 9cbf
00000060: a7dc 32bd 10ec 1c3f 7c56 793e 7ac0 d9bf
00000070: 59ac 4ebf a7e3 c1bc 4435 56bd e855 6abf
00000080: f485 9ebf 0d0a 68bf 456a 95bf 8708 693e
00000090: 5e9e a53f 76c0 18bf 4c31 2f3f d859 95be
000000a0: 6b9d 29bf 60d4 25bf 8f14 ac3f 8de6 44bf
000000b0: e55d b5be 10d2 cf3e cab9 62be 3b0a 23bf
000000c0: cf01 ca3e 40e0 903f db19 8f3f d8e1 4b3f
000000d0: dd26 8a3e a277 b6bf 4150 36bf 4faf 533e
000000e0: 526f 2abf 70e6 a9bf 90ff ac3f c432 bf3f
000000f0: e989 bc3f 6a56 ac3f c71b 4cbe 340e 923e

architecture.2.weight f4 [64, 64]
0.24284843 0.23842132 -0.557367 0.09146564 0.05433607 0.0787154 0.30106437 0.5446227
0.47497565 -0.22563843 0.3155219 -0.24572927 -0.47021896 0.122993976 -0.3127361 -0.39328003
-0.059568528 0.029451177 0.6821565 -0.19558488 -0.83559775 0.59725046 -0.3164141 0.35976306
-0.10888011 -0.05818682 0.023467276 0.5296014 0.07416775 -0.12654698 0.1336564 0.49840343
0.31587166 0.27306744 0.12808399 -0.026197568 -0.13586153 -0.006980812 -0.44539997 0.26077583
0.28937405 0.0914527 -0.22920556 0.26042014 -0.21170992 -0.28680974 -0.031478416 0.16842973
-0.051121365 0.018073626 -0.15822741 0.5621152 -0.0042652753 0.3189088 0.17447914 0.42915657
0.092784226 0.48036888 -0.9004737 -0.33635065 -0.6105262 -0.50265336 -0.3668057 0.21767813
0.030442866 -0.17588875 0.017967666 0.3839577 -0.096226215 -0.031515412 -0.06764564 -0.48388222
0.55367345 0.19279167 -0.046802197 0.010683488 -0.11469152 0.505898 0.4154923 0.06543982
-0.020694677 0.15497 -0.27315477 0.13207754 0.7337821 0.13700098 0.04178361 -0.19228864
0.21884371 0.45674843 -0.0030672983 0.03990203 0.7131767 0.3089006 -0.13446611 0.5867545
-0.44989085 -0.16686502 -0.01979081 0.13933995 0.19866471 0.003043067 -0.24574538 0.108147606
0.13731627 -0.15821695 -0.21077755 0.28991395 -0.012675754 -0.26031768 -0.20438333 -0.031236207
-0.05543039 -0.38497597 -0.033784423 0.2897625 -0.15725158 0.8959092 0.05242399 0.11374243
0.2794113 0.63711417 0.02681381 0.6351641 0.77906924 -0.31930313 0.33251092 0.11428716
0.37409976 -0.38795683 0.03778814 -0.14945558 -0.3709274 0.06703636 0.2737609 -0.40084875
-0.21612425 0.23485811 -0.42607307 -0.058681484 -0.31686193 0.130349 -0.061237622 -0.21352835
-0.13005163 0.622052 -0.446446 -0.22251165 0.74579936 -0.92039466 -0.023847645 -0.08465614
0.42331654 0.10416724 0.48447287 0.3352977 0.18613274 -0.2704379 0.32274172 -0.8862592
-0.29071245 0.37566894 -0.38627195 0.23908691 0.74682724 -0.5598897 0.5492152 0.555625
0.6903493 0.190993 0.04497107 -0.67117965 0.15070069 0.40018168 0.05061778 -0.3813831
0.0039959424 0.42712194 -0.38458836 0.54056364 0.25397858 0.025625791 -0.66164446 -0.47031885
0.16032262 -0.46541804 0.4691181 -0.05846408 -0.22046736 0.15112068 0.22657084 -0.33440074
-0.5190392 0.24316071 -0.15840726 0.19711356 0.5481784 0.2145629 0.2911493 -0.46765304
0.62229973 -0.16508134 0.60926193 -0.836501 0.18922809 0.80256855 -0.2578553 -0.41316783
0.5150271 0.10472046 0.4269693 0.7799559 -0.90005875 0.057474803 -0.43098247 -0.38017246
0.03729529 0.17234574 -0.6377945 0.050543614 -0.0067783026 0.21071507 -0.32002103 0.2896565
0.5148753 -0.58444804 0.4487112 0.30171803 -0.692946 0.20396341 -0.3453914 -0.008423473
0.014351413 0.72819746 0.03811677 0.1454358 0.45970362 -1.142425 0.8097183 -0.20267041
0.24718735 -0.38882297 0.32343256 -0.641155 -0.11451607 -0.1853369 0.6828081 0.62089616
0.43292564 -0.17737387 -0.02068576 -0.07149163 -0.0013619346 0.05253438 0.26586926 -0.62577736
00000000: 42ad 783e b824 743e 9baf 0ebf 5652 bb3d
00000010: 808f 5e3d 8a35 a13d 1c25 9a3e 656c 0b3f
00000020: 0230 f33e c30d 67be 168c a13e 74a0 7bbe
00000030: 8ac0 f0be 44e4 fb3d f21e a0be 005c c9be
00000040: 21fe 73bd 9843 f13c cfa1 2e3f 6747 48be
00000050: bce9 55bf 68e5 183f 0701 a2be dd32 b83e
00000060: 89fc debd 4e55 6ebd 723e c03c f593 073f
00000070: 43e5 973d 8895 01be 39dd 083e bc2e ff3e
00000080: eeb9 a13e 7fcf 8b3e 7328 033e 489c d6bc
00000090: 491f 0bbe 4cbf e4bb 770b e4be 6984 853e
000000a0: d628 943e 8e4b bb3d ddb4 6abe ca55 853e
000000b0: 7cca 58be bad8 92be 83ef 00bd d878 2c3e
000000c0: a364 51bd 240f 943c 5e06 22be c8e6 0f3f
000000d0: b9c3 8bbb 0448 a33e a9aa 323e 69ba db3e
000000e0: a805 be3d e9f2 f53e 7285 66bf 2736 acbe
000000f0: 724b 1cbf e4ad 00bf f5cd bbbe 04e7 5e3e
00000100: 5163 f93c 2e1c 34be ed30 933c 1b96 c43e
00000110: 4012 c5bd 4e16 01bd cc89 8abd 69bf f7be
00000120: 8bbd 0d3f 2e6b 453e a9b3 3fbd cc09 2f3c
00000130: 63e3 eabd 8882 013f 68bb d43e 5005 863d
00000140: e287 a9bc 75b0 1e3e f1da 8bbe 563f 073e
00000150: 25d9 3b3f fc49 0c3e 4a25 2b3d 50e7 44be
00000160: 9118 603e eeda e93e ba04 49bb 5070 233d
00000170: c092 363f 3828 9e3e 7cb1 09be 8b35 163f
00000180: 1858 e6be aade 2abe 5620 a2bc 22af 0e3e
00000190: c36e 4b3e 316e 473b ada4 7bbe 7e7c dd3d
000001a0: a39c 0c3e a003 22be 12d6 57be 9a6f 943e
000001b0: f7ad 4fbc 5c48 85be dd49 51be 13e3 ffbc
000001c0: fa0a 63bd 921b c5be 8961 0abd c05b 943e
000001d0: 8f06 21be 4e5a 653f 8aba 563d cbf1 e83d
000001e0: ff0e 8f3e ea19 233f a3a8 db3c 1d9a 223f
000001f0: 1571 473f b37b a3be df3e aa3e 630f ea3d
00000200: 018a bf3e 47a2 c6be bdc7 1a3d e20a 19be
00000210: 32ea bdbe 5c4a 893d 642a 8c3e 0c3c cdbe
00000220: ad4f 5dbe a57e 703e 4026 dabe ff5b 70bd
00000230: ba3b a2be 357a 053e 4dd4 7abd 2da7 5abe
00000240: 412c 05be cd3e 1f3f 9294 e4be 18da 63be
00000250: b5ec 3e3f fc9e 6bbf 235c c3bc 3360 adbd
00000260: f2bc d83e a255 d53d d40c f83e 24ac ab3e
00000270: 9599 3e3e d676 8abe 673e a53e e2e1 62bf
00000280: 43d8 94be ae57 c03e 70c5 c5be 33d3 743e
00000290: 1230 3f3f ee54 0fbf 5e99 0c3f 713d 0e3f
000002a0: bbba 303f ab93 433e 9633 383d 6ed2 2bbf
000002b0: 4851 1a3e 9de4 cc3e 9754 4f3d a544 c3be
000002c0: 65f0 823b baaf da3e c4e8 c4be 6162 0a3f
000002d0: 7b09 823e 2eed d13c 8861 29bf a2cd f0be
000002e0: 9d2b 243e 464b eebe 3f30 f03e 0878 6fbd
000002f0: 32c2 61be 61bf 1a3e 3002 683e 9336 abbe
00000300: c1df 04bf 1fff 783e 8335 22be 23d8 493e
00000310: 6b55 0c3f 60b6 5b3e 8511 953e 3870 efbe
00000320: 094f 1f3f 150b 29be 97f8 1b3f ee24 56bf
00000330: 02c5 413e 2275 4d3f 9c05 84be bc8a d3be
00000340: d1d8 033f ae77 d63d b89b da3e 31ab 473f
00000350: 406a 66bf b36a 6b3d bca9 dcbe f7a5 c2be
00000360: f2c2 183d 677b 303e 8046 23bf d206 4f3d
00000370: 861c debb b1c5 573e ccd9 a3be db4d 943e
00000380: dece 033f 639e 15bf 79bd e53e c97a 9a3e
00000390: e964 31bf c9db 503e 24d7 b0be 9b02 0abc
000003a0: 3022 6b3c 266b 3a3f 5520 1c3d 1fed 143e
000003b0: 465e eb3e fb3a 92bf b349 4f3f d588 4fbe
000003c0: ae1e 7d3e ce13 c7be f498 a53e bc22 24bf
000003d0: 6787 eabd f5c8 3dbe 83cc 2e3f 0df3 1e3f
000003e0: 6ea8 dd3e 7fa1 35be 2f75 a9bc 346a 92bd
000003f0: f182 b2ba 4a2e 573d 0420 883e f232 20bf

architecture.2.bias f4 [64]
-1.7856586 0.088435784 1.0965466 -0.6640184 -0.43733415 -0.7335111 0.68361986 -0.6020951
-0.2102836 -0.5332134 -0.44292042 0.086226806 0.12575509 -0.6282104 0.77964956 0.24029991
0.70324796 0.710907 2.1529744 0.6297723 -0.6105336 0.11408455 -0.3326777 -0.8734456
-0.8541568 0.5196178 0.041332114 0.08625205 2.6088219 -0.092636414 0.30233228 0.28478658
-0.29594344 -0.6830329 0.4896939 0.2766692 -0.49026585 0.06467331 -0.82493985 1.5960765
-1.8887446 0.24051316 -0.5022036 -0.119674295 0.40687954 1.3350918 -1.7848171 0.30822876
0.39409053 -0.66802466 -1.071424 -0.6493395 0.49853367 0.3471323 -0.86119187 2.3861985
-0.0800576 0.3288157 0.06013486 -0.037898187 -0.1621965 0.05734007 0.076163545 -0.8159094
00000000: 7690 e4bf d21d b53d a45b 8c3f 1cfd 29bf
00000010: 43ea dfbe 62c7 3bbf b601 2f3f e822 1abf
00000020: 9654 57be ac80 08bf 77c6 e2be ae97 b03d
00000030: f1c5 003e 66d2 20bf 1d97 473f 2e11 763e
00000040: 0f08 343f 00fe 353f 55ca 0940 c238 213f
00000050: ee4b 1cbf 29a5 e93d bb54 aabe 219a 5fbf
00000060: 05aa 5abf ac05 053f dd4b 293d eaa4 b03d
00000070: f0f6 2640 29b8 bdbd 4ccb 9a3e 8ccf 913e
00000080: e685 97be 3edb 2ebf 29b9 fa3e 96a7 8d3e
00000090: 2004 fbbe 7173 843d 422f 53bf 3c4c cc3f
000000a0: 62c2 f1bf 1549 763e 6a90 00bf cc17 f5bd
000000b0: 8452 d03e 4ae4 aa3f e374 e4bf 29d0 9d3e
000000c0: 3cc6 c93e aa03 2bbf 6c24 89bf 1d3b 26bf
000000d0: ce3f ff3e 53bb b13e 1277 5cbf 7ab7 1840
000000e0: 3df5 a3bd 885a a83e f94f 763d 213b 1bbd
000000f0: d716 26be 6cdd 6a3d a2fb 9b3d 70df 50bf

architecture.4.weight f4 [9, 64]
-0.02031261 0.048509326 -0.029558804 -0.009012094 -0.0069615915 0.02140355 -0.019886231 0.013219374
-0.0137383295 -0.008345726 0.008201543 -0.0048608356 0.007554856 -0.0087245945 0.03442313 -0.0028572131
-0.033467557 0.0037562659 0.0333988 0.0026160365 0.0021733753 0.013473762 -0.023098018 0.014740572
0.0083287675 0.01088001 0.005360916 -0.0027242212 0.03486297 0.009960174 0.0036272665 0.0049677156
-0.13216683 0.011951159 -0.043630183 -0.017692324 -0.0016440621 0.004685817 0.015530573 0.04007734
-0.016844565 0.016965412 -0.020054542 0.0066242907 -0.0038955032 0.019091459 0.0066469056 -0.024679404
-0.0045603435 -0.005283449 0.038893856 -0.05130056 -0.017987197 0.0060962467 -0.0026451913 -0.023503926
-0.0020524496 -0.013031292 0.0056171366 -0.0093675945 0.0071402495 -0.029435176 -0.0029761838 -0.026703384
-0.052488204 0.046674456 -0.016291093 0.00428149 -0.020458201 -0.0044439137 -0.07057275 0.011825311
-0.0020057766 0.027182456 0.012084396 -0.016618416 0.07222052 -0.005253751 -0.006569353 -0.0069151977
-0.008818248 0.0014797009 -0.0006398127 0.009675059 0.0053827055 0.030888509 -0.049154162 0.0010987453
0.014740852 -0.0043290416 -0.012591325 -0.00020437106 -0.02651566 -0.0037241953 0.00053732743 -0.008149053
0.046035167 -0.012446433 0.06294677 0.019115891 0.0014674239 -0.0022375637 0.015242894 0.0068715457
0.011570049 0.00024909223 -0.059505925 -0.0010112483 0.0015190488 -0.056105543 -0.028395126 -0.01879249
-0.051611982 -0.016732594 -0.013823504 0.040685166 -0.015789954 -0.0124307955 0.0009433478 -0.029948957
0.0054688253 -0.0075532207 -0.006515281 -0.0037812644 -0.0068909205 0.0062768776 0.023711462 0.022001637
0.032208994 -0.14530914 0.003831415 -0.021537948 -0.0069079087 0.0052498924 -0.018972661 -0.004250051
-0.015066397 0.0033139572 0.017817924 0.009286834 0.03066 -0.0021541403 -0.01945341 0.006870688
-0.008941711 0.00029399418 -0.0690962 0.0034822582 0.017350165 -0.008817223 -0.033760943 -0.004862127
-0.011109578 0.013865243 0.00021758128 -0.0031972146 0.16384503 -0.009590123 0.0020464817 -0.010148498
-0.069798365 -0.0007888996 0.008749429 -0.014210201 0.005805765 -0.01501775 0.018899677 0.021248963
-0.0011927544 -0.013374904 -0.02986776 -0.0013159106 -0.01393733 0.027745983 0.009091276 -0.012190595
-0.006778131 -0.0081178695 -0.007946342 0.062011328 -0.0019074135 -0.01900648 0.00097051146 -0.01621961
-0.008398321 0.015006288 0.010271177 -0.014709079 -0.009190475 0.012294194 0.025675332 -0.012759971
-0.74128985 -0.055810295 0.63447493 -0.4976982 0.00025876562 -0.21870296 0.11128683 -0.4004584
-0.33437455 -0.18996233 -0.16655973 0.072730936 0.02486329 -0.6741828 0.08577554 0.12768337
0.30170006 0.5395414 0.7309905 0.2578276 -0.4386876 0.19287433 -0.09633029 -0.7304231
-0.7364736 0.34040627 -0.25578257 0.04719454 0.6718753 -0.3987694 0.27035242 -0.19770148
0.010464976 -0.289371 0.36770856 -0.14442432 -0.2427978 0.055243276 -0.40214515 0.33227873
-0.61508274 0.113369465 -0.1839671 0.2092232 0.6752072 0.71177673 -0.3629687 0.18075846
0.050729554 -0.17254806 -0.2703842 -0.09985337 0.063810416 0.10495687 -0.6766481 0.58858
-0.049514025 0.16838446 0.09865719 -0.17868167 -0.03179085 -0.14141409 -0.11042736 -0.30761924
00000000: a166 a6bc b7b1 463d 4e25 f2bc 76a7 13bc
00000010: 101e e4bb 7f56 af3c 73e8 a2bc 1396 583c
00000020: bb16 61bc 83bc 08bc c45f 063c a547 9fbb
00000030: ba8e f73b 9af1 0ebc 45ff 0c3d 1540 3bbb
00000040: 4715 09bd af2b 763b 2ecd 083d cf71 2b3b
00000050: 306f 0e3b 0ec1 5c3c 0e38 bdbc 7182 713c
00000060: 6275 083c 1242 323c 9faa af3b d988 32bb
00000070: 79cc 0e3d ff2f 233c 6fb7 6d3b 38c8 a23b
00000080: be56 07be cbce 433c 90b5 32bd 7eef 90bc
00000090: 927d d7ba 7b8b 993b f273 7e3c 2328 243d
000000a0: 9dfd 89bc 0cfb 8a3c 6c49 a4bc 9410 d93b
000000b0: b34b 7fbb b165 9c3c 49ce d93b 762c cabc
000000c0: ef6e 95bb c820 adbb 2a4f 1f3d 8920 52bd
000000d0: e359 93bc 06c3 c73b f25a 2dbb 4e8b c0bc
000000e0: 6482 06bb 3381 55bc f50f b83b 8a7a 19bc
000000f0: c1f8 e93b 0a22 f1bc 140c 43bb 0ec1 dabc
00000100: dffd 56bd b72d 3f3d e674 85bc be4b 8c3b
00000110: f597 a7bc 409e 91bb 7288 90bd f3be 413c
00000120: 5973 03bb bead de3c a1fd 453c 5823 88bc
00000130: 5ae8 933d a827 acbb ba43 d7bb e298 e2bb
00000140: 6a7a 10bc 86f2 c13a 1ab9 27ba 2384 1e3c
00000150: 6861 b03b e609 fd3c e055 49bd c603 903a
00000160: 9d83 713c a2da 8dbb d84b 4ebc 704c 56b9
00000170: 5f37 d9bc a111 74bb 6fdb 0c3a 9b83 05bc
00000180: 5f8f 3c3d 20ec 4bbc 3cea 803d ee98 9c3c
00000190: 9356 c03a 17a4 12bb 55bd 793c b42a e13b
000001a0: 4e90 3d3c 9898 8239 7cbc 73bd dd8b 84ba
000001b0: d21a c73a edce 65bd e59c e8bc b5f2 99bc
000001c0: 1667 53bd cb12 89bc fa7b 62bc 7da5 263d
000001d0: ef59 81bc 89aa 4bbc 004b 773a 8457 f5bc
000001e0: d533 b33b 0281 f7bb 237e d5bb 17cf 77bb
000001f0: 3bcd e1bb 44ae cd3b 8a3e c23c c73c b43c
00000200: 94ed 033d ebcb 14be 7a18 7b3b 5a70 b0bc
00000210: bd5b e2bb 4a07 ac3b 8e6c 9bbc 0344 8bbb
00000220: 0dd9 76bc fa2e 593b e5f6 913c ce27 183c
00000230: ae2a fb3c 7a2c 0dbb c25c 9fbc 8223 e13b
00000240: 4180 12bc 3b23 9a39 4f82 8dbd 9936 643b
00000250: ef21 8e3c 1d76 10bc ea48 0abd 7a52 9fbb
00000260: f304 36bc 0b2b 633c 8826 6439 5c88 51bb
00000270: fec6 273e e41f 1dbc 441e 063b e345 26bc
00000280: 72f2 8ebd 28ce 4eba c459 0f3c e7d1 68bc
00000290: 493e be3b 020d 76bc 7fd3 9a3c 4e12 ae3c
000002a0: 3256 9cba 6a22 5bbc 3cad f4bc a27a acba
000002b0: 6659 64bc 8b4b e33c 93f3 143c 10bb 47bc
000002c0: 151b debb d000 05bc 6031 02bc 97ff 7d3d
000002d0: 2d02 faba 7ab3 9bbc ec69 7e3a fdde 84bc
000002e0: 1d99 09bc efdc 753c 7048 283c 59fe 70bc
000002f0: a593 16bc 966d 493c 1355 d23c 330f 51bc
00000300: 2cc5 3dbf 5699 64bd f36c 223f 4cd2 febe
00000310: efaa 8739 abf3 5fbe 59ea e33d e208 cdbe
00000320: 2433 abbe 7c85 42be a28e 2abe f5f3 943d
00000330: 19ae cb3c 3e97 2cbf 16ab af3d 6ebf 023e
00000340: 6e78 9a3e 631f 0a3f 3222 3b3f fb01 843e
00000350: a99b e0be d980 453e d148 c5bd 02fd 3abf
00000360: 8989 3cbf bb49 ae3e eff5 82be 104f 413d
00000370: 0500 2c3f 812b ccbe a26b 8a3e 4272 4abe
00000380: 4a75 2b3c 7028 94be 4c44 bc3e f8e3 13be
00000390: fd9f 78be c646 623d f8e5 cdbe 7020 aa3e
000003a0: 1076 1dbf 402e e83d df61 3cbe 9b3e 563e
000003b0: 61da 2c3f 0037 363f 09d7 b9be bf18 393e
000003c0: cbc9 4f3d 70b0 30be cc6f 8abe ec7f ccbd
000003d0: 09af 823d a1f3 d63d cf38 2dbf 2ead 163f
000003e0: 38cf 4abd fa6c 2c3e c80c ca3d 54f8 36be
000003f0: 1f37 02bd dbce 10be bd27 e2bd 4580 9dbe

architecture.4.bias f4 [9]
-0.066682585 -0.011314313 -0.06983033 0.9598689 0.09317399 -0.09815556 -0.03831106 0.68116033
-0.18768811
00000000: e190 88bd ab5f 39bc 3403 8fbd f8b9 753f
00000010: 01d2 be3d c805 c9bd 0fec 1cbd 8660 2e3f
00000020: 5031 40be

std f4 [9]
0.2 0.2 0.2 0.42767033 0.2 0.2 0.3850299 0.35612652
0.2
00000000: cdcc 4c3e cdcc 4c3e cdcc 4c3e 9bf7 da3e
00000010: cdcc 4c3e cdcc 4c3e a422 c53e 3756 b63e
00000020: cdcc 4c3e

architecture.0.weight f4 [64, 27]
0.035553608 0.015266038 -0.07218016 0.20802902 1.3710419 -0.23923033 -1.0584686 -0.5630996
-0.9719681 -0.12804966 0.09067497 0.09305383 -0.014058502 0.12161715 -0.18092518 0.04363049
-0.18732285 -3.600041 -0.14230335 -1.4352862 0.29326558 1.154975 0.5134815 0.93814427
0.11591284 -0.1780141 -0.19904906 0.025046444 0.03421728 0.018304268 -0.07268504 -0.19530322
0.48315105 -0.2420052 -0.5664759 0.14436589 -0.027310597 -0.15011178 -0.3897107 0.10121819
0.11894176 -0.3035615 0.16672508 0.09369107 0.07085427 -0.1038356 0.14500256 -0.22416486
0.19958475 0.59742177 0.13667609 0.14251235 -0.11106234 -0.23207708 -0.080360174 0.009482024
0.102282256 0.36612636 -0.6343819 0.8452451 0.87525094 0.83416903 -0.74279207 0.13859302
-0.04786918 0.108359486 -0.030421749 -0.03876626 -0.0112731075 0.0548814 -0.38002184 -0.3834909
-0.2908982 0.6257252 -0.7901611 -0.90559345 -0.8520385 0.70771086 -0.12435458 0.020787247
-0.20057072 -0.05980297 -0.028454604 0.4074713 -0.43653998 0.08213887 0.059072796 0.22098142
-0.33459747 0.18226078 -0.16888271 0.20001094 0.13237299 -0.019107169 -0.013476898 -0.0030587425
-0.009100097 -0.018534413 0.048917826 0.41631237 -0.09522486 -0.06299189 -0.21896721 0.2319033
-0.15610458 0.12077793 -0.23189092 -0.14855446 0.010773874 0.0318907 0.012339327 0.15741725
-0.11189772 -0.30632553 0.035907395 0.05178063 -0.113019235 0.08559011 -0.1327017 -0.18380068
-0.3001896 0.052057605 -0.3581681 0.009476086 0.016332725 0.016385386 0.08847071 -0.021467084
-0.108656056 -0.015860662 0.012651427 0.2072552 0.11200757 -0.033164755 -0.19611163 0.005556396
0.00030309992 -0.017339299 -0.018955959 0.010885788 0.034878913 -0.048883572 0.035574317 0.026996735
0.003828303 0.017004449 0.13964456 0.67516595 0.17451085 1.9089842 -0.023693072 0.043322727
-0.16958177 0.013141113 -0.036357276 0.0013282867 0.050332572 0.050104912 -0.025774375 -0.03195474
-0.0080378 0.02283456 0.00667836 0.008788579 0.0018331389 -0.08552738 0.14111331 -0.032429133
-0.0069548567 -0.0056318487 0.08053354 0.0938021 -0.15051134 -0.03617639 -0.033557918 -0.049296092
0.04249998 -0.057580184 0.004357674 0.101114504 0.016277123 0.041150838 0.187765 0.15946636
0.24111295 0.022022558 0.082331486 -0.07303401 0.15942943 -0.018658765 0.020557156 0.0072687482
0.045621924 0.06021722 0.041696012 0.010438939 -0.030409843 -0.07531758 0.017284663 0.025208544
-0.04150595 1.2064005 -1.2364241 0.15680927 0.0078016575 -0.069929846 -0.23781036 -0.032390654
-0.056583602 0.088637315 0.02208514 0.021981066 -0.023553567 -0.00824382 -0.027951317 -0.008595242
-0.006079577 0.03426295 -0.024496783 -0.27833837 0.2012956 -0.33686608 0.21495381 -0.061108943
0.26429644 -0.36722413 0.1978204 -0.53030425 -0.22413327 0.09602676 -0.3191597 -0.07772312
-0.060692664 -0.008201694 -0.14203247 0.018402036 0.012967943 0.064372756 -0.102293774 0.005226508
-0.10892656 0.0010588323 -0.19351311 0.37737754 -0.0662439 -0.14106357 -0.0045803622 0.37659574
-0.08076569 0.18533735 -0.17829089 0.3161582 0.26408625 -0.16469267 0.43149346 0.013544161
00000000: a9a0 113d 671e 7a3c 31d3 93bd 8f05 553e
00000010: 4d7e af3f ccf8 74be e67b 87bf 4c27 10bf
00000020: e7d2 78bf 731f 03be ccb3 b93d 0293 be3d
00000030: a255 66bc 6a12 f93d 7344 39be e2b5 323d
00000040: 90d1 3fbe 1267 66c0 f8b7 11be 75b7 b7bf
00000050: e826 963e 39d6 933f 8673 033f 392a 703f
00000060: b663 ed3d 5449 36be 84d3 4bbe 332e cd3c
00000070: 6b27 0c3d d5f2 953c e5db 94bd 91fd 47be
00000080: 935f f73e 36d0 77be 9104 11bf a7d4 133e
00000090: 79ba dfbc e7b6 19be 2988 c7be 7b4b cf3d
000000a0: bd97 f33d 6a6c 9bbe fbb9 2a3e 1be1 bf3d
000000b0: 0b1c 913d c2a7 d4bd 8d7b 143e 798b 65be
000000c0: f25f 4c3e a2f0 183f d1f4 0b3e c2ee 113e
000000d0: a774 e3bd 9da5 6dbe e093 a4bd 7e5a 1b3c
000000e0: 5c79 d13d ea74 bb3e da66 22bf fc61 583f
000000f0: 7210 603f 1a8c 553f 9f27 3ebf 54eb 0d3e
00000100: 7912 44bd 94eb dd3d 0837 f9bc 5fc9 1ebd
00000110: d7b2 38bc 52cb 603d 3992 c2be eb58 c4be
00000120: 9cf0 94be 872f 203f ff47 4abf f9d4 67bf
00000130: 321f 5abf 8a2c 353f 9dad febd 044a aa3c
00000140: 6962 4dbe f6f3 74bd a119 e9bc 14a0 d03e
00000150: 2b82 dfbe 6d38 a83d 51f6 713d f448 623e
00000160: 5c50 abbe 92a2 3a3e 97ef 2cbe abcf 4c3e
00000170: c98c 073e a386 9cbc 35ce 5cbc 2f75 48bb
00000180: 9318 15bc 7bd5 97bc 0f5e 483d e526 d53e
00000190: 4005 c3bd e401 81bd f138 60be 0f78 6d3e
000001a0: e1d9 1fbe 6b5a f73d d074 6dbe a91e 18be
000001b0: e784 303c d39f 023d e32a 4a3c fd31 213e
000001c0: a22a e5bd b3d6 9cbe a213 133d ed17 543d
000001d0: a176 e7bd de49 af3d f4e2 07be 3f36 3cbe
000001e0: 74b2 99be 5b3a 553d cf61 b7be 9641 1b3c
000001f0: 35cc 853c a53a 863c 2230 b53d bddb afbc
00000200: 1187 debd 38ee 81bc ee47 4f3c b53a 543e
00000210: 3a64 e53d c4d7 07bd 7dd1 48be 6e12 b63b
00000220: 62e9 9e39 250b 8ebc 8749 9bbc 4e5a 323c
00000230: 31dd 0e3d 243a 48bd 60b6 113d 4228 dd3c
00000240: 44e4 7a3b ea4c 8b3c fcfe 0e3e add7 2c3f
00000250: f9b2 323e 9859 f43f f917 c2bc 2c73 313d
00000260: d8a6 2dbe d34d 573c 5eeb 14bd e819 ae3a
00000270: 8729 4e3d cf3a 4d3d c824 d3bc f9e2 02bd
00000280: fab0 03bc 8b0f bb3c 25d6 da3b f9fd 0f3c
00000290: ef45 f03a fb28 afbd 0280 103e 69d4 04bd
000002a0: 91e5 e3bb 5f8b b8bb c5ee a43d 511b c03d
000002b0: a51f 1abe b22d 14bd 0774 09bd b3ea 49bd
000002c0: 7614 2e3d 33d9 6bbd d2ca 8e3b 1f15 cf3d
000002d0: 9a57 853c c88d 283d 7845 403e 264b 233e
000002e0: 50e6 763e a768 b43c 699d a83d db92 95bd
000002f0: 7841 233e 44da 98bc 7b67 a83c ae2e ee3b
00000300: 0ede 3a3d 55a6 763d 70c9 2a3d 1508 2b3c
00000310: 101e f9bc 1a40 9abd 9198 8d3c 2682 ce3c
00000320: 2502 2abd 556b 9a3f 2543 9ebf 9c92 203e
00000330: 0ca5 ff3b 6137 8fbd 8f84 73be 10ac 04bd
00000340: 35c4 67bd 7b87 b53d e5eb b43c a311 b43c
00000350: 69f3 c0bc 1611 07bc 29fa e4bc 0fd3 0cbc
00000360: 3037 c7bb 4f57 0c3d 7aad c8bc 5e82 8ebe
00000370: 6f20 4e3e b679 acbe da1c 5c3e 5f4d 7abd
00000380: dd51 873e cd04 bcbe 6e91 4a3e 05c2 07bf
00000390: 3183 65be aea9 c43d e668 a3be 4d2d 9fbd
000003a0: df98 78bd 6660 06bc f670 11be debf 963c
000003b0: 7f77 543c ddd5 833d 667f d1bd 2043 ab3b
000003c0: e314 dfbd 84c8 8a3a 4d28 46be a137 c13e
000003d0: e2aa 87bd f872 10be dd16 96bb 28d1 c03e
000003e0: 7b68 a5bd 13c9 3d3e e391 36be 7ddf a13e
000003f0: 5036 873e 32a5 28be b6ec dc3e 54e8 5d3c

architecture.0.bias f4 [64]
0.16716404 -1.4702485 0.046240292 1.4318631 1.2556015 -0.8609548 -2.0206454 0.86194116
0.53509647 1.3928216 -0.5978516 0.901179 1.1365232 0.3214762 -1.4348922 1.3151712
-0.009536059 0.1775189 -1.1593801 -1.6183028 -1.8185518 -1.6396037 -1.3972664 0.034212213
-1.2024077 0.7685161 -1.2473441 -0.78273666 -0.9199975 -1.2690076 -1.5932791 -1.2203513
-1.3576882 -0.06296993 -0.7502357 1.349803 0.87904567 -0.55915475 -1.2074996 0.07339979
0.56180257 1.4591737 -0.75746816 0.13913645 0.11596118 -1.2686374 0.7107753 0.97323185
-0.08150412 0.7412131 -1.2626593 1.4485751 -1.4144809 1.8020948 -0.016718004 -1.4728296
-1.4090842 1.4771495 0.009895864 -1.1572181 0.08605862 -0.031877022 -0.28734183 -0.059168294
00000000: 0d2d 2b3e 1a31 bcbf 7666 3d3d 4a47 b73f
00000010: 8db7 a03f 8967 5cbf 4152 01c0 2da8 5c3f
00000020: 15fc 083f fa47 b23f cd0c 19bf abb3 663f
00000030: 9879 913f 8798 a43e 8caa b7bf 8857 a83f
00000040: 213d 1cbc 84c7 353e 9166 94bf 8c24 cfbf
00000050: 4ec6 e8bf 89de d1bf a0d9 b2bf 1b22 0c3d
00000060: 7fe8 99bf 79bd 443f f9a8 9fbf 6e61 48bf
00000070: f584 6bbf d76e a2bf 92f0 cbbf 7934 9cbf
00000080: bac8 adbf 61f6 80bd 720f 40bf 58c6 ac3f
00000090: 2309 613f c424 0fbf 598f 9abf a152 963d
000000a0: 4bd2 0f3f 34c6 ba3f 6fe9 41bf c979 0e3e
000000b0: 0e7d ed3d b662 a2bf 5ff5 353f b925 793f
000000c0: a2eb a6bd 24c0 3d3f d29e a1bf e96a b93f
000000d0: b60d b5bf 0bab e63f 32f4 88bc ae85 bcbf
000000e0: df5c b4bf 3c13 bd3f 4322 223c b91f 94bf
000000f0: 803f b03d 7b91 02bd 781e 93be 745a 72bd

architecture.2.weight f4 [64, 64]
-0.20469393 -0.49653646 -0.24153228 -0.62806493 0.4219743 -0.19053753 0.37005967 0.171781
0.061289947 -0.65001214 -0.24395923 0.049448002 -0.055936377 0.26848415 0.66719204 0.15342195
0.24008179 -0.36170062 0.46508545 -0.032637164 0.21727778 -0.3887947 0.598655 -0.012341143
0.059592985 -0.27130848 0.645424 -0.22946425 -0.35423324 0.20341636 -0.08803756 0.06814893
0.9695584 0.39043865 0.054668695 0.08303378 0.17566139 -0.32333237 0.09882508 0.3801134
-0.14257264 0.33684245 -0.02089813 1.4723412 -0.021653023 0.6194473 0.8076955 0.10523808
0.028693048 -0.11838938 0.2337673 -0.00988903 -0.060561754 0.15474968 -0.07254976 0.46534103
-0.02391058 -0.18179172 -0.5049289 0.3393259 -0.2813511 0.3111971 0.07698593 -0.14801045
-0.37644815 -0.710512 0.3723526 0.6823401 0.53068155 -0.5335621 -0.9215924 0.39501333
0.40580538 0.41074768 -0.5766241 0.40897343 0.19281858 0.1959433 -0.48923758 0.24453978
0.02623373 0.34263873 -0.5042187 -1.0029732 -0.5373724 -1.0529895 -0.54788905 -0.050746806
-0.28243607 -0.10177727 -0.41754606 0.30569145 -0.30006024 -0.66728944 -0.48536938 -0.553944
-0.6886936 0.25507393 -0.5531254 0.50232315 0.25832322 -0.4193342 -0.19417295 -0.10775212
0.17690681 0.493052 -0.35024986 -0.002108673 -0.20886616 0.039070897 -0.14991097 0.31009254
-0.21627623 0.15575105 -0.47470662 -0.017635087 -0.5909807 0.73834455 0.0064347265 -0.65092856
-0.33904484 0.8275378 -0.299084 -0.4993806 -0.15338695 -0.27831495 0.09270734 -0.025996743
0.5322632 0.6655339 -0.45273086 -0.97496444 -0.33050945 0.6151286 0.6373689 -0.60769594
-0.4328811 -0.6646209 0.3649292 -0.32035777 -0.18662563 -0.3898501 0.5033403 -0.547905
-0.20667996 -0.23056279 0.81438434 0.74486446 0.21519189 0.895754 0.24160787 -0.11601293
0.30633548 -0.044927068 0.39482093 -0.14704733 0.11302474 0.5620557 0.7317129 0.5588281
0.834624 -0.022713507 0.54250044 -0.35837525 -0.3002831 0.6432238 -0.11553877 0.30334353
0.09775764 -0.8442499 0.43800655 -0.03350657 -0.15545514 -0.115999825 -0.032627348 -0.5063106
0.026851533 -0.12751263 0.0122900745 -0.373596 0.58042246 -0.7060792 -0.12973663 0.11102676
0.6600931 -1.4258124 0.43676275 0.78634626 0.254678 0.44903114 -0.105560735 0.010035471
-0.057064462 -0.34150746 -0.07235003 0.92133343 -0.002211061 0.060832668 0.40001053 -0.037844263
0.3850387 0.61366653 -0.10104421 0.41734868 0.19713196 -0.39684483 -0.44871974 0.04223515
0.33279988 -1.0042042 -0.36633718 0.9160087 0.5437895 0.32566828 -0.41608524 0.27915224
0.5422719 -0.21248372 -0.7720073 -0.039468702 0.31859466 0.66286635 -0.26609743 0.29669666
-0.7572919 -0.34257236 0.24209414 0.34791037 0.11983893 0.093180075 0.13712658 0.39332825
0.14653234 0.93439335 -0.022519404 0.26826626 0.8564349 -0.58421814 0.097723335 0.042350132
-0.04423495 -0.26058415 -0.09487984 0.07075924 0.4098617 -0.6959793 0.03836687 -0.07936887
0.28988913 0.41255283 -0.6436607 -0.059524033 0.31995913 0.1289519 -0.3412291 0.018148126
00000000: 499b 51be 073a febe 3d54 77be ddc8 20bf
00000010: 040d d83e 451c 43be 7678 bd3e 5ce7 2f3e
00000020: 2b0b 7b3d 3267 26bf 73d0 79be fd89 4a3d
00000030: 8b1d 65bd c176 893e 19cd 2a3f a51a 1d3e
00000040: 00d8 753e d330 b9be ae1f ee3e 8cae 05bd
00000050: 117e 5e3e 1910 c7be 7441 193f 8132 4abc
00000060: c617 743d f2e8 8abe 823a 253f adf8 6abe
00000070: 0f5e b5be 614c 503e 094d b4bd ab91 8b3d
00000080: fb34 783f 93e7 c73e 48ec 5f3d 9d0d aa3d
00000090: 94e0 333e d28b a5be ce64 ca3d 399e c23e
000000a0: 90fe 11be 9d76 ac3e 8e32 abbc ad75 bc3f
000000b0: ae61 b1bc 1994 1e3f 22c5 4e3f 1087 d73d
000000c0: af0d eb3c 2276 f2bd b260 6f3e 9905 22bc
000000d0: 9a0f 78bd b376 1e3e f894 94bd 2e41 ee3e
000000e0: 1fe0 c3bc 9c27 3abe 0543 01bf 20bc ad3e
000000f0: 400d 90be 3a55 9f3e cdaa 9d3d 0d90 17be
00000100: d0bd c0be 1de4 35bf 00a5 be3e d7ad 2e3f
00000110: bfda 073f 8797 08bf 7bed 6bbf 303f ca3e
00000120: b9c5 cf3e 854d d23e a39d 13bf f764 d13e
00000130: 3c72 453e 5ca5 483e 597d fabe a368 7a3e
00000140: 1fe8 d63c 586e af3e 7a14 01bf 6d61 80bf
00000150: 3d91 09bf 5cc8 86bf 7542 0cbf e2db 4fbd
00000160: 769b 90be 9a70 d0bd 99c8 d5be 9783 9c3e
00000170: 7fa1 99be 7bd3 2abf 5682 f8be 46cf 0dbf
00000180: 394e 30bf 0d99 823e a099 0dbf 4098 003f
00000190: f142 843e f9b2 d6be 46d5 46be 25ad dcbd
000001a0: 0f27 353e 5071 fc3e f353 b3be aa31 0abb
000001b0: 03e1 55be ce08 203d 4382 19be 73c4 9e3e
000001c0: 8477 5dbe 347d 1f3e bf0c f3be 7577 90bc
000001d0: 834a 17bf 2604 3d3f 66da d23b 41a3 26bf
000001e0: 4997 adbe 84d9 533f 8a21 99be d0ae ffbe
000001f0: 7811 1dbe 4c7f 8ebe 59dd bd3d 1ff7 d4bc
00000200: 6742 083f 6e60 2a3f 57cc e7be 4597 79bf
00000210: 8938 a9be 1179 1d3f 9c2a 233f f691 1bbf
00000220: 97a2 ddbe 9824 2abf 00d8 ba3e ef05 a4be
00000230: ca1a 3fbe 6f9a c7be e9da 003f 8143 0cbf
00000240: e9a3 53be a718 6cbe 7e7b 503f 70af 3e3f
00000250: 435b 5c3e 2250 653f 0e68 773e 3098 edbd
00000260: 01d8 9c3e 7205 38bd f825 ca3e 9393 16be
00000270: 8479 e73d e2e2 0f3f 8951 3b3f 5c0f 0f3f
00000280: eba9 553f ad11 babc 4fe1 0a3f f67c b7be
00000290: b5be 99be 51aa 243f 979f ecbd d84f 9b3e
000002a0: 2835 c83d c320 58bf 6542 e03e 2f3e 09bd
000002b0: a22f 1fbe 5191 edbd 41a4 05bd 929d 01bf
000002c0: bff7 db3c ac92 02be 4f5c 493c fa47 bfbe
000002d0: 9196 143f 9bc1 34bf aed9 04be ff61 e33d
000002e0: ddfb 283f 0581 b6bf 5e9f df3e fd4d 493f
000002f0: 2865 823e 69e7 e53e 3a30 d8bd d16b 243c
00000300: 6dbc 69bd 11da aebe 412c 94bd 82dc 6b3f
00000310: 73e7 10bb ad2b 793d 2ece cc3e 9602 1bbd
00000320: cb23 c53e 4019 1d3f 44f0 cebd baae d53e
00000330: f6dc 493e 3f2f cbbe 98be e5be c4fe 2c3d
00000340: bf64 aa3e c389 80bf 8c90 bbbe 8c7f 6a3f
00000350: ca35 0b3f febd a63e 2009 d5be 0bed 8e3e
00000360: 55d2 0a3f 5595 59be 45a2 45bf efa9 21bd
00000370: d71e a33e 9cb1 293f ec3d 88be a0e8 973e
00000380: e2dd 41bf a565 afbe 87e7 773e 4f21 b23e
00000390: 1d6e f53d 32d5 be3d e96a 0c3e 5262 c93e
000003a0: 930c 163e 6734 6f3f 9d7a b8bc 325a 893e
000003b0: 513f 5b3f 528f 15bf 2c23 c83d 5577 2d3d
000003c0: b52f 35bd 496b 85be 5d50 c2bd 38ea 903d
000003d0: 65d9 d13e b32b 32bf 9426 1d3d 258c a2bd
000003e0: 596c 943e 203a d33e f3c6 24bf 79cf 73bd
000003f0: afd1 a33e f80b 043e 95b5 aebe 61ab 943c

architecture.2.bias f4 [64]
0.33112112 1.0510954 -1.2652495 -0.50501764 0.29196548 -1.1694752 0.9147733 -0.6830393
-1.2985855 0.7211879 0.8270136 -1.2823964 -1.0339975 0.55066097 -0.040929534 0.7914155
1.2499335 0.51906747 -0.63257104 1.2209907 0.36749938 -0.8644901 0.5014035 1.2863123
-0.6601653 0.75658876 1.3534651 -0.37993607 -1.0210063 -0.37599754 -1.2413682 0.39004079
-0.80395573 0.41946867 0.722196 -1.2250583 -1.263845 1.4493521 -0.6843672 -0.6587811
-0.60676026 -1.272751 -0.7037628 0.7049371 -1.2179712 0.6384873 -0.5609396 1.0073282
-0.67497385 1.1900109 1.4354833 -0.5172563 -1.2611401 -1.1091546 -0.8327317 0.13384667
0.5060064 0.456067 -0.44769388 0.9013531 -1.0388371 0.77672696 -1.1715307 1.2371387
00000000: b588 a93e 4b8a 863f b2f3 a1bf d648 01bf
00000010: 807c 953e 5db1 95bf 952e 6a3f aadb 2ebf
00000020: 0d38 a6bf c59f 383f 2ab7 533f 9125 a4bf
00000030: 085a 84bf 1ef8 0c3f baa5 27bd 359a 4a3f
00000040: d2fd 9f3f 9be1 043f 2df0 21bf 6c49 9c3f
00000050: e128 bc3e 394f 5dbf fb5b 003f e2a5 a43f
00000060: 9800 29bf cdaf 413f 583e ad3f fb86 c2be
00000070: 56b0 82bf c082 c0be 27e5 9ebf 6db3 c73e
00000080: 0bd0 4dbf 99c4 d63e d6e1 383f b6ce 9cbf
00000090: acc5 a1bf 5f84 b93f b032 2fbf e1a5 28bf
000000a0: a454 1bbf 81e9 a2bf cd29 34bf c276 343f
000000b0: 7be6 9bbf e773 233f bd99 0fbf 21f0 803f
000000c0: 16cb 2cbf 4752 983f ebbd b73f e96a 04bf
000000d0: 0a6d a1bf c7f8 8dbf e82d 55bf 1a0f 093e
000000e0: a389 013f 9d81 e93e 2238 e5be 14bf 663f
000000f0: 9df8 84bf 94d7 463f b8f4 95bf 905a 9e3f

architecture.4.weight f4 [1, 64]
-8.134656 -5.1741443 5.1465087 8.130447 -7.283969 5.123223 -5.089781 5.1770954
5.1925626 -5.3237 -5.0544186 5.227526 5.2175245 -7.6471047 -6.868972 -6.610714
-5.3333573 -7.7132406 6.657285 -5.315372 -7.072765 6.3389745 -6.7348356 -5.178844
6.818778 -8.52581 -5.090754 7.541144 5.3389254 6.415076 5.1493907 8.166821
5.092221 -7.2101655 -7.665984 5.0748477 5.124039 -5.107517 4.1550922 5.1931047
6.8433127 5.0545526 4.660859 -5.372927 5.212606 -7.926116 6.289707 -5.4027796
6.7416234 -5.147181 -5.0742135 7.615213 5.067286 4.06442 5.157743 -8.35434
-8.051617 -5.4094925 7.6980224 -5.4762716 5.511935 -5.24257 5.0221515 -5.243749
00000000: 8d27 02c1 9792 a5c0 33b0 a440 5016 0241
00000010: 4616 e9c0 71f1 a340 7cdf a2c0 c4aa a540
00000020: 7929 a640 c05b aac0 ccbd a1c0 e547 a740
00000030: f6f5 a640 15b5 f4c0 9ece dbc0 f88a d3c0
00000040: ddaa aac0 ded2 f6c0 7b08 d540 8717 aac0
00000050: 1754 e2c0 e1d8 ca40 c683 d7c0 17b9 a5c0
00000060: 6e33 da40 b869 08c1 75e7 a2c0 0d51 f140
00000070: 7ad8 aa40 4d48 cd40 cfc7 a440 4cab 0241
00000080: 79f3 a240 adb9 e6c0 be4f f5c0 2765 a240
00000090: 21f8 a340 c770 a3c0 84f6 8440 ea2d a640
000000a0: 6bfc da40 e5be a140 c225 9540 05ef abc0
000000b0: abcd a640 bea2 fdc0 4845 c940 92e3 acc0
000000c0: 61bb d740 b5b5 a4c0 f55f a2c0 d3af f340
000000d0: 3527 a240 bb0f 8240 3b0c a540 60ab 05c1
000000e0: 6cd3 00c1 901a adc0 3356 f640 9e3d afc0
000000f0: c661 b040 22c3 a7c0 77b5 a040 cbcc a7c0

exp_avg f4 [64, 27]
1.0557582e-05 -5.1795603e-05 -8.9136365e-06 7.456695e-05 6.4795368e-06 -2.5188418e-05 -1.7528831e-05 -3.6130605e-05
3.0223726e-05 7.573223e-05 7.950821e-06 -4.258942e-06 2.1791175e-05 7.4803766e-06 8.941234e-06 -1.5278469e-05
4.4660183e-06 -3.066308e-05 6.355984e-05 1.3250446e-05 -2.414693e-05 -1.680415e-05 -2.8338653e-05 2.149033e-05
7.2936564e-05 1.07243e-05 -3.360332e-07 -8.311683e-06 3.375043e-05 -3.0228975e-05 6.407849e-05 1.5614169e-05
-3.3340202e-05 -6.778267e-05 -3.361134e-05 1.0754386e-05 1.5410968e-05 9.485037e-06 6.6763896e-05 1.7925098e-05
-1.2824123e-05 9.550235e-06 6.638502e-06 -2.0464546e-05 1.8206899e-06 6.41129e-05 2.0192665e-05 -2.8683799e-05
-7.658644e-05 -3.9260292e-05 1.03350485e-05 1.4638286e-05 7.528004e-06 7.2857096e-05 9.6982934e-05 7.344129e-05
-1.114185e-05 2.0706666e-05 -4.301386e-05 1.497383e-05 -3.7793627e-05 6.564176e-05 -3.5914156e-06 -1.347087e-05
1.9772026e-05 9.497162e-05 -3.379207e-05 -2.6922486e-05 6.9163594e-05 -1.9676723e-05 -2.7045247e-05 2.9249135e-05
3.4465564e-05 -4.7886515e-05 1.8335626e-05 -4.8148155e-05 5.809675e-05 1.0531866e-05 -1.7504964e-06 1.4571279e-05
9.879018e-05 -3.0240028e-05 -5.812357e-05 0.000100415906 -8.910888e-05 3.5237642e-07 -5.8761074e-05 2.3724897e-05
-2.7128885e-05 -2.0612742e-05 -3.1266292e-05 -5.472301e-05 -2.3749737e-05 8.186724e-06 4.4623954e-05 -1.93057e-05
-2.6503449e-05 1.7777229e-05 1.837344e-05 -8.183339e-05 2.2902418e-06 -6.320169e-05 2.5828987e-05 -2.5386464e-05
-1.4648373e-05 -2.8211518e-05 -4.3272288e-05 -2.6490065e-05 -3.3600987e-05 -4.248273e-05 3.7108963e-05 2.7306933e-06
-3.1413679e-06 6.1437554e-06 2.417998e-05 4.1364124e-06 8.9024625e-06 -5.150464e-05 4.9939804e-06 -1.8313554e-05
8.038221e-07 -9.4214346e-07 -1.6900559e-06 8.884959e-06 1.5271282e-05 -7.128533e-06 5.709021e-07 -1.0700435e-05
5.8953486e-08 3.064935e-05 1.0251326e-05 5.0923613e-06 -5.091736e-05 7.4488657e-06 -1.8400973e-05 7.0946444e-06
1.9255702e-05 1.6315684e-05 -5.4996417e-05 2.0646894e-06 3.8031754e-05 -1.4099499e-05 1.2010532e-05 -3.7648679e-06
-6.3815765e-05 -1.0326982e-06 -7.668547e-07 1.5687789e-05 3.016307e-05 7.853483e-06 -3.685368e-06 9.406445e-06
-5.7568544e-05 -5.9229173e-05 -4.3814816e-06 3.832049e-05 -9.591641e-06 -9.712548e-07 -1.2788013e-05 -6.435658e-05
4.9536943e-06 -3.3791441e-06 1.705499e-05 -4.1584694e-06 -1.8669587e-05 -2.2983755e-05 -3.5754005e-05 -5.517603e-06
4.616684e-05 -1.070771e-05 -2.7289936e-05 -1.2556441e-05 8.709077e-06 -2.5641251e-05 7.6367425e-05 2.9698685e-05
1.7248654e-05 -5.7901496e-05 8.50422e-06 -4.801798e-06 -3.258333e-05 -3.8661612e-05 -1.1634788e-05 4.627348e-05
-1.12268335e-05 -3.711107e-05 -5.9083504e-06 1.672251e-05 -2.5661133e-05 3.3594253e-05 -1.1045605e-05 7.91083e-05
6.3886573e-06 -2.9783358e-05 -4.787197e-05 4.4377215e-05 1.1982309e-05 -5.2717423e-05 2.832131e-05 9.629982e-06
1.9586623e-05 -2.137469e-05 7.6879594e-05 1.3347713e-05 7.994201e-06 2.012307e-05 -3.8858914e-05 -1.3759093e-06
-4.159396e-05 -5.7217254e-05 4.90791e-05 1.20526065e-05 -5.7462134e-05 4.1379768e-05 9.8571945e-06 1.4683673e-05
-3.8951814e-05 5.877096e-05 -0.00011079096 -1.39020185e-05 3.206211e-05 2.8918092e-05 -6.807437e-05 -8.635529e-06
-2.239886e-05 -3.2065702e-06 6.6035136e-05 5.161492e-05 2.2865433e-05 -4.7836373e-05 1.7287251e-05 3.774006e-05
2.9430666e-05 -6.714406e-07 -4.688985e-06 2.8771256e-05 2.3796196e-05 -6.829896e-05 -1.1911868e-05 -8.6436385e-06
-1.4181384e-05 6.451469e-05 3.9978306e-05 3.4120992e-05 -1.8499773e-05 -6.137104e-05 1.3256635e-05 1.3868221e-05
-1.0335709e-05 1.1186282e-05 4.5668107e-06 -2.0194697e-05 1.5563279e-05 1.111943e-05 1.1911393e-05 1.1669635e-05
00000000: 7820 3137 1b3f 59b8 c78b 15b7 d460 9c38
00000010: cc6a d936 b74b d3b7 e10a 93b7 f18a 17b8
00000020: f588 fd37 6ed2 9e38 8464 0537 09e8 8eb6
00000030: 31cc b637 f2ff fa36 4f02 1637 432a 80b7
00000040: ceda 9536 3b9c 00b8 6e4b 8538 3b4e 5e37
00000050: 238f cab7 a3f6 8cb7 cbb8 edb7 2246 b437
00000060: 85f5 9838 85ec 3337 0d68 b4b4 6872 0bb7
00000070: 408f 0d38 3b94 fdb7 e161 8638 2cfb 8237
00000080: c5d6 0bb8 8b26 8eb8 e7f9 0cb8 bc6d 3437
00000090: cd46 8137 ec21 1f37 9803 8c38 db5d 9637
000000a0: 3027 57b7 f239 2037 4cc0 de36 47ab abb7
000000b0: 6e5e f435 5a74 8638 6b63 a937 fd9d f0b7
000000c0: 089d a0b8 6bab 24b8 b264 2d37 f696 7537
000000d0: 1099 fc36 dbca 9838 5163 cb38 7e04 9a38
000000e0: e2ed 3ab7 3ab3 ad37 c869 34b8 1c38 7b37
000000f0: 9984 1eb8 27a9 8938 0d04 71b6 f200 62b7
00000100: 1adc a537 802b c738 f5bb 0db8 99d7 e1b7
00000110: ec0b 9138 710f a5b7 3adf e2b7 0a5c f537
00000120: 1e8f 1038 c1d9 48b8 75cf 9937 b0f2 49b8
00000130: e9ac 7338 05b2 3037 99f2 eab5 2b77 7437
00000140: 932d cf38 f7ab fdb7 b5c9 73b8 6196 d238
00000150: f7df bab8 3f2e bd34 3976 76b8 d404 c737
00000160: d692 e3b7 87e9 acb7 ed23 03b8 6286 65b8
00000170: 2c3a c7b7 b659 0937 9b2a 3b38 adf2 a1b7
00000180: b953 deb7 4f20 9537 a920 9a37 f79d abb8
00000190: 0eb2 1936 268b 84b8 54ab d837 04f5 d4b7
000001a0: 48c2 75b7 c6a7 ecb7 447f 35b8 fb36 deb7
000001b0: c9ee 0cb8 7c2f 32b8 72a5 1b38 f440 3736
000001c0: 4ad0 52b6 7526 ce36 1dd6 ca37 83cb 8a36
000001d0: c95b 1537 b006 58b8 f791 a736 0fa0 99b7
000001e0: 3cc6 5735 9be7 7cb5 e1d5 e2b5 9c10 1537
000001f0: d41a 8037 a231 efb6 1840 1935 0586 33b7
00000200: 0b34 7d33 7d8d 0038 1cfd 2b37 0ddf aa36
00000210: 1990 55b8 45f1 f936 ca5b 9ab7 880e ee36
00000220: 4e87 a137 aadd 8837 f4ab 66b8 188f 0a36
00000230: 4984 1f38 e38c 6cb7 d880 4937 f0a7 7cb6
00000240: d4d4 85b8 3d9b 8ab5 dbd9 4db5 4599 8337
00000250: b306 fd37 74c2 0337 2452 77b6 60d0 1d37
00000260: c175 71b8 d76c 78b8 a404 93b6 50ba 2038
00000270: c9eb 20b7 105c 82b5 198c 56b7 2df7 86b8
00000280: e937 a636 41c5 62b6 5011 8f37 fb88 8bb6
00000290: a29c 9cb7 3dcd c0b7 92f6 15b8 d923 b9b6
000002a0: 44a3 4138 44a5 33b7 b1ec e4b7 81a9 52b7
000002b0: 331d 1237 2b18 d7b7 7327 a038 7121 f937
000002c0: 34b1 9037 42db 72b8 59ad 0e37 211f a1b6
000002d0: 16aa 08b8 9728 22b8 0933 43b7 c515 4238
000002e0: e25a 3cb7 b5a7 1bb8 5840 c6b6 5147 8c37
000002f0: dd42 d7b7 8ee7 0c38 8350 39b7 f2e6 a538
00000300: 265e d636 46d7 f9b7 23ca 48b8 ac21 3a38
00000310: a007 4937 e71c 5db8 8d93 ed37 7590 2137
00000320: f44d a437 cc4d b3b7 6b3a a138 feef 5f37
00000330: d51e 0637 f7cd a837 71fc 22b8 e2ab b8b5
00000340: 2d75 2eb8 8ffc 6fb8 48da 4d38 8d35 4a37
00000350: 7f03 71b8 308f 2d38 5460 2537 e559 7637
00000360: 3160 23b8 d680 7638 7258 e8b8 b73c 69b7
00000370: 6e7a 0638 2195 f237 26c3 8eb8 51e1 10b7
00000380: 30e5 bbb7 7530 57b6 587c 8a38 197d 5838
00000390: 25cf bf37 eaa3 48b8 1704 9137 154b 1e38
000003a0: e0e1 f637 0c3d 34b5 1356 9db6 cd59 f137
000003b0: f19d c737 ba3b 8fb8 15d9 47b7 2504 11b7
000003c0: 95ec 6db7 0f4c 8738 61ae 2738 231d 0f38
000003d0: f62f 9bb7 54b4 80b8 d068 5e37 8eab 6837
000003e0: 8867 2db7 b7ac 3b37 9b3c 9936 c867 a9b7
000003f0: e38d 8237 978d 3a37 0bd7 4737 b3c8 4337
