raisimGymTorch/data/ouzel_only_planning/2022-05-09-12-17-53/full_66000.pt (torch, 162032 bytes, 36 tensors)

architecture.0.weight f4 [64, 27]
-0.2583841 -0.34057122 0.11541388 0.36453068 0.06929468 -0.2837226 -0.054865837 0.9572273
0.1057271 0.17129514 -0.09007818 -0.05226285 0.2683695 -0.16568507 -0.23006961 0.03328147
1.3564051 0.84778583 0.20155752 -0.18919803 -0.15060751 0.32196966 0.52762574 0.023417765
0.32620427 -0.41056186 0.044332806 0.053339373 0.1731216 -0.16270037 -0.21967347 0.15681331
-0.0104473 -0.21410923 -0.12882426 -0.09803184 0.10935411 -0.4759296 0.15424256 -1.1340723
-0.3444817 -0.29204026 0.22074267 -0.22924738 0.6292108 -0.082939126 0.060080368 0.23384139
-0.13660197 -0.14235857 -0.047813788 -0.4331296 -0.28813815 -0.2847748 0.13210782 0.44480366
0.5922501 0.6121763 0.3544345 0.13930693 -0.18924718 -0.20991452 -0.7476011 0.03320808
-0.21950457 -0.06844855 -0.5260491 0.39292997 -0.2644731 0.17303443 -0.15762395 0.6410575
0.00028532906 0.39325446 0.4415656 0.019347483 0.0042242333 -0.45144165 -0.031612553 -0.3099624
-0.17499982 -0.75580084 -0.75862104 -0.16398981 -0.020746429 -0.24719286 -0.04553731 -0.4052933
-0.027423475 -0.17212534 -0.05089845 -0.36817247 0.07782374 -1.421185 -0.03553114 0.8738659
0.27938747 -0.3467514 -0.042434588 -0.076935224 -0.25244576 -0.36834776 -0.13892366 -0.07046267
-0.08859951 0.1986494 -0.0875366 -0.061175767 0.09682045 0.830571 -0.4788138 0.21492313
0.18888028 -0.40362415 0.3702528 -0.009753091 -0.07502753 -0.2299689 -0.23391183 0.025069322
0.64752513 0.39415574 0.5232095 0.020041559 0.25791058 0.26978916 0.19178055 0.50147814
-0.4532638 0.34377778 0.041070994 -0.032382682 -0.10563303 -0.11154506 -0.017992776 -0.17455192
-0.20840824 -0.56549245 -0.20042914 -0.15175663 0.02296572 0.031305846 -0.4888121 -0.2423439
0.114241265 0.3508223 0.28251737 0.15820071 0.39562955 0.12305659 0.59447986 0.022041447
-0.11619993 -0.26838484 -0.35741886 -0.47578368 0.2250087 -0.89250004 -0.045397993 0.089958034
0.40009415 0.014724104 -0.22944957 -0.7788935 -0.5112069 0.0068892823 -0.50464994 -0.02613553
0.09451505 -0.1395975 -0.58510506 0.37104818 -0.26878476 0.15316232 0.06982178 0.46174324
0.13670446 0.5961637 -0.47857457 -0.6343698 -0.21316713 -0.2145977 -0.19982645 0.22265859
-0.10337126 0.095569976 0.11416623 -0.07825607 -0.07504706 0.37514433 -0.026383264 -0.47636002
0.32919493 -0.04015256 -0.23037049 0.18649095 0.16696629 -0.3375884 -0.085705675 0.24409501
0.30657396 0.17140935 0.84345 -0.97808206 -0.45097238 0.2382696 0.31508943 -0.10258679
0.14792243 -0.011304358 -0.016523708 -0.11901283 -0.4592362 0.07775036 0.35875574 0.49310642
-0.087738335 0.37413284 0.25036868 -0.3212673 0.30062506 0.17124842 0.15306933 0.056816604
-0.01672063 -0.33652008 -0.0063033313 0.2970707 -0.07299288 -0.6069052 1.1860937 -0.30148232
0.4331175 0.13006815 0.43694237 -0.3029119 -0.35174644 0.29854608 0.16757995 0.1690342
-0.45874944 -0.12093909 -0.07334455 0.47042385 0.4765701 -0.09134655 -0.51920766 0.5675574
0.15699722 0.2698739 -0.55417925 -0.4553172 -0.26782474 0.18968932 -0.31346348 -1.0718316
00000000: ec4a 84be 5a5f aebe 1d5e ec3d c4a3 ba3e
00000010: 5fea 8d3d 1744 91be 00bb 60bd d90c 753f
00000020: 7387 d83d fe67 2f3e e97a b8bd 9211 56bd
00000030: ba67 893e 59a9 29be 5e97 6bbe 2752 083d
00000040: af9e ad3f 7e08 593f 1865 4e3e 21bd 41be
00000050: db38 1abe 35d9 a43e 7b12 073f 9dd6 bf3c
00000060: 3f04 a73e 2a35 d2be 5196 353d 637a 5a3d
00000070: ca46 313e ed9a 26be 15f2 60be ab93 203e
00000080: 272b 2bbc 733f 5bbe 82ea 03be ebc4 c8bd
00000090: 0cf5 df3d 0bad f3be c3f1 1d3e 4829 91bf
000000a0: e85f b0be 4d86 95be 5e0a 623e d3bf 6abe
000000b0: f613 213f fddb a9bd d516 763d 1e74 6f3e
000000c0: 63e1 0bbe 72c6 11be 64d8 43bd 2ac3 ddbe
000000d0: d886 93be 01ce 91be 4647 073e 4ebd e33e
000000e0: b49d 173f 96b7 1c3f 7078 b53e 7aa6 0e3e
000000f0: 03ca 41be d5f3 56be c962 3fbf 3205 083d
00000100: cec5 60be c12e 8cbd 27ab 06bf 1e2e c93e
00000110: 0569 87be f02f 313e 2c68 21be 581c 243f
00000120: 3898 9539 a658 c93e e314 e23e 9d7e 9e3c
00000130: 706b 8a3b 5c23 e7be 2a7c 01bd 64b3 9ebe
00000140: 2733 33be 2a7c 41bf fd34 42bf f2ec 27be
00000150: 6af4 a9bc 2020 7dbe 5585 3abd 9a82 cfbe
00000160: 32a7 e0bc a041 30be e57a 50bd 1a81 bcbe
00000170: 0e62 9f3d 64e9 b5bf 1a89 11bd adb5 5f3f
00000180: e00b 8f3e 6689 b1be e4cf 2dbd 3790 9dbd
00000190: 9240 81be 1498 bcbe 0142 0ebe bb4e 90bd
000001a0: a973 b5bd c06a 4b3e 6446 b3bd 7193 7abd
000001b0: cd49 c63d 4da0 543f 1527 f5be cf14 5c3e
000001c0: d569 413e d3a7 cebe c691 bd3e 6ecb 1fbc
000001d0: 09a8 99bd f87c 6bbe 9586 6fbe 2e5e cd3c
000001e0: 35c4 253f c8ce c93e 0ff1 053f 322e a43c
000001f0: db0c 843e ce21 8a3e 1f62 443e df60 003f
00000200: 3112 e8be a403 b03e 0f3a 283d b4a3 04bd
00000210: 2156 d8bd bd71 e4bd 9665 93bc bdbd 32be
00000220: f868 55be 1dc4 10bf 4c3d 4dbe 1766 1bbe
00000230: 9b22 bc3c 8f3a 003d 9445 fabe 0029 78be
00000240: 53f7 e93d fb9e b33e 1ea6 903e 5eff 213e
00000250: f58f ca3e 1805 fc3d d52f 183f 4490 b43c
00000260: 3bfa edbd bd69 89be 9bff b6be eb99 f3be
00000270: ae68 663e e27a 64bf 3ff3 39bd eb3b b83d
00000280: 24d9 cc3e 5e3d 713c d4f4 6abe 9065 47bf
00000290: 75de 02bf 7dbf e13b bd30 01bf 2e1a d6bc
000002a0: 1b91 c13d a6f2 0ebe 72c9 15bf 07fa bd3e
000002b0: 289e 89be 95d6 1c3e b9fe 8e3d 9c69 ec3e
000002c0: 41fc 0b3e 2f9e 183f ba07 f5be 0f66 22bf
000002d0: 7c48 5abe 80bf 5bbe 4e9f 4cbe 9d00 643e
000002e0: 50b4 d3bd 31ba c33d fccf e93d b844 a0bd
000002f0: 46b2 99bd eb12 c03e b721 d8bc 76e5 f3be
00000300: 3d8c a83e 0377 24bd 3ee6 6bbe 7cf7 3e3e
00000310: 36f9 2a3e 63d8 acbe 7586 afbd 0bf4 793e
00000320: 43f7 9c3e ef85 2f3e 57ec 573f 9663 7abf
00000330: dae5 e6be f2fc 733e 6753 a13e 0619 d2bd
00000340: fa78 173e ea35 39bc ba5c 87bc 00bd f3bd
00000350: 0221 ebbe 953b 9f3d d5ae b73e 7278 fc3e
00000360: 28b0 b3bd 578e bf3e 5330 803e 267d a4be
00000370: 87eb 993e bf5b 2f3e 35be 1c3e 87b8 683d
00000380: b4f9 88bc 5c4c acbe 2d8c cebb a719 983e
00000390: 4b7d 95bd 245e 1bbf ebd1 973f e45b 9abe
000003a0: 94c1 dd3e 9630 053e e9b6 df3e 4517 9bbe
000003b0: 1c18 b4be 08db 983e 149a 2b3e 4d17 2d3e
000003c0: 35e1 eabe eaae f7bd ab35 96bd 65db f03e
000003d0: ff00 f43e e613 bbbd cbea 04bf 714b 113f
000003e0: e1c3 203e e92c 8a3e b1de 0dbf 561f e9be
000003f0: 5320 89be eb3d 423e 497e a0be c731 89bf

architecture.0.bias f4 [64]
0.46364275 -0.5020903 1.1375849 -0.041119732 0.3244843 -0.8104563 -0.93429697 -1.027073
-1.0564383 0.4246368 -0.6343272 0.41899154 1.5494488 -1.4575722 1.0869763 1.3958853
-0.80641085 -0.5316003 -1.1514015 0.40009418 1.7218891 -1.2257347 0.93887293 -1.1246479
-0.059950817 0.5894926 0.20564441 -1.704861 -0.77027833 0.009065697 -0.09858739 -0.8659742
-1.21802 -0.84059334 -1.1601346 0.20605108 1.2180243 -0.47519252 0.7328278 -0.29387388
-0.64948434 -0.6192855 1.2815957 -0.8113889 -0.2781242 0.47435862 -0.26267135 -0.52517927
0.22399949 1.1316433 1.0408125 0.73659 0.31369764 -1.4462646 -0.75047624 0.19759499
-0.624417 -1.2890444 1.276603 1.419605 1.4386173 1.2281594 -0.23694362 0.3157247
00000000: 9562 ed3e fd88 00bf 629c 913f 2a6d 28bd
00000010: ce22 a63e 107a 4fbf 162e 6fbf 2177 83bf
00000020: 5f39 87bf ff69 d93e 4463 22bf 0f86 d63e
00000030: 5754 c63f ba91 babf 0a22 8b3f 5fac b23f
00000040: f170 4ebf f516 08bf 2061 93bf 25d9 cc3e
00000050: dd66 dc3f e0e4 9cbf fa59 703f 76f4 8fbf
00000060: fd8e 75bd fde8 163f 7394 523e e338 dabf
00000070: f630 45bf 4a88 143c 2fe8 c9bd 7cb0 5dbf
00000080: 14e8 9bbf 2031 57bf 4a7f 94bf 0eff 523e
00000090: 38e8 9b3f 6f4c f3be 9a9a 3b3f a376 96be
000000a0: 9b44 26bf 7f89 1ebf 540b a43f 2fb7 4fbf
000000b0: 4c66 8ebe 22df f23e dc7c 86be 2672 06bf
000000c0: 1f60 653e b0d9 903f 5839 853f 2a91 3c3f
000000d0: fa9c a03e 331f b9bf 361f 40bf 5756 4a3e
000000e0: cbd9 1fbf 68ff a4bf ba67 a33f 9eb5 b53f
000000f0: 9d24 b83f 5434 9d3f 59a1 72be aba6 a13e

architecture.2.weight f4 [64, 64]
0.21943715 0.32687753 -0.5175824 0.055073936 0.044238746 0.03343824 0.19385202 0.5246264
0.38341403 -0.08660893 0.35557765 -0.22872461 -0.46894854 0.119989164 -0.24403366 -0.3686476
-0.009897292 0.061176 0.67781514 -0.19786339 -0.9376573 0.48103598 -0.38642782 0.4916536
-0.073085785 -0.14324991 0.068487585 0.4186647 0.14295861 -0.17164092 0.15287107 0.30246896
0.29427674 0.4212404 0.1171525 -0.108057156 -0.1767321 -0.119876355 -0.29679936 0.17247626
0.38175735 0.05051676 -0.16088979 0.12711702 -0.38183177 -0.26648912 0.052200157 0.12635352
0.021319376 0.12535697 -0.17373294 0.56154823 0.02341187 0.3024268 0.16663763 0.27695596
0.16823931 0.5303248 -0.91568786 -0.2956556 -0.53555506 -0.49380478 -0.33062392 0.21521802
0.05790187 -0.15271848 -0.01589934 0.3451513 -0.028532911 -0.08591433 -0.07981549 -0.4749279
0.5726852 0.2240871 -0.083157875 -0.018441843 -0.09434767 0.4766501 0.45134586 0.117839426
-0.055166684 0.20170334 -0.28289026 0.18826719 0.7220053 0.08704849 0.080175586 -0.20022945
0.21553311 0.39772543 -0.070179306 0.010534193 0.67437464 0.27704245 -0.14648369 0.49953532
-0.48683575 -0.14797463 0.006759514 0.1555885 0.22486942 -0.06865108 -0.24583244 0.08003541
0.09547584 -0.16583474 -0.2878479 0.25582042 0.02189638 -0.22676626 -0.13805476 0.0048608305
-0.011911917 -0.32061347 -0.011345794 0.2554945 -0.22789545 0.87174195 0.076912105 0.011190348
0.23282829 0.6271456 0.08799908 0.60829103 0.7985313 -0.29251674 0.32003444 -0.026131928
0.25558612 -0.5562709 0.025107892 -0.15940775 -0.1173254 0.050067734 0.12664269 -0.23255467
-0.06988979 0.23532362 -0.21952452 -0.032060944 -0.20133121 -0.057242215 -0.0017847011 -0.1062915
-0.30024436 0.47315493 -0.45724478 -0.26151875 0.9896309 -0.7151738 0.061742526 -0.22166334
0.5313462 0.049453847 0.3953184 0.2742457 0.2763954 -0.28347775 0.30183953 -0.76833177
-0.29726762 0.19963402 -0.3253956 0.19351408 0.6573994 -0.45674026 0.4809224 0.6387824
0.46804842 0.10405099 0.1603784 -0.7879506 0.17838329 0.44373456 -0.20693524 -0.23545611
0.05111879 0.3830005 -0.31037742 0.4972751 0.33879346 0.008651659 -0.55160666 -0.4129411
0.017939495 -0.62660986 0.5857026 0.107247 -0.048005775 0.14938714 0.2847099 -0.23681337
-0.35735762 0.21711582 -0.25199154 0.14310661 0.39516252 0.22086397 0.41868225 -0.17894606
0.5698273 -0.23761831 0.6551431 -0.6819396 0.017508904 0.823466 -0.19106156 -0.43605858
0.5240109 0.07150827 0.53487766 0.7126735 -0.98644584 0.1194832 -0.48837322 -0.28367797
-0.03529175 0.0005214503 -0.6384798 0.22087708 0.07991474 0.22762993 -0.28125048 0.39326328
0.47326428 -0.52892154 0.43544906 0.17050005 -0.70072603 0.33018613 -0.4715084 0.1027803
-0.039033074 0.83720833 -0.14687032 0.12911797 0.43018064 -1.1094031 0.8326482 -0.16646406
0.20949852 -0.41613096 0.17074107 -0.488895 -0.17375696 -0.082333505 0.60120565 0.65083796
0.47617707 -0.031973753 0.019969165 -0.102567956 -0.14053488 -0.040264487 0.18155982 -0.4646632
00000000: 22b4 603e 7e5c a73e 4880 04bf 3595 613d
00000010: b033 353d 89f6 083d 2581 463e ea4d 063f
00000020: d84e c43e 0660 b1bd 460e b63e c936 6abe
00000030: 061a f0be e1bc f53d f6e3 79be 61bf bcbe
00000040: 4028 22bc af93 7a3d 4b85 2d3f b39c 4abe
00000050: 4f0a 70bf 594a f63e ded9 c5be 05ba fb3e
00000060: 00ae 95bd 1bb0 12be 3843 8c3d 385b d63e
00000070: be63 123e a3c2 2fbe 3c8a 1c3e 36dd 9a3e
00000080: 71ab 963e d2ac d73e a6ed ef3d 124d ddbd
00000090: 42f9 34be bc81 f5bd 16f6 97be 9e9d 303e
000000a0: b375 c33e aaea 4e3d 4bc0 24be f72a 023e
000000b0: 747f c3be 4371 88be d5cf 553d d162 013e
000000c0: f9a5 ae3c 945d 003e 0ce7 31be a0c1 0f3f
000000d0: 40ca bf3c afd7 9a3e 0ea3 2a3e 2ccd 8d3e
000000e0: ed46 2c3e 5ec3 073f 856a 6abf 2c60 97be
000000f0: 231a 09bf fbd3 fcbe 8a47 a9be 1d62 5c3e
00000100: 832a 6d3d 3c62 1cbe 553f 82bc acb7 b03e
00000110: dabd e9bc daf3 afbd 4e76 a3bd c029 f3be
00000120: 7f9b 123f 1777 653e ad4e aabd 5913 97bc
00000130: 5a39 c1bd 7b0b f43e ce16 e73e cc55 f13d
00000140: 76f6 61bd 528b 4e3e fed6 90be 1dc9 403e
00000150: 57d5 383f 7b46 b23d 1933 a43d f308 4dbe
00000160: b6b4 5c3e aba2 cb3e 2bba 8fbd 9c97 2c3c
00000170: d1a3 2c3f 82d8 8d3e d2ff 15be 18c3 ff3e
00000180: 8942 f9be a986 17be ea7e dd3b 9752 1f3e
00000190: 2b44 663e f098 8cbd 80bb 7bbe 9be9 a33d
000001a0: d688 c33d 95d0 29be cd60 93be e5fa 823e
000001b0: 0a60 b33c 6a35 68be 3a5e 0dbe 9a47 9f3b
000001c0: 332a 43bc 7327 a4be b6e3 39bc 2dd0 823e
000001d0: 6d5d 69be 7b2a 5f3f 1884 9d3d b957 373c
000001e0: 8a6a 6e3e 9d8c 203f dd38 b43d f6b8 1b3f
000001f0: 8c6c 4c3f c1c4 95be 8edb a33e a012 d6bc
00000200: 2fdc 823e c567 0ebf 11af cd3c c93b 23be
00000210: 4d48 f0bd d313 4d3d 9fae 013e d022 6ebe
00000220: 6122 8fbd adf8 703e 09cb 60be 5652 03bd
00000230: c529 4ebe d076 6abd a2ec e9ba 5caf d9bd
00000240: a1b9 99be 5d41 f23e fd1b eabe c9e5 85be
00000250: 7358 7d3f a115 37bf bbe5 7c3d b7fb 62be
00000260: 4e06 083f 1e90 4a3d 2c67 ca3e ef69 8c3e
00000270: b383 8d3e ff23 91be b68a 9a3e 64b1 44bf
00000280: 7633 98be dc6c 4c3e 419a a6be 8e28 463e
00000290: 544b 283f dcd9 e9be 763b f63e 3e87 233f
000002a0: 0ba4 ef3e af18 d53d 3c3a 243e 21b7 49bf
000002b0: 1caa 363e 2d31 e33e d5e6 53be 681b 71be
000002c0: f061 513d a418 c43e cae9 9ebe d89a fe3e
000002d0: 5676 ad3e b0bf 0d3c 1836 0dbf 046d d3be
000002e0: d9f5 923c 8169 20bf 9bf0 153f 51a4 db3d
000002f0: b4a1 44bd f1f8 183e 7fc5 913e 347f 72be
00000300: 94f7 b6be 9c53 5e3e 0905 81be 8a8a 123e
00000310: be52 ca3e 2a2a 623e 855d d63e a33d 37be
00000320: 34e0 113f 3752 73be 75b7 273f 9893 2ebf
00000330: d56e 8f3c abce 523f a4a5 43be 1243 dfbe
00000340: 9425 063f ee72 923d beed 083f c571 363f
00000350: b787 7cbf 9cb3 f43d 0e0c fabe 3d3e 91be
00000360: 158e 10bd f0b1 083a 6a73 23bf 9a2d 623e
00000370: 57aa a33d d217 693e 1000 90be ce59 c93e
00000380: b24f f23e 6767 07bf 2ef3 de3e 9197 2e3e
00000390: c862 33bf 280e a93e 8d69 f1be 7a7e d23d
000003a0: 25e1 1fbd 4953 563f 2c65 16be 8037 043e
000003b0: a340 dc3e ec00 8ebf 6f28 553f 8e75 2abe
000003c0: c886 563e 1e0f d5be bfd6 2e3e 7250 fabe
000003d0: 58ed 31be 789e a8bd 9de8 193f 519d 263f
000003e0: 7bcd f33e e9f6 02bd 6096 a33c 260f d2bd
000003f0: 60e8 0fbe 60ec 24bd d1ea 393e 56e8 edbe

architecture.2.bias f4 [64]
-1.6245732 0.107360944 1.1586291 -0.76869416 -0.46430245 -0.6292521 0.6317469 -0.5999791
-0.20363778 -0.53172517 -0.34812072 -0.04193302 0.10168182 -0.5167061 0.80536956 0.13641948
0.57243705 0.72106886 2.1663585 0.5706 -0.55147684 0.14965956 -0.27348965 -0.8319225
-0.8744548 0.4799695 -0.024157647 0.13257052 2.4290807 -0.112116724 0.2708021 0.1820079
-0.27028963 -0.6790829 0.50180006 0.11134575 -0.4714946 0.07469144 -0.8173108 1.4986354
-1.9042741 0.22708784 -0.499004 -0.12321081 0.46138895 1.3366647 -1.7632886 0.28550968
0.36179855 -0.6771883 -1.0427437 -0.62223446 0.42083082 0.33393574 -0.8814363 2.4399784
-0.09287288 0.26154307 0.15713134 0.0077768364 -0.1473466 0.054432113 -0.011483033 -0.77181053
00000000: 04f2 cfbf 0ee0 db3d f54d 943f 24c9 44bf
00000010: 0db9 edbe aa16 21bf 2aba 213f 3b98 19bf
00000020: 6c86 50be 241f 08bf e13c b2be f5c1 2bbd
00000030: 8f3e d03d da46 04bf b32c 4e3f 8cb1 0b3e
00000040: 3c8b 123f f897 383f 9ea5 0a40 d712 123f
00000050: 962d 0dbf 5b40 193e d606 8cbe dff8 54bf
00000060: 45dc 5fbf 90be f53e 42e6 c5bc 91c0 073e
00000070: 0f76 1b40 749d e5bd 93a6 8a3e 4760 3a3e
00000080: 6763 8abe 60d8 2dbf f875 003f 3e09 e43d
00000090: bd67 f1be d3f7 983d 483b 51bf 49d3 bf3f
000000a0: 41bf f3bf b789 683e 747d ffbe f355 fcbd
000000b0: 2c3b ec3e d417 ab3f 71b3 e1bf 532e 923e
000000c0: a93d b93e 365c 2dbf a078 85bf c24a 1fbf
000000d0: 2377 d73e a0f9 aa3e cfa5 61bf 9b28 1c40
000000e0: 2334 bebd f9e8 853e 0ae7 203e d5d4 fe3b
000000f0: 07e2 16be 35f4 5e3d 5523 3cbc 6095 45bf

architecture.4.weight f4 [9, 64]
-0.023851907 0.08435756 -0.03242431 -0.019943014 0.011271456 -0.01491051 -0.032310266 0.027205162
0.009739611 -0.00999508 -0.0002034676 -0.007687796 0.02715356 0.0050133513 -0.006250507 -0.0002028168
-0.0082478 0.0161699 0.054479904 -0.010558519 0.012355049 0.012372105 -0.03224608 0.0147583205
-0.002218073 0.0087307235 -0.017563842 0.0029050584 0.03901962 -0.004963371 0.0056508007 -0.0031160687
-0.1544466 -0.005195325 -0.026247103 0.009014463 0.0007091636 -0.011348884 0.021324495 0.04197825
0.0058101155 0.00740009 -0.0107191475 -0.016685234 0.011575521 0.013589692 0.00859032 -0.030452317
-0.008301051 -0.001542283 -0.0032707956 -0.026680429 -0.0052779494 -0.004323207 -0.005819605 -0.017566543
-0.02046653 -0.022435062 0.00019485035 0.0068882857 -0.011814653 -0.01774988 0.0070960396 -0.007030667
-0.05299238 0.07136339 -0.0075718155 -0.00526804 -0.008717655 -0.019803798 -0.066734046 -0.010399398
-0.013283966 0.041901067 -0.015409326 -0.0064286003 0.09235102 -0.004053086 -0.022104068 -0.009924649
-0.0042942143 -0.010576937 -0.0074026184 -0.0023840652 -0.019175507 0.04597884 -0.035121646 0.00816156
0.012752207 -0.005960901 -0.0077069933 -0.014772467 -0.025146218 0.0037248172 -0.0035388884 0.00328377
0.040579855 0.0077638454 0.047365714 0.016576014 -0.017934939 0.011415408 0.028144438 0.007654176
0.027071595 0.016687945 -0.04984407 -0.003106494 -0.0037421463 -0.053798452 -0.036704093 -0.017907513
-0.053503238 -0.013792854 -0.008110818 0.03985395 -0.005386696 0.011871044 0.015668696 -0.02974688
0.004145824 0.010078547 -0.011801951 -0.0020270844 0.012251325 0.0087652 -0.00039259484 0.037166644
0.027669283 -0.1236001 0.0055023795 -0.013050454 -0.014219704 0.004215848 -0.015404418 0.0066173463
-0.015722131 -0.01645672 -0.0134893535 0.0013077748 0.06857177 0.009553825 -0.03016353 0.005047628
0.0005309478 -0.01765499 -0.079081826 -0.012512714 0.033988204 -0.0050144503 -0.022469113 0.0067006084
0.0023900627 0.013855621 -0.0071788575 -0.003963459 0.16667478 -0.0020653233 -0.0041369186 -0.008049985
-0.07417891 0.0014288943 -0.0029387912 -0.008534624 -0.005926329 -0.004665008 0.009263777 0.023376672
-0.0090161655 0.0010630212 -0.032329254 -0.0047739353 -0.013241684 0.02014369 -0.005541806 -0.020329386
-0.017794508 -0.019035853 -0.024141151 0.050259825 0.001641036 -0.0027156603 -0.0090800915 -0.013516933
-0.022420043 0.030496439 0.0010965317 -0.0008671694 -0.01462238 -0.0047482415 0.0034217192 -0.006389092
-0.7207929 -0.018108746 0.5699805 -0.4471988 -0.002787639 -0.1882512 0.11760009 -0.35671943
-0.29424697 -0.19570336 -0.19759043 0.06934438 -0.031096376 -0.6303715 0.07155261 0.16613713
0.2873147 0.483785 0.7163029 0.24024136 -0.43539444 0.16799009 -0.11585996 -0.72998977
-0.7380383 0.34851545 -0.29989356 0.22310983 0.6536536 -0.39866242 0.3700306 -0.059723683
-0.055635985 -0.26173317 0.3679959 -0.10443193 -0.3308831 -0.0011669287 -0.38982373 0.3121548
-0.6373934 0.14557323 -0.18640506 0.2811219 0.6566598 0.6921152 -0.33174548 0.2495198
0.012420221 -0.120713875 -0.2873611 -0.16435719 0.080716945 0.16238299 -0.6571173 0.56969523
-0.23254731 0.102428965 0.1384469 -0.19131157 0.030321743 -0.1075552 -0.09762428 -0.33388326
00000000: 1365 c3bc a8c3 ac3d 5acf 04bd 885f a3bc
00000010: eaab 383c 364b 74bc c557 04bd 5cdd de3c
00000020: e492 1f3c 67c2 23bc eb59 55b9 e8e9 fbbb
00000030: 2571 de3c 0a47 a43b 0ed1 ccbb 38ab 54b9
00000040: c821 07bc bd76 843c 5226 5f3d a3fd 2cbc
00000050: d56c 4a3c 5fb4 4a3c 7714 04bd e2cc 713c
00000060: 175d 11bb 4f0b 0f3c 0ce2 8fbc cb62 3e3b
00000070: 09d3 1f3d c6a3 a2bb 5a2a b93b f536 4cbb
00000080: 4027 1ebe 8b3d aabb 2a04 d7bc 66b1 133c
00000090: 2ae7 393a abf0 39bc b5b0 ae3c 63f1 2b3d
000000a0: c862 be3b 747c f23b 5d9f 2fbc 79af 88bc
000000b0: 41a7 3d3c 4da7 5e3c 6abe 0c3c 2377 f9bc
000000c0: 2201 08bc 6e26 caba d85a 56bb ea90 dabc
000000d0: a6f2 acbb b0a9 8dbb 63b2 bebb b6e7 8fbc
000000e0: 6da9 a7bc bcc9 b7bc be50 4c39 21b7 e13b
000000f0: 3f92 41bc 3268 91bc e585 e83b 8261 e6bb
00000100: 8a0e 59bd f826 923d fe1c f8bb 869f acbb
00000110: 7fd4 0ebc 933b a2bc dcab 88bd 3d62 2abc
00000120: fea4 59bc 74a0 2b3d 6677 7cbc 02a7 d2bb
00000130: 8822 bd3d c0cf 84bb 9713 b5bc ff9a 22bc
00000140: 7bb6 8cbb e44a 2dbc aa91 f2bb fa3d 1cbb
00000150: f415 9dbc 4f54 3c3d b7db 0fbd 10b8 053c
00000160: a2ee 503c a953 c3bb f28a fcbb 3808 72bc
00000170: 71ff cdbc 101c 743b b2ec 67bb 8534 573b
00000180: 1037 263d db67 fe3b 8d02 423d 6cca 873c
00000190: 4bec 92bc b107 3b3c 2a8f e63c e2cf fa3b
000001a0: 40c5 dd3c 28b5 883c 4c29 4cbd 5296 4bbb
000001b0: cc3e 75bb c45b 5cbd 0857 16bd c7b2 92bc
000001c0: 3626 5bbd 6cfb 61bc 3de3 04bc e53d 233d
000001d0: e282 b0bb c47e 423c a35b 803c bbaf f3bc
000001e0: b1d9 873b 7d20 253c f85c 41bc d5d8 04bb
000001f0: c8b9 483c ea9b 0f3c 30d5 cdb9 0d3c 183d
00000200: b1aa e23c 0d22 fdbd 4e4d b43b 92d1 55bc
00000210: c3f9 68bc 1925 8a3b d062 7cbc 53d6 d83b
00000220: b3cb 80bc 3ed0 86bc 7302 5dbc a469 ab3a
00000230: 5b6f 8c3d a587 1c3c 8219 f7bc 9366 a53b
00000240: 4e2f 0b3a 33a1 90bc a7f5 a1bd 2002 4dbc
00000250: 3737 0b3d 4250 a4bb 2511 b8bc c790 db3b
00000260: 99a2 1c3b b002 633c 9f3c ebbb e7df 81bb
00000270: cbac 2a3e 605a 07bb fd8e 87bb 16e4 03bc
00000280: 1deb 97bd bd49 bb3a bc98 40bb cfd4 0bbc
00000290: a731 c2bb ecdc 98bb 19c7 173c 6f80 bf3c
000002a0: 8ab8 13bc 1355 8b3a ae6b 04bd ac6e 9cbb
000002b0: a6f3 58bc 6104 a53c 0a98 b5bb d089 a6bc
000002c0: cac5 91bc 14f1 9bbc aac3 c5bc 3fdd 4d3d
000002d0: 0818 d73a 38f9 31bb aac4 14bc 2076 5dbc
000002e0: 3daa b7bc abd3 f93c 80b9 8f3a c152 63ba
000002f0: b592 6fbc 2397 9bbb ec3e 603b 975b d1bb
00000300: e285 38bf cb58 94bc 3eea 113f 3ef7 e4be
00000310: d2b0 36bb ecc4 40be 51d8 f03d eea3 b6be
00000320: 8aa7 96be 7666 48be 2555 4abe 6d04 8e3d
00000330: d4bd febc 0760 21bf 2d8a 923d da1f 2a3e
00000340: ea1a 933e abb2 f73e a05f 373f d501 763e
00000350: 05ec debe 9805 2c3e fd47 edbd 9ce0 3abf
00000360: 14f0 3cbf 9e70 b23e a68b 99be e776 643e
00000370: d855 273f 7b1d ccbe a774 bd3e d2a0 74bd
00000380: 8fe2 63bd e401 86be f569 bc3e 68e0 d5bd
00000390: 8269 a9be a1f3 98ba fa96 c7be c1d2 9f3e
000003a0: 372c 23bf 2611 153e f8e0 3ebe 36ef 8f3e
000003b0: db1a 283f 762e 313f 8bda a9be 1e82 7f3e
000003c0: 2f7e 4b3c d638 f7bd fe20 93be 404d 28be
000003d0: ed4e a53d ba47 263e d738 28bf 8cd7 113f
000003e0: e220 6ebe 47c6 d13d 06c5 0d3e 2ee7 43be
000003f0: 4e65 f83c e745 dcbd 3def c7bd bff2 aabe

architecture.4.bias f4 [9]
-0.06280398 -0.010453713 -0.06547367 0.9393566 0.10901617 -0.098225616 -0.04223267 0.69523114
-0.18041886
00000000: 609f 80bd 0d46 2bbc 0f17 86bd ad79 703f
00000010: df43 df3d 832a c9bd 2afc 2cbd abfa 313f
00000020: b9bf 38be

std f4 [9]
0.2 0.2 0.2 0.38151103 0.2 0.2 0.37773168 0.3927175
0.2
00000000: cdcc 4c3e cdcc 4c3e cdcc 4c3e 6a55 c33e
00000010: cdcc 4c3e cdcc 4c3e 0c66 c13e 4512 c93e
00000020: cdcc 4c3e

architecture.0.weight f4 [64, 27]
0.03624552 -0.04278262 -0.06562856 0.25292504 1.3957536 -0.24843206 -1.0282117 -0.6413153
-0.9492191 -0.13162874 0.0872106 0.065776356 -0.024498558 0.118439235 -0.15602934 0.0032873554
-0.19310354 -3.3689785 -0.14155935 -1.3387674 0.30190608 1.1563163 0.44533414 0.9812698
0.12510706 -0.17518635 -0.23235494 0.040039822 -0.0064826836 -0.033097893 -0.07045209 -0.18198952
0.4304048 -0.21334293 -0.59953964 0.15453935 0.041120134 -0.14830454 -0.38968733 0.062782206
0.12872127 -0.2685475 0.12841853 0.07666914 0.00568058 -0.07900474 0.16257705 -0.2451987
0.24243861 0.58220184 0.1605747 0.20846675 -0.11313151 -0.22439 -0.10497202 0.023611672
0.09659794 0.32705355 -0.6054085 0.84706867 0.85437137 0.8015967 -0.72006387 0.1429386
-0.040118326 0.133882 -0.034982804 -0.072248265 0.027720049 0.032682724 -0.3475847 -0.3718511
-0.295455 0.62724024 -0.7557369 -0.90761375 -0.8733716 0.70537233 -0.099549994 0.027726153
-0.1741607 -0.074110076 -0.024769353 0.40153345 -0.41625458 0.10556117 0.059572317 0.21159278
-0.34645855 0.17667226 -0.18970254 0.20172572 0.15146832 -0.023216361 0.0014917919 -0.025667913
-0.0066501563 -0.025568184 0.040677182 0.4330826 -0.085146315 -0.07784409 -0.2026721 0.21220069
-0.15475373 0.13183585 -0.23929472 -0.16272628 0.020555517 0.015155656 0.024435867 0.1468795
-0.12855607 -0.28228953 0.02435118 0.04376803 -0.14736374 0.10318569 -0.08250691 -0.13555832
-0.29109028 0.027116679 -0.3674104 0.031120623 0.02843932 -0.025615664 0.059175555 -0.016512824
-0.08286406 -0.011130123 -0.026802659 0.2088941 0.120581605 -0.024598759 -0.1743487 -0.03480372
-0.014445658 -0.023786865 0.0023352446 0.023557147 0.03515982 -0.032668553 -0.0050850427 0.02852126
0.024591306 -0.006399943 0.16659126 0.67768747 0.18741864 1.8424268 -0.010172741 0.053116463
-0.18226267 0.045651164 -0.03739279 -0.007765737 0.08019252 0.019763857 -0.018978681 -0.007281944
-0.034181386 0.019955933 0.0074626207 0.006963857 0.031329792 -0.04747075 0.21266674 -0.022072706
-0.057109706 0.061734293 0.04699983 0.091989934 -0.14329016 0.01199044 -0.056008838 -0.04736852
0.05984179 -0.03629384 0.0063294014 0.08424967 0.036829147 0.10338599 0.18766896 0.12893529
0.29663217 -0.018345542 0.078270614 -0.065111436 0.18262626 -0.014562395 0.014988018 0.015649026
0.039828103 0.03184953 0.053230062 -0.03131479 -0.045002878 -0.082712404 0.026809564 0.031347185
-0.02374701 1.1315371 -1.1912878 0.13473366 0.0035218815 -0.019010693 -0.22372867 -0.04044249
-0.08205964 0.082678646 0.0147445975 0.006681025 -0.012478419 0.009349189 -0.030470774 0.034622006
-0.041057054 0.033681776 -0.027608175 -0.21843022 0.2057209 -0.29289684 0.18754375 -0.055556078
0.2507891 -0.37727022 0.20560814 -0.50514513 -0.202241 0.1051655 -0.30961898 -0.09357888
-0.049738485 -0.0038708015 -0.12206186 0.024893323 0.00870305 0.031879272 -0.11350893 0.0022443736
-0.0785526 0.003374632 -0.2119902 0.37153175 -0.060308736 -0.12680669 -0.003828814 0.38204286
-0.076405935 0.17235655 -0.19376968 0.31269515 0.28253117 -0.17546138 0.45677373 0.007696797
00000000: 2f76 143d d43c 2fbd 4468 86bd 647f 813e
00000010: 0ea8 b23f f964 7ebe 719c 83bf 3d2d 24bf
00000020: 0600 73bf afc9 06be 799b b23d c1b5 863d
00000030: 33b1 c8bc 4590 f23d 28c6 1fbe ac70 573b
00000040: efbc 45be 589d 57c0 eff4 10be bb5c abbf
00000050: 6f93 9a3e 2c02 943f d602 e43e 7f34 7b3f
00000060: 111c 003e 0d64 33be 74ee 6dbe cc00 243d
00000070: b16c d4bb a891 07bd 2f49 90bd 765b 3abe
00000080: 055e dc3e 9276 5abe 6e7b 19bf 903f 1e3e
00000090: 966d 283d 25dd 17be 1985 c7be f593 803d
000000a0: 82cf 033e 0f7f 89be 2680 033e b604 9d3d
000000b0: 2924 ba3b 3dcd a1bd 997a 263e 5e15 7bbe
000000c0: d441 783e 2e0b 153f b26d 243e 4f78 553e
000000d0: 7eb1 e7bd 7ec6 65be 92fb d6bd 446d c13c
000000e0: 24d5 c53d 9073 a73e 0dfc 1abf 7ed9 583f
000000f0: 15b8 5a3f 7135 4d3f 1b56 38bf 7f5e 123e
00000100: 1d53 24bd 5d18 093e 214a 0fbd e6f6 93bd
00000110: 2815 e33c 52de 053d 9ff6 b1be 4463 bebe
00000120: e145 97be d192 203f f977 41bf 6059 68bf
00000130: 4895 5fbf 4893 343f dee0 cbbd f521 e33c
00000140: 2f57 32be 06c7 97bd 19e9 cabc cb95 cd3e
00000150: 521f d5be 7430 d83d 1a02 743d c7ab 583e
00000160: 0463 b1be 93e9 343e 6241 42be 3091 4e3e
00000170: 831a 1b3e 3d30 bebc 3b88 c33a 8445 d2bc
00000180: 8ee9 d9bb 5e74 d1bc 1e9d 263d 01bd dd3e
00000190: 3161 aebd b96c 9fbd 4689 4fbe 234b 593e
000001a0: c377 1ebe faff 063e ad09 75be b8a1 26be
000001b0: 0b64 a83c 6e4f 783c ba2d c83c 9467 163e
000001c0: 34a4 03be 4188 90be 207c c73c 1b46 333d
000001d0: 85e6 16be 0553 d33d 62f9 a8bd cdcf 0abe
000001e0: c909 95be cc23 de3c 371d bcbe adf0 fe3c
000001f0: 94f9 e83c f1d7 d1bc 1162 723d e745 87bc
00000200: a2b4 a9bd 1f5b 36bc 4091 dbbc 56e8 553e
00000210: 7df3 f63d 5683 c9bc 7788 32be 588e 0ebd
00000220: 7bad 6cbc acdc c2bc e70a 193b ebfa c03c
00000230: be03 103d 76cf 05bd 6ea0 a6bb 6ba5 e93c
00000240: b573 c93c 9db6 d1bb e696 2a3e ed7c 2d3f
00000250: acea 3f3e a4d4 eb3f 91ab 26bc a690 593d
00000260: 11a3 3abe b7fc 3a3d 2f29 19bd b977 febb
00000270: fa3b a43d d0e7 a13c 2e79 9bbc 609d eebb
00000280: c801 0cbd a07a a33c 0089 f43b 1131 e43b
00000290: ab53 003d b070 42bd 4fc5 593e d2d1 b4bc
000002a0: deeb 69bd 19dd 7c3d e582 403d 3865 bc3d
000002b0: a8ba 12be 8d73 443c 8669 65bd 7e05 42bd
000002c0: aa1c 753d d9a8 14bd de66 cf3b 178b ac3d
000002d0: 29da 163d 09bc d33d 4b2c 403e 9d07 043e
000002e0: 2ce0 973e 6449 96bc 584c a03d 2559 85bd
000002f0: 6102 3b3e 1d97 6ebc 4e90 753c 6332 803c
00000300: cb22 233d a774 023d c407 5a3d f043 00bd
00000310: f054 38bd 1f65 a9bd bb9f db3c e865 003d
00000320: 1789 c2bc 35d6 903f 1e7c 98bf 9ff7 093e
00000330: 5ecf 663b 50bc 9bbc 2119 65be 06a7 25bd
00000340: e20e a8bd 6c53 a93d 5393 713c 80ec da3b
00000350: 4872 4cbc 572d 193c d89d f9bc cecf 0d3d
00000360: 712b 28bd e7f5 093d 8a2a e2bc 2cac 5fbe
00000370: 80a8 523e 93f6 95be 780b 403e c58e 63bd
00000380: 6e67 803e 9029 c1be f18a 523e 3151 01bf
00000390: 4418 4fbe 0261 d73d 6186 9ebe 49a6 bfbd
000003a0: 95ba 4bbd 46ad 7dbb 92fb f9bd 15ed cb3c
000003b0: 3d97 0e3c d793 023d 5f77 e8bd 5716 133b
000003c0: 30e0 a0bd ee28 5d3b f613 59be 6939 be3e
000003d0: 4b06 77bd 9dd9 01be d7ec 7abb 1f9b c33e
000003e0: b77a 9cbd 3c7e 303e 8f6b 46be 9419 a03e
000003f0: eda7 903e 26ac 33be 3fde e93e 6a35 fc3b

architecture.0.bias f4 [64]
0.17531888 -1.4330912 0.036210258 1.4385339 1.2593211 -0.8674931 -1.96903 0.86031127
0.5362739 1.3943325 -0.56689864 0.9334987 1.1384 0.3910404 -1.4128528 1.2507848
0.024140615 0.23204957 -1.1433655 -1.5995036 -1.7761716 -1.6343292 -1.400496 -0.025310704
-1.1690552 0.7254113 -1.2395 -0.81059784 -0.9026628 -1.2735264 -1.5966645 -1.2112062
-1.3633686 -0.07461211 -0.7558816 1.3619065 0.8824194 -0.5706088 -1.2117018 0.05953353
0.5457414 1.457183 -0.763234 0.13007368 0.098478295 -1.2615279 0.73007274 0.96722656
-0.08035913 0.71222687 -1.2510271 1.3842762 -1.4268214 1.7778159 0.01016418 -1.4634974
-1.4463943 1.4666847 0.019860556 -1.1573497 0.08964213 -0.031967834 -0.3524662 -0.04707324
00000000: cb86 333e 886f b7bf 3551 143d e121 b83f
00000010: 6f31 a13f 0714 5ebf 2d09 fcbf 5c3d 5c3f
00000020: 3f49 093f 7d79 b23f 4520 11bf c5f9 6e3f
00000030: 17b7 913f 7336 c83e 5cd8 b4bf b719 a03f
00000040: 8ac2 c53c 679e 6d3e cd59 92bf 89bc ccbf
00000050: 9759 e3bf b331 d1bf 7443 b3bf 6558 cfbc
00000060: 9aa3 95bf 8eb4 393f f0a7 9ebf 5783 4fbf
00000070: e914 67bf ea02 a3bf 815f ccbf ce08 9bbf
00000080: dd82 aebf 3cce 98bd 7581 41bf f452 ae3f
00000090: 3de6 613f 6b13 12bf 0b19 9bbf 6ed9 733d
000000a0: b5b5 0b3f f984 ba3f 4e63 43bf 0932 053e
000000b0: fdae c93d bf79 a1bf 0ce6 3a3f 299c 773f
000000c0: 5493 a4bd 8054 363f a821 a0bf f62f b13f
000000d0: 15a2 b6bf 798f e33f a987 263c e253 bbbf
000000e0: 7323 b9bf 53bc bb3f 9bb2 a23c 0924 94bf
000000f0: 4b96 b73d b4f0 02bd 7376 b4be dfcf 40bd

architecture.2.weight f4 [64, 64]
-0.17949356 -0.46866405 -0.18544255 -0.6524107 0.41786912 -0.17128311 0.351767 0.13546772
0.096949115 -0.66361576 -0.2482151 0.09855338 -0.08705461 0.2708161 0.6108945 0.14564739
0.22716089 -0.39264047 0.42713687 -0.008488729 0.22598642 -0.4146268 0.6163896 0.05510138
0.06297085 -0.26375654 0.643252 -0.19475947 -0.30162367 0.2470545 -0.022729509 0.08915393
0.9680301 0.43373957 0.038585484 0.111775614 0.23351704 -0.2927617 0.0921587 0.3357605
-0.1439404 0.3269534 0.032769684 1.4283715 -0.049007084 0.63630015 0.74692047 0.14063694
-0.01691688 -0.060952336 0.1995093 0.023030877 -0.07722851 0.1551631 -0.06879176 0.47289208
-0.028693443 -0.2212809 -0.5238311 0.29131395 -0.21140936 0.29278192 0.06938576 -0.16193956
-0.3764798 -0.7105505 0.37231773 0.68235505 0.53072685 -0.53352153 -0.92162895 0.39495832
0.40579948 0.41077924 -0.5766413 0.40893757 0.19285311 0.19597593 -0.48927507 0.24451372
0.02620066 0.34260878 -0.50425416 -1.0029538 -0.5374041 -1.0530307 -0.54788774 -0.05078191
-0.28247702 -0.10176845 -0.4175871 0.30565187 -0.3000775 -0.66732657 -0.4853942 -0.5539388
-0.6886979 0.25504705 -0.5531308 0.5023128 0.25836414 -0.41936833 -0.19420247 -0.10779223
0.1769477 0.49309275 -0.35023582 -0.0020977035 -0.20883775 0.03903049 -0.1498882 0.3100661
-0.21624461 0.15577689 -0.47473744 -0.017611576 -0.5909996 0.7383761 0.006463959 -0.65096
-0.33908382 0.8275469 -0.29904518 -0.49941373 -0.15340863 -0.2783425 0.09266753 -0.026021382
0.5318689 0.665827 -0.4529521 -0.9752045 -0.33058792 0.61473686 0.6377522 -0.60787946
-0.43269888 -0.66475827 0.3650993 -0.32057595 -0.18698712 -0.3896421 0.503724 -0.54792005
-0.20705514 -0.23019981 0.8146592 0.7450682 0.21539728 0.89613664 0.24198127 -0.11565377
0.30669835 -0.045305505 0.39500844 -0.1467721 0.11331589 0.5624349 0.7314718 0.5586875
0.8348132 -0.023093991 0.5428761 -0.3586214 -0.30029744 0.64336693 -0.11522066 0.303172
0.09736721 -0.84439343 0.4383786 -0.033755466 -0.15572037 -0.11568178 -0.032646842 -0.5061837
0.027248556 -0.1274501 0.012677421 -0.3739663 0.5806765 -0.70641214 -0.12962279 0.111410536
0.66022515 -1.4257519 0.43649536 0.7862305 0.25431392 0.44872704 -0.10521494 0.010412498
-0.040396392 -0.33804303 -0.09034014 0.9145808 -0.007766274 0.042493116 0.39563954 -0.02562293
0.37963375 0.6065049 -0.10506884 0.41487256 0.19420336 -0.3925588 -0.44463444 0.048744682
0.31512797 -1.0019515 -0.36398858 0.91184413 0.5443488 0.31472206 -0.40196717 0.2235342
0.5322686 -0.20675594 -0.7696038 -0.018896427 0.2978364 0.6587501 -0.2672557 0.2720547
-0.7599854 -0.32136902 0.24723831 0.34109285 0.112708874 0.09308671 0.14204694 0.39225662
0.15165618 0.9448878 0.00468278 0.23331936 0.8604409 -0.59298 0.118142806 0.044915598
-0.07148921 -0.28388754 -0.08616423 0.05956528 0.41575944 -0.6884709 0.03312741 -0.09967739
0.27413952 0.41046548 -0.635622 -0.042302504 0.33243665 0.04131514 -0.3222622 -0.011741738
00000000: 29cd 37be bcf4 efbe a7e4 3dbe 6304 27bf
00000010: f1f2 d53e d764 2fbe ce1a b43e 0db8 0a3e
00000020: 428d c63d b9e2 29bf 192c 7ebe 5bd6 c93d
00000030: b049 b2bd 68a8 8a3e 9563 1c3f 9724 153e
00000040: dd9c 683e 2c08 c9be afb1 da3e 4f14 0bbc
00000050: fc68 673e f749 d4be b5cb 1d3f fcb1 613d
00000060: dcf6 803d 190b 87be 2aac 243f 076f 47be
00000070: 6b6e 9abe dbfb 7c3e 3c33 babc 5696 b63d
00000080: d2d0 773f 1d13 de3e d00b 1e3d 9dea e43d
00000090: 171f 6f3e dde4 95be b3bd bc3d cde8 ab3e
000000a0: 1d65 13be 7066 a73e 8139 063d e1d4 b63f
000000b0: a7bb 48bd 91e4 223f 2e36 3f3f 2103 103e
000000c0: 4595 8abc 28a9 79bd 2a4c 4c3e 40ab bc3c
000000d0: fb29 9ebd 13e3 1e3e b2e2 8cbd e91e f23e
000000e0: 830e ebbc 7697 62be cc19 06bf 1a27 953e
000000f0: b27b 58be 83e7 953e 1f1a 8e3d 7cd3 25be
00000100: f6c1 c0be a3e6 35bf 6ea0 be3e d2ae 2e3f
00000110: b7dd 073f de94 08bf e0ef 6bbf fa37 ca3e
00000120: f3c4 cf3e a851 d23e c49e 13bf 4460 d13e
00000130: 497b 453e eaad 483e 4382 fabe ce61 7a3e
00000140: c4a2 d63c 6b6a af3e cd16 01bf ca60 80bf
00000150: 5193 09bf b6c9 86bf 5f42 0cbf b100 50bd
00000160: d4a0 90be fa6b d0bd facd d5be 677e 9c3e
00000170: c2a3 99be ead5 2abf 9785 f8be efce 0dbf
00000180: 814e 30bf 8795 823e fb99 0dbf 9297 003f
00000190: 4e48 843e 72b7 d6be 03dd 46be 2cc2 dcbd
000001a0: c731 353e a776 fc3e 1c52 b3be a079 09bb
000001b0: 90d9 55be 6fde 1f3d 4b7c 19be fcc0 9e3e
000001c0: 3a6f 5dbe fa83 1f3e c910 f3be 2746 90bc
000001d0: c04b 17bf 3706 3d3f 9ecf d33b 51a5 26bf
000001e0: 659c adbe 1dda 533f 731c 99be 28b3 ffbe
000001f0: 2717 1dbe e882 8ebe 79c8 bd3d cb2a d5bc
00000200: 8f28 083f a373 2a3f 56e9 e7be 01a7 79bf
00000210: d242 a9be 655f 1d3f ba43 233f fd9d 1bbf
00000220: b58a ddbe 992d 2abf 4cee ba3e 8822 a4be
00000230: 8d79 3fbe 2b7f c7be 0ef4 003f 7d44 0cbf
00000240: 4306 54be 80b9 6bbe 818d 503f cabc 3e3f
00000250: 1b91 5c3e 3669 653f f0c9 773e e2db ecbd
00000260: 9107 9d3e 4492 39bd 8c3e ca3e 6d4b 16be
00000270: 2912 e83d bcfb 0f3f bc41 3b3f 2506 0f3f
00000280: 51b6 553f 9c2f bdbc eef9 0a3f 399d b7be
00000290: 96c0 99be b2b3 243f cff8 ebbd 5c39 9b3e
000002a0: 7668 c73d 2b2a 58bf 2973 e03e 2c43 0abd
000002b0: 2975 1fbe 92ea ecbd b2b8 05bd 4195 01bf
000002c0: 5d38 df3c 4782 02be f5b4 4f3c 8378 bfbe
000002d0: 37a7 143f 6dd7 34bf d6bb 04be 352b e43d
000002e0: 8404 293f 0a7f b6bf 527c df3e 6746 493f
000002f0: 6f35 823e 8dbf e53e ee7a d7bd 2f99 2a3c
00000300: b076 25bd fa13 adbe 4004 b9bd f821 6a3f
00000310: 3a7c febb 430d 2e3d 4491 ca3e 2ee7 d1bc
00000320: 5b5f c23e e843 1b3f 552e d7bd 2d6a d43e
00000330: 3fdd 463e 78fd c8be 20a7 e3be 81a8 473d
00000340: 7458 a13e f23f 80bf b65c babe 9e6e 693f
00000350: 715a 0b3f 4023 a13e a4ce cdbe 26e6 643e
00000360: c142 083f d4b7 53be c104 45bf aecc 9abc
00000370: 037e 983e d9a3 283f bdd5 88be c14a 8b3e
00000380: 678e 42bf 7b8a a4be 0a2c 7d3e b9a3 ae3e
00000390: e9d3 e63d 3fa4 be3d c174 113e dcd5 c83e
000003a0: c24b 1b3e 2be4 713f 0172 993b 45eb 6e3e
000003b0: db45 5c3f 8acd 17bf dbf4 f13d 6bf9 373d
000003c0: ef68 92bd b559 91be df76 b0bd b9fa 733d
000003d0: 6cde d43e a13f 30bf 9bb0 073d a923 ccbd
000003e0: 045c 8c3e 8828 d23e 20b8 22bf 6445 2dbd
000003f0: 2335 aa3e 103a 293d 8dff a4be 6b60 40bc

architecture.2.bias f4 [64]
0.34692585 1.0511358 -1.2656398 -0.4974144 0.28402784 -1.1695725 0.9392875 -0.7009724
-1.2985866 0.73448473 0.8334724 -1.2824199 -1.0455729 0.5390686 -0.021326393 0.78934777
1.2499402 0.52189624 -0.6200713 1.2211741 0.36717656 -0.87488556 0.50286555 1.2863555
-0.6436818 0.752775 1.3534651 -0.3739973 -1.0371217 -0.37440473 -1.2414316 0.37062144
-0.8329918 0.41485485 0.716156 -1.225061 -1.2640721 1.4493921 -0.68342364 -0.6542281
-0.5893566 -1.2728429 -0.75147647 0.69795275 -1.2179954 0.6510357 -0.5496947 0.9999327
-0.66336757 1.1900109 1.4354833 -0.5036414 -1.2611438 -1.0978171 -0.84293103 0.1412597
0.5403111 0.44463056 -0.4544959 0.9153686 -1.0228579 0.78609544 -1.1715317 1.2371387
00000000: 44a0 b13e 9e8b 863f 7c00 a2bf 1aad febe
00000010: 196c 913e 8db4 95bf 2575 703f ed72 33bf
00000020: 1638 a6bf 3107 3c3f 725e 553f 5626 a4bf
00000030: 55d5 85bf 6600 0a3f b0b4 aebc b212 4a3f
00000040: 0afe 9f3f fe9a 053f febc 1ebf 6f4f 9c3f
00000050: 91fe bb3e 80f8 5fbf ccbb 003f 4ca7 a43f
00000060: 55c8 24bf ddb5 403f 583e ad3f 937c bfbe
00000070: 67c0 84bf fab1 bfbe 3be7 9ebf 18c2 bd3e
00000080: f33e 55bf db67 d43e 0056 373f cdce 9cbf
00000090: 1dcd a1bf ae85 b93f daf4 2ebf 7e7b 27bf
000000a0: 13e0 16bf 84ec a2bf c360 40bf 08ad 323f
000000b0: 46e7 9bbf 47aa 263f cbb8 0cbf 97fb 7f3f
000000c0: 75d2 29bf 4752 983f ebbd b73f a5ee 00bf
000000d0: 296d a1bf 4585 8cbf 54ca 57bf 62a6 103e
000000e0: d451 0a3f 9ea6 e33e b0b3 e8be 9955 6a3f
000000f0: 02ed 82bf 8d3d 493f c0f4 95bf 905a 9e3f

architecture.4.weight f4 [1, 64]
-8.116057 -5.181536 5.1539006 8.111658 -7.2704206 5.1306148 -5.097452 5.1847863
5.1999545 -5.331322 -5.0621147 5.234918 5.225053 -7.672387 -6.849328 -6.597724
-5.3407493 -7.6964245 6.6502643 -5.322764 -7.048713 6.347144 -6.7216487 -5.186236
6.8020773 -8.50578 -5.098146 7.521743 5.3467956 6.472179 5.1567826 8.150826
5.101167 -7.2158265 -7.661711 5.0822396 5.131431 -5.1149087 4.1405544 5.2016006
6.8341026 5.0619445 4.6684475 -5.366606 5.219998 -7.9037094 6.276294 -5.410401
6.718599 -5.154573 -5.0816054 7.6067295 5.074678 4.0733056 5.165415 -8.339961
-8.033916 -5.4179025 7.6776285 -5.4841394 5.4810576 -5.250212 5.0295434 -5.251141
00000000: 5fdb 01c1 25cf a5c0 c1ec a440 5ac9 0141
00000010: 49a7 e8c0 ff2d a440 541e a3c0 c5e9 a540
00000020: 0766 a640 319a aac0 d8fc a1c0 7384 a740
00000030: a233 a740 3284 f5c0 b22d dbc0 8e20 d3c0
00000040: 6be7 aac0 1c49 f6c0 f7ce d440 1554 aac0
00000050: 0f8f e1c0 ce1b cb40 bf17 d7c0 a5f5 a5c0
00000060: 9eaa d940 ad17 08c1 0324 a3c0 1eb2 f040
00000070: f318 ab40 171c cf40 5d04 a540 c969 0241
00000080: c33c a340 0de8 e6c0 bd2c f5c0 b5a1 a240
00000090: af34 a440 55ad a3c0 6c7f 8440 8373 a640
000000a0: f8b0 da40 73fb a140 ec63 9540 3dbb abc0
000000b0: 390a a740 30eb fcc0 67d7 c840 0122 adc0
000000c0: c3fe d640 43f2 a4c0 839c a2c0 546a f340
000000d0: c363 a240 8558 8240 144b a540 7b70 05c1
000000e0: ec8a 00c1 755f adc0 22af f540 127e afc0
000000f0: d364 af40 bd01 a8c0 05f2 a040 5909 a8c0

exp_avg f4 [64, 27]
-4.1033603e-05 -5.576598e-06 -1.4180983e-05 -4.3879845e-06 0.00014898843 8.4847714e-05 -1.6296883e-05 2.9712464e-05
0.00012326542 9.6130934e-05 -2.1359145e-05 -5.117164e-05 -4.5463596e-05 0.00011203516 -5.849986e-05 -8.426104e-06
-6.691527e-06 3.8741724e-05 -8.21385e-06 0.0001617049 7.941623e-05 -2.2462178e-05 1.6269285e-05 0.00011744815
9.507403e-05 -1.981066e-05 -4.9160273e-05 -1.7095932e-05 -1.6788306e-05 -7.233783e-05 -6.3430256e-05 9.185654e-05
-6.6589244e-05 3.6593898e-05 -8.794564e-05 4.3736654e-05 0.00010885652 -2.0460515e-05 -8.128793e-05 -6.487979e-05
1.7659415e-05 1.8619348e-05 2.2556034e-05 1.2185364e-05 -6.067585e-05 -7.9920894e-05 9.559693e-05 -6.279135e-05
3.2126594e-05 -7.507343e-05 3.0320012e-05 0.000104278115 -6.9850807e-06 -8.336734e-05 6.476931e-05 -0.000114325136
5.1972682e-05 9.012004e-05 -3.7499784e-05 1.7302058e-05 -0.00011315831 0.0001716001 -2.0193868e-06 9.515439e-05
3.3208624e-05 0.000100779595 -8.97233e-05 5.4866305e-05 -3.204002e-05 -0.00016076831 3.6978498e-05 8.789016e-05
0.00011532582 -2.5624639e-05 2.9200397e-05 -0.00011970986 0.00017564007 2.9675773e-05 0.000105472354 2.5067911e-05
7.620352e-05 -0.00013086217 -0.00019971661 -1.8595787e-05 -9.97359e-05 6.8334804e-05 -2.16491e-05 8.2961764e-05
-6.196667e-05 0.00018213548 4.8260692e-05 1.3831455e-05 -5.2056675e-05 5.3358846e-05 -6.402845e-05 -0.00010896612
5.6656e-05 4.6862195e-05 -3.8575978e-05 -0.00010964659 6.2788415e-05 -1.6092186e-05 9.173812e-05 -4.232761e-05
0.000160265 4.7386657e-05 3.805702e-05 -5.5172284e-05 9.6185206e-05 0.00013472636 3.5186826e-05 0.00014669818
-4.5815563e-05 8.909175e-05 -8.418934e-05 0.00015643192 -5.955422e-05 5.5731864e-05 -9.810518e-06 5.0553746e-05
4.2823936e-05 -4.4761096e-06 -3.677664e-05 2.6196118e-05 2.8200346e-05 -1.8532082e-05 0.00014195396 -4.795416e-05
7.389189e-05 -8.202406e-05 0.00013739821 -5.4464897e-05 7.854782e-05 -2.6047188e-05 4.8823826e-05 1.87517e-05
4.2456955e-05 2.9479726e-05 1.0148845e-05 -0.00012804827 -1.8986666e-05 -4.468515e-05 1.7595528e-05 -0.000100256686
-2.7344491e-05 9.1433385e-06 9.514047e-05 1.3701224e-05 -5.598136e-05 -9.461806e-05 1.6797923e-05 6.962326e-06
-2.9620298e-05 1.1534673e-05 -0.00013618427 -2.1521852e-05 -3.8368988e-05 2.2882621e-05 -9.845654e-05 -2.2458047e-05
1.6774644e-06 8.338166e-05 0.00013932462 1.7742594e-05 4.583395e-05 -0.00015086133 -0.00010882833 -0.00016552203
0.00024047168 -0.00018515045 -4.6884717e-05 -2.3797335e-05 -6.8103574e-05 -6.946715e-05 -4.1232855e-05 -4.2163014e-05
-9.621062e-05 -7.239829e-05 3.8065e-05 -3.8689937e-05 -0.00018625795 -0.00010277501 -0.00018620331 0.00023361767
-0.00020477881 -8.901197e-05 -8.905607e-06 -6.311722e-05 -6.12729e-05 5.2329466e-05 0.00016354643 -3.6159254e-05
5.97183e-06 4.4020442e-05 5.7153247e-05 -2.3910876e-05 -1.0845554e-05 7.56673e-06 -7.286832e-05 1.3127552e-05
-1.0547848e-05 2.5872245e-05 -1.2477863e-05 -1.6288508e-05 -1.7454808e-05 5.8485122e-05 -3.5552617e-05 -1.3019522e-05
4.7948208e-05 4.3157263e-05 -2.4910312e-05 -2.0627376e-05 -2.3844082e-06 -5.0777697e-05 1.51430895e-05 -9.1856955e-06
0.00022783504 -6.154081e-05 5.2456067e-05 0.00013118643 3.8190825e-05 0.00011820616 -0.00011637876 0.00018374535
-3.6147274e-05 8.54739e-05 0.00016378335 1.5275744e-05 -1.5076811e-05 4.509244e-05 0.00013640017 3.2162472e-05
1.1796035e-05 -0.0001089219 0.0001340732 2.9541618e-05 0.00012283583 -0.00011508112 0.0001900047 -2.1257938e-05
9.616214e-05 0.00015629534 1.6002572e-05 -4.008027e-05 -1.407373e-05 3.6523033e-05 -2.356345e-05 2.8435505e-05
-8.932638e-06 -6.0509432e-05 2.5072162e-05 -2.5585814e-05 2.581137e-05 1.2649494e-05 1.8268685e-05 -5.471965e-06
00000000: 7f1b 2cb8 9d1e bbb6 dcea 6db7 803c 93b6
00000010: c739 1c39 45f0 b138 4ab5 88b7 083f f937
00000020: cf40 0139 e799 c938 6a2c b3b7 21a1 56b8
00000030: 2ab0 3eb8 6bf4 ea38 bf5d 75b8 d75d 0db7
00000040: c787 e0b6 9c7e 2238 38ce 09b7 548f 2939
00000050: 448c a638 296d bcb7 067a 8837 7f4e f638
00000060: 7b62 c738 122f a6b7 7131 4eb8 3c69 8fb7
00000070: 9dd4 8cb7 14b4 97b8 dc05 85b8 1ba3 c038
00000080: d4a5 8bb8 667c 1938 756f b8b8 e071 3738
00000090: e649 e438 9fa2 abb7 2079 aab8 1210 88b8
000000a0: 4e23 9437 bf30 9c37 b736 bd37 bd6f 4c37
000000b0: 337e 7eb8 349b a7b8 367b c838 d9ae 83b8
000000c0: abbf 0638 be70 9db8 bb57 fe37 e3af da38
000000d0: 6361 eab6 80d5 aeb8 c2d4 8738 d7c1 efb8
000000e0: 3efd 5938 d4fe bc38 1649 1db8 e323 9137
000000f0: 684f edb8 8def 3339 cd84 07b6 a08d c738
00000100: 7d49 0b38 a259 d338 d429 bcb8 3f20 6638
00000110: b662 06b8 ea93 28b9 5c19 1b38 ac51 b838
00000120: 14db f138 7ef4 d6b7 60f3 f437 be0c fbb8
00000130: 062c 3839 3df0 f837 0a31 dd38 ee48 d237
00000140: 74cf 9f38 0c38 09b9 056b 51b9 26fe 9bb7
00000150: 4e29 d1b8 f84e 8f38 179b b5b7 c2fb ad38
00000160: 1af4 81b8 9ffb 3e39 866b 4a38 a60d 6837
00000170: 6e57 5ab8 a0cd 5f38 0347 86b8 bd84 e4b8
00000180: eba1 6d38 e68d 4438 a4cc 21b8 11f2 e5b8
00000190: 46ad 8338 b5fd 86b7 8763 c038 ed88 31b8
000001a0: cf0c 2839 09c1 4638 6a9f 1f38 ca68 67b8
000001b0: 0ab7 c938 5545 0d39 9195 1338 fed2 1939
000001c0: 162a 40b8 c5d6 ba38 cf8e b0b8 e007 2439
000001d0: dbc9 79b8 a2c1 6938 db97 24b7 ac09 5438
000001e0: da9d 3338 7d31 96b6 9e40 1ab8 bcbf db37
000001f0: c88f ec37 5875 9bb7 7ad9 1439 6322 49b8
00000200: 68f6 9a38 5504 acb8 8d12 1039 3d71 64b8
00000210: 0aba a438 e97f dab7 2fc8 4c38 f84c 9d37
00000220: cf13 3238 3b4b f737 f544 2a37 b244 06b9
00000230: 8e45 9fb7 516c 3bb8 1c9a 9337 e640 d2b8
00000240: d961 e5b7 5766 1937 2786 c738 4fde 6537
00000250: 87cd 6ab8 af6d c6b8 44e9 8c37 ed9d e936
00000260: 1b79 f8b7 0b85 4137 b0cc 0eb9 d389 b4b7
00000270: 63ee 20b8 0ef4 bf37 747a ceb8 4a64 bcb7
00000280: 3d25 e135 30dd ae38 ab17 1239 eed5 9437
00000290: d43d 4038 8830 1eb9 c43a e4b8 fb8f 2db9
000002a0: 2027 7c39 f224 42b9 15a6 44b8 63a0 c7b7
000002b0: d4d2 8eb8 e4ae 91b8 71f1 2cb8 31d8 30b8
000002c0: afc4 c9b8 89d4 97b8 fca7 1f38 0147 22b8
000002d0: 3d4e 43b9 ea88 d7b8 923f 43b9 44f7 7439
000002e0: e5b9 56b9 f0ab bab8 4a69 15b7 cd5d 84b8
000002f0: a37f 80b8 567c 5b38 a97d 2b39 b4a9 17b8
00000300: a161 c836 97a2 3838 d5b7 6f38 3794 c8b7
00000310: 4df5 35b7 b7e5 fd36 e2d0 98b8 683e 5c37
00000320: aaf6 30b7 3908 d937 0358 51b7 4ea3 88b7
00000330: ea6b 92b7 ec4d 7538 551e 15b8 6c6e 5ab7
00000340: ff1b 4938 c203 3538 7df6 d0b7 f408 adb7
00000350: d203 20b6 23fa 54b8 130f 7e37 431c 1ab7
00000360: 01e7 6e39 790f 81b8 4604 5c38 178f 0939
00000370: 162f 2038 73e5 f738 5f10 f4b8 c4ab 4039
00000380: d79c 17b8 7340 b338 42bd 2b39 6924 8037
00000390: 69f2 7cb7 a421 3d38 a406 0f39 31e6 0638
000003a0: 96e7 4537 006d e4b8 0096 0c39 24d0 f737
000003b0: 7ecd 0039 b557 f1b8 003c 4739 1353 b2b7
000003c0: a8aa c938 36e3 2339 433d 8637 dd1b 28b8
000003d0: 361e 6cb7 4f30 1938 20aa c5b7 c888 ee37
000003e0: 63dd 15b7 82cb 7db8 0f52 d237 1ea1 d6b7
000003f0: 7f85 d837 2a39 5437 b43f 9937 d29b b7b6
