raisimGymTorch/data/ouzel_only_planning/2022-05-09-12-17-53/full_35000.pt (torch, 162032 bytes, 36 tensors)

architecture.0.weight f4 [64, 27]
0	0x3d17bfaa	0.03704802
1	0xbe3c65aa	-0.18398157
2	0x3e7fb8a0	0.24972773
3	0xbd94fee1	-0.07275177
4	0x3eb8e4f6	0.36112183
5	0xbea0d267	-0.31410524
6	0xbeafcb78	-0.34334922
7	0x3ee873bf	0.45400807
8	0x3dc65898	0.09684867
9	0x3f27423c	0.6533544
10	0xbe8b92ad	-0.27260342
11	0xbe083f6d	-0.13305445
12	0x3e714bff	0.23564146
13	0xbe6ab427	-0.22920285
14	0xbe0dd439	-0.13850488
15	0xbeb4c541	-0.35306743
16	0x3f80129d	1.000568
17	0x3e84fe86	0.25975436
18	0xbe3ab22c	-0.1823203
19	0x3d027876	0.03185316
20	0xbdbe557b	-0.09293648
21	0x3baa575c	0.0051984023
22	0x3d901893	0.07035937
23	0x3d96de84	0.0736666
24	0x3f20f6d1	0.6287661
25	0xbf19691c	-0.5992601
26	0xbcd0ff46	-0.025512349
27	0xbe0d1d82	-0.13780788
28	0xbdaf282f	-0.08552586
29	0xbe963943	-0.29340562
30	0x3e0d28d4	0.13785106
31	0x3ef3cd6d	0.47617665
32	0x3e369903	0.17831807
33	0xbe1362ce	-0.1439316
34	0x3d1ca34c	0.03824167
35	0xbd4c17fd	-0.049827565
36	0xbd2fd4c3	-0.042927515
37	0xbeb3f546	-0.35148066
38	0x3df6d06b	0.12051471
39	0xbe364ed0	-0.17803502
40	0xbc867fa5	-0.016418288
41	0xbe8889c8	-0.2666762
42	0x3ec034b3	0.37540206
43	0x3df78c1c	0.120872706
44	0x3eb845af	0.35990664
45	0x3ea236eb	0.31682524
46	0x3ee3fd81	0.44529346
47	0x3edfed93	0.43735942
48	0xbe0dfd3a	-0.1386613
49	0x3dc9e0f8	0.098573625
50	0xbe02db76	-0.1277903
51	0xbf1d1aef	-0.6136922
52	0xbd8839a9	-0.06651623
53	0xbe4dd6b4	-0.20101434
54	0x3dd7fce1	0.1054628
55	0x3f281dbb	0.65670365
56	0x3ea30380	0.31838608
57	0x3f0aa083	0.5415117
58	0x3e429b3e	0.19004533
59	0x3e06fbe2	0.13182023
60	0xbe51d644	-0.20491892
61	0xbe4fbaf5	-0.20286162
62	0xbeb0b0ed	-0.34509984
63	0xbcfca163	-0.030838674
64	0xbd6f1144	-0.058366075
65	0xbdce5c55	-0.10076205
66	0xbdb3edae	-0.08785568
67	0x3e4eeb9c	0.20207065
68	0xbe761f8e	-0.24035475
69	0x3e1a8a31	0.15091778
70	0xbe700960	-0.23441076
71	0x3ed356d5	0.41277185
72	0xbdb92ce0	-0.09041762
73	0x3e85d5ad	0.26139584
74	0x3eb1ccda	0.34726602
75	0xbd14e1ed	-0.036348272
76	0xbc8efc82	-0.01745439
77	0x3d1018e6	0.035179995
78	0xbe0816ef	-0.13289998
79	0xbe3c027d	-0.18360324
80	0xbe1e3639	-0.15450372
81	0xbe802356	-0.2502696
82	0xbebd3713	-0.3695608
83	0x3dfd7e2f	0.12377583
84	0x3da00bc4	0.07814744
85	0x3d9597e5	0.07304362
86	0x3e9c8fb9	0.30578402
87	0xbe263c1c	-0.16233867
88	0xbe071518	-0.1319164
89	0xbd2f1df3	-0.04275317
90	0x3d8ccc47	0.068749
91	0xbea186fb	-0.31548294
92	0xbcef3773	-0.029201245
93	0xbf929577	-1.1451863
94	0x3eb01cd5	0.34396997
95	0x3e7989e7	0.24369012
96	0x3e0895f8	0.13338459
97	0xbd40c779	-0.047065232
98	0x3dccb7cd	0.09995995
99	0x3db3153e	0.08744286
100	0x3e3b7fb1	0.18310429
101	0xbcbf41de	-0.023346838
102	0xbd582e45	-0.0527785
103	0xbe12cd0a	-0.14336029
104	0x3cac0b01	0.02100134
105	0x3ec418a6	0.38300055
106	0xbc135983	-0.008993509
107	0xbe1a803e	-0.15087983
108	0xbd4ba121	-0.04971421
109	0x3e1a8d13	0.15092878
110	0xbf097a5a	-0.5370232
111	0x3e88d546	0.26725215
112	0x3dde9f61	0.10870243
113	0xbe9ba365	-0.30398098
114	0x3edba69f	0.4290056
115	0x3e1ec166	0.15503463
116	0x3ce22ec2	0.027610186
117	0x3e4ed7de	0.20199534
118	0xbedf3038	-0.43591475
119	0x3c7a5692	0.015279429
120	0x3e991d0e	0.2990498
121	0x3e92fb9f	0.28707597
122	0x3e9fe634	0.3123032
123	0x3c253da3	0.010085496
124	0xbde98e65	-0.11404113
125	0x3ec83054	0.3909937
126	0x3ea34b67	0.31893465
127	0x3ed0c7d0	0.40777445
128	0xbec2a540	-0.380167
129	0x3ebbf137	0.3670747
130	0x3e30d442	0.1726847
131	0x3d6c524b	0.05769567
132	0x3e6f5af4	0.2337454
133	0xbebc92d5	-0.36830774
134	0xbcea7399	-0.028619574
135	0xbed9ecec	-0.4256357
136	0xbe153c3a	-0.14573756
137	0xbeb4a65e	-0.35283178
138	0x3e087fa0	0.13329935
139	0xbdfeb31a	-0.12436505
140	0x3e8d6083	0.27612695
141	0x3e15a724	0.1461454
142	0xbec958e9	-0.39325646
143	0xbe3330e8	-0.17499125
144	0xbe4571cc	-0.19281691
145	0x3e09645f	0.13417195
146	0x3e39c343	0.18140893
147	0x3d1c2837	0.03812429
148	0x3d01636a	0.03158895
149	0x3f140c11	0.5783091
150	0x3e6de1ea	0.2323071
151	0xbe52bcc0	-0.20579815
152	0xbbd55dbd	-0.0065114186
153	0xbccc1606	-0.024912845
154	0xbeb6ab22	-0.3567744
155	0xbe2eb98b	-0.17062967
156	0x3e8d871b	0.2764214
157	0xbf5e2a3e	-0.86783206
158	0xbc86f7a4	-0.016475506
159	0xbe78f330	-0.24311519
160	0x3e738356	0.2378057
161	0xbe0d6e91	-0.13811709
162	0x3ab48abe	0.0013774259
163	0xbf163e6e	-0.5868901
164	0xbea2ea23	-0.31819257
165	0x3eb29136	0.34876412
166	0xbee4d43c	-0.44693172
167	0x3e1dff40	0.15429401
168	0x3e024b3a	0.12724009
169	0xbc1af8fb	-0.009458776
170	0xbed5c30d	-0.41750374
171	0x3e6be507	0.23036586
172	0xbe1970b0	-0.14984393
173	0x3ebd871d	0.37017146
174	0x3e44d4ea	0.19221845
175	0x3dfe6687	0.12421899
176	0x3df4fdf0	0.11962497
177	0x3e3e0ac9	0.18558802
178	0xbe0eb7b2	-0.13937262
179	0xbf0bfb13	-0.54679984
180	0x3e0f3065	0.13983305
181	0xbe6cd211	-0.23127009
182	0x3d445991	0.04793698
183	0x3ea83c6f	0.32858607
184	0x3c9fb758	0.019496605
185	0x3e413b15	0.18870194
186	0xbd4da1d0	-0.050203145
187	0x3d1cbe9f	0.038267728
188	0x3e156603	0.14589696
189	0xbe97267d	-0.29521552
190	0xbe2abf6d	-0.16674586
191	0xbf091359	-0.5354515
192	0x3ea499de	0.3214864
193	0xbd904445	-0.070442714
194	0xbe7619e7	-0.24033318
195	0x3e88c4fe	0.26712793
196	0x3dd544ba	0.10413499
197	0xbe94e0d6	-0.29077786
198	0xbd9a102d	-0.075226165
199	0xbe0e3982	-0.13889125
200	0xbe3972b1	-0.18110158
201	0x3e67422f	0.22583841
202	0x3f46b864	0.7762511
203	0x3c33baab	0.010969798
204	0xbeee691d	-0.4656457
205	0xbe07a7c4	-0.13247591
206	0x3d0e3cae	0.034725837
207	0xbd785c2e	-0.060634784
208	0x3e0931d8	0.1339792
209	0x3dc34c97	0.09536093
210	0xbd25f919	-0.04052076
211	0xbdf84874	-0.12123194
212	0xbebfafe0	-0.3743887
213	0x3cda5c47	0.02665533
214	0xbc5ee864	-0.013605211
215	0x3d82c7c9	0.06385762
216	0xbe9d4135	-0.30713812
217	0xbe12efcb	-0.14349286
218	0xbc900673	-0.0175812
219	0xbec0aa0a	-0.3762973
220	0x3e99cebf	0.30040547
221	0x3e88846a	0.26663524
222	0x3e0de9ee	0.13858768
223	0x3b764a25	0.0037580815
224	0xbdf7781f	-0.12083458
225	0xbe27099a	-0.16312256
226	0xbcf91132	-0.030403707
227	0x3e97a00a	0.29614288
228	0x3e157eff	0.14599226
229	0xbf136ea1	-0.5759068
230	0x3f60eeec	0.87864566
231	0xbe3ff002	-0.187439
232	0x3da1ae94	0.07894626
233	0xbd0f4a8c	-0.034983203
234	0x3eafb036	0.34314126
235	0xbe9c1c6a	-0.30490428
236	0xbde15820	-0.11003137
237	0x3e8df2df	0.27724358
238	0x3e740370	0.23829436
239	0x3d8f6f0d	0.07003603
240	0xbeca191b	-0.3947228
241	0xbe594840	-0.21218967
242	0xbc99cc4c	-0.018774174
243	0x3eabb922	0.33539683
244	0x3e916835	0.28399816
245	0xbd865c80	-0.06560612
246	0xbedcfbf4	-0.43160975
247	0x3e64fd74	0.2236231
248	0xbd8e6494	-0.069527775
249	0x3d99b0aa	0.07504399
250	0xbea6d7d9	-0.32586554
251	0xbea9819a	-0.3310669
252	0xbe8d1689	-0.27556255
253	0xbd0bef4e	-0.034163766
254	0x3c4d4875	0.012529482
255	0xbe93904a	-0.2882102

architecture.0.bias f4 [64]
0	0x3dc7aeb6	0.0975012
1	0xbeb81bb8	-0.35958648
2	0x3f773163	0.96559733
3	0x3e387241	0.18012334
4	0x3e258da2	0.1616731
5	0xbf0bd020	-0.5461445
6	0xbf49f261	-0.78885466
7	0xbf463fd0	-0.7744112
8	0xbf7d60f1	-0.98976046
9	0x3e3e23d9	0.18568362
10	0xbf342c85	-0.7038043
11	0x3eac98aa	0.33710223
12	0x3fa2b5f8	1.2711782
13	0xbf87350c	-1.0563064
14	0x3fa4a7f2	1.2863753
15	0x3f90195e	1.1257741
16	0xbf290e38	-0.6603732
17	0xbec420fc	-0.38306415
18	0xbf718dc8	-0.94356966
19	0x3e9defdb	0.30847058
20	0x3fb7473f	1.4318618
21	0xbf84b128	-1.0366564
22	0x3f5cf7c2	0.8631555
23	0xbf6f98e1	-0.9359265
24	0x3e1bc507	0.15211879
25	0x3eda08ef	0.4258494
26	0x3e2cfa3d	0.16892333
27	0xbf735de9	-0.9506517
28	0xbf28b825	-0.6590598
29	0x3db68228	0.08911544
30	0xbd81a316	-0.06329934
31	0xbf0f1194	-0.558862
32	0xbf74953f	-0.9554023
33	0xbf3f3717	-0.74693435
34	0xbf4e0aa4	-0.80484986
35	0x3e3f727a	0.18696013
36	0x3f8b7e18	1.0897856
37	0xbecffa17	-0.4062049
38	0x3f07e57d	0.53084546
39	0x3a781a36	0.0009464355
40	0xbed1e483	-0.40994653
41	0xbf0d8d7a	-0.55294
42	0x3f841fd7	1.0322217
43	0xbe4b94c3	-0.19880967
44	0xbbec2f34	-0.0072077755
45	0x3f14b286	0.58084905
46	0xbe7b2883	-0.24527173
47	0xbedba22b	-0.42897162
48	0x3e912339	0.28347185
49	0x3f8c5df3	1.0966171
50	0x3f5ceda5	0.86300117
51	0x3f24db4a	0.6439711
52	0x3da32b82	0.07967283
53	0xbf999a56	-1.2000225
54	0xbf10f361	-0.56621367
55	0x3e43d225	0.19123133
56	0xbf44dba0	-0.7689762
57	0xbf9d942c	-1.2310843
58	0x3f88917d	1.06694
59	0x3f957997	1.1677731
60	0x3fa7b590	1.3102283
61	0x3f5b7ceb	0.85737485
62	0xbe42ca19	-0.19022407
63	0x3e5e5daf	0.21715425

architecture.2.weight f4 [64, 64]
0	0xbde307ac	-0.11085448
1	0x3e991e62	0.29905993
2	0xbefa1cd8	-0.4885013
3	0xbdbd4e1e	-0.09243415
4	0xbd6c407d	-0.05767869
5	0x3ec0e300	0.37673187
6	0x3e626757	0.22109734
7	0x3ee0d350	0.4391122
8	0x3f1e1817	0.6175551
9	0xbdefceca	-0.11709364
10	0x3f0d8b0f	0.5529031
11	0xbc568b2c	-0.013094705
12	0xbf04b7d7	-0.5184302
13	0xbda6dd91	-0.08147729
14	0xbe5d213e	-0.21594712
15	0xbefb348f	-0.49063537
16	0xbd178570	-0.03699249
17	0x3e39e553	0.18153886
18	0x3e95f11d	0.29285517
19	0xbdb20368	-0.08692056
20	0xbf4bc277	-0.79593605
21	0x3f198d92	0.59981644
22	0xbeab8766	-0.33501738
23	0x3ea393a1	0.3194857
24	0xbdc352df	-0.09537291
25	0xbdca906e	-0.09890829
26	0x3d61e9b8	0.055154532
27	0x3eee3ff0	0.46533155
28	0x3d219b69	0.03945485
29	0xbdaeed1d	-0.085413195
30	0x3e732563	0.2374473
31	0x3ee292a2	0.44252497
32	0x3e8c2bb3	0.2737709
33	0x3ed6305c	0.4183377
34	0x3e0483b2	0.12940863
35	0x3e3d6c4a	0.1849834
36	0xbeb13fad	-0.34618893
37	0xbdadcbbd	-0.084861256
38	0xbe6457b6	-0.22299084
39	0x3e8c6a64	0.2742492
40	0x3eb82ccd	0.3597168
41	0x3acd41cf	0.0015659871
42	0xbc804f9d	-0.015662963
43	0xbdbadee5	-0.09124545
44	0xbec17eea	-0.3779214
45	0xbd9cc206	-0.076541945
46	0x3c3009ca	0.010744521
47	0xbdaeb14e	-0.08529912
48	0x3dcec613	0.100963734
49	0x3cfa669b	0.030566504
50	0xbe327fb4	-0.17431527
51	0x3e9eaf09	0.30992916
52	0xbe234c5e	-0.159471
53	0x3ea2480c	0.31695592
54	0x3dcdda27	0.10051375
55	0x3df86d55	0.121302284
56	0x3e732bb8	0.23747146
57	0x3debc1b3	0.115115546
58	0xbf3a9324	-0.7288077
59	0xbc85f5aa	-0.016352493
60	0xbe9eaeec	-0.3099283
61	0xbe989bb6	-0.29806298
62	0xbed84fb9	-0.42248324
63	0x3d962ad3	0.07332387
64	0xbb505d95	-0.003179406
65	0xbe42c9bc	-0.19022268
66	0x3c4b19ec	0.012396317
67	0x3c940348	0.01806797
68	0xbd086c51	-0.033306424
69	0xbdfcb94b	-0.12340029
70	0xbc8d1d3d	-0.017225856
71	0xbe43cfe0	-0.19122267
72	0x3f02ac0f	0.5104379
73	0x3ce01b66	0.027356815
74	0xbd9adbc5	-0.07561449
75	0x3d0332e1	0.032030944
76	0xbd32345f	-0.043506976
77	0x3ee072b4	0.43837512
78	0x3ea8ac6c	0.32944047
79	0x3e7e238d	0.24818249
80	0xbde613db	-0.11234256
81	0x3d9b08a3	0.07570007
82	0xbeac17f2	-0.3361202
83	0xbe0c1775	-0.13680823
84	0x3ee0a7d1	0.43878034
85	0xbdf36de6	-0.11886196
86	0x3c842b26	0.016133856
87	0xbe922c9a	-0.28549653
88	0x3d7a6ab5	0.06113692
89	0x3e93bc82	0.28854758
90	0xbe0ccd19	-0.13750114
91	0xbce9dc07	-0.0285473
92	0x3f021592	0.50814164
93	0x3e194949	0.14969362
94	0xbd2191c5	-0.039445657
95	0x3eb8d07e	0.36096567
96	0xbec40d0e	-0.3829121
97	0xbdab8e28	-0.083767235
98	0x3b6b7b98	0.0035931822
99	0x3d2277a6	0.039664887
100	0x3e4e240e	0.20130941
101	0xbe582661	-0.2110839
102	0xbe686f87	-0.22698794
103	0x3d32042b	0.043461006
104	0x3df4def6	0.11956589
105	0xbd5a9ec1	-0.053374056
106	0xbec21c6f	-0.37912318
107	0x3acbcc8e	0.0015548633
108	0x3e6163fe	0.220108
109	0xbe8c162e	-0.27360672
110	0x3df0e38c	0.11762151
111	0xbd17b40a	-0.037036933
112	0xbdeb8616	-0.11500184
113	0xbe4e62d5	-0.20154889
114	0xbd8e73ec	-0.06955704
115	0x3d15b7ca	0.036552228
116	0xbea4be8b	-0.32176623
117	0x3f1b4113	0.6064617
118	0xbd82d017	-0.06387346
119	0x3ba63e1b	0.0050733215
120	0x3e4e424a	0.20142475
121	0x3f0b0510	0.543046
122	0x3b7ab8f8	0.0038257223
123	0x3ea6988c	0.3253826
124	0x3f2f3859	0.68445355
125	0xbe28007a	-0.16406432
126	0x3ecd0a42	0.4004689
127	0xbd4c27e0	-0.049842715
128	0x3ec6f220	0.38856602
129	0xbf27c6d7	-0.6553778
130	0xbdee0805	-0.11622623
131	0xbe471b53	-0.19444017
132	0x3d413fe6	0.04718008
133	0xbcab0bd4	-0.020879664
134	0xbd3eae39	-0.04655287
135	0xbd841f4c	-0.06451282
136	0x3da6f158	0.081515014
137	0xbdea904b	-0.11453303
138	0xbea44a4c	-0.32087934
139	0xbba93847	-0.0051641795
140	0xbd04730e	-0.032336287
141	0xbeaf132b	-0.34194311
142	0xbc446acb	-0.011988352
143	0xbe728c51	-0.23686339
144	0xbe244091	-0.16040255
145	0x3dda87b7	0.10670417
146	0xbe4e345c	-0.20137161
147	0xbe155db7	-0.1458653
148	0x3f4f9b2b	0.8109614
149	0xbf023366	-0.5085968
150	0x3e702b3a	0.2345399
151	0xbea9fff1	-0.3320308
152	0x3efeb7ad	0.49749509
153	0xbc10fa5c	-0.008848753
154	0xbd3bd6e7	-0.045859244
155	0x3ec2ec99	0.38071135
156	0x3dc0c3f4	0.09412375
157	0xbe888b09	-0.26668575
158	0x3d77d647	0.060507085
159	0xbda58233	-0.08081474
160	0xbe8e6e12	-0.27818352
161	0x3e3346da	0.17507496
162	0xbe1c0219	-0.15235175
163	0x3e035d41	0.12828542
164	0x3eec33e6	0.46133345
165	0xbcc99b0b	-0.024610063
166	0x3d9f4fda	0.07778902
167	0x3ea79ebe	0.32738298
168	0xbb364580	-0.0027812421
169	0xbdf61337	-0.12015384
170	0x3e91d2ba	0.28481084
171	0xbe90ec24	-0.2830516
172	0xbd35eeb3	-0.044417094
173	0x3ecb10b1	0.39661172
174	0xbdca2b83	-0.098715805
175	0xbe0e1f80	-0.13879204
176	0x3e0a22f0	0.1348989
177	0x3eb1ded7	0.34740326
178	0xbe986245	-0.29762474
179	0x3ee9ab6a	0.4563859
180	0x3f001a67	0.50040287
181	0xbe1eef88	-0.15521061
182	0xbee25248	-0.442034
183	0xbd8c7aa0	-0.06859326
184	0xbebbb285	-0.36659637
185	0xbf37ffeb	-0.71874875
186	0x3ee06a7e	0.43831247
187	0x3e2fbd50	0.1716206
188	0xbe5179d2	-0.20456627
189	0x3ce37c75	0.027769307
190	0x3eb276e9	0.34856346
191	0xbdbd27e0	-0.09236121
192	0x3e07dd49	0.13268007
193	0xbdf37f0b	-0.11889466
194	0xbe888d43	-0.26670274
195	0xbec6b158	-0.38807178
196	0x3e7317a6	0.2373949
197	0xbe5678c1	-0.20944501
198	0x3da724c8	0.08161312
199	0xbe56fe7b	-0.20995514
200	0x3ee240e9	0.44190148
201	0xbeb88faf	-0.36047122
202	0x3f3a7d77	0.72847694
203	0xbf01f73a	-0.5076786
204	0xbebdec87	-0.3709452
205	0x3e85564f	0.2604241
206	0xbec7dca6	-0.3903553
207	0xbe8b91fb	-0.27259812
208	0x3eaf128d	0.3419384
209	0xbcfe16a2	-0.031016652
210	0x3ec9fc4b	0.39450297
211	0x3e7797d0	0.24179006
212	0xbeb120b2	-0.34595257
213	0x3ec1af09	0.37828854
214	0xbe3cbf4f	-0.18432353
215	0xbda8e271	-0.08246315
216	0xbe92f24d	-0.28700486
217	0x3def6b02	0.11690332
218	0xbecef6be	-0.40422624
219	0x3ec77836	0.389589
220	0x3dc148ed	0.094377376
221	0xbdd4586d	-0.103684284
222	0xbeb8f50b	-0.36124453
223	0xbe879a84	-0.26485074
224	0x3f0988c0	0.5372429
225	0xbea86b09	-0.3289416
226	0x3eb9c3cf	0.36282203
227	0x3e5eceab	0.21758525
228	0xbe940c3a	-0.28915578
229	0x3ed75d69	0.42063454
230	0xbe51ff5d	-0.2050757
231	0x3ed50c61	0.41611007
232	0x3e550a74	0.20804769
233	0x3e5605bf	0.2090063
234	0xbe8fcc94	-0.28085768
235	0xbcfd9242	-0.03095353
236	0x3e70c7b6	0.23513684
237	0xbf38fd4d	-0.72261506
238	0x3f353fb4	0.7080033
239	0x3d1dffaf	0.038573917
240	0x3c8aa5e1	0.0169248
241	0x3dbcbe25	0.09215955
242	0xbc664c2c	-0.014056247
243	0xbd21216e	-0.03933852
244	0x3d9e448c	0.07727918
245	0x3e9fc5e9	0.3120568
246	0x3e7cc4de	0.24684474
247	0x3ed67c1d	0.41891566
248	0x3e26a951	0.16275527
249	0x3dcc2e8d	0.09969816
250	0x3e0e0c18	0.13871801
251	0x3c5e7cfc	0.013579603
252	0xbe9a00b5	-0.30078664
253	0xbe912bbe	-0.28353685
254	0xbd386601	-0.045019154
255	0xbdc8d59c	-0.09806368

architecture.2.bias f4 [64]
0	0xbf6c2324	-0.9224112
1	0x3d404aa4	0.046946183
2	0x3f5c2338	0.8599124
3	0xbf5e1255	-0.8674672
4	0xbed33334	-0.41250002
5	0xbf03bb84	-0.51458
6	0x3e9abdb0	0.30222845
7	0xbf05e1db	-0.52297753
8	0xbe810482	-0.25198752
9	0xbec9a906	-0.39386767
10	0xbdb2e32d	-0.087347366
11	0x3e1ad7fd	0.15121455
12	0x3e0db584	0.13838774
13	0xbee47963	-0.4462386
14	0x3ea991cb	0.33119044
15	0x3d75340d	0.059864093
16	0x3ef51f18	0.47875285
17	0x3f09db39	0.5385013
18	0x3feaaaed	1.8333412
19	0x3f1d31d0	0.6140413
20	0xbef33b92	-0.47506386
21	0x3df7408e	0.1207286
22	0xbd35d958	-0.04439673
23	0xbf4c3953	-0.7977497
24	0xbf635a0b	-0.8880927
25	0x3efc55eb	0.492843
26	0x3c765955	0.015035947
27	0x3e2308ab	0.15921275
28	0x3fdd5eb5	1.7294527
29	0xbe974b5e	-0.29549688
30	0x3ee9fa73	0.4569889
31	0x3eb63af1	0.35591844
32	0xbe819e88	-0.25316262
33	0xbf1eb5ee	-0.6199635
34	0x3f15162d	0.5823696
35	0xbb87a2cc	-0.00413928
36	0xbecc9f97	-0.39965507
37	0xbe277cc5	-0.1635619
38	0xbf05d308	-0.52275133
39	0x3f560202	0.83596814
40	0xbfe6d97e	-1.8035123
41	0x3e21f056	0.15814337
42	0xbeaabfb9	-0.33349398
43	0xbdeee381	-0.11664487
44	0x3ea996a7	0.3312275
45	0x3f7ace35	0.97970897
46	0xbf8f5258	-1.1197004
47	0x3e0ac3f2	0.1355131
48	0x3e5099d8	0.20371187
49	0xbdd77f2c	-0.10522303
50	0xbf74f94f	-0.95692915
51	0xbebbe900	-0.36701202
52	0x3e7a204e	0.24426386
53	0x3b5d8810	0.0033803023
54	0xbf590c0c	-0.8478401
55	0x3fa08f42	1.2543719
56	0xbdae0cb3	-0.08498516
57	0x3ea5b4f1	0.3236461
58	0x3e19954e	0.14998361
59	0x3e0ac157	0.13550316
60	0xbc8685e0	-0.016421258
61	0x3e83397b	0.25629792
62	0x3c339d26	0.01096276
63	0xbe541ec0	-0.20714855

architecture.4.weight f4 [9, 64]
0	0xbca5a631	-0.020220848
1	0x3dd4b350	0.10385764
2	0xbda5b0dd	-0.080903746
3	0xbc3bc090	-0.011459485
4	0x3cff6c09	0.031179445
5	0xbcd8345d	-0.026392156
6	0xbc8bd592	-0.017069612
7	0xbc091d6b	-0.00836883
8	0x3b6e6d8d	0.0036381215
9	0xbd4210f3	-0.047379445
10	0xbc1b5b3d	-0.009482202
11	0xbcc1e472	-0.023668502
12	0xbb44e9e5	-0.0030046639
13	0xbc46711d	-0.012111929
14	0x3c260763	0.010133597
15	0x3c28f011	0.010311143
16	0xbcc5d8ac	-0.024151169
17	0x3b3bbf10	0.0028647818
18	0xb8f2c4cb	-0.00011576115
19	0x3cfc1e49	0.03077616
20	0x3bebf280	0.007200539
21	0xbd42afa5	-0.04753079
22	0xbba722d2	-0.0051005865
23	0xbb59f284	-0.0033256123
24	0xbc1036f6	-0.008802166
25	0xbb31c9ea	-0.0027128407
26	0xbbfa82e0	-0.007644996
27	0x39e4ffc7	0.00043678118
28	0x3d5ac8b2	0.053414054
29	0x3b3e2739	0.0029015078
30	0xbc0aec39	-0.008479171
31	0x3bb4ab6e	0.0055136
32	0xbe0029e4	-0.1251598
33	0x3bd64907	0.0065394673
34	0xbb882b9d	-0.0041555897
35	0x3bb53391	0.005529829
36	0xbc252e53	-0.010081845
37	0xbc69a956	-0.014261564
38	0x3d044337	0.032290664
39	0x3d282908	0.041054755
40	0xbd90cc77	-0.070702486
41	0xbb877435	-0.004133726
42	0xbcf1b764	-0.029506393
43	0xbc9a4fe4	-0.018836923
44	0x3cd87716	0.026423972
45	0xbc6122ea	-0.013741234
46	0x3b92fa79	0.004485425
47	0x3b8faf48	0.004384909
48	0xba928ac7	-0.0011180275
49	0x3cc0bb0e	0.023526695
50	0xbc42ccc4	-0.01188964
51	0xbdcdb59f	-0.10044407
52	0xba61d78c	-0.0008615188
53	0x3abe18f7	0.001450329
54	0x3c9622c3	0.018327123
55	0xbcc84662	-0.024447624
56	0xbd934ff6	-0.07192986
57	0x3c122b8d	0.008921516
58	0xbc899ea5	-0.01679928
59	0x3baef9d5	0.005339841
60	0xbc84fb90	-0.016233236
61	0x3a769aaa	0.0009407202
62	0xbc5b00bc	-0.013366874
63	0x3d058243	0.03259493
64	0xbe0377c1	-0.12838651
65	0x3ddfbf25	0.1092513
66	0x3c4a35c4	0.01234192
67	0x3d0899eb	0.033349913
68	0xbd33e3f7	-0.043918576
69	0x3ce1340f	0.027490644
70	0xbd74b892	-0.059746332
71	0x3bf3b831	0.007437729
72	0xbb3fbf43	-0.0029258288
73	0x3d7783f2	0.060428567
74	0xbc162492	-0.0091639925
75	0x3ca8ae7a	0.02059101
76	0x3dc11980	0.09428692
77	0x3d39c171	0.045350496
78	0xbb78bb11	-0.0037953297
79	0xbafe7822	-0.0019414464
80	0xbd4456b9	-0.047934268
81	0x3cd5537f	0.02604079
82	0x3d6faba1	0.058513287
83	0xbccf72ee	-0.025323357
84	0xbd0a14dc	-0.0337113
85	0x3c8ba1d7	0.017044945
86	0xbd2935d7	-0.04131111
87	0xbd162998	-0.03666076
88	0xbc4dba35	-0.012556602
89	0x3d195b69	0.03744069
90	0xbb0a5ab1	-0.0021111185
91	0x3c49283d	0.01227766
92	0x3cb93678	0.02260898
93	0xbc01e325	-0.007927691
94	0x3c2277a5	0.009916221
95	0x3c161e14	0.009162445
96	0xbba3475e	-0.004982873
97	0xbd1f0395	-0.038821775
98	0x3c534ba1	0.012896449
99	0xbc813cf2	-0.015776131
100	0x3a4d0dbb	0.00078221754
101	0x3c8cb777	0.017177327
102	0x3d39a48b	0.045322936
103	0x3d0e5bb0	0.03475541
104	0x3deabcf0	0.11461818
105	0xbb10585a	-0.0022025318
106	0xbcc98a93	-0.02460221
107	0x3c75ae40	0.014995158
108	0x3c058d7b	0.008151407
109	0xbd039e3a	-0.03213332
110	0x3ba38c67	0.0049911025
111	0xbc6281c4	-0.013824884
112	0xbd5de53d	-0.054173697
113	0x3b3897fd	0.0028166764
114	0x3da9334a	0.08261736
115	0xbcbe6fe0	-0.023246706
116	0x3a1d719c	0.0006006004
117	0xbb61ab28	-0.0034434292
118	0x3b41ef9b	0.002959228
119	0x3c253ad7	0.010084829
120	0x3d17c7ac	0.037055656
121	0x3b9a31db	0.0047056503
122	0x3bd9b940	0.006644398
123	0xbafe0b73	-0.0019382074
124	0x3b844076	0.0040360047
125	0xbbffc66e	-0.007805637
126	0x3bfdd994	0.0077468846
127	0x3d85ef0a	0.06539734
128	0x3b9a8268	0.0047152527
129	0xbe2a7612	-0.16646603
130	0xbc44d1d3	-0.012012917
131	0x3c3e5e8a	0.01161922
132	0xbd1adae8	-0.03780642
133	0xbc8a2f8d	-0.016868377
134	0xbc7278a7	-0.014799274
135	0xbc0758e6	-0.008260941
136	0xbd0dbdef	-0.034604963
137	0x3b8f9488	0.00438172
138	0xbc5d37f2	-0.013502108
139	0xbc49e0a4	-0.012321625
140	0x3da67c0d	0.081291296
141	0x3b988a92	0.0046551907
142	0x3af79d9e	0.0018891578
143	0x3a9e4d21	0.001207743
144	0x3d485a75	0.04891439
145	0xbc8e38a1	-0.017360987
146	0xbe036dcd	-0.12834854
147	0xbd169d84	-0.036771312
148	0x3d288ee6	0.041151904
149	0xbb8febc1	-0.0043921177
150	0xbd728397	-0.059207525
151	0x3c2f08af	0.010683223
152	0xbd29df7f	-0.041472908
153	0x3c7258b1	0.0147916535
154	0x3c854557	0.016268415
155	0xbc305673	-0.010762799
156	0x3e39da90	0.18149781
157	0x3a2b5996	0.00065364817
158	0x3c0f05fb	0.008729453
159	0xbb84d7f6	-0.004054065
160	0xbd871382	-0.06595518
161	0xbc38a171	-0.011268959
162	0xbd58bfdb	-0.052917343
163	0xbd0053f1	-0.031330053
164	0x3c951bdb	0.01820176
165	0xbc7f483d	-0.015581188
166	0x3d0d799d	0.034539808
167	0xbc4395ed	-0.011937601
168	0x3d638b16	0.055552565
169	0xbb944cc7	-0.004525754
170	0xbd3921ed	-0.04519837
171	0x3ccc80f8	0.02496384
172	0x3a8dd5d8	0.0010821177
173	0x3cf6a3dd	0.030107433
174	0xbd104885	-0.03522541
175	0x384fa10c	4.9502632e-05
176	0xbd313b67	-0.04326954
177	0x3bea212f	0.007145069
178	0x3c1b9b58	0.009497486
179	0x3d7ec632	0.062200733
180	0x3b9921e2	0.0046732286
181	0x3a9d06e5	0.0011980204
182	0x3cd12bcc	0.02553358
183	0x3d0145d2	0.031560726
184	0xbb0cca0d	-0.0021482736
185	0x3ba59539	0.005053189
186	0xbc22f741	-0.009946645
187	0xbb92a24a	-0.004474913
188	0x3b322d00	0.0027187467
189	0xbc19b261	-0.009380908
190	0x3c0a1ccb	0.008429716
191	0xbccc0b02	-0.024907593
192	0xbf0a0537	-0.5391421
193	0x3c572795	0.013131996
194	0x3f005718	0.50132895
195	0xbed9dbca	-0.42550498
196	0xbd02f1d6	-0.031968914
197	0xbe371bc4	-0.17881685
198	0x3c851659	0.016246008
199	0xbe100389	-0.14063849
200	0xbe7f6e03	-0.2494431
201	0x3997978e	0.0002891388
202	0xbe5b7eca	-0.21435085
203	0x3da58027	0.08081084
204	0x3d4bbb54	0.049739197
205	0xbed876dc	-0.42278183
206	0x3d6720ab	0.05642764
207	0x3e815021	0.25256446
208	0x3e0e7cca	0.13914791
209	0x3ef35ab1	0.4753013
210	0x3f08276d	0.5318516
211	0x3e8659d0	0.26240396
212	0xbef8e9e2	-0.48615938
213	0xbe29c4e1	-0.1657901
214	0xbcd728c2	-0.026264552
215	0xbef5351d	-0.47892085
216	0xbef8b143	-0.4857274
217	0x3e9eb96e	0.31000847
218	0x3d149621	0.036275987
219	0x3e086263	0.13318782
220	0x3ee53277	0.44765064
221	0xbe57a330	-0.21058345
222	0x3d703584	0.058644786
223	0x3da4ed3b	0.080530606
224	0xbd356468	-0.044285208
225	0xbdfb330e	-0.12265597
226	0x3e71ecc3	0.23625474
227	0xbe95a21c	-0.29225242
228	0xbe22f6b9	-0.1591443
229	0x39118939	0.00013879397
230	0xbe1b842d	-0.1518714
231	0x3e0c2660	0.13686514
232	0xbec79bae	-0.38985962
233	0xbe0a22ed	-0.13489886
234	0xbaeb7ba1	-0.0017965921
235	0x3e44a5c4	0.1920386
236	0x3f08a969	0.533835
237	0x3f1c7b85	0.61125976
238	0xbe366392	-0.1781142
239	0xbd5288ac	-0.05139987
240	0x3d339ddd	0.043851722
241	0x3cce45e4	0.02517981
242	0xbdfc0bd6	-0.12306945
243	0xbd089349	-0.033343587
244	0x3d2b96c4	0.04189183
245	0x3c2719b6	0.010199001
246	0xbef94b8a	-0.48690444
247	0x3eba0fc9	0.36340168
248	0x3d9ae3d5	0.07562987
249	0xbd8fc2f6	-0.07019608
250	0x3ed936e1	0.42424682
251	0x3d752c11	0.059856478
252	0x3b984785	0.0046471977
253	0xbc3026c6	-0.010751432
254	0xbea5d8cd	-0.32391968
255	0xbde70ba5	-0.11281518

architecture.4.bias f4 [9]
0	0xbd9ad23c	-0.0755963
1	0x3d0d6bd3	0.034526657
2	0xbd08a4e2	-0.03336037
3	0x3f375d33	0.71626586
4	0x3dc06a2a	0.09395249
5	0xbd220d5f	-0.039563533
6	0xbd995c0c	-0.0748826
7	0x3f1cf6d6	0.6131414
8	0xbdf34d92	-0.1188003

std f4 [9]
0	0x3e4ccccd	0.2
1	0x3e4ccccd	0.2
2	0x3e4ccccd	0.2
3	0x3e664dc1	0.22490598
4	0x3e4ccccd	0.2
5	0x3e4ccccd	0.2
6	0x3e6cc6d0	0.23122716
7	0x3e6d12c4	0.2315169
8	0x3e4ccccd	0.2

architecture.0.weight f4 [64, 27]
0	0xbc5b4197	-0.013382337
1	0xbd40a9c2	-0.047036894
2	0xbcd24c59	-0.025671171
3	0x3e6f6a16	0.23380312
4	0x3f38f609	0.7225042
5	0xbed77eab	-0.42088827
6	0xbf2632ae	-0.6492108
7	0xbf1c1f80	-0.60985565
8	0xbf909bd7	-1.1297559
9	0x3ce71e0f	0.028212575
10	0x3dd004be	0.101571545
11	0x3d709f69	0.058745775
12	0x3d194f47	0.03742912
13	0x3d3cc782	0.046088703
14	0x3c5dfcdd	0.013549057
15	0x3d488c43	0.04896189
16	0xbd53f9ec	-0.051752016
17	0xbf36979e	-0.713251
18	0xbe80b93e	-0.2514133
19	0xbf378a19	-0.71695095
20	0x3ed1077f	0.40826032
21	0x3f2fb548	0.6863599
22	0x3f16c551	0.5889483
23	0x3f931fc8	1.1494074
24	0xbd2ec886	-0.042671703
25	0xbe004c90	-0.12529206
26	0xbd86f16b	-0.065890156
27	0x3b9f0f5f	0.0048541273
28	0xbbbea2ba	-0.0058177384
29	0x3d6509e3	0.05591763
30	0x3c6ebb67	0.014571047
31	0xbdd4bcf1	-0.103876
32	0x3ddf67b8	0.10908455
33	0xbdecc0dc	-0.115602225
34	0xbee52636	-0.44755715
35	0x3e105e09	0.14098372
36	0x3cb42b24	0.021993227
37	0xbe9870eb	-0.2977365
38	0xbe41e200	-0.18933868
39	0x3dd50472	0.104012385
40	0x3da595f6	0.080852434
41	0xbe0b47dd	-0.13601632
42	0x3e2f0977	0.17093454
43	0xbde895c3	-0.1135669
44	0xbb7c4a74	-0.0038496526
45	0xbe7574f9	-0.23970403
46	0x3df6c399	0.12049026
47	0xbd34a1b8	-0.04409954
48	0x3da877ef	0.082260005
49	0x3f18f1ed	0.5974415
50	0x3dbfa606	0.09357838
51	0x3e08bdef	0.13353704
52	0xbd08b0a7	-0.033371594
53	0xbe1fb0b9	-0.15594758
54	0xbe13b028	-0.14422667
55	0xbd8a3808	-0.06748968
56	0xbd0a8b53	-0.033824276
57	0x3e5607af	0.20901369
58	0xbebad381	-0.3648949
59	0x3f21eb4b	0.63249654
60	0x3ef7cdaf	0.48399112
61	0x3f23a03e	0.63916385
62	0xbec35a8e	-0.38155025
63	0x3dad7145	0.0846887
64	0xbcd89512	-0.02643827
65	0x3db3032d	0.0874084
66	0xbdaaf5b1	-0.08347643
67	0xbdba6392	-0.09101023
68	0x3ca936b2	0.020655964
69	0x3e3e08ba	0.18558016
70	0xbe1d2c2a	-0.15348879
71	0xbd5defe3	-0.054183852
72	0xbe09f738	-0.13473213
73	0x3eb7427f	0.3579292
74	0xbf2e1633	-0.68002623
75	0xbedfc8d9	-0.43707922
76	0xbf23e94f	-0.64027876
77	0x3ef50b71	0.47860292
78	0xbcac397c	-0.021023504
79	0x3d8b3a84	0.0679827
80	0xbdc437c4	-0.09580949
81	0x3bb67051	0.0055675884
82	0xbd08062b	-0.033209007
83	0x3eafa3fa	0.34304792
84	0xbee32c2a	-0.44369632
85	0x3e411519	0.18855704
86	0x3e1a5d19	0.15074576
87	0x3de20286	0.110356376
88	0xbe856931	-0.26056817
89	0x3e63ba4e	0.22239038
90	0xbea8f280	-0.32997513
91	0x3ea9b1c2	0.3314343
92	0x3e6f1e8d	0.23351498
93	0xbd1d1984	-0.03835441
94	0xbc803003	-0.015647894
95	0xbb9d8b7a	-0.0048078867
96	0xbc92eac2	-0.017934207
97	0xbcf61cf8	-0.03004311
98	0x3c0a216c	0.00843082
99	0x3ecd94da	0.40152627
100	0xbe47c857	-0.19510017
101	0xbdf0586b	-0.117356144
102	0xbe00e44b	-0.12587087
103	0x3e5f2649	0.21791948
104	0xbe22daa3	-0.15903716
105	0x3e986c06	0.29769915
106	0xbea59f63	-0.32348165
107	0xbe87345b	-0.26407132
108	0x3a16b117	0.00057484343
109	0x3ceb735e	0.028741535
110	0x3c5ef640	0.013608515
111	0x3dd26369	0.10272867
112	0x3e0f251d	0.13979001
113	0xbe9d12ea	-0.30678493
114	0xbea3c023	-0.31982526
115	0x3e41f8b8	0.18942535
116	0x3c573425	0.013134991
117	0x3e4e821c	0.2016682
118	0x3ce03b48	0.027372018
119	0x3c8f8eb1	0.017524095
120	0xbdc3f4ab	-0.09568151
121	0x3e009503	0.12556843
122	0xbe6efc13	-0.23338346
123	0x3cc65c27	0.024213864
124	0xbdaded14	-0.08492485
125	0xbd2e5aa7	-0.04256692
126	0x3dd5e072	0.104432
127	0xbe073f91	-0.13207842
128	0x3d0cac0e	0.03434377
129	0x3d829e12	0.06377806
130	0xbe2513f0	-0.16120887
131	0x3e0c0a0a	0.13675705
132	0x3e754fde	0.23956248
133	0xbd232199	-0.039826963
134	0xbe39b526	-0.18135509
135	0xba95ab38	-0.0011418825
136	0x3c0e2542	0.008675875
137	0xbcc7a876	-0.02437232
138	0x3cac2f1a	0.021018554
139	0xbcda1840	-0.026622891
140	0x3c924dab	0.0178593
141	0xbd025fcd	-0.031829644
142	0x3d25ae67	0.040449526
143	0xbd197efb	-0.037474614
144	0x3d2b9534	0.041890338
145	0xbd5b1646	-0.05348804
146	0x3e098b2f	0.13432
147	0x3e9e6bdf	0.30941674
148	0x3ef1d73c	0.47234523
149	0x3f81e233	1.0147156
150	0x3dc6ba2a	0.09703477
151	0xbda29bdd	-0.07939885
152	0xbdff0606	-0.12452321
153	0xbc3d63d2	-0.011559444
154	0xbcc320ef	-0.023819415
155	0x3d926a5f	0.07149195
156	0x3d282ff9	0.041061375
157	0xbcab3597	-0.020899577
158	0x3da0da56	0.07854144
159	0x3bdbf490	0.0067125037
160	0xbd16f602	-0.036855705
161	0xbce0436b	-0.027375897
162	0xbb3cc6a5	-0.0028804925
163	0x3c64f15a	0.013973558
164	0x3d8478ff	0.06468391
165	0xbd4ad0ad	-0.049515415
166	0x3dcadd69	0.09905512
167	0xbd3c5c05	-0.045986194
168	0xbdfe8687	-0.12428003
169	0x3c398cb4	0.01132505
170	0x3d9be9a9	0.076129265
171	0x3d1f224b	0.038851064
172	0xbc0b982a	-0.008520165
173	0xbda8b9d1	-0.08238567
174	0xbe058497	-0.1303886
175	0xbe4b4163	-0.19849162
176	0xbadef30f	-0.0017009693
177	0xbafdb67b	-0.0019356752
178	0xbd06db91	-0.03292424
179	0x3d5968f8	0.05307862
180	0x3e09df6a	0.13464132
181	0x3ca4aa04	0.020100601
182	0x3dd9f028	0.10641509
183	0x3cfa990a	0.030590553
184	0x3dfe8cc4	0.12429193
185	0x3e22c156	0.15894064
186	0xbd396ce9	-0.04526988
187	0x3c8d49fe	0.017247196
188	0x3e0c9984	0.13730437
189	0xbc747713	-0.014920968
190	0x3cad90de	0.021187242
191	0x3af4d5a1	0.0018679389
192	0x3dd10b73	0.10207262
193	0xbdbeac8a	-0.09310253
194	0x3e0794b3	0.13240318
195	0xbd5384df	-0.051640388
196	0x3e53d55e	0.20686862
197	0xbbe58ca3	-0.0070052906
198	0x3d6c4c6b	0.057690065
199	0x3d8432a0	0.064549685
200	0xbca7a84a	-0.020465989
201	0x3ef3df33	0.47631225
202	0xbf21a712	-0.63145554
203	0x3e350cd2	0.17680672
204	0x3d0e5d88	0.034757167
205	0xbcb9e299	-0.022691058
206	0xbd07e244	-0.033174768
207	0xbd511f8d	-0.05105548
208	0xbba9a9c8	-0.00517771
209	0xbc0bcca0	-0.008532673
210	0x3cc8cafd	0.024510855
211	0xbde3952d	-0.111124374
212	0xbd80cbf3	-0.062889
213	0xbd3aae4c	-0.04557638
214	0xbdb18c96	-0.08669393
215	0x3cee6164	0.029099174
216	0xbcbef12e	-0.023308363
217	0xbc21f85e	-0.0098858755
218	0xbd971ce4	-0.07378557
219	0xbe4088f7	-0.18802248
220	0x3e937392	0.2879911
221	0xbec522a4	-0.3850299
222	0xbca14a2a	-0.019688684
223	0xbc1296d2	-0.008947091
224	0x3e3bc844	0.18338114
225	0xbe9d5870	-0.30731535
226	0x3dbec7d1	0.09315456
227	0xbe859cd9	-0.26096228
228	0xbe1d74b0	-0.15376544
229	0x3d921e9c	0.071347445
230	0xbe99ad9c	-0.30015266
231	0x3d8cbf20	0.06872392
232	0x3e86c7f0	0.26324415
233	0x3d629620	0.05531895
234	0xbafbe298	-0.001921731
235	0xbe6f2b10	-0.23356271
236	0x3eada6e7	0.339164
237	0x3e45312b	0.19257037
238	0x3a973d61	0.0011538678
239	0x3c4d8656	0.012544235
240	0x3e27067c	0.16311067
241	0xbe2bf39a	-0.16792145
242	0xbe82e711	-0.25566915
243	0x3e9e884e	0.30963367
244	0xbdcd6700	-0.10029411
245	0xbd8c95d0	-0.06864512
246	0xbc54425d	-0.012955275
247	0x3ebab358	0.36464953
248	0xbdd36f2a	-0.10323937
249	0x3e0394a7	0.12849675
250	0xbe8a0331	-0.2695556
251	0x3e9e5b78	0.3092916
252	0x3e48c7ed	0.19607516
253	0xbe7ba0ea	-0.24573103
254	0x3f03e68e	0.51523674
255	0x3cd333bf	0.02578151

architecture.0.bias f4 [64]
0	0x3c91119b	0.01770859
1	0xbf891de9	-1.0712253
2	0x3bd2c12a	0.0064317184
3	0x3fad47da	1.3537552
4	0x3f8d790f	1.1052569
5	0xbf612035	-0.8793977
6	0xbfc494d8	-1.5357924
7	0x3f6a008d	0.9140709
8	0x3e86645f	0.26248452
9	0x3fb4df03	1.4130558
10	0xbf0cc92e	-0.54994476
11	0x3f397845	0.7244914
12	0x3f979217	1.1841458
13	0x3f14e0d4	0.5815556
14	0xbf9e0a0e	-1.2346818
15	0x3f676d20	0.90400887
16	0x3eb1c155	0.34717813
17	0x3f04967f	0.5179214
18	0xbf8a2958	-1.0793867
19	0xbfa536bd	-1.290733
20	0xbfabc3e8	-1.3419161
21	0xbfc41c6d	-1.5321175
22	0xbf9f1ce6	-1.2430694
23	0x3da198f9	0.07890505
24	0xbf653840	-0.89538956
25	0x3f074785	0.52843505
26	0xbf9f4e05	-1.2445685
27	0xbf528663	-0.8223631
28	0xbf1de48a	-0.6167685
29	0xbf9b4c69	-1.2132694
30	0xbf85e4a2	-1.0460398
31	0xbf57be04	-0.84274316
32	0xbfb33651	-1.4000951
33	0x3dcc4a53	0.09975114
34	0xbef7c976	-0.4839589
35	0x3f8410dc	1.0317645
36	0x3f772737	0.9654421
37	0xbf1ab0ff	-0.60426325
38	0xbfa4ce79	-1.287551
39	0xbd1713b4	-0.036884025
40	0x3e9e6df9	0.30943277
41	0x3fa35fa0	1.2763557
42	0xbf633852	-0.8875781
43	0x3f0793b2	0.5295974
44	0xbe2971d9	-0.16547336
45	0xbf966883	-1.1750644
46	0x3f60313f	0.87575144
47	0x3f641489	0.89093834
48	0xbe07dc75	-0.13267691
49	0x3f603e4a	0.87595046
50	0xbf95ec90	-1.1712818
51	0x3f7e7c48	0.9940839
52	0xbfb445b6	-1.4083774
53	0x3fc7e215	1.561587
54	0x3e4960a2	0.19665769
55	0xbfa7aa29	-1.3098804
56	0xbf8cc2ab	-1.0996908
57	0x3fa36d7a	1.2767785
58	0x3c1cd9bf	0.009573399
59	0xbf8048b0	-1.0022182
60	0x3e45f878	0.19333065
61	0x3d65eec8	0.056135923
62	0xbeef03eb	-0.46682677
63	0x3cdfc1d3	0.027314102

architecture.2.weight f4 [64, 64]
0	0xbebb0225	-0.36525074
1	0xbf16e4b7	-0.5894274
2	0xbb08e48e	-0.0020888182
3	0xbf1dbd66	-0.61617124
4	0x3ef191d2	0.47181565
5	0xbbe443fa	-0.0069661113
6	0x3e909475	0.28238264
7	0xbc3a4f1e	-0.011371402
8	0x3e962d95	0.2933165
9	0xbf3869b5	-0.72036296
10	0xbe947059	-0.28991964
11	0x3e212e0d	0.15740223
12	0xbe4d9d8b	-0.20079629
13	0x3c4c13e0	0.01245591
14	0x3eafaa54	0.34309638
15	0x3e389178	0.18024242
16	0x3e1b992b	0.15195148
17	0xbf06315c	-0.52419066
18	0x3eb09ab5	0.34493032
19	0xbbe5fcd2	-0.007018664
20	0x3e24a25e	0.16077563
21	0xbefebef6	-0.49755067
22	0x3ee4e3e2	0.4470511
23	0xbda83059	-0.082123466
24	0xbd3e0666	-0.04639282
25	0x3c473d5e	0.012160627
26	0x3f15387a	0.582893
27	0xbdc2361c	-0.09482977
28	0x3da7ad26	0.08187322
29	0x3ed49a24	0.4152385
30	0x3e2ca850	0.16861081
31	0x3d9b26d6	0.07575767
32	0x3f511928	0.8167901
33	0x3e0d922c	0.13825291
34	0x3bf14db2	0.0073639983
35	0x3dcc15d6	0.099651024
36	0x3ceb2cff	0.02870798
37	0xbdd85d7b	-0.10564705
38	0x3e4e419a	0.20142213
39	0xbddb46cf	-0.10706865
40	0x3e89f55a	0.26945
41	0x3e382a35	0.1798485
42	0x3e04a88c	0.1295492
43	0x3f6e2d5e	0.93037975
44	0x3d6f3d7d	0.05840825
45	0x3f06cf10	0.526597
46	0x3f355d80	0.70845795
47	0x3de9ef13	0.11422553
48	0x3d75bb06	0.059992813
49	0x3e34a2c9	0.17640223
50	0xbce12e77	-0.027487976
51	0x3c7e9656	0.015538773
52	0xbe221e86	-0.15831956
53	0x3e2b4b90	0.16728044
54	0x3d7266f5	0.05918022
55	0x3ee496f0	0.44646406
56	0x3cef6234	0.029221632
57	0xbe9b932e	-0.30385727
58	0xbf93bafa	-1.1541436
59	0x3dd77055	0.105194725
60	0x3ef1cb83	0.4722558
61	0x3f2c0a4f	0.6720323
62	0xbe699b77	-0.22813211
63	0x3d8134bc	0.063088864
64	0xbec066e9	-0.37578514
65	0xbf360db5	-0.71114665
66	0x3ebe8b04	0.37215436
67	0x3f2ea86e	0.68225753
68	0x3f07ee7f	0.5309829
69	0xbf086c6d	-0.53290445
70	0xbf6c16d7	-0.9222235
71	0x3eca2656	0.39482373
72	0x3ecf9ba4	0.40548432
73	0x3ed29b03	0.4113389
74	0xbf139a46	-0.5765728
75	0x3ed1331d	0.4085931
76	0x3e460d94	0.19341117
77	0x3e49092a	0.19632402
78	0xbefacc3f	-0.48983952
79	0x3e7a06c8	0.2441665
80	0x3cdb0ce1	0.02673954
81	0x3eaf31d3	0.342177
82	0xbf013685	-0.50473815
83	0xbf805fe0	-1.0029259
84	0xbf09aac4	-0.5377619
85	0xbf86d7e3	-1.0534633
86	0xbf0c591a	-0.5482346
87	0xbd5028df	-0.050820228
88	0xbe90f04a	-0.28308326
89	0xbdcf70cc	-0.10128936
90	0xbed6149c	-0.418126
91	0x3e9c5f77	0.30541584
92	0xbe99bb6a	-0.30025798
93	0xbf2afbc9	-0.66790444
94	0xbef89ab3	-0.48555526
95	0xbf0dca98	-0.5538726
96	0xbf305de3	-0.6889326
97	0x3e82e0ff	0.25562283
98	0xbf0da5a7	-0.5533089
99	0x3f00a9a0	0.5025883
100	0x3e84988d	0.25897637
101	0xbed6b03c	-0.4193133
102	0xbe474805	-0.19461067
103	0xbdddf373	-0.1083745
104	0x3e35d4cf	0.17756961
105	0x3efcc17e	0.49366373
106	0xbeb35fc5	-0.35034004
107	0xbb04ae48	-0.0020245481
108	0xbe553b8d	-0.20823498
109	0x3d1d83a1	0.03845561
110	0xbe198796	-0.14993128
111	0x3e9e9198	0.30970454
112	0xbe5e185d	-0.21688981
113	0x3e204304	0.15650564
114	0xbef336de	-0.47502798
115	0xbc8b79b9	-0.017025815
116	0xbf17556e	-0.5911473
117	0x3f3d2118	0.7387862
118	0x3be73fc0	0.00705716
119	0xbf26cea4	-0.6515906
120	0xbeaddbf0	-0.33956861
121	0x3f53dace	0.82755744
122	0xbe98d0e8	-0.29846883
123	0xbeffdc6d	-0.4997286
124	0xbe1c426d	-0.15259714
125	0xbe8e5129	-0.27796295
126	0x3dbc9c4d	0.092094995
127	0xbcda7433	-0.026666736
128	0x3f073790	0.52819157
129	0x3f2b6b9e	0.66961086
130	0xbee7bab3	-0.45259628
131	0xbf79e935	-0.9762147
132	0xbeaa68ff	-0.3328323
133	0x3f1c6287	0.6108784
134	0x3f243a21	0.641512
135	0xbf1af1da	-0.60525286
136	0xbedccf5d	-0.43126956
137	0xbf2b044d	-0.6680344
138	0x3ebb0531	0.36527398
139	0xbea2a54f	-0.31766745
140	0xbe42d1e1	-0.19025375
141	0xbec80540	-0.39066505
142	0x3f01e34a	0.5073744
143	0xbf0bd0ef	-0.5461568
144	0xbe5776c3	-0.21041398
145	0xbe6a5ab6	-0.22886166
146	0x3f513e37	0.8173556
147	0x3f3e8ba3	0.7443182
148	0x3e5f6523	0.21815924
149	0x3f663fab	0.899409
150	0x3e7af57a	0.24507704
151	0xbdeb62a6	-0.11493425
152	0x3e9ef59f	0.3104677
153	0xbd4716c5	-0.0486057
154	0x3ecc0264	0.39845574
155	0xbe1717e1	-0.14755203
156	0x3de7a41d	0.11310599
157	0x3f10ebf8	0.5661006
158	0x3f3af015	0.73022586
159	0x3f0e8899	0.5567718
160	0x3f56198b	0.83632725
161	0xbcd724d4	-0.026262678
162	0x3f0b86f3	0.5450279
163	0xbeb7856b	-0.35843977
164	0xbe9bb25f	-0.30409524
165	0x3f245bbc	0.64202476
166	0xbde91cd7	-0.11382454
167	0x3e9cf7fd	0.3065795
168	0x3dbf9498	0.09354514
169	0xbf59164d	-0.84799653
170	0x3ee18a40	0.4405079
171	0xbd0bd756	-0.034140907
172	0xbe226f38	-0.15862739
173	0xbde5837c	-0.11206719
174	0xbd04d571	-0.032430116
175	0xbf01a4b9	-0.5064197
176	0x3cfd49f8	0.03091906
177	0xbe05dd7e	-0.13072774
178	0x3c803e78	0.015654787
179	0xbec16985	-0.37775818
180	0x3f15277e	0.58263385
181	0xbf353cb1	-0.7079573
182	0xbe085868	-0.13314974
183	0x3deb153e	0.11478661
184	0x3f29bb14	0.66301084
185	0xbfb64bde	-1.4241903
186	0x3ede1dbb	0.43382058
187	0x3f499b0c	0.7875221
188	0x3e80b0aa	0.25134784
189	0x3ee48a48	0.4463675
190	0xbdd069f2	-0.101764575
191	0x3c632425	0.013863598
192	0xbcad6b10	-0.021169215
193	0xbe9aac58	-0.30209613
194	0xbebd4bac	-0.36971796
195	0x3f6a8e54	0.91623425
196	0x3d806c0f	0.062706105
197	0xbdbf7218	-0.093479335
198	0x3ea8ca9b	0.32967076
199	0x3e47bb15	0.1950496
200	0x3eae7f8e	0.34081692
201	0x3f16b5b4	0.58871007
202	0xbde693b7	-0.11258643
203	0x3e51d0f9	0.20489873
204	0x3e521f9b	0.20519869
205	0xbec4d369	-0.38442543
206	0xbeedcf6d	-0.46447316
207	0x3dc6a387	0.09699159
208	0x3e52e56c	0.2059533
209	0xbf4b5708	-0.79429674
210	0xbef059eb	-0.46943602
211	0x3f5f374f	0.8719377
212	0x3efc86c7	0.49321577
213	0x3e8d9a66	0.2765686
214	0xbed6b780	-0.41936874
215	0xbc16a49e	-0.009194521
216	0x3eee368a	0.46525985
217	0xbe440840	-0.19143772
218	0xbf54a5c5	-0.83065444
219	0x3d936d41	0.07198573
220	0x3da25dc7	0.07928043
221	0x3f194d03	0.59883136
222	0xbe3a435f	-0.18189763
223	0x3e8e7118	0.2782066
224	0xbf43fd7d	-0.7655867
225	0xbea20e61	-0.31651595
226	0x3ec23917	0.3793418
227	0x3e4d170a	0.2002832
228	0x3c9cf2d6	0.019158762
229	0x3e45821e	0.19287917
230	0x3dd17e8a	0.102292135
231	0x3ef8cf62	0.4859572
232	0x3e92f7de	0.28704733
233	0x3f4d820f	0.8027658
234	0xbb940f8f	-0.0045184563
235	0x3e98185b	0.29706082
236	0x3ef86ef5	0.48522153
237	0xbf18b357	-0.5964865
238	0x3e78d6e3	0.24300723
239	0xbdccf1aa	-0.10007031
240	0xbdb9ed7d	-0.090785004
241	0xbec5386f	-0.38519618
242	0xbdb5079e	-0.088393435
243	0xbd12ba01	-0.03582192
244	0x3ef73fac	0.48290765
245	0xbf168d86	-0.588097
246	0x3e5e13bc	0.21687216
247	0xbec7d3b4	-0.39028704
248	0x3e4ed31a	0.20197716
249	0x3e5afa5c	0.21384567
250	0xbf0cb192	-0.5495845
251	0xbd35b5ac	-0.04436271
252	0x3e400090	0.18750215
253	0x3e3dfa1b	0.18552439
254	0xbe8cb9e4	-0.27485573
255	0xbe85bf88	-0.2612269

architecture.2.bias f4 [64]
0	0x3eca4bb2	0.39510876
1	0x3f869f8f	1.0517443
2	0xbfa27dce	-1.2694643
3	0xbeceb6fb	-0.40373978
4	0x3e4c125c	0.19928879
5	0xbf95de19	-1.1708404
6	0x3f5ca35c	0.86186767
7	0xbf34ea06	-0.7066959
8	0xbfa64fc0	-1.2993088
9	0x3f47e969	0.7809053
10	0x3f39eb91	0.7262507
11	0xbfa43679	-1.2829124
12	0xbf8b6392	-1.0889761
13	0x3edc4de7	0.43028185
14	0x3e5a124d	0.21296044
15	0x3f307475	0.689277
16	0x3fa00dde	1.2504232
17	0x3f0a7024	0.54077363
18	0xbf0695c3	-0.5257227
19	0x3f9ca97c	1.2239223
20	0x3ebfb7de	0.37444967
21	0xbf618bab	-0.8810374
22	0x3ee0b04d	0.43884507
23	0x3fa4bfad	1.2870995
24	0xbf045abe	-0.5170096
25	0x3f1e404f	0.6181688
26	0x3fad404b	1.3535246
27	0xbe8f6cfc	-0.28012836
28	0xbf6bc008	-0.9208989
29	0xbeb90a76	-0.36140794
30	0xbf9f11f5	-1.2427355
31	0x3d962028	0.07330352
32	0xbf8da7ba	-1.1066811
33	0x3ed571f5	0.41688505
34	0x3f1f0eb3	0.62131804
35	0xbf9ccd4a	-1.2250149
36	0xbfa1ed11	-1.2650472
37	0x3fb99597	1.4498776
38	0xbf1d0d70	-0.6134863
39	0xbf3f5d9c	-0.7475221
40	0xbef136e1	-0.47112182
41	0xbfa36676	-1.2765644
42	0xbf61a0c3	-0.8813593
43	0x3f20f774	0.62877584
44	0xbf9c05b8	-1.2189245
45	0x3f2b4204	0.66897607
46	0xbecf1d99	-0.4045227
47	0x3f56f150	0.83961964
48	0xbf060c32	-0.5236236
49	0x3f98582a	1.1901906
50	0x3fb7bef0	1.4355145
51	0xbedaab8e	-0.4270901
52	0xbfa17a21	-1.2615396
53	0xbf729674	-0.94760823
54	0xbf65f9b8	-0.89834166
55	0x3e345b26	0.17612895
56	0x3f122079	0.570808
57	0x3ef516e7	0.47869036
58	0xbee428b6	-0.4456231
59	0x3f7e8212	0.9941722
60	0xbf601081	-0.8752518
61	0x3f36204f	0.7114305
62	0xbf960aaa	-1.1722004
63	0x3f9e5aaf	1.2371424

architecture.4.weight f4 [1, 64]
0	0xc1002bb3	-8.010669
1	0xc0a6bd91	-5.2106404
2	0x40a5db2d	5.183005
3	0x40ff01c6	7.9689665
4	0xc0e4b836	-7.1474867
5	0x40a51c6b	5.159719
6	0xc0a42b3d	-5.130278
7	0x40a7059f	5.219436
8	0x40a75473	5.2290587
9	0xc0ab9c0f	-5.3628
10	0xc0a31215	-5.0959573
11	0x40a872df	5.2640224
12	0x40a8492f	5.2589335
13	0xc0fc37ba	-7.8818026
14	0xc0d6341c	-6.693861
15	0xc0d014db	-6.502546
16	0xc0abd5d7	-5.3698535
17	0xc0f37d72	-7.609063
18	0x40d203d5	6.562968
19	0xc0ab4281	-5.351868
20	0xc0dbf877	-6.87408
21	0x40cc801a	6.3906374
22	0xc0d54f8a	-6.6659594
23	0xc0a6e411	-5.21534
24	0x40d5c6a9	6.6805005
25	0xc1058113	-8.344012
26	0xc0a4126f	-5.12725
27	0x40ec7208	7.38892
28	0x40ac1eed	5.378775
29	0x40d6c957	6.7120776
30	0x40a5f2c9	5.185887
31	0x4100a22a	8.039591
32	0x40a4557a	5.135434
33	0xc0e5c272	-7.179986
34	0xc0f3e72d	-7.6219697
35	0x40a39021	5.111344
36	0x40a5231b	5.1605353
37	0xc0a49bc1	-5.144013
38	0x4087e728	4.2469673
39	0x40a78ad4	5.235697
40	0x40d764ca	6.7310534
41	0x40a2e9df	5.0910487
42	0x40966a43	4.7004714
43	0xc0a6adc1	-5.20871
44	0x40a7f8a5	5.249102
45	0xc0f6c142	-7.711091
46	0x40c3e9b2	6.1222773
47	0xc0ae4569	-5.445973
48	0x40cfd220	6.4944
49	0xc0a5e0af	-5.183677
50	0xc0a38aef	-5.1107097
51	0x40f3fd2a	7.624654
52	0x40a3522f	5.103782
53	0x408a24ee	4.317008
54	0x40a65e0f	5.198982
55	0xc103feb8	-8.249687
56	0xc0fa4f85	-7.822207
57	0xc0ae7602	-5.4519053
58	0x40f14b2d	7.5404267
59	0xc0b085c8	-5.5163307
60	0x40a75b6b	5.2299094
61	0xc0a908ce	-5.282325
62	0x40a1e071	5.0586476
63	0xc0a8f7c5	-5.2802453

exp_avg f4 [64, 27]
0	0x38096034	3.275294e-05
1	0x3820cb0e	3.8336082e-05
2	0x375558a0	1.2716424e-05
3	0xb923a0ae	-0.00015604749
4	0x37c5de4c	2.3587745e-05
5	0xb71dcfaf	-9.406284e-06
6	0xb7891c72	-1.6344919e-05
7	0xb86b0438	-5.6032295e-05
8	0xb88b4a02	-6.6418215e-05
9	0xb8644572	-5.4424112e-05
10	0xb8841787	-6.298633e-05
11	0xb8d56b88	-0.00010176661
12	0xb96045d5	-0.00021388319
13	0x382c1be8	4.1033985e-05
14	0x36bf3abb	5.6990807e-06
15	0xb78e5403	-1.696684e-05
16	0x37b1f674	2.1214808e-05
17	0x37037366	7.835077e-06
18	0xb91c8a32	-0.00014928801
19	0x367ad14c	3.737473e-06
20	0xb78ac057	-1.6540447e-05
21	0xb7d25da7	-2.5077561e-05
22	0xb887a79b	-6.4685206e-05
23	0xb84ee4b8	-4.932724e-05
24	0xb8406ad6	-4.5875866e-05
25	0xb81483da	-3.5408746e-05
26	0xb8fd6be2	-0.00012084075
27	0x3607cdeb	2.0236428e-06
28	0x38fa043c	0.00011921718
29	0x38253ff2	3.939862e-05
30	0xb71e20b4	-9.425148e-06
31	0xb7c093a4	-2.2956934e-05
32	0x37d6fd8a	2.5628851e-05
33	0xb86ff8bf	-5.7213703e-05
34	0xb88ba55d	-6.658838e-05
35	0x37e14f94	2.6859147e-05
36	0xb816bd6a	-3.5939192e-05
37	0x387bd8a9	6.0044844e-05
38	0x3658ff85	3.233524e-06
39	0x391ee98d	0.00015155059
40	0xb74de787	-1.2272859e-05
41	0xb7e392a6	-2.7128797e-05
42	0xb743b40a	-1.1664824e-05
43	0x352b2705	6.3759245e-07
44	0xb873c1fd	-5.811638e-05
45	0x361c5694	2.3296207e-06
46	0xb717d9dc	-9.051026e-06
47	0x37e7b1fc	2.7620226e-05
48	0xb887ba97	-6.472057e-05
49	0xb88a3579	-6.590313e-05
50	0x373ab49e	1.1128517e-05
51	0xb80c4564	-3.3443226e-05
52	0x388dede7	6.767717e-05
53	0x36729aab	3.6150839e-06
54	0x391b31f8	0.00014800567
55	0xb8372bdd	-4.367145e-05
56	0x38225bb2	3.8709208e-05
57	0x3855eff5	5.1006635e-05
58	0xb8dcbe01	-0.000105258085
59	0x36fff4a8	7.628074e-06
60	0x38eecdad	0.000113870345
61	0x3891133a	6.91772e-05
62	0xb7eed7be	-2.8472274e-05
63	0x38d50d2f	0.00010159087
64	0xb6c14ff1	-5.7611546e-06
65	0x38979935	7.228778e-05
66	0xb85e14d0	-5.2948308e-05
67	0xb71f46d9	-9.493634e-06
68	0x373d8f1a	1.1298596e-05
69	0x37414037	1.1518648e-05
70	0xb81a0f1a	-3.6730526e-05
71	0xb8a87249	-8.0321515e-05
72	0x3831cf48	4.2393134e-05
73	0xb8ea72c6	-0.00011179368
74	0x368c212b	4.1761864e-06
75	0x3902b614	0.00012465596
76	0x38852589	6.348926e-05
77	0xb7a3ac84	-1.9511448e-05
78	0x38d2b78c	0.000100477686
79	0xb52d2a6d	-6.450926e-07
80	0x38a01027	7.632403e-05
81	0xb98c1687	-0.00026719665
82	0x3811db26	3.4774792e-05
83	0x370aad27	8.265756e-06
84	0xb965db2f	-0.00021920794
85	0x39a7214a	0.00031877524
86	0xb8c57d58	-9.417039e-05
87	0xb9cc0d2f	-0.00038919735
88	0xb98fe6d1	-0.00027447057
89	0x387effc4	6.079652e-05
90	0xb987ae51	-0.00025879082
91	0x3933e2ec	0.00017155305
92	0xb943707f	-0.00018638557
93	0x3813c38a	3.522964e-05
94	0xb73bb38c	-1.1187873e-05
95	0xb8931f62	-7.015352e-05
96	0xb7a97397	-2.0200196e-05
97	0x388b23cd	6.634705e-05
98	0x3952ae5a	0.00020092112
99	0xb94c3f22	-0.00019478475
100	0x39b0e526	0.00033740065
101	0xb8dcd3d7	-0.00010529876
102	0xb9cef610	-0.00039474713
103	0xb98888d7	-0.00026041895
104	0x38829b5b	6.22782e-05
105	0xb983bc38	-0.000251265
106	0x3929134c	0.00016124285
107	0xb947715c	-0.00019020349
108	0xb888bed9	-6.5205335e-05
109	0x37f5d619	2.9305973e-05
110	0x37f51077	2.9213943e-05
111	0xb7bfa470	-2.2845546e-05
112	0xb82cc5d7	-4.119225e-05
113	0xb7e681b8	-2.7478542e-05
114	0x384a52e2	4.8237744e-05
115	0xb8113830	-3.4623023e-05
116	0xb70a209c	-8.233033e-06
117	0xb793969a	-1.7593895e-05
118	0xb7baf0f3	-2.2285129e-05
119	0xb7b5c0ee	-2.1666721e-05
120	0xb7857be3	-1.5912525e-05
121	0x382aacdf	4.0692157e-05
122	0xb81af607	-3.6945592e-05
123	0x3793814d	1.7583976e-05
124	0xb76e9d77	-1.4222568e-05
125	0x37679b3b	1.3804815e-05
126	0xb7a3eb9f	-1.9540834e-05
127	0xb822e2ea	-3.883514e-05
128	0xb7e3ef83	-2.717204e-05
129	0x385309f8	5.0315604e-05
130	0xb8140885	-3.5293884e-05
131	0xb704e7ee	-7.921813e-06
132	0xb797cfeb	-1.8097422e-05
133	0xb7e19609	-2.6891956e-05
134	0xb7b42272	-2.1473712e-05
135	0xb87a2f63	-5.9648777e-05
136	0xb83a256f	-4.438072e-05
137	0xb78b3c35	-1.6598127e-05
138	0xb8379d54	-4.3777123e-05
139	0x38f5007c	0.000116826006
140	0x3937c5d5	0.00017525938
141	0xb96c32d0	-0.00022525643
142	0xb8e220db	-0.000107826396
143	0x3642a096	2.9001726e-06
144	0xb8592474	-5.177078e-05
145	0xb7800c69	-1.5264568e-05
146	0xb923ef14	-0.00015633955
147	0xb82b0562	-4.077459e-05
148	0xb7747cfb	-1.4572633e-05
149	0xb78c10f5	-1.6697197e-05
150	0xb7ac1c10	-2.0517065e-05
151	0x3815600e	3.5613826e-05
152	0x38a1307c	7.686109e-05
153	0xb8208731	-3.827288e-05
154	0x3903e2db	0.00012577644
155	0x3934a9f3	0.00017229449
156	0xb971be07	-0.00023054342
157	0xb8cdac7c	-9.8072895e-05
158	0x35f6334a	1.8343355e-06
159	0xb846d209	-4.740249e-05
160	0xb79a0a1d	-1.836294e-05
161	0xb924bdb0	-0.00015710923
162	0xb7e1766b	-2.6877233e-05
163	0x37d06ffa	2.4847675e-05
164	0xb892b097	-6.994715e-05
165	0xb8094883	-3.2730877e-05
166	0xb82125d2	-3.8420614e-05
167	0x38ddae11	0.000105705236
168	0xb8862d49	-6.398053e-05
169	0xb893c752	-7.0466325e-05
170	0xb88f83ee	-6.843345e-05
171	0x38855c54	6.359132e-05
172	0xb85d21a8	-5.272185e-05
173	0xb7abc345	-2.0475718e-05
174	0x37fc10c3	3.0048546e-05
175	0xb84803e8	-4.7687354e-05
176	0xb86077cd	-5.3517335e-05
177	0xb7426444	-1.1586646e-05
178	0x37a12be9	1.9213143e-05
179	0x358ad136	1.034269e-06
180	0xb805f89b	-3.1941203e-05
181	0xb81ca525	-3.73471e-05
182	0x38e3b01f	0.000108570086
183	0xb88b498d	-6.6417364e-05
184	0xb89368c6	-7.029022e-05
185	0xb8940684	-7.0584036e-05
186	0x387e9c3d	6.0703827e-05
187	0xb867bbf1	-5.5249726e-05
188	0xb7a9d4b2	-2.0245414e-05
189	0xb7a3063d	-1.943402e-05
190	0xb7c7dd46	-2.3825687e-05
191	0x3800c419	3.070021e-05
192	0xb87d44ac	-6.0383856e-05
193	0xb6f6aaf4	-7.351273e-06
194	0xb7668518	-1.3740057e-05
195	0x37db13eb	2.611611e-05
196	0xb887d6f1	-6.4773376e-05
197	0xb8364bf0	-4.3462904e-05
198	0xb4c6b484	-3.7011716e-07
199	0xb7d8227d	-2.5765266e-05
200	0xb8c1df35	-9.244533e-05
201	0xb697ac1c	-4.520187e-06
202	0x37d8885c	2.5812704e-05
203	0xb6a9cb53	-5.0602625e-06
204	0x376b9d03	1.4043649e-05
205	0xb73577ba	-1.0816317e-05
206	0xb7698585	-1.391897e-05
207	0xb8822743	-6.206196e-05
208	0xb70bba5c	-8.328436e-06
209	0xb7666639	-1.3732869e-05
210	0x37e2760e	2.6996273e-05
211	0xb888be73	-6.520459e-05
212	0xb83441e7	-4.297672e-05
213	0xb61763e9	-2.2558909e-06
214	0xb7f5b2cf	-2.928954e-05
215	0xb8be3789	-9.07025e-05
216	0x37ffaf9a	3.048014e-05
217	0x388ce63e	6.718606e-05
218	0xb70b43cd	-8.300832e-06
219	0x38634f57	5.419491e-05
220	0xb8631243	-5.4138025e-05
221	0x371aa326	9.217101e-06
222	0xb785f7c0	-1.5970203e-05
223	0xb7ca9164	-2.414798e-05
224	0x371c847e	9.329173e-06
225	0xb72e25f0	-1.0380041e-05
226	0x36675eb7	3.4476814e-06
227	0x389bcdb9	7.429295e-05
228	0xb6e4710b	-6.8080894e-06
229	0x37c98419	2.402258e-05
230	0x38826eda	6.219531e-05
231	0xb76565a9	-1.3673133e-05
232	0x379022ed	1.7182401e-05
233	0xb78c079c	-1.6692844e-05
234	0x3858257b	5.153332e-05
235	0xb88035e4	-6.1135535e-05
236	0x373c7398	1.1232587e-05
237	0xb789b40b	-1.6415512e-05
238	0xb7e7eaf0	-2.7646747e-05
239	0x36d7078e	6.408379e-06
240	0xb71e02cb	-9.418184e-06
241	0x36da8310	6.512164e-06
242	0x389880f1	7.271942e-05
243	0x38d6a317	0.00010234693
244	0xb51216f3	-5.4422634e-07
245	0xb7831a8d	-1.562878e-05
246	0x384135ff	4.6065074e-05
247	0x38190e34	3.649127e-05
248	0x37ff7b64	3.0455827e-05
249	0xb7a2990e	-1.9383177e-05
250	0x383fd197	4.5733144e-05
251	0x389e1c22	7.539267e-05
252	0xb83a8bcf	-4.4476063e-05
253	0x37988beb	1.8184966e-05
254	0x37c675de	2.3658326e-05
255	0xb7adea12	-2.0732205e-05
