raisimGymTorch/data/ouzel_only_planning/2022-05-09-12-17-53/full_9000.pt (torch, 162032 bytes, 36 tensors)

architecture.0.weight f4 [64, 27]
0	0x3e3e596e	0.18588802
1	0xbebe1926	-0.37128562
2	0x3e39a176	0.18127999
3	0xbd0fba33	-0.035089683
4	0x3e44a4b6	0.19203457
5	0xbe54bf77	-0.20776163
6	0xbea16d6c	-0.31528795
7	0x3f0d4a02	0.5519105
8	0xbb709264	-0.003670835
9	0x3e417cd2	0.18895271
10	0xbd758468	-0.059940726
11	0xbe13fda0	-0.14452219
12	0x3ea1df66	0.31615752
13	0xbeb7ed8b	-0.35923418
14	0xbe1db395	-0.15400536
15	0xbebf43d0	-0.37356424
16	0x3e97ae87	0.2962534
17	0x3f0f16ee	0.5589436
18	0xbe6f0561	-0.23341896
19	0xbd6d5859	-0.057945583
20	0x3d94bee7	0.07262974
21	0xbc189c7a	-0.009314651
22	0x3dfd2cc5	0.12362055
23	0xbdcfb1c7	-0.1014133
24	0x3dc18690	0.09449494
25	0xbeb547f6	-0.35406464
26	0xbdf3910d	-0.118929006
27	0x3d8391b8	0.06424278
28	0xbc467e0f	-0.012115016
29	0xbdfc25dc	-0.123119086
30	0xbd89c20a	-0.06726463
31	0x3db418ef	0.08793818
32	0xbe23dcc7	-0.16002189
33	0xbe091672	-0.13387468
34	0x3cc3c07b	0.023895493
35	0xbe19a027	-0.150025
36	0x3e04f5e4	0.12984425
37	0xbebafda6	-0.36521643
38	0x3e36ca07	0.17850505
39	0x3d934c40	0.07192278
40	0x3ea1cf29	0.31603363
41	0xbe637f91	-0.22216631
42	0x3dd1515c	0.10220596
43	0xbe4a3967	-0.1974846
44	0xbdde536a	-0.10855754
45	0x3e240836	0.16018757
46	0x3dd7405e	0.10510324
47	0x3dfb9148	0.122835696
48	0xbe8254cb	-0.25455317
49	0x3e0daab5	0.13834651
50	0xbe8709f0	-0.2637477
51	0xbed54ec5	-0.4166166
52	0xb90c41e0	-0.00013375981
53	0xbda99519	-0.08280391
54	0x3e9268ff	0.2859573
55	0x3eab5231	0.33461145
56	0x3eb6d530	0.35709524
57	0x3ef78e5a	0.48350793
58	0x3e42a71f	0.19009064
59	0xbc8a70c8	-0.016899481
60	0xbe0a8e4a	-0.13530841
61	0xbdd36a9b	-0.10323068
62	0xbf279b17	-0.65471023
63	0x3e1e8b80	0.15482903
64	0x3d015f8a	0.031585254
65	0x3e25d180	0.16193199
66	0xbe5e21ec	-0.21692628
67	0x3d8c0e4c	0.068386644
68	0xbe487d8a	-0.1957914
69	0xbdd0319e	-0.10165714
70	0x3cd8ce75	0.026465634
71	0x3e21a5d4	0.15785915
72	0xbe2d26db	-0.16909353
73	0x3e371c73	0.17881946
74	0x3e35a233	0.17737655
75	0x3d85b511	0.06528676
76	0x3dc88b0c	0.09792146
77	0xbe7d10e3	-0.24713473
78	0x3d171a20	0.03689015
79	0xbd9fc16f	-0.078005664
80	0x3d1c85c8	0.03821352
81	0xbda57589	-0.08079059
82	0xbebbddab	-0.36692557
83	0xbd31b317	-0.043383684
84	0x3d851300	0.064977646
85	0xbe1c4495	-0.15260537
86	0x3eddc895	0.43317094
87	0x3da4f3db	0.08054324
88	0xbe87a1cf	-0.26490638
89	0x3d2244a2	0.039616235
90	0xbd312034	-0.043243602
91	0xbef83052	-0.48474365
92	0x3bc1feea	0.0059202807
93	0xbeb96a89	-0.36214092
94	0xbdf06e9f	-0.11739849
95	0x3dd5e3be	0.10443829
96	0xbd6183de	-0.0550574
97	0xbe4ff289	-0.20307364
98	0xbd7f3fbf	-0.062316652
99	0x3d67f98f	0.056634482
100	0xbd806347	-0.06268936
101	0x3dcaaa9b	0.09895822
102	0x3e210d8b	0.15727822
103	0xbe8c1d69	-0.27366188
104	0x3e1161be	0.14197442
105	0x3e8584ba	0.26077825
106	0xbe249f0d	-0.16076298
107	0xbe07bcad	-0.13255568
108	0xbed32da1	-0.4124575
109	0x3e5b2a95	0.21402963
110	0xbe8b1ec9	-0.27171925
111	0x3e2fed01	0.17180254
112	0x3da1014c	0.078615755
113	0xbd9ecbdc	-0.07753727
114	0x3e41220d	0.18860646
115	0x3de174ff	0.11008643
116	0xbcf83cde	-0.030302461
117	0x3cbdf746	0.023189198
118	0xbdacdc55	-0.084404625
119	0x3e201227	0.15631925
120	0x3d00a526	0.031407498
121	0xbc6afcab	-0.014342467
122	0x3ea20ead	0.31651822
123	0x3dccc56f	0.09998595
124	0x3def2cb7	0.116784506
125	0x3e344c57	0.17607246
126	0x3e50735c	0.20356506
127	0x3e8b1c93	0.27170238
128	0xbe3e0d11	-0.18559672
129	0x3e0ac40e	0.13551351
130	0x3dc6c7ed	0.097061016
131	0xbbffaa11	-0.007802256
132	0x3d6d37a6	0.0579144
133	0xbcceb3ad	-0.02523216
134	0x3c751cdc	0.014960494
135	0x3e3eecfa	0.18645087
136	0xbdabff4e	-0.08398305
137	0xbe6c8acc	-0.23099822
138	0x3cf4ac86	0.029867422
139	0x3da6ca22	0.081440225
140	0x3df59055	0.1199042
141	0x3e6cfa96	0.23142466
142	0xbe020f1b	-0.12701075
143	0xbe946f44	-0.2899114
144	0xbda0a702	-0.07844354
145	0x3e58064f	0.21096157
146	0x3ea3342e	0.31875747
147	0x3ddb365f	0.1070373
148	0x3d6c5bcc	0.05770473
149	0x3e9302cb	0.28713068
150	0xbe12ab57	-0.14323173
151	0xbee08ce0	-0.4385748
152	0x3da7c4db	0.08191844
153	0xbde29e6f	-0.11065375
154	0xbe2ee389	-0.17078985
155	0xbe81f561	-0.25382522
156	0x3ec31352	0.38100678
157	0xbf0997d4	-0.53747296
158	0xbde4f650	-0.11179793
159	0xbdbf3c5b	-0.09337684
160	0x3e86d35a	0.26333123
161	0xbcb5e672	-0.022204611
162	0xbc0c98ae	-0.008581324
163	0xbea995cf	-0.33122107
164	0xbe8d31c1	-0.27577022
165	0x3e408d9a	0.18804017
166	0xbe85f279	-0.26161554
167	0xbc02e168	-0.007988311
168	0x3ce0a67c	0.027423136
169	0x3d84fac9	0.06493146
170	0xbe865008	-0.26232934
171	0x3e86d10f	0.26331374
172	0x3c46fa79	0.012144678
173	0x3e2f2abc	0.17106146
174	0x3eb00b4a	0.34383613
175	0x3e0909ea	0.13382688
176	0xbc6dcf54	-0.014514763
177	0x3e4a3785	0.19747742
178	0xbe8610a1	-0.26184562
179	0xbeae2a75	-0.34016767
180	0x3cfdee73	0.03099749
181	0xbd386f57	-0.045028057
182	0xbd999a07	-0.075000815
183	0x3ea98bdb	0.33114514
184	0x3ddc3ef3	0.10754194
185	0x3e86e933	0.26349792
186	0x3d12897f	0.035775658
187	0x3e72b22d	0.23700781
188	0xbbb36592	-0.0054747546
189	0xbe134bc5	-0.14384373
190	0xbdfeb07e	-0.12436007
191	0xbb9145a5	-0.004433351
192	0x3eb8cd22	0.36094004
193	0xbe9525c3	-0.29130372
194	0xbe951f47	-0.29125425
195	0x3e599efc	0.21252054
196	0x3e2637ba	0.16232195
197	0xbde9a569	-0.114085026
198	0xbd7ed419	-0.06221399
199	0xbd97ecc1	-0.07418204
200	0xbe94a123	-0.29029188
201	0x3dcfa061	0.10138012
202	0x3e457ceb	0.19285934
203	0x3c61c2e8	0.013779379
204	0xbe17162b	-0.1475455
205	0xbe99daa0	-0.3004961
206	0xbde2235a	-0.11041899
207	0x3c8e7516	0.017389815
208	0x3d60bf0b	0.054869693
209	0x3e18b5b3	0.14913063
210	0xbe1de702	-0.15420154
211	0xbd1093c7	-0.03529718
212	0xbe323a43	-0.17405038
213	0x3d6ec601	0.0582943
214	0x3dafa568	0.085764706
215	0xbba09682	-0.0049007544
216	0xbe04d44f	-0.12971614
217	0x3cba7ce7	0.022764636
218	0x3e77fcb6	0.24217495
219	0xbecbf661	-0.3983641
220	0x3e67a660	0.22622061
221	0x3eaef158	0.34168506
222	0xbc9b98fd	-0.018993849
223	0x3dbc60d2	0.091981545
224	0xbdfb8ec4	-0.1228309
225	0xbd339e14	-0.043851927
226	0x3d09c2dc	0.033633098
227	0x3e22ecd0	0.1591065
228	0x3e61de13	0.22057371
229	0xbe96ca00	-0.2945099
230	0x3ec6bcdc	0.38815963
231	0xbdc44cd3	-0.095849656
232	0xbdb0abd0	-0.08626521
233	0xbd828156	-0.06372325
234	0x3e815083	0.25256738
235	0xbeae406c	-0.34033525
236	0x3d261dee	0.040555887
237	0x3bb7f5e3	0.005614029
238	0x3dac525d	0.08414147
239	0x3e051deb	0.12999694
240	0xbe9813e4	-0.29702675
241	0xbdf1d392	-0.11807932
242	0xbe316bde	-0.17326304
243	0xbb524c55	-0.0032088954
244	0xbd3f2ef2	-0.04667563
245	0xbdd26f8c	-0.10275182
246	0xbe2d6ef9	-0.16936864
247	0x3e06a574	0.13149053
248	0xbd80036d	-0.062506534
249	0x3d957d43	0.072992824
250	0xbec9a117	-0.39380714
251	0xbe465a00	-0.1937027
252	0xbe72c5f7	-0.2370833
253	0x3e79d0a9	0.24396004
254	0xbe343c82	-0.17601207
255	0xbe9cad6a	-0.30601054

architecture.0.bias f4 [64]
0	0xbe1d19d3	-0.15341882
1	0xbe4832df	-0.19550656
2	0x3f04212f	0.51613134
3	0x3d7d4c4a	0.061840333
4	0x3e826a0d	0.25471535
5	0xbeb04b33	-0.34432372
6	0xbf010b08	-0.5040746
7	0xbf079766	-0.5296539
8	0xbf25000f	-0.64453214
9	0x3d3a9244	0.045549646
10	0xbedf8311	-0.43654683
11	0x3e4fd471	0.20295884
12	0x3f34799a	0.7049805
13	0xbf3bf586	-0.73421514
14	0x3f3b012c	0.73048663
15	0x3f0a36d0	0.5398989
16	0xbec9f2b8	-0.39442992
17	0xbe616185	-0.22009857
18	0xbf3dd3fa	-0.74151576
19	0x3e5323cc	0.20619124
20	0x3f5a6f31	0.85325915
21	0xbf0e00ff	-0.5547027
22	0x3f025e58	0.5092521
23	0xbf25d7bd	-0.64782315
24	0x3d3112d5	0.04323085
25	0x3de58158	0.11206311
26	0x3e6380a7	0.22217046
27	0xbf0faabf	-0.5611991
28	0xbe50221b	-0.2032551
29	0xbddaad27	-0.106775574
30	0xbd1c9024	-0.0382234
31	0xbdeb6150	-0.1149317
32	0xbe940e6d	-0.28917256
33	0xbf11a869	-0.568976
34	0xbf08df2c	-0.53465533
35	0x3e42206b	0.18957679
36	0x3f2b6fd6	0.66967523
37	0xbe31c266	-0.17359313
38	0x3e07e159	0.13269557
39	0xbdcc3a49	-0.099720545
40	0xbea0e321	-0.31423286
41	0xbebbb1f8	-0.36659217
42	0x3f1d6085	0.614754
43	0xbe00efdc	-0.12591499
44	0x3d14eadb	0.036356788
45	0x3ee918d6	0.4552676
46	0x3cd886b9	0.026431428
47	0xbe43f9a3	-0.19138198
48	0x3db5133d	0.0884156
49	0x3f3bc6f5	0.7335046
50	0x3f036035	0.51318675
51	0x3e99057f	0.29887006
52	0xbc109c68	-0.008826353
53	0xbf41fc35	-0.7577546
54	0xbe7b84b1	-0.24562337
55	0x3e4e5a23	0.20151572
56	0xbebc3c1a	-0.36764604
57	0xbf3eae57	-0.7448477
58	0x3f29541f	0.66143984
59	0x3f352e99	0.7077423
60	0x3f43a611	0.7642527
61	0x3f089a5f	0.5336055
62	0xbe56aacf	-0.20963596
63	0xbc7206a7	-0.014772094

architecture.2.weight f4 [64, 64]
0	0xbd5ec078	-0.05438277
1	0x3da28693	0.07935824
2	0xbe02b691	-0.12764956
3	0xbeac59d8	-0.33662295
4	0xbea2a2c1	-0.31764796
5	0x3e92688d	0.2859539
6	0x3c725101	0.014789821
7	0x3e189a9b	0.14902727
8	0x3d54d33c	0.05195926
9	0xbd93dfc3	-0.072204135
10	0x3d128aa6	0.035776757
11	0xbe021bce	-0.12705919
12	0xbef9eccb	-0.4881347
13	0xbe285602	-0.1643906
14	0xbdd8ac2e	-0.10579716
15	0xbe85d8a6	-0.26141852
16	0x3da69dde	0.081355795
17	0x3e5b1dc6	0.21398076
18	0x3bee54ad	0.0072732777
19	0xbe60277e	-0.21890065
20	0xbf09d4a1	-0.5384007
21	0x3eca6634	0.395311
22	0x3d7c5be7	0.061611082
23	0x3e88ae6b	0.2669557
24	0x3e814975	0.25251356
25	0x3de4a1c6	0.11163668
26	0x3e28fd85	0.1650296
27	0x3d436534	0.047703937
28	0x3dc76ee0	0.097379446
29	0xbdc32838	-0.095291555
30	0x3de5b9a1	0.112170465
31	0x3e6ffaaa	0.23435465
32	0xbb39b1a8	-0.002833465
33	0x3e966153	0.29371127
34	0x3d6310cd	0.055435944
35	0x3dce78ef	0.1008166
36	0x3c0aa185	0.008461361
37	0x3e208643	0.15676217
38	0x3e17394c	0.14767951
39	0x3e8ef821	0.27923682
40	0x3e1348d5	0.14383252
41	0xbde50673	-0.11182871
42	0x3e8fdcf3	0.28098258
43	0xbe4feb8c	-0.20304698
44	0xbee69fc4	-0.45043766
45	0x3e2202c2	0.15821365
46	0x3e59f0db	0.21283285
47	0x3e3cf929	0.18454422
48	0x3e52acb6	0.20573696
49	0x3e15679d	0.14590307
50	0xbe5ea953	-0.2174428
51	0xbe22d8d3	-0.15903024
52	0x3e1fcaf8	0.1560477
53	0x3e6b1ab2	0.22959402
54	0x3db9238d	0.09039984
55	0xbe7ec972	-0.24881533
56	0xbe34ea8b	-0.17667596
57	0x3d40a702	0.04703427
58	0xbe47c3ea	-0.19508329
59	0xbe2146e3	-0.15749697
60	0x3d78f1f1	0.06077761
61	0xbe110759	-0.14162959
62	0xbdf67afe	-0.12035178
63	0x3dbfa0e3	0.093568586
64	0xbdee7168	-0.11642724
65	0xbe375d74	-0.17906743
66	0xbba6a5e6	-0.0050856946
67	0x3e30da2f	0.1727073
68	0x3e025fc0	0.12731838
69	0xbca3d5b6	-0.019999366
70	0xbdd84a2f	-0.105610244
71	0xba3a5b8c	-0.00071089785
72	0x3e45b909	0.19308867
73	0xbdd7f1f1	-0.105441935
74	0x3df1d408	0.1180802
75	0xbb8b855f	-0.0042578424
76	0x3e6e79f8	0.23288715
77	0x3d27aff1	0.040939275
78	0xbe04fc15	-0.12986787
79	0x3e861002	0.26184088
80	0x3ddae61f	0.10688423
81	0x3e42329b	0.18964617
82	0xbd818205	-0.063236274
83	0xbe27f5b2	-0.16402319
84	0x3eb7b9ae	0.3588385
85	0x3e34d5d8	0.176597
86	0x3da98795	0.08277813
87	0xbcd2783b	-0.025692096
88	0x3da2ae94	0.079434544
89	0x3d92f72d	0.07176051
90	0x3dbfdd06	0.09368329
91	0xbde6d30e	-0.11270724
92	0x3e6de3ab	0.2323138
93	0x3e33e4b7	0.17567717
94	0xbe5fff97	-0.21874844
95	0x3f03ee0a	0.51535094
96	0xbd149d1a	-0.036282636
97	0xbe45792c	-0.19284505
98	0xbe1fddd4	-0.15611964
99	0xbe16eed8	-0.14739549
100	0x3ec7cfa8	0.39025617
101	0x3e093fe1	0.13403274
102	0xbe3b5beb	-0.18296783
103	0x3d0b1847	0.0339587
104	0x3ebfba33	0.37446746
105	0xbdd62d0b	-0.1045781
106	0xbd966d73	-0.073450945
107	0x3e0afd4c	0.13573188
108	0xbde7a8a1	-0.1131146
109	0x3b986551	0.0046507497
110	0x3dce11c4	0.10061982
111	0x3d68c02c	0.056823894
112	0xbe798b03	-0.24369435
113	0xbd8c57f6	-0.06852715
114	0xbd3b896b	-0.04578535
115	0xbd173c7b	-0.036922913
116	0xbe972f34	-0.295282
117	0x3ec61dd5	0.38694635
118	0x3dd39a58	0.10332173
119	0x3e79d17f	0.24396323
120	0x3e5ea43f	0.21742342
121	0x3eb563de	0.35427755
122	0xbebf32e6	-0.3734352
123	0x3e33f8e8	0.17575419
124	0x3eea5994	0.45771468
125	0x3de7b444	0.1131368
126	0x3d12812f	0.03576773
127	0x3d840b92	0.06447519
128	0x3eac0f71	0.3360553
129	0xbecff119	-0.4061363
130	0x3d150cc6	0.036389135
131	0xbe16ef87	-0.1473981
132	0x3e342959	0.17593898
133	0xbe02ea38	-0.1278466
134	0xbde35769	-0.111006565
135	0xbe9a3852	-0.30121094
136	0x3e6d5005	0.23175056
137	0xbd56cf52	-0.05244381
138	0xbe0dc1fe	-0.13843533
139	0x3cbb45ab	0.022860369
140	0x3d12f788	0.035880595
141	0xbec87e58	-0.39158893
142	0xbcc4f1d9	-0.024041103
143	0xbd9c7843	-0.076401256
144	0xbe4760e8	-0.1947056
145	0xbe152b9b	-0.14567415
146	0xbe56fcd6	-0.20994887
147	0xbe9f4060	-0.31103802
148	0x3f1d7925	0.61512977
149	0xbe7d3a79	-0.24729337
150	0x3e890ef8	0.26769233
151	0xbe8a7232	-0.2704025
152	0x3f10cfbd	0.56566983
153	0x3e72c4a0	0.23707819
154	0xbe0e0405	-0.13868721
155	0x3d422b39	0.0474045
156	0xbd729308	-0.05922225
157	0xbe520771	-0.20510651
158	0x3ca87902	0.020565514
159	0x3d0b62c3	0.034029733
160	0xbe27f227	-0.16400968
161	0x3e349f23	0.17638831
162	0xbe270e4a	-0.16314045
163	0x3e35d9a0	0.17758799
164	0x3ecba954	0.39777625
165	0xbcf2540d	-0.029581094
166	0xbcf1ec5f	-0.029531656
167	0x3e551400	0.2080841
168	0xbccb2804	-0.024799354
169	0xbea1ad83	-0.3157769
170	0x3e5387ba	0.20657244
171	0xbdcd3874	-0.10020533
172	0x3d1ed34f	0.03877574
173	0x3e149e53	0.14513521
174	0xbbefb8ea	-0.0073157446
175	0xbe0e8b4f	-0.1392033
176	0x3b9c9e1e	0.004779591
177	0x3ebf2583	0.37333307
178	0xbe241907	-0.16025172
179	0x3e939f68	0.28832555
180	0x3ecf251e	0.40458006
181	0xbe0eaef1	-0.13933922
182	0xbc79f90a	-0.015257129
183	0xbd9088fd	-0.070573784
184	0xbe73ea62	-0.23819879
185	0xbea7f75e	-0.32805914
186	0x3e89ffc4	0.26952946
187	0x3dd862b5	0.10565702
188	0xbe44dc59	-0.19224681
189	0x3e289a75	0.1646517
190	0x3db4ed1f	0.0883429
191	0x3d1966f6	0.037451707
192	0xbdb39379	-0.087683626
193	0x3de75ca3	0.11296966
194	0x3de08ed5	0.10964743
195	0xbeae455f	-0.340373
196	0xbc91d534	-0.017801858
197	0xbd8df07d	-0.06930635
198	0xbd97556f	-0.07389342
199	0xbe5d4870	-0.21609664
200	0x3eb96a4a	0.36213905
201	0xbe1a7ee7	-0.15087472
202	0x3ef8025b	0.48439297
203	0xbeee57ce	-0.46551365
204	0xbee74783	-0.45171747
205	0x3e94a144	0.29029286
206	0xbe920c51	-0.28525022
207	0xbde60b09	-0.112325735
208	0x3e050771	0.1299112
209	0xbd49dc47	-0.04928234
210	0x3db5ee9c	0.08883402
211	0x3cece0b8	0.028915748
212	0xbe753f3d	-0.23949905
213	0x3d66cc65	0.05634727
214	0xba347cdb	-0.000688506
215	0xbc174add	-0.009234157
216	0xbe2ebb02	-0.17063525
217	0x3da73e06	0.08166127
218	0xbdc4a1c6	-0.09601168
219	0x3da43740	0.080183506
220	0x3e6d17fa	0.23153678
221	0xbe23d62f	-0.15999673
222	0xbd26853b	-0.040654402
223	0xbe062ba9	-0.13102593
224	0x3f081fdf	0.5317363
225	0xbe44a398	-0.19203031
226	0x3ea01159	0.31263235
227	0xbe83c33f	-0.25734898
228	0xbe57bb1d	-0.21067472
229	0x3ea87cb4	0.3290764
230	0xbd1a02de	-0.03760039
231	0x3e2ba456	0.16761908
232	0x3de1d52c	0.110269874
233	0x3daf8ffc	0.08572385
234	0xbc9458c9	-0.018108742
235	0xbe2ef0b8	-0.17084014
236	0xbdd1b7ce	-0.10240136
237	0xbed5418a	-0.41651565
238	0x3e54f47d	0.2079639
239	0xbc5957bd	-0.013265547
240	0xbdc96a3e	-0.09834717
241	0xbe3c5556	-0.18391928
242	0xbe3de1a9	-0.18543114
243	0xbe0f52ed	-0.13996477
244	0x3d493e03	0.049131405
245	0x3ebecc46	0.37265223
246	0x3d19ab87	0.037517097
247	0x3dc2163b	0.094768964
248	0x3de72b0d	0.11287508
249	0x3e9e07cb	0.3086532
250	0x3e686a94	0.22696906
251	0xbe13da8a	-0.14438835
252	0xbe1a01b8	-0.15039718
253	0xbe68e8d5	-0.22745068
254	0x3de82f65	0.11337165
255	0xbd72cec1	-0.059279207

architecture.2.bias f4 [64]
0	0xbea764a7	-0.3269398
1	0x3b2ca1c7	0.0026341544
2	0x3eff43e5	0.49856487
3	0xbf04f540	-0.5193672
4	0xbdadab9b	-0.08479997
5	0xbed08cbb	-0.4073237
6	0x3e5d8085	0.21631058
7	0xbec2719a	-0.37977296
8	0xbe10a6ef	-0.1412618
9	0xbe3ac8f8	-0.18240726
10	0xbd3c21c0	-0.045930624
11	0xbe21a734	-0.15786439
12	0x3ca58f65	0.020209977
13	0xbe9f370d	-0.31096688
14	0x3e9714e8	0.29508138
15	0x3d31246b	0.04324762
16	0x3dc1a293	0.09454837
17	0x3ee520bf	0.44751546
18	0x3f136f76	0.5759195
19	0x3ebde973	0.3709217
20	0xbec44eb1	-0.38341287
21	0xbdfa5241	-0.1222272
22	0xbd1ae3c6	-0.037814878
23	0xbf008963	-0.50209635
24	0xbf102ea8	-0.5632119
25	0x3ed56445	0.41678062
26	0xbd129c93	-0.035793852
27	0x3e4c0abf	0.19925974
28	0x3eeb8e90	0.46007204
29	0xbe5c4e79	-0.2151431
30	0x3edebb6e	0.43502373
31	0x3e84f91d	0.25971308
32	0xbe63401a	-0.22192422
33	0xbe918fc3	-0.28429994
34	0x3e096b8b	0.1341993
35	0xbd3536a8	-0.044241577
36	0xbe866152	-0.26246125
37	0xbd1d807d	-0.038452614
38	0xbe46c0bb	-0.19409458
39	0x3e580249	0.21094622
40	0xbf0bb1a0	-0.5456791
41	0x3ddc8d2a	0.107691124
42	0xbe16480a	-0.14675918
43	0xbd321bf3	-0.043483686
44	0x3eafce7b	0.3433722
45	0x3f0f2ff6	0.5593256
46	0xbeb84f77	-0.35998127
47	0xbcd17105	-0.025566587
48	0x3e350228	0.17676604
49	0xbd90c2fd	-0.07068441
50	0xbe873591	-0.26408055
51	0xbd6ca423	-0.05777372
52	0x3e5cbde5	0.21556814
53	0x3a2d5823	0.00066125597
54	0xbecde988	-0.40217233
55	0x3eb23746	0.34807795
56	0xbdeb3157	-0.1148402
57	0xbdb41d5b	-0.087946616
58	0x3de8a5b5	0.11359731
59	0xbdc14f09	-0.09438903
60	0xbe3bf949	-0.18356813
61	0x3e741def	0.23839544
62	0xba209065	-0.0006125032
63	0xbb31108e	-0.0027017924

architecture.4.weight f4 [9, 64]
0	0x3d62a9c4	0.055337682
1	0x3cd8611e	0.026413497
2	0xbcf484bc	-0.029848449
3	0xbd44ed8d	-0.04807811
4	0x3d69b90c	0.05706124
5	0xbd6391c1	-0.055558924
6	0x3a8fd1e0	0.0010972582
7	0x3d26422e	0.040590458
8	0xbd865207	-0.06558614
9	0x3c80ad19	0.01570754
10	0x3dc8c7d4	0.09803739
11	0xbd6a31d1	-0.057176415
12	0xbdc5be74	-0.09655467
13	0xbd0b9647	-0.034078863
14	0x3ced3e5b	0.028960397
15	0xbd16497d	-0.036691178
16	0x3d126254	0.035738304
17	0x3d91cf5b	0.07119628
18	0xbc7d388a	-0.0154553745
19	0xbc873645	-0.01650537
20	0x3bd7d5ef	0.006586782
21	0x3d30dd03	0.043179523
22	0x3d36afda	0.0446013
23	0x3af68695	0.0018808419
24	0x3d392e50	0.045210183
25	0xbcfd7ada	-0.03094237
26	0xbc849923	-0.016186303
27	0x3d3b6343	0.04574896
28	0x3d714441	0.058902983
29	0xbd2c20e1	-0.042023543
30	0x3c3f1e67	0.011664963
31	0x3d328e74	0.043592885
32	0xbdbe85ed	-0.09302888
33	0xbce716a0	-0.02820903
34	0x3bd155e7	0.006388414
35	0xbd937647	-0.07200294
36	0xbcc7186a	-0.024303634
37	0xbdbc6da6	-0.09200601
38	0x3d3b03fe	0.045658104
39	0xbcd37ea3	-0.025817221
40	0xbd27105f	-0.040787097
41	0x3d3f1956	0.04665502
42	0xbced8f1d	-0.028998906
43	0xbcb2ffe8	-0.021850541
44	0x3df74fee	0.12075792
45	0xbddf1b22	-0.10893847
46	0x3c1d88ed	0.009615165
47	0x3d4ac6d6	0.04950603
48	0x3cf58cb8	0.029974326
49	0x3d89c3ca	0.06726797
50	0x3b4c1afd	0.0031144016
51	0xbd4d996f	-0.050195154
52	0x3c137948	0.009001084
53	0xbbb6b068	-0.0055752285
54	0x3d47e45f	0.048801776
55	0xbc5c1bc6	-0.013434356
56	0xbc3f6bf1	-0.01168345
57	0xbab73225	-0.0013976736
58	0x3d6fc2e0	0.058535457
59	0xbccaa8ca	-0.024738688
60	0x3cd01fc3	0.02540577
61	0xbc16640c	-0.0091791265
62	0xbc168a53	-0.0091882525
63	0x3d937ab9	0.07201142
64	0x3d86d81c	0.06584188
65	0xbca96ee6	-0.020682763
66	0x3d47022d	0.04858606
67	0xbd037d39	-0.032101844
68	0xbdad769e	-0.0846989
69	0x3dece837	0.11567729
70	0xbc94bb99	-0.01815586
71	0xbcc5a222	-0.024125163
72	0x3d5b097c	0.053475842
73	0xbd4901e0	-0.049074054
74	0xbc13dab1	-0.009024308
75	0x3c3e4ed5	0.011615475
76	0x3d1a31a2	0.03764499
77	0x3ca6b0b6	0.020347934
78	0xbcfa15b5	-0.030527929
79	0x3cc5c25a	0.024140526
80	0x3d56131c	0.052264318
81	0x3ca85c8b	0.02055194
82	0x3d8d9bcd	0.06914482
83	0xbe592d31	-0.21208645
84	0xbcbe0315	-0.023194829
85	0x3d2533f5	0.040332753
86	0xbd24bc78	-0.0402188
87	0xbc47f58b	-0.012204538
88	0xbcf2c606	-0.02963544
89	0x3d67cc36	0.056591235
90	0xbcc9d388	-0.024636999
91	0x3d0e7960	0.03478372
92	0x3d03763b	0.032095175
93	0x3d32567a	0.0435395
94	0x3ca99c41	0.02070439
95	0x3d2ae9e1	0.04172695
96	0xbc94287e	-0.018085714
97	0xbc2d651d	-0.010583189
98	0xbc382c67	-0.011241055
99	0xbd3853c9	-0.04500178
100	0xbbd74265	-0.006569194
101	0xbd234ee0	-0.039870143
102	0xbc87b145	-0.01656402
103	0x3d71a851	0.05899841
104	0x3e1b0ad2	0.15140846
105	0x3bba6dd5	0.0056893625
106	0xbd7dc679	-0.061956856
107	0x3d94117f	0.072298996
108	0xbd1957f5	-0.037437398
109	0x3d8f203b	0.06988569
110	0x3deb948d	0.11502943
111	0xbc56eacd	-0.013117504
112	0x3b6388b4	0.0034718933
113	0x3d6b85a9	0.057500515
114	0x3c63f222	0.013912709
115	0x3d1ed97f	0.03878164
116	0xbbb84baa	-0.0056242542
117	0xbb892690	-0.004185505
118	0xbd692eb3	-0.0569293
119	0x3cc89648	0.024485722
120	0xbaa041ac	-0.0012226603
121	0x3c913094	0.01772336
122	0xbb7d5507	-0.0038655417
123	0x3c4bac30	0.012431189
124	0xbd75acdd	-0.05997931
125	0xbc96885e	-0.018375572
126	0xbc8ce8cc	-0.01720085
127	0xbccae37e	-0.02476668
128	0x3d18de30	0.03732127
129	0xbd644732	-0.05573196
130	0xbd8aabc4	-0.06771043
131	0x3d132e7c	0.035933003
132	0xbcd0a575	-0.025469521
133	0xbd4c4bf5	-0.049877126
134	0x3be18258	0.0068819933
135	0x3cee8178	0.02911447
136	0x3b2b35a2	0.0026124497
137	0x3d25ce6a	0.040480055
138	0xbd4ed2be	-0.05049395
139	0xbd5eca03	-0.054391872
140	0x3d9afe23	0.07568004
141	0x3c6d155d	0.014470425
142	0x3dab1f1e	0.083555445
143	0x3d076991	0.03305966
144	0x3c77d2a3	0.015125903
145	0xbd6c348d	-0.057667304
146	0xbdb03c21	-0.08605219
147	0x3c4d62f1	0.0125357965
148	0x3bca4d54	0.006173769
149	0x3cf9214b	0.030411383
150	0xbcbb5ab1	-0.022870393
151	0x3c44c3d9	0.012009584
152	0xbda54ca0	-0.08071256
153	0x3ce7cfb6	0.028297286
154	0xbc917e01	-0.017760279
155	0xbcfd2e3d	-0.030905837
156	0x3e6dfa06	0.23239908
157	0xbd6cd6a7	-0.057821896
158	0x3dac9f3d	0.0842881
159	0x3bedf56b	0.007261922
160	0xbc69d0e9	-0.0142709995
161	0xbd95ef5a	-0.07321043
162	0x3d073f3d	0.033019293
163	0xbc3be782	-0.01146877
164	0xbd1ce19f	-0.038301107
165	0xbd23ed35	-0.04002114
166	0x3cc91e70	0.024550647
167	0xbd3bf55b	-0.045888286
168	0x3caa173a	0.020763028
169	0x3cbd30ba	0.023094524
170	0xbcfedeac	-0.031112038
171	0xbd60d4b1	-0.05489034
172	0xbde14a28	-0.11000472
173	0xbd7947fd	-0.06085967
174	0xbcc2db98	-0.023786351
175	0x3dc7e141	0.09759761
176	0xbe078bc3	-0.13236909
177	0x3cc8d086	0.024513494
178	0x3c9d266e	0.019183364
179	0x3d4f0d6d	0.050549913
180	0x3d2b1157	0.041764583
181	0x3c73174a	0.0148370955
182	0xbc5dafe0	-0.013530701
183	0x3d83a520	0.064279795
184	0xbdae6a37	-0.085163526
185	0xbcadac7c	-0.021200411
186	0xbe0ce2a2	-0.13758329
187	0xbcb7d0d4	-0.022438444
188	0xbc099cc1	-0.008399189
189	0xbbde98cc	-0.006793117
190	0x3a04e5aa	0.0005069623
191	0x3d00227c	0.031282887
192	0xbf0a7b30	-0.5409422
193	0xbc734376	-0.014847627
194	0x3f063772	0.5242835
195	0xbee574f9	-0.44815806
196	0xbcadc822	-0.021213595
197	0xbe9e8942	-0.30964094
198	0x3d686c89	0.056744132
199	0xbe3356b8	-0.1751355
200	0xbe503000	-0.2033081
201	0x3dbd9c80	0.09258366
202	0xbe3826e1	-0.17983581
203	0x3e3ee8c1	0.18643476
204	0x3e5f4513	0.21803693
205	0xbec7e479	-0.39041498
206	0x3d936bff	0.07198333
207	0x3ec5db28	0.38643765
208	0x3e060a19	0.1308979
209	0x3f038634	0.5137665
210	0x3ed7e36b	0.42165694
211	0x3ea389dc	0.31941116
212	0xbef2e357	-0.47439072
213	0xbec1bb0d	-0.3783802
214	0x3de238e8	0.1104601
215	0xbef5042b	-0.47854742
216	0xbf10e705	-0.5660251
217	0x3eb421de	0.3518209
218	0x3e061d76	0.13097176
219	0x3e216336	0.15760502
220	0x3eaf6c5a	0.34262353
221	0xbe9ca00c	-0.30590856
222	0x3d9f27d5	0.07771269
223	0x3ea97a0e	0.33100933
224	0xbd42a9a2	-0.047525056
225	0xbd951eee	-0.0728129
226	0x3ea3a13b	0.31958947
227	0xbe9a89fd	-0.30183402
228	0xbe895130	-0.26819754
229	0xbdee95ad	-0.11649642
230	0xbe5b26aa	-0.21401468
231	0x3dfc128c	0.12308225
232	0xbe90593d	-0.28193083
233	0xbe24b2ce	-0.16083834
234	0xbe67681b	-0.22598307
235	0x3dbe16fc	0.09281728
236	0x3f06c333	0.526416
237	0x3f2932bd	0.66093045
238	0xbe0cff36	-0.1376923
239	0xbddeb78e	-0.10874854
240	0x3d7dbeaa	0.06194941
241	0x3c9a9946	0.018871915
242	0xbe1d342f	-0.15351938
243	0x3c668c34	0.014071513
244	0xbdaf27f1	-0.0855254
245	0x3e54f36d	0.20795985
246	0xbf046c0b	-0.5172736
247	0x3eb1ef07	0.34752676
248	0xbcc08a95	-0.023503581
249	0x3d03fe37	0.03222486
250	0x3f017bb5	0.50579387
251	0x3e786171	0.24255921
252	0x3d56ced2	0.052443333
253	0x3e02ae61	0.12761833
254	0xbe79b8ef	-0.24386953
255	0xbd168b87	-0.036754157

architecture.4.bias f4 [9]
0	0xbdd9609c	-0.1061413
1	0x3d236939	0.03989527
2	0xbbd16367	-0.0063900235
3	0x3f103499	0.5633026
4	0x3dccb973	0.09996309
5	0xbd9e193b	-0.07719656
6	0x3c38f66d	0.011289221
7	0x3f00ccd4	0.5031254
8	0xbde0c9ad	-0.109759666

std f4 [9]
0	0x3e4ccccd	0.2
1	0x3e4ccccd	0.2
2	0x3e4ccccd	0.2
3	0x3ea1c2ad	0.31593838
4	0x3e4ccccd	0.2
5	0x3e4d81bb	0.2006902
6	0x3e4dd882	0.20102122
7	0x3e5c8a37	0.215371
8	0x3e4ccccd	0.2

architecture.0.weight f4 [64, 27]
0	0xbe8be5fa	-0.27323896
1	0x3e028035	0.1274422
2	0xbdf35fde	-0.118835196
3	0x3e324e0d	0.17412587
4	0x3e3f1748	0.18661225
5	0xbe80053a	-0.25003988
6	0xbeb8da19	-0.36103895
7	0xbf0a7d18	-0.5409713
8	0xbeb63638	-0.3558824
9	0xbed45e25	-0.41478077
10	0x3e4bce85	0.19903
11	0xbdc2b715	-0.095075764
12	0xbdaed7ae	-0.085372314
13	0xbdaa0d30	-0.083032966
14	0x3bc3105f	0.0059528793
15	0x3dc9e544	0.09858182
16	0xbdcef7e7	-0.10105877
17	0xbde16007	-0.11004644
18	0x3e509fad	0.20373411
19	0xbe938b36	-0.28817147
20	0x3cb888bc	0.022526138
21	0x3e9cb9e8	0.30610585
22	0x3d96f517	0.07370966
23	0x3f3cb449	0.73712593
24	0xbea56d93	-0.3231016
25	0xbdc5e434	-0.09662667
26	0x3d9889ba	0.07448144
27	0xbd752807	-0.059852626
28	0x3c0cd8ef	0.008596643
29	0x3d501073	0.050796937
30	0xbe0da6ff	-0.13833235
31	0x3e3b4758	0.18288934
32	0x3e7c20f6	0.24621949
33	0x3e1d343a	0.15351954
34	0xbe9c8900	-0.30573273
35	0x3e014f52	0.12627915
36	0xbd1fb950	-0.038995087
37	0xbebd380a	-0.36956817
38	0x3d4e89a2	0.050424226
39	0x3e204e79	0.15654935
40	0xbcb8406f	-0.022491662
41	0xbd410113	-0.047120165
42	0xbdaaa300	-0.08331871
43	0xbc60788a	-0.013700614
44	0x3da63506	0.08115582
45	0xbefa8141	-0.48926738
46	0x3dda86ff	0.1067028
47	0x3e62909e	0.2212548
48	0xbdd2cbd1	-0.10292781
49	0x3ef8da4a	0.4860404
50	0x3ddbe540	0.10737085
51	0x3d2d4629	0.042303238
52	0xbe2d5bcb	-0.16929547
53	0xbe106f1b	-0.14104883
54	0x3c7ede28	0.015555896
55	0xbdc519ba	-0.096240476
56	0x3cdc1ca7	0.026869131
57	0x3db83e0c	0.089962095
58	0xbee1cb8d	-0.4410061
59	0x3e9c3fbc	0.30517375
60	0x3e2c36a6	0.16817722
61	0x3e94e59a	0.29081422
62	0xbe0e31ba	-0.13886157
63	0x3e6c6c32	0.23088148
64	0xbe9c70b9	-0.3055475
65	0x3dc50a6f	0.09621131
66	0xba6937ec	-0.00088965776
67	0xbd9a2cc7	-0.07528072
68	0xbe26028b	-0.16211908
69	0x3cb64601	0.022250177
70	0x3caab5d9	0.020838665
71	0x3d02d080	0.031937122
72	0xbde8c19c	-0.11365053
73	0x3e7569cc	0.2396614
74	0xbec295a8	-0.38004804
75	0xbd33d062	-0.0438999
76	0xbe375712	-0.17904308
77	0x3e1f28e0	0.15542936
78	0x3df2b7ec	0.118514866
79	0xbe5e9eea	-0.21740308
80	0x3d47f363	0.048816096
81	0x3e252cba	0.16130343
82	0xbe278703	-0.16360097
83	0x3e852fe2	0.26013094
84	0xbe6448d5	-0.22293408
85	0x3e5e2461	0.21693565
86	0x3eb8b9ea	0.3607934
87	0x3d9046b3	0.07044735
88	0xbcf4316f	-0.029808728
89	0x3d893d6a	0.06701167
90	0xbebd04f3	-0.36917838
91	0x3e9a5f57	0.30150864
92	0x3e8fba1e	0.28071684
93	0xbd903c3c	-0.07042739
94	0xbd71b314	-0.059008673
95	0x3d657d9e	0.056028
96	0xbcd2684e	-0.025684502
97	0x3c903ab9	0.017606126
98	0x3dd074fa	0.101785615
99	0x3e1ef112	0.15521649
100	0xbe694533	-0.22780304
101	0xbe9196d3	-0.28435382
102	0xbd02e3ae	-0.031955414
103	0x3d27e9e9	0.04099456
104	0xbdae9067	-0.08523636
105	0x3ee146db	0.4399937
106	0xbea1b4dc	-0.31583297
107	0xbe82364a	-0.25432044
108	0x3dd0c1c6	0.10193209
109	0xbcc824c3	-0.024431592
110	0xbd9c49b8	-0.07631248
111	0xbdaf4986	-0.08558945
112	0x3e178165	0.14795454
113	0xbdddafc2	-0.10824539
114	0xbe9448ba	-0.28961736
115	0xbc402117	-0.011726639
116	0xbd275d75	-0.040860612
117	0xbd928dc2	-0.071559444
118	0xbe5b5b88	-0.21421635
119	0xbe6927d4	-0.227691
120	0xbb812166	-0.003940749
121	0x3d7ce9d1	0.061746422
122	0xbe249b09	-0.16074766
123	0x3c2d095f	0.010561316
124	0xbd0a76e4	-0.03380479
125	0x3ca242bf	0.019807218
126	0xbdef8fbc	-0.11697337
127	0xbded1933	-0.11577072
128	0x3c68c2df	0.014206617
129	0xbcff7085	-0.031181583
130	0xbe865a26	-0.26240653
131	0x3e10cce7	0.14140664
132	0xb959c713	-0.00020768894
133	0xbd765a90	-0.06014496
134	0xbea2b59a	-0.31779176
135	0xbc2ffa13	-0.010740775
136	0xbbb4c25e	-0.0055163344
137	0xbc090dac	-0.008365076
138	0x3dfaf9d8	0.12254685
139	0xbe82b254	-0.2552668
140	0xbe3a5f82	-0.18200496
141	0xbde891a1	-0.113559015
142	0x3dc43a50	0.09581435
143	0x3e161a8e	0.14658567
144	0x3d7ca2ee	0.06167882
145	0xbcaf67dc	-0.021411829
146	0x3c4df537	0.012570671
147	0x3cf58342	0.029969815
148	0x3e2451ff	0.16046904
149	0x3eba22b2	0.36354595
150	0x3d147430	0.036243618
151	0xbcdcdac8	-0.026959792
152	0xbdb26478	-0.08710569
153	0xbda1c4af	-0.078988425
154	0xbd17a421	-0.03702176
155	0x3c821915	0.0158811
156	0x3e1c04d5	0.15236218
157	0xbec946d2	-0.39311844
158	0x3de2a66c	0.11066899
159	0xbe69b46c	-0.22822732
160	0xbe0ba868	-0.1363846
161	0x3dac6ee3	0.084195875
162	0x3cf650fa	0.03006791
163	0xbd12a446	-0.035801195
164	0x3d2af4ca	0.041737355
165	0xbe565acc	-0.20933074
166	0x3e195b73	0.14976291
167	0x3e407f07	0.18798457
168	0xbe89fb26	-0.26949424
169	0xbd543822	-0.051811345
170	0xbd71def1	-0.059050504
171	0xbcff1b4b	-0.031140944
172	0xbdb2a8d0	-0.08723605
173	0xbe5f07a9	-0.21780266
174	0xbd134627	-0.035955574
175	0xbd944cd6	-0.07241218
176	0x3d8771fa	0.06613536
177	0x3bbb1b8b	0.0057100705
178	0xbd3dc17b	-0.046327095
179	0x3d4535a2	0.04814685
180	0x3e05995b	0.13046782
181	0x3ce1b79d	0.027553374
182	0x3e74f88f	0.23922943
183	0xbda44e89	-0.08022792
184	0x3dced22b	0.1009868
185	0x3e52d503	0.2058907
186	0xbdfb9d55	-0.12285868
187	0x3cf5940b	0.029977819
188	0x3ba9fa2d	0.005187294
189	0xbd228d43	-0.0396855
190	0x399c6e2d	0.00029836726
191	0xbd3f98c8	-0.046776563
192	0x3e7287a3	0.23684554
193	0x3e27bb8c	0.16380137
194	0x3db0d3f5	0.086341776
195	0x3d5a3b92	0.053279467
196	0x3e10740f	0.14106773
197	0xbd907611	-0.070537694
198	0x3ca99327	0.02070005
199	0xbe533fee	-0.20629856
200	0xbc961514	-0.018320598
201	0x3dfc1d6a	0.12310298
202	0xbe983dc4	-0.29734623
203	0x3e128db8	0.14311874
204	0x3d4f8159	0.050660465
205	0x3d3a2bcd	0.045451928
206	0x3ce4ddb8	0.027937755
207	0xbe552562	-0.20815042
208	0x3dc234ce	0.09482728
209	0xbe5a5843	-0.21322732
210	0x3e620d9e	0.22075507
211	0xbde4f0b9	-0.11178727
212	0xbe3e55d8	-0.18587434
213	0x3e4e4cd0	0.20146489
214	0x3c256899	0.010095739
215	0xbd1a02a1	-0.037600163
216	0x3d817025	0.06320218
217	0x3ce5ba22	0.028042857
218	0xbdf34005	-0.11877445
219	0x3df3563f	0.118816845
220	0x3d89afa9	0.06722958
221	0xbded7fc0	-0.11596632
222	0xbd0a3c88	-0.033749133
223	0x3da69dc7	0.081355624
224	0x3d680d21	0.056653146
225	0xbbce56a2	-0.0062969485
226	0xbd467dd6	-0.04845985
227	0xbe8e28b3	-0.27765426
228	0x3cd347b0	0.02579102
229	0xbdb4633e	-0.088079914
230	0xbd7d68ff	-0.06186771
231	0x3c9aadd7	0.018881721
232	0x3d849712	0.06474127
233	0x3c80cfcc	0.015724085
234	0xbd609260	-0.054827094
235	0xbeadff16	-0.33983678
236	0x3ee87be8	0.45407033
237	0x3d3e6ef6	0.04649254
238	0xbe1fc292	-0.15601566
239	0xbe2e3a39	-0.17014398
240	0x3b6903f0	0.0035555325
241	0xbcdc1b11	-0.026868375
242	0xbed987cd	-0.4248642
243	0x3e997f38	0.29979873
244	0xbaee502e	-0.0018181854
245	0xbdefb047	-0.11703544
246	0xba2fe06a	-0.00067091605
247	0x3e9b2ee7	0.3030922
248	0x3c8cc01e	0.017181452
249	0xbe553377	-0.20820414
250	0xbe51d164	-0.20490032
251	0x3efd32ab	0.4945272
252	0x3dfd2826	0.12361173
253	0xbed6e6f7	-0.41973087
254	0x3e9b0891	0.30279973
255	0x3da605d9	0.08106584

architecture.0.bias f4 [64]
0	0xbf2c547b	-0.67316407
1	0xbf5b5ba9	-0.8568674
2	0x3ee37153	0.44422397
3	0x3f9d2fd5	1.2280222
4	0x3f15d77c	0.5853193
5	0xbf72b2a6	-0.94803846
6	0xbf8a7b13	-1.0818809
7	0x3f7583e4	0.95904374
8	0x3ebc0423	0.36721906
9	0x3fb63876	1.423598
10	0xbf39cb2d	-0.72575647
11	0x3ed43996	0.41450185
12	0x3f98bd74	1.1932817
13	0x3edc3fe9	0.4301751
14	0xbf86bdc3	-1.0526661
15	0x3ea41e54	0.3205439
16	0x3e4d774f	0.20065044
17	0x3f456b21	0.7711659
18	0xbf6dfaff	-0.92961115
19	0xbf6dfaff	-0.92961115
20	0xbf5dd727	-0.8665642
21	0xbf97f567	-1.1871766
22	0xbf86207e	-1.0478666
23	0x3ea24597	0.31693718
24	0xbf17efd3	-0.5935032
25	0x3e194e81	0.14971353
26	0xbfa367ab	-1.2766012
27	0xbf09868d	-0.53720933
28	0xbf31f563	-0.69515055
29	0xbf5eff93	-0.87108725
30	0xbf2b405c	-0.6689508
31	0xbf29f32d	-0.6638668
32	0xbf7ca59d	-0.98690206
33	0x3ed77522	0.42081553
34	0xbf127234	-0.5720551
35	0x3f31698a	0.69301665
36	0x3ef6c19f	0.48194596
37	0xbe7e988e	-0.24862882
38	0xbfa15624	-1.2604413
39	0xbe3b62f2	-0.18299463
40	0x3e0cad72	0.13738039
41	0x3f6f1314	0.93388486
42	0xbf2febd6	-0.6871923
43	0x3f1e6f3c	0.6188848
44	0xbcc57114	-0.024101771
45	0xbf900dc1	-1.1254197
46	0x3f481615	0.78158695
47	0x3f5d4627	0.8643517
48	0xbe2a150c	-0.16609591
49	0x3f2505d2	0.64462006
50	0xbf6245d4	-0.883878
51	0x3f10cd62	0.5656339
52	0xbf865263	-1.0493892
53	0x3f8604b2	1.0470183
54	0x3eb40ae9	0.35164574
55	0xbf84306f	-1.0327281
56	0xbf4d486f	-0.8018865
57	0x3f6bd6ed	0.92124826
58	0x3e14a1d0	0.14514852
59	0xbf6bec9e	-0.92157924
60	0xbd835b03	-0.064138435
61	0xbec65e45	-0.38743797
62	0xbec5d852	-0.38641602
63	0x3ce22d14	0.027609386

architecture.2.weight f4 [64, 64]
0	0xbec71319	-0.38881758
1	0xbf371ba4	-0.7152655
2	0x3e4fe60c	0.203026
3	0xbf05ad98	-0.5221801
4	0x3f1372d8	0.5759711
5	0xbd210abb	-0.039316874
6	0x3d8c4a8c	0.06850156
7	0x3e6bf05e	0.23040912
8	0x3e09b350	0.13447309
9	0xbf2207b0	-0.6329298
10	0xbe5996a3	-0.2124887
11	0xbd6a4755	-0.057196934
12	0xbd4b719b	-0.04966889
13	0x3e698639	0.22805108
14	0x3ef8f30b	0.48622927
15	0x3e8c38be	0.2738704
16	0x3da35569	0.07975275
17	0xbf243174	-0.6413796
18	0x3f15003d	0.5820349
19	0xbddd4a96	-0.10805242
20	0x3d139822	0.036033757
21	0xbee2ac69	-0.44272164
22	0x3f1b87d0	0.6075411
23	0x3db4d37d	0.08829401
24	0xbea165ae	-0.31522888
25	0x3df30162	0.11865498
26	0x3f5328a2	0.82483876
27	0xbde1d51c	-0.110269755
28	0xbdfc1b62	-0.1230991
29	0x3ae48742	0.001743533
30	0x3e1dbb8d	0.15403576
31	0x3c9ff535	0.019526104
32	0x3f0d4322	0.5518056
33	0x3ebe0cea	0.37119228
34	0xbe6b4f3f	-0.22979449
35	0x3ec91728	0.3927548
36	0x3eaa9712	0.33318383
37	0xbe5a6359	-0.2132696
38	0x3ea3f4a8	0.32022595
39	0xbe0ff36e	-0.14057705
40	0x3e94d5bd	0.2906932
41	0x3e6d1cf5	0.23155577
42	0x3e2aa5bc	0.16664785
43	0x3f0f2e7f	0.5593032
44	0x3e51619f	0.20447396
45	0x3f0641f6	0.524444
46	0x3eab9af3	0.33516654
47	0x3e67f57a	0.22652236
48	0x3e97c0c3	0.29639253
49	0x3e07360b	0.1320421
50	0x3e25df3d	0.1619844
51	0x3e7427ac	0.23843259
52	0xbe7c0dce	-0.24614641
53	0x3e98d959	0.29853323
54	0x3ea7d176	0.32776994
55	0x3f3895a0	0.7210331
56	0x3ba3d327	0.0049995366
57	0xb98573e1	-0.00025454073
58	0xbe184539	-0.14870156
59	0x3dd4a3d7	0.103828125
60	0x3cf583b3	0.029970026
61	0x3ed73c48	0.42038178
62	0xbece87d9	-0.4033802
63	0x3e01d63a	0.12679377
64	0xbec53836	-0.38519448
65	0xbf2a57fc	-0.66540504
66	0x3ebcaa55	0.36848703
67	0x3f226d6a	0.634482
68	0x3f0cb482	0.54962933
69	0xbf0688f3	-0.5255272
70	0xbf60de3c	-0.878391
71	0x3ee2e0ee	0.44312233
72	0x3edfa5f1	0.4368129
73	0x3ec473c3	0.3836957
74	0xbf155cab	-0.58344525
75	0x3ee4e09e	0.4470262
76	0x3e24caab	0.16092937
77	0x3e2e3805	0.17013557
78	0xbeee551e	-0.46549314
79	0x3e6bc028	0.2302252
80	0xbc7c7bf5	-0.015410413
81	0x3e9522d3	0.2912813
82	0xbef70571	-0.4824634
83	0xbf826d5d	-1.0189625
84	0xbf056243	-0.5210306
85	0xbf820917	-1.0159024
86	0xbf085102	-0.5324861
87	0xbd9fa657	-0.07795399
88	0xbe825627	-0.25456354
89	0xbd701718	-0.058615774
90	0xbec4a408	-0.38406396
91	0x3e8ce8c0	0.27521324
92	0xbe9eb6d9	-0.30998877
93	0xbf20078a	-0.62511504
94	0xbee7ee25	-0.45298877
95	0xbf14c278	-0.58109236
96	0xbf2fed0c	-0.6872108
97	0x3e649379	0.22321881
98	0xbf037155	-0.51344806
99	0x3f022382	0.5083543
100	0x3e530dcd	0.20610733
101	0xbec21ea6	-0.37914008
102	0xbe3774a6	-0.17915592
103	0xbdf51171	-0.11966217
104	0x3e1ca600	0.15297699
105	0x3eeac915	0.45856538
106	0xbea8dadc	-0.32979476
107	0x3ca4e81f	0.020130215
108	0xbe2ca639	-0.16860284
109	0x3dbe0be7	0.09279614
110	0xbe1df191	-0.15424182
111	0x3ea649b2	0.324781
112	0xbe6e9e2d	-0.23302527
113	0x3e1dbca5	0.15403993
114	0xbee663d7	-0.44998047
115	0xbd18de4e	-0.03732138
116	0xbf0a83ff	-0.5410766
117	0x3f3597d7	0.70934814
118	0xbcb8d960	-0.02256459
119	0xbf3450a3	-0.7043554
120	0xbea3e563	-0.32010946
121	0x3f5369df	0.8258342
122	0xbe8d03ab	-0.2754186
123	0xbefaff26	-0.49022788
124	0xbe14d007	-0.14532481
125	0xbe98ace4	-0.29819405
126	0x3d8e6fe0	0.06954932
127	0x3a263f18	0.0006341799
128	0x3f0b4058	0.54395056
129	0x3f26c501	0.65144354
130	0xbee66cb3	-0.45004806
131	0xbf704526	-0.9385551
132	0xbeb0e00c	-0.34545934
133	0x3f1b98c0	0.60779953
134	0x3f1c86e9	0.61143357
135	0xbf23793e	-0.63856876
136	0xbeeb6f16	-0.4598319
137	0xbf274c0c	-0.65350413
138	0x3eb257d3	0.3483263
139	0xbeae7814	-0.34075987
140	0xbe2c913c	-0.16852278
141	0xbeb9f070	-0.36316252
142	0x3ef9ac2f	0.48764178
143	0xbf0ece3e	-0.5578345
144	0xbe359a14	-0.17734557
145	0xbe421da6	-0.18956622
146	0x3f4ad4df	0.79231066
147	0x3f3d89cf	0.74038404
148	0x3e4d0456	0.20021185
149	0x3f5fcac9	0.874188
150	0x3e639635	0.22225268
151	0xbdb7cb96	-0.08974378
152	0x3e97c58b	0.296429
153	0xbd9938ed	-0.07481561
154	0x3ec8102b	0.39074835
155	0xbe015d20	-0.1263318
156	0x3de83680	0.1133852
157	0x3f0a32da	0.53983843
158	0x3f3595d7	0.7093176
159	0x3f114334	0.5674317
160	0x3f550642	0.83212674
161	0xbc2888a6	-0.010286486
162	0x3f02f283	0.51151294
163	0xbeb612b7	-0.35561153
164	0xbe8aa0f5	-0.27075925
165	0x3f226111	0.6342936
166	0xbddcc9fc	-0.10780713
167	0x3ea4ee47	0.3221304
168	0x3dfc9913	0.12333884
169	0xbf54d2a7	-0.8313393
170	0x3ed05b32	0.40694577
171	0xbd3171ff	-0.043321606
172	0xbe2df88d	-0.16989346
173	0xbe1bb1c3	-0.1520453
174	0xbd40d77e	-0.04708051
175	0xbf03c1b2	-0.5146743
176	0x3d1426e0	0.036169887
177	0xbdf5d1a1	-0.12002874
178	0xbc731bdd	-0.014838186
179	0xbebe6d83	-0.37192926
180	0x3f0d1420	0.55108833
181	0xbf327251	-0.69705683
182	0xbe021ed7	-0.12707077
183	0x3e0063be	0.12538049
184	0x3f27ea69	0.65592057
185	0xbfb6f1cf	-1.4292544
186	0x3eda1cc5	0.42600074
187	0x3f4f6bea	0.8102404
188	0x3e863bb7	0.26217434
189	0x3ef652cb	0.4811004
190	0xbdbc1a6d	-0.09184728
191	0x38a5860c	7.892781e-05
192	0x3e0e8d8a	0.1392118
193	0x3e5bed31	0.214772
194	0xbe408381	-0.18800165
195	0x3f2d29b7	0.67641777
196	0x3e375cde	0.1790652
197	0x3eba9b10	0.36446428
198	0x3e7e7e63	0.248529
199	0xbe5ad301	-0.21369554
200	0x3ed17e5a	0.4091671
201	0x3f16f908	0.5897374
202	0x3da5044a	0.08057459
203	0xbe6f1717	-0.23348652
204	0x3e9aa41d	0.30203333
205	0xbf045193	-0.5168697
206	0xbf3bf501	-0.7342072
207	0x3e663d68	0.22484362
208	0x3ec91b21	0.3927851
209	0xbef54a9b	-0.47908482
210	0xbf06784e	-0.5252732
211	0x3ea74f0e	0.326775
212	0x3ea6950f	0.32535598
213	0x3e8c4f4b	0.27404246
214	0xbf180e48	-0.5939679
215	0xbe61b8ce	-0.22043154
216	0x3f35f4e3	0.7107679
217	0xbeab6b79	-0.33480433
218	0xbf3ce68f	-0.73789304
219	0x3ee67545	0.45011345
220	0xbee8ae86	-0.4544565
221	0x3e9ec56f	0.31010005
222	0x3d909257	0.07059162
223	0x3eddabc9	0.43295124
224	0xbecdbfa2	-0.40185267
225	0x3c68a366	0.0141991135
226	0x3ef7ed58	0.48423266
227	0xbc2d5c68	-0.010581113
228	0xbe165f15	-0.14684708
229	0x3de093f2	0.10965718
230	0xbd81cefc	-0.06338307
231	0x3e112666	0.14174804
232	0x3b6688d4	0.003517677
233	0x3ee52359	0.4475353
234	0xbe8e0b7c	-0.27743137
235	0x3ec8a56d	0.3918871
236	0x3e7329c9	0.23746409
237	0xbf3bf14b	-0.7341506
238	0x3ec9e940	0.39435768
239	0x3ebee099	0.3728073
240	0x3d0b3c0c	0.033992812
241	0xbe941d56	-0.28928632
242	0xbee2f79f	-0.44329545
243	0xbe7c6f21	-0.24651767
244	0x3f174f32	0.5910522
245	0xbf0e00b2	-0.5546981
246	0x3e090ef3	0.13384609
247	0xbf1f46ec	-0.62217593
248	0x3e96e4e1	0.29471496
249	0xbec697b3	-0.38787612
250	0xbe488f38	-0.19585884
251	0xbdb730d9	-0.08944864
252	0xbdfebdb1	-0.124385245
253	0xbe0771a3	-0.13226943
254	0xbe0f5aac	-0.13999432
255	0xbeaaee21	-0.33384803

architecture.2.bias f4 [64]
0	0x3eb00e9c	0.34386146
1	0x3f7d993c	0.9906194
2	0xbf9d2ca1	-1.2279245
3	0xbea6ff21	-0.32616523
4	0x3e173bd4	0.14768916
5	0xbf8fb2e1	-1.1226465
6	0x3f8cf74b	1.1012968
7	0xbf2ff1e6	-0.6872848
8	0xbfa0b28e	-1.255449
9	0x3f0ca51d	0.5493944
10	0x3f06398b	0.52431554
11	0xbfa0e873	-1.2570938
12	0xbf5f8b60	-0.87322044
13	0x3ece7c46	0.40329188
14	0x3e1c3863	0.15255885
15	0x3ee74561	0.4517012
16	0x3f9cd534	1.2252564
17	0x3eec674b	0.46172556
18	0xbeb46e6d	-0.35240498
19	0x3f96ac8d	1.1771408
20	0x3e8cc0dc	0.2749089
21	0xbef83fd0	-0.48486185
22	0x3ec6cceb	0.38828215
23	0x3fa2c6e6	1.2716949
24	0xbebfb8d1	-0.3744569
25	0x3ee894a9	0.4542592
26	0x3fa6c27a	1.30281
27	0xbe0adf27	-0.13561688
28	0xbf45484a	-0.7706343
29	0xbea22f69	-0.31676796
30	0xbf9ad67a	-1.2096703
31	0xbf20cae1	-0.6280957
32	0xbf89e3cc	-1.0772643
33	0x3e7dfff8	0.24804676
34	0x3ed26746	0.41094416
35	0xbf9870b3	-1.1909393
36	0xbf8372c0	-1.0269394
37	0x3fb565fb	1.4171747
38	0xbed41ec3	-0.4142972
39	0xbf3c4546	-0.735432
40	0xbe9734d2	-0.29532486
41	0xbf9ef700	-1.2419128
42	0xbf15e7bb	-0.5855672
43	0x3ee94a7f	0.45564649
44	0xbf9186b4	-1.1369233
45	0x3ef76455	0.48318735
46	0xbe477a4b	-0.19480245
47	0x3f55d524	0.8352835
48	0xbe92649f	-0.28592393
49	0x3f946547	1.1593407
50	0x3fb1df97	1.3896359
51	0xbebd8692	-0.37016732
52	0xbf9d0437	-1.2266911
53	0xbf4ffb8a	-0.81243193
54	0xbf05d0e7	-0.52271885
55	0x3ec19ec6	0.37816447
56	0x3ea4eba7	0.32211038
57	0x3eff95c2	0.49918944
58	0xbebc6138	-0.36792922
59	0x3f3ed39a	0.7454163
60	0xbf27d735	-0.65562755
61	0x3f119b69	0.5687776
62	0xbf9362d5	-1.1514536
63	0x3f9c4176	1.2207477

architecture.4.weight f4 [1, 64]
0	0xc0ff242b	-7.973165
1	0xc0a3670e	-5.10633
2	0x40a284a9	5.078694
3	0x40fe011a	7.9376345
4	0xc0e4157b	-7.127622
5	0x40a1c5e8	5.0554085
6	0xc0a0d4f9	-5.0259976
7	0x40a3bcb7	5.1167865
8	0x40a3fdf0	5.124748
9	0xc0a82a5d	-5.2551713
10	0xc0a1daac	-5.0579433
11	0x40a51c5b	5.1597114
12	0x40a50661	5.1570287
13	0xc10071be	-8.027769
14	0xc0d32fe9	-6.5995984
15	0xc0d290c7	-6.580173
16	0xc0a87f54	-5.265543
17	0xc0f7c151	-7.742348
18	0x40cf27c3	6.4736037
19	0xc0a7ebfe	-5.2475576
20	0xc0dc03b0	-6.87545
21	0x40d1cde8	6.556385
22	0xc0d4270b	-6.629766
23	0xc0a38d8e	-5.1110296
24	0x40d74bd1	6.728005
25	0xc1055fce	-8.33589
26	0xc0a0bbeb	-5.022939
27	0x40eabed9	7.335797
28	0x40a90d50	5.282875
29	0x40d77ee8	6.7342415
30	0x40a29c46	5.0815763
31	0x40fba35a	7.8636904
32	0x40a100dc	5.031355
33	0xc0e4ad40	-7.1461487
34	0xc0f57865	-7.6709466
35	0x40a0399e	5.0070333
36	0x40a1cc9f	5.056228
37	0xc0a1453e	-5.0397024
38	0x40a79f64	5.238207
39	0x40a4348a	5.1314135
40	0x40d21b8a	6.5658617
41	0x409f935c	4.986738
42	0x40a38882	5.1104136
43	0xc0b3e488	-5.621647
44	0x40a4a222	5.1447916
45	0xc0f3d579	-7.6198087
46	0x40c1fc50	6.06205
47	0xc0ab140b	-5.3461967
48	0x40cf0374	6.4691715
49	0xc0a28a2c	-5.0793667
50	0xc0a0346b	-5.0063987
51	0x40f59670	7.674614
52	0x409ffbac	4.9994717
53	0x40aa83a8	5.3285713
54	0x40a53244	5.162386
55	0xc1028143	-8.156558
56	0xc0f7332f	-7.724998
57	0xc0ab2bfc	-5.349119
58	0x40f08b18	7.516979
59	0xc0ad4fe4	-5.4160023
60	0x40b83598	5.756542
61	0xc0a59271	-5.174126
62	0x409e89ee	4.954337
63	0xc0a5a142	-5.175935

exp_avg f4 [64, 27]
0	0x3861305e	5.3689226e-05
1	0x370fd835	8.573804e-06
2	0x37e50ce2	2.7304926e-05
3	0xb7325b54	-1.0630891e-05
4	0xb7ff89b0	-3.0462485e-05
5	0x38e67e30	0.00010990759
6	0xb87fc41b	-6.0979375e-05
7	0xb8a6beb5	-7.951019e-05
8	0x38a698ab	7.9439335e-05
9	0xb85db1ff	-5.2856278e-05
10	0xb8c7b3f0	-9.5225754e-05
11	0xb88b2487	-6.63484e-05
12	0xb7f14e79	-2.876598e-05
13	0x37b7352f	2.1840066e-05
14	0x370871bb	8.132712e-06
15	0xb7f3b0eb	-2.9050241e-05
16	0x376dd8dd	1.4176793e-05
17	0x37fa1059	2.9809935e-05
18	0xb74cd1fa	-1.22082365e-05
19	0xb81255be	-3.4888966e-05
20	0x38d48168	0.000101330515
21	0xb88e6730	-6.790308e-05
22	0xb8b4bccc	-8.618235e-05
23	0x38b6d42d	8.717957e-05
24	0xb852937a	-5.020525e-05
25	0xb8d6a178	-0.00010234391
26	0xb884e05a	-6.336039e-05
27	0x37204d69	9.554767e-06
28	0xb727a232	-9.99174e-06
29	0x367504c7	3.6510626e-06
30	0xb6e30daf	-6.76672e-06
31	0x3715d639	8.93097e-06
32	0x372a3414	1.0144915e-05
33	0xb7327b11	-1.063828e-05
34	0xb610863e	-2.1535811e-06
35	0x358dd12b	1.0566195e-06
36	0x379baade	1.8557006e-05
37	0xb5f6fdfc	-1.8402347e-06
38	0xb7261efb	-9.901584e-06
39	0x37369c16	1.0884387e-05
40	0xb7917daf	-1.7343873e-05
41	0x3705761a	7.954915e-06
42	0x3777737c	1.4749236e-05
43	0x3613383e	2.1937444e-06
44	0xb5939890	-1.0996755e-06
45	0xb6d2a712	-6.2779372e-06
46	0x372744ad	9.9699655e-06
47	0x36b82e80	5.4890406e-06
48	0xb730231e	-1.0498594e-05
49	0x363d90ea	2.8247546e-06
50	0x36348b5b	2.6903206e-06
51	0x37917784	1.7341e-05
52	0xb6e4dac8	-6.820399e-06
53	0xb69638c6	-4.4769577e-06
54	0xb661ba33	-3.3635995e-06
55	0x377b9819	1.4996179e-05
56	0x3750824f	1.2428106e-05
57	0x3792b441	1.7488494e-05
58	0x3597bb3c	1.1304869e-06
59	0xb71117bc	-8.6482e-06
60	0x37c81d02	2.3855366e-05
61	0x37052e3b	7.938182e-06
62	0x380c59a6	3.3462093e-05
63	0xb75cfed3	-1.3172353e-05
64	0xb8056752	-3.1805896e-05
65	0x37b374a9	2.1392787e-05
66	0xb79bfb1b	-1.859437e-05
67	0x380558bf	3.1792322e-05
68	0xb7e00fa2	-2.671016e-05
69	0x3734b445	1.0770808e-05
70	0x36f6b4b6	7.352409e-06
71	0x370bec8c	8.340121e-06
72	0x3767645f	1.3792042e-05
73	0xb706e519	-8.040363e-06
74	0xb7271b65	-9.960354e-06
75	0x37d00124	2.4796063e-05
76	0xb6a8caae	-5.030385e-06
77	0x381bcc4d	3.714515e-05
78	0xb7149312	-8.85573e-06
79	0xb7b8bf24	-2.2023516e-05
80	0x376e22fd	1.4194052e-05
81	0x37057682	7.95501e-06
82	0xb7cbb5a1	-2.4284063e-05
83	0x37a55a8f	1.9711702e-05
84	0x3815b2f4	3.569103e-05
85	0x3892427f	6.9742084e-05
86	0xb57cee1a	-9.42238e-07
87	0xb8276d99	-3.9917973e-05
88	0xb70bbab6	-8.328518e-06
89	0xb815be1c	-3.570142e-05
90	0x37c33100	2.3268629e-05
91	0xb7c8c843	-2.3935112e-05
92	0x3400974a	1.1975968e-07
93	0xb7835180	-1.5654368e-05
94	0x36f30b61	7.243289e-06
95	0xb7c2af79	-2.3208313e-05
96	0x373ba416	1.1184273e-05
97	0xb63b38c2	-2.7898209e-06
98	0xb7939549	-1.7593282e-05
99	0x3823572f	3.8943424e-05
100	0x388c8702	6.7008674e-05
101	0xb6f9f3b0	-7.4491472e-06
102	0xb83d427d	-4.5123033e-05
103	0xb720602b	-9.559134e-06
104	0xb825948f	-3.947742e-05
105	0x37b1762a	2.1155069e-05
106	0xb7d9c549	-2.5960284e-05
107	0x3593a8f6	1.1001528e-06
108	0x372901f9	1.0073644e-05
109	0x36efe4af	7.1493773e-06
110	0x36ebf109	7.031606e-06
111	0x3821c1b5	3.8565795e-05
112	0x3789670a	1.6379654e-05
113	0xb7b4be6a	-2.154634e-05
114	0xb511d47a	-5.4325903e-07
115	0x37a67566	1.984341e-05
116	0xb811abad	-3.473058e-05
117	0xb6ff9855	-7.617326e-06
118	0xb7089147	-8.140057e-06
119	0x381eb0fb	3.783496e-05
120	0xb7302606	-1.04992705e-05
121	0xb6afb420	-5.2363757e-06
122	0xb82779bf	-3.9929288e-05
123	0xb7134749	-8.77848e-06
124	0xb81a53c0	-3.679446e-05
125	0xb7f819bb	-2.9575885e-05
126	0x37ffe2b2	3.0503932e-05
127	0x379f900e	1.9021358e-05
128	0xb77b56d2	-1.498098e-05
129	0xb4ef3564	-4.4556066e-07
130	0x37940176	1.7643655e-05
131	0xb8344e99	-4.2988544e-05
132	0xb699306a	-4.5653915e-06
133	0xb64b4e51	-3.0294943e-06
134	0x38122358	3.484203e-05
135	0xb7230fa1	-9.719196e-06
136	0xb74c5084	-1.2178094e-05
137	0x368e9b23	4.24999e-06
138	0xb7f3ea5d	-2.9076991e-05
139	0x388c22c2	6.682194e-05
140	0x374cc41a	1.2205006e-05
141	0xb87ea441	-6.0711292e-05
142	0xb7e45612	-2.7219798e-05
143	0xb890c96b	-6.903972e-05
144	0xb7e535d1	-2.7323988e-05
145	0x372dd274	1.03606035e-05
146	0xb5d96328	-1.6196618e-06
147	0x37c35b9c	2.328847e-05
148	0x37585461	1.2894249e-05
149	0x371b2692	9.2477e-06
150	0xb790ab11	-1.7245797e-05
151	0xb6d52e6f	-6.3533003e-06
152	0xb6ba9a20	-5.5611745e-06
153	0xb7a72253	-1.9923935e-05
154	0x38959d7c	7.1342074e-05
155	0x3789349b	1.6356169e-05
156	0xb88586fe	-6.3670785e-05
157	0xb7c10f8f	-2.3014638e-05
158	0xb89190e3	-6.941126e-05
159	0xb7cf558f	-2.4716164e-05
160	0x371a2e75	9.189932e-06
161	0x36ea897b	6.9897483e-06
162	0x3727f745	1.0011548e-05
163	0xb6a07390	-4.781825e-06
164	0xb854e2dd	-5.075602e-05
165	0x37a91272	2.015496e-05
166	0x380eac37	3.4015826e-05
167	0xb8646bb6	-5.445975e-05
168	0xb87960bd	-5.945632e-05
169	0x36d3e39e	6.314788e-06
170	0xb72666f4	-9.918342e-06
171	0xb701a443	-7.727244e-06
172	0xb81c6488	-3.7286925e-05
173	0xb78bace5	-1.6650602e-05
174	0x3789d809	1.6432272e-05
175	0xb71a413d	-9.194305e-06
176	0x38189261	3.637595e-05
177	0x37854293	1.5885837e-05
178	0x37ced39c	2.4655652e-05
179	0x37d8c0b0	2.5838934e-05
180	0x3740839d	1.1474735e-05
181	0x381afdb2	3.6952733e-05
182	0xb87bc6c2	-6.002817e-05
183	0xb874eddc	-5.8395657e-05
184	0x378e51f9	1.696589e-05
185	0xb70765b0	-8.070303e-06
186	0xb7537273	-1.2603227e-05
187	0xb84d11fa	-4.889255e-05
188	0xb63deb6d	-2.830023e-06
189	0x370e2b1d	8.473898e-06
190	0xb6b4a709	-5.3838635e-06
191	0xb6b36f2a	-5.347557e-06
192	0x3609489c	2.0456855e-06
193	0x367d2923	3.7723883e-06
194	0xb6a4f7ff	-4.9164514e-06
195	0xb6e25165	-6.7448004e-06
196	0xb7216aa5	-9.621178e-06
197	0x377b7bda	1.4989602e-05
198	0x375eb439	1.32741925e-05
199	0xb7e7edf3	-2.764815e-05
200	0xb6a954b3	-5.0464528e-06
201	0xb790aa6c	-1.7245497e-05
202	0x37c1e4de	2.3113967e-05
203	0xb74412fb	-1.168693e-05
204	0xb73d2d59	-1.1275836e-05
205	0x36ab9d9b	5.114545e-06
206	0x3621f51f	2.4133549e-06
207	0xb6663f28	-3.4309433e-06
208	0x36b4d173	5.388801e-06
209	0xb680f92f	-3.843706e-06
210	0xb73dda2e	-1.1316077e-05
211	0xb63bba4b	-2.7973608e-06
212	0x370ce97e	8.399014e-06
213	0x3704ac03	7.907863e-06
214	0xb7e6f9a0	-2.7534377e-05
215	0xb552425e	-7.8327673e-07
216	0x37b5c3cc	2.1668056e-05
217	0x381983aa	3.6600664e-05
218	0xb7c47823	-2.3420964e-05
219	0x37b7bafa	2.1902368e-05
220	0xb7fbbd04	-3.0009549e-05
221	0x3739e3ed	1.1079927e-05
222	0xb78638fa	-1.6000577e-05
223	0xb781dd20	-1.5480968e-05
224	0x384497fd	4.687159e-05
225	0xb82acc18	-4.0721236e-05
226	0xb7d69ddf	-2.5584302e-05
227	0xb808db78	-3.2629323e-05
228	0x37a3c807	1.952426e-05
229	0x371605e2	8.942066e-06
230	0x36ad5fd6	5.1669585e-06
231	0x3889e274	6.574849e-05
232	0xb7aa8606	-2.0327989e-05
233	0x37d419b6	2.5284342e-05
234	0x37d3849f	2.5214917e-05
235	0xb7f4cfb0	-2.9183779e-05
236	0x3716e74c	8.99455e-06
237	0xb794e80d	-1.7751032e-05
238	0xb7d0a2fd	-2.487143e-05
239	0x385e213d	5.295988e-05
240	0xb81f9f0b	-3.8056674e-05
241	0xb7a50a78	-1.9674408e-05
242	0xb7786911	-1.4806415e-05
243	0xb710e41a	-8.636178e-06
244	0xb7a6677d	-1.9836933e-05
245	0x369dab53	4.6989094e-06
246	0x368313a9	3.906393e-06
247	0xb4a322eb	-3.0386522e-07
248	0xb7c6fe36	-2.3721816e-05
249	0x377f601c	1.5221562e-05
250	0x3740d8e6	1.1494592e-05
251	0xb7493f0f	-1.1995216e-05
252	0x373bbd3e	1.119013e-05
253	0xb75f82b6	-1.3322269e-05
254	0x37210940	9.5985015e-06
255	0xb7f95a95	-2.9725294e-05
