raisimGymTorch/data/ouzel_only_planning/2022-05-09-12-17-53/full_92000.pt (torch, 162032 bytes, 36 tensors)

architecture.0.weight f4 [64, 27]
-0.07526657 -0.700978 -0.038830075 0.56396234 -0.1614824 -0.089760475 0.19493753 0.39097437
0.10854587 0.18245228 0.10271404 -0.05341092 0.5126216 -0.58024865 -0.85578495 -0.07317937
1.5995007 1.4596277 0.4083372 -0.31095085 0.044128157 0.5909065 0.04900968 0.015269019
0.3535212 -0.24815585 0.10193922 -0.13334586 -0.016700871 -0.17463519 -0.26769492 0.032781653
-0.107576914 0.040976673 -0.056309965 -0.07949642 0.14397159 -0.1358515 0.21991433 -1.7164534
-0.43258426 -0.6475034 0.77267843 -0.0151067795 0.8619105 -0.17326495 -0.051290836 0.079963185
0.13870113 -0.15705241 0.14191449 -0.40199414 -0.0509499 -0.28127673 0.29420653 0.5680925
0.3518528 0.63694704 0.2891358 0.46903977 -0.38850352 -0.23251426 -0.57510823 -0.15007819
-0.35650447 -0.1331174 -0.49305233 0.7319168 -0.5307799 -0.01906118 -0.31757423 0.6325536
0.05484167 0.21411212 0.7370896 -0.2508422 0.043156177 -0.19389145 -0.22251368 -0.34958744
-0.2160895 -0.97966075 -0.84594595 -0.092846595 -0.12934376 -0.40804783 -0.013384803 -0.23551543
0.06492127 -0.21012501 0.0888663 -0.34890968 0.05624459 -2.2450187 0.220181 1.2090806
-0.08069032 -0.23044403 -0.19287989 -0.1703786 -0.41339853 -0.35539672 0.0040806266 0.04245845
-0.1859457 0.29235056 0.014366007 -0.08805585 0.6052403 0.42388505 -0.53942364 0.3352948
-0.25881827 -0.49296257 0.4033767 0.1687239 0.066716716 -0.27496865 -0.390121 -0.18848605
0.598372 0.5972645 0.85767776 -0.21140069 -0.016736299 0.41173285 0.1862594 0.1113105
-0.59799135 0.3710227 0.20412576 0.14232975 -0.08992367 -0.22701682 -0.27854842 0.16132832
-0.12751807 -0.5099074 -0.15512727 -0.33294687 -0.25924212 0.012700227 -0.3898981 -0.39638397
-0.06306395 0.435818 0.15612237 -0.24826519 0.9158655 0.6323666 0.79890704 0.34315056
-0.43778887 -0.27860305 -0.5394437 -0.7762044 0.22368807 -0.7966884 -0.27701148 0.017548675
0.48171836 -0.10361016 0.15596749 -0.6113602 -0.6257781 0.09888133 -0.4219674 -0.074831225
-0.15739585 0.0067729927 -0.54167396 0.47517627 0.027013438 0.140236 -0.08112504 1.0761178
0.49205914 0.64494675 -0.29835382 -0.9038576 -0.14348602 -0.122677885 -0.24473298 -0.08939894
-0.012220715 0.049299493 0.27975205 0.33986664 -0.091131516 0.38197985 -0.46820423 -0.58078307
0.17123824 -0.091718026 -0.21002218 0.29418087 0.4886138 -0.48473734 0.0576917 -0.10613209
0.5941817 0.349581 1.1891439 -0.9073896 0.17193215 0.3757957 -0.04527113 -0.40278703
0.20386614 -0.03331547 -0.067932576 0.061697073 -0.49956778 0.21893969 -0.105440386 0.65128016
-0.14274032 0.53002053 0.45097598 -0.565359 0.27984086 0.30695176 0.17227651 -0.08150307
-0.06973398 -0.29557613 -0.057828512 0.39224517 0.24757549 -0.4465762 1.6035993 -0.02274172
0.36732295 0.24076559 0.2382494 -0.30949655 -0.2117441 0.23195548 0.09694072 -0.0035915528
-0.48844436 -0.078193545 -0.051292494 0.2499311 0.35954976 0.19624391 -0.5411813 0.64445204
0.44080177 0.32349226 -0.20844828 -0.84605414 -0.15534493 0.28725424 -0.43595803 -1.503287
00000000: 5c25 9abd 4b73 33bf 490c 1fbd d65f 103f
00000010: a45b 25be 57d4 b7bd b49d 473e cb2d c83e
00000020: 4c4d de3d c5d4 3a3e bd5b d23d 69c5 5abd
00000030: 2b3b 033f 2d8b 14bf b914 5bbf 11df 95bd
00000040: 70bc cc3f 15d5 ba3f 9311 d13e f334 9fbe
00000050: babf 343d a645 173f 60be 483d e82a 7a3c
00000060: bb00 b53e 911c 7ebe 83c5 d03d d18b 08be
00000070: 44d0 88bc 91d3 32be 4f0f 89be 0e46 063d
00000080: 4951 dcbd 28d7 273d 47a5 66bd 05cf a2bd
00000090: 4a6d 133e a81c 0bbe 3931 613e bfb4 dbbf
000000a0: af7b ddbe c8c2 25bf 41ce 453f 6d82 77bc
000000b0: 2ba6 5c3f 5e6c 31be 5716 52bd bdc3 a33d
000000c0: ab07 0e3e 59d2 20be 0852 113e 2dd2 cdbe
000000d0: d8b0 50bd 8103 90be 3da2 963e 836e 113f
000000e0: 0d26 b43e f60e 233f 9c09 943e fb25 f03e
000000f0: efe9 c6be 3818 6ebe 4b3a 13bf 19ae 19be
00000100: c187 b6be ed4f 08be 5b71 fcbe e65e 3b3f
00000110: 31e1 07bf 3126 9cbc 1799 a2be 08ef 213f
00000120: a9a1 603d 3540 5b3e e7b1 3c3f 646e 80be
00000130: 88c4 303d 7b8b 46be a0da 63be 20fd b2be
00000140: 9146 5dbe 0ccb 7abf ea8f 58bf 5b26 bebd
00000150: b172 04be a5eb d0be ef4b 5bbc f52a 71be
00000160: 71f5 843d 032b 57be 89ff b53d 4aa4 b2be
00000170: ba60 663d 63ae 0fc0 2177 613e 27c3 9a3f
00000180: f740 a5bd 85f9 6bbe 4e82 45be ba77 2ebe
00000190: f9a8 d3be 8ff6 b5be c7b6 853b e9e8 2d3d
000001a0: 8d68 3ebe f9ae 953e 675f 6b3c a056 b4bd
000001b0: 07f1 1a3f 7607 d93e ab17 0abf c3ab ab3e
000001c0: d483 84be 9765 fcbe 6487 ce3e f5c5 2c3e
000001d0: c6a2 883d b1c8 8cbe f1bd c7be 7d02 41be
000001e0: e82e 193f 54e6 183f c590 5b3f 6c79 58be
000001f0: 901a 89bc a6ce d23e c9ba 3e3e c2f6 e33d
00000200: f615 19bf b0f6 bd3e 5806 513e e4be 113e
00000210: e729 b8bd 1977 68be e69d 8ebe 4033 253e
00000220: 1994 02be 4b89 02bf afd9 1ebe 0378 aabe
00000230: 62bb 84be 9d14 503c b9a0 c7be d7f2 cabe
00000240: ac27 81bd 8923 df3e 8bde 1f3e 3b39 7ebe
00000250: 2976 6a3f c7e2 213f 2c85 4c3f 6eb1 af3e
00000260: dd25 e0be 0fa5 8ebe fb18 0abf 55b5 46bf
00000270: 7c0e 653e c5f3 4bbf 73d4 8dbe 3dc2 8f3c
00000280: caa3 f63e 9031 d4bd f1b5 1f3e 1a82 1cbf
00000290: fe32 20bf 4b82 ca3d 1c0c d8be 1d41 99bd
000002a0: 612c 21be fbef dd3b 25ab 0abf 4e4a f33e
000002b0: 494b dd3c 079a 0f3e e324 a6bd 3abe 893f
000002c0: 2def fb3e 3b1b 253f d5c1 98be 3663 67bf
000002d0: 00ee 12be 8b3e fbbd 489b 7abe cb16 b7bd
000002e0: 6539 48bc 44ee 493d a93b 8f3e 0003 ae3e
000002f0: 29a3 babd dd92 c33e 77b8 efbe 33ae 14bf
00000300: 1459 2f3e a9d6 bbbd 0e10 57be e09e 963e
00000310: 972b fa3e 7e2f f8be 224e 6c3d c85b d9bd
00000320: 4b1c 183f 48fc b23e de35 983f af4a 68bf
00000330: fb0e 303e 4b68 c03e 386e 39bd 1a3a cebe
00000340: 49c2 503e cd75 08bd 3c20 8bbd 12b6 7c3d
00000350: 59c7 ffbe ba31 603e 21f1 d7bd 4cba 263f
00000360: 852a 12be 6daf 073f 53e6 e63e 5ebb 10bf
00000370: 4d47 8f3e c828 9d3e 4169 303e 15eb a6bd
00000380: b0d0 8ebd c155 97be 97dd 6cbd 5cd4 c83e
00000390: 6e84 7d3e a3a5 e4be be42 cd3f d84c babc
000003a0: c111 bc3e 418b 763e a7f7 733e 5576 9ebe
000003b0: 72d3 58be bd85 6d3e db88 c63d 4260 6bbb
000003c0: 6115 fabe f023 a0bd 1418 52bd f0ed 7f3e
000003d0: e816 b83e 2af4 483e dc8a 0abf cffa 243f
000003e0: c5b0 e13e c7a0 a53e 7773 55be 0197 58bf
000003f0: be12 1fbe fd12 933e e435 dfbe b56b c0bf

architecture.0.bias f4 [64]
0.52043676 -0.712969 1.356219 0.22192681 0.31340808 -0.8104575 -1.1395785 -1.3094337
-1.1407108 0.44938594 -0.6009221 0.56672686 1.5538883 -1.5631359 1.3269291 1.5668696
-0.83191514 -0.4466708 -1.2232474 0.5805595 1.921689 -1.0797563 0.9265798 -1.3045367
0.21790442 0.7175266 0.091690734 -1.8524777 -0.81504387 0.0688774 -0.033601392 -1.0978117
-1.3784628 -1.2428571 -1.1221387 0.33205703 1.2547166 -0.55052835 0.89290434 -0.27580008
-0.88903135 -0.69158757 1.6167738 -1.0098159 -0.27654105 0.46490356 -0.12292353 -0.6606447
0.48206735 1.2164115 1.1912711 1.0284503 0.20748729 -1.5155717 -0.7607493 0.60414976
-0.7073155 -1.4320077 1.5593638 1.6470346 1.6792705 1.4175888 -0.11191015 0.21568358
00000000: 583b 053f 2385 36bf 9698 ad3f c840 633e
00000010: 0677 a03e 257a 4fbf b5dd 91bf 869b a7bf
00000020: d002 92bf ea15 e63e 08d6 19bf 0315 113f
00000030: d0e5 c63f d614 c8bf d0d8 a93f 2f8f c83f
00000040: 64f8 54bf 09b2 e4be 5f93 9cbf 8c9f 143f
00000050: e8f9 f53f 7435 8abf 5534 6d3f 0ffb a6bf
00000060: 5622 5f3e d3af 373f 5ac8 bb3d fd1d edbf
00000070: b7a6 50bf 980f 8d3d 9da1 09bd 1885 8cbf
00000080: 7871 b0bf f115 9fbf 3ea2 8fbf 6103 aa3e
00000090: 8e9a a03f 6def 0cbf 6195 643f ab35 8dbe
000000a0: 8f97 63bf e20b 31bf 72f2 ce3f a641 81bf
000000b0: ca96 8dbe d707 ee3e 55bf fbbd 0320 29bf
000000c0: 88d1 f63e 5fb3 9b3f 927b 983f 42a4 833f
000000d0: 8c77 543e 41fe c1bf 77c0 42bf 8fa9 1a3f
000000e0: a112 35bf 074c b7bf 3c99 c73f 08d2 d23f
000000f0: 56f2 d63f 8d73 b53f 2631 e5bd 28dc 5c3e

architecture.2.weight f4 [64, 64]
0.04807804 0.36470467 -0.45200765 0.07679819 -0.057535794 0.10623005 0.33324742 0.4303908
0.6090887 0.044627998 0.18229689 -0.15487668 -0.6002447 0.03421605 -0.40112144 -0.23025905
-0.0013628617 0.013433463 0.7525607 -0.05347949 -1.0692178 0.38478434 -0.53220904 0.56804496
-0.0155969355 0.12325314 0.034438655 0.52795094 0.4206452 0.086603776 -0.14814319 0.16031279
0.24098854 0.34607294 0.21175288 0.09293428 -0.30870572 -0.19153272 -0.39074588 0.05069878
0.19350117 0.19593586 -0.09842995 0.375481 -0.18572037 -0.40989792 0.023425369 0.3061479
0.34625563 -0.030002752 -0.3686465 0.5096732 -0.020862533 0.20628452 0.46521622 0.6249385
0.13767624 0.3879441 -1.0331306 -0.4509135 -0.6126586 -0.82441866 -0.30435348 0.22282954
0.0002994097 -0.26561484 0.09169613 0.38826934 -0.11698607 -0.02750965 -0.1424193 -0.65347594
0.7382148 0.09376753 0.03894346 -0.051871706 -0.047815703 0.67937076 0.48055 0.24082899
0.05192585 0.10003591 -0.46258703 0.05967921 0.8822686 0.33037406 0.009072365 -0.23275863
0.18699968 0.4675557 -0.0067253117 -0.10691474 0.8852932 0.42944795 -0.11728388 0.6594481
-0.41388392 -0.17791168 -0.07848537 0.11940647 0.022789352 -0.10765888 -0.20625743 0.10859327
0.21166418 -0.030436026 -0.31972435 0.3030775 -0.035462394 -0.16038929 -0.073376745 0.00991322
0.07608558 -0.43851343 0.06849923 0.27924773 -0.3329789 1.0404006 0.20880017 -0.09333879
0.25756156 0.6715439 -0.0059397495 0.6656515 0.9439599 -0.2813269 0.3531747 0.008852834
0.3298398 -0.5117688 0.06119816 -0.39582473 -0.20495458 -0.09622396 0.14224513 -0.503475
-0.4877101 0.0074745486 0.0037777333 0.022973081 -0.21757106 -0.05438489 -0.03843111 -0.325451
-0.4361789 0.6564275 -0.6186346 -0.4572624 1.009685 -0.8353214 -0.11327983 0.078985326
0.42849526 -0.18713287 0.738156 0.46619174 -0.112861566 -0.6584859 0.8702777 -0.9914043
0.19442041 0.5134061 -0.74324113 0.14310722 0.48811376 -0.34906733 0.1941292 0.8164163
0.53535205 -0.36483333 0.2995391 -1.3112673 0.13255383 0.63072747 -0.4209449 -0.5109389
-0.0057150694 0.5248796 -0.41973627 0.688089 0.54903984 0.08574876 -0.80849296 -0.6678197
0.15190811 -0.6316376 0.44020838 0.4025943 -0.2184221 0.09714887 0.04651168 -0.13651751
-0.64539003 0.21047701 -0.0077631986 0.13680503 0.42311904 0.097861655 0.818458 -0.18503939
0.22330064 -0.48686683 0.2692334 -0.6497174 0.07392366 0.5685898 -0.24969126 -0.63170016
0.5522148 0.080585465 0.47917408 1.0987295 -0.70470226 0.3164415 -0.6439382 -0.5519689
-0.5488657 -0.48051065 -0.5040949 0.25962824 0.0061415737 0.35462844 -0.06287571 0.5150583
0.25996143 -0.8959926 0.41636932 0.24989134 -0.7203786 0.66242576 -0.8910753 0.41556698
-0.041862227 1.2044655 -0.12402939 -0.4023675 0.4504239 -1.0040939 0.80216634 0.007114361
0.16068879 -0.5743605 0.33476377 -0.6722445 -0.47028407 -0.6462783 0.22334813 1.1108822
0.9173843 -0.20953013 -0.15665129 0.3714145 0.055884585 0.26914003 -0.013860272 -0.42684245
00000000: 7bed 443d 92ba ba3e 8c6d e7be 5f48 9d3d
00000010: a7aa 6bbd 248f d93d 689f aa3e 2f5c dc3e
00000020: 3ded 1b3f d9cb 363d 09ac 3a3e fe97 1ebe
00000030: a3a9 19bf 2126 0c3d ca5f cdbe 07c9 6bbe
00000040: 0da2 b2ba 0718 5c3c d1a7 403f 4f0d 5bbd
00000050: 21dc 88bf 7402 c53e da3e 08bf 656b 113f
00000060: 4a8a 7fbc 246c fc3d 8c0f 0d3d cb27 073f
00000070: cf5e d73e 525d b13d d9b2 17be 0929 243e
00000080: b3c5 763e 7930 b13e bfd5 583e 5454 be3d
00000090: ad0e 9ebe 2721 44be d80f c8be 86a9 4f3d
000000a0: 2c25 463e 69a3 483e a495 c9bd 0c3f c03e
000000b0: 7b2d 3ebe 24de d1be 8fe6 bf3c 6bbf 9c3e
000000c0: 6b48 b13e 55c8 f5bc 3cbf bcbe f179 023f
000000d0: e7e7 aabc 403c 533e d230 ee3e f8fb 1f3f
000000e0: 00fb 0c3e 9ca0 c63e a03d 84bf 22de e6be
000000f0: 32d7 1cbf 1a0d 53bf 38d4 9bbe 6d2d 643e
00000100: 17fa 9c39 abfe 87be 2ecb bb3d 3dcb c63e
00000110: 6596 efbd eb5b e1bc 5dd6 11be 334a 27bf
00000120: a5fb 3c3f 3109 c03d 2d83 1f3d 6d77 54bd
00000130: 66da 43bd 3eeb 2d3f a60a f63e e09b 763e
00000140: 33b0 543d a1df cc3d 35d8 ecbe 3072 743d
00000150: 5bdc 613f ca26 a93e 42a4 143c 4758 6ebe
00000160: d87c 3f3e 7663 ef3e 0160 dcbb 1df6 dabd
00000170: 93a2 623f 9ae0 db3e 8832 f0bd 97d1 283f
00000180: 98e8 d3be 7b2e 36be f0bc a0bd 618b f43d
00000190: bcb0 ba3c 427c dcbd 2635 53be 2666 de3d
000001a0: 7fbe 583e f954 f9bc e9b2 a3be f92c 9b3e
000001b0: 0441 11bd 173d 24be 8c46 96bd 0f6b 223c
000001c0: c2d2 9b3d d584 e0be 5349 8c3d 8ff9 8e3e
000001d0: 367c aabe d92b 853f b6cf 553e 6828 bfbd
000001e0: 1cdf 833e 4dea 2b3f 3ba2 c2bb 2368 2a3f
000001f0: 5ba7 713f 140a 90be 50d3 b43e 7a0b 113c
00000200: c3e0 a83e 4803 03bf ecaa 7a3d 8aa9 cabe
00000210: 9ddf 51be 1111 c5bd b5a8 113e bde3 00bf
00000220: 23b5 f9be 0fed f43b d993 773b 0b32 bc3c
00000230: f3ca 5ebe b1c2 5ebd f169 1dbd 83a1 a6be
00000240: d752 dfbe a20b 283f d65e 1ebf 4c1e eabe
00000250: 5c3d 813f a0d7 55bf 41ff e7bd 0fc3 a13d
00000260: bb63 db3e c29f 3fbe cbf7 3c3f afb0 ee3e
00000270: f723 e7bd 8892 28bf 85ca 5e3f accc 7dbf
00000280: 2516 473e 956e 033f 0d45 3ebf b38a 123e
00000290: 0cea f93e f4b8 b2be cec9 463e a900 513f
000002a0: d50c 093f 6fcb babe 305d 993e 9bd7 a7bf
000002b0: 31bc 073e 5b77 213f 1786 d7be e4cc 02bf
000002c0: 7a45 bbbb 825e 063f ace7 d6be 9a26 303f
000002d0: e08d 0c3f 0c9d af3d 65f9 4ebf 3bf6 2abf
000002e0: cd8d 1b3e 00b3 21bf fe62 e13e d720 ce3e
000002f0: 0baa 5fbe fdf5 c63d 0883 3e3d 3fcb 0bbe
00000300: 4838 25bf 4987 573e 6e62 febb 9e16 0c3e
00000310: 0fa3 d83e b16b c83d 7786 513f f77a 3dbe
00000320: eca8 643e 9c46 f9be f6d8 893e e153 26bf
00000330: 4a65 973d 1a8f 113f 11af 7fbe 1ab7 21bf
00000340: f35d 0d3f fe09 a53d 4e56 f53e 2ba3 8c3f
00000350: 5e67 34bf 9f04 a23e 22d9 24bf d54d 0dbf
00000360: 7682 0cbf 7e05 f6be 5d0c 01bf feed 843e
00000370: 413f c93b dc91 b53e fbc4 80bd dcda 033f
00000380: aa19 853e c55f 65bf 5c2e d53e 84e3 7f3e
00000390: bb6a 38bf bc94 293f 831d 64bf 32c5 d43e
000003a0: ba77 2bbd ed2b 9a3f 1f03 febd 1d03 cebe
000003b0: f69d e63e 2686 80bf c65a 4d3f 961f e93b
000003c0: 9a8b 243e 4a09 13bf 2866 ab3e 3718 2cbf
000003d0: 13c9 f0be 7f72 25bf 5fb5 643e 6331 8e3f
000003e0: b3d9 6a3f 118f 56be 3269 20be 0b2a be3e
000003f0: 3ce7 643d b9cc 893e 3216 63bc 188b dabe

architecture.2.bias f4 [64]
-2.1278937 0.15951967 1.1744708 -0.7091066 -0.51124114 -0.6058554 0.76295996 -0.7854584
-0.18836093 -0.5647581 -0.5008628 0.14694616 0.185894 -0.6403419 0.786269 0.3344468
0.89183533 0.76647013 2.3445435 0.72726095 -0.5975856 0.27484208 -0.31471643 -0.9249297
-1.0646621 0.49479407 0.02116067 0.15176433 2.9064064 -0.19973345 0.579859 0.5276206
-0.26007825 -1.0557848 0.7345734 0.55867434 -0.56581044 0.024402756 -0.74446857 1.7719437
-2.3274343 0.5143689 -0.5980251 0.18371844 0.3961242 1.3207768 -1.9485039 0.50353324
0.4513514 -0.5336643 -1.4044203 -0.766262 1.1132082 0.3577798 -1.0618842 2.6272023
-0.09518219 0.55051386 0.16062635 -0.23568974 -0.16632195 0.26683396 0.28891948 -0.7172648
00000000: 692f 08c0 2059 233e 0f55 963f 0388 35bf
00000010: b3e0 02bf 5719 1bbf 5851 433f cd13 49bf
00000020: b0e1 40be fd93 10bf 8b38 00bf 0e79 163e
00000030: ff5a 3e3e 72ed 23bf ed48 493f 9c3c ab3e
00000040: 524f 643f 6337 443f 000d 1640 c62d 3a3f
00000050: 5ffb 18bf 1ab8 8c3e 8322 a1be 31c8 6cbf
00000060: d946 88bf a655 fd3e 2459 ad3c 1c68 1b3e
00000070: 9002 3a40 ed86 4cbe a471 143f 2512 073f
00000080: fa28 85be f523 87bf 010d 3c3f 4805 0f3f
00000090: f4d8 10bf 4ae8 c73c 7e95 3ebf 0dcf e23f
000000a0: aff4 14c0 aead 033f 2c18 19bf b020 3c3e
000000b0: cbd0 ca3e 370f a93f 9368 f9bf 8ee7 003f
000000c0: 8817 e73e 399e 08bf 0bc4 b3bf bf29 44bf
000000d0: 9b7d 8e3f ea2e b73e d2eb 87bf 1524 2840
000000e0: e1ee c2bd 7aee 0c3f 3c7b 243e a758 71be
000000f0: 4d50 2abe 769e 883e 41ed 933e aa9e 37bf

architecture.4.weight f4 [9, 64]
-0.026826853 0.075495295 0.004930709 -0.021266082 -0.012342118 0.008165711 0.008046166 0.009509517
0.010645147 -0.007666136 0.009406421 -0.0030888112 0.023845352 0.0005314878 0.039159626 0.0001269413
-0.03337795 0.009083888 0.02126324 0.00057618454 -0.024143714 -0.011398927 -0.030142305 -0.017444454
-0.0016645897 -0.0041217785 0.012135043 -0.022259958 0.03398196 -0.0089407675 0.0040088766 0.0021921275
-0.14738345 0.003005818 -0.046702545 -0.003653924 -0.011316238 0.005092498 -0.002213606 0.027182095
-0.004867663 0.0038663726 -0.003369376 0.011728404 -0.0078120856 0.000564804 -0.020461196 -0.016121041
-0.028710922 0.02881467 0.012368076 -0.03202663 0.0047400272 -0.017005667 0.03081286 -0.033388294
0.00822363 0.0045731794 -0.01668942 0.02573322 0.012203917 -0.007655301 0.02179398 -0.007001496
-0.05494407 0.067555755 0.0075128474 0.025044499 0.003081716 0.0040097754 -0.07273676 0.006198993
0.009618218 0.014507919 -0.010805125 0.012225415 0.13236196 -0.012867121 -0.020518718 0.002014121
-0.0047231563 -0.002974925 0.018166894 -0.006800467 -0.0049935617 -0.0035124945 -0.006194909 -0.02751373
0.0054564085 -0.00807163 0.009325577 0.005456299 -0.016616756 0.00030240926 -0.004402703 0.005977151
0.06264933 0.025950978 0.010224547 0.022196796 0.004801867 -0.016127426 0.018335212 0.018996822
-0.0063465363 0.0046405415 -0.023819944 0.0059677563 0.0074764625 0.0004370153 -0.03043474 -0.028164921
-0.03175041 0.0073254053 -0.013499442 0.028582552 0.025647815 -0.01709235 0.00255384 -0.015309297
0.0167186 0.0031353107 0.0075736116 0.006392789 -0.009381523 0.0034739587 0.009463688 -0.01102621
0.022980554 -0.13345022 0.012253271 -0.023034837 -0.014169308 -0.00110987 -0.016871821 -9.158156e-05
-0.0025494243 0.017860137 0.025608627 0.0072182417 0.054147247 0.011696324 -0.013274511 -0.012644128
-0.017836016 -0.016653158 -0.04305814 -0.012575917 -0.00026071552 0.014773168 -0.01953783 0.0060075647
0.0056831776 0.0011965587 -0.0014068438 -0.015490817 0.16255611 -0.009876714 0.0076739746 -0.0073710023
-0.07472836 -0.013285791 -0.032929882 0.04436387 -0.017221944 0.0038728677 0.017784828 0.020309564
0.0076609547 -0.014608735 -0.008606377 0.0059578 -0.0113840485 -0.00149562 -0.006041064 0.009321727
-0.006162384 -0.012166068 -0.031378735 0.08627023 0.002121132 -0.00090045383 -0.009204736 -0.017787255
0.0017376125 0.011664742 -0.0012470204 -0.01160817 0.006834472 0.0028228662 0.010602095 -0.0031955722
-0.8828523 0.041943766 0.76001495 -0.5245411 -0.17015955 0.051534865 0.08558741 -0.42913058
-0.3458203 -0.25689295 -0.2722815 0.0943646 0.21546592 -0.7357522 0.18397184 0.19629668
0.47490102 0.7189876 0.8918541 0.33221173 -0.44410306 0.42044336 0.04270689 -0.7713929
-0.99809 0.27005294 -0.45110974 0.1261348 0.8278146 -0.40714425 0.15443544 -0.057321493
0.027688682 -0.25165367 0.5123744 -0.059818044 -0.36609384 0.19430819 -0.18492907 0.49523318
-0.69312 0.18267448 -0.23349462 0.026595505 0.5486375 0.7577354 -0.33576164 0.3404181
0.0750671 -0.26963526 -0.37106353 -0.24300052 0.1478949 0.17123902 -0.75208426 0.7475605
0.022207865 0.11814567 0.17075688 -0.13347483 -0.044677444 -0.19614512 0.12541044 -0.434132
00000000: fdc3 dbbc 479d 9a3d c991 a13b 3536 aebc
00000010: 9836 4abc 79c9 053c 11d4 033c cecd 1b3c
00000020: fc68 2e3c 3634 fbbb 641d 1a3c a76d 4abb
00000030: 5457 c33c 8b53 0b3a d865 203d 8c1b 0539
00000040: 51b7 08bd 96d4 143c 3f30 ae3c 170b 173a
00000050: 0ac9 c5bc 91c2 3abc ffec f6bc ace7 8ebc
00000060: 5d2e daba fc0f 87bb 0fd2 463c 845a b6bc
00000070: ab30 0b3d 4c7c 12bc e55c 833b cca9 0f3b
00000080: b0eb 16be 42fd 443b 2b4b 3fbd ac76 6fbb
00000090: be67 39bc f8de a63b 2512 11bb fcac de3c
000000a0: eb80 9fbb f862 7d3b c0d0 5cbb 7e28 403c
000000b0: 86fc ffbb 5b0f 143a 3d9e a7bc 4610 84bc
000000c0: 2b33 ebbc be0c ec3c 78a3 4a3c 5b2e 03bd
000000d0: 3b52 9b3b 784f 8bbc 406b fc3c 2ac2 08bd
000000e0: 67bc 063c 9cda 953b 40b8 88bc 79ce d23c
000000f0: f0f2 473c 52d9 fabb 4a89 b23c ce6c e5bb
00000100: 080d 61bd ac5a 8a3d 552e f63b 1f2a cd3c
00000110: 9df6 493b 6f64 833b 03f7 94bd ec20 cb3b
00000120: bb95 1d3c 9fb2 6d3c fb07 31bc 1b4d 483c
00000130: e589 073e 9ed0 52bc df16 a8bc 58ff 033b
00000140: b5c4 9abb f6f6 42bb bdd2 943c 74d6 debb
00000150: 08a1 a3bb e131 66bb aafe cabb 7964 e1bc
00000160: accb b23b df3e 04bc 4eca 183c c1ca b23b
00000170: dd1f 88bc af8c 9e39 8d44 90bb fadb c33b
00000180: 4b4e 803d 2597 d43c dc84 273c 0ed6 b53c
00000190: fb58 9d3b aa1d 84bc ba33 963c 399f 9b3c
000001a0: 9bf6 cfbb af0f 983b 0b22 c3bc 2b8d c33b
000001b0: 1dfd f43b 331f e539 4752 f9bc 1fba e6bc
000001c0: b80c 02bd f409 f03b c32c 5dbc f525 ea3c
000001d0: 5e1b d23c 4205 8cbc 535e 273b d8d3 7abc
000001e0: 72f5 883c c979 4d3b 0f2c f83b 9a7a d13b
000001f0: f6b4 19bc 5bab 633b 960d 1b3c 47a7 34bc
00000200: b741 bc3c 2da7 08be f2c1 483c 8eb3 bcbc
00000210: 6326 68bc 0f79 91ba c636 8abc 7a0f c0b8
00000220: 3e14 27bb 6c4f 923c 2fc9 d13c 0087 ec3b
00000230: 81c9 5d3d f0a1 3f3c 567d 59bc 5129 4fbc
00000240: d61c 92bc 346c 88bc bb5d 30bd 380b 4ebc
00000250: a5b0 88b9 280b 723c cd0d a0bc 1bdb c43b
00000260: f339 ba3b d9d5 9c3a d865 b8ba 32cd 7dbc
00000270: 1c75 263e f1d1 21bc f775 fb3b 7388 f1bb
00000280: 2f0b 99bd a5ac 59bc 7ce1 06bd e4b6 353d
00000290: 0915 8dbc f0cf 7d3b 7db1 913c 3e60 a63c
000002a0: bf08 fb3b 7a59 6fbc c301 0dbc a639 c33b
000002b0: 2984 3abc ae08 c4ba 1ef4 c5bb 28ba 183c
000002c0: d3ed c9bb 3054 47bc fd86 00bd 72ae b03d
000002d0: b102 0b3b 6f0c 6cba 76cf 16bc 94b6 91bc
000002e0: 9ac0 e33a 791d 3f3c 1073 a3ba 3230 3ebc
000002f0: b5f3 df3b d6ff 383b 69b4 2d3c ce6c 51bb
00000300: 9c02 62bf 3acd 2b3d 5790 423f 5348 06bf
00000310: 4e3e 2ebe 3916 533d 7448 af3d 01b7 dbbe
00000320: 5c0f b1be 7987 83be 7b68 8bbe 3a42 c13d
00000330: 19a3 5c3e 425a 3cbf 1d63 3c3e ff01 493e
00000340: 3a26 f33e 920f 383f 8d50 643f a817 aa3e
00000350: 7a61 e3be 5a44 d73e 6bed 2e3d 017a 45bf
00000360: d482 7fbf 6144 8a3e dbf7 e6be 7b29 013e
00000370: a8eb 533f 3675 d0be 5324 1e3e f1c9 6abd
00000380: 60d3 e23c c0d8 80be f82a 033f c403 75bd
00000390: a770 bbbe baf8 463e 0c5e 3dbe 348f fd3e
000003a0: 5070 31bf 050f 3b3e 3719 6fbe d1de d93c
000003b0: 8273 0c3f f2fa 413f f3e8 abbe 484b ae3e
000003c0: c8bc 993d a20d 8abe 0afc bdbe 21d5 78be
000003d0: c371 173e 4859 2f3e 9888 40bf 2060 3f3f
000003e0: 45ed b53c 5bf6 f13d e4da 2e3e a0ad 08be
000003f0: b2ff 36bd 44da 48be 986b 003e 8d46 debe

architecture.4.bias f4 [9]
-0.078108616 0.0005419203 -0.07188497 1.1241279 0.08393058 -0.040317196 -0.04899348 0.7336374
-0.21023698
00000000: 69f7 9fbd a80f 0e3a 6d38 93bd 6ce3 8f3f
00000010: cce3 ab3d a523 25bd 63ad 48bd a9cf 3b3f
00000020: 5d48 57be

std f4 [9]
0.2 0.2 0.2 0.3522372 0.20452467 0.20067938 0.38497937 0.24383618
0.2
00000000: cdcc 4c3e cdcc 4c3e cdcc 4c3e 6f58 b43e
00000010: ea6e 513e e57e 4d3e 041c c53e 31b0 793e
00000020: cdcc 4c3e

architecture.0.weight f4 [64, 27]
-0.027993605 0.01852642 -0.048617966 0.10039171 1.6927117 -0.25554064 -1.1091331 -0.4852078
-0.9167841 -0.03790089 0.13342722 0.08667851 -0.0055669867 0.116437525 -0.07434318 0.023783129
-0.29386 -4.3139243 -0.21511604 -1.6889355 0.312265 1.1596371 0.5774572 0.88731647
0.06222212 -0.18434422 -0.2382126 0.006884561 -0.03325536 -0.00018193576 0.07853748 -0.17938246
0.4837263 -0.13798517 -0.47615588 0.2432463 0.034348298 0.027744927 -0.422317 0.15121108
0.20242564 -0.36420387 0.12465577 0.07619051 -0.017019263 -0.059783384 0.1563648 -0.20063187
0.17386936 0.38946807 0.08774898 -0.01355495 -0.16604291 -0.2550709 -0.07250885 -0.0482608
0.07310077 0.362167 -0.75532746 0.9328604 0.93801826 0.88609815 -0.8573568 0.18171503
0.05144031 -0.0066797403 0.05872138 -0.111082606 0.010901917 0.027035996 -0.50898635 -0.6539407
-0.38360015 0.7329214 -0.8536502 -0.9621148 -0.88436645 0.775063 -0.19531967 -0.01914513
-0.11986536 -0.07428083 -0.09733877 0.4429313 -0.4339267 0.08108049 -0.025922047 0.27248758
-0.3780314 0.28039026 -0.07532497 0.14236185 0.09689283 -0.051706642 -0.009271265 -0.0014878438
0.0050948965 -0.02514637 -0.02195366 0.39463532 -0.082123175 0.00020879794 -0.26715136 0.34197474
-0.24978566 0.055773243 -0.12675695 -0.12357841 0.0093681775 -0.008969407 -0.016303895 0.07552963
-0.06507468 -0.33004728 0.15510681 0.017856741 -0.003590231 0.06525503 -0.10444673 -0.29522818
-0.36865228 0.10188042 -0.25394747 0.041686427 0.02239347 0.015116074 0.14806153 -0.08901986
-0.14737038 -0.13332668 0.07867694 0.300749 0.114755064 -3.21924e-05 -0.10477727 -0.020983439
0.0033110718 -0.033887748 0.0152167035 0.019817881 0.09148218 -0.07381187 0.044202656 0.028684886
0.029625641 -0.012588839 0.17136657 0.9392483 0.0032213577 2.3202496 -0.006732339 0.034854345
-0.048169333 -0.035648216 -0.027184278 -0.081857674 0.09002174 0.018492207 -0.011468466 -0.01345944
-0.025873268 0.032811515 -0.038690183 -0.012181597 -0.0059347483 -0.057681352 0.12931326 -0.11304394
-0.26132047 -0.2138988 0.04415985 0.08595785 -0.0566602 -0.09384324 -0.052217428 -0.0613358
0.00805882 -0.034291178 0.115625456 0.39180353 0.09122943 -0.17119868 0.06258698 -0.02424612
0.1483141 -0.09416804 0.06555744 0.0058225314 0.072152354 -0.021859486 -0.009334565 0.007790353
-0.057355702 0.022644367 0.06478351 0.027616443 -0.018433115 -0.08166068 0.020933878 0.032334927
-0.022201873 1.672696 -1.7074609 0.24531095 0.0048964894 0.006910875 -0.11450509 0.033605505
-0.075463526 0.048515216 -0.030433817 0.005745754 -0.0005720803 -0.015558843 -0.0087003065 -0.023835678
-0.013169806 0.000806379 -0.009948544 -0.18829697 0.0773437 -0.46910265 0.32035634 0.023430621
0.45058876 -0.1958598 0.19757728 -0.2984082 -0.23965824 0.22927085 -0.24163581 -0.050447814
-0.1381962 -0.12090609 -0.14823848 0.11194101 0.039158314 0.043376997 -0.12109138 0.033691052
-0.26987115 0.013701259 -0.18582907 0.42430437 -0.04154379 -0.18781103 -0.031626716 0.3795756
-0.09397537 0.13998084 -0.22448242 0.28998232 0.23746677 -0.12609279 0.31943166 0.0100168465
00000000: d852 e5bc b8c4 973c a223 47bd 2b9a cd3d
00000010: c7aa d83f 39d6 82be 13f8 8dbf 286d f8be
00000020: 5db2 6abf f73d 1bbd 25a1 083e 8184 b13d
00000030: 456b b6bb cc76 ee3d 3d41 98bd d6d4 c23c
00000040: d174 96be ab0b 8ac0 6147 5cbe 0a2f d8bf
00000050: 33e1 9f3e fd6e 943f 3cd4 133f 2c27 633f
00000060: 9fdc 7e3d bbc4 3cbe 01ee 73be e297 e13b
00000070: c636 08bd 02c6 3eb9 42d8 a03d 09b0 37be
00000080: f9aa f73e fc4b 0dbe b4ca f3be 8f15 793e
00000090: cdb0 0c3d 5449 e33c ef39 d8be 14d7 1a3e
000000a0: ab48 4f3e ee78 babe 864b ff3d c509 9c3d
000000b0: fb6b 8bbc 6cdf 74bd 181e 203e 7172 4dbe
000000c0: cf0a 323e 5c68 c73e bdb5 b33d 9515 5ebc
000000d0: 2707 2abe a798 82be 857f 94bd 1ead 45bd
000000e0: dbb5 953d f46d b93e 245d 41bf f0cf 6e3f
000000f0: f721 703f 54d7 623f bc7b 5bbf 8113 3a3e
00000100: 13b3 523d b9e1 dabb d485 703d 477f e3bd
00000110: f49d 323c 987a dd3c ee4c 02bf a868 27bf
00000120: 3d67 c4be bda0 3b3f d288 5abf 284d 76bf
00000130: d765 62bf 876a 463f e101 48be 3fd6 9cbc
00000140: f87b f5bd 8c20 98bd 8d59 c7bd e4c7 e23e
00000150: a42b debe 870d a63d 795a d4bc 7e83 8b3e
00000160: 558d c1be 508f 8f3e fa43 9abd 4ec7 113e
00000170: c06f c63d 58ca 53bd 81e6 17bc c103 c3ba
00000180: 17f3 a63b c3ff cdbc 29d8 b3bc a40d ca3e
00000190: 3230 a8bd c5f0 5a39 10c8 88be 5017 af3e
000001a0: d0c7 7fbe 7c72 643d 93cc 01be ad16 fdbd
000001b0: fc7c 193c 6bf4 12bc bf8f 85bc 47af 9a3d
000001c0: e045 85bd f5fb a8be 52d4 1e3e 4d48 923c
000001d0: 154a 6bbb 6ea4 853d 2be8 d5bd 2628 97be
000001e0: febf bcbe afa6 d03d 6705 82be 63bf 2a3d
000001f0: 8372 b73c 69a9 773c 719d 173e 0b50 b6bd
00000200: 43e8 16be ca86 08be 6021 a13d c6fb 993e
00000210: b404 eb3d 5406 07b8 7795 d6bd 76e5 abbc
00000220: 91fe 583b e1cd 0abd 7b4f 793c 1c59 a23c
00000230: 025b bb3d ad2a 97bd d80d 353d 91fc ea3c
00000240: 79b1 f23c 6b41 4ebc b87a 2f3e 9472 703f
00000250: 6a1d 533b f87e 1440 f49a dcbb 6ec3 0e3d
00000260: 354d 45bd dd03 12bd 90b1 debc ffa4 a7bd
00000270: 515d b83d f87c 973c 3ce6 3bbc fc84 5cbc
00000280: 2df4 d3bc 5e65 063d 9979 1ebd 5295 47bc
00000290: 4778 c2bb 4843 6cbd b26a 043e 9583 e7bd
000002a0: cccb 85be 4908 5bbe f5e0 343d ab0a b03d
000002b0: 8714 68bd e230 c0bd f1e1 55bd 3f3b 7bbd
000002c0: 2409 043c e874 0cbd 0acd ec3d 799a c83e
000002d0: 7fd6 ba3d b54e 2fbe 9a2d 803d cd9f c6bc
000002e0: a7df 173e 2cdb c0bd fb42 863d efca be3b
000002f0: 9dc4 933d aa12 b3bc 01f0 18bc 3846 ff3b
00000300: d0ed 6abd ae80 b93c 38ad 843d e13b e23c
00000310: 0b01 97bc b73d a7bd 867d ab3c a171 043d
00000320: b4e0 b5bc e71a d63f 148e dabf cb32 7b3e
00000330: bb72 a03b 9f74 e23b a581 eabd eda5 093d
00000340: 9f8c 9abd e4b7 463d 5750 f9bc e146 bc3b
00000350: a9f7 15ba 84ea 7ebc bb8b 0ebc 0a43 c3bc
00000360: 2cc6 57bc 2e63 533a 38ff 22bc ecd0 40be
00000370: 6066 9e3d 392e f0be bf05 a43e 93f1 bf3c
00000380: 92b3 e63e 798f 48be b351 4a3e f6c8 98be
00000390: f868 75be fac5 6a3e 616f 77be 5ea2 4ebd
000003a0: 4e83 0dbe 9d9d f7bd d4cb 17be 5441 e53d
000003b0: 7864 203d 14ac 313d c2fe f7bd a1ff 093d
000003c0: 8d2c 8abe 3f7b 603c fa49 3ebe 6c3e d93e
000003d0: d229 2abd 8951 40be 048b 01bd bc57 c23e
000003e0: 2976 c0bd 2357 0f3e b8de 65be 9078 943e
000003f0: 7d2a 733e 781e 01be 8c8c a33e b31d 243c

architecture.0.bias f4 [64]
0.08515909 -1.5563577 0.06594365 1.4476396 1.1955485 -0.99449533 -2.3631034 0.8416928
0.7512335 1.372499 -0.7713125 0.87276024 1.1691763 0.06313424 -1.4859371 1.3482906
-0.030836722 0.12549083 -1.1918639 -1.7164464 -1.9548223 -1.6106181 -1.3459666 0.13478158
-1.2006648 0.77229124 -1.2794771 -0.7431621 -1.1148373 -1.1457455 -1.6881803 -1.3316127
-1.3106357 -0.08852888 -0.8043983 1.4104393 0.9115611 -0.6171135 -1.2305664 0.07766748
0.6175284 1.3820723 -0.68399423 0.15766536 0.20569398 -1.3235391 0.48145562 1.0244255
-0.046759944 0.5857995 -1.3114899 1.726111 -1.2969425 2.0089138 -0.0385336 -1.4645299
-1.3756216 1.4800309 0.024831055 -1.1821953 -0.053749062 -0.07579651 -0.1056594 -0.078428335
00000000: e467 ae3d bb36 c7bf 770d 873d 414c b93f
00000010: bc07 993f 3f97 7ebf 163d 17c0 2e79 573f
00000020: d750 403f 0cae af3f bc74 45bf 376d 5f3f
00000030: 92a7 953f 864c 813d 3033 bebf c994 ac3f
00000040: 4b9d fcbc ab80 003e ff8e 98bf 84b4 dbbf
00000050: 9e37 fabf bc28 cebf a248 acbf 2f04 0a3e
00000060: 62af 99bf e1b4 453f e8c5 a3bf df3f 3ebf
00000070: fdb2 8ebf caa7 92bf 4b16 d8bf 4972 aabf
00000080: e9c2 a7bf a14e b5bd 0ced 4dbf 4689 b43f
00000090: 115c 693f 26fb 1dbf 3383 9dbf 2110 9f3d
000000a0: 5716 1e3f bfe7 b03f 3f1a 2fbf 0773 213e
000000b0: 71a1 523e bb69 a9bf 5a81 f63e 6020 833f
000000c0: 5b87 3fbd f5f6 153f e7de a7bf 35f1 dc3f
000000d0: 3602 a6bf 0b92 0040 68d5 1dbd b775 bbbf
000000e0: 5e14 b0bf a771 bd3f 7f6a cb3c 2d52 97bf
000000f0: fa27 5cbd 333b 9bbd f563 d8bd 099f a0bd

architecture.2.weight f4 [64, 64]
-0.12204956 -0.5630994 -0.3532223 -0.42747173 0.046908785 -0.08414228 0.5406783 0.07117739
-0.14743066 -0.641817 0.04348422 0.088980235 0.17980756 0.5142641 0.77223265 0.18989937
0.040694773 -0.5968795 0.4547969 -0.17072146 0.16070835 -0.27268812 0.60805476 -0.030138599
-0.013763847 -0.5026687 0.6035535 -0.33707985 -0.5607729 0.069245934 -0.2710455 -0.00014445104
0.7823994 0.30708495 0.1404046 0.07059842 0.1048092 -0.48030275 0.14060228 0.31944704
-0.27089962 0.40259644 -0.03560154 1.7110924 0.14970042 0.43742576 1.0065216 0.07268336
-0.17118691 -0.36738652 0.31760064 -0.14125122 0.13739002 0.080839075 -0.12274779 0.3706147
0.016472016 0.041175947 -0.78105944 0.48133752 -0.33017686 0.24430998 0.3275513 0.019605435
-0.3763273 -0.71045506 0.37241253 0.68232477 0.5306345 -0.5336113 -0.92154354 0.39500657
0.40582317 0.41069996 -0.5765901 0.40897194 0.19276921 0.19599041 -0.48917893 0.2445529
0.02629616 0.34268948 -0.5041586 -1.0029569 -0.5373517 -1.0529613 -0.54789454 -0.0506648
-0.28238046 -0.101834066 -0.41749105 0.30577752 -0.3000233 -0.66728646 -0.48533207 -0.55389816
-0.6887036 0.25516835 -0.5531048 0.50235575 0.2582661 -0.41926858 -0.19413038 -0.107699655
0.17683925 0.49299642 -0.35027435 -0.002106507 -0.20885792 0.039126314 -0.14990708 0.31013316
-0.21639511 0.15568165 -0.47466272 -0.01767501 -0.59096617 0.738297 0.006474496 -0.65089905
-0.33899018 0.8275469 -0.29914802 -0.4993401 -0.15339729 -0.27827114 0.09275138 -0.025973273
0.5305474 0.6668564 -0.45082915 -0.97608083 -0.33150178 0.6136554 0.63880366 -0.60698926
-0.43101245 -0.6653425 0.36497283 -0.31996486 -0.18809804 -0.38848764 0.5047247 -0.54663646
-0.20830359 -0.2289699 0.8157193 0.744478 0.21597664 0.8972275 0.24293058 -0.11443227
0.30777335 -0.046285167 0.39625445 -0.14814828 0.113592826 0.5635595 0.7310322 0.5587043
0.83445066 -0.024132865 0.54348886 -0.3590675 -0.30145812 0.6445065 -0.114824936 0.3043029
0.096302345 -0.8454681 0.43880272 -0.034314234 -0.15382905 -0.114589974 -0.033390336 -0.50643915
0.028385216 -0.1286632 0.013726585 -0.37489745 0.58099633 -0.7070423 -0.12908736 0.11148089
0.6614602 -1.4256201 0.43518338 0.7870289 0.25314298 0.44738215 -0.103964455 0.011633024
-0.1324771 -0.3085817 -0.21980317 0.9392001 0.09659799 0.0071449205 0.43816432 0.031594798
0.33228418 0.66023546 -0.14674644 0.5882991 0.1704179 -0.27328297 -0.48466957 0.10030359
0.26218024 -1.0862118 -0.329958 0.9106558 0.59879917 0.36982736 -0.43614763 0.47071394
0.6110374 -0.17809016 -0.7593998 0.0014477726 0.43836534 0.71324486 -0.29060715 0.29878092
-0.7227891 -0.19418201 0.21321124 0.39915574 0.045357842 0.074402295 0.09243346 0.3051027
0.02440266 0.8773261 -0.06884689 0.38281825 0.76180094 -0.5267859 0.038269024 0.052707445
0.009466492 -0.30044156 -0.12680638 0.290447 0.30353647 -0.75150406 -0.0013228587 0.04150951
0.36180893 0.41476366 -0.55552214 -0.13077295 0.1429484 0.275642 -0.48959875 0.16272917
00000000: 1ff5 f9bd 4827 10bf 8ed9 b4be 93dd dabe
00000010: 6d23 403d ca52 acbd e569 0a3f 74c5 913d
00000020: 10f8 16be 1e4e 24bf 821c 323d 453b b63d
00000030: 791f 383e d0a6 033f 0ab1 453f fb74 423e
00000040: 90af 263d 18cd 18bf 24db e83e 9bd1 2ebe
00000050: bb90 243e c79d 8bbe 7aa9 1b3f 39e5 f6bc
00000060: c281 61bc e5ae 00bf 7b82 1a3f bb95 acbe
00000070: d08e 0fbf d0d0 8d3d 7ac6 8abe c877 17b9
00000080: 544b 483f 3d3a 9d3e 39c6 0f3e e895 903d
00000090: 35a6 d63d 3eea f5be 0bfa 0f3e 908e a33e
000000a0: 5bb3 8abe 1f21 ce3e ecd2 11bd 1305 db3f
000000b0: 114b 193e 45f6 df3e b3d5 803f 03db 943d
000000c0: 9f4b 2fbe 161a bcbe 8d9c a23e 29a4 10be
000000d0: f8af 0c3e f58e a53d 3163 fbbd 36c1 bd3e
000000e0: 52f0 863c 1ca8 283d 83f3 47bf df71 f63e
000000f0: f10c a9be 652c 7a3e ceb4 a73e 949b a03c
00000100: f9ad c0be 62e0 35bf dbac be3e d6ac 2e3f
00000110: aad7 073f c09a 08bf 47ea 6bbf 4d3e ca3e
00000120: 0ec8 cf3e 4447 d23e 699b 13bf c564 d13e
00000130: 4b65 453e b6b1 483e a975 fabe 136c 7a3e
00000140: 0b6b d73c ff74 af3e 8a10 01bf e460 80bf
00000150: e28f 09bf 70c7 86bf d142 0cbf e585 4fbd
00000160: 2c94 90be 618e d0bd 63c1 d5be df8e 9c3e
00000170: a79c 99be 49d3 2abf 727d f8be 45cc 0dbf
00000180: e14e 30bf 6da5 823e 4798 0dbf 639a 003f
00000190: 743b 843e 5faa d6be 1dca 46be a391 dcbd
000001a0: 5915 353e 076a fc3e 2957 b3be 530d 0abb
000001b0: dade 55be ea42 203d 3e81 19be c6c9 9e3e
000001c0: ae96 5dbe 036b 1f3e fe06 f3be 2fcb 90bc
000001d0: 8f49 17bf 0801 3d3f 0228 d43b 52a1 26bf
000001e0: 1f90 adbe 1dda 533f ee29 99be 81a9 ffbe
000001f0: 2e14 1dbe 8e79 8ebe 6ff4 bd3d e7c5 d4bc
00000200: f4d1 073f 1ab7 2a3f 14d3 e6be 6fe0 79bf
00000210: 9aba a9be 8518 1d3f a388 233f a663 1bbf
00000220: aaad dcbe e353 2abf b8dd ba3e 6fd2 a3be
00000230: c69c 40be dae7 c6be a335 013f 5ef0 0bbf
00000240: 894d 55be 1677 6abe fbd2 503f 1c96 3e3f
00000250: fb28 5d3e b4b0 653f cbc2 783e 775b eabd
00000260: 7894 9d3e 8495 3dbd dde1 ca3e 2fb4 17be
00000270: 5ba3 e83d 6f45 103f ed24 3b3f 3f07 0f3f
00000280: 8f9e 553f 49b2 c5bc 1622 0b3f b2d7 b7be
00000290: b858 9abe 61fe 243f 5629 ebbd 97cd 9b3e
000002a0: 2a3a c53d 9970 58bf c0aa e03e 158d 0cbd
000002b0: 5d85 1dbe 26ae eabd 4ec4 08bd ffa5 01bf
000002c0: 1d88 e83c 49c0 03be 78e5 603c 8ff2 bfbe
000002d0: 2dbc 143f b900 35bf 7a2f 04be 1850 e43d
000002e0: 7555 293f b87a b6bf 5bd0 de3e ba7a 493f
000002f0: f59b 813e 460f e53e 51eb d4bd 7098 3e3c
00000300: 14a8 07be 6cfe 9dbe 1514 61be 6b6f 703f
00000310: 2bd5 c53d f01f ea3b 1357 e03e 8c69 013d
00000320: 2721 aa3e 3105 293f b344 16be c59a 163f
00000330: 0882 2e3e bfeb 8bbe 9c26 f8be f86b cd3d
00000340: 7d3c 863e fd08 8bbf 41f0 a8be bd20 693f
00000350: e74a 193f 035a bd3e be4e dfbe 6b01 f13e
00000360: f26c 1c3f 445d 36be 0668 42bf 30c3 bd3a
00000370: 6c71 e03e 3797 363f 76ca 94be d0f9 983e
00000380: b508 39bf a6d7 46be 0c54 5a3e 245e cc3e
00000390: 25c9 393d 3b60 983d c14d bd3d 6c36 9c3e
000003a0: 16e8 c73c 7198 603f 99ff 8cbd c100 c43e
000003b0: 6305 433f 71db 06bf fbbf 1c3d c3e3 573d
000003c0: 5819 1b3c 7ad3 99be 88d9 01be 78b5 943e
000003d0: 2269 9b3e 9262 40bf c663 adba e005 2a3d
000003e0: 053f b93e e75b d43e b336 0ebf 58e9 05be
000003f0: 1161 123e f320 8d3e b0ac fabe 7aa2 263e

architecture.2.bias f4 [64]
0.17404574 1.0510379 -1.2667309 -0.5582402 0.3393052 -1.1692774 0.8969889 -0.4822896
-1.2984256 0.6492079 0.7693696 -1.2824017 -0.90694946 0.61274576 -0.16183281 0.86366373
1.2499443 0.46725982 -0.71275723 1.2197186 0.38788158 -0.79760754 0.53249806 1.2862676
-0.7209655 0.80948514 1.3534718 -0.45006797 -1.0736228 -0.40270042 -1.2408181 0.4850292
-0.7090355 0.44942206 0.78816056 -1.225072 -1.2612305 1.449461 -0.69738734 -0.72123
-0.75231665 -1.272442 -0.5121328 0.73098963 -1.2175169 0.5741992 -0.6232926 0.99230516
-0.70601237 1.1900362 1.4354843 -0.5820174 -1.2611436 -1.1545824 -0.8372369 0.030607147
0.3137564 0.4470969 -0.39124504 0.8070993 -1.1424979 0.7493767 -1.1715509 1.237153
00000000: 0c39 323e 6988 863f 3d24 a2bf d4e8 0ebf
00000010: 69b9 ad3e e2aa 95bf 11a1 653f aaee f6be
00000020: cf32 a6bf 7d32 263f 68f5 443f bd25 a4bf
00000030: d72d 68bf e8dc 1c3f 80b7 25be 1119 5d3f
00000040: 2dfe 9f3f ae3c ef3e 4277 36bf bd1f 9c3f
00000050: 6a98 c63e 0230 4cbf cb51 083f 6ba4 a43f
00000060: 3291 38bf 6b3a 4f3f 903e ad3f 4f6f e6be
00000070: 796c 89bf c02e cebe 21d3 9ebf bf55 f83e
00000080: 5a83 35bf a61a e63e e4c4 493f 29cf 9cbf
00000090: 0070 a1bf f087 b93f fa87 32bf 87a2 38bf
000000a0: d397 40bf 61df a2bf 231b 03bf 2322 3b3f
000000b0: 98d7 9bbf b8fe 123f 1b90 1fbf b607 7e3f
000000c0: 3abd 34bf 1b53 983f f3bd b73f 18ff 14bf
000000d0: 276d a1bf 5bc9 93bf 2855 56bf d7bb fa3c
000000e0: aea4 a03e e3e9 e43e 4551 c8be 0f9e 4e3f
000000f0: 5f3d 92bf 27d7 3f3f 61f5 95bf 085b 9e3f

architecture.4.weight f4 [1, 64]
-8.227243 -5.1910906 5.163455 8.197458 -7.317759 5.140169 -5.101991 5.1881475
5.209509 -5.3422575 -5.065993 5.2444725 5.235323 -7.3315597 -6.9635253 -6.6098094
-5.3503036 -7.767944 6.636419 -5.3323183 -7.1750584 6.349942 -6.7331963 -5.1957903
6.8756633 -8.589434 -5.1077003 7.6120114 5.351517 5.923967 5.166337 8.220323
5.1038113 -7.132036 -7.6335316 5.091794 5.1409855 -5.124463 4.1536703 5.203145
6.9184203 5.071499 4.6723037 -5.3550725 5.2295523 -8.009651 6.309325 -5.4160595
6.8399334 -5.1641273 -5.09116 7.600475 5.0842323 4.063379 5.1738095 -8.3819895
-8.116364 -5.420771 7.7943897 -5.490252 5.6226654 -5.2556353 5.039098 -5.2606955
00000000: caa2 03c1 6a1d a6c0 063b a540 ca28 0341
00000010: 152b eac0 447c a440 8343 a3c0 4e05 a640
00000020: 4cb4 a640 c6f3 aac0 9d1c a2c0 b8d2 a740
00000030: c487 a740 239c eac0 33d5 dec0 8f83 d3c0
00000040: b035 abc0 ff92 f8c0 8b5d d440 5aa2 aac0
00000050: 149a e5c0 ba32 cb40 5876 d7c0 ea43 a6c0
00000060: 6f05 dc40 526e 09c1 4872 a3c0 9995 f340
00000070: a13f ab40 2391 bd40 a252 a540 7186 0341
00000080: 6c52 a340 a439 e4c0 e445 f4c0 faef a240
00000090: f482 a440 9afb a3c0 deea 8440 2a80 a640
000000a0: b363 dd40 b849 a240 8383 9540 c15c abc0
000000b0: 7e58 a740 8827 00c1 fee5 c940 5c50 adc0
000000c0: bce0 da40 8840 a5c0 c8ea a2c0 1737 f340
000000d0: 08b2 a240 3307 8240 d98f a540 a11c 06c1
000000e0: a0dc 01c1 f576 adc0 a46b f940 25b0 afc0
000000f0: e0ec b340 2a2e a8c0 4a40 a140 9e57 a8c0

exp_avg f4 [64, 27]
-7.958532e-06 4.8461392e-05 4.9172377e-05 0.00012222661 -1.3402635e-05 7.994211e-07 -0.00021564116 -3.4283104e-05
-3.4012108e-05 -5.6577355e-05 0.00013374563 8.0643826e-05 2.693073e-05 -3.5550152e-06 -3.617555e-05 1.4820795e-05
1.4144306e-05 -7.4871383e-07 0.00012517913 -1.6155933e-05 -5.672654e-06 -0.00021684021 -3.8599163e-05 -3.3153192e-05
-4.9067618e-05 0.00013390073 7.9720696e-05 -4.3902848e-05 1.05808056e-07 -1.3594875e-05 0.00020511595 -2.8535535e-05
-9.2491886e-05 -4.516188e-05 7.85993e-05 -7.9369245e-05 8.2418526e-05 0.00025237474 0.00030111897 4.7185667e-06
1.1339395e-06 -1.9579996e-07 1.3301912e-05 -1.21265175e-05 -7.4166255e-06 0.00020495638 -3.0053481e-05 -9.237163e-05
-4.3425945e-05 7.790225e-05 -7.504288e-05 8.690448e-05 0.00025313976 0.00029833615 5.486767e-05 -5.4483793e-05
2.302446e-05 -5.1854797e-05 -0.00048108178 -0.00030371785 5.8278994e-05 8.1457154e-05 -0.0003541786 0.00042219483
0.00024568703 -7.847355e-06 -1.506725e-05 -6.2889394e-06 3.6391626e-05 -1.6696823e-06 -1.0868325e-05 -2.5422976e-05
-6.230443e-05 -0.00047979824 -0.00029820448 6.170724e-05 8.181685e-05 -0.00036133608 0.00040954555 0.00024298871
-1.2817187e-05 2.4875964e-05 2.8252456e-05 1.4894859e-05 7.05899e-05 -3.221843e-05 0.00035415907 0.00019192917
0.00018335003 0.00014732733 -6.3421896e-05 -0.00039402343 0.00019096199 -1.4707602e-05 -3.7545648e-05 1.2251683e-05
-1.54796e-05 -1.9104908e-05 2.1713418e-05 7.2106195e-05 -2.8568757e-05 0.00036179856 0.00018608563 0.00018230894
0.00014745154 -6.283968e-05 -0.00039171716 0.00019074252 -1.418083e-05 -1.2675772e-05 1.9591616e-05 0.000104112296
0.000107698565 -8.942263e-05 -3.2857195e-05 0.00015199657 -6.8441725e-05 -3.357621e-06 0.000114265276 0.00017396624
1.878596e-05 -1.18831995e-05 1.4213483e-05 4.1165245e-07 3.4700877e-06 -3.0341346e-06 0.00010572698 0.000109304
-8.835182e-05 -3.5415724e-05 0.00014928075 -6.636596e-05 1.6968556e-07 0.00011296875 0.0001735291 3.0324238e-05
6.98965e-05 -8.060514e-05 2.099415e-05 0.0001330168 0.00011246132 0.0001544204 -3.8166552e-05 -1.8086777e-05
-2.7018798e-06 -0.0002785461 -1.8355487e-06 1.0483651e-05 -5.5894525e-06 2.8431246e-05 -1.9120704e-05 1.5697243e-08
-1.0925261e-06 1.1409993e-05 0.00013621889 0.000114727016 0.0001578663 -3.147931e-05 -1.6868522e-05 -8.010969e-06
-0.0002872883 -3.700237e-06 -4.2296815e-05 3.4045363e-05 -1.7999906e-05 -4.428228e-05 5.826811e-05 0.00012638049
3.6106176e-05 -2.2644752e-05 0.000103053804 -8.987316e-05 -0.00014283689 -2.406013e-05 -1.0573709e-05 1.2354334e-05
2.5959585e-05 -2.0419184e-06 6.6365983e-06 -4.3938253e-06 -4.1926105e-05 5.3494896e-05 0.000119360775 3.3902244e-05
-2.5684802e-05 9.993003e-05 -8.3584404e-05 -0.00014163034 -2.6840862e-05 2.837099e-06 2.9730398e-05 -6.867028e-05
3.8747272e-05 0.00013687354 -7.0503675e-06 -0.0001155018 -3.723029e-05 -4.624334e-06 -0.00013453352 9.4795665e-05
3.1585947e-05 6.2520367e-06 -7.744421e-06 5.987871e-06 4.4659455e-06 -5.0113463e-06 8.775794e-06 3.8915525e-05
0.00013504898 -1.2219763e-05 -0.00011585303 -3.7260357e-05 5.561809e-06 -0.00013491166 9.1866896e-05 3.0418107e-05
-7.256335e-05 -2.7210228e-05 4.2118783e-05 4.5047887e-05 0.00010310467 4.8272363e-05 -2.7101162e-06 5.185723e-05
-7.275018e-05 2.8440913e-05 -2.8943008e-05 -1.9651525e-05 -1.318924e-05 2.1885548e-05 -3.2762116e-05 1.5721394e-05
-6.3275315e-06 -7.045232e-06 4.9137456e-05 9.103298e-05 3.9144463e-05 -2.9454818e-06 4.6463614e-05 -8.8703855e-05
3.9411247e-05 -1.8962812e-05 -2.102059e-05 -3.0169207e-07 7.652826e-06 -3.1799424e-05 -5.9579914e-05 -2.3002474e-05
0.000120777775 0.0001892465 7.143468e-06 7.698172e-05 -4.0506093e-05 -0.00012583057 5.226556e-05 -2.1787191e-06
00000000: a285 05b7 0643 4b38 703e 4e38 f529 0039
00000010: e1db 60b7 cd97 5635 bc1d 62b9 34cb 0fb8
00000020: 39a8 0eb8 794d 6db8 123e 0c39 531f a938
00000030: 4de9 e137 b292 6eb6 33bb 17b8 d4a6 7837
00000040: 554d 6d37 39fb 48b5 8442 0339 9a86 87b7
00000050: ba57 beb6 9a5f 63b9 89e5 21b8 f80d 0bb8
00000060: f4cd 4db8 b467 0c39 b92f a738 5324 38b8
00000070: 9838 e333 8b15 64b7 6514 5739 985f efb7
00000080: 34f8 c1b8 336c 3db8 aed5 a438 0a73 a6b8
00000090: 1cd8 ac38 2a51 8439 81df 9d39 2e54 9e36
000000a0: dd31 9835 153d 52b4 472b 5f37 ff72 4bb7
000000b0: 54dc f8b6 8fe9 5639 5c1b fcb7 a4b7 c1b8
000000c0: 4124 36b8 745f a338 5760 9db8 7d40 b638
000000d0: d8b7 8439 006a 9c39 b621 6638 8785 64b8
000000e0: a724 c137 aa7e 59b8 b439 fcb9 523c 9fb9
000000f0: 9870 7438 fad3 aa38 0cb1 b9b9 085a dd39
00000100: 8ecf 8039 22a8 03b7 59c9 7cb7 9405 d3b6
00000110: 36a3 1838 d919 e0b5 1a57 36b7 6d43 d5b7
00000120: 70a9 82b8 6e8d fbb9 5458 9cb9 d268 8138
00000130: 1695 ab38 b571 bdb9 46b8 d639 c9ca 7e39
00000140: 6609 57b7 baac d037 b0ff ec37 efe4 7937
00000150: aa09 9438 4722 07b8 6dae b939 9840 4939
00000160: a641 4039 e17b 1a39 5f01 85b8 ee94 ceb9
00000170: f83c 4839 abc0 76b7 557a 1db8 948c 4d37
00000180: 30da 81b7 7a43 a0b7 3625 b637 b837 9738
00000190: f0a6 efb7 c8af bd39 fb1f 4339 2f2a 3f39
000001a0: 399d 1a39 ccc8 83b8 635f cdb9 0e02 4839
000001b0: 33ea 6db7 07aa 54b7 ad58 a437 dd56 da38
000001c0: 3adc e138 6988 bbb8 25d0 09b8 4561 1f39
000001d0: 5f88 8fb8 7d53 61b6 b4a1 ef38 b56a 3639
000001e0: 8b96 9d37 f45d 47b7 7276 6e37 1501 dd34
000001f0: a7df 6836 099e 4bb6 bdb9 dd38 233a e538
00000200: 8649 b9b8 588b 14b8 3f88 1c39 f42d 8bb8
00000210: d032 3634 a3e9 ec38 5df5 3539 ce60 fe37
00000220: 6695 9238 8e0a a9b8 981c b037 6d7a 0b39
00000230: 36d9 eb38 e9eb 2139 0615 20b8 0fb9 97b7
00000240: f151 35b6 d309 92b9 f95c f6b5 f0e2 2f37
00000250: 088d bbb6 a37f ee37 6665 a0b7 9ad6 8632
00000260: e9a2 92b5 8c6d 3f37 fbd5 0e39 9999 f038
00000270: ea88 2539 a708 04b8 e080 8db7 da66 06b7
00000280: 2f9f 96b9 9651 78b6 dc67 31b8 eecb 0e38
00000290: 81fe 96b7 bcbb 39b8 e864 7438 0185 0439
000002a0: b670 1738 3cf5 bdb7 971e d838 497a bcb8
000002b0: 7cc6 15b9 bcd4 c9b7 bc65 31b7 7645 4f37
000002c0: c9c3 d937 e407 09b6 f2af de36 ac6e 93b6
000002d0: d0d9 2fb8 b55f 6038 5451 fa38 4232 0e38
000002e0: b175 d7b7 8791 d138 094a afb8 9b82 14b9
000002f0: 5028 e1b7 fd64 3e36 8b65 f937 1303 90b8
00000300: 9184 2238 b685 0f39 3292 ecb6 8f39 f2b8
00000310: b827 1cb8 ba2a 9bb6 9111 0db9 09cd c638
00000320: 277b 0438 96c8 d136 09ee 01b7 6ceb c836
00000330: 2eda 9536 2327 a8b6 c03b 1337 3a39 2338
00000340: ef9b 0d39 7c03 4db7 1ff6 f2b8 0148 1cb8
00000350: 939f ba36 1377 0db9 aaa8 c038 632a ff37
00000360: 272d 98b8 8541 e4b7 b3a8 3038 cdf1 3c38
00000370: e639 d838 0e78 4a38 71df 35b6 4781 5938
00000380: 7591 98b8 6594 ee37 a3ca f2b7 54d9 a4b7
00000390: 5b47 5db7 db96 b737 0e6a 09b8 70e1 8337
000003a0: 1551 d4b6 1566 ecb6 f118 4e38 f6e8 be38
000003b0: 0c2f 2438 feaa 45b6 ede1 4238 8506 bab8
000003c0: 814d 2538 5412 9fb7 6055 b0b7 3ef8 a1b4
000003d0: a364 0037 5f60 05b8 72e5 79b8 70f5 c0b7
000003e0: 134a fd38 7870 4639 ecb1 ef36 3f71 a138
000003f0: 16e5 29b8 63f1 03b9 b837 5b38 1c36 12b6
