raisimGymTorch/data/ouzel_only_planning/2022-05-09-12-17-53/full_87000.pt (torch, 162032 bytes, 36 tensors)

architecture.0.weight f4 [64, 27]
000000 c4 a3 1a bd 5b 62 0a bf 70 a4 fb 3d 83 c2 12 3f
       -0.037753835 -0.5405633 0.12287223 0.5732805
000010 a5 bd de bd 29 b6 26 be 6a c9 41 ba c7 e7 1b 3f
       -0.108760156 -0.16280426 -0.0007392379 0.6090054
000020 6c 29 4a 3e 76 9d 04 3e 2a 37 b4 3d df 31 85 bd
       0.19742364 0.12950692 0.08799584 -0.06503653
000030 70 dd 4f 3e 07 4d 10 bf 50 76 41 bf 26 d4 a9 bd
       0.20299315 -0.56367534 -0.75571156 -0.08292417
000040 44 d8 b9 3f 6e a3 c4 3f f1 ae dc 3e 36 4e ab be
       1.4519124 1.5362375 0.4310222 -0.33458108
000050 bc 5f 0d 3c a6 ab c9 3e 8f 6e 79 3e 92 2e d9 3d
       0.008628782 0.3938877 0.24358581 0.10604586
000060 8c 00 75 3e 79 23 90 be 02 d9 ae 3d 69 9b be 3c
       0.2392599 -0.28152063 0.08537485 0.023267465
000070 87 84 9f 3d a9 b9 1b be 9a 41 5c be 47 4a bc 3d
       0.077889495 -0.15207542 -0.215094 0.09193855
000080 a2 12 74 3d f2 1c bd bd 32 92 b9 bc e0 39 0d be
       0.059588082 -0.092340365 -0.02265272 -0.13791609
000090 4c 6f 00 3d e4 68 7c be 26 23 08 3e b4 77 cd bf
       0.03135614 -0.24649388 0.13294658 -1.6052155
0000a0 f7 3f 09 be fc f3 1a bf 6a 14 3b 3f e6 13 15 be
       -0.13403307 -0.6052854 0.73078024 -0.14558372
0000b0 1f 04 38 3f e0 21 12 be d7 c3 c5 3b da 12 89 3e
       0.7188129 -0.14270735 0.006035309 0.26772195
0000c0 5f 20 fd bc 26 43 c2 bd f5 ff 29 3d 86 b6 ff be
       -0.030899225 -0.09485464 0.041503865 -0.49943942
0000d0 c5 34 dd bd ee f3 c1 be aa 7f af 3e 90 81 2b 3f
       -0.108010806 -0.37881416 0.34277087 0.6699457
0000e0 1f 3c 25 3e 68 c0 1e 3f 3e 47 bc 3e d7 f0 06 3f
       0.16136216 0.6201234 0.36773103 0.5271124
0000f0 b7 ca e0 be b7 09 21 be 7b 93 1e bf 41 41 43 bb
       -0.4390466 -0.15726362 -0.6194379 -0.0029793533
000100 8c f3 7d be e6 e4 c9 bd 48 1f e2 be 65 77 2b 3f
       -0.24799937 -0.09858112 -0.4416449 0.66979057
000110 83 49 d1 be 56 cd 99 bd c0 34 db be e0 38 1b 3f
       -0.40876397 -0.07509868 -0.42813683 0.6063366
000120 30 2d ee 3c cd de 9b 3e ef 29 4d 3f 3a f8 96 be
       0.029074281 0.3044342 0.8014211 -0.29486257
000130 4c 55 00 3e 78 2d 94 be 74 65 9f bd 74 9f 74 be
       0.12532538 -0.2894094 -0.077830225 -0.23888952
000140 78 c0 42 be 4a d5 95 bf 28 de 2f bf 69 88 b0 3d
       -0.19018734 -1.1705716 -0.6869836 0.08619768
000150 4f db c1 bd f4 e5 b0 be f3 e4 38 bc ef 1b 8e be
       -0.09465658 -0.3455044 -0.0112850545 -0.27755687
000160 cf 8c 83 3d a1 2f 60 be f8 b0 90 bc bf aa d1 be
       0.064233415 -0.21893169 -0.01766251 -0.4095058
000170 13 bc b4 3d 0b 24 fd bf 6e 17 80 3e 4e 49 95 3f
       0.08824935 -1.9776624 0.25017875 1.1662996
000180 a9 bf ae 3c 2b 7c 1e bd 67 34 03 3c 20 bb 12 be
       0.021331625 -0.038692635 0.008008099 -0.14329195
000190 ef 4b b7 be eb 0b a7 be 2c f3 1a bd d2 71 13 3d
       -0.3580012 -0.3262628 -0.037829563 0.03599722
0001a0 e3 8d 49 be aa e0 40 3e 92 27 d6 bc 7c 68 98 bd
       -0.19683032 0.18835703 -0.026141915 -0.07441804
0001b0 aa 43 cd 3e 39 a4 d7 3e 77 8c 00 bf 32 f4 da 3e
       0.40090686 0.4211748 -0.5021433 0.4276443
0001c0 4a c5 0c be 1f a6 11 bf 6a 81 d9 3e 88 4a 15 bd
       -0.13747135 -0.56894106 0.42481548 -0.03644803
0001d0 44 c3 04 3a ba d1 93 be 03 d1 e7 be af a9 e9 bd
       0.0005064497 -0.28870946 -0.4527665 -0.11409318
0001e0 f3 e9 eb 3e 9a 68 da 3e ea 0b 74 3f 37 47 df be
       0.46076927 0.4265793 0.9533068 -0.4360902
0001f0 82 76 ae bc e8 2f eb 3e 70 37 98 3e bf 9e 88 3e
       -0.021296743 0.45934987 0.29729795 0.26683614
000200 1c f3 2e bf e6 f9 be 3e 0d 5d 23 3c bf b3 9a 3d
       -0.68339705 0.37300032 0.0099709155 0.07553815
000210 e7 16 db bd 5f 46 80 be 0d b3 3a be 58 15 90 3e
       -0.10697728 -0.2505369 -0.18232365 0.28141284
000220 28 9d 5b be 59 89 f6 be dd 65 ad bd ed 40 8c be
       -0.21446669 -0.48151663 -0.084666945 -0.27393284
000230 83 f6 a2 bd ef a0 18 be 32 4b e3 be 6a ac de be
       -0.07957175 -0.14905141 -0.44393307 -0.43490916
000240 ee 50 92 be 21 b5 97 3e 45 db b3 3e 74 db 8c be
       -0.2857737 0.29630378 0.35128227 -0.2751118
000250 3f 9d 39 3f 42 9f 0f 3f 7f d7 24 3f 7c 94 de 3e
       0.72505563 0.56102383 0.6439132 0.4347266
000260 9c 34 d4 be 96 6a 21 be 02 23 f8 be 1a 06 12 bf
       -0.41446388 -0.15763316 -0.4846421 -0.5704056
000270 5d 43 b5 3d 38 5b 5c bf b1 5c 97 be 9d e7 3f be
       0.08850739 -0.8607669 -0.29562905 -0.18740697
000280 f8 66 b7 3e b9 b5 c9 3d 59 94 87 3d 2f 93 1f bf
       0.35820746 0.09849114 0.06620092 -0.6233396
000290 35 07 1e bf 23 7b 06 3e c9 7c db be c5 d7 f7 3c
       -0.6172975 0.1313291 -0.4286864 0.030254254
0002a0 69 f7 8d be 7f 34 99 bd 0e 6f fe be 78 34 99 3e
       -0.2772782 -0.07480716 -0.49694103 0.29922843
0002b0 e9 5f e5 3d 36 3e 5d 3e 91 85 b0 bd e8 3d 6d 3f
       0.11199934 0.21605763 -0.08619226 0.92672586
0002c0 80 7a 9a 3e c7 30 37 3f 2e d5 e3 bd 3a 49 68 bf
       0.30171585 0.71558803 -0.11124645 -0.90736735
0002d0 a8 08 ab bd bf d7 30 be 9f c1 0a be 41 91 6c be
       -0.083512604 -0.172698 -0.13550423 -0.23102285
0002e0 9e 3d c3 bd ff 32 a1 3d 18 56 fd 3d 26 0b d7 3e
       -0.09533237 0.07871055 0.12369937 0.42000693
0002f0 bc 7d 2a bd 0b 3a d9 3e bb c1 cb be a9 37 00 bf
       -0.041623816 0.42427096 -0.39796242 -0.5008493
000300 2c 1c 06 3e db 9c d2 bd 3c 88 8d be 08 99 98 3e
       0.13096684 -0.10283824 -0.27643 0.29804254
000310 3f 49 b8 3e e9 41 ec be 89 16 0b 3e 79 ca 20 bd
       0.35993382 -0.46144035 0.13582815 -0.039255593
000320 52 f7 05 3f 72 0c 3b 3e 5f 1a a2 3f 6d 68 86 bf
       0.52330506 0.18266466 1.2664298 -1.0500618
000330 69 72 45 bc 75 bc 88 3e 4f d0 9a 3d fb db d0 be
       -0.012051203 0.2670628 0.07559263 -0.40792832
000340 fb 2a 22 3e ea 94 15 bd 82 4c 36 bd 89 16 28 bd
       0.15836708 -0.03651897 -0.044506557 -0.041037116
000350 4f 0b fd be 37 87 92 3e fc 6c f6 3c f8 87 1b 3f
       -0.4942269 0.28618786 0.030081265 0.60754347
000360 79 91 33 be fc 34 ed 3e a2 64 fb 3e bd 7c 04 bf
       -0.17535962 0.46329486 0.49100214 -0.51752836
000370 29 eb 5d 3e 28 a8 41 3e d1 cf 3a 3e 02 b4 bc bd
       0.21671738 0.18911803 0.18243338 -0.09214021
000380 ee fd a9 bd 5a cf 99 be bd 4a 65 bd 94 9b e1 3e
       -0.08300386 -0.3004101 -0.05597948 0.4406401
000390 33 77 c0 3d 43 29 0b bf 45 ac b4 3f 13 59 78 bd
       0.093977354 -0.54359835 1.4115072 -0.060631823
0003a0 2a 18 c9 3e 83 d6 c4 3e 77 62 8b 3e 41 11 c3 be
       0.39276248 0.3844491 0.2722356 -0.380991
0003b0 11 76 a0 be 26 09 8f 3e 84 5a a4 3d e7 51 51 bc
       -0.31340078 0.27936667 0.08025077 -0.012775875
0003c0 fa 08 01 bf e8 6c ab bd 5e 38 97 3c d9 c1 9f 3e
       -0.5040432 -0.083703816 0.018459495 0.31202582
0003d0 ba ea 9e 3e 1c 89 e1 3d 51 4c f0 be 86 27 2b 3f
       0.31038457 0.1101248 -0.46933225 0.6685718
0003e0 55 18 a9 3e dd 92 83 3e 62 84 af bd 69 73 6c bf
       0.33026376 0.25697985 -0.08570172 -0.923636
0003f0 4c fd d5 bd 39 13 bf 3e 73 1a b2 be 5f c3 ba bf
       -0.10448703 0.37319353 -0.34785804 -1.4590873

architecture.0.bias f4 [64]
000000 3e cf 14 3f 02 db 2f bf f3 6a a5 3f 9f 5b 38 3e
       0.58128726 -0.68693554 1.2923263 0.180037
000010 1c 2a 89 3e 2f fd 5c bf 02 90 9c bf e6 a9 a7 bf
       0.2678994 -0.8632383 -1.2231448 -1.3098724
000020 09 ef 8c bf 17 61 bd 3e f1 82 08 bf b9 07 17 3f
       -1.1010448 0.36988136 -0.533248 0.5899616
000030 2c 3a c6 3f 61 b5 ca bf 97 54 a7 3f 81 58 d2 3f
       1.5486503 -1.5836602 1.307269 1.6433259
000040 29 c5 60 bf ab b8 03 bf 3e 03 9c bf 07 6a 00 3f
       -0.8780084 -0.51453656 -1.218849 0.50161785
000050 3e a2 f9 3f 6f a5 9e bf c1 e7 7f 3f a5 45 a9 bf
       1.9502637 -1.2394236 0.99963003 -1.3224379
000060 97 fe e8 3d 1a 86 2a 3f 1a c0 aa 3d 44 16 f1 bf
       0.11376684 0.6661087 0.08337422 -1.883492
000070 96 41 42 bf da 26 11 3d 0c 5d 82 3b 87 bd 88 bf
       -0.75881326 0.035437442 0.003978377 -1.0682839
000080 11 02 a9 bf 37 7d 9c bf a8 06 9a bf 28 52 aa 3e
       -1.3203756 -1.2225713 -1.2033281 0.33265805
000090 9b c5 9e 3f 84 64 36 bf 30 61 68 3f 30 ec a9 be
       1.2404054 -0.71247125 0.90773296 -0.3318801
0000a0 fa f4 74 bf 97 d1 31 bf 53 e3 cc 3f b7 e1 81 bf
       -0.95686305 -0.69460434 1.6006874 -1.0147008
0000b0 6d 7e ac be de cb e0 3e bf d8 04 be 7f 60 27 bf
       -0.33690205 0.43905538 -0.12973307 -0.65381616
0000c0 67 c7 e5 3e e1 0a a4 3f d5 9b 9c 3f ab 23 85 3f
       0.44878694 1.281582 1.2235056 1.040151
0000d0 4b 18 50 3e 80 f4 ba bf 77 4a 46 bf e4 f9 e0 3e
       0.20321767 -1.4605865 -0.77457374 0.4394065
0000e0 b9 19 3a bf 3d 9b ae bf 8f 91 be 3f 7c 36 d3 3f
       -0.726955 -1.3641125 1.4888171 1.6501002
0000f0 ef 33 d7 3f 1f 89 b0 3f 85 22 67 bd fb 1c c6 3d
       1.6812724 1.3791846 -0.056429405 0.09673496

architecture.2.weight f4 [64, 64]
000000 95 f0 0f 3e ff 37 c4 3e ba b5 f2 be d7 94 1b 3e
       0.14056619 0.38323972 -0.4740427 0.15193497
000010 52 e3 88 bd 1e 95 b6 3d 7d 92 9a 3e 4e 97 ea 3e
       -0.06683983 0.089151606 0.30189887 0.4581856
000020 75 7d 09 3f 1d d3 03 3d 25 8b 23 3e e4 3f ed bd
       0.5370706 0.032183755 0.15971048 -0.11584452
000030 a9 ca 0d bf e6 45 21 3e ab 1d aa be cb f4 86 be
       -0.5538736 0.1574932 -0.3322576 -0.26358637
000040 09 f0 c2 3c 3c 20 a2 3d 69 6c 33 3f ae c0 85 bd
       0.023796098 0.079163045 0.70087296 -0.06530891
000050 b1 b2 8b bf 45 c3 dd 3e dc 7e 0d bf ee 5a ea 3e
       -1.0913907 0.4331304 -0.552717 0.457725
000060 d1 9a 36 bd da 9f ce 3d 4a c2 6d 3d e7 b9 e8 3e
       -0.04458124 0.10089083 0.058046617 0.45454332
000070 5e 66 e4 3e 9d 0e e9 3d 7f 40 26 be 28 04 82 3e
       0.4460935 0.113797404 -0.16235541 0.25393796
000080 6b 9c 8f 3e 33 c8 8e 3e 58 f4 43 3e e1 f2 90 3d
       0.28049025 0.27887115 0.19136178 0.070775755
000090 a2 a3 9b be 56 ca 41 be fe f1 ae be fe c5 fc 3c
       -0.3039828 -0.18924841 -0.34169 0.030856129
0000a0 5a a6 53 3e 7d 41 81 3e e0 b8 8c bd 84 89 90 3e
       0.20668927 0.25245276 -0.068711996 0.28229916
0000b0 b9 09 54 be 1e f5 d8 be 4b 22 dc 3d a8 ad 91 3e
       -0.20706834 -0.4237451 0.10748728 0.28452802
0000c0 05 87 79 3e 0a 14 0a bd 9a bd ad be a4 28 02 3f
       0.24367912 -0.033710517 -0.33933717 0.5084326
0000d0 38 bd ca bd 58 fb 34 3e 0d 7d fa 3e 63 3a 0a 3f
       -0.09899372 0.17674005 0.4892353 0.5399534
0000e0 10 e6 f9 3d 3e 06 ef 3e 1b 86 83 bf 48 b9 e2 be
       0.12202084 0.4668445 -1.0275301 -0.44281983
0000f0 56 30 25 bf f4 1f 4a bf 4e 6f 50 be 09 e0 2d 3e
       -0.6452688 -0.78955007 -0.2035496 0.16979994
000100 77 d1 38 3d 57 bb 99 be 7f ea 40 3d 73 c3 d6 3e
       0.045121636 -0.3002574 0.047098633 0.4194599
000110 21 e5 21 be 5c ae 26 bd 05 8a 2d be fc f2 15 bf
       -0.15810062 -0.040693626 -0.16947182 -0.5857389
000120 b8 a6 30 3f 28 52 f5 3d fb 31 00 3d f3 93 1a bd
       0.6900439 0.11978561 0.031297665 -0.03773875
000130 ff 47 13 bd 43 36 33 3f 53 d5 da 3e bc 4a 45 3e
       -0.035957333 0.7000467 0.42740878 0.1926679
000140 e4 43 c3 3d 6e 16 23 3e b0 21 d6 be 7b 8f 3f 3d
       0.095344335 0.15926525 -0.41822577 0.046767693
000150 8f 3f 56 3f 9f 57 9f 3e 29 99 80 3b 15 42 4f be
       0.8369073 0.31121537 0.003924508 -0.20240052
000160 3d b1 46 3e 2b d8 e7 3e 85 73 2d bd 7e 73 b1 bd
       0.19403549 0.4528211 -0.042346496 -0.086646065
000170 3d d2 52 3f 57 36 c8 3e fa 1d d1 bd a7 c8 1a 3f
       0.8235205 0.39103958 -0.10210796 0.6046242
000180 8a e5 e0 be 54 9c 0f be af 0d 77 bc fe 0e 9f 3d
       -0.43925124 -0.14024478 -0.015078946 0.077665314
000190 76 34 9a 3d 71 a1 bd bd e3 f1 0c be c9 0d fb 3d
       0.075295374 -0.09259308 -0.13764147 0.12258489
0001a0 e9 fc 4f 3e a6 05 a0 bc 6b 13 9c be 46 77 89 3e
       0.20311321 -0.019533943 -0.30483565 0.2684881
0001b0 e6 8a 48 3b 18 55 55 be 95 4d 09 be 7b e7 1a bd
       0.0030600368 -0.20833242 -0.13408501 -0.037818413
0001c0 20 c6 52 3c 86 d9 00 bf 80 80 fe 3d 12 a5 86 3e
       0.0128646195 -0.50331914 0.12426853 0.26297814
0001d0 5f 57 48 be 87 47 71 3f 4e b6 70 3e c5 7d a7 bd
       -0.1956458 0.9424977 0.23507044 -0.081782855
0001e0 8b d3 83 3e 07 e0 34 3f 47 c6 d2 bc b2 79 26 3f
       0.25747332 0.7065434 -0.025729312 0.6502944
0001f0 2c 0c 71 3f 9a 3c 7d be 42 3e de 3e fb 17 8f 3d
       0.941592 -0.24730149 0.43406874 0.06986996
000200 3f 55 3d 3e 6f 22 04 bf c5 be 0e 3e 58 91 b8 be
       0.1848955 -0.5161504 0.1393996 -0.36048388
000210 be d5 05 be d5 f7 85 bd 74 07 c8 3d 6a c3 1a bf
       -0.13069817 -0.06541411 0.097670466 -0.6045443
000220 22 a9 ba be 76 05 84 3e 65 ff 94 3b 32 5c 46 3d
       -0.36457163 0.25785416 0.004547047 0.048427768
000230 be 6d ea bd 00 32 fd bd 17 64 40 3d 02 5d 50 be
       -0.11446713 -0.12363052 0.046970453 -0.2034798
000240 0e d6 07 bf 1b fc 36 3f fa b2 32 bf 66 7f d4 be
       -0.53060997 0.7147843 -0.69804347 -0.41503447
000250 6b 06 76 3f 17 01 49 bf 47 f9 17 3d de 60 57 bd
       0.96103543 -0.7851729 0.037102964 -0.052582614
000260 5a 17 e9 3e 6d 6b 42 bd ff 90 35 3f 51 85 c6 3e
       0.45525628 -0.04746573 0.7092437 0.38773587
000270 d4 3c 1a be 23 39 fe be 61 4a 3b 3f c3 56 89 bf
       -0.15062267 -0.49652967 0.7316037 -1.0729603
000280 67 c8 23 3e 6e 8c 00 3f 6e 6f 3e bf bf 12 84 3e
       0.15994416 0.5021428 -0.7438878 0.25795552
000290 36 94 d3 3e 46 56 d8 be f7 5d a4 3e 87 fd 4c 3f
       0.41324013 -0.4225332 0.3210294 0.8007435
0002a0 00 72 fb 3e e7 66 cd be 0c 91 a0 3e 77 76 93 bf
       0.49110413 -0.4011757 0.31360662 -1.1520528
0002b0 95 21 16 3e cb e4 08 3f c5 cb 98 be 9d 85 02 bf
       0.14661248 0.5347411 -0.29842964 -0.5098513
0002c0 2f af be bc 38 26 1c 3f 20 d1 92 be f6 bb f5 3e
       -0.023276893 0.6099582 -0.28675175 0.47994965
0002d0 db 79 0a 3f 10 74 63 3b fc 48 43 bf 68 53 08 bf
       0.54092187 0.003470663 -0.7628324 -0.5325227
0002e0 95 98 19 3e 4f 4b 36 bf 7c 33 1a 3f 29 26 d7 3e
       0.14999612 -0.7120866 0.6023481 0.420213
0002f0 79 7f 24 be d7 ca 19 3e 14 3f a0 bd e2 9e 34 bd
       -0.16064252 0.15018784 -0.07824531 -0.044096835
000300 36 0e 3c bf a6 91 e3 3d 00 8e 40 be b5 1f 5f 3e
       -0.73459184 0.111117646 -0.18804169 0.21789439
000310 62 9b 0b 3f 72 b8 89 3e b2 e9 40 3f 34 19 b5 be
       0.5453397 0.26898533 0.7535659 -0.3537079
000320 7c 06 b6 3e a7 71 0e bf 0c e5 7f 3e 11 97 3f bf
       0.35551822 -0.5564217 0.24989718 -0.74839884
000330 d1 b7 dd 3d c8 3d 12 3f f0 1b 73 be 8d 9c 04 bf
       0.10826076 0.5712552 -0.23741126 -0.5180138
000340 cf 65 ff 3e 8d 7c 2c 3e 42 a8 82 3e 80 61 7a 3f
       0.4988236 0.16844387 0.25518996 0.97805023
000350 10 56 39 bf e4 84 3a 3e 0f d4 22 bf 8b d6 23 bf
       -0.72396946 0.18214756 -0.63604826 -0.6399924
000360 b7 c9 f2 be 58 44 2c be ca 3d 1f bf 4f dd ef 3d
       -0.4741952 -0.16822946 -0.6220366 0.11712133
000370 bb b1 a4 3d d4 c4 cc 3e 3f 8f b5 bd 94 69 0c 3f
       0.08041712 0.39993918 -0.08865213 0.548486
000380 09 19 0a 3f fd 8b 69 bf 12 9b 8d 3e db 5a 84 3e
       0.5394445 -0.9122923 0.27657372 0.25850567
000390 57 70 42 bf a5 a1 07 3f ec 69 42 bf fb 5b 97 3e
       -0.75952667 0.52981025 -0.75942874 0.29562363
0003a0 6a 6c 0a be c0 35 89 3f b8 76 9c bd a4 1e 8f be
       -0.13517919 1.0719528 -0.07639831 -0.27953064
0003b0 b3 5e 22 3f 80 84 79 bf 02 9e 33 3f c4 28 87 be
       0.6342575 -0.97467804 0.70162976 -0.2639829
0003c0 f5 f7 9c bb 70 67 0c bf dd a0 c2 3e c4 e5 45 bf
       -0.004790301 -0.54845333 0.38013354 -0.7730372
0003d0 31 c2 ec be 4c e1 fd be 67 1f 8e 3e 88 16 76 3f
       -0.46241906 -0.4958595 0.27758333 0.9612813
0003e0 26 93 42 3f 4d 39 b8 be f7 e2 6a be 59 77 6d 3e
       0.7600578 -0.35981217 -0.22938143 0.23190059
0003f0 7a 34 09 3e 7f 1b 83 3e 48 7f 02 3c 84 e4 31 bf
       0.13398924 0.25606915 0.0079649165 -0.6948931

architecture.2.bias f4 [64]
000000 0d 9a 03 c0 fe 7d 18 3e fd dd a2 3f 29 10 25 bf
       -2.0562775 0.14891812 1.2723995 -0.64477783
000010 19 b7 f8 be d4 3f 1d bf dc 3b 3d 3f 08 ba 5a bf
       -0.48577192 -0.6142552 0.73919463 -0.8544011
000020 4d 15 46 be 6e 34 18 bf 34 d8 c7 be 4b 63 d3 3d
       -0.19344063 -0.59455 -0.39032137 0.10321673
000030 71 77 17 3e 53 59 3f bf 0b c3 45 3f 7e ec 8a 3e
       0.14791657 -0.7474567 0.77250737 0.27133554
000040 14 8e 85 3f 26 f5 4d 3f c9 22 12 40 df c8 39 3f
       1.0433984 0.8045219 2.283373 0.7257213
000050 da 5b 37 bf b5 96 89 3e e4 0e c9 be 40 3c 70 bf
       -0.7162453 0.26872793 -0.39269173 -0.93841934
000060 b7 a3 80 bf 06 e4 15 3f 57 24 0b 3d db e4 24 3e
       -1.0049962 0.5855106 0.033970203 0.16102926
000070 7f 9f 38 40 51 c0 4e be b3 2c e8 3e aa 7b 13 3f
       2.8847349 -0.2019055 0.45346603 0.5761057
000080 ce e2 90 be 3d 54 46 bf 56 9a 2a 3f a9 57 08 3f
       -0.28298038 -0.7747229 0.6664175 0.5325876
000090 31 ef 2a bf a1 4c 0f 3d e2 82 3e bf 9d 06 da 3f
       -0.6677123 0.03498519 -0.7441846 1.7033268
0000a0 5b 00 0e c0 8a 6b ea 3e b8 8a 18 bf 0c 9e 04 3e
       -2.2187717 0.4578517 -0.5958667 0.12950915
0000b0 19 71 c7 3e ff 6b a7 3f 1f 93 e5 bf fc a9 1a 3f
       0.38953474 1.3079833 -1.7935523 0.60415626
0000c0 c5 85 e4 3e ce 23 0f bf 8b 34 b1 bf 4a f2 53 bf
       0.44633308 -0.5591401 -1.384416 -0.8279158
0000d0 5a bc 74 3f 21 b7 05 3f 5b 4e 8b bf 04 6b 24 40
       0.955999 0.5223256 -1.0883287 2.5690317
0000e0 2a 7f 1d bd f9 a6 d3 3e f0 40 40 3e ba ca ff bd
       -0.03845135 0.41338328 0.18774772 -0.12489839
0000f0 ae ed 3a be bc 3b 6e 3e 08 3c 51 3e ff 28 32 bf
       -0.1825473 0.23264974 0.20433056 -0.69593805

architecture.4.weight f4 [9, 64]
000000 90 69 c2 bc 62 70 e3 3d c4 ce 1a 3a 9a 5e c9 ba
       -0.023731977 0.1110542 0.0005905444 -0.0015363276
000010 1c 75 a1 3c ea ca 58 3c 7e a3 7a 3c 12 53 b7 bb
       0.019709162 0.013231972 0.015297769 -0.0055946195
000020 41 b9 83 bc 8c af e4 3c 19 1a 96 bb 48 22 d1 bb
       -0.016079547 0.027915739 -0.004580748 -0.0063822605
000030 6c 55 f8 3c 05 1f 38 bb b8 dc 15 bc 9b ba 25 3c
       0.03031417 -0.002809466 -0.009146862 0.010115291
000040 8f af fe bc 62 04 8b bb 0e b5 62 3c 28 d4 9a bc
       -0.031089572 -0.004242466 0.013837112 -0.018899992
000050 5d 62 c0 3a d1 b3 ab 3b 7c 36 c2 bc 89 34 be 3b
       0.0014677752 0.0052399416 -0.02370762 0.0058046025
000060 a2 bb 8d 3b 0d 3e b7 3c ce a0 3a bc 22 ce 02 bc
       0.004325346 0.022368455 -0.011390878 -0.007983716
000070 51 7f 18 3d 3a ca 75 bc 23 df 4a 3c 39 d8 d8 bc
       0.037230793 -0.015001828 0.0123823015 -0.02647029
000080 f2 bd 09 be 5a 17 b6 3c 34 2c 07 bd 22 34 01 3c
       -0.13451365 0.022227932 -0.03300114 0.007885965
000090 d7 6e 44 bc fb 9b cd 3b 98 9a 4e 3b c3 d9 0c 3d
       -0.011989317 0.006274698 0.003152525 0.03438736
0000a0 aa 82 77 bc 5e 07 c3 3c 26 95 9d bc 0e cb 81 bc
       -0.015106836 0.023807224 -0.019236159 -0.015843894
0000b0 e5 fa 0d 3c 6b 3b f7 b9 55 b8 af bc 5d fb 63 bc
       0.008665775 -0.0004715578 -0.021450201 -0.01391491
0000c0 66 57 a7 ba 1f 3c 27 ba 6d d5 8b bc b4 f0 19 bd
       -0.0012767136 -0.0006379503 -0.017069543 -0.037583068
0000d0 f7 35 64 3c 3f ee bb bb eb 30 85 3c 91 e8 b9 bc
       0.013928882 -0.0057351883 0.016258677 -0.022693904
0000e0 8e 95 d4 bc b4 10 43 3a 0f f2 75 bb a9 d8 da 3c
       -0.02595022 0.00074411486 -0.0037528311 0.02671464
0000f0 86 a7 99 bc c4 3b 33 3b b3 f7 04 3c 0b ab 9a 39
       -0.01875664 0.0027348856 0.008115697 0.00029500606
000100 36 51 6f bd 64 91 61 3d 05 d8 07 bd d7 fc 2c 3c
       -0.05842706 0.055070296 -0.033164997 0.010558329
000110 6a 27 51 3a 4e d2 ac 3c b8 a6 81 bd 69 49 06 3d
       0.00079785904 0.021096375 -0.06330627 0.032784853
000120 01 a5 87 bc 6b 02 76 3c bb 39 16 bb ee c1 0c bb
       -0.016558172 0.015015225 -0.0022922594 -0.0021477896
000130 81 08 fd 3d a5 b4 a7 bc fc b3 f2 39 b1 18 32 bc
       0.123551376 -0.02047188 0.00046291936 -0.010870145
000140 d1 84 87 3b 43 d0 ac bb 09 3b 00 3c 1b 20 e7 3b
       0.004135706 -0.00527385 0.007826575 0.007053388
000150 d9 f6 35 bb 8f f9 71 3c 97 71 15 3a f6 b2 29 bd
       -0.002776554 0.014768972 0.0005700825 -0.041430436
000160 60 d3 be b9 79 07 4f bb 2b 3a 92 3b 04 f4 25 3c
       -0.0003639711 -0.0031590147 0.0044625006 0.010128979
000170 f9 24 83 bc 7f 83 7e 3b f5 13 3d bc 94 6a ef 3b
       -0.01600884 0.0038835702 -0.011540403 0.0073064063
000180 4f 54 70 3d ad 67 35 bc 1f 97 3f 3c a4 cb 0a bb
       0.058674153 -0.0110720815 0.011693745 -0.0021178508
000190 e4 64 e2 3b 0e fb 81 3c e8 4f 8c ba ce 35 36 3c
       0.0069089998 0.015866783 -0.0010704966 0.0111212265
0001a0 75 17 2b ba 99 bf fa 3b fa e9 54 bd 43 27 ad 3c
       -0.00065266277 0.0076522348 -0.05198095 0.021136886
0001b0 64 3f 6c bb 92 97 1d bc 44 bd 3a bc de 0a a6 bc
       -0.0036048526 -0.009618657 -0.0113976635 -0.020268854
0001c0 02 04 35 bd f8 a0 72 3c 66 5c e8 bb dd a0 46 3d
       -0.044193275 0.014808886 -0.007091093 0.048493255
0001d0 62 46 3c 3c 5d 6b 02 3c b3 94 26 3c 21 8b b2 bc
       0.01149139 0.007960168 0.010167289 -0.021794857
0001e0 ac 92 ca 3c 54 6e 61 3c 15 f1 8e 3b b5 c2 a4 3b
       0.024728142 0.013759214 0.0043622353 0.0050280937
0001f0 a3 46 39 bc 6d 08 b0 39 82 2e 6c bb d4 f8 37 ba
       -0.011308345 0.00033575614 -0.0036038463 -0.0007017974
000200 20 58 f1 3c 2c 0f 12 be 34 9f e8 3c d5 cb 29 3b
       0.029460967 -0.142636 0.028396226 0.0025908847
000210 0e 91 c1 3b 9d 0b 29 bc 39 55 81 bc 9b 14 9f 3c
       0.0059071844 -0.01031771 -0.015787708 0.019419005
000220 e7 99 cb bb 51 af 94 3b 08 38 82 3c 71 ac 6f bc
       -0.006213415 0.004537501 0.015895858 -0.014628516
000230 79 b5 3d 3d 71 8e 80 bc 38 c2 dd 39 55 6b fc ba
       0.046315644 -0.015692921 0.0004229711 -0.0019258062
000240 69 ba 01 bc 06 ab 50 bc 9d 8b 01 bc ea b1 d1 ba
       -0.007917979 -0.012736088 -0.007906822 -0.0015998457
000250 00 7f 81 bc fb 27 03 bb e7 12 fb bc 63 98 c3 bb
       -0.015807629 -0.0020012844 -0.030648662 -0.0059690936
000260 43 98 04 bc 2e 20 3e 3b ad bf 29 3c 5e d8 8f bb
       -0.008092943 0.002901088 0.0103606405 -0.0043898067
000270 32 fd 26 3e 4b 41 2c 3b 60 72 ac bb 59 63 51 3c
       0.16307524 0.0026284035 -0.005262658 0.012780034
000280 53 e6 22 bd e2 8c 0b bc 22 f6 8d bc 98 13 c7 3b
       -0.039770436 -0.008517476 -0.01732928 0.006075334
000290 11 16 46 3c 98 05 9f 3b ce bc d2 3c 1f 53 9c 3c
       0.012090222 0.0048529617 0.025724795 0.019082604
0002a0 6a 5a b3 3a 32 7a 54 bc 47 1c a0 ba 1e e2 89 3c
       0.0013683562 -0.012968587 -0.0012215459 0.016831454
0002b0 a5 bb 43 bc f7 1b 8e 3b 69 25 c3 bb 8a ce 88 3c
       -0.011946593 0.0043368298 -0.0059553874 0.016700048
0002c0 cd 88 cc bc 96 bd f5 bb 4d 0f c3 bc df 05 a9 3d
       -0.024967575 -0.007499407 -0.023811007 0.08253073
0002d0 f5 c5 a7 bc a2 26 93 bc db 33 7a bb 3e 03 45 bc
       -0.020480135 -0.017962757 -0.003817788 -0.012024699
0002e0 e8 eb 29 3b 58 af 80 bc bf d6 88 bb d4 dc 6b bc
       0.0025927965 -0.01570861 -0.0041759904 -0.014395911
0002f0 6d 69 c8 3c 8f 6c 5c 3c d8 e7 cf 3b a9 fe 25 bc
       0.024464333 0.013453617 0.0063447766 -0.0101315165
000300 ff f5 61 bf 2b 74 bb bd b9 1e 39 3f 41 c8 10 bf
       -0.88265985 -0.09153017 0.72312504 -0.56555563
000310 76 0d 2a be 5a c5 42 bd e9 c3 f5 3d 96 09 d7 be
       -0.16606697 -0.04755149 0.120002575 -0.419995
000320 46 fb ab be 29 8f 8d be e8 65 58 be 32 1d bd 3d
       -0.33590144 -0.27648285 -0.21132624 0.09234084
000330 35 8d 6c 3e 8a c8 38 bf fe 7a 2d 3e 78 c7 08 3e
       0.23100741 -0.72181 0.16941449 0.13357341
000340 5f 60 e5 3e 0d ea 23 3f 02 bb 64 3f a4 99 95 3e
       0.44800088 0.6402901 0.8934785 0.2921878
000350 e2 20 e1 be ab 20 c3 3e c3 92 96 3c f7 e8 5e bf
       -0.439704 0.3811086 0.018380528 -0.87074226
000360 ee e4 80 bf d4 83 af 3e 69 0d 7f be 65 34 ff 3d
       -1.0069864 0.34280264 -0.2490746 0.12461165
000370 a0 fd 52 3f 15 c0 04 bf 97 43 4f 3e a5 ac 87 bb
       0.8241825 -0.51855594 0.20240627 -0.004140454
000380 eb 7e 5a be 03 c7 95 be 29 49 ff 3e 6e d5 a9 bd
       -0.21337478 -0.29253396 0.49860504 -0.082926616
000390 86 c6 c8 be 6d 9c 20 3e 09 7b 95 be e8 39 f8 3e
       -0.3921396 0.15684672 -0.2919543 0.4848168
0003a0 c5 ed 2d bf f1 15 33 3e 16 19 80 be 28 8a 02 3e
       -0.6794093 0.17488839 -0.2501914 0.12748015
0003b0 b3 38 19 3f 30 a4 4a 3f b8 7e cf be c1 dd 86 3e
       0.5985214 0.7915678 -0.40526366 0.2634106
0003c0 a0 e2 94 3d 71 4f 86 be e5 41 a8 be 3e 13 8a be
       0.07269788 -0.26232484 -0.32862774 -0.26967806
0003d0 13 21 15 3e 8d 54 26 3e ab 1a 3b bf 24 ff 3b 3f
       0.14563398 0.16243191 -0.7308757 0.7343619
0003e0 9f bd 7d bd 0c 29 1a 3e 41 74 24 3d f4 f7 b6 bd
       -0.061948415 0.1505472 0.04014993 -0.08934012
0003f0 b7 66 d5 bd 41 8e 3f be e9 6a 21 3e e0 e0 d0 be
       -0.10419982 -0.1870661 0.15763439 -0.40796566

architecture.4.bias f4 [9]
000000 d0 fa 8a bd df 87 db bb 83 bd 86 bd ea 2f 8e 3f
       -0.0678612 -0.0066995467 -0.06579115 1.1108372
000010 78 0c 9d 3d 0a c6 b6 bc c9 d0 95 bd 73 ef 40 3f
       0.07668394 -0.02231123 -0.07315213 0.7536537
000020 d6 07 53 be
       -0.20608458

std f4 [9]
000000 cd cc 4c 3e cd cc 4c 3e cd cc 4c 3e 27 b9 b7 3e
       0.2 0.2 0.2 0.35883448
000010 cc 38 4e 3e 67 e1 4c 3e 44 69 80 3e 78 1f 56 3e
       0.20138854 0.20007859 0.2508031 0.20910442
000020 cd cc 4c 3e
       0.2

architecture.0.weight f4 [64, 27]
000000 fc f4 80 bd af 32 2e 3c 00 bc 7c bd 1a da be 3d
       -0.06296727 0.010632201 -0.06170273 0.09318943
000010 83 0a ce 3f b3 ab 87 be 4e 43 87 bf c0 d7 f0 be
       1.6096958 -0.26498184 -1.0567415 -0.47039604
000020 fe 80 5d bf e7 76 9d bd c2 52 1f 3e 67 95 73 3d
       -0.8652495 -0.076886944 0.15558913 0.059468653
000030 c4 54 bc bc ab bc f9 3d 52 f3 ce bd d8 68 16 bd
       -0.022989638 0.12194189 -0.101050034 -0.03672108
000040 7d 0b 85 be 52 90 86 c0 c2 81 4d be 8c a1 d3 bf
       -0.25985327 -4.205117 -0.2006903 -1.6533675
000050 9f 77 86 3e 7c 5d 9c 3f e0 50 12 3f 3d 85 73 3f
       0.2626314 1.2216029 0.57154655 0.9512518
000060 3b 1d b5 3d 12 44 11 be 61 12 8b be 63 7b 8e 3a
       0.08843466 -0.14186123 -0.2716246 0.0010870512
000070 5c 8f a3 3c 48 d8 89 3b b1 9a 84 3d 69 49 4b be
       0.01996582 0.004206691 0.064748175 -0.19852223
000080 f9 35 04 3f 12 5e 24 be 94 91 03 bf 81 b2 76 3e
       0.51644856 -0.1605151 -0.5139401 0.24091531
000090 5d 59 81 3d 22 1f ad bc 92 ee d1 be a4 0b 26 3e
       0.06315873 -0.02113301 -0.41002327 0.16215378
0000a0 db 92 49 3e 51 2e a9 be d4 49 9c 3d 94 2c bc 3d
       0.19684927 -0.3304315 0.07631269 0.0918819
0000b0 b7 be 83 3b 46 85 75 bd b1 d1 1b 3e de 6f 5e be
       0.0040205377 -0.059941553 0.1521671 -0.21722361
0000c0 f2 46 34 3e c4 d8 cf 3e 3c 6b cf 3d c7 1f d3 3c
       0.17605188 0.40595067 0.10127875 0.025771989
0000d0 f5 27 30 be 5f d2 63 be 0a 62 a5 bd 3e 23 39 bd
       -0.17202742 -0.22248219 -0.0807534 -0.045199625
0000e0 d7 21 90 3d cd 4e bc 3e 9e e6 3d bf 1f 39 63 3f
       0.070377044 0.3677887 -0.7418002 0.88759035
0000f0 48 30 66 3f 11 58 65 3f 04 47 4d bf f0 01 64 3e
       0.8991742 0.89587504 -0.80186486 0.22266364
000100 5e b2 1a 3d f3 86 46 3c bd 92 c2 3c 75 c7 04 be
       0.03776776 0.012117135 0.02375161 -0.12966712
000110 f1 13 65 3b a4 6f ff 3c d2 cc f1 be 6f e6 17 bf
       0.0034954513 0.031181164 -0.47226578 -0.5933599
000120 9a 41 b9 be 59 b1 31 3f 26 27 58 bf 4c c9 74 bf
       -0.36182863 0.69411236 -0.84434736 -0.95619655
000130 4f e8 5d bf 9c 26 42 3f 38 99 50 be 9a 51 db bb
       -0.866826 0.75840163 -0.20370948 -0.0066930773
000140 77 67 07 be bc e9 97 bd 4a eb de bd 3a 85 dd 3e
       -0.13223062 -0.07417628 -0.108847216 0.43265706
000150 39 88 d5 be b5 b1 ab 3d 77 5a b0 bc 83 dc 92 3e
       -0.41705492 0.08383504 -0.021527512 0.28683862
000160 32 53 ba be f9 0a 7d 3e fd 73 ad bd 37 50 30 3e
       -0.36391598 0.24711217 -0.08469389 0.172181
000170 9e c7 c2 3d 49 d5 10 bd 06 4f 84 bc 33 b4 31 bc
       0.0951073 -0.035359655 -0.016150963 -0.0108461855
000180 a9 cf 9a bc 28 50 15 bd 21 d5 02 3c 0f d7 c6 3e
       -0.018897848 -0.036453396 0.007985384 0.38835952
000190 15 91 9d bd e1 d1 3a 3a fa 3b 7e be 32 07 a6 3e
       -0.07693688 0.00071266113 -0.24827567 0.32427365
0001a0 8f b3 77 be 65 5a 64 3d cb 85 1f be 8f e8 11 be
       -0.2418959 0.05575027 -0.15578382 -0.1424887
0001b0 02 7a dd 3c 68 03 89 bb 4a 6c e3 3b 79 95 b1 3d
       0.027035717 -0.0041813143 0.0069403993 0.08671088
0001c0 13 41 2a bd 74 65 a4 be 95 13 05 3e 0b c1 e0 3c
       -0.041565966 -0.32108653 0.12995751 0.0274358
0001d0 c4 48 02 bd 24 cd 89 3d d4 02 c3 bd 65 16 6d be
       -0.031807676 0.067285806 -0.09522024 -0.23153074
0001e0 56 dd bd be 06 c7 e0 3d 4e 09 9b be 88 92 d0 3b
       -0.37082928 0.10975461 -0.30280536 0.006365124
0001f0 8e 13 00 3d 6e 10 4b 3c a4 2a 19 3e 12 a9 61 bd
       0.03126865 0.012394054 0.14957672 -0.05509288
000200 26 80 df bd 7c 8c 01 be 61 e0 91 3d 23 38 82 3e
       -0.10913114 -0.12651247 0.07122875 0.25433454
000210 ad 00 0b 3e 21 a1 1f 3c 2c 23 a5 bd 81 51 a8 bb
       0.13574477 0.009743006 -0.08063349 -0.005136669
000220 a3 9a cc bb 52 cc 7f bd 7f a4 a6 bb 11 ef 12 3d
       -0.00624402 -0.062450714 -0.0050855274 0.035872523
000230 ce 31 e1 3d 45 db 4e bd 7b 4a 0c 3d 18 d3 51 3d
       0.109958276 -0.05050208 0.034250718 0.051226705
000240 ca 23 9d 3b 48 03 8a bc ee 91 36 3e a3 4c 4f 3f
       0.004795526 -0.016847268 0.17829105 0.80976313
000250 5b 76 08 3d 36 f6 0c 40 74 2a 91 bc 6a 8d 42 bb
       0.033315998 2.2025275 -0.017720439 -0.002968634
000260 96 bc 3d bd 7b 6c 13 bd b9 67 35 bd 7d 14 e4 bc
       -0.046322428 -0.035992127 -0.04428837 -0.0278418
000270 4a 21 ba 3d e2 c5 1b bc b5 a4 aa bc 9f ec 78 bb
       0.09088381 -0.009507628 -0.020830492 -0.0037982834
000280 8f c4 f0 ba 01 2c 1f 3c 69 ec 59 bc d9 9b a8 3a
       -0.0018369126 0.009715081 -0.0133009935 0.0012863829
000290 81 d3 a7 ba e6 f9 c3 bd 60 85 87 3d d3 df 8e bd
       -0.0012804122 -0.09569149 0.06617236 -0.06976285
0002a0 82 52 4d be a5 7a 1d be 5d 68 61 3d 1b 02 f0 3d
       -0.20051005 -0.15378816 0.05503117 0.117191516
0002b0 2d e2 75 bd 54 b5 b6 bd 31 a5 a8 3b d3 ca 4f bc
       -0.06003015 -0.08921304 0.0051466455 -0.012682634
0002c0 e7 6a b2 bc 68 54 7c 3b 0d ce e1 3c 73 f4 9e 3e
       -0.02177949 0.0038502458 0.027564073 0.31045875
0002d0 e5 e0 7d 3d dc d4 24 be fb 50 c9 3d bc 09 d6 bb
       0.061982054 -0.16096824 0.09829899 -0.006531922
0002e0 b9 c4 2c 3e 50 8e fa bc 37 7a d1 3d 85 9a cf bc
       0.16871919 -0.030585438 0.10228389 -0.025342235
0002f0 7e c2 af 3d fb 66 0a bd f1 b0 1e 3c 78 3c 82 3c
       0.08582018 -0.033789616 0.009685741 0.015897974
000300 07 fe 14 bd 38 d7 92 3c 76 55 8b 3c f2 c2 59 3c
       -0.03637507 0.01792489 0.017008524 0.0132911075
000310 56 eb 87 bd 08 94 b9 bd 31 ce c0 3c a3 37 59 3c
       -0.06636684 -0.09061438 0.02353582 0.013257894
000320 b6 22 28 bd a3 17 d7 3f 59 19 d1 bf 26 b3 4c 3e
       -0.041048728 1.6804088 -1.633586 0.19990215
000330 98 e7 5a bc 4b 6a da bc f0 dc 0b be b9 f0 5b 3d
       -0.01336088 -0.026662013 -0.136585 0.053696368
000340 9f 22 73 bd da e7 6a 3d 59 db cd bc d7 1b d2 3b
       -0.05935919 0.057350017 -0.025129007 0.00641201
000350 ed 9d 7e bb dc 7a c3 bc a0 4c ec bc 85 41 0f bd
       -0.0038851455 -0.023862295 -0.028845131 -0.034974594
000360 3e e7 a2 bc 77 fe a3 3c d8 7f d2 3c c7 20 31 be
       -0.019885655 0.0200188 0.025695726 -0.1729766
000370 b9 54 7e 3d ec a6 ef be 80 f7 a3 3e a6 c5 ea 3c
       0.062092517 -0.4680704 0.32024765 0.0286587
000380 61 90 d5 3e 47 43 41 be 5c 30 5b 3e e6 33 ae be
       0.41711715 -0.1887332 0.21405166 -0.3402397
000390 41 ed 8a be f3 ad 79 3e 8e 81 9c be 24 02 d9 bd
       -0.27134135 0.24382763 -0.30567592 -0.105961114
0003a0 3b 40 23 be d5 fc 5a bd 8b af 1a be d1 22 da 3d
       -0.1594247 -0.053463776 -0.15106027 0.10651172
0003b0 73 1d fd 3c 49 ff 19 bc e7 b6 f3 bd 7e 01 14 bc
       0.030897832 -0.009399244 -0.1190012 -0.009033559
0003c0 55 06 4c be d3 46 dc 3b 3b e7 62 be 30 2f db 3e
       -0.1992429 0.00672231 -0.2215852 0.4280944
0003d0 25 b6 7f bd 5a 5e 36 be 47 62 1e bd 18 e3 d0 3e
       -0.062429566 -0.1780943 -0.038667943 0.4079826
0003e0 b5 a9 05 be 9b 8b 26 3e b8 10 67 be 44 91 95 3e
       -0.1305302 0.16264193 -0.22564971 0.2921239
0003f0 52 46 78 3e c0 5b 03 be 9a 4a a6 3e d3 2f 22 3b
       0.24245575 -0.12827969 0.3247879 0.0024747744

architecture.0.bias f4 [64]
000000 64 7c dc 3d 4a 4c c2 bf 7d 84 cb 3d 49 87 b8 3f
       0.10765913 -1.5179532 0.099373795 1.4416286
000010 48 13 99 3f a7 0e 7c bf 58 e7 12 c0 1a d1 57 3f
       1.1959009 -0.9845986 -2.29537 0.8430344
000020 41 be 36 3f 6f 73 af 3f d4 11 36 bf b7 da 61 3f
       0.71384054 1.3707103 -0.71120954 0.8822436
000030 e5 db 95 3f 50 bb ce 3d b5 05 bc bf 60 21 a9 3f
       1.1707731 0.10094321 -1.4689242 1.321331
000040 64 0e 01 bd f4 c3 e2 3d f3 04 98 bf c0 01 d5 bf
       -0.031507865 0.11072531 -1.187651 -1.6641159
000050 38 27 f8 bf 2b fa cb bf 75 46 ad bf 34 d2 7f 3d
       -1.9386969 -1.593572 -1.3537127 0.062456325
000060 c7 8a 97 bf ef 30 49 3f a6 cc a2 bf f6 84 3f bf
       -1.1839226 0.7859029 -1.2718704 -0.7481226
000070 e3 b7 8b bf 65 0f 95 bf a2 5a dc bf 09 00 a3 bf
       -1.0915493 -1.1645323 -1.7215159 -1.2734386
000080 6c ab a7 bf 18 f0 63 bd f2 96 4e bf ce 61 b7 3f
       -1.3099189 -0.055648893 -0.80699074 1.4326723
000090 c9 e3 69 3f 24 a9 1a bf e6 63 9d bf ac ba 98 3d
       0.913632 -0.6041434 -1.2296112 0.0745748
0000a0 f1 08 30 3f 86 4b b5 3f 05 2b 2b bf f9 76 01 3e
       0.68763644 1.4163673 -0.6686252 0.1264304
0000b0 f8 e7 2c 3e 57 ca a7 bf 4a 27 06 3f 4a 52 7c 3f
       0.16885364 -1.3108624 0.524037 0.98563063
0000c0 44 45 77 bd 4a f4 21 3f fc 04 a6 bf c7 f7 d0 3f
       -0.06036879 0.6326338 -1.2970271 1.6325616
0000d0 6e 02 a8 bf 44 4f f8 3f 07 8f 9b bc c7 56 bc bf
       -1.3125741 1.939919 -0.0189891 -1.4713982
0000e0 be df ac bf 1d 47 bd 3f 63 d8 68 3c 2d 75 98 bf
       -1.3505781 1.4787327 0.014211747 -1.1910759
0000f0 16 da 57 3a 77 e7 82 bd cc 4a 03 be 0e e4 d4 bc
       0.00082340965 -0.06391805 -0.12821501 -0.025987651

architecture.2.weight f4 [64, 64]
000000 c3 52 16 be fe 12 0b bf 44 b3 bd be b4 a6 e0 be
       -0.14680009 -0.54325855 -0.3705083 -0.43877184
000010 9d 49 cc 3d 22 8b 89 bd 20 57 01 3f a6 c2 8e 3d
       0.09974978 -0.067159906 0.5052357 0.0697072
000020 10 6d 5a be 51 c3 28 bf e2 d1 12 3d 1e a1 87 3d
       -0.21330667 -0.6592303 0.03584469 0.066225275
000030 43 38 2a 3e b2 0c dd 3e dc cf 48 3f 71 b6 55 3e
       0.16623025 0.43173748 0.7844217 0.20870377
000040 bf bf b7 3d 21 4e f1 be 17 95 ea 3e 86 f2 2b be
       0.089721195 -0.4712992 0.45816872 -0.16791734
000050 87 49 3d 3e d2 e5 8b be 0a 3a 1b 3f b9 19 f9 bd
       0.1848508 -0.27323776 0.60635436 -0.12163109
000060 33 74 ae 3b e9 8a f5 be 28 a7 23 3f 3b 13 a6 be
       0.0053239106 -0.47957543 0.63926935 -0.32436547
000070 26 e4 0b bf 75 bf e3 3d 5b 95 92 be c9 57 e3 3c
       -0.54645 0.11120502 -0.28629574 0.02775182
000080 f3 c6 59 3f 58 c9 85 3e a5 9d cf 3d 00 ad a9 3c
       0.850692 0.26130176 0.1013749 0.020712376
000090 33 ea 05 3e 3d e4 da be 54 51 01 3e c8 c6 d4 3e
       0.13077621 -0.42752257 0.1262868 0.41557908
0000a0 33 2b 84 be 8b 41 e1 3e 1b 01 40 bd d2 94 d5 3f
       -0.25814208 0.43995318 -0.046876054 1.6686041
0000b0 a5 cb 83 3d 4b fb d5 3e d4 48 81 3f 07 e5 a4 3d
       0.064353265 0.41793284 1.010035 0.08051496
0000c0 dc e2 14 be cc 80 a3 be 0c 7a 98 3e c1 d7 1e be
       -0.14539665 -0.31934202 0.29780614 -0.15511991
0000d0 4f 5c b1 3d df 80 c9 3d a3 ff 29 be 78 01 dd 3e
       0.086601846 0.09839033 -0.16601424 0.43165183
0000e0 fc a9 47 bc f3 82 cf 3c 79 1c 4f bf 5b ed e9 3e
       -0.0121865235 0.025330996 -0.8090282 0.456889
0000f0 5c 05 af be f5 78 94 3e cc a4 83 3e 3a e9 5f bd
       -0.34183776 0.28998533 0.25711668 -0.05466578
000100 32 b1 c0 be e3 e1 35 bf 02 aa be 3e e0 ac 2e 3f
       -0.3763519 -0.710478 0.3723908 0.68232536
000110 e5 d7 07 3f 51 99 08 bf 82 eb 6b bf 64 43 ca 3e
       0.53063804 -0.5335894 -0.9215623 0.3950454
000120 84 c5 cf 3e 72 49 d2 3e ea 9b 13 bf 82 68 d1 3e
       0.4058038 0.4107166 -0.5765978 0.40900046
000130 41 6b 45 3e fd ab 48 3e ec 78 fa be 89 6b 7a 3e
       0.19279195 0.19596858 -0.4892038 0.24455084
000140 e5 36 d7 3c 7f 72 af 3e e1 11 01 bf 21 61 80 bf
       0.026271293 0.3426704 -0.50417906 -1.0029641
000150 87 8f 09 bf 1c c7 86 bf 5b 43 0c bf ab 99 4f bd
       -0.5373463 -1.0529513 -0.54790276 -0.05068366
000160 48 97 90 be a9 7f d0 bd 19 c4 d5 be a6 8b 9c 3e
       -0.28240418 -0.10180599 -0.41751173 0.30575293
000170 40 a0 99 be 7f d4 2a bf 2f 80 f8 be b0 cd 0d bf
       -0.30005074 -0.66730493 -0.48535296 -0.5539198
000180 e4 4e 30 bf 37 a2 82 3e 54 9a 0d bf db 99 00 3f
       -0.6887038 0.25514385 -0.5531361 0.50234765
000190 ad 3e 84 3e a5 ad d6 be 97 d0 46 be f7 9d dc bd
       0.25829068 -0.41929355 -0.19415508 -0.10772317
0001a0 d1 1b 35 3e 2c 6d fc 3e 40 58 b3 be 61 36 0a bb
       0.17686392 0.49302042 -0.35028267 -0.0021089541
0001b0 fe d8 55 be 4d 29 20 3d 66 86 19 be 8d c6 9e 3e
       -0.20883557 0.039101887 -0.14992675 0.31010857
0001c0 2e 90 5d be c3 6f 1f 3e e9 09 f3 be 3f 97 90 bc
       -0.21637031 0.15569977 -0.47468498 -0.017650245
0001d0 dd 48 17 bf 9e 02 3d 3f a2 ca d3 3b ae a2 26 bf
       -0.59095556 0.7383212 0.0064633647 -0.6509198
0001e0 39 93 ad be 4e d9 53 3f d2 27 99 be 95 aa ff be
       -0.33901384 0.82753456 -0.29913193 -0.4993483
0001f0 88 16 1d be 0c 7c 8e be 2a e8 bd 3d 43 cc d4 bc
       -0.15340626 -0.27829015 0.092727974 -0.025976306
000200 4b d2 07 3f f1 b7 2a 3f ee d0 e6 be c1 e0 79 bf
       0.53055257 0.6668692 -0.45081276 -0.9760857
000210 c8 bc a9 be 28 15 1d 3f ef 8b 23 3f 13 64 1b bf
       -0.3315184 0.61360407 0.63885397 -0.60699576
000220 bf ac dc be cd 56 2a bf 8f e2 ba 3e 04 d4 a3 be
       -0.43100545 -0.665387 0.36500975 -0.31997693
000230 6b a9 40 be f8 e1 c6 be c4 38 01 3f 84 f1 0b bf
       -0.18814628 -0.38844275 0.5047724 -0.546654
000240 4a 4c 55 be 0b 6c 6a be 02 d6 50 3f 15 97 3e 3f
       -0.20829883 -0.22892778 0.8157655 0.7444928
000250 72 33 5d 3e e0 b2 65 3f 3f c8 78 3e 2d 48 ea bd
       0.21601656 0.89726067 0.24295138 -0.11439548
000260 23 9a 9d 3e 63 c4 3d bd 19 e8 ca 3e c1 b2 17 be
       0.3078166 -0.046329867 0.396302 -0.14814283
000270 e2 ab e8 3d 0e 48 10 3f 41 25 3b 3f 21 07 0f 3f
       0.11360909 0.56359947 0.7310372 0.5587025
000280 08 9f 55 3f 73 a8 c5 bc 21 25 0b 3f 55 da b7 be
       0.8344579 -0.024128174 0.5435353 -0.35908762
000290 ca 58 9a be 67 00 25 3f 63 11 eb bd 74 cd 9b 3e
       -0.30145866 0.6445374 -0.11477926 0.30430186
0002a0 a0 1e c5 3d a4 73 58 bf 87 ae e0 3e 50 9e 0c bd
       0.09624982 -0.84551454 0.43883154 -0.034330666
0002b0 2c 8c 1d be 18 93 ea bd f3 c1 08 bd 3c a8 01 bf
       -0.15385503 -0.11453837 -0.03338809 -0.5064733
0002c0 a1 7c e8 3c 8b c9 03 be 08 be 61 3c 3d f9 bf be
       0.02837974 -0.12869851 0.013778217 -0.3749484
0002d0 e3 be 14 3f ef 02 35 bf a2 28 04 be 73 68 e4 3d
       0.5810377 -0.707076 -0.12906125 0.111527346
0002e0 dd 56 29 3f cb 79 b6 bf 9e cc de 3e b9 7c 49 3f
       0.6614817 -1.4255918 0.43515486 0.78705937
0002f0 7b 99 81 3e d7 11 e5 3e 64 d7 d4 bd ba f4 3e 3c
       0.2531241 0.44740173 -0.10392645 0.011655027
000300 5a 52 cf bd 05 c1 97 be 2a 3c 55 be 98 aa 70 3f
       -0.10123129 -0.2963945 -0.20823732 0.94010305
000310 c3 5f a2 3d 97 a9 5d bb 02 59 db 3e 5b 4e a4 3c
       0.07928421 -0.0033823007 0.42841345 0.020056894
000320 fc 4b a9 3e 57 b6 27 3f bb c3 1d be 97 f8 08 3f
       0.33065784 0.65512604 -0.15406696 0.5350432
000330 13 f9 35 3e c7 2c b2 be 00 a5 f4 be f2 21 a5 3d
       0.17770796 -0.34799787 -0.47782135 0.08063115
000340 80 bd 95 3e df 9d 90 bf 96 69 af be a7 12 6c 3f
       0.2924614 -1.1298178 -0.34260243 0.9221596
000350 57 71 17 3f bf 6e ba 3e 7f b7 dc be 7c 0a bd 3e
       0.5915732 0.36412618 -0.43108746 0.3692206
000360 81 95 17 3f cd c8 20 be 5b b8 40 bf ea 4b ff bc
       0.592125 -0.157016 -0.75281304 -0.031164128
000370 a7 17 dd 3e a6 26 35 3f b7 d8 97 be 1c 94 97 3e
       0.43182108 0.707621 -0.29657528 0.29605186
000380 45 75 3a bf 8f 35 87 be d0 5c 68 3e fe 30 c8 3e
       -0.7283519 -0.2640805 0.22691655 0.39099878
000390 bd d1 1f 3d cd a0 ab 3d 2d a9 c5 3d cf 2d ac 3e
       0.03901838 0.0838028 0.09651408 0.336287
0003a0 94 d3 b0 3d 0e 72 63 3f a2 58 6a bd 47 f6 89 3e
       0.08634105 0.8884591 -0.057213433 0.26945707
0003b0 58 8c 47 3f 95 10 0a bf d5 0e aa 3c 4c 05 34 3d
       0.7794852 -0.5393155 0.020759026 0.043950364
0003c0 05 83 ee 3b 7a ce 95 be 22 f6 fc bd 9e ba 76 3e
       0.0072788023 -0.29259092 -0.123516336 0.24094626
0003d0 f8 e4 ae 3e fa ae 3d bf 07 74 a1 3c ae cf a2 3c
       0.34159064 -0.7409512 0.019708646 0.01987442
0003e0 82 cd b6 3e 98 80 d2 3e 6d 65 17 bf 6c 16 dd bd
       0.35703665 0.41113734 -0.5913914 -0.10795292
0003f0 d1 79 3a 3e 30 2b 91 3e 0d 06 e8 be 67 e7 21 3e
       0.18210532 0.28353262 -0.45317116 0.15810929

architecture.2.bias f4 [64]
000000 84 4b 57 3e 31 89 86 3f e7 25 a2 bf ef 24 0c bf
       0.210249 1.0510617 -1.2667817 -0.54743856
000010 d2 09 a9 3e 8e ab 95 bf ed 8c 5f 3f 44 19 07 bf
       0.33015305 -1.1692979 0.8732441 -0.5277293
000020 da 32 a6 bf c7 e9 2b 3f 17 5b 48 3f bd 25 a4 bf
       -1.2984269 0.6715359 0.7826399 -1.2824017
000030 e6 39 70 bf 9f 3d 1a 3f 7b 7f 18 be 27 10 58 3f
       -0.93838346 0.60250276 -0.1489238 0.84399647
000040 2d fe 9f 3f 9d c7 f5 3e 7b 70 31 bf 4f 1b 9c 3f
       1.2499443 0.48003855 -0.69312257 1.2195834
000050 b2 43 ba 3e 00 af 51 bf 29 97 07 3f 8a a4 a4 3f
       0.36379772 -0.81907654 0.5296503 1.2862713
000060 c2 5c 35 bf 39 14 4c 3f 90 3e ad 3f ca 89 dc be
       -0.7084466 0.7971836 1.3534718 -0.43073875
000070 77 67 8a bf 5e 93 cb be cf d3 9e bf da d2 f7 3e
       -1.0812825 -0.3976087 -1.2408389 0.48403054
000080 2c d4 3a bf 98 e2 e1 3e 86 cd 44 3f 29 cf 9c bf
       -0.7298 0.4411819 0.76876104 -1.225072
000090 35 7d a1 bf 85 88 b9 3f 21 eb 2f bf f4 02 39 bf
       -1.2616335 1.4494787 -0.68718153 -0.7227013
0000a0 56 80 37 bf d2 df a2 bf 44 9c 09 bf b1 75 39 3f
       -0.716802 -1.2724555 -0.5375407 0.7244521
0000b0 a7 d6 9b bf 15 a1 15 3f 5e d0 1b bf 23 e0 7f 3f
       -1.2174882 0.58448917 -0.6086482 0.9995138
0000c0 b0 42 33 bf 1b 53 98 3f f3 bd b7 3f be f5 11 bf
       -0.7002363 1.1900362 1.4354843 -0.570156
0000d0 2a 6d a1 bf fd b4 92 bf c9 71 52 bf 3b dd 5c 3d
       -1.2611439 -1.1461483 -0.8220487 0.05392192
0000e0 eb ba b2 3e 5b 38 e2 3e 46 f4 cd be 60 ee 4e 3f
       0.34908232 0.4418362 -0.40225428 0.8083248
0000f0 04 92 8f bf 83 f5 41 3f 61 f5 95 bf 08 5b 9e 3f
       -1.1216435 0.75765246 -1.1715509 1.237153

architecture.4.weight f4 [1, 64]
000000 8d 5a 03 c1 e6 e6 a5 c0 82 04 a5 40 1c ff 02 41
       -8.209607 -5.184436 5.1568003 8.187283
000010 bf d6 e9 c0 c0 45 a4 40 89 16 a3 c0 fd d8 a5 40
       -7.307464 5.1335144 -5.096501 5.182738
000020 c8 7d a6 40 c9 b2 aa c0 84 ec a1 c0 34 9c a7 40
       5.202854 -5.3343244 -5.0601215 5.237818
000030 95 52 a7 40 65 2f ed c0 28 44 de c0 00 62 d3 c0
       5.228831 -7.4120355 -6.94582 -6.605713
000040 2c ff aa c0 2b 51 f8 c0 2c 68 d4 40 d6 6b aa c0
       -5.343649 -7.759908 6.6377163 -5.3256636
000050 9d e7 e4 c0 0f 06 cb 40 28 97 d7 c0 66 0d a6 c0
       -7.153273 6.3444896 -6.7372017 -5.1891356
000060 94 9a db 40 d2 46 09 c1 c4 3b a3 c0 02 25 f3 40
       6.8626194 -8.57979 -5.1010456 7.5982676
000070 14 16 ab 40 cb 2c c1 40 1e 1c a5 40 cf 5b 03 41
       5.346445 6.036718 5.1596823 8.209914
000080 40 2b a3 40 89 d8 e4 c0 4d b2 f4 c0 76 b9 a2 40
       5.0990295 -7.1514325 -7.646765 5.0851393
000090 70 4c a4 40 16 c5 a3 c0 a7 e2 84 40 cc 58 a6 40
       5.1343307 -5.1178083 4.1526675 5.1983395
0000a0 2f a0 dc 40 34 13 a2 40 09 56 95 40 93 72 ab c0
       6.8945537 5.064844 4.6667523 -5.357736
0000b0 fa 21 a7 40 e1 ce ff c0 ea 98 c9 40 43 24 ad c0
       5.2228975 -7.994004 6.2999163 -5.4106765
0000c0 98 4f da 40 04 0a a5 c0 44 b4 a2 c0 5f 59 f3 40
       6.822216 -5.1574726 -5.084505 7.6046596
0000d0 84 7b a2 40 8c f8 81 40 7b 5a a5 40 7c 0e 06 c1
       5.0775776 4.06159 5.167295 -8.378536
0000e0 0d b2 01 c1 af 4f ad c0 8f c7 f8 40 a0 80 af c0
       -8.105969 -5.415977 7.77436 -5.4844513
0000f0 7d 3e b3 40 22 ff a7 c0 c6 09 a1 40 1a 21 a8 c0
       5.601378 -5.249894 5.032443 -5.2540407
