raisimGymTorch/data/ouzel_only_planning/2022-05-09-12-17-53/full_123000.pt (torch, 162032 bytes, 36 tensors)

architecture.0.weight f4 [64, 27]
0	0x3eb1aade	0.34700674
1	0xbfa3135b	-1.2740282
2	0x3ebcee9b	0.36900792
3	0x3e1a3e6f	0.15062879
4	0xbea2ba06	-0.3178255
5	0xbd2a363d	-0.041555632
6	0x3e15a83f	0.14614962
7	0x3d28900b	0.041152995
8	0x3e8bd5b9	0.27311495
9	0x3ee188c3	0.44049653
10	0x3e701fc1	0.23449613
11	0xbebf6209	-0.37379482
12	0x3f1cc8a9	0.61243683
13	0xbf7dd60d	-0.9915474
14	0xbf73cd1a	-0.95234835
15	0xbcb9a635	-0.022662262
16	0x3f9493b4	1.1607575
17	0x3ffb8868	1.9651003
18	0xbcde0a03	-0.027104383
19	0xbeda1cb3	-0.4260002
20	0x3cd5e23a	0.02610885
21	0x3f13f724	0.5779898
22	0xbeb7f563	-0.35929403
23	0x3e880f04	0.26573956
24	0x3f1a91cf	0.60378736
25	0xbddbd807	-0.10734563
26	0xbe55006b	-0.2080094
27	0x3ec23a8a	0.37935287
28	0x3e2dd260	0.16974783
29	0xbee1daf2	-0.44112355
30	0xbe8298ac	-0.25507104
31	0xbe4f3c43	-0.20237832
32	0x3b56c3d7	0.0032770538
33	0xbb317f70	-0.0027084015
34	0x3d4f2a2a	0.05057732
35	0x3e109eea	0.14123121
36	0x3d3c7a38	0.046014994
37	0x3d08d15a	0.03340278
38	0x3ed604ad	0.41800442
39	0xc016f755	-2.358846
40	0xbdcc208d	-0.09967146
41	0xbee3b152	-0.44471222
42	0x3f0f3289	0.55936486
43	0x3e337045	0.17523296
44	0x3f6bc5d3	0.9209873
45	0xbe7fd503	-0.24983601
46	0xbe74fde8	-0.23924983
47	0x3e5405d4	0.20705348
48	0x3c65dd43	0.014029804
49	0xbd365dd4	-0.044523075
50	0x3e9f85b2	0.3115669
51	0xbec06bb1	-0.37582162
52	0x3d915338	0.07095951
53	0xbd7e71d3	-0.06212027
54	0x3e38812f	0.1801803
55	0x3f657732	0.89635
56	0x3f04fb9f	0.51946443
57	0x3ead77f7	0.33880588
58	0x3dd79f9f	0.10528492
59	0x3d991b4e	0.07475911
60	0xbf092ef0	-0.53587246
61	0xbe8226c8	-0.25420213
62	0xbf215639	-0.6302219
63	0xbc5b1324	-0.013371263
64	0xbc17dab0	-0.009268448
65	0xbe61ffca	-0.22070232
66	0xbf312261	-0.69193083
67	0x3fa5fecd	1.2968384
68	0xbf3d5b47	-0.73967403
69	0xbe50a23a	-0.20374385
70	0xbf4c6c14	-0.79852414
71	0x3eac56df	0.33660027
72	0xbe25b58a	-0.16182533
73	0xb9a3b43f	-0.00031224077
74	0x3eb2992a	0.3488248
75	0xbe88bbdd	-0.26705828
76	0x3c78f93a	0.015196139
77	0xbe2f0913	-0.17093305
78	0xbdb050af	-0.08609139
79	0xbd655920	-0.0559932
80	0xbe14f7cc	-0.14547652
81	0xbfa93d93	-1.3221916
82	0xbfa3a81d	-1.2785679
83	0xbe1ec06c	-0.1550309
84	0xbe80a9df	-0.251296
85	0xbef9de30	-0.48802328
86	0xbe4a3e17	-0.19750248
87	0xbee229c3	-0.44172487
88	0x3e296775	0.16543372
89	0xbdcec01f	-0.10095238
90	0x3dec49a4	0.11537483
91	0xbed48a67	-0.41511843
92	0x3e0f4bc2	0.13993743
93	0xbff0f64d	-1.8825165
94	0x3f3f700d	0.7478035
95	0x3fa7792e	1.3083856
96	0x3e89b55f	0.26896188
97	0xbce42ba5	-0.027852843
98	0xbd834f7d	-0.064116456
99	0xbe95c78d	-0.29253808
100	0xbf01d831	-0.50720507
101	0xbef81973	-0.48456916
102	0xbe27fae9	-0.16404308
103	0x3e03542c	0.12825078
104	0xbd7da1d7	-0.06192192
105	0x3e8748ce	0.26422733
106	0xbd67d5ec	-0.056600496
107	0xbc909d60	-0.017653167
108	0x3f138c8e	0.57636344
109	0x3f9f06e4	1.2423978
110	0xbefdddbc	-0.49583232
111	0x3d795005	0.06086733
112	0xbe2dc434	-0.16969377
113	0xbe5e3685	-0.21700485
114	0x3e578a2b	0.210488
115	0x3db54e08	0.08852774
116	0xbe86032d	-0.26174298
117	0xbe8824b8	-0.26590514
118	0xbedaa6ca	-0.42705375
119	0xbdffb5ee	-0.12485872
120	0x3d2882a2	0.041140206
121	0x3ef3215f	0.47486398
122	0x3fb918e8	1.4460726
123	0xbf0894e8	-0.5335221
124	0xbe76c152	-0.24097183
125	0x3f10606e	0.5639714
126	0xbe05b131	-0.13055874
127	0x3e406e74	0.18792135
128	0xbeb40139	-0.35157183
129	0x3e798e50	0.24370694
130	0x3e907510	0.28214312
131	0xbe5660f7	-0.20935427
132	0xbe19dc0c	-0.15025347
133	0xbe8b5a0f	-0.27217147
134	0xbde006f2	-0.10938825
135	0x3ef3cd09	0.47617367
136	0x3dfd91f2	0.123813525
137	0xbf7c348e	-0.9851769
138	0xbcd93b0a	-0.02651741
139	0xbe541050	-0.20709348
140	0xbf0d1b52	-0.5511981
141	0x3de21a68	0.11040193
142	0xbe1d4b68	-0.15360796
143	0xbeb44593	-0.3520933
144	0x3de03873	0.10948267
145	0x3c962b69	0.018331246
146	0xbd949a0c	-0.072559446
147	0xbe262e2a	-0.16228548
148	0x3fbf9322	1.4966776
149	0x3f55e327	0.8354973
150	0x3ecbc609	0.39799526
151	0x3f82404d	1.0175873
152	0x3d642d18	0.055707067
153	0xbe3502b3	-0.17676811
154	0xbed226d9	-0.41045263
155	0xbf95594d	-1.1667877
156	0x3e942cfb	0.28940567
157	0xbf238bcc	-0.6388519
158	0xbeb75e46	-0.35814112
159	0x3e9ee5d4	0.3103472
160	0x3de15fad	0.11004577
161	0xbec9f817	-0.3944709
162	0x3e8bec2d	0.27328625
163	0xbe9da82b	-0.30792364
164	0xbf4d031b	-0.80082864
165	0x3dc627af	0.09675538
166	0xbc77a4c8	-0.0151149705
167	0x3e4a87f8	0.1977843
168	0x3d457a7a	0.048212506
169	0xbe18eab1	-0.14933278
170	0xbf093201	-0.53591925
171	0x3e7daf96	0.24774012
172	0xbe88d853	-0.26727542
173	0x3d13c538	0.036076754
174	0x3e4346c3	0.19069962
175	0x3fcd3d02	1.6034243
176	0x3f3ef1c4	0.74587655
177	0x3f7db573	0.99104995
178	0xbf1d48c0	-0.6143913
179	0xbf1764e1	-0.59138304
180	0xbe0fa952	-0.14029434
181	0x3e5451ec	0.20734376
182	0x3d0973f9	0.033557866
183	0x3e27a6f1	0.16372277
184	0xbe57c876	-0.21072564
185	0x3ba632e9	0.005071987
186	0xbca510a7	-0.020149542
187	0x3d2f856c	0.04285185
188	0xbea3f248	-0.32020783
189	0x3e998f0f	0.29991958
190	0xbf11a298	-0.56888723
191	0xbf62c975	-0.8858865
192	0x3e677ba3	0.22605757
193	0xbe965d57	-0.29368088
194	0xbe0c603d	-0.13708587
195	0x3e569a20	0.20957232
196	0x3efca1df	0.49342248
197	0xbef59905	-0.47968307
198	0xbbb7e979	-0.005612549
199	0xbde06ef3	-0.10958662
200	0x3f544cfe	0.8292998
201	0x3e09c4d5	0.13453992
202	0x3fb887c1	1.4416429
203	0xbf9cf12c	-1.22611
204	0x3ed403a4	0.41409028
205	0x3f0a203a	0.53955424
206	0x3d3395aa	0.043843903
207	0xbed59570	-0.41715574
208	0x3e20cc4d	0.15702935
209	0x3c2873b7	0.010281495
210	0xbea64eac	-0.32481897
211	0x3e12c4d8	0.14332902
212	0xbef58c78	-0.47958732
213	0x3e22f5e6	0.15914115
214	0xbe140cb6	-0.14457974
215	0x3f504c75	0.81366664
216	0xbf0a1075	-0.5393136
217	0x3f0e24f9	0.55525166
218	0x3f051aec	0.51994205
219	0xbf0b7670	-0.54477596
220	0x3e63a81d	0.22232099
221	0x3e95d58c	0.29264486
222	0x3e6a78be	0.22897622
223	0xbd861d3b	-0.06548544
224	0xbce1c34f	-0.02755895
225	0xbe910130	-0.28321218
226	0xbe5d9fce	-0.21642992
227	0x3f0132a1	0.5046788
228	0x3e4ae28f	0.19812988
229	0xbf5d0788	-0.86339617
230	0x3fd8aff6	1.6928699
231	0xbe5d96ad	-0.2163951
232	0x3eb71e7b	0.35765442
233	0x3e767730	0.24068904
234	0x3e51046d	0.20411845
235	0xbec9eda3	-0.39439115
236	0xbe22e91e	-0.1590924
237	0x3e8be8a1	0.2732592
238	0x3e190f24	0.14947182
239	0x3be19b76	0.0068849875
240	0xbf011581	-0.5042344
241	0xbe5b75e1	-0.21431686
242	0x3d53f22d	0.05174463
243	0x3ef3f944	0.47651112
244	0x3d7ee859	0.062233303
245	0x3eb44e7e	0.35216135
246	0xbedf688b	-0.43634447
247	0x3efa46e0	0.48882198
248	0x3dd22a38	0.10261959
249	0x3e8e9a17	0.27851936
250	0xbe56d30b	-0.20978944
251	0xbf2af892	-0.6678554
252	0xbe00d540	-0.12581348
253	0xbdd4ffdd	-0.104003645
254	0xbe3ca6c5	-0.18422993
255	0xc004874e	-2.0707583

architecture.0.bias f4 [64]
0	0x3f0c3e43	0.54782504
1	0xbf8c70a0	-1.097187
2	0x3fbd95c4	1.481133
3	0x3ed15924	0.4088832
4	0x3ece6d0e	0.40317577
5	0xbf6bdb6c	-0.92131686
6	0xbfa73747	-1.3063744
7	0xbf9bce14	-1.2172265
8	0xbf940de3	-1.1566738
9	0x3f2307e9	0.63683945
10	0xbf21ea38	-0.63248014
11	0x3ea537d8	0.32269168
12	0x3fc5f7ea	1.5466282
13	0xbfcff1fd	-1.6245724
14	0x3f9b711c	1.2143893
15	0x3ff36c16	1.901736
16	0xbf419a75	-0.7562631
17	0xbeecdc94	-0.46262038
18	0xbf975f70	-1.1826
19	0x3eda2375	0.42605177
20	0x40091027	2.1416109
21	0xbfa05caa	-1.2528279
22	0x3f83d806	1.03003
23	0xbfce5620	-1.6120033
24	0x3eafe048	0.343508
25	0x3f65aa8c	0.8971336
26	0x3d859ad1	0.065236695
27	0xbfe4b14f	-1.786661
28	0xbf85ab2f	-1.0442866
29	0xbd204df4	-0.039136842
30	0x3d07b1dc	0.033128604
31	0xbf87aec4	-1.0600209
32	0xbfc232c0	-1.5171738
33	0xbfc0152b	-1.500646
34	0xbfb57f99	-1.4179565
35	0x3e654305	0.22388847
36	0x3fb1be94	1.3886285
37	0xbeb8fc0d	-0.361298
38	0x3f911a6f	1.1336192
39	0xbe781b27	-0.24229108
40	0xbf855734	-1.0417237
41	0xbf7e78b0	-0.99402905
42	0x3fc21e8f	1.5165576
43	0xbf909507	-1.129548
44	0xbed6bd75	-0.4194142
45	0x3eed7a50	0.4638238
46	0xbdd05c19	-0.10173816
47	0xbf2c74a3	-0.67365474
48	0x3f1a8013	0.60351676
49	0x3f9a1fa3	1.2040905
50	0x3f9a9305	1.2076117
51	0x3fa98924	1.3244977
52	0x3d97c625	0.0741084
53	0xbfe1d303	-1.7642521
54	0xbf4d19bb	-0.80117387
55	0x3f2128d6	0.62952936
56	0xbf478ce7	-0.77949375
57	0xbfa897d8	-1.3171339
58	0x3fd78436	1.6837223
59	0x3fd97660	1.698925
60	0x3fd07fc6	1.6288993
61	0x3fb466a2	1.4093821
62	0xbde35b98	-0.111014545
63	0x3d737da6	0.059446

architecture.2.weight f4 [64, 64]
0	0xbdf3b60a	-0.118999556
1	0x3c7a4be2	0.015276881
2	0xbf0a16b3	-0.53940886
3	0x3cb8c4fa	0.022554863
4	0x3d8097a4	0.06278923
5	0x3e39836d	0.18116541
6	0x3e8fb7bf	0.28069875
7	0x3f10f1b7	0.5661883
8	0x3f018ff7	0.506103
9	0xbd88006f	-0.06640708
10	0x3edebd00	0.4350357
11	0xbe89522e	-0.2682051
12	0xbf25decc	-0.64793086
13	0x3e6a851c	0.2290234
14	0xbf185c9f	-0.5951633
15	0xbc664838	-0.014055304
16	0xbdc04b7b	-0.09389397
17	0x3d68e722	0.05686105
18	0x3ef954ec	0.48697603
19	0xbec26233	-0.37965545
20	0xbf9ba16c	-1.2158637
21	0x3f2d333a	0.6765629
22	0xbeae2118	-0.34009624
23	0x3f1873f0	0.59551907
24	0xbe4eed4a	-0.20207706
25	0xbbbc01c6	-0.005737516
26	0x3ecb77be	0.39739794
27	0x3ef46738	0.47735
28	0x3ddeeefc	0.108854264
29	0x3e2cbafc	0.16868204
30	0x3dccafa8	0.09994441
31	0x3ecbf07a	0.39831907
32	0x3f05a95b	0.5221154
33	0x3e5da223	0.21643881
34	0x3e45374b	0.19259374
35	0x3e255474	0.16145498
36	0xbeb9a7bd	-0.36260787
37	0x3c1e4917	0.009660981
38	0xbf210e46	-0.62912405
39	0x3c850c76	0.016241293
40	0x3e80f79e	0.25188917
41	0x3e293b7a	0.16526595
42	0xbdd930a5	-0.10604981
43	0x3eb51399	0.35366514
44	0xbe816656	-0.2527339
45	0xbe38c9d9	-0.18045749
46	0xbeac8846	-0.33697718
47	0x3ea0dc01	0.3141785
48	0x3e2ec313	0.17066602
49	0xbd5c59fc	-0.053796753
50	0xbebe11ad	-0.3712286
51	0x3ef66d47	0.48130247
52	0x3d11e281	0.0356164
53	0x3e596283	0.21228985
54	0x3e6d7419	0.23188819
55	0x3e9b1c5d	0.30295077
56	0x3e9b9854	0.30389655
57	0x3ec4980b	0.3839725
58	0xbf8ab565	-1.0836607
59	0xbef38eb0	-0.475698
60	0xbefb8d6b	-0.4913133
61	0xbf42f142	-0.7614938
62	0xbeb46a6d	-0.35237446
63	0x3ed60531	0.41800836
64	0x3cbf172c	0.023326479
65	0xbed31bd6	-0.41232175
66	0xbc98b20a	-0.018639583
67	0x3ea51946	0.32245845
68	0xbe0c29b2	-0.1368778
69	0x3c8d9e48	0.017287388
70	0xbeb1d704	-0.34734356
71	0xbf68d312	-0.9094707
72	0x3f70dd37	0.9408755
73	0x3e22ba15	0.15891297
74	0xbd06048d	-0.032719184
75	0x3cc822fd	0.024430746
76	0xbe250ba2	-0.16117719
77	0x3f3e61dd	0.7436808
78	0x3ef0f9b1	0.470655
79	0x3e1120e3	0.14172702
80	0xbcc2429e	-0.023713406
81	0x3cbf16f0	0.023326367
82	0xbe920895	-0.28522173
83	0x3dc3cd8d	0.0956069
84	0x3f8fabbf	1.1224288
85	0x3ee09c71	0.43869355
86	0xbdf4989c	-0.119431704
87	0xbe957632	-0.29191738
88	0xbc37347a	-0.011181945
89	0x3ec05bb0	0.37569952
90	0xbd17c4b3	-0.03705282
91	0xbd8c222e	-0.06842457
92	0x3f926f1c	1.1440158
93	0x3ea50a83	0.32234582
94	0x3dc86771	0.09785355
95	0x3f7102c1	0.9414483
96	0xbf13f495	-0.5779508
97	0xbe4df91a	-0.20114556
98	0xbe43415a	-0.19067898
99	0xbe2f8ce2	-0.17143586
100	0xbead033a	-0.33791524
101	0xbc0e8788	-0.008699305
102	0xbe11faab	-0.14255778
103	0x3e646fc0	0.22308254
104	0x3e73ad10	0.23796487
105	0x3ca1630e	0.019700553
106	0xbf18d63f	-0.59701914
107	0x3e89af4e	0.2689156
108	0xbe04b405	-0.12959297
109	0xbe2f6589	-0.17128576
110	0xbd8a4746	-0.067518756
111	0xbbd73252	-0.006567278
112	0xbd34ec18	-0.04417047
113	0xbec3c58e	-0.3823666
114	0x3d839a21	0.06425882
115	0x3ed71225	0.4200603
116	0xbe08d537	-0.13362585
117	0x3fad1736	1.3522708
118	0x3d44846f	0.04797786
119	0xbc9eb392	-0.019372735
120	0x3df19d09	0.1179753
121	0x3f252a19	0.6451736
122	0x3e0845bb	0.1330785
123	0x3f658df5	0.89669734
124	0x3f748a4e	0.95523536
125	0xbf1130cb	-0.5671508
126	0x3eb3ab3a	0.35091573
127	0xbd71fb46	-0.059077524
128	0x3e8e1c67	0.27756044
129	0xbed6c87d	-0.41949835
130	0xbdc59413	-0.096473835
131	0xbedb0ce6	-0.42783278
132	0xbf244c7a	-0.64179194
133	0xbe35ffc3	-0.17773347
134	0x3f07035d	0.52739507
135	0xbeb93800	-0.36175537
136	0xbf65b0ee	-0.897231
137	0xbe76233c	-0.24036878
138	0x3d9a82e0	0.07544494
139	0x3eb46351	0.35232022
140	0xbef68ea8	-0.48155713
141	0xbea4719b	-0.32117924
142	0xbee497d9	-0.446471
143	0xbf0ee5a7	-0.5581917
144	0xbe2bb19f	-0.16766976
145	0x3f15897f	0.5841293
146	0xbe831ccc	-0.25607908
147	0xbf217cca	-0.6308104
148	0x3f832217	1.0244778
149	0xbf6ccfe4	-0.92504716
150	0x3d786b4c	0.0606492
151	0x3e8a4238	0.27003646
152	0x3974cd45	0.00023346122
153	0xbf44ea25	-0.76919776
154	0x3fc3a133	1.5283569
155	0x3f25d62c	0.64779925
156	0x3d9b5ca1	0.07586027
157	0xbf19d0c2	-0.60084164
158	0x3f955256	1.1665752
159	0xbf611e00	-0.879364
160	0x3d544541	0.05182386
161	0x3ef31ed8	0.4748447
162	0xbf06f49e	-0.52717006
163	0x3e171b56	0.14756522
164	0x3e99ed0b	0.30063662
165	0xbe2614f3	-0.16218929
166	0x3eb94690	0.36186647
167	0x3f759d50	0.95943165
168	0x3f11bf24	0.5693228
169	0xbe392a2d	-0.18082495
170	0xbd29cfd9	-0.041457985
171	0xbfbb6373	-1.4639724
172	0x3ecc7e23	0.39939985
173	0x3f97a26c	1.1846442
174	0xbec1e921	-0.37873176
175	0xbecd8cf9	-0.40146616
176	0x3e6f4120	0.23364687
177	0x3f2686a2	0.65049183
178	0xbf1a31dc	-0.6023233
179	0x3f8286b5	1.0197359
180	0x3f412d56	0.754598
181	0x3e2597b9	0.16171159
182	0xbf6ada1b	-0.9173905
183	0xbf02b06a	-0.51050436
184	0x3f1a28fd	0.60218793
185	0xbebaf8cf	-0.3651795
186	0x3eeff443	0.46866044
187	0xbdce7515	-0.100809254
188	0xbe6e6444	-0.23280436
189	0xbe29fec8	-0.16601098
190	0xbd96342e	-0.07334171
191	0xbe8f36a4	-0.27971375
192	0xbf142bbe	-0.57879245
193	0x3ecf0707	0.4043505
194	0xbea9b816	-0.3314826
195	0xbdacd7ab	-0.08439573
196	0x3e87c101	0.26514438
197	0x3f5c71a4	0.861109
198	0x3f8cc57e	1.099777
199	0xbde2afd0	-0.1106869
200	0x3ee0d5ce	0.4391312
201	0xbef3fc56	-0.47653455
202	0x3eaabd49	0.33347538
203	0xbf83338b	-1.0250105
204	0x3dbebf96	0.09313886
205	0x3f2adc2c	0.66742206
206	0xbef6f1cb	-0.48231348
207	0xbf5786b0	-0.8418989
208	0x3f1eb05f	0.6198787
209	0x3e6b7ac8	0.22996056
210	0x3f49de46	0.7885479
211	0x3f648cc2	0.8927728
212	0xbf6305fa	-0.88680995
213	0x3e93ac28	0.28842282
214	0xbf51f5c3	-0.8201563
215	0xbf15cad6	-0.5851263
216	0xbe88ccf8	-0.2671888
217	0xbeea66dc	-0.457816
218	0xbf3b093e	-0.7306098
219	0x3e83958d	0.25700036
220	0x3e6b75e8	0.22994196
221	0x3ef0ec8b	0.47055468
222	0xbe50fad2	-0.2040818
223	0x3ed85624	0.4225322
224	0x3eed51c5	0.46351448
225	0xbf815d9a	-1.010669
226	0x3e8c63f2	0.27420002
227	0x3f270418	0.6524062
228	0xbf70c126	-0.9404472
229	0x3ee4569b	0.44597325
230	0xbfabf167	-1.3433045
231	0x3e6ccf05	0.23125847
232	0xbea9aba2	-0.33138758
233	0x3f9d49a8	1.2288103
234	0xbe7b658a	-0.24550453
235	0xbee3a593	-0.4446226
236	0x3f388274	0.72074056
237	0xbf884839	-1.0647041
238	0x3f79fb20	0.9764881
239	0xbe8297e6	-0.25506514
240	0x3e7277ab	0.23678462
241	0xbf322a68	-0.69595957
242	0x3e2516f3	0.16122036
243	0xbfac16d3	-1.3444465
244	0xbe2886b3	-0.16457634
245	0xbf2dba04	-0.6786196
246	0x3ee28b5a	0.44246942
247	0x3f82d365	1.0220762
248	0x3f223168	0.6335664
249	0xbed4376d	-0.41448537
250	0xbe2686e3	-0.16262393
251	0x3f3e9c3a	0.7445713
252	0x3de1991d	0.11015532
253	0x3e1244ac	0.14284009
254	0xbdd730a8	-0.10507327
255	0xbf15bb90	-0.5848932

architecture.2.bias f4 [64]
0	0xc026e063	-2.6074455
1	0x3db77be5	0.08959178
2	0x3f7d97a8	0.99059534
3	0xbf402d97	-0.75069565
4	0xbf1bf9ab	-0.6092784
5	0xbf39b34d	-0.72539216
6	0x3f3c4b07	0.7355198
7	0xbf897a7f	-1.0740508
8	0xbe88c820	-0.26715183
9	0xbedc1173	-0.42982063
10	0xbf4273f1	-0.7595816
11	0xbda47202	-0.08029558
12	0x3ea17928	0.31537747
13	0xbf823264	-1.0171628
14	0x3f9b2834	1.2121644
15	0x3e784ab6	0.2424725
16	0x3fa24e36	1.2680118
17	0x3f4989ec	0.7872608
18	0x40223779	2.5346358
19	0x3f29abbd	0.66277677
20	0xbf4f38e8	-0.8094621
21	0x3e94d9f1	0.29072526
22	0xbf0aff50	-0.54295826
23	0xbf8e98fa	-1.1140435
24	0xbfa08928	-1.2541857
25	0x3f15df36	0.5854372
26	0xbe731eb0	-0.23742175
27	0x3e9e9fe7	0.3098137
28	0x40636375	3.5529454
29	0x3e3abb2b	0.18235461
30	0x3f421d5b	0.7582604
31	0x3e9fdfed	0.3122553
32	0xbe9500b4	-0.291021
33	0xbfcbf309	-1.5933543
34	0x3f3e3df0	0.7431326
35	0x3f38d876	0.72205293
36	0xbebc03c0	-0.3672161
37	0x3c638c99	0.013888502
38	0xbf361e29	-0.7113977
39	0x4006efc1	2.1083834
40	0xc0381d64	-2.8767939
41	0x3eeec815	0.46637025
42	0xbf71cab3	-0.9444992
43	0x3e0f2f62	0.13982919
44	0x3e82fac9	0.2558196
45	0x3fabc16a	1.34184
46	0xbfd3b030	-1.6538143
47	0x3f36da4f	0.7142686
48	0x3f044ec9	0.51682717
49	0xbeca4cb1	-0.39511636
50	0xbfa74734	-1.3068604
51	0xbf632089	-0.8872152
52	0x3f4ff623	0.8123495
53	0x3f0d6c8a	0.5524374
54	0xbfa6a585	-1.3019263
55	0x4044911e	3.0713573
56	0x3cb959e9	0.02262588
57	0x3f7e2d90	0.9928827
58	0x3d9be10b	0.07611283
59	0xbea24f04	-0.3170091
60	0xbe31d72e	-0.17367241
61	0x3e7dcac0	0.24784374
62	0x3ea81252	0.32826477
63	0xbf36d9dc	-0.7142618

architecture.4.weight f4 [9, 64]
0	0xbce036df	-0.027369915
1	0x3da22fb7	0.07919257
2	0x3c16a815	0.009195347
3	0xb995afe3	-0.0002855054
4	0x3b91d91a	0.0044509294
5	0xbc517a29	-0.012785473
6	0x39a988d9	0.0003233615
7	0x3c290e77	0.01031839
8	0x3cb706f0	0.022342175
9	0x3b991e6c	0.004672816
10	0xbbfec3f6	-0.007774825
11	0xbb95ad73	-0.004567796
12	0x3c81b9d6	0.015835684
13	0xbc933ec9	-0.017974274
14	0x3cfaccd1	0.030615242
15	0xbc8506c5	-0.01623858
16	0xbcc286d0	-0.023745924
17	0x3c8cac97	0.017172141
18	0x3ca79038	0.020454511
19	0xbc9c3db2	-0.019072387
20	0x3abfb524	0.0014626128
21	0x3b3442bd	0.00275056
22	0xbd21b250	-0.039476693
23	0xbb89f249	-0.004209791
24	0x39e61a01	0.00043888393
25	0xbbeba493	-0.0071912496
26	0x3c3d498c	0.0115531795
27	0xbc5d6ed7	-0.013515196
28	0x3c9df988	0.019284025
29	0xbc4eb5d2	-0.0126165915
30	0x3c8d807f	0.017273186
31	0xbb2358b1	-0.002492469
32	0xbe075fea	-0.13220182
33	0x3c5ff0c6	0.013668245
34	0xbc1a778e	-0.009427918
35	0x3bf9ce67	0.007623482
36	0xba85c959	-0.0010207101
37	0x3b6d78ba	0.0036235289
38	0xbc942426	-0.018083643
39	0x3ba4cf2c	0.0050295796
40	0x3c527df8	0.012847416
41	0x3abd4dee	0.001444278
42	0xbc1592a7	-0.009129203
43	0xb94ec386	-0.00019718529
44	0x3b643ad0	0.0034825094
45	0xbc4340f3	-0.011917341
46	0xbc023f17	-0.007949612
47	0xbc92db26	-0.017926764
48	0xbc94809d	-0.018127734
49	0xbb4427dd	-0.0029930987
50	0xbc0162f3	-0.0078971265
51	0x3c9fe5e5	0.019518802
52	0x3b013b5c	0.0019719219
53	0x3c0ca8d7	0.008585176
54	0x3c97c537	0.018526657
55	0x3ce2001e	0.027587947
56	0xbc3ffbfb	-0.011717792
57	0xbc538148	-0.012909241
58	0xbc44e3a1	-0.012017162
59	0xbbfd6a52	-0.0077336216
60	0x3b37f8fd	0.0028071993
61	0xbc048ae5	-0.008089756
62	0x3c43179b	0.011907483
63	0xba808f4a	-0.0009808328
64	0xbd0aecd4	-0.033917263
65	0x3d2423fd	0.040073384
66	0xbcfc8950	-0.030827194
67	0x3c9f9dc0	0.0194844
68	0x3b8bdd56	0.0042683287
69	0xbb844b27	-0.004037279
70	0xbcb7f6a4	-0.022456475
71	0x3b5fa4c7	0.0034125315
72	0xbb9846b1	-0.004647099
73	0x3c50c430	0.012742087
74	0x3c8d087f	0.017215965
75	0xbb428b39	-0.0029685034
76	0x3de2cfb0	0.110747695
77	0xbb94a5ac	-0.004536351
78	0x3baf40b5	0.00534829
79	0xbbc43080	-0.005987227
80	0x3bbebab1	0.005820595
81	0xbc4c8198	-0.012482069
82	0x3c59ce87	0.013293869
83	0xbb8f34c1	-0.0043703024
84	0x3be7e175	0.007076437
85	0xbc8bc476	-0.017061453
86	0xbcedc652	-0.02902523
87	0xbc569182	-0.013096215
88	0x3b54d3b9	0.003247483
89	0xbb18023f	-0.0023194698
90	0xbc7c880e	-0.015413297
91	0x3c4af3f4	0.0123872645
92	0xbd237d37	-0.039914336
93	0x3bbdeba4	0.005795913
94	0xbbbc89d8	-0.005753737
95	0xbb992dd6	-0.0046746535
96	0x3d1d1cc5	0.038357515
97	0xbb3a6ac3	-0.0028444983
98	0x3cec537c	0.028848402
99	0xbaa4bf8f	-0.0012569296
100	0x39aaf25d	0.00032605501
101	0x3b70154e	0.0036633792
102	0x3ba47559	0.0050188717
103	0x3c84ea4c	0.016225003
104	0x3ccaf7c6	0.02477635
105	0x3c216c12	0.009852426
106	0xbbe8ea4e	-0.0071080094
107	0x3b94d680	0.004542172
108	0xbc1f1d74	-0.009711612
109	0x3c0be165	0.008537625
110	0xbc527b09	-0.012846717
111	0x3af07127	0.0018344269
112	0xbd1c2665	-0.038122553
113	0x39b321bb	0.00034166672
114	0x3a39887a	0.00070775265
115	0x3c6c5cec	0.014426451
116	0xbbb4266c	-0.0054977443
117	0x3ba6deba	0.005092469
118	0x3ca08883	0.019596344
119	0x3b88043a	0.0041508945
120	0x3bd1f003	0.0064067855
121	0xbc797c76	-0.015227428
122	0xbc1239a0	-0.008924872
123	0xbbcdb9d9	-0.0062782583
124	0xbc7cb0cf	-0.015423014
125	0x3bca7ac3	0.006179185
126	0x3c37620e	0.011192812
127	0xbc3220d3	-0.010872084
128	0x3cf07bba	0.029355872
129	0xbdfab6f7	-0.12241929
130	0x3ca8b157	0.020592375
131	0x3c7d27d1	0.0154513875
132	0xbc903d60	-0.01760739
133	0xbc229e5a	-0.009925449
134	0xbbca5f3e	-0.0061759045
135	0x3c50e88a	0.012750754
136	0xbbc54e70	-0.0060213134
137	0x3a80892a	0.0009806503
138	0x3ce0a083	0.027420288
139	0x3bef2884	0.007298531
140	0x3d876eb9	0.066129155
141	0xbc89c310	-0.016816646
142	0xbc220993	-0.009889978
143	0xbbba2c78	-0.0056815706
144	0xbd29a129	-0.04141346
145	0xbc62c4e5	-0.013840889
146	0xbc586b53	-0.013209182
147	0x3bcea591	0.006306358
148	0x3cb8d9b4	0.022564746
149	0xbca0ff02	-0.019652847
150	0xbc2ab701	-0.010419608
151	0xbc0d9205	-0.008640771
152	0xbb36f258	-0.0027915444
153	0xbbc944b8	-0.006142225
154	0xbbeceadf	-0.0072301473
155	0xbac6d93f	-0.0015170946
156	0x3e21de5b	0.15807478
157	0x3c349a84	0.0110231675
158	0x3c4d30c0	0.01252383
159	0xbab7302f	-0.0013976152
160	0xbd302259	-0.043001506
161	0xbc0fd87b	-0.00877964
162	0xbccc8d74	-0.024969794
163	0x3c8895ab	0.01667293
164	0xbc296c0b	-0.010340701
165	0xbc4a0979	-0.01233136
166	0xbc842369	-0.016130166
167	0xbd092a9e	-0.03348791
168	0x3c08b54c	0.008344006
169	0x3c18b7ec	0.009321194
170	0x3c3fe536	0.011712363
171	0x3c87ec3d	0.01659214
172	0xbbe71c52	-0.0070529366
173	0x3c9b13e0	0.018930376
174	0x3c893419	0.016748475
175	0x3bfb52c2	0.0076697776
176	0xbc8348ef	-0.016025988
177	0x3bd21c08	0.006412033
178	0xbcaf56b7	-0.021403654
179	0xbc09d17e	-0.008411763
180	0xbc8848c1	-0.016636254
181	0xbc7157ef	-0.014730438
182	0xbc6bf101	-0.0144007215
183	0xbc1c3be4	-0.009535763
184	0xbb9c5543	-0.004770906
185	0x3c837b1b	0.016049912
186	0x3b21c1a5	0.0024682072
187	0xbb65f1ea	-0.003508682
188	0x3b455fc1	0.0030116888
189	0x3a319d59	0.0006775461
190	0x3bb862cb	0.0056270114
191	0xbcc1ef10	-0.023673564
192	0xbf60a010	-0.87744236
193	0x3d8aa9e8	0.06770688
194	0x3f52c500	0.8233185
195	0xbf0f12eb	-0.5588824
196	0xbcbd63e2	-0.023118917
197	0xbe0aca9e	-0.13553855
198	0x3e92cb5e	0.28670782
199	0xbf0222d6	-0.50834405
200	0xbe4c514b	-0.19952886
201	0xbe2fe1d4	-0.1717599
202	0xbeaacbec	-0.33358705
203	0x3cf56d7b	0.02995943
204	0x3db7222a	0.08942063
205	0xbf4c6ef3	-0.79856795
206	0x3e23d984	0.16000944
207	0x3ea17a2f	0.3153853
208	0x3ec63140	0.3870945
209	0x3f3d4dac	0.7394664
210	0x3f64bf5b	0.89354485
211	0x3e41408a	0.18872276
212	0xbe9842d5	-0.2973849
213	0x3ebc919f	0.3682985
214	0x3e309204	0.172432
215	0xbf84e018	-1.0380888
216	0xbf81dbe9	-1.0145236
217	0x3e9411cb	0.28919825
218	0xbed7714f	-0.42078635
219	0x3e2ddfdc	0.16979927
220	0x3f542198	0.8286376
221	0xbf174ddf	-0.59103197
222	0x3e2713ec	0.16316193
223	0x3d807b73	0.06273546
224	0x3c393008	0.011302955
225	0xbea78e57	-0.32725784
226	0x3f0640ab	0.52442425
227	0xbd6f8ce4	-0.058483973
228	0xbea36008	-0.31909204
229	0x3e0ad059	0.13556041
230	0xbefb2e56	-0.4905879
231	0x3ef538dd	0.47894946
232	0xbf313825	-0.69226295
233	0x3e63f6f7	0.22262178
234	0xbe4ecef5	-0.20196135
235	0xbcc1c356	-0.023652714
236	0x3f0db1e6	0.55349576
237	0x3f3a119b	0.72683114
238	0xbe7521a3	-0.23938613
239	0x3e9e6950	0.30939722
240	0xbe0b27fd	-0.13589473
241	0xbecdc858	-0.40191913
242	0xbeef672a	-0.46758395
243	0xbe64ef4e	-0.22356912
244	0x3d82a289	0.06378657
245	0x3e97ffe8	0.29687428
246	0xbf3349e7	-0.7003464
247	0x3f3f573e	0.74742496
248	0x3d2ff811	0.042961184
249	0x3e49cdf2	0.19707468
250	0x3ed30550	0.4121499
251	0xbe11b3b9	-0.14228715
252	0xbcf3a63e	-0.029742356
253	0xbe8474b2	-0.2587028
254	0x3e503d7d	0.20335956
255	0xbef46739	-0.47735003

architecture.4.bias f4 [9]
0	0xbdc1050f	-0.09424793
1	0xbcdc0bb7	-0.026861055
2	0xbda78655	-0.08179919
3	0x3f911ecd	1.1337525
4	0x3dd7ae90	0.10531342
5	0x3b9ef464	0.004850911
6	0x3ac5afeb	0.0015082335
7	0x3f4d9d84	0.80318475
8	0xbe35de18	-0.17760503

std f4 [9]
0	0x3e4ccccd	0.2
1	0x3e4ccccd	0.2
2	0x3e4ccccd	0.2
3	0x3ea600ae	0.32422394
4	0x3e4e4d6e	0.20146725
5	0x3e4ccccd	0.2
6	0x3e5a5f22	0.21325353
7	0x3e6c542a	0.23078981
8	0x3e4d11fc	0.20026392

architecture.0.weight f4 [64, 27]
0	0xbd5886fe	-0.052863114
1	0x3b9a6de5	0.0047128075
2	0xbd936b38	-0.07198185
3	0x3e5a2739	0.21304025
4	0x400270ed	2.0381424
5	0xbe8edd85	-0.2790338
6	0xbfa6ecde	-1.3041036
7	0xbf03c850	-0.5147753
8	0xbf62f387	-0.88652843
9	0x3bc68517	0.006058346
10	0x3debadc0	0.115077496
11	0x3df1439a	0.11780472
12	0x3d8dffd6	0.069335625
13	0x3dfc2279	0.12311263
14	0x3d48d8b1	0.049034778
15	0xbd476608	-0.04868129
16	0xbedc113e	-0.42981905
17	0xc0af51ae	-5.4787207
18	0xbe8f8a47	-0.28035185
19	0xc005ffab	-2.0937297
20	0x3ed456a2	0.41472346
21	0x3fa05765	1.2526671
22	0x3f0b7339	0.5447269
23	0x3f614543	0.8799631
24	0xbc372809	-0.011178979
25	0xbe07f478	-0.13276851
26	0xbe211765	-0.1573158
27	0x3c498258	0.012299143
28	0xbcc19809	-0.023632066
29	0xbced8c05	-0.02899743
30	0x3d7e7303	0.062121402
31	0xbdeb7944	-0.11497739
32	0x3eb5b1ff	0.35487363
33	0xbd97f240	-0.074192524
34	0xbe803323	-0.25039014
35	0x3e3217c9	0.17391886
36	0xbb71337c	-0.0036804369
37	0x3cbe5b4d	0.023236895
38	0xbed78643	-0.4209462
39	0x3e41719f	0.18891
40	0x3e3eaad9	0.1861986
41	0xbec4ae7f	-0.3841438
42	0x3d0f48d4	0.034981564
43	0x3dbb9c28	0.09160644
44	0xbcf72932	-0.03017101
45	0xbdaf102a	-0.08548005
46	0x3d780030	0.060547054
47	0xbd8c76d0	-0.06858599
48	0x3dae4848	0.0850988
49	0x3e39abc2	0.18131927
50	0xbd26759b	-0.0406395
51	0xbc791bb5	-0.01520436
52	0xbd9fe9bf	-0.078082554
53	0xbe58cfbf	-0.21172999
54	0xbda3e66f	-0.08002936
55	0x3d25039f	0.040286656
56	0x3dea272e	0.11433254
57	0x3ec174b3	0.37784347
58	0xbf58d3fc	-0.8469846
59	0x3f842584	1.0323949
60	0x3f72fe02	0.94918835
61	0x3f44d4a6	0.76886976
62	0xbf7a0ef9	-0.97679096
63	0x3e7d326e	0.24726269
64	0x3d4ca9d9	0.049966667
65	0x3b88a4b5	0.0041700252
66	0x3cf12b13	0.029439485
67	0xbdf9515c	-0.12173721
68	0xbd002ce5	-0.031292815
69	0x3c1a2db0	0.009410307
70	0xbf11c2c3	-0.5693781
71	0xbf8e861b	-1.1134676
72	0xbee2b1f8	-0.44276404
73	0x3f469e28	0.7758508
74	0xbf819636	-1.0123966
75	0xbf811615	-1.0084864
76	0xbf3e9ca2	-0.7445775
77	0x3f74c7c3	0.9561731
78	0xbe56bf61	-0.20971443
79	0xbdd68026	-0.10473661
80	0xbd915558	-0.07096356
81	0xbdd39e95	-0.103329815
82	0xbdd02b8f	-0.10164558
83	0x3ef2ee6d	0.4744753
84	0xbef73e4a	-0.4828971
85	0x3e25a5b5	0.16176493
86	0xbcab3ca2	-0.020902935
87	0x3e8400f8	0.2578199
88	0xbef3b1b3	-0.4759651
89	0x3eca85f2	0.39555317
90	0xbd817072	-0.06320275
91	0x3dac150a	0.084024504
92	0x3d725dc8	0.059171468
93	0xbd140396	-0.036136232
94	0xbb65b72b	-0.0035051804
95	0x3c5e3b19	0.013563895
96	0x3bb86091	0.005626746
97	0xbcba6755	-0.02275435
98	0x3c0470b4	0.008083511
99	0x3ee0d1c5	0.4391004
100	0xbe0ad7d3	-0.13558893
101	0xbb4ecdc0	-0.0031555742
102	0xbe74bcff	-0.23900221
103	0x3ed740e8	0.42041707
104	0xbec09c1a	-0.37619096
105	0x3d915ab5	0.07097379
106	0xbdb24e91	-0.087063916
107	0xbd1e0b2b	-0.03858487
108	0x3ccf9d7d	0.025343651
109	0xbb10d7c5	-0.0022101265
110	0x3c0bd57a	0.0085347835
111	0x3cb7699c	0.022389226
112	0xbbadab7a	-0.0052999826
113	0xbe9d78aa	-0.30756122
114	0x3e4ece00	0.2019577
115	0xbce960d4	-0.028488554
116	0x3e2cdb3d	0.16880508
117	0x3da0b44b	0.07846888
118	0xbe3eb8a9	-0.1862513
119	0xbe99abf9	-0.30014017
120	0xbec0d0a2	-0.37659174
121	0x3e3eb9f3	0.18625621
122	0xbe8fb4aa	-0.28067523
123	0x3c2de3a3	0.010613355
124	0x3d151366	0.036395453
125	0x3dd782af	0.10522973
126	0x3daad071	0.08340538
127	0xbd6152fc	-0.05501078
128	0xbe07541e	-0.13215682
129	0xbe884176	-0.26612443
130	0x3d6737bc	0.056449637
131	0x3e30d7b7	0.17269789
132	0x3e0f81ae	0.14014313
133	0x3cc238d9	0.023708748
134	0xbd144a9c	-0.036203966
135	0xbbc43a2c	-0.00598838
136	0xbbe3270d	-0.0069321455
137	0xbd9eda17	-0.07756441
138	0x3d120265	0.035646815
139	0xbcdab00b	-0.026695272
140	0x3df10665	0.11768798
141	0xbd96b8ad	-0.07359443
142	0x3c5580aa	0.013031164
143	0x3cdc5d68	0.026900008
144	0x3c830e48	0.01599802
145	0x3c4c00eb	0.012451391
146	0x3e33253d	0.17494674
147	0x3f6de402	0.9292604
148	0x3f325140	0.6965523
149	0x4030c900	2.762268
150	0x3c34bd54	0.0110314675
151	0x3dc551eb	0.09634765
152	0x3cf9acf3	0.030477976
153	0xbd061353	-0.032733273
154	0x3d0bda52	0.034143753
155	0xbd397bb8	-0.045284003
156	0x3d648abb	0.055796366
157	0xbc99af73	-0.018760419
158	0xbc10180f	-0.0087947985
159	0xbbdd6827	-0.0067568007
160	0xbc64d955	-0.013967832
161	0x3cf73c42	0.0301801
162	0xbd2a6363	-0.04159869
163	0xbd340e7e	-0.043959133
164	0x3c2d0cbf	0.010562121
165	0x3d7edbf7	0.062221494
166	0x3ebb8449	0.36624363
167	0xbca93de6	-0.020659398
168	0xbec24235	-0.37941137
169	0xbe340560	-0.17580175
170	0x3d8776d4	0.066144615
171	0xbb36aade	-0.002787284
172	0xbe49b948	-0.19699585
173	0xbe096627	-0.13417874
174	0x3cad8f7b	0.02118658
175	0xbd84e041	-0.064880855
176	0xbc90ffa2	-0.01770002
177	0xbbf1f296	-0.007383655
178	0x3bc8a168	0.0061227567
179	0x3f069071	0.5256415
180	0xbc13052e	-0.008973403
181	0xbe0eec0f	-0.13957237
182	0xbd4e08c9	-0.050301347
183	0x3d41331c	0.047167882
184	0x3def8887	0.116959624
185	0xbe696167	-0.22791062
186	0x3d1ce4ee	0.038304262
187	0x3ca9b828	0.020717695
188	0xbc9b5f9d	-0.01896649
189	0xbcf78f09	-0.030219572
190	0x3d068375	0.03284021
191	0x3b34a208	0.0027562398
192	0xbd62d7f6	-0.055381738
193	0xbac1ef6f	-0.0014796088
194	0x3be1e1ce	0.006893373
195	0x3d88ec76	0.06685726
196	0xbd672ab7	-0.05643722
197	0xbd9586f7	-0.07301133
198	0x3d0795ea	0.033101954
199	0xbc8eea02	-0.017445568
200	0xbc85a92e	-0.016316023
201	0x3fe392f4	1.7779222
202	0xbfff700c	-1.9956069
203	0x3f7be418	0.9839492
204	0xbd113ab7	-0.035456385
205	0x3d252137	0.04031488
206	0xbe4ebfd1	-0.2019036
207	0x3d72865f	0.059210178
208	0xbd1adca9	-0.037808094
209	0x3cd7b691	0.026332172
210	0xbd7dbb20	-0.061946034
211	0x3cd19e0f	0.025588064
212	0x3cad0fa4	0.021125622
213	0xbd1d17c7	-0.038352754
214	0x3d07f1a8	0.033189446
215	0x3c429dd7	0.011878452
216	0xbc8c93d2	-0.01716033
217	0x3c9cde21	0.019148888
218	0xbb4badf2	-0.0031079021
219	0xbe3d9f83	-0.1851788
220	0x3dd30e92	0.103055134
221	0xbf05edc8	-0.5231595
222	0x3e106954	0.1410268
223	0xbdac8157	-0.08423107
224	0x3ee3312c	0.44373453
225	0xbc7ff12c	-0.015621465
226	0x3de74c72	0.11293878
227	0xbe495924	-0.1966291
228	0xbe7461a8	-0.23865378
229	0x3e3ea385	0.18617065
230	0xbea1f039	-0.31628588
231	0xbd36eb85	-0.044658203
232	0xbdf9338b	-0.12168034
233	0xbd11c9e4	-0.03559293
234	0xbd6d0120	-0.0578624
235	0x3dd0f166	0.10202293
236	0x3dc3af9f	0.095549814
237	0x3e1905c6	0.14943609
238	0xbd96afb4	-0.073577315
239	0xbdf08595	-0.11744229
240	0xbec32d9f	-0.38120744
241	0x3d899d74	0.06719485
242	0xbe96d683	-0.29460534
243	0x3efd167a	0.4943121
244	0xbda2cd12	-0.0794927
245	0xbe5f9d78	-0.21837413
246	0xbd0b96c7	-0.03407934
247	0x3e951bf6	0.29122895
248	0xbd346fd4	-0.04405196
249	0x3db6e2d8	0.08929986
250	0xbe5aebcc	-0.21379012
251	0x3e8b4020	0.2719736
252	0x3e0b864c	0.13625449
253	0xbd99b06f	-0.07504355
254	0x3e621b9c	0.22080845
255	0x3c68dd0e	0.01421286

architecture.0.bias f4 [64]
0	0x3d9d079b	0.07667466
1	0xbfc94971	-1.5725538
2	0x3dd72a7c	0.1050615
3	0x3fb74772	1.4318678
4	0x3f934008	1.1503916
5	0xbf80f2c7	-1.007409
6	0xc02d03b1	-2.7033503
7	0x3f665105	0.89967376
8	0x3f3dcb11	0.7413798
9	0x3fb20e7b	1.3910669
10	0xbf813fec	-1.0097632
11	0x3f5ed0d1	0.8703738
12	0x3f962b03	1.1731876
13	0xbc3d497a	-0.011553163
14	0xbfca8352	-1.5821326
15	0x3fae02a0	1.3594551
16	0x3baa80ce	0.005203343
17	0x3dec385d	0.11534188
18	0xbf9a4fab	-1.2055563
19	0xbfd35209	-1.650941
20	0xc002de3b	-2.0448139
21	0xbfbee67b	-1.4914087
22	0xbfa08fb3	-1.2543854
23	0x3e2140dc	0.15747398
24	0xbf9750a9	-1.182149
25	0x3f4bb8ea	0.7957903
26	0xbfa56b9e	-1.2923467
27	0xbf3e78ee	-0.74403274
28	0xbf9392f5	-1.1529223
29	0xbf8ec382	-1.1153414
30	0xbfe90361	-1.8204156
31	0xbfc64ebf	-1.5492781
32	0xbfa4ca7a	-1.2874291
33	0xbd195969	-0.037438784
34	0xbf204fa6	-0.62621534
35	0x3fa2a95f	1.2707938
36	0x3f76734c	0.9626968
37	0xbf0ff103	-0.5622713
38	0xbfa50dd7	-1.2894849
39	0x3cb4bfb5	0.02206407
40	0x3f17b3ff	0.5925903
41	0x3fb3afb6	1.4037998
42	0xbf1c1e65	-0.6098388
43	0x3dc7d482	0.097573295
44	0x3e8d180e	0.27557415
45	0xbfb07531	-1.3785764
46	0x3ea28c8e	0.3174786
47	0x3f851359	1.039653
48	0xbd0691d4	-0.032853916
49	0x3ee8f9ac	0.45502985
50	0xbfad3e92	-1.353472
51	0x3fdd0a5e	1.7268789
52	0xbfa02ae7	-1.2513093
53	0x4011519b	2.2706058
54	0xbd900878	-0.07032865
55	0xbfbc35b6	-1.4703891
56	0xbfbcb749	-1.4743434
57	0x3fc6eec5	1.5541617
58	0x3aaf1107	0.0013356515
59	0xbf9fc8df	-1.2483176
60	0xbc907678	-0.017634615
61	0xbd888cb4	-0.06667462
62	0xbdf86b23	-0.1212981
63	0xbd6ac9fc	-0.057321534

architecture.2.weight f4 [64, 64]
0	0xbd936b3a	-0.07198186
1	0xbf09c61a	-0.53817904
2	0xbe9b2595	-0.3030211
3	0xbe4717b5	-0.19442637
4	0xbd886cdf	-0.066613905
5	0xbde0bd46	-0.10973601
6	0x3f1b0087	0.6054768
7	0x3d9ccbeb	0.07656082
8	0xbd150fda	-0.03639207
9	0xbf1f3fb4	-0.6220658
10	0x3dba73c7	0.09104114
11	0x3e6dbf85	0.2321759
12	0x3e446f96	0.19183192
13	0x3ec32def	0.38120982
14	0x3f242575	0.64119655
15	0x3d7726c1	0.060339693
16	0x3e12bab8	0.1432904
17	0xbf20c6cc	-0.6280334
18	0x3eece2d4	0.46266806
19	0xbe5a0557	-0.212911
20	0x3da95393	0.08267894
21	0xbd65aba1	-0.05607188
22	0x3ee65414	0.44986022
23	0xbd9482d6	-0.072515175
24	0xbe411faf	-0.18859743
25	0xbed869a7	-0.42268106
26	0x3effb3f9	0.49941996
27	0xbe96a750	-0.29424524
28	0xbee523bb	-0.44753823
29	0xbdaf7a81	-0.08568288
30	0xbe94cd50	-0.2906289
31	0x3d428868	0.04749337
32	0x3f21caaa	0.63199866
33	0x3e129790	0.14315629
34	0x3e89bb97	0.26900932
35	0x3c11cb95	0.008898635
36	0x3dc3438b	0.09534367
37	0xbefbb855	-0.49164072
38	0x3e97d6b0	0.2965598
39	0x3e8898d5	0.26679102
40	0xbed90bd2	-0.4239183
41	0x3ed7c9da	0.42146188
42	0xbe010ed9	-0.1260332
43	0x3fe7fa6a	1.8123295
44	0xbc961cea	-0.018324334
45	0x3e8e9a57	0.27852127
46	0x3f9248af	1.1428431
47	0x3dadbd5d	0.08483384
48	0xbe1d9889	-0.15390219
49	0xbe7b9bcd	-0.24571152
50	0x3e2c24a7	0.16810857
51	0xbe00cd0a	-0.12578216
52	0x3ea0c22a	0.31398135
53	0x3aefd3e9	0.0018297407
54	0xbcde5d0e	-0.027143981
55	0x3eaf2502	0.34207922
56	0x3e1dcfcd	0.15411301
57	0x3d3fae83	0.046797287
58	0xbf0bcdc3	-0.5461084
59	0x3ec8773a	0.39153463
60	0xbdf46ef0	-0.11935222
61	0x3e991dda	0.29905587
62	0x3df47e4d	0.119381525
63	0x3df61004	0.120147735
64	0xbec0b2c8	-0.376364
65	0xbf35e2b8	-0.7104907
66	0x3ebea949	0.3723853
67	0x3f2eae5c	0.682348
68	0x3f07d944	0.53065896
69	0xbf08989c	-0.53357863
70	0xbf6beb6a	-0.9215609
71	0x3eca40aa	0.3950246
72	0x3ecfc647	0.4058096
73	0x3ed249b8	0.41071868
74	0xbf139ce1	-0.57661253
75	0x3ed1689c	0.40900123
76	0x3e456e2d	0.1928031
77	0x3e48a95c	0.19595855
78	0xbefa7a4c	-0.4892143
79	0x3e7a6c99	0.24455489
80	0x3cd71d17	0.026258988
81	0x3eaf78b6	0.34271783
82	0xbf0112ae	-0.5041913
83	0xbf806040	-1.0029373
84	0xbf09919c	-0.5373781
85	0xbf86c731	-1.0529538
86	0xbf0c431b	-0.54789895
87	0xbd4f966a	-0.050680555
88	0xbe9098ca	-0.2824157
89	0xbdd08798	-0.101821125
90	0xbed5c5e6	-0.41752547
91	0x3e9c8a10	0.30574083
92	0xbe99a13d	-0.30005828
93	0xbf2ad51b	-0.66731423
94	0xbef88224	-0.4853679
95	0xbf0dcbe4	-0.5538924
96	0xbf304f15	-0.6887067
97	0x3e82a09e	0.25513166
98	0xbf0d9868	-0.5531068
99	0x3f00992b	0.50233716
100	0x3e843f1e	0.25829405
101	0xbed6af0a	-0.4193042
102	0xbe46d35e	-0.19416568
103	0xbddca50c	-0.10773668
104	0x3e351247	0.17682754
105	0x3efc6e7b	0.4930304
106	0xbeb3571b	-0.35027394
107	0xbb0b2c8a	-0.0021236264
108	0xbe55d87a	-0.2088336
109	0x3d201c7f	0.039089676
110	0xbe19885e	-0.14993426
111	0x3e9ec50d	0.31009713
112	0xbe5d8d04	-0.21635824
113	0x3e1f710a	0.15570465
114	0xbef30b07	-0.4746935
115	0xbc907e75	-0.017638424
116	0xbf174966	-0.5909637
117	0x3f3d0360	0.73833275
118	0x3bd42702	0.0064743767
119	0xbf26a24c	-0.65091395
120	0xbead949d	-0.33902445
121	0x3f53db6b	0.8275668
122	0xbe9927b1	-0.29913095
123	0xbeffac30	-0.49936056
124	0xbe1d1cd3	-0.15343027
125	0xbe8e7d83	-0.27830133
126	0x3dbde416	0.092720196
127	0xbcd48de3	-0.025946563
128	0x3f07d6fb	0.5306241
129	0x3f2ab585	0.66683227
130	0xbee6ce09	-0.45079067
131	0xbf79dfcd	-0.9760712
132	0xbea9b7f0	-0.33148146
133	0x3f1d1bb1	0.6137038
134	0x3f238540	0.638752
135	0xbf1b6546	-0.60701406
136	0xbedcac08	-0.431
137	0xbf2a5122	-0.6653005
138	0x3ebadb56	0.36495465
139	0xbea3ce37	-0.31993267
140	0xbe40911c	-0.18805355
141	0xbec6ed1e	-0.3885278
142	0x3f013284	0.50467706
143	0xbf0bf0ac	-0.5466411
144	0xbe553a96	-0.2082313
145	0xbe6a8406	-0.22901925
146	0x3f50cfcf	0.8156709
147	0x3f3e9394	0.74443936
148	0x3e5d2149	0.21594729
149	0x3f65ad54	0.897176
150	0x3e78bdd3	0.24291162
151	0xbdea6b68	-0.11446267
152	0x3e9d8f9f	0.30773637
153	0xbd3d5e9f	-0.046232816
154	0x3ecadc5d	0.3962125
155	0xbe179d71	-0.14806153
156	0x3de891ba	0.1135592
157	0x3f104307	0.56352276
158	0x3f3b2451	0.7310229
159	0x3f0f051d	0.5586718
160	0x3f559f6a	0.8344637
161	0xbcc51046	-0.024055611
162	0x3f0b20a7	0.543467
163	0xbeb7d564	-0.35904992
164	0xbe9a57e3	-0.30145177
165	0x3f24fe0f	0.6445016
166	0xbdeb444e	-0.114876375
167	0x3e9bd5f4	0.3043667
168	0x3dc55526	0.096353814
169	0xbf586d78	-0.84542036
170	0x3ee0a9c8	0.43879533
171	0xbd0c794b	-0.03429536
172	0xbe1d7d91	-0.15379931
173	0xbdeac7ad	-0.114638664
174	0xbd08b897	-0.033379164
175	0xbf01a77c	-0.50646186
176	0x3ce7c7ec	0.028293572
177	0xbe03c471	-0.12867905
178	0x3c601177	0.013676039
179	0xbebfed1f	-0.37485597
180	0x3f14ba94	0.58097196
181	0xbf34fd81	-0.70699316
182	0xbe042678	-0.129053
183	0x3de4365c	0.11143181
184	0x3f2954bc	0.6614492
185	0xbfb67a4a	-1.425607
186	0x3eded5b8	0.4352243
187	0x3f497933	0.7870056
188	0x3e81a01e	0.25317472
189	0x3ee50d7f	0.4473686
190	0xbdd4fe0a	-0.104000166
191	0x3c3de0a4	0.011589203
192	0xbe491c87	-0.19639789
193	0xbec81f7c	-0.3908652
194	0xbdd108e0	-0.10206771
195	0x3f6ae93f	0.91762155
196	0x3e4ab6a5	0.19796236
197	0x3bd9ec83	0.006650509
198	0x3ee5e63f	0.44902226
199	0x3be23b50	0.0069040433
200	0x3e9b3b39	0.3031862
201	0x3f306c4d	0.68915254
202	0xbcd433a1	-0.025903525
203	0x3f1ba66c	0.60800815
204	0x3e474f08	0.19463742
205	0x3da8fd7a	0.08251472
206	0xbef72a9d	-0.482747
207	0x3e4240bd	0.18970008
208	0x3e4165bb	0.18886463
209	0xbf58b354	-0.84648633
210	0xbe9d7031	-0.30749658
211	0x3f77909c	0.9670503
212	0x3f2d0f8d	0.67601854
213	0x3ead11c2	0.3380261
214	0xbed4907e	-0.4151649
215	0x3e919c5d	0.28439608
216	0x3f2cfba5	0.6757148
217	0xbe84b690	-0.25920534
218	0xbf4aeeab	-0.7927043
219	0x3db09d7a	0.08623786
220	0x3f045187	0.516869
221	0x3f28c97e	0.6593245
222	0xbe91fd19	-0.2851341
223	0x3ead6069	0.33862618
224	0xbf234be5	-0.6378768
225	0xbb9e2ddb	-0.0048272437
226	0x3e814a9b	0.25252232
227	0x3ec1f1f7	0.37879917
228	0x3d3123d5	0.043247063
229	0xbc0ecb9b	-0.0087155355
230	0x3d2d2ec9	0.042280946
231	0x3e09a72f	0.13442682
232	0xbd159035	-0.03651448
233	0x3f5f088f	0.87122434
234	0xbd8baf63	-0.06820562
235	0x3e3a716a	0.18207327
236	0x3f1dc07a	0.6162182
237	0xbee0b40b	-0.43887362
238	0x3ccb1928	0.024792269
239	0x3d1d3b4c	0.038386628
240	0x3da5b14f	0.080904596
241	0xbed97676	-0.4247319
242	0xbe41b525	-0.18916757
243	0x3ed7b644	0.42131245
244	0x3e2754d2	0.1634095
245	0xbf45b720	-0.7723255
246	0xbd4f7e93	-0.05065782
247	0x3df32d9c	0.11873934
248	0x3ed49445	0.4151937
249	0x3ee24027	0.4418957
250	0xbebda676	-0.37041062
251	0xbe45f3f4	-0.19331342
252	0x3de67409	0.11252601
253	0x3f08042f	0.53131384
254	0xbef89b10	-0.48555803
255	0x3cb7fc88	0.022459283

architecture.2.bias f4 [64]
0	0xbc95d054	-0.018287815
1	0x3f86898e	1.0510728
2	0xbfa2228d	-1.2666794
3	0xbf1468f0	-0.5797262
4	0x3ebd881e	0.37017912
5	0xbf95a8da	-1.1692154
6	0x3f5d2ac7	0.863934
7	0xbe30fa54	-0.17282993
8	0xbfa632e5	-1.2984282
9	0x3f1fc356	0.62407434
10	0x3f2fc092	0.68653214
11	0xbfa42653	-1.2824196
12	0xbf662e11	-0.8991404
13	0x3f2f57aa	0.6849314
14	0xbe918f35	-0.2842957
15	0x3f6f8b3b	0.93571824
16	0x3f9ffe2d	1.2499443
17	0x3ebdbefb	0.3705977
18	0xbf4962ea	-0.78666556
19	0x3f9c15c7	1.2194146
20	0x3ef61347	0.48061582
21	0xbf3163fa	-0.6929318
22	0x3f073ce9	0.52827317
23	0x3fa4a394	1.286242
24	0xbf42a248	-0.7602887
25	0x3f66102b	0.8986842
26	0x3fad3e90	1.3534718
27	0xbf029440	-0.5100746
28	0xbf849569	-1.0358096
29	0xbed4fd4f	-0.4159951
30	0xbf9ecfe0	-1.2407188
31	0x3f060e54	0.52365613
32	0xbf312c83	-0.69208544
33	0x3efb7525	0.49112812
34	0x3f5a402a	0.85254157
35	0xbf9ccf29	-1.225072
36	0xbfa14382	-1.2598727
37	0x3fb987e6	1.4494598
38	0xbf316627	-0.692965
39	0xbf3f51db	-0.74734277
40	0xbf6996d5	-0.91245776
41	0xbfa2dde5	-1.2723967
42	0xbe5d13c3	-0.2158957
43	0x3f43b50f	0.7644815
44	0xbf9bd594	-1.2174554
45	0x3f06f30c	0.5271461
46	0xbf1a47b5	-0.60265666
47	0x3f70ba8e	0.9403466
48	0xbf41c4ea	-0.7569109
49	0x3f98531b	1.1900362
50	0x3fb7bdf3	1.4354843
51	0xbf2390be	-0.63892734
52	0xbfa16d27	-1.2611436
53	0xbf9d0faa	-1.2270405
54	0xbf5cd3be	-0.8626059
55	0xbda038b7	-0.078233175
56	0x3e5c7cdb	0.21532004
57	0x3ee06388	0.43825936
58	0xbec113db	-0.3771046
59	0x3f28e5a9	0.65975434
60	0xbfa02bc8	-1.2513361
61	0x3f4dcbb3	0.80388945
62	0xbf95f561	-1.1715509
63	0x3f9e5b08	1.237153

architecture.4.weight f4 [1, 64]
0	0xc105b5ee	-8.356916
1	0xc0a6962e	-5.2058325
2	0x40a5b3ca	5.178197
3	0x41045d4a	8.272776
4	0xc0ed049b	-7.406812
5	0x40a4f508	5.154911
6	0xc0a377ab	-5.108358
7	0x40a63677	5.1941485
8	0x40a72d10	5.224251
9	0xc0abe598	-5.3717766
10	0xc0a2421f	-5.0705714
11	0x40a84b7c	5.2592144
12	0x40a8142a	5.2524614
13	0xc0dbc420	-6.867691
14	0xc0e2b2db	-7.084333
15	0xc0d4eae2	-6.653672
16	0xc0abae74	-5.3650455
17	0xc0fbc05a	-7.8672304
18	0x40d37ca0	6.608963
19	0xc0ab1b1e	-5.34706
20	0xc0e9a31a	-7.30116
21	0x40cb5b0a	6.354863
22	0xc0d8340f	-6.756355
23	0xc0a6bcae	-5.210532
24	0x40dee9d1	6.966042
25	0xc10b2c8c	-8.698376
26	0xc0a3eb0c	-5.1224422
27	0x40f6be74	7.7107487
28	0x40ab5843	5.354524
29	0x40a7c898	5.2432365
30	0x40a5cb66	5.181079
31	0x410528d8	8.322472
32	0x40a38ec3	5.111177
33	0xc0e16229	-7.0432324
34	0xc0f35029	-7.603535
35	0x40a368be	5.106536
36	0x40a4fbb8	5.1557274
37	0xc0a4745e	-5.139205
38	0x40824011	4.0703206
39	0x40a6ad92	5.208688
40	0x40e12f62	7.037034
41	0x40a2c27c	5.086241
42	0x40956b9e	4.669387
43	0xc0aade02	-5.3396006
44	0x40a7d142	5.244294
45	0xc1020fcb	-8.128856
46	0x40cc0f77	6.376888
47	0xc0ad9161	-5.4239964
48	0x40df0e61	6.970505
49	0xc0a5b94c	-5.1788692
50	0xc0a3638c	-5.1059017
51	0x40f3466c	7.6023464
52	0x40a32acc	5.098974
53	0x4080f05a	4.02934
54	0x40a5de12	5.183358
55	0xc106d7c4	-8.427677
56	0xc10377c9	-8.216744
57	0xc0adaf88	-5.427677
58	0x40fe0e51	7.9392476
59	0xc0b00b99	-5.5014157
60	0x40b73b01	5.7259526
61	0xc0a87683	-5.264467
62	0x40a1b90e	5.0538397
63	0xc0a8d062	-5.2754374

exp_avg f4 [64, 27]
0	0x36d6e2fb	6.404121e-06
1	0xb79f41c5	-1.8984903e-05
2	0x37d91e1b	2.5882435e-05
3	0xb826a835	-3.973414e-05
4	0x380456eb	3.15522e-05
5	0xb886addf	-6.422004e-05
6	0xb81e22a9	-3.7702415e-05
7	0xb7a54518	-1.9701707e-05
8	0x37ea56fa	2.7935475e-05
9	0x37df3df4	2.661252e-05
10	0x38114157	3.4631546e-05
11	0xb81b9648	-3.709484e-05
12	0xb5e4f8e8	-1.7059765e-06
13	0x37d8d0c5	2.5846422e-05
14	0xb69504a3	-4.441086e-06
15	0x37457613	1.1769606e-05
16	0x34eef9e3	4.451277e-07
17	0xb6be3442	-5.668525e-06
18	0xb80dd42e	-3.3814627e-05
19	0x37f38e4d	2.9034121e-05
20	0xb872eeb3	-5.7919602e-05
21	0xb81c2d68	-3.7235586e-05
22	0xb72f6663	-1.0454652e-05
23	0x37c12f16	2.3029319e-05
24	0x37e1b5a0	2.6906666e-05
25	0x3802ac65	3.115497e-05
26	0xb817e9fe	-3.6219128e-05
27	0xb82ef95e	-4.1717074e-05
28	0x37d0dca2	2.4898272e-05
29	0xb896782f	-7.174943e-05
30	0xb83c7119	-4.4928023e-05
31	0x38745b0d	5.825893e-05
32	0x349a5c81	2.875204e-07
33	0xb8887eeb	-6.508626e-05
34	0x368727a7	4.0279297e-06
35	0x3885d09a	6.380789e-05
36	0x36a3d29d	4.882297e-06
37	0x38119c6b	3.471637e-05
38	0xb82e5ea8	-4.157299e-05
39	0x373ff2c8	1.1441014e-05
40	0xb6c9f47b	-6.018728e-06
41	0xb74cf62c	-1.2216664e-05
42	0xb5bb5d41	-1.3959726e-06
43	0xb7265c26	-9.915826e-06
44	0x3826a460	3.973057e-05
45	0xb7c8dd03	-2.3944775e-05
46	0x3892ecf9	7.005962e-05
47	0x3693b47e	4.4019534e-06
48	0xb8a07044	-7.6503056e-05
49	0x37cf38ac	2.4702713e-05
50	0x38796f5b	5.9469934e-05
51	0x3705533a	7.946795e-06
52	0x380c66ff	3.3474524e-05
53	0xb83e3875	-4.535211e-05
54	0x37a6fa87	1.9905403e-05
55	0x3764a0f8	1.36273375e-05
56	0x377b2e9c	1.4971618e-05
57	0x37607185	1.3377871e-05
58	0xb7b4de4c	-2.1561187e-05
59	0x34ba1e07	3.4667048e-07
60	0xb6af3218	-5.221238e-06
61	0x373a45a5	1.1102679e-05
62	0xb6b6300a	-5.429615e-06
63	0xb5d31cad	-1.5729071e-06
64	0xb6e1d084	-6.729797e-06
65	0x380a7afb	3.30163e-05
66	0xb6956214	-4.451964e-06
67	0xb743d0e5	-1.1671543e-05
68	0x33c7a10e	9.295955e-08
69	0xb6e2b7c7	-6.7567194e-06
70	0x370a1a57	8.231574e-06
71	0xb823752d	-3.8971357e-05
72	0xb6e30e3f	-6.7667856e-06
73	0xb7d635fb	-2.5535925e-05
74	0xb72caf98	-1.02928825e-05
75	0xb68b7bb7	-4.156925e-06
76	0x3766c5b5	1.3755101e-05
77	0x3546fe03	7.4130384e-07
78	0x36bea158	5.681224e-06
79	0xb3f77be2	-1.1524368e-07
80	0x38049954	3.161405e-05
81	0xb849654d	-4.8016478e-05
82	0x38b4105d	8.586117e-05
83	0x37947596	1.769773e-05
84	0x37c17039	2.305965e-05
85	0xb59d7afe	-1.1733207e-06
86	0x38ebc895	0.000112430345
87	0xb82fe132	-4.193298e-05
88	0x38ca70b4	9.653103e-05
89	0xb90930f0	-0.00013083569
90	0xb909d393	-0.00013144156
91	0x383f2ed5	4.5581564e-05
92	0x37dc0db4	2.6232425e-05
93	0xb83e01a6	-4.5301065e-05
94	0x37ebfdd0	2.8132374e-05
95	0xb7d50efe	-2.539856e-05
96	0xb8a8c589	-8.047658e-05
97	0xb895e16f	-7.146864e-05
98	0x38b83c10	8.784991e-05
99	0x37933cda	1.7552102e-05
100	0x3739adc0	1.1067314e-05
101	0x38ff6662	0.00012178418
102	0xb7f9df31	-2.9787045e-05
103	0x38e6c240	0.000110034365
104	0xb9133c16	-0.00014041396
105	0xb90c1606	-0.00013359645
106	0x385538e0	5.0836126e-05
107	0x379dad77	1.8796634e-05
108	0xb7613ad8	-1.3424746e-05
109	0xb6e7327c	-6.8902136e-06
110	0xb703cb40	-7.855531e-06
111	0xb873131a	-5.7953504e-05
112	0x37a2e7a7	1.9419776e-05
113	0x3840c724	4.596183e-05
114	0xb78e53bf	-1.6966716e-05
115	0x37d5dda2	2.5494784e-05
116	0x3869999c	5.569459e-05
117	0xb734921b	-1.0762854e-05
118	0xb841dbe3	-4.621957e-05
119	0xb78a1657	-1.6461285e-05
120	0xb74daaa3	-1.2258682e-05
121	0xb7435322	-1.1642262e-05
122	0xb72eddbd	-1.0422836e-05
123	0xb4b4e8e8	-3.3697074e-07
124	0xb7963177	-1.7904427e-05
125	0x34d1c712	3.9074126e-07
126	0xb8359f86	-4.330233e-05
127	0x37a6f4b8	1.9902698e-05
128	0x385b3db4	5.2271134e-05
129	0xb6b7a8f6	-5.4734946e-06
130	0x379adb58	1.846037e-05
131	0x3846d7d8	4.74079e-05
132	0xb7b91e4a	-2.2067823e-05
133	0xb82c032e	-4.1010957e-05
134	0xb75ee3a4	-1.3285233e-05
135	0xb80b6de6	-3.3242533e-05
136	0xb80028f5	-3.0555722e-05
137	0xb568d744	-8.673999e-07
138	0xb7c066b8	-2.2936016e-05
139	0x37abcf8b	2.0481433e-05
140	0xb7479e30	-1.1898155e-05
141	0xb807710f	-3.2291802e-05
142	0x374db655	1.2261405e-05
143	0xb630a2ea	-2.6320872e-06
144	0x374bd8ed	1.215025e-05
145	0x375c8529	1.3144026e-05
146	0xb730c052	-1.05351955e-05
147	0xb7c794d7	-2.3791958e-05
148	0x37e14459	2.6853917e-05
149	0xb7940fe2	-1.765037e-05
150	0xb78aa2d8	-1.6526712e-05
151	0xb783ab61	-1.5696221e-05
152	0x382ecf85	4.16781e-05
153	0x352fdce9	6.5514047e-07
154	0x3805daae	3.1913332e-05
155	0xb7089589	-8.141048e-06
156	0xb831900a	-4.2334235e-05
157	0x37d4bb8e	2.5359706e-05
158	0xb551a594	-7.8099515e-07
159	0x372b281d	1.0201734e-05
160	0x37921f34	1.7419086e-05
161	0xb791760f	-1.7340322e-05
162	0x36b8d605	5.5085425e-06
163	0x3707dd1c	8.098108e-06
164	0xb81d806f	-3.755133e-05
165	0xb83f5f76	-4.5626854e-05
166	0x37207eac	9.566236e-06
167	0xb6d9f48a	-6.495572e-06
168	0x381d5862	3.751403e-05
169	0xb7a577f5	-1.9725392e-05
170	0xb71b430c	-9.2543305e-06
171	0x37564b39	1.2772908e-05
172	0xb836ab83	-4.3551914e-05
173	0xb7008a31	-7.66157e-06
174	0xb7392a3b	-1.1036692e-05
175	0xb781d7d1	-1.5478496e-05
176	0x36d44a30	6.326729e-06
177	0x3846d3db	4.7404184e-05
178	0xb6bb91a9	-5.5899914e-06
179	0xb844ef4d	-4.6952908e-05
180	0xb8080af4	-3.2435128e-05
181	0x355f888b	8.327267e-07
182	0xb6b077bb	-5.259147e-06
183	0x384bc1e7	4.8579557e-05
184	0xb7c7df7d	-2.3826718e-05
185	0xb590eaeb	-1.0797206e-06
186	0x37121136	8.706285e-06
187	0xb845b432	-4.713628e-05
188	0xb6f6cef4	-7.355464e-06
189	0xb8ea27a9	-0.00011165377
190	0x38f06ab1	0.000114639646
191	0xb9043d8e	-0.00012611432
192	0x38242b4a	3.9140963e-05
193	0x37b5ce2b	2.1672886e-05
194	0x382b663c	4.086479e-05
195	0xb715ed7e	-8.9363875e-06
196	0x381e7399	3.7777794e-05
197	0xb86cd949	-5.6469147e-05
198	0xb8524553	-5.0132465e-05
199	0xb6c59d13	-5.8893434e-06
200	0x38ce0770	9.824231e-05
201	0x3664340b	3.400494e-06
202	0xb827f23b	-4.0041497e-05
203	0xb78248ad	-1.553105e-05
204	0x37f76c50	2.9495131e-05
205	0x36e88b5f	6.9303637e-06
206	0xb819ae15	-3.664017e-05
207	0x38aa9aa7	8.135038e-05
208	0x378e755f	1.6982374e-05
209	0x38493fdf	4.798162e-05
210	0xb58f3b93	-1.0671669e-06
211	0x3885a376	6.372381e-05
212	0xb835926b	-4.3290125e-05
213	0xb862071e	-5.3889227e-05
214	0xb78dd420	-1.6907288e-05
215	0x38d43a7a	0.0001011984
216	0x38eb5ed4	0.00011223336
217	0x367d8a79	3.778054e-06
218	0x3850df0b	4.979879e-05
219	0x38d91c80	0.00010352675
220	0x37919af4	1.7357503e-05
221	0x37d224ac	2.5051027e-05
222	0xb89deffc	-7.531044e-05
223	0x38725d61	5.7784262e-05
224	0x37f15733	2.8770044e-05
225	0x370486c8	7.899194e-06
226	0x388aa298	6.610638e-05
227	0x383a65f8	4.444082e-05
228	0xb858ea5e	-5.1716685e-05
229	0x388388f1	6.272074e-05
230	0x37b002a6	2.0982068e-05
231	0x36d22f1c	6.263972e-06
232	0x35827dc5	9.722359e-07
233	0x36a3142f	4.8601282e-06
234	0x38d435da	0.000101189784
235	0x36dd355a	6.592524e-06
236	0x37b3bcb8	2.1426342e-05
237	0xb894d5c3	-7.097006e-05
238	0x385763d4	5.1352967e-05
239	0x37d981eb	2.5928914e-05
240	0x371a1a15	9.185188e-06
241	0x38583370	5.1546318e-05
242	0x381a56b8	3.6797224e-05
243	0xb73a99ef	-1.1122304e-05
244	0xb6ada861	-5.1754037e-06
245	0x38094a79	3.2732703e-05
246	0x37cd2b27	2.4457999e-05
247	0x386c23ad	5.630001e-05
248	0xb4b05efd	-3.2851668e-07
249	0xb6ba9709	-5.5608148e-06
250	0x3854b62a	5.0714392e-05
251	0xb8355778	-4.3235224e-05
252	0xb74775a1	-1.1888712e-05
253	0x37a58d3e	1.9735304e-05
254	0x321a37b1	8.9766425e-09
255	0x37508a48	1.2429962e-05
