raisimGymTorch/data/ouzel_only_planning/2022-05-09-12-17-53/full_26000.pt (torch, 162032 bytes, 36 tensors)

architecture.0.weight f4 [64, 27]
0	0x3c9a80da	0.01886027
1	0xbdb6e31c	-0.089300364
2	0x3ecd60e2	0.40112978
3	0x3ce2e6f0	0.02769801
4	0x3e826ed6	0.25475186
5	0xbdf023dd	-0.117255904
6	0xbeaa6c9a	-0.3328598
7	0x3f033f44	0.5126841
8	0x3d44ee7f	0.04807901
9	0x3f1e079f	0.6173038
10	0xbe7d9d8f	-0.24767135
11	0xbdb44454	-0.08802095
12	0x3e40258e	0.18764326
13	0xbe6a47ee	-0.22879001
14	0xbda50eb8	-0.08059448
15	0xbee416fe	-0.44548792
16	0x3f2a940b	0.66632146
17	0x3ecbc7c9	0.3980086
18	0xbdc65673	-0.09684458
19	0xbd2070ad	-0.039169956
20	0x3d712e15	0.058881838
21	0x3cd3930f	0.025826959
22	0x3dbfd25d	0.093662955
23	0x3d873d38	0.066034734
24	0x3f172154	0.5903523
25	0xbf11590c	-0.567765
26	0xbb9dbaa8	-0.004813511
27	0x3e4bc222	0.19898275
28	0x3bd80b80	0.006593168
29	0xbf0e7afb	-0.55656403
30	0x3d6ebdaa	0.058286346
31	0x3e54be82	0.20775798
32	0x3d8ef4f4	0.06980315
33	0xbdec9d91	-0.11553491
34	0x3d8e8a92	0.06960024
35	0xbd54c982	-0.051949985
36	0xbd8bc5f7	-0.06824868
37	0xbec45677	-0.38347217
38	0x3e0cf0b1	0.13763691
39	0xbe2b4ad8	-0.1672777
40	0x3dd6feab	0.10497793
41	0xbef9cb7a	-0.48788053
42	0x3ec424d6	0.38309354
43	0x3d8e8c91	0.06960405
44	0x3e971bc8	0.29513383
45	0x3e824ede	0.25450796
46	0x3e663563	0.22481303
47	0x3ea267c7	0.317198
48	0xbe0d7db1	-0.13817479
49	0x3e2bac3e	0.16764924
50	0xbe37fffe	-0.17968747
51	0xbf17a549	-0.5923658
52	0xbd1cdc7b	-0.038296204
53	0xbe01e45e	-0.12684771
54	0x3e285fe7	0.16442834
55	0x3f2f5e1c	0.68502975
56	0x3e4cf0fc	0.20013803
57	0x3ef9ba7b	0.48775086
58	0x3e0a01c5	0.13477238
59	0x3db31d0a	0.08745773
60	0xbd97bf52	-0.07409538
61	0xbe452aa4	-0.19254547
62	0xbef9d820	-0.48797703
63	0xbd48717d	-0.048936356
64	0xbde4278b	-0.11140355
65	0x3cae680b	0.021289846
66	0xbdb017d2	-0.08598293
67	0x3e8d2bb5	0.27572408
68	0xbdb44aa5	-0.088033
69	0x3ca7461e	0.020419177
70	0xbda74d4f	-0.08169042
71	0x3ec31bc5	0.38107124
72	0xbdfc8947	-0.12330871
73	0x3e44685f	0.1918044
74	0x3ea04af4	0.31307185
75	0x3d89d012	0.067291394
76	0x3d2ed803	0.042686474
77	0xbe1d9e01	-0.15392305
78	0xbe0a9198	-0.13532102
79	0xbe62efb8	-0.22161758
80	0xbbbc58c2	-0.0057478854
81	0xbe8ef483	-0.27920923
82	0xbe820664	-0.253955
83	0xbdf82eb4	-0.12118283
84	0x3dde3f79	0.1085195
85	0x3dbf88b2	0.093522444
86	0x3e8f7b13	0.28023586
87	0xbcbf2ddd	-0.023337299
88	0xbe9556a9	-0.2916768
89	0x3d981cac	0.07427344
90	0xbc81e56a	-0.015856463
91	0xbe86ece4	-0.26352608
92	0xbb8b0dcf	-0.0042435895
93	0xbf7b6c09	-0.98211724
94	0x3e0175d6	0.12642607
95	0x3da8bfee	0.08239733
96	0x3dc5f2a8	0.09665424
97	0x3dc7323b	0.097263776
98	0x3dc13b72	0.094351664
99	0x3db964ae	0.09052406
100	0x3e34e41c	0.17665142
101	0xbd2278ad	-0.039665867
102	0x3dfe7144	0.124239475
103	0xbe932331	-0.28737786
104	0x3e538791	0.20657183
105	0x3e94a2db	0.290305
106	0x3ba2a195	0.0049631097
107	0xbdff8eab	-0.12478384
108	0xbd18238b	-0.03714327
109	0x3e226269	0.15857853
110	0xbeee2935	-0.46515813
111	0x3e89a66d	0.26884785
112	0x3e356315	0.17713578
113	0xbe61a02f	-0.22033761
114	0x3ebacb12	0.36483055
115	0x3e6b6519	0.22987784
116	0xbdef6857	-0.11689823
117	0x3beab0a1	0.007162169
118	0xbee84c03	-0.45370492
119	0x3d5f83f8	0.054569215
120	0x3e4bd2f3	0.1990469
121	0x3e797b00	0.24363327
122	0x3e97ee83	0.29674158
123	0xbe2a3bf7	-0.16624437
124	0xbdc7ff10	-0.09765446
125	0x3efa7bd2	0.48922592
126	0x3e9b534e	0.30336994
127	0x3ee44757	0.44585678
128	0xbe9c4158	-0.30518603
129	0x3eaaeaf1	0.3338237
130	0x3e81395f	0.25239083
131	0xbde1acf4	-0.11019316
132	0x3d6d9d1d	0.058011163
133	0xbebc72a9	-0.3680623
134	0x3c914d5a	0.01773708
135	0xbeb5cd8e	-0.35508388
136	0xbe87810a	-0.26465636
137	0xbe1712f8	-0.1475333
138	0x3e41dbe6	0.18931541
139	0xbca70271	-0.020386906
140	0x3e532204	0.20618445
141	0x3d8f01ab	0.0698274
142	0xbec587ee	-0.3858027
143	0xbdf14344	-0.11780408
144	0xbe0cd09f	-0.13751458
145	0x3e32421d	0.17408033
146	0x3e3551ca	0.17706981
147	0xbcbbafc7	-0.022910966
148	0x3def5dc3	0.116878055
149	0x3eed0c79	0.46298578
150	0xbbee4e25	-0.007272499
151	0xbec6c9e3	-0.38825902
152	0xbc24ce60	-0.010058969
153	0xbcbe8577	-0.023257
154	0xbe8508ad	-0.25983182
155	0xbe583749	-0.2111484
156	0x3e662479	0.2247485
157	0xbf5d0008	-0.8632817
158	0x3d058a62	0.032602675
159	0xbe249b1c	-0.16074795
160	0x3e845a94	0.25850356
161	0xbe04f877	-0.12985407
162	0xbda528b9	-0.08064408
163	0xbf1c0380	-0.6094284
164	0xbe8927bc	-0.26788127
165	0x3e9a79d7	0.3017108
166	0xbe98d5ba	-0.2985056
167	0x3e2e780f	0.17037986
168	0x3dbee98f	0.093218915
169	0xbcbdfcc5	-0.023191819
170	0xbee107eb	-0.43951353
171	0x3ec5021a	0.38478166
172	0xbe095890	-0.1341269
173	0x3e9e10c0	0.30872154
174	0x3ea59f43	0.3234807
175	0x3d6d0ad2	0.057871647
176	0x3de146ea	0.10999854
177	0x3e095a53	0.13413362
178	0xbe48b9e1	-0.19602157
179	0xbed92cf4	-0.4241711
180	0x3e0f8a61	0.14017631
181	0xbdb5bd15	-0.08873955
182	0x3d9c7d2f	0.076410644
183	0x3eb298b9	0.34882143
184	0x3c73395d	0.014845219
185	0x3e3636f8	0.17794406
186	0x3ddbfc31	0.10741461
187	0x3d9f626c	0.07782444
188	0x3d8b3155	0.06796519
189	0xbe63336f	-0.22187589
190	0xbe39abef	-0.18131994
191	0xbeedc238	-0.4643724
192	0x3e7e6a11	0.24845149
193	0xbdfe1d65	-0.1240795
194	0xbe42ed03	-0.19035725
195	0x3e4344f2	0.1906927
196	0x3ddc3bc3	0.10753586
197	0xbe291977	-0.1651362
198	0xbafab9cd	-0.0019128859
199	0xbdd8dc43	-0.105888866
200	0xbe477c27	-0.19480954
201	0x3e009e8e	0.12560484
202	0x3f1e4d46	0.6183666
203	0xbc2e0042	-0.010620179
204	0xbe721318	-0.23640096
205	0xbe9d8504	-0.30765545
206	0x3e35fb75	0.17771704
207	0xbde08809	-0.10963447
208	0x3de75feb	0.11297592
209	0x3e2ed5f4	0.17073804
210	0xbe271999	-0.16318358
211	0xbdf204bf	-0.118173115
212	0xbe8701df	-0.26368615
213	0x3e0456d8	0.12923753
214	0x3d14b0be	0.036301367
215	0x3d8d554b	0.06901034
216	0xbe7f2ea4	-0.24920136
217	0xbda3bafb	-0.07994648
218	0x3c17e81e	0.00927165
219	0xbed8b848	-0.42328095
220	0x3e76d389	0.24104132
221	0x3e48da4b	0.19614522
222	0x3d30b088	0.043137103
223	0xbc021281	-0.007938982
224	0xbd0311be	-0.031999342
225	0xbd49aa1d	-0.0492345
226	0xbb385f90	-0.0028133132
227	0x3e095e13	0.13414793
228	0x3e1602ed	0.14649554
229	0xbf080cc5	-0.53144485
230	0x3f4cce9e	0.8000277
231	0xbe75192c	-0.23935384
232	0xbe299c37	-0.16563497
233	0x3e8ef669	0.2792237
234	0x3e7e4422	0.24830678
235	0xbeab04e9	-0.33402184
236	0xbe400c0d	-0.18754597
237	0x3e40182e	0.18759224
238	0x3de11e6d	0.109921314
239	0x3e7156f5	0.23568328
240	0xbe881199	-0.26575926
241	0xbe44601d	-0.1917729
242	0xbe309531	-0.17244412
243	0x3ed1965d	0.4093503
244	0x3e760674	0.24025899
245	0xbdec57ef	-0.115402095
246	0xbec2439d	-0.3794221
247	0x3e8f4b45	0.27987114
248	0xbe1301ed	-0.14356203
249	0x3e59b131	0.21259
250	0xbe95c093	-0.29248485
251	0xbe7a7afa	-0.24460974
252	0xbea6c663	-0.32573232
253	0x3d99b91e	0.075060114
254	0xbda40147	-0.08008056
255	0xbeb7bc0a	-0.3588565

architecture.0.bias f4 [64]
0	0xbdaede82	-0.08538534
1	0xbe975d12	-0.29563195
2	0x3f590c50	0.8478441
3	0x3e1ec283	0.15503888
4	0x3e09539a	0.13410798
5	0xbf04ecf7	-0.5192408
6	0xbf35350e	-0.7078408
7	0xbf56f4cd	-0.83967286
8	0xbf69bf63	-0.9130766
9	0x3de857b6	0.113448545
10	0xbf2033c0	-0.62578964
11	0x3eb68611	0.3564916
12	0x3f8a7705	1.0817572
13	0xbf759a0a	-0.9593817
14	0x3f85c89d	1.0451847
15	0x3f716a3f	0.94302744
16	0xbf1b116d	-0.60573465
17	0xbecc51e8	-0.3990624
18	0xbf6ebc76	-0.9325632
19	0x3e7874e2	0.24263337
20	0x3faa15e6	1.3287933
21	0xbf84537c	-1.0337977
22	0x3f61fa5f	0.8827266
23	0xbf6327df	-0.88732713
24	0x3e5fa176	0.21838936
25	0x3eb75cfa	0.35813123
26	0x3e51070e	0.20412847
27	0xbf60dcd3	-0.8783695
28	0xbefbe12a	-0.49195224
29	0xbae4c660	-0.001745414
30	0xbdd2a334	-0.10285035
31	0xbebaad3e	-0.36460298
32	0xbf4c27ef	-0.79748434
33	0xbf47dcf8	-0.78071547
34	0xbf378942	-0.71693814
35	0x3e64a7d7	0.22329651
36	0x3f829dd8	1.020442
37	0xbeba6a44	-0.364092
38	0x3ee78aa6	0.45222968
39	0xbc819a46	-0.015820634
40	0xbeffaead	-0.49937955
41	0xbf0c2fe4	-0.54760575
42	0x3f7352b9	0.950481
43	0xbe51fd99	-0.20506896
44	0x3e12bdd8	0.14330232
45	0x3f1a1d72	0.6020118
46	0xbe1c6b89	-0.15275396
47	0xbef8f469	-0.4862397
48	0x3e46170e	0.19344732
49	0x3f8bed59	1.0931808
50	0x3f3ec85b	0.7452447
51	0x3f114c61	0.5675717
52	0xbceefa0c	-0.029171966
53	0xbf83b5fd	-1.0289913
54	0xbeedadfc	-0.46421802
55	0x3e568418	0.20948827
56	0xbf2ff0ea	-0.6872698
57	0xbf8da3e5	-1.1065642
58	0x3f7e3af5	0.9930871
59	0x3f863672	1.0485365
60	0x3f900552	1.1251624
61	0x3f395d49	0.72407967
62	0xbe2ef3b4	-0.17085153
63	0x3df71bb8	0.12065834

architecture.2.weight f4 [64, 64]
0	0xbc96ea7f	-0.018422363
1	0x3e891d5b	0.2678021
2	0xbe8aab6e	-0.27083915
3	0xbe2383c1	-0.15968229
4	0x3e1678ff	0.14694594
5	0x3e9bbfbc	0.3041972
6	0x3e4bb17c	0.19891924
7	0x3ea06665	0.3132812
8	0x3ee9103b	0.45520195
9	0xbd57e3a3	-0.052707326
10	0x3ed90090	0.42383242
11	0xbd91467b	-0.07093521
12	0xbeccc4e8	-0.39993978
13	0xbe5311fe	-0.20612332
14	0xbe2cba0c	-0.16867846
15	0xbf218d68	-0.63106394
16	0xbc64de57	-0.013969026
17	0xbca25da2	-0.019820038
18	0x3eb33339	0.35000017
19	0xbe2a5327	-0.16633283
20	0xbf215cc3	-0.6303217
21	0x3f1cdf44	0.61278176
22	0xbe83dcb1	-0.25754312
23	0x3e8a9af3	0.27071342
24	0x3dc11589	0.09427936
25	0xbdfd4351	-0.12366355
26	0xbccc35a0	-0.024927914
27	0x3edef089	0.4354289
28	0xbd30af7b	-0.0431361
29	0xbe15d1f3	-0.1463087
30	0xbbff005e	-0.007782026
31	0x3eca3566	0.39493865
32	0x3e8e9d20	0.27854252
33	0x3eb6a962	0.35676104
34	0x3d8795a5	0.06620339
35	0x3df6307f	0.12020969
36	0xbe2081d8	-0.15674531
37	0xbd5ade0a	-0.05343441
38	0xbd86ab57	-0.06575649
39	0x3e585792	0.21127155
40	0x3dee7bee	0.116447315
41	0xbddf95b3	-0.10917225
42	0x3e75762d	0.23970862
43	0xbd3b5761	-0.045737628
44	0xbea859bf	-0.3288097
45	0x3d918550	0.071055055
46	0x3c156c53	0.009120065
47	0x3dc96d73	0.09835329
48	0xbca65e59	-0.02030866
49	0xbca167c3	-0.019702798
50	0xbe018e0a	-0.1265184
51	0x3dd4e5db	0.10395404
52	0x3e3e02ad	0.18555708
53	0x3e452465	0.19252165
54	0x3e2f7e37	0.17137991
55	0xbc8b8d9d	-0.0170353
56	0xbce665c4	-0.028124698
57	0xbd2efe39	-0.042722914
58	0xbf075a8c	-0.5287254
59	0xbd46d532	-0.048543163
60	0xbedfd5ff	-0.43717954
61	0xbed29d34	-0.4113556
62	0xbecfe304	-0.40602887
63	0x3dcc0073	0.09961023
64	0x3cbddc5b	0.023176363
65	0xbe871945	-0.26386467
66	0x3dc7395b	0.097277366
67	0x3cfca0ce	0.030838396
68	0x3e0d9e8d	0.13830014
69	0xbd0d098b	-0.03443293
70	0xbdbc2a9a	-0.09187813
71	0xbdb86030	-0.09002721
72	0x3ebfda9e	0.3747148
73	0xbddff424	-0.10935238
74	0x3d899043	0.06716969
75	0xbc4d5824	-0.012533221
76	0x3dc94a62	0.098286405
77	0x3eb09d2b	0.3449491
78	0x3e509113	0.20367841
79	0x3e5dc3bb	0.21656696
80	0xbdf19576	-0.117960855
81	0x3e5a4abb	0.2131757
82	0xbe830c38	-0.2559526
83	0xbd9cf16d	-0.07663236
84	0x3ec112b1	0.37709573
85	0xbd8b3991	-0.06798089
86	0xbdd09cfd	-0.10186193
87	0xbe3a8476	-0.18214592
88	0x3ca67a16	0.020321887
89	0x3e995680	0.29948807
90	0xbd15e7fd	-0.036598194
91	0xbe0f9ee5	-0.14025457
92	0x3f067ccb	0.5253417
93	0x3df55e11	0.11980832
94	0xbbabfe5a	-0.005248827
95	0x3e3b43fa	0.1828765
96	0xbec3bd03	-0.38230142
97	0xbe21c336	-0.15797123
98	0x3d32e626	0.043676518
99	0xbb6bee50	-0.00360002
100	0x3e315daa	0.17320886
101	0xbe9331d1	-0.28748944
102	0xbe567a20	-0.20945024
103	0x3dc263ab	0.094916664
104	0x3dfc3c4d	0.12316189
105	0xbcee4292	-0.029084478
106	0xbe95278c	-0.29131734
107	0xbc891384	-0.016732939
108	0x3e369e01	0.17833711
109	0xbe87b061	-0.26501754
110	0x3e1afa65	0.1513458
111	0xbd616e37	-0.05503675
112	0xbe5d5107	-0.2161294
113	0xbe0a7bf3	-0.13523845
114	0x3c8c073c	0.017093293
115	0xbba25d7a	-0.004954991
116	0xbe566424	-0.20936638
117	0x3f06ec7e	0.5270461
118	0x3e563bab	0.20921199
119	0x3dc969f5	0.09834663
120	0x3e294fbd	0.16534324
121	0x3f076a5d	0.5289667
122	0xbde5b501	-0.112161644
123	0x3e8adae4	0.27120125
124	0x3f27cdc6	0.6554836
125	0xbbaef380	-0.005339086
126	0x3df063c7	0.11737781
127	0x3c4d836d	0.012543541
128	0x3ec3704b	0.3817161
129	0xbf17f422	-0.5935689
130	0xbd153977	-0.036431756
131	0xbe874a95	-0.2642409
132	0x39968546	0.00028709526
133	0xbdab04a5	-0.08350495
134	0xbd2e51a8	-0.042558342
135	0x3d2806c6	0.041022085
136	0x3e86b493	0.26309642
137	0xbdf0c70e	-0.11756717
138	0xbe240ad4	-0.16019756
139	0xbdc809b6	-0.09767477
140	0xbdea3e5a	-0.11437674
141	0xbe8e8b31	-0.2784057
142	0xbd142e53	-0.03617699
143	0xbeccf91a	-0.400338
144	0xbe8ba0f5	-0.27271238
145	0xbda69c9a	-0.08135338
146	0xbe554021	-0.20825244
147	0xbe430d14	-0.19047958
148	0x3f3728d7	0.7154669
149	0xbe85a160	-0.26099682
150	0x3ec0187d	0.37518683
151	0xbe54c740	-0.20779133
152	0x3f210303	0.6289522
153	0xbda3b104	-0.079927474
154	0xbd08de5f	-0.033415195
155	0x3e71318d	0.23554058
156	0x3d58c8a3	0.052925717
157	0xbe84f5db	-0.25968823
158	0xbbfb2f6a	-0.0076655643
159	0x3caf97fb	0.021434775
160	0xbe8c0244	-0.2734548
161	0x3e9a65a7	0.3015568
162	0xbec1d18a	-0.37855178
163	0xbcce59b1	-0.025189253
164	0x3eb45ca1	0.3522692
165	0xbd079757	-0.033103313
166	0xbd85958d	-0.06522665
167	0x3df8df4e	0.12151967
168	0xbe2f609c	-0.17126697
169	0xbebed082	-0.37268454
170	0x3ee91fb0	0.45531988
171	0xbe780e06	-0.242241
172	0xbd07ee2d	-0.033186127
173	0x3ece3dbb	0.40281472
174	0xbe288546	-0.1645709
175	0xbd9d0d61	-0.076685674
176	0xbd77dbf4	-0.060512498
177	0x3ecdf6f3	0.4022747
178	0xbe8dc942	-0.2769261
179	0x3e0acbcc	0.13554305
180	0x3edfcf1c	0.437127
181	0xbd9139d7	-0.0709111
182	0xbe260526	-0.16212901
183	0xbe300ad4	-0.1719163
184	0xbec1d69b	-0.37859043
185	0xbf1ddd80	-0.6166611
186	0x3ec9cb82	0.39413077
187	0x3cbf8b61	0.02338189
188	0xbe94ba64	-0.29048455
189	0xbda89bc2	-0.082328334
190	0x3d479761	0.04872835
191	0x3c9d8645	0.019229064
192	0x3e062ad6	0.13102278
193	0xbd6b02bf	-0.057375666
194	0xbd8bc87c	-0.06825349
195	0xbeb4efec	-0.35339296
196	0x3e1664e2	0.14686921
197	0xbe552f90	-0.20818925
198	0xbdd5f849	-0.10447747
199	0xbe65c098	-0.2243675
200	0x3e8a14c0	0.26968956
201	0xbe30c191	-0.1726134
202	0x3f1bc2fa	0.60844386
203	0xbf18d61b	-0.597017
204	0xbf2577b7	-0.64635795
205	0x3e876d4c	0.26450574
206	0xbeb50af9	-0.35359934
207	0xbeae9e5f	-0.34105203
208	0x3db9d0b0	0.09073007
209	0xbdad65d3	-0.08466687
210	0x3e368035	0.17822345
211	0x3ddce944	0.107866794
212	0xbee5ce53	-0.44883975
213	0x3ea23cfe	0.31687158
214	0xbe1d9c4c	-0.15391654
215	0xbcd253ea	-0.025674779
216	0xbe6f832e	-0.23389885
217	0x3d7b8f9f	0.061416265
218	0xbeacbf15	-0.33739534
219	0x3e75ab1a	0.23991051
220	0xbd030fca	-0.03199748
221	0xbe18e554	-0.14931232
222	0xbe8a3713	-0.26995143
223	0xbe891d28	-0.26780057
224	0x3ef5bdd1	0.4799638
225	0xbe45e1f0	-0.1932447
226	0x3ea4accd	0.32163087
227	0x3d843e20	0.06457162
228	0xbe0dc947	-0.13846312
229	0x3e86716a	0.26258403
230	0xbe0038fa	-0.12521735
231	0x3eaac802	0.3335572
232	0x3e6b8d7d	0.23003192
233	0x3da0d971	0.07853974
234	0xbe5f33bf	-0.21797083
235	0xbe6e00b9	-0.23242463
236	0x3dd2964b	0.10282572
237	0xbf13a661	-0.5767575
238	0x3f0e17ed	0.5550526
239	0xbca0fecd	-0.019652748
240	0xbdbe3beb	-0.09288772
241	0xbe05afa6	-0.13055286
242	0xbe387914	-0.18014938
243	0xbde06c11	-0.10958112
244	0x3e641c44	0.22276407
245	0x3e75368c	0.23946589
246	0x3df990eb	0.12185844
247	0x3e4279b1	0.18991734
248	0x3da6b5f3	0.08140173
249	0x3e48b75d	0.19601198
250	0x3e157dce	0.14598772
251	0xbe2d4a0f	-0.16922782
252	0xbec5871b	-0.3857964
253	0xbe92bc59	-0.28659323
254	0xbc3255a6	-0.010884678
255	0xbe15cfd2	-0.14630058

architecture.2.bias f4 [64]
0	0xbf4cdba4	-0.80022645
1	0x3bc1bd52	0.0059124613
2	0x3f289fde	0.6586894
3	0xbf64842b	-0.8926417
4	0xbebaf74c	-0.36516798
5	0xbf02aedc	-0.51048064
6	0x3e4c0cea	0.19926801
7	0xbf0fc859	-0.5616508
8	0xbe7cec01	-0.24699403
9	0xbea5e54f	-0.3240151
10	0xbdbe8370	-0.093024135
11	0xbb8e85ce	-0.004349447
12	0x3e2fb3bf	0.17158411
13	0xbebf47a1	-0.37359336
14	0x3e8f0a20	0.27937412
15	0x3c9bf548	0.019037858
16	0x3edf0102	0.43555456
17	0x3f1bbd9a	0.60836184
18	0x3fc239f7	1.517394
19	0x3f19eba2	0.6012517
20	0xbef75261	-0.48305038
21	0xbc890561	-0.016726198
22	0xbd153ac9	-0.036433015
23	0xbf42781b	-0.75964516
24	0xbf4b84b0	-0.7949934
25	0x3efc7ba3	0.49313077
26	0x3d898bec	0.06716141
27	0x3e52d90f	0.20590614
28	0x3fb150ca	1.385278
29	0xbe685b41	-0.2269106
30	0x3ef790ff	0.4835281
31	0x3e82f8a9	0.25580338
32	0xbe5d1efc	-0.21593851
33	0xbebe7c25	-0.3720409
34	0x3eafbcd0	0.3432374
35	0xbc7cc7f0	-0.015428528
36	0xbeb8c978	-0.36091208
37	0xbdaa3169	-0.083102055
38	0xbee7d4b0	-0.45279455
39	0x3f04020d	0.5156563
40	0xbfb6f33d	-1.429298
41	0x3dd2ffc2	0.10302688
42	0xbe8a8e88	-0.27061868
43	0xbd9f1f5c	-0.07769653
44	0x3eb8897b	0.3604239
45	0x3f68b8e6	0.9090713
46	0xbf79e617	-0.97616714
47	0x3db14cad	0.08657203
48	0x3e52439b	0.20533602
49	0xbe0cf275	-0.13764365
50	0xbf512f50	-0.8171282
51	0xbe6bd127	-0.23029004
52	0x3e99c78a	0.3003505
53	0xbc928751	-0.01788679
54	0xbf42a867	-0.7603821
55	0x3f6faaef	0.936202
56	0xbdca9ea2	-0.09893538
57	0x3dde5eff	0.10857963
58	0x3e1b4199	0.15161742
59	0x3dc759c4	0.09733918
60	0xbd07925c	-0.033098564
61	0x3e7d92a1	0.24762966
62	0xbc732810	-0.014841095
63	0x3c1d1755	0.009588082

architecture.4.weight f4 [9, 64]
0	0xbcd2de0d	-0.025740648
1	0x3dae95f7	0.08524697
2	0xbce1da37	-0.027569873
3	0xbc252e72	-0.010081874
4	0x3ce0f465	0.027460286
5	0xbd760b0b	-0.060069125
6	0x3c584607	0.01320029
7	0xbd6779df	-0.05651271
8	0xbac29dfd	-0.001484811
9	0xbd4b646d	-0.04965632
10	0xbacd3b49	-0.0015657927
11	0xbd8a41f3	-0.0675086
12	0x393a3de8	0.00017761404
13	0xbcba81b0	-0.022766918
14	0xbc11d095	-0.0088998275
15	0x3cc2ee45	0.023795256
16	0xbdb1df1a	-0.08685131
17	0xbc05b7d2	-0.008161502
18	0xbc1e99c2	-0.009680213
19	0x3cec7694	0.028865136
20	0x3cf1a51a	0.029497672
21	0xbc860b58	-0.016362831
22	0xbc58158c	-0.013188731
23	0x3cdeb9ee	0.027188268
24	0x3d3712cf	0.04469567
25	0x3bce3aca	0.0062936293
26	0x3c93060d	0.017947221
27	0xbb95bd0c	-0.0045696553
28	0x3d315209	0.043291125
29	0x3ccec9c2	0.02524269
30	0xbcaaaec2	-0.020835284
31	0xbc2c2a6d	-0.010508162
32	0xbdd5d413	-0.104408406
33	0x3cc5081a	0.024051715
34	0xbbdb7c80	-0.006698191
35	0x3bd2f911	0.0064383824
36	0x3b1b5a8d	0.0023705096
37	0xbbb07c1f	-0.00538589
38	0x3d2ede9e	0.042692773
39	0x3d59251b	0.053013902
40	0xbd7772d5	-0.060412247
41	0xbb7d96ad	-0.0038694546
42	0xbd2b1446	-0.04176738
43	0xbadc6f9f	-0.0016817934
44	0x3d212979	0.039346192
45	0xbd1d46b3	-0.038397502
46	0xbc891918	-0.016735598
47	0xbbe90dfe	-0.0071122637
48	0x3a9e7884	0.001209036
49	0x3bc04953	0.005868116
50	0xbc53ff4c	-0.0129392855
51	0xbdb27e42	-0.08715488
52	0x3c04f253	0.008114415
53	0x3c847e6f	0.01617357
54	0xba5c1157	-0.0008394918
55	0xbd06cb28	-0.03290859
56	0xbda27526	-0.079325005
57	0x387b13d8	5.9861544e-05
58	0x3be032ec	0.006842008
59	0xbbb0af70	-0.0053920075
60	0x3d2f17fc	0.042747483
61	0xbcd37090	-0.02581051
62	0xbc1d54f8	-0.009602778
63	0x3cb0fe78	0.021605715
64	0xbdb492cc	-0.08817062
65	0x3dd91877	0.106003694
66	0x3b88ffc2	0.0041808793
67	0xbc9b3364	-0.018945403
68	0xbd93b9bc	-0.072131604
69	0x3d7cd0fe	0.061722748
70	0xbc3aae44	-0.011394087
71	0x3bf0a441	0.0073437993
72	0x3d4a8e05	0.049451847
73	0x3d32f3c7	0.043689515
74	0x3b98edf2	0.004667037
75	0x3a565695	0.0008176354
76	0x3dd27342	0.1027589
77	0x3d8d1517	0.06888788
78	0xbcebee4c	-0.028800152
79	0x3c87f89a	0.016598035
80	0xbd598a58	-0.05311045
81	0x3d0e67c9	0.034766946
82	0x3d969e7c	0.07354447
83	0xbe2bd3b6	-0.1677998
84	0xbd405b61	-0.046962146
85	0x3c0625d4	0.00818773
86	0xbcc12abb	-0.023579946
87	0xbd645435	-0.05574437
88	0x3cf5f8c5	0.03002585
89	0x3d7fe05b	0.06246982
90	0xbc09188c	-0.008367669
91	0x3b64f3eb	0.0034935426
92	0x3d0b0b2d	0.033946205
93	0x3c5d1af4	0.013495196
94	0x3cd1327d	0.02553677
95	0xbc13b6ba	-0.009015733
96	0x3d2503ec	0.040286943
97	0xbc590408	-0.01324559
98	0x3c70e2e9	0.014702537
99	0x3b0d4e8b	0.0021561708
100	0xba78f8c6	-0.00094975193
101	0xbc4d7b20	-0.012541562
102	0xbb56d122	-0.0032778461
103	0x3c3f5c7a	0.011679763
104	0x3dcf23cf	0.10114252
105	0x3c2564a0	0.010094792
106	0xbcff2d5c	-0.031149559
107	0x3c46c028	0.012130775
108	0xbb1d99f1	-0.0024048055
109	0xbcd3e515	-0.02586607
110	0x3d94792e	0.07249676
111	0xbc0d99dc	-0.00864264
112	0xbc617244	-0.013760153
113	0x3c66f2cf	0.014095976
114	0x3d75b340	0.0599854
115	0xbd2a399a	-0.04155884
116	0xbb5fac8e	-0.003412995
117	0xbbd4a77b	-0.006489692
118	0xbd68a2d3	-0.056795906
119	0x3c8bb20c	0.017052673
120	0x3dae5eb2	0.085141554
121	0x3c94ec91	0.01817921
122	0xbb1e05a3	-0.0024112246
123	0xbc6ba773	-0.014383185
124	0x3d3a41d1	0.045472924
125	0xbd7aa0fb	-0.06118868
126	0x3a1156bd	0.0005544236
127	0x3d6fba8d	0.058527518
128	0x3cce3ebd	0.0251764
129	0xbe1de101	-0.15417863
130	0x3b40cb6d	0.0029418126
131	0x3d042013	0.03225715
132	0xbcce598a	-0.02518918
133	0xbb46ef07	-0.0030354874
134	0xbc59075d	-0.013246384
135	0x3c9c258d	0.019060874
136	0x3ab3e5f6	0.001372515
137	0xbc89f9e7	-0.016842796
138	0xbb23ccc9	-0.0024993888
139	0xbd82b02e	-0.0638126
140	0x3d8f9a91	0.07011903
141	0xbd04d1fe	-0.032426827
142	0x3ba6be1c	0.005088581
143	0xbc60dea2	-0.013724955
144	0x3deddc06	0.11614232
145	0x3a90c5f4	0.0011045323
146	0xbdfc6d85	-0.12325577
147	0xbd4acf55	-0.049514133
148	0xbbe4a054	-0.0069771204
149	0xbc527118	-0.012844346
150	0xbb8a3d16	-0.004218708
151	0xbc2971df	-0.01034209
152	0xbd50a49f	-0.050938245
153	0x3cf80de6	0.030280065
154	0x3c3904c7	0.011292643
155	0xbca5c5de	-0.020235952
156	0x3e3ee1af	0.18640779
157	0x3bb0c77a	0.005394873
158	0xbaf14c61	-0.0018409604
159	0x3b1d9c19	0.002404934
160	0xbd9c5cbc	-0.07634875
161	0x3c2e1813	0.010625857
162	0xbd3abc87	-0.04558995
163	0xbc933302	-0.017968658
164	0xbb53f860	-0.0032344088
165	0xbd06ab9c	-0.032878503
166	0x3d06dab3	0.03292341
167	0x3b449565	0.0029996273
168	0x3d48ed1e	0.049054258
169	0x3c1dde85	0.009635572
170	0xbd7b1e72	-0.06130833
171	0x3bc53fbd	0.006019561
172	0x3c6ed442	0.014576973
173	0xbca7d9f4	-0.02048967
174	0xbcc9c83a	-0.024631608
175	0x3bf64458	0.0075154714
176	0xbd820eaa	-0.06350453
177	0xbbb919fb	-0.005648849
178	0x3ce05b12	0.027387176
179	0x3da73d97	0.08166044
180	0x3ca55a71	0.020184727
181	0x3c96258e	0.018328454
182	0x3d731c9b	0.059353452
183	0x3cf42f3e	0.029807683
184	0xbc7c4e88	-0.015399583
185	0xbaddb25b	-0.0016914116
186	0xbb79ff1f	-0.0038146449
187	0xbbb12006	-0.005405429
188	0x3b36e70d	0.0027908713
189	0xbcedc2f6	-0.029023629
190	0x3b7daa80	0.0038706362
191	0xbcfaddb8	-0.030623302
192	0xbf096e3b	-0.53683823
193	0xbcdcbb20	-0.026944697
194	0x3f036496	0.51325357
195	0xbed73c3f	-0.42038152
196	0x3c409274	0.011753667
197	0xbe77e585	-0.24208649
198	0x3cbf938f	0.023385791
199	0xbdbd62d4	-0.092473656
200	0xbe74e122	-0.23914006
201	0x3d176004	0.036956802
202	0xbe4f986c	-0.20272988
203	0x3e232cec	0.15935105
204	0x3d344c77	0.044018235
205	0xbecc2d5d	-0.3987836
206	0x3dc1f86a	0.09471209
207	0x3ecb47d6	0.39703244
208	0x3ddb0df0	0.10696018
209	0x3eecab4a	0.46224433
210	0x3f0070d5	0.5017217
211	0x3e71a738	0.23598945
212	0xbf06243c	-0.5239904
213	0xbe3053fd	-0.17219539
214	0xbc854b1e	-0.01627117
215	0xbefbd7f2	-0.4918819
216	0xbef6a474	-0.48172343
217	0x3ea3213a	0.31861287
218	0x3d793633	0.060842704
219	0x3e46de1e	0.19420668
220	0x3ed17a1a	0.4091347
221	0xbeb93f89	-0.36181286
222	0x3d11e570	0.0356192
223	0x3d3aa890	0.04557091
224	0x3d452f0b	0.048140567
225	0xbe0c78ba	-0.13717929
226	0x3e85d5c1	0.26139644
227	0xbe94a6ee	-0.29033607
228	0xbe6efbc7	-0.23338233
229	0xbc89e217	-0.01683144
230	0xbe5bb462	-0.2145553
231	0x3e2a1ce2	0.1661258
232	0xbeb4dfab	-0.35326895
233	0xbe3c0bda	-0.18363896
234	0xbd81d8cf	-0.06340181
235	0x3e306edd	0.17229791
236	0x3f02401c	0.50879073
237	0x3f20f887	0.6287922
238	0xbe387a6a	-0.18015447
239	0xbdff4473	-0.124642275
240	0xbce3b280	-0.027795076
241	0x3de3fdb6	0.11132376
242	0xbdbedb95	-0.09319226
243	0x3cb15194	0.021645345
244	0xbdc34d83	-0.095362686
245	0x3e1e755a	0.15474454
246	0xbef3c40d	-0.47610512
247	0x3eaadf32	0.3337341
248	0xb9d0588f	-0.00039738833
249	0xbd940f82	-0.072295204
250	0x3f0ba411	0.5454722
251	0x3dba96c2	0.09110786
252	0x3db2f5d5	0.08738295
253	0x3dc091a2	0.09402777
254	0xbeb52899	-0.35382536
255	0xbd9bc698	-0.07606238

architecture.4.bias f4 [9]
0	0xbdae59c7	-0.085132174
1	0x3d409702	0.047019012
2	0xbcf0c914	-0.029392757
3	0x3f2c0db4	0.6720841
4	0x3d879957	0.06621044
5	0xbd8810dd	-0.066438414
6	0xbca89e26	-0.020583224
7	0x3f18ad34	0.59639287
8	0xbe0082f2	-0.12549952

std f4 [9]
0	0x3e4ccccd	0.2
1	0x3e4ccccd	0.2
2	0x3e4ccccd	0.2
3	0x3e4ccccd	0.2
4	0x3e4ccccd	0.2
5	0x3e4ccccd	0.2
6	0x3e4e803b	0.20166104
7	0x3e4ccccd	0.2
8	0x3e4ccccd	0.2

architecture.0.weight f4 [64, 27]
0	0xbc8e11a1	-0.01734239
1	0xbcd5bc11	-0.026090654
2	0xbc9da9ac	-0.019245945
3	0x3e52b9a3	0.20578627
4	0x3f03bf9d	0.51464254
5	0xbee44843	-0.4458638
6	0xbee7ed9f	-0.45298478
7	0xbf0e6d82	-0.55635846
8	0xbf864402	-1.0489504
9	0x3df71fd6	0.12066619
10	0x3e0a9f44	0.13537318
11	0x3c49d971	0.0123199085
12	0x3c12a368	0.008950092
13	0x3d9db7a8	0.07701045
14	0x3d983caf	0.074334495
15	0x3d8abdff	0.0677452
16	0xbd83102a	-0.063995674
17	0xbecfe462	-0.4060393
18	0xbdef5943	-0.11686947
19	0xbf0292ac	-0.51005054
20	0x3ee2a7a7	0.44268534
21	0x3edc37b9	0.43011263
22	0x3f13b01c	0.57690597
23	0x3f8a49df	1.0803794
24	0xbe03a196	-0.12854609
25	0xbdce61b9	-0.10077233
26	0x3d11f076	0.035629712
27	0x3c2e8f96	0.010654351
28	0x3b8d9621	0.0043208753
29	0x3d2b28ef	0.041787084
30	0xbce21b86	-0.027601015
31	0x3d0aa0dd	0.033844817
32	0x3d85d502	0.06534769
33	0xbd49e9c6	-0.04929521
34	0xbecbd450	-0.3981042
35	0x3e2e2400	0.1700592
36	0x3d591919	0.05300245
37	0xbe5fdbf1	-0.21861245
38	0xbd4749a7	-0.048654225
39	0x3dd6cf30	0.10488737
40	0x3dec6b69	0.11543924
41	0xbdeda651	-0.11603988
42	0x3d9022cd	0.07037888
43	0xbe0413d7	-0.12898193
44	0x3ca86482	0.020555738
45	0xbe9a4be2	-0.3013602
46	0x3e1b5637	0.15169607
47	0x3da787e6	0.081802174
48	0xbdb971ff	-0.09054946
49	0x3f006a0f	0.5016183
50	0x3d5b68d8	0.053566784
51	0x3d8bd9c0	0.06828642
52	0xbd82566b	-0.06364139
53	0xbe1b8461	-0.15187217
54	0xbddee374	-0.10883227
55	0xbd99b829	-0.07505829
56	0xbc096016	-0.008384725
57	0x3e346a47	0.17618667
58	0xbec409d3	-0.38288745
59	0x3eddd3e7	0.4332573
60	0x3ea2fde9	0.31834343
61	0x3eee5d45	0.46555534
62	0xbe85bb88	-0.26119637
63	0x3ddb61ef	0.10712039
64	0xbdec995c	-0.115526885
65	0x3dfc7b7a	0.12328239
66	0xbda499c9	-0.08037145
67	0xbddb1c79	-0.1069879
68	0xbda9a6ce	-0.082837686
69	0x3e9620c7	0.29321882
70	0x3d3249b0	0.043527305
71	0xbb370d9c	-0.0027931696
72	0xbe1baef6	-0.15203461
73	0x3e89781b	0.26849446
74	0xbf032cfe	-0.5124053
75	0xbe88564b	-0.26628336
76	0xbf1069df	-0.56411546
77	0x3eb6aa20	0.3567667
78	0x3c33e999	0.010980987
79	0x3d9afc7d	0.075676896
80	0xbdcff642	-0.10154392
81	0x3c3e4dfd	0.011615274
82	0xbdb91919	-0.0903799
83	0x3e9810ed	0.29700413
84	0xbebff92b	-0.37494788
85	0x3e350540	0.17677784
86	0x3e389a78	0.18027675
87	0x3dfb325f	0.12265467
88	0xbe4c3691	-0.1994269
89	0x3e5b22c7	0.21399985
90	0xbec06c7c	-0.37582767
91	0x3ec8c472	0.39212376
92	0x3e8cdf92	0.2751432
93	0xbcf3a6c7	-0.029742612
94	0xbd46b4a7	-0.048512127
95	0xbcc167d5	-0.023609081
96	0x3b3f0920	0.0029149726
97	0xbcbfbd47	-0.023405684
98	0xbc37114b	-0.011173557
99	0x3ec00207	0.37501547
100	0xbe2fccfb	-0.17168038
101	0xbe033848	-0.12814438
102	0xbe008870	-0.12552047
103	0x3e34a16c	0.17639703
104	0xbe0cc1a2	-0.1374574
105	0x3ebe695f	0.37189767
106	0xbebbe3d0	-0.36697245
107	0xbe8d9bb8	-0.27657866
108	0x3c34ad3a	0.011027629
109	0x3d205783	0.039145958
110	0xbd64f35d	-0.05589615
111	0xbd3b872b	-0.045783203
112	0x3e2ad69d	0.16683431
113	0xbe6251f3	-0.22101574
114	0xbe7e9d21	-0.24864627
115	0x3e09b9a5	0.13449724
116	0x3c8c74d6	0.017145555
117	0x3e259bcd	0.16172715
118	0xbdbbb8b3	-0.09166088
119	0xbd765b16	-0.06014546
120	0xbc2c8768	-0.01053033
121	0x3ddca5cf	0.10773813
122	0xbe5972f9	-0.21235265
123	0xbc5ce65f	-0.013482659
124	0xbcbe65c4	-0.023241885
125	0x3d7b1e24	0.06130804
126	0xbdb81d1e	-0.08989929
127	0xbe3375af	-0.17525361
128	0x3d8f3471	0.06992424
129	0x3dd54c92	0.10414995
130	0xbe0aa36b	-0.13538902
131	0x3d8059ba	0.06267114
132	0x3e5397e1	0.20663406
133	0x3d4a7a8d	0.04943328
134	0xbe13020a	-0.14356247
135	0xbc827aa9	-0.01592763
136	0xbce96acd	-0.02849331
137	0xbcb5fbbe	-0.022214767
138	0x3d716c12	0.058940955
139	0xbd0569b6	-0.032571517
140	0xbc562484	-0.013070229
141	0x3bdd9cb2	0.0067630643
142	0x3d995a07	0.074878745
143	0xbd423e12	-0.047422476
144	0x3d3e0693	0.04639299
145	0x3d0d738f	0.034534033
146	0x3bc4297c	0.0059863906
147	0x3e596814	0.21231109
148	0x3ed1cce9	0.40976647
149	0x3f4f411a	0.8095871
150	0x3dffb09d	0.12484858
151	0xbd4a9203	-0.049455654
152	0xbd0e0aa8	-0.03467813
153	0xbd484624	-0.048895016
154	0xbb18d680	-0.0023321211
155	0x3d0979ef	0.03356355
156	0x3a915b4c	0.0011089831
157	0xbd8a1e96	-0.06744115
158	0x3d2f2d1f	0.04276764
159	0xbbd3df1c	-0.0064658057
160	0xbd0e3e07	-0.034727123
161	0xbc511c89	-0.012763151
162	0xbbbcabff	-0.005757808
163	0x3b8c76ef	0.004286639
164	0x3d1c7853	0.038200688
165	0xbdeec951	-0.11659492
166	0x3dd640ec	0.104616016
167	0xbc8afef3	-0.016967272
168	0xbddb6b61	-0.1071384
169	0xbd711896	-0.058861338
170	0x3d0e5512	0.034749098
171	0x3c79704c	0.015224528
172	0xbcdee4ce	-0.027208712
173	0xbdeff7d2	-0.1171719
174	0xbdc6a05e	-0.09698556
175	0xbe0de18d	-0.13855572
176	0x3c218e6a	0.009860614
177	0x3bab4efa	0.0052279206
178	0x3b893437	0.0041871327
179	0x3d0a579d	0.03377496
180	0x3e0ab8be	0.13547036
181	0x3c1fd740	0.009755909
182	0x3dda97bc	0.10673472
183	0x3cf57de4	0.029967256
184	0x3dbd9fdd	0.09259007
185	0x3df712fa	0.12064166
186	0xbdcd8f1e	-0.10037063
187	0x3cc16127	0.023605896
188	0x3df87eb9	0.121335454
189	0xbcf1fcbb	-0.029539457
190	0x3d242a78	0.040079564
191	0xbc07088d	-0.008241785
192	0x3dba2a18	0.0909006
193	0xbe1ceb08	-0.15324032
194	0x3e3a4a0e	0.18192312
195	0xbcf5f5e0	-0.030024469
196	0x3e7ab368	0.244825
197	0xbc6a97b5	-0.014318396
198	0x3ddb84f4	0.10718718
199	0x3b1b38aa	0.0023684897
200	0xbc73672b	-0.01485614
201	0x3eb12606	0.34599322
202	0xbf0a1d55	-0.5395101
203	0x3e464747	0.19363128
204	0x3d0d5908	0.034508735
205	0xbda05dec	-0.07830414
206	0x3bab3d55	0.005225817
207	0xbd9ad779	-0.075606294
208	0x3cb73ac7	0.022366894
209	0xbd3b2048	-0.045685083
210	0xbcbb8a00	-0.022892952
211	0xbcf4b684	-0.029872186
212	0xbda5d956	-0.08098094
213	0xbdec246e	-0.11530386
214	0xbd496ca0	-0.04917586
215	0x3cabf14a	0.020989079
216	0xbd137ffc	-0.036010727
217	0xbd9969c9	-0.0749088
218	0xbe053b6f	-0.13010953
219	0xbd8b0ef9	-0.06789965
220	0x3e83f4a4	0.25772583
221	0xbeb0c5b4	-0.34525836
222	0xbcfb41cf	-0.030671028
223	0x3dee27bb	0.11628672
224	0x3e4adb2d	0.19810171
225	0xbe4800f7	-0.19531618
226	0x3d94ee56	0.072720215
227	0xbe1308a4	-0.14358765
228	0xbd1f9731	-0.038962547
229	0xbd9400fc	-0.0722675
230	0xbea42e5b	-0.32066616
231	0x3df6e31f	0.12055039
232	0x3e3e1534	0.18562776
233	0x3d884833	0.06654396
234	0xbdcdac3b	-0.10042616
235	0xbe41310e	-0.18866369
236	0x3e9529ed	0.2913355
237	0x3dffc780	0.124892235
238	0xbc9b2284	-0.018937357
239	0xbb98e693	-0.0046661585
240	0x3d6d40ca	0.057923116
241	0xbd951ff2	-0.07281484
242	0xbe5425a6	-0.20717487
243	0x3e914f9e	0.28381056
244	0xbdbd586b	-0.0924538
245	0xbd460fda	-0.04835496
246	0xbc0e1318	-0.0086715445
247	0x3ea474a9	0.32120255
248	0xbda2c3b9	-0.079474874
249	0x3de10ab6	0.10988371
250	0xbe779d45	-0.24181087
251	0x3eaf247a	0.34207517
252	0x3e59a391	0.21253802
253	0xbe9e55c5	-0.30924812
254	0x3eecb619	0.4623268
255	0x3cd51d76	0.026015025

architecture.0.bias f4 [64]
0	0xbca2e9ea	-0.01988693
1	0xbf6d3b0e	-0.92668235
2	0x3e591e10	0.21202874
3	0x3fa69bdc	1.3016315
4	0x3f4ffd7b	0.81246156
5	0xbf7a8ace	-0.9786805
6	0xbfb0636b	-1.378034
7	0x3f6283a0	0.88482094
8	0x3e93b8e5	0.28852
9	0x3fb4e3c8	1.4132013
10	0xbf2fe0d1	-0.6870242
11	0x3f0eb206	0.5574039
12	0x3f9bb7b3	1.2165436
13	0x3f0e1d4b	0.5551345
14	0xbf9c021a	-1.2188141
15	0x3f3a416a	0.72756064
16	0x3ed5a9c0	0.4173107
17	0x3f159062	0.58423436
18	0xbf867a2b	-1.0506033
19	0xbf95f15a	-1.171428
20	0xbf96f073	-1.1792129
21	0xbfb71dd4	-1.4305978
22	0xbf9b4b1b	-1.2132295
23	0x3dc22358	0.094793975
24	0xbf357026	-0.7087425
25	0x3ec502d4	0.3847872
26	0xbf9d8e2a	-1.230901
27	0xbf2c99b4	-0.6742203
28	0xbf20518f	-0.6262445
29	0xbf88302e	-1.0639703
30	0xbf62f52b	-0.88655347
31	0xbf391244	-0.72293496
32	0xbfaffd0c	-1.3749099
33	0x3e5dac62	0.2164779
34	0xbeb133e3	-0.346099
35	0x3f6038f2	0.8758689
36	0x3f69ba62	0.9130002
37	0xbecf10ca	-0.40442497
38	0xbfa448bb	-1.2834696
39	0xbde97038	-0.11398357
40	0x3daae755	0.08344904
41	0x3f944611	1.1583883
42	0xbf5d7228	-0.86502314
43	0x3f0d83b7	0.55279106
44	0xbe89c95a	-0.26911432
45	0xbf946afc	-1.1595149
46	0x3f5bbc5d	0.85834295
47	0x3f60e625	0.8785117
48	0xbd888c46	-0.0666738
49	0x3f4b834a	0.79497206
50	0xbf8a1bab	-1.0789694
51	0x3f5d0f07	0.86351055
52	0xbfb1accc	-1.3880858
53	0x3fb35277	1.4009541
54	0x3e89de4d	0.26927415
55	0xbfa07a71	-1.2537366
56	0xbf744d48	-0.9543042
57	0x3f93a5fc	1.153503
58	0x3d269cb3	0.040676784
59	0xbf8347b0	-1.0256252
60	0x3e83c8b6	0.25739068
61	0xbdadc8bd	-0.084855534
62	0xbed35b77	-0.4128072
63	0xbdfbe403	-0.12299349

architecture.2.weight f4 [64, 64]
0	0xbf014c43	-0.5050699
1	0xbf055c2e	-0.5209378
2	0x3e46d56a	0.19417349
3	0xbf170b3e	-0.5900153
4	0x3ef0c153	0.47022495
5	0x3ce37356	0.027764957
6	0x3e9a87d9	0.3018177
7	0x3d338079	0.043823693
8	0x3eaba45e	0.3352384
9	0xbf357091	-0.7087489
10	0xbe996770	-0.2996173
11	0x3dd75e4f	0.10516035
12	0xbe5e49d7	-0.21707855
13	0x3d1c4b4e	0.038157754
14	0x3ec18093	0.37793407
15	0x3e487012	0.19574001
16	0x3dad7514	0.084695965
17	0xbf00b6e3	-0.50279063
18	0x3eefd74f	0.46843955
19	0xbe072733	-0.13198547
20	0x3e15f8dd	0.14645715
21	0xbef8c45d	-0.48587313
22	0x3ed92d14	0.42417204
23	0xbde6d153	-0.11270394
24	0xbe185132	-0.14874724
25	0x3d1c5fdc	0.038177356
26	0x3f22b70a	0.63560545
27	0xbe126eb9	-0.1430005
28	0x3d6f0b93	0.058360647
29	0x3ecaa528	0.3957913
30	0x3e26af36	0.16277775
31	0x3dab06b2	0.083508864
32	0x3f43cb76	0.7648233
33	0x3e9b69ab	0.30354056
34	0xbd5cbc04	-0.053890243
35	0x3e182e09	0.14861311
36	0x3d9179cf	0.07103311
37	0xbdbb50d9	-0.0914628
38	0x3e8dd6fe	0.2770309
39	0xbd9fb715	-0.07798592
40	0x3ea80959	0.32819632
41	0x3e0ccba0	0.13749552
42	0x3dd51967	0.10405236
43	0x3f6bdc87	0.92133373
44	0xbd9ed06b	-0.07754596
45	0x3efeda21	0.49775794
46	0x3f1a8036	0.60351884
47	0x3e39418c	0.1809141
48	0x3dc42a43	0.09578373
49	0x3e408f6c	0.18804711
50	0x3b24e6be	0.0025161947
51	0x3db19d8b	0.08672627
52	0xbe2fd02b	-0.17169254
53	0x3e351923	0.1768537
54	0x3e2b27f7	0.16714464
55	0x3f06af37	0.52611107
56	0xbb18e31f	-0.0023328734
57	0xbe966f65	-0.29381862
58	0xbf89c7f9	-1.0764152
59	0x3d5ac1d0	0.05340749
60	0x3e889163	0.2667342
61	0x3efe722a	0.49696475
62	0xbe8a91a2	-0.27064234
63	0x3d7d395b	0.061822277
64	0xbec0fafd	-0.3769149
65	0xbf35750d	-0.7088173
66	0x3ebf2b76	0.37337846
67	0x3f2e1f07	0.68016094
68	0x3f07e618	0.5308547
69	0xbf0875c3	-0.5330469
70	0xbf6b87db	-0.92004174
71	0x3eca6951	0.39533475
72	0x3ed0a82b	0.40753302
73	0x3ed22615	0.4104468
74	0xbf13ea80	-0.57779694
75	0x3ed21666	0.41032714
76	0x3e4573b0	0.19282413
77	0x3e495da2	0.19664624
78	0xbef9d743	-0.48797044
79	0x3e786d0c	0.24260348
80	0x3cce6093	0.025192535
81	0x3ead8dd2	0.33897263
82	0xbf012915	-0.5045331
83	0xbf80c0ed	-1.0058876
84	0xbf09510e	-0.53639305
85	0xbf868fa4	-1.0512586
86	0xbf0c5cc5	-0.54829055
87	0xbd5239fa	-0.051324822
88	0xbe8fad40	-0.28061867
89	0xbdca5376	-0.098792
90	0xbed425c7	-0.41435072
91	0x3e9c58db	0.3053654
92	0xbe99eb77	-0.30062458
93	0xbf2a4ba8	-0.6652169
94	0xbef79a25	-0.4835979
95	0xbf0e1b5d	-0.55510503
96	0xbf2fde2c	-0.6869838
97	0x3e81a199	0.25318602
98	0xbf0d677e	-0.5523604
99	0x3f0088e1	0.5020886
100	0x3e831848	0.25604463
101	0xbed6298a	-0.41828567
102	0xbe452a04	-0.19254309
103	0xbddaee9d	-0.10690043
104	0x3e34a42e	0.17640755
105	0x3efb6c02	0.4910584
106	0xbeb309c5	-0.3496839
107	0xb801b75c	-3.0926763e-05
108	0xbe512778	-0.20425212
109	0x3d27d04f	0.040970143
110	0xbe1a3d33	-0.15062408
111	0x3e9f8fbe	0.31164354
112	0xbe6024ca	-0.21889034
113	0x3e1f38f4	0.1554907
114	0xbef38d03	-0.4756852
115	0xbca1c555	-0.019747416
116	0xbf16da8b	-0.5892722
117	0x3f3cc727	0.7374138
118	0x3b8163b9	0.0039486554
119	0xbf27a9f1	-0.65493685
120	0xbeac72cd	-0.33681336
121	0x3f538a9d	0.8263338
122	0xbe991285	-0.29896942
123	0xbefe8eb1	-0.4971824
124	0xbe19cfdd	-0.150207
125	0xbe8cff8e	-0.27538723
126	0x3dbe60bf	0.092957966
127	0xbcca4c8b	-0.024694702
128	0x3f070f30	0.5275755
129	0x3f2b9b0b	0.6703345
130	0xbee97a19	-0.45600966
131	0xbf7a02ad	-0.9766033
132	0xbeaa171c	-0.33220756
133	0x3f1c1581	0.6097031
134	0x3f2458e1	0.6419812
135	0xbf1b82d8	-0.60746527
136	0xbeddbfae	-0.43310302
137	0xbf2b1bf7	-0.66839546
138	0x3eb9c1d4	0.36280692
139	0xbea2ee07	-0.31822225
140	0xbe4323fd	-0.19056697
141	0xbec8326e	-0.39100975
142	0x3f01ec4c	0.50751185
143	0xbf0b9dad	-0.5453747
144	0xbe5861ed	-0.21131106
145	0xbe683cb8	-0.22679412
146	0x3f5149da	0.81753314
147	0x3f3e9370	0.7444372
148	0x3e5c8d54	0.21538287
149	0x3f665805	0.8997806
150	0x3e7bfe0e	0.24608633
151	0xbde9908d	-0.11404524
152	0x3e9f23e5	0.31082073
153	0xbd59436c	-0.053042814
154	0x3ecbc77c	0.39800632
155	0xbe172fae	-0.14764282
156	0x3deab818	0.11460894
157	0x3f1123e4	0.5669539
158	0x3f3adecc	0.7299621
159	0x3f0e287f	0.5553054
160	0x3f563738	0.8367801
161	0xbcbbfe54	-0.022948422
162	0x3f0bcad4	0.54606366
163	0xbeb85579	-0.3600271
164	0xbe9bfeaa	-0.3046773
165	0x3f246512	0.6421672
166	0xbdeb3e64	-0.114865094
167	0x3e9c39bb	0.30512795
168	0x3dbe81a0	0.09302068
169	0xbf58f1ae	-0.84743774
170	0x3ee17e22	0.44041544
171	0xbd10dc4d	-0.035366345
172	0xbe26ef36	-0.16302189
173	0xbde5d5fa	-0.112224534
174	0xbd0232c6	-0.031786703
175	0xbf017332	-0.505664
176	0x3d04a616	0.032384954
177	0xbe052ba4	-0.13004929
178	0x3c830758	0.015994713
179	0xbec1df07	-0.3786547
180	0x3f15451a	0.58308566
181	0xbf35ee65	-0.71066886
182	0xbe082105	-0.13293846
183	0x3ded278e	0.1157981
184	0x3f29d39a	0.66338503
185	0xbfb61f3d	-1.4228283
186	0x3eddd35f	0.43325326
187	0x3f498594	0.7871945
188	0x3e806c7a	0.2508276
189	0x3ee42972	0.4456287
190	0xbdcecc5a	-0.10097571
191	0x3c81d46b	0.01584836
192	0xbe08e024	-0.13366753
193	0xbe98f524	-0.29874527
194	0xbec87d1c	-0.3915795
195	0x3f631657	0.8870596
196	0x3d59b016	0.053146444
197	0xbdce441c	-0.100715846
198	0x3e8b78ac	0.27240503
199	0x3e209bde	0.15684459
200	0x3ea2b4d6	0.31778592
201	0x3f1d1467	0.61359257
202	0xbddb163f	-0.106976025
203	0x3e0475d1	0.12935568
204	0x3e8781f7	0.26466343
205	0xbec9382a	-0.39300662
206	0xbefb4d01	-0.49082187
207	0x3d615332	0.05501098
208	0x3ed3f8cd	0.41400757
209	0xbf467d36	-0.77534807
210	0xbf0e81f2	-0.5566703
211	0x3f3c0c45	0.7345622
212	0x3ebd21b3	0.36939773
213	0x3e87b2ee	0.265037
214	0xbeeca619	-0.46220472
215	0xbc9998f2	-0.018749688
216	0x3eed3a82	0.463337
217	0xbe20d393	-0.15705709
218	0xbf56629e	-0.8374423
219	0x3df6e85e	0.12056039
220	0x3b9f3dd7	0.004859667
221	0x3eea2e28	0.4573834
222	0xbe078b13	-0.13236646
223	0x3e9c79fe	0.30561823
224	0xbf473009	-0.7780767
225	0xbe056d4e	-0.13029978
226	0x3ede52bb	0.43422493
227	0x3d65fda9	0.056150112
228	0x3be559b7	0.0069992202
229	0x3e61f5c3	0.22066407
230	0x3d635c88	0.055508167
231	0x3ed98f3f	0.424921
232	0x3e1a5ac3	0.15073685
233	0x3f28ee71	0.6598883
234	0xbcc3d273	-0.023904061
235	0x3ea4ab08	0.32161736
236	0x3f29aa1d	0.662752
237	0xbf21bcff	-0.6317901
238	0x3e80c6db	0.25151715
239	0xbdbe13b7	-0.09281104
240	0xbe221362	-0.15827706
241	0xbe9eb848	-0.3099997
242	0xbe438e46	-0.19097242
243	0xbdc1f0b4	-0.094697386
244	0x3efb66ac	0.4910177
245	0xbf067785	-0.5252612
246	0x3e955aa5	0.2917072
247	0xbf0a2a13	-0.5397045
248	0x3e7f29e6	0.24918327
249	0x3dd2dd84	0.10296157
250	0xbe9a5ed0	-0.3015046
251	0xbce5ba09	-0.02804281
252	0x3ea59a94	0.32344496
253	0x3e243026	0.16033992
254	0xbe8a29d8	-0.2698505
255	0xbe68fc91	-0.22752596

architecture.2.bias f4 [64]
0	0x3ebb8bbc	0.36630046
1	0x3f863c8d	1.0487229
2	0xbfa29007	-1.2700204
3	0xbeb5434f	-0.35402915
4	0x3e1a19b5	0.15048869
5	0xbf95ce06	-1.1703498
6	0x3f8ed69f	1.1159247
7	0xbf7ae66a	-0.98007834
8	0xbfa65ca9	-1.2997028
9	0x3f36993c	0.7132757
10	0x3f2260c2	0.6342889
11	0xbfa44ab4	-1.2835298
12	0xbf884800	-1.0646973
13	0x3ed5395d	0.41645327
14	0x3e01c2a1	0.12671901
15	0x3f1cae97	0.612039
16	0x3f9ff8a5	1.2497755
17	0x3f04d02e	0.51880157
18	0xbefef05b	-0.49792752
19	0x3f9d347e	1.2281644
20	0x3ead669c	0.33867347
21	0xbf59d936	-0.8509706
22	0x3eda5191	0.42640355
23	0x3fa4bbdd	1.2869831
24	0xbef52e59	-0.47886923
25	0x3f0f75ea	0.560393
26	0x3facc538	1.3497686
27	0xbe603214	-0.21894103
28	0xbf54254b	-0.82869405
29	0xbeb8210f	-0.35962722
30	0xbf9f45f3	-1.2443222
31	0xbe221ad8	-0.15830553
32	0xbfa2d104	-1.2720037
33	0x3eb90bf3	0.3614193
34	0x3f116046	0.56787527
35	0xbf9cf615	-1.2262598
36	0xbfa206f2	-1.265837
37	0x3fb961cc	1.448297
38	0xbf136dd6	-0.5758947
39	0xbf3140c8	-0.69239473
40	0xbee0bd30	-0.4389434
41	0xbfa38072	-1.2773573
42	0xbf55bc82	-0.83490765
43	0x3f1801cd	0.5937775
44	0xbf9bf898	-1.218524
45	0x3f11c5a2	0.5694219
46	0xbeb367a8	-0.3504002
47	0x3f4f92ce	0.8108338
48	0xbee4b1cb	-0.44666895
49	0x3f980ca0	1.1878853
50	0x3fb7a5eb	1.4347509
51	0xbedd5152	-0.43226105
52	0xbfa1727b	-1.2613062
53	0xbf6b8ef0	-0.9201498
54	0xbf56b0ca	-0.8386351
55	0x3e8aa381	0.2707787
56	0x3ed3636b	0.41286787
57	0x3f09854a	0.5371901
58	0xbee8546b	-0.45376906
59	0x3f72ae73	0.9479744
60	0xbf4c8a44	-0.79898477
61	0x3f259a29	0.64688355
62	0xbf961620	-1.1725502
63	0x3f9e5807	1.2370614

architecture.4.weight f4 [1, 64]
0	0xc0ff23fa	-7.9731417
1	0xc0a6fde2	-5.2184916
2	0x40a61b7e	5.190856
3	0x40fd7116	7.9200544
4	0xc0e36995	-7.1066384
5	0x40a55cbc	5.16757
6	0xc0a46bce	-5.1381598
7	0x40a74b8b	5.2279716
8	0x40a794c4	5.23691
9	0xc0abe07e	-5.371154
10	0xc0a3617a	-5.105649
11	0x40a8b330	5.2718735
12	0x40a88de4	5.2673206
13	0xc0fc6efe	-7.888549
14	0xc0d4a248	-6.6448097
15	0xc0cef07a	-6.466855
16	0xc0ac1628	-5.3777046
17	0xc0f2b768	-7.5848885
18	0x40cff6b0	6.498863
19	0xc0ab82d2	-5.3597193
20	0xc0da2060	-6.816452
21	0x40ccec02	6.4038095
22	0xc0d4a2a4	-6.6448536
23	0xc0a72462	-5.2231913
24	0x40d3ea11	6.6223226
25	0xc104ce19	-8.300317
26	0xc0a452c0	-5.1351013
27	0x40eab2b0	7.3343124
28	0x40ac72ff	5.3890376
29	0x40d6281b	6.6923957
30	0x40a6331a	5.193738
31	0x40ff95d7	7.987041
32	0x40a495c8	5.143284
33	0xc0e425a7	-7.129596
34	0xc0f358d8	-7.604595
35	0x40a3d072	5.119195
36	0x40a5636c	5.1683865
37	0xc0a4dc12	-5.151864
38	0x40931877	4.5967364
39	0x40a7beeb	5.2420554
40	0x40d5ac4a	6.6772814
41	0x40a32a30	5.0989
42	0x4096a899	4.708081
43	0xc0a49636	-5.1433363
44	0x40a838f6	5.2569532
45	0xc0f4b40d	-7.646979
46	0x40c16e18	6.044689
47	0xc0ae8a37	-5.454372
48	0x40cdedc0	6.435272
49	0xc0a62100	-5.1915283
50	0xc0a3cb40	-5.118561
51	0x40f3b3de	7.6157064
52	0x40a39280	5.1116333
53	0x4096e172	4.71502
54	0x40a69c0c	5.2065487
55	0xc1036458	-8.211998
56	0xc0f8e16f	-7.7775187
57	0xc0aebed0	-5.4607925
58	0x40f007b1	7.500939
59	0xc0b0cc53	-5.524942
60	0x40a57d85	5.171572
61	0xc0a944f5	-5.2896676
62	0x40a220c2	5.0664988
63	0xc0a93816	-5.2880964

exp_avg f4 [64, 27]
0	0xb68f1140	-4.2637403e-06
1	0xb904f9e9	-0.000126816
2	0x37d3fdc7	2.5271334e-05
3	0xb8200d7c	-3.815953e-05
4	0x3896c323	7.1889044e-05
5	0x386e45b3	5.6808534e-05
6	0xb88521eb	-6.348252e-05
7	0xb62e1e8b	-2.5945799e-06
8	0xb7313840	-1.0563119e-05
9	0x370ea278	8.501687e-06
10	0x38d0f2d3	9.9634424e-05
11	0xb7accee2	-2.0600335e-05
12	0xb7c898e1	-2.3913048e-05
13	0xb889f8e8	-6.5790315e-05
14	0xb8f02c99	-0.00011452399
15	0xb7c19cc7	-2.3080398e-05
16	0x37f6fe7e	2.9443992e-05
17	0x381e1b39	3.769549e-05
18	0xb8106f43	-3.4435896e-05
19	0x38899bd1	6.561692e-05
20	0x38690d9a	5.5564196e-05
21	0xb86a3052	-5.583495e-05
22	0xb702619b	-7.771329e-06
23	0x35b9ec06	1.3852266e-06
24	0x37b0898d	2.1044887e-05
25	0x38c3e8de	9.3416995e-05
26	0xb7d55dec	-2.5435314e-05
27	0x38fe422f	0.000121239915
28	0x38e83ade	0.00011073587
29	0xb8b03f3d	-8.404113e-05
30	0x38f13a5f	0.00011502648
31	0xb927500a	-0.00015956178
32	0xb7fec802	-3.0372295e-05
33	0x392893bd	0.00016076765
34	0x39010d59	0.00012307371
35	0x38b33e18	8.546951e-05
36	0xb8bba012	-8.94667e-05
37	0xb6ee2aa3	-7.0979163e-06
38	0xb8c6e8fb	-9.484772e-05
39	0x38771645	5.891013e-05
40	0x393ca9b4	0.00017992296
41	0x38e86d2d	0.00011082958
42	0x368bccc1	4.1663593e-06
43	0xb8b85d57	-8.7911896e-05
44	0x3809df5b	3.287136e-05
45	0x38e035ab	0.00010691149
46	0xb928f0b5	-0.00016111399
47	0xb7e8f573	-2.7770851e-05
48	0x392a9234	0.00016266928
49	0x390266c6	0.00012436052
50	0x3893f2bd	7.05472e-05
51	0xb8cfcff1	-9.909261e-05
52	0x34a34fb7	3.0419116e-07
53	0xb8c1d97a	-9.243465e-05
54	0x38f74d92	0.000117923264
55	0x385e568f	5.300954e-05
56	0xb9d09ba3	-0.0003978881
57	0x39f04d3f	0.0004583392
58	0xb99ace0b	-0.00029526683
59	0xb924b85d	-0.0001570894
60	0x39c5c92d	0.00037724656
61	0x39d59808	0.00040739798
62	0xb92df000	-0.00016587973
63	0x37856dfb	1.590605e-05
64	0x399b3c13	0.00029608663
65	0xb93f09b2	-0.00018218791
66	0x39a12af7	0.00030740324
67	0x39f324b8	0.0004637593
68	0x3a06d164	0.0005142896
69	0x395c1caf	0.0002099152
70	0xb8984853	-7.261396e-05
71	0x39427919	0.00018546394
72	0x39e8e442	0.00044420554
73	0xb9943437	-0.00028267663
74	0xb90dad38	-0.00013511337
75	0x39c9519b	0.00038398508
76	0x39dcac7d	0.00042090184
77	0xb946180f	-0.00018891714
78	0xb73e388d	-1.1338049e-05
79	0x399f60ca	0.00030398957
80	0xb92c9f96	-0.00016462649
81	0x39142320	0.00014127465
82	0xb84d471c	-4.8942034e-05
83	0xb916dddc	-0.00014387764
84	0xb739b394	-1.1068671e-05
85	0x38ad15ed	8.253367e-05
86	0xb6a8e3e9	-5.0333224e-06
87	0xb8944f76	-7.071991e-05
88	0x37dd1f7f	2.635992e-05
89	0xb7eb7151	-2.806695e-05
90	0x385abed8	5.2152987e-05
91	0x3824d64f	3.9300237e-05
92	0x381a4d32	3.6788355e-05
93	0xb813f13a	-3.527219e-05
94	0x372cd1b4	1.0300824e-05
95	0xb7809787	-1.532935e-05
96	0xb763da8e	-1.3581141e-05
97	0x37bfe509	2.2875627e-05
98	0x3607a46e	2.0212278e-06
99	0xb7685782	-1.3848652e-05
100	0x388340f3	6.2586645e-05
101	0xb68438b3	-3.940507e-06
102	0xb86e35b9	-5.6793655e-05
103	0x37ba5680	2.2213208e-05
104	0xb7f731fa	-2.9467967e-05
105	0x3854c934	5.0732124e-05
106	0x38298f77	4.0426352e-05
107	0x37d146b7	2.494767e-05
108	0x375e49b7	1.3249394e-05
109	0xb7b190e9	-2.1167523e-05
110	0xb8380b03	-4.3879274e-05
111	0xb6deaed1	-6.636467e-06
112	0x37c36e15	2.3297072e-05
113	0x3613ae1c	2.2006052e-06
114	0xb860028c	-5.3408134e-05
115	0xb80a2cfe	-3.2943666e-05
116	0x38201c98	3.8173603e-05
117	0xb6b128ec	-5.279775e-06
118	0xb83dc6dc	-4.5246314e-05
119	0x3660e801	3.3513645e-06
120	0x380b5917	3.3223154e-05
121	0x37a9c03a	2.0235882e-05
122	0xb6ffdcd6	-7.625301e-06
123	0x3899d8c5	7.335985e-05
124	0xb77b4e86	-1.49790485e-05
125	0xb79e6e7d	-1.8886518e-05
126	0xb72f536b	-1.0450235e-05
127	0x37cc3492	2.4343175e-05
128	0x36e41c1d	6.7982023e-06
129	0xb8682591	-5.5348097e-05
130	0xb8098b90	-3.2793323e-05
131	0x3835bad1	4.332775e-05
132	0xb709e3d3	-8.218881e-06
133	0xb861b1fd	-5.3809945e-05
134	0x368e71a7	4.2451607e-06
135	0xb94118c8	-0.00018415146
136	0xb958591c	-0.00020632561
137	0x39aa5485	0.000324879
138	0xb988778c	-0.0002602901
139	0x3942eb7e	0.0001858901
140	0xb743e141	-1.1675352e-05
141	0xb902557d	-0.00012429613
142	0xb98adf11	-0.0002648761
143	0xb91088f2	-0.00013783926
144	0x38c1f068	9.247736e-05
145	0xb7fdce03	-3.0255882e-05
146	0x38f43769	0.000116451476
147	0xb8a0ddde	-7.6707205e-05
148	0xb908d10d	-0.00013047848
149	0xb9795cc7	-0.00023781053
150	0xb909795a	-0.00013110545
151	0x38b08605	8.417297e-05
152	0xb88f9288	-6.846065e-05
153	0xb975f3a3	-0.00023455783
154	0x394c7eb3	0.00019502155
155	0xb80f89a4	-3.4222045e-05
156	0xb918c6b8	-0.00014569878
157	0xb981ba31	-0.0002474352
158	0xb9039b83	-0.00012551066
159	0x390cfd9a	0.00013445914
160	0xb839552f	-4.418677e-05
161	0x39039f21	0.00012552414
162	0xb91e3d66	-0.00015090927
163	0xb9171e71	-0.00014411822
164	0x392c1cdd	0.0001641395
165	0xb801c43e	-3.093876e-05
166	0xb7dd31b4	-2.6368398e-05
167	0x388e49ad	6.784811e-05
168	0xb8688741	-5.5439075e-05
169	0xb8c0ad14	-9.187512e-05
170	0xb6a66706	-4.959179e-06
171	0xb8ad4a35	-8.263105e-05
172	0xb8992804	-7.303062e-05
173	0x388c6881	6.6951856e-05
174	0x38b92e00	8.8300556e-05
175	0xb716e927	-8.994982e-06
176	0xb8e4b61a	-0.00010905806
177	0xb8309f6e	-4.211015e-05
178	0x373a1ee2	1.1093654e-05
179	0xb8296129	-4.0383227e-05
180	0xb7a787b3	-1.9971141e-05
181	0xb81ccbc4	-3.738307e-05
182	0x38615ad3	5.3728767e-05
183	0xb867659e	-5.516933e-05
184	0xb8a7a6a4	-7.99422e-05
185	0x375b0cba	1.305638e-05
186	0xb8b6c0d8	-8.714356e-05
187	0xb8790bdf	-5.9377282e-05
188	0x3894e2f8	7.099466e-05
189	0xb7da6aae	-2.6037302e-05
190	0x389b04d1	7.391873e-05
191	0x375d3b46	1.3186427e-05
192	0x3570cfca	8.970934e-07
193	0xb77e82d5	-1.51700415e-05
194	0xb5e4834b	-1.7025535e-06
195	0x37cd1e7e	2.4452103e-05
196	0xb7e56ebd	-2.7350494e-05
197	0x383ab46c	4.4513887e-05
198	0x36ad631f	5.167341e-06
199	0xb7e280f3	-2.7001346e-05
200	0xb7b66be2	-2.1746328e-05
201	0xb70127ee	-7.698296e-06
202	0xb7a8923b	-2.0095255e-05
203	0x38000512	3.05223e-05
204	0x3696ba5d	4.492044e-06
205	0xb7d13571	-2.4939627e-05
206	0x374c93f8	1.2193799e-05
207	0xb6800d3f	-3.8162393e-06
208	0xb7573df8	-1.2829427e-05
209	0x36b9598a	5.5238534e-06
210	0x37a712fd	1.9916793e-05
211	0xb7fbc56d	-3.0013465e-05
212	0x382d008c	4.1246924e-05
213	0xb5ff920c	-1.9041486e-06
214	0xb8078d04	-3.231784e-05
215	0xb7bb10b5	-2.2299917e-05
216	0xb78a01b5	-1.6451677e-05
217	0xb8009ee8	-3.066557e-05
218	0x38ceea6c	9.86651e-05
219	0xb982b0ba	-0.00024927204
220	0x38b80250	8.7742344e-05
221	0x37e322bc	2.7076683e-05
222	0xb9210d3d	-0.00015359088
223	0xb950226e	-0.00019849252
224	0x372aaa80	1.0172487e-05
225	0x36c160fa	5.763138e-06
226	0xb7a3ab02	-1.9510746e-05
227	0x38a610eb	7.918648e-05
228	0xb8c41df7	-9.35159e-05
229	0xb95e274f	-0.00021186213
230	0xb92ee194	-0.00016677968
231	0xb8dcef09	-0.00010534941
232	0x38113693	3.462152e-05
233	0xb8040891	-3.147923e-05
234	0xb97b3510	-0.00023956993
235	0x38b8a1d0	8.803944e-05
236	0x37e02da0	2.6724127e-05
237	0xb9262cb6	-0.0001584765
238	0xb948f2d1	-0.00019163942
239	0x3704b7b7	7.910588e-06
240	0x3736e564	1.09014545e-05
241	0xb73fdbde	-1.1435679e-05
242	0x38a79624	7.9911464e-05
243	0x36b36d2e	5.347326e-06
244	0x38889323	6.512392e-05
245	0x387a9ffa	5.9753635e-05
246	0x37825e9f	1.5541269e-05
247	0xb892faa1	-7.008506e-05
248	0x378f07bc	1.705053e-05
249	0x37e85d88	2.7700109e-05
250	0x37cbd863	2.4300249e-05
251	0x3833667a	4.2772364e-05
252	0xb7875f45	-1.6137617e-05
253	0x381136f1	3.4621862e-05
254	0xb89f1497	-7.585546e-05
255	0x382994d4	4.0431347e-05
