raisimGymTorch/data/ouzel_only_planning/2022-05-09-12-17-53/full_64000.pt (torch, 162032 bytes, 36 tensors)

architecture.0.weight f4 [64, 27]
000000 87 1c 61 be 3f 4d ee be f6 ea 11 3e dd 8c 5d 3e
       -0.21983539 -0.4654331 0.14249787 0.21635766
000010 d5 fc 8c 3d 95 78 6f be 02 95 9c bd 15 ab 6e 3f
       0.068841614 -0.23385842 -0.076456085 0.932298
000020 83 a5 0c 3d 59 a5 75 3e 32 95 bc bd ca ef 0f be
       0.03433753 0.23988856 -0.09208144 -0.14056316
000030 8a 3c a9 3e 73 ba 01 be 0a f7 38 be d0 04 ca bc
       0.33054 -0.12668781 -0.18062988 -0.024660498
000040 a3 4c ac 3f 4b c0 59 3f f2 6e 9e 3d 0c 81 52 be
       1.3460888 0.8505904 0.07736005 -0.2055704
000050 f0 42 e1 bd 9c 7b a1 3e be b0 0b 3f 05 49 3a bd
       -0.109990954 0.3153962 0.5456656 -0.045479793
000060 21 db bb 3e 79 86 d8 be 0e 46 7a bc 15 a5 04 3e
       0.3669062 -0.42290094 -0.015275491 0.12953599
000070 52 26 13 3e 51 a8 0c be ba 72 71 be a4 34 50 3e
       0.14370087 -0.13736083 -0.23578921 0.20332581
000080 d5 28 1d bd 93 33 17 be 86 58 28 be 24 d2 2f be
       -0.03836902 -0.14765768 -0.16440019 -0.17170006
000090 15 e0 fd 3d 59 8a 01 bf e6 ef 6e 3e a4 88 80 bf
       0.12396256 -0.50601727 0.23333701 -1.00417
0000a0 94 74 98 be b4 fa 5f be 07 ff be 3e bd 11 31 be
       -0.29776442 -0.2187298 0.37303945 -0.17291923
0000b0 fc 77 00 3f dd de ee bd 38 e2 e5 3d 0d 16 5d 3e
       0.5018308 -0.116636015 0.112247884 0.21590443
0000c0 e7 bd 97 bd 6f 2d 41 be 91 1f f1 bd 78 a2 e5 be
       -0.07409268 -0.18864988 -0.11773599 -0.44850516
0000d0 0e 3b b4 be 4c 2f 3e be 1c ca 51 3e 9b 68 db 3e
       -0.35201305 -0.1857273 0.20487255 0.42853245
0000e0 7d 7a 17 3f 21 6f 1c 3f 9a ee b4 3e 83 c2 18 3e
       0.5917128 0.6110707 0.3533829 0.1491795
0000f0 f8 76 15 be ea d3 8c be ac bb 26 bf 60 8e cf 3d
       -0.14596164 -0.27505428 -0.65130115 0.10134578
000100 83 c8 94 be 86 0a 01 be 11 d6 f0 be 40 af d5 3e
       -0.29059228 -0.1260167 -0.4703832 0.41735268
000110 ff cf 96 be eb e4 40 3e ae a9 01 be 1c e2 ef 3e
       -0.29455563 0.18837325 -0.12662384 0.46852195
000120 16 6f 84 bb 5e 35 d9 3e 07 c0 db 3e a0 fd 94 3d
       -0.004041563 0.42423528 0.42919943 0.07274938
000130 48 b8 a1 bd 6c c9 ae be dd fb 65 3d bf 47 c0 be
       -0.07896477 -0.34138048 0.0561484 -0.37554738
000140 93 7a 6d be 08 81 31 bf 8d 61 2a bf 6d 9b 99 bd
       -0.2319129 -0.6933751 -0.665551 -0.07500348
000150 dd 00 de bc 14 d8 43 be 97 80 a7 bc ef d0 e6 be
       -0.027100021 -0.19125396 -0.020447059 -0.4508128
000160 d8 15 c8 bc 87 b6 27 be 1c dd 60 bc 8c a9 c2 be
       -0.024424478 -0.16378222 -0.013724592 -0.3801998
000170 4f 53 0c 3d a7 33 c7 bf 7f 7c 13 bc 66 7a 52 3f
       0.034259137 -1.5562638 -0.00900185 0.82218015
000180 d4 95 da 3e c0 a8 95 be 39 cb 13 bd ff f0 d7 bd
       0.42692435 -0.2923031 -0.03608248 -0.10544013
000190 ac bd 3c be da 2b a8 be d9 2d 4c be ac bb 7f bd
       -0.18431729 -0.32845956 -0.19939364 -0.062434837
0001a0 ef 9a b4 bd bf 9e 80 3e b9 ac c7 bd c9 2a ee bd
       -0.08818614 0.25121114 -0.09749741 -0.11629254
0001b0 21 7b 50 3e 01 29 32 3f c5 b1 db be de 63 78 3e
       0.2035947 0.69593817 -0.42909065 0.24256846
0001c0 8a 33 fa 3d 7f 26 b7 be fd 6e e2 3e d1 11 96 b9
       0.122168615 -0.35771558 0.44225302 -0.00028623504
0001d0 96 61 24 bd d4 91 39 be 0e ba b4 be 9a 54 5a 3c
       -0.040132128 -0.18122035 -0.35298198 0.013325835
0001e0 cb 28 0e 3f 27 4d e4 3e 0c d9 0d 3f b5 46 3e be
       0.55530995 0.44590113 0.5540931 -0.1858166
0001f0 c0 29 83 3e 08 f2 56 3e 5b 05 70 3e 70 31 f4 3e
       0.2561779 0.20990765 0.23439543 0.47693968
000200 b3 70 cd be 6e 86 d3 3e 3f 49 35 3d bc 09 a7 bb
       -0.40125045 0.413135 0.044259306 -0.005097596
000210 a3 91 a0 bd c6 1d 59 be 5f 82 e9 bc 3b 0f 66 be
       -0.07840278 -0.21202764 -0.028504549 -0.22466747
000220 19 97 6a be 17 9f 29 bf bd cb 54 be 91 1e 31 3d
       -0.22909202 -0.66258377 -0.20780845 0.04324204
000230 34 30 f8 3d e7 c6 bd 3c 7b 64 14 bf 53 bd 37 be
       0.12118569 0.023166133 -0.5796582 -0.17943315
000240 96 ad 05 3e 3d 6c 62 3e b9 13 80 3e 41 0e 05 3e
       0.13054499 0.22111602 0.25015047 0.12993719
000250 46 8d cf 3e 11 0f d3 3d f5 aa 17 3f 65 ad d9 bd
       0.4053747 0.10305608 0.59245235 -0.106287755
000260 20 72 77 bc 23 10 91 be 9c ad 2d be 1c 3e b0 be
       -0.015102893 -0.28332624 -0.16960758 -0.34422386
000270 e6 ef 4b 3e fa e1 80 bf d3 8d 83 bb 1e 69 9a 3d
       0.19915733 -1.0068963 -0.0040147095 0.07539581
000280 3b c6 97 3e 5b dd 48 bd c6 1b 2f be fe dc 37 bf
       0.29643425 -0.049039226 -0.17100438 -0.7182158
000290 dd c6 08 bf 8e 83 f4 3c d0 d3 e8 be 60 55 00 3c
       -0.5342844 0.029847886 -0.454741 0.007832855
0002a0 3a a9 b6 3d 30 fa 9a bd 62 79 06 bf 93 7c b4 3e
       0.08918996 -0.07567251 -0.52528965 0.35251293
0002b0 67 6e 76 be 8c 08 52 3e 0a d5 7e 3d c5 19 e4 3e
       -0.24065553 0.20511073 0.06221489 0.4455091
0002c0 15 c2 57 3d 73 80 1a 3f 91 d4 ee be 88 bd 1c bf
       0.052675325 0.6035225 -0.4664655 -0.612267
0002d0 7d 4a 50 be 5f 18 1f be af 09 24 be 9e c4 57 3e
       -0.20340915 -0.1553664 -0.16019319 0.21071097
0002e0 3b 0a e2 bc 23 91 1b 3e a3 fa c7 3d d0 ec 52 bd
       -0.027592769 0.15192084 0.09764602 -0.051495373
0002f0 e3 d4 0c bd 35 67 bf 3e eb ea 72 3d 52 0e 07 bf
       -0.034382712 0.37383428 0.059306066 -0.52756226
000300 ea 72 b3 3e a5 00 7e bd 59 24 85 be ed 29 21 3e
       0.3504861 -0.062012333 -0.26004294 0.1573865
000310 5e b9 1b 3e 22 82 a2 be ec 34 96 3c af 41 34 3e
       0.1520743 -0.31739908 0.018335782 0.17603181
000320 aa d4 a4 3e ca 97 93 3d ad 0b 3e 3f f8 9d 70 bf
       0.321935 0.07206686 0.74236566 -0.9399104
000330 ba ea f6 be 35 f0 e7 3d e3 3e 76 3e 79 a9 b1 bd
       -0.48225957 0.11325113 0.24047427 -0.086749025
000340 7e 34 00 3e 76 f5 ff bc 9b 62 30 bd e0 f6 16 be
       0.12520024 -0.031244975 -0.043062788 -0.14742613
000350 91 09 db be 13 ea 2a 3e 03 0b 96 3e 9f a5 fb 3e
       -0.42780736 0.16690855 0.29305276 0.49149796
000360 c3 10 fe bc a1 a3 9e 3e 74 37 85 3e 13 07 92 be
       -0.031013852 0.30984214 0.2601887 -0.28521022
000370 36 16 64 3e 78 b5 53 3e cc 17 61 3e 80 4e 00 3d
       0.22274098 0.20674694 0.21981734 0.031324863
000380 0c ef a5 3c 95 79 ad be d2 fd f0 3c 4d 3e cc 3e
       0.020255588 -0.33881822 0.029417906 0.39891282
000390 21 a5 16 3e b9 a7 1a bf de 6a 9a 3f 3f 7e df be
       0.14711429 -0.60412174 1.2063863 -0.43651006
0003a0 cb 0c ab 3e 02 b4 f3 3d 3e 6d e8 3e 90 c7 c8 be
       0.33408198 0.11899568 0.45395845 -0.39214754
0003b0 e7 46 95 be aa b2 bb 3e bd c1 13 3e 49 35 35 3e
       -0.29155657 0.36659747 0.14429374 0.17696108
0003c0 07 4f f1 be d7 bd 65 bd da 2d 4c 3d 34 fe cf 3e
       -0.47130606 -0.05608925 0.049848415 0.4062363
0003d0 eb 7e 06 3f 50 36 e2 bd b8 48 05 bf 9b 7e 13 3f
       0.5253741 -0.110455155 -0.52064085 0.5761506
0003e0 34 53 05 3e 84 cf 8b 3e 0e 66 00 bf 17 37 1c bf
       0.1302002 0.2730676 -0.50155723 -0.6102156
0003f0 fd f3 ac be cf 33 77 3e d5 61 34 be 13 82 86 bf
       -0.33779898 0.24140857 -0.17615445 -1.0508446

architecture.0.bias f4 [64]
000000 82 98 da 3e 19 3b 09 bf 67 f2 90 3f 3e 19 99 bd
       0.4269448 -0.536058 1.1323975 -0.07475518
000010 af b9 9c 3e d4 35 45 bf 90 08 79 bf b0 e6 88 bf
       0.30610415 -0.7703526 -0.9727869 -1.06954
000020 a2 c5 7f bf 0a 04 cb 3e d3 2d 1c bf b7 70 bb 3e
       -0.9991094 0.3965152 -0.6100742 0.36609432
000030 ca 6f ca 3f c1 2e bb bf 45 6f 8d 3f 09 fd b0 3f
       1.5815365 -1.4623643 1.1049582 1.382722
000040 19 fd 52 bf 62 f6 05 bf cf 6e 8d bf a8 32 c7 3e
       -0.82417446 -0.52329075 -1.1049441 0.38905835
000050 18 65 d6 3f ac fe 9b bf 4b b9 6e 3f b5 dc 8e bf
       1.6749601 -1.2187095 0.93251485 -1.1161104
000060 1a a1 a3 ba b4 52 0d 3f 10 f5 59 3e db a2 d1 bf
       -0.0012483925 0.5520432 0.2128489 -1.6377825
000070 4f e9 44 bf d5 4e 1d 3c ba e3 01 be b3 ef 55 bf
       -0.769185 0.009601315 -0.12684527 -0.83568877
000080 09 2f 95 bf 8d 73 57 bf 52 7b 8e bf 4a 25 3b 3e
       -1.1654979 -0.8416069 -1.1131384 0.18275943
000090 fb 88 9d 3f 52 2d 00 bf 60 fd 3d 3f d2 f7 98 be
       1.2307428 -0.50069153 0.74214745 -0.29876572
0000a0 32 6c 25 bf 3f f8 1e bf 98 7b a0 3f 7f 5b 3b bf
       -0.6461822 -0.62097543 1.2537718 -0.73186487
0000b0 31 fd 54 be 70 3f e4 3e e6 21 87 be 5e d3 f7 be
       -0.2079971 0.4457965 -0.2639305 -0.48403448
0000c0 1f 87 40 3e eb cc 95 3f 29 a1 8b 3f ba 2d 38 3f
       0.18801545 1.1703161 1.0908557 0.71944773
0000d0 d6 37 a3 3e 52 13 b8 bf 71 c6 3a bf fe a5 06 3e
       0.31878537 -1.4380896 -0.7295905 0.13149258
0000e0 15 5d 1a bf 0a 80 9d bf df ef 9b 3f be e5 b0 3f
       -0.6029828 -1.23047 1.2182578 1.3820112
0000f0 2e 68 bc 3f 77 32 98 3f bc 43 70 be dc 7f 55 3e
       1.4719293 1.1890401 -0.23463339 0.20849556

architecture.2.weight f4 [64, 64]
000000 e2 8c 32 3e 07 e2 99 3e ec f0 f0 be ae 6a fc 3c
       0.17436555 0.30055258 -0.4705881 0.030812588
000010 19 5d 71 3d 21 e8 5d 3d f1 29 4d 3e 7e 5e 0e 3f
       0.058926675 0.054176454 0.2003553 0.55612934
000020 71 23 ae 3e 8e 11 cb bd cb 43 c9 3e fb fb 7c be
       0.34011415 -0.09915458 0.39309534 -0.24705498
000030 a1 80 ef be 94 fa d2 3d 4d 20 a7 be 88 0a c7 be
       -0.46777824 0.103017 -0.3264183 -0.38875222
000040 19 60 1b bd a7 cb 94 3d 2f 7c 23 3f 3a bd 5f be
       -0.037933443 0.07265406 0.63861364 -0.21849528
000050 53 9a 5f bf 27 7b 06 3f e9 1d cd be 41 44 fc 3e
       -0.87344855 0.52531666 -0.40061882 0.49270824
000060 bb 6f dd bd ac 22 2a be f4 74 75 3d fe 74 db 3e
       -0.108123265 -0.16614789 0.05992599 0.42862695
000070 ac 7c b1 3d 60 a6 33 be c7 dd 3a 3e 39 90 ac 3e
       0.086663574 -0.17543936 0.18248664 0.33703783
000080 6c cc 92 3e 8f bf ed 3e 5f f9 e5 3d 0b 89 f0 bd
       0.28671587 0.4643521 0.112292044 -0.11744889
000090 41 c4 2a be ee e7 a6 bd 78 10 87 be 4a f8 6f 3e
       -0.16676427 -0.08149706 -0.26379752 0.23434559
0000a0 fb c8 af 3e e7 45 41 3c 2b f8 01 be 9a d7 30 3e
       0.34333023 0.011796451 -0.12692325 0.17269745
0000b0 fe 1e b7 be e6 f2 57 be 91 c9 cb 3c 9d f8 f3 3d
       -0.35765833 -0.21088752 0.024876388 0.119126536
0000c0 f9 87 da bc f0 8b c4 3d 52 32 2c be 7a 55 14 3f
       -0.026676165 0.095970035 -0.1681607 0.57942927
0000d0 75 f6 84 3d bb 66 a5 3e dd b6 99 3d de d1 99 3e
       0.064923204 0.3230494 0.075055815 0.30042928
0000e0 7e 2f 21 3e 14 0e 08 3f 29 4e 6d bf 20 df 85 be
       0.15740773 0.5314648 -0.9269739 -0.26146793
0000f0 f8 bd 01 bf 33 04 04 bf 57 87 ab be 50 79 51 3e
       -0.50680494 -0.5156891 -0.33501694 0.20456433
000100 fc 53 69 3d 93 4c 47 be 03 fe 9b 3c c1 ae 8a 3e
       0.05696486 -0.19462804 0.01904202 0.27086452
000110 ad 29 3b 3a 6d af cd bd 98 14 81 bd 1b 13 fb be
       0.0007139694 -0.100432254 -0.06302756 -0.49038014
000120 92 1c 15 3f 9d 2d 47 3e 7d 02 85 bd 33 36 0f bd
       0.5824672 0.19450994 -0.06494615 -0.034963798
000130 84 5a 02 be 5e 05 ed 3e 27 24 e3 3e e4 87 de 3d
       -0.12729841 0.46293157 0.4436352 0.10865763
000140 ad 2e 7b bc 2b eb 6a 3e e1 d0 83 be 9a ce 11 3e
       -0.015330953 0.22941272 -0.257453 0.14238968
000150 ee 77 2a 3f e7 cb fe 3d d3 51 33 3d b8 a9 20 be
       0.6658925 0.12441235 0.043779206 -0.15689743
000160 82 f7 8f 3e 25 a2 c3 3e 73 62 88 bd 15 66 14 3d
       0.2811852 0.38209644 -0.06659403 0.036230166
000170 79 c7 30 3f 29 a0 93 3e 4f 38 ba bd e8 09 07 3f
       0.6905437 0.2883313 -0.09092771 0.5274949
000180 f0 17 d8 be c3 9b 1a be e2 b4 8c bc cb 0b 2c 3e
       -0.42205763 -0.15098481 -0.017176095 0.16801374
000190 cb 16 80 3e 61 1c 5a bd 28 8b 9c be d4 d6 49 3d
       0.2501739 -0.05324972 -0.30574918 0.04927714
0001a0 a2 5d 91 3d 3a 74 0a be 0a 2f 92 be 3a d1 96 3e
       0.07097937 -0.135209 -0.28551513 0.29456502
0001b0 74 69 ba 3d 29 b6 3b be 4c 3d f2 bd 7e b6 60 3b
       0.09102145 -0.18331207 -0.11828098 0.0034288461
0001c0 63 aa 8f bb 0c b9 b3 be b7 a7 79 bc df b9 85 3e
       -0.0043843254 -0.35102117 -0.01523774 0.2611837
0001d0 c8 b7 53 be 2d ce 61 3f e7 70 3f 3d 47 4d 83 bd
       -0.20675576 0.88205224 0.04673853 -0.06411224
0001e0 43 05 5f 3e 06 91 13 3f 13 e9 89 3d 14 03 18 3f
       0.21779351 0.57643163 0.067339085 0.59379697
0001f0 68 6a 41 3f 47 e3 99 be 68 a9 bd 3e 45 ef a6 bc
       0.7555299 -0.3005621 0.3704331 -0.020377764
000200 b4 20 85 3e d2 7e 0e bf 87 61 04 bd d2 75 8e be
       0.26001513 -0.5566226 -0.03231957 -0.27824265
000210 77 91 38 bc 25 e4 14 bc cb 91 96 3c b9 d2 60 be
       -0.01126515 -0.009087597 0.018380066 -0.21955384
000220 d4 16 52 3d 95 fe 5f 3e 79 8a 02 be 7a e8 a0 bd
       0.0512913 0.21874459 -0.12748136 -0.078568414
000230 f6 27 81 be b8 d2 af bd 4d 1f 93 bd 3c b6 30 be
       -0.252258 -0.08585113 -0.071837045 -0.17257017
000240 66 66 9e be 9f d1 d4 3e 56 e4 d8 be 3b 55 a1 be
       -0.309375 0.41566178 -0.42361706 -0.31510338
000250 c3 00 70 3f ed f3 12 bf a4 b1 fe 3d 8a 89 7b be
       0.9375116 -0.5740345 0.12436226 -0.24564186
000260 7f 00 1c 3f 0b 17 ff 3d a8 95 b0 3e 66 e8 ac 3e
       0.60938257 0.12455567 0.3448918 0.33771056
000270 6a bc 5c 3e 80 85 aa be 80 b4 90 3e 51 ed 30 bf
       0.2155625 -0.33304977 0.2826271 -0.69112116
000280 4a 57 38 be d6 20 76 3e 6a 85 cc be f8 fb 48 3e
       -0.18002048 0.24035963 -0.39945537 0.19627368
000290 83 f4 37 3f e0 7b bb be 87 42 d0 3e f2 01 13 3f
       0.7185747 -0.36617947 0.40675756 0.57424843
0002a0 ca 47 bc 3e 5f da 97 bc 3f c9 83 3e 03 16 3a bf
       0.3677352 -0.018536745 0.25739476 -0.7268984
0002b0 a5 b7 f4 3d 81 0a f9 3e 81 16 58 be 78 c5 69 be
       0.1194909 0.48640826 -0.21102335 -0.22829235
0002c0 ce b3 29 bc 46 a5 9e 3e 4c 0c b3 be b0 6d fe 3e
       -0.01035781 0.3098547 -0.3497032 0.4969306
0002d0 b6 ea 0d 3f 9f f6 26 3d 63 f8 0b bf 99 b8 07 bf
       0.55436265 0.04076254 -0.54675883 -0.5301605
0002e0 29 c3 0b be aa ab 1d bf a7 5c 24 3f e4 ff 2b 3e
       -0.13648666 -0.61590064 0.64203876 0.16796833
0002f0 bd 5b b3 bd 48 81 bb 3d 00 b9 58 3e 7e 90 66 be
       -0.08757732 0.09155518 0.21164322 -0.22516057
000300 af 06 d7 be ba 14 88 3e fb 75 88 be 2d ef b8 3d
       -0.41997287 0.26578313 -0.26652512 0.09029994
000310 7e ac bd 3e f1 6a 99 3e 37 9e f8 3e 3f 5c 8a bd
       0.37045664 0.29964402 0.48558208 -0.06755876
000320 8a da 0b 3f 1c 78 81 be b6 6c 22 3f c6 17 2b bf
       0.5463034 -0.2528695 0.6344713 -0.6683315
000330 41 73 8e bc b2 4c 64 3f bd a0 30 be ff d5 0a bf
       -0.017388942 0.8917953 -0.17248817 -0.5423278
000340 23 30 03 3f 68 96 80 3d 87 11 d1 3e cf 17 34 3f
       0.51245326 0.06278688 0.40833685 0.7034883
000350 1b a1 7c bf b3 b9 29 3e 82 fa 03 bf 4f 54 63 be
       -0.9868333 0.16574745 -0.5155412 -0.2220013
000360 c0 a5 13 bd ad c2 bc bd 0a 4c 0d bf f8 9a 7d 3e
       -0.036046743 -0.09216819 -0.5519415 0.24766147
000370 be 02 86 3d 38 83 6c 3e bd bf f6 bd eb 73 b0 3e
       0.06543492 0.23096931 -0.1204829 0.34463438
000380 5f 51 b7 3e e8 25 f5 be ff f2 d2 3e b0 61 86 3b
       0.3580427 -0.47880483 0.41201016 0.0041010007
000390 19 7f 36 bf a3 3b 80 3e 21 99 d8 be ad 41 22 3d
       -0.71287686 0.250455 -0.42304328 0.039613415
0003a0 fd 66 8e 3d b7 e8 5c 3f 04 51 8d be 0d 1b ad 3d
       0.06953237 0.86292595 -0.27600873 0.08452425
0003b0 17 8c e6 3e 37 e7 7a bf 52 a3 68 3f 61 b5 5b be
       0.45028755 -0.98009056 0.9087421 -0.2145591
0003c0 a0 80 89 3e 74 96 c5 be dc a3 66 3d 25 31 f4 be
       0.26855946 -0.3859135 0.056308612 -0.47693744
0003d0 39 dc 48 be 4b 1e 7f bd 9e 14 22 3f 01 76 0e 3f
       -0.19615258 -0.06228475 0.6331271 0.5564881
0003e0 08 7e 0d 3f 3f d0 da 3d 1b 48 bc 3d 53 a1 79 be
       0.55270433 0.10684251 0.091934405 -0.24377947
0003f0 08 ac 1e be c3 00 87 bd 3c 8b 2f 3e dd e5 e4 be
       -0.15495312 -0.06591942 0.17142957 -0.44706622

architecture.2.bias f4 [64]
000000 ec 5c ce bf e8 d5 9d 3d 66 82 8c 3f 5e 81 4e bf
       -1.6122108 0.07706815 1.0977294 -0.8066615
000010 6e 55 e6 be 1b 85 16 bf c8 aa 1d 3f e7 44 00 bf
       -0.44987053 -0.5879685 0.61588717 -0.50105137
000020 e2 d1 59 be 45 12 05 bf 41 62 c7 be a7 8f cc bd
       -0.2127147 -0.51981 -0.3894215 -0.09988337
000030 ea cb c8 3d 7e 8a d8 be ac 2f 10 3f a6 9e e8 3d
       0.098045185 -0.4229316 0.5632274 0.11358385
000040 ca 25 19 3f 9c be 35 3f 0d 82 0a 40 c5 11 16 3f
       0.59823287 0.7099397 2.1641877 0.58620864
000050 12 c1 11 bf 16 1a 16 3e d6 ad 57 be ff b7 5b bf
       -0.56935227 0.14658388 -0.21062407 -0.8582763
000060 73 a6 58 bf 87 73 02 3f ac 69 06 bd a8 a5 29 3e
       -0.8462898 0.5095753 -0.03281562 0.16567099
000070 45 88 13 40 b9 61 04 be 45 a3 a0 3e b8 78 5b 3e
       2.3051922 -0.12927903 0.31374565 0.2143277
000080 12 6f 82 be 7f da 2d bf 27 e6 e5 3e 1a b5 ec 3d
       -0.25475365 -0.67911524 0.44902155 0.1155798
000090 b4 46 d3 be ad 04 95 3d 70 a2 48 bf cb c8 b7 3f
       -0.4126488 0.072762825 -0.7837286 1.4358152
0000a0 f3 6f f3 bf 28 d2 7b 3e 8d 0a f8 be 86 8a 1b be
       -1.9018539 0.24591887 -0.4844555 -0.15189561
0000b0 54 68 de 3e f0 fd a0 3f 09 0a e0 bf 38 41 8b 3e
       0.4343897 1.2577496 -1.7503062 0.27198195
0000c0 3f b3 aa 3e c6 76 15 bf 3e f5 83 bf 8d 07 12 bf
       0.3333988 -0.5838436 -1.0309217 -0.5704277
0000d0 66 90 c1 3e 32 b8 77 3e 59 0e 5a bf 21 b6 1d 40
       0.3780548 0.24191359 -0.8517814 2.4642413
0000e0 62 18 06 be 75 18 8d 3e e0 49 c5 3d ec d1 5c bb
       -0.13095239 0.27557722 0.09633231 -0.003369446
0000f0 4e 0f 1b be bd 1e 38 3d 0b 38 11 3d 82 8c 78 bf
       -0.15142557 0.04495119 0.035453837 -0.970894

architecture.4.weight f4 [9, 64]
000000 50 bc 87 bc db 80 64 3d 4f b1 f4 bc 35 7e b4 bc
       -0.016569287 0.05578695 -0.029869704 -0.022032836
000010 d4 6a 23 ba b8 f0 0c bd 06 7a ae bc c2 b6 31 39
       -0.0006233875 -0.034409255 -0.02129842 0.00016948118
000020 2c 86 47 3c bc 81 98 bc d2 ff c9 3c 5e 5e 75 b9
       0.012177985 -0.01861655 0.024658117 -0.00023400175
000030 a4 a4 e0 3b f0 79 5b bb de 7c d7 bb ad b2 4b 3c
       0.006855564 -0.0033489428 -0.0065761646 0.012432736
000040 02 aa 9e bc 8c 9c 93 3b a1 36 3f 3d 20 d4 f7 bb
       -0.019368175 0.004504746 0.046682958 -0.007563129
000050 12 5d b5 bb df 01 3e bc 6e 9d d5 3b d5 15 9a bb
       -0.0055347765 -0.011597126 0.006519011 -0.0047023096
000060 fb 20 63 3c aa 74 f4 ba aa 70 86 bc 37 eb e6 bb
       0.013862844 -0.0018650491 -0.016411144 -0.0070470828
000070 5a 2d 08 3d 50 92 b2 ba 1e 0e 9e 3b f6 aa 09 bc
       0.033246376 -0.0013623927 0.0048234602 -0.008402577
000080 24 3a 15 be 11 f8 d7 3b f1 d1 25 bc cf c8 8e bb
       -0.1457296 0.006590851 -0.010120855 -0.0043574343
000090 18 37 6a bb d0 c7 1a bc 5d 3d 0d 3d 8f c2 05 3d
       -0.0035738405 -0.009447053 0.03448235 0.03265625
0000a0 3a fb 0d 3c 87 ae 53 3c ac 5d 86 bc 8e ae ec bb
       0.008665854 0.0129200285 -0.016402088 -0.007222957
0000b0 14 c1 0c 3c 56 ec 1f 3c 3a 6f 63 bc 94 cc 78 bc
       0.008590955 0.009760937 -0.013881499 -0.015185494
0000c0 a9 2d f0 3b 45 d2 ed bb 0d ff 5b 3b c5 74 ca bc
       0.007329662 -0.007257732 0.003356877 -0.024713883
0000d0 db 39 17 3c 9e 65 22 3b 4f 4f 44 3c b3 14 cf bc
       0.009230102 0.0024779807 0.011981799 -0.025278425
0000e0 3e 8f 4d bc 82 ce f1 3b b8 e5 76 3b 0f 29 d5 3b
       -0.012546359 0.007379354 0.0037673544 0.0065051387
0000f0 0a d4 7b b8 db 18 ab bc ef a3 7d b9 49 2e a7 3c
       -6.004054e-05 -0.020885875 -0.0002418903 0.020407813
000100 81 50 8e bd 77 1d 66 3d ea 18 fd bb c4 3e 67 3c
       -0.06948949 0.056180444 -0.0077239173 0.014114086
000110 7e 1d 95 bc c5 8f 37 bc a7 01 a0 bd 92 5e d0 3c
       -0.01820254 -0.011203711 -0.07812815 0.02543572
000120 c8 06 c3 bb 98 2b 3d 3d b2 71 90 3b 1c 6d 17 3c
       -0.005951736 0.046184152 0.004408085 0.009242322
000130 a0 8c dd 3d b0 af 5a bc 2c 8e 61 bc 80 e4 d0 39
       0.10817838 -0.013347551 -0.013766807 0.00039843097
000140 f6 9f 36 bc e3 21 61 3a 12 6c 5d 3c 57 09 5f bb
       -0.011146536 0.00085881184 0.0135145355 -0.0034032667
000150 ae 9c 3a bc bc d8 38 3d 03 11 41 bd 44 c2 48 bc
       -0.011389894 0.04512857 -0.047135364 -0.012253348
000160 b7 54 9f 3c 78 96 c1 3a 5f a5 25 39 7e 16 b5 3b
       0.019449575 0.0014769575 0.00015797232 0.005526363
000170 33 c0 42 bc a1 ca 86 3a 29 7b a5 bc 50 b1 03 bc
       -0.011886644 0.0010283777 -0.020200329 -0.00803788
000180 77 e7 02 3d 59 22 fc 3a 15 a1 21 3d d0 fa 25 3c
       0.031959023 0.0019236311 0.03946026 0.010130599
000190 e1 7e 2a bb f9 07 48 3c e8 f0 65 3c 99 ad b5 3c
       -0.0026015567 0.012208932 0.014034487 0.022177504
0001a0 1c 44 8e 3c 68 32 8e 3c 92 54 ed bc 22 5a 82 3b
       0.017366461 0.01735802 -0.02897099 0.00397803
0001b0 02 30 f5 3a 46 32 06 bd 09 65 90 bc 92 6e e2 bc
       0.0018706324 -0.03276279 -0.017626302 -0.027640615
0001c0 fe 84 9f bd 74 03 d0 bc 47 9e 7d 3c f2 cc 5a 3d
       -0.07789038 -0.025392272 0.015479631 0.053418107
0001d0 dd 42 88 3c 79 05 65 bb 3a d1 3b 3c 7a f7 8b bc
       0.016633445 -0.003494589 0.011463458 -0.01708578
0001e0 0c 41 e9 3c 8f a7 df 3b 3c f0 fe ba 52 bf 4c 3b
       0.0284734 0.0068253945 -0.0019450258 0.0031241965
0001f0 33 9d e2 3b 67 5f 9b 3c c8 f9 b9 ba 21 9a 29 3d
       0.0069157123 0.01896639 -0.001418882 0.041406754
000200 50 73 49 3d f7 38 24 be b0 17 0d bc 55 f2 a5 bc
       0.049182236 -0.16037355 -0.008611605 -0.020257154
000210 d6 19 c3 bc 79 b4 92 bc e4 f7 92 bc 8c f1 cc 3b
       -0.02381603 -0.017908322 -0.01794047 0.0062543806
000220 94 52 94 bc 16 79 88 bb b1 f9 56 3c d5 b7 11 bb
       -0.018105783 -0.004164825 0.0131210545 -0.0022234817
000230 48 0f 3f 3d b7 18 3e bc e8 da 0b 3b 85 13 0f 3b
       0.046645433 -0.011602572 0.0021340195 0.0021831703
000240 34 b5 ac 3b 18 46 bf 3b f5 28 b6 bd e7 74 d3 ba
       0.0052706245 0.0058372132 -0.08894531 -0.0016132862
000250 cb ae 6b 3c 17 c9 79 bc 14 e5 cc bc bf a0 09 3b
       0.014384936 -0.015245697 -0.025011577 0.0021000353
000260 2b 90 19 3c f2 07 68 3b e0 58 94 bb 03 9e ab bb
       0.009372751 0.0035405126 -0.0045271963 -0.0052373423
000270 f3 e9 1e 3e 18 ee 02 bc 6a 7c d4 3b f9 15 d6 39
       0.15518932 -0.007991336 0.006484558 0.00040833632
000280 a0 d1 9c bd 29 51 2d bc 2c 7c 7d bc db 90 58 bc
       -0.0765717 -0.010578432 -0.015471499 -0.01321813
000290 e5 e5 dd bb 06 95 21 bc 00 f2 97 3b 29 e1 0b 3c
       -0.0067717903 -0.00986219 0.004637003 0.008537569
0002a0 63 50 36 bc 74 7c 89 3b 46 ac d8 bc 28 e5 8c 3a
       -0.011127564 0.004195744 -0.026449334 0.0010749446
0002b0 b9 3f 3d 3c f7 bc 8b 3b 88 10 12 bc 22 6e 7a bc
       0.011550837 0.0042644697 -0.008915074 -0.015285047
0002c0 f5 b5 0e 3a ed a4 84 bc 5f 83 98 bc 5e 7b 5a 3d
       0.0005443984 -0.016191924 -0.01861733 0.05334031
0002d0 4a 15 a8 bc 88 c9 ce 3b 95 22 e0 bb ed 22 e1 bc
       -0.020517964 0.0063106455 -0.00684006 -0.027482474
0002e0 af a7 9f bc e1 c2 00 3d 49 3b 86 3b b6 f9 03 bc
       -0.019489137 0.03143585 0.004096423 -0.008055141
0002f0 63 c6 d1 bc e3 a3 c7 bb f7 b5 f0 3b 27 18 68 ba
       -0.025607293 -0.006092535 0.0073459106 -0.00088536966
000300 39 a8 34 bf 83 c5 eb 3c a9 8c 14 3f d1 ec e2 be
       -0.7056919 0.028780704 0.5802713 -0.44321302
000310 4b 14 51 bd 46 26 54 be ad 4e a2 3d e4 e8 de be
       -0.051044744 -0.20717725 0.079251625 -0.43537056
000320 45 bb ac be fb 15 ab bd 21 88 64 be 32 f1 66 3d
       -0.33736625 -0.08353802 -0.22317554 0.056382366
000330 6a ab 3e 3d d7 c9 1c bf f1 0b 46 3d 65 37 28 3e
       0.046550192 -0.61245483 0.048351232 0.16427381
000340 80 27 94 3e db 55 f7 3e 21 f6 34 3f 08 a6 86 3e
       0.28936386 0.4830769 0.7068806 0.26298547
000350 0b 45 db be fc 9b 00 3e e3 a6 c6 bd 7b 7e 34 bf
       -0.42826113 0.12559503 -0.096998 -0.70505494
000360 ae 97 38 bf 96 e5 c5 3e 9b fa 6a be 78 c9 14 3e
       -0.72106445 0.38651723 -0.22947161 0.14529979
000370 bc a1 23 3f 78 c4 c2 be ab 54 ce 3e 99 f0 9c 3d
       0.6391866 -0.3804052 0.40298972 0.07663078
000380 af 7e c5 bc 20 37 2a be 68 14 bb 3e ff bf e6 bd
       -0.024108259 -0.16622591 0.36539006 -0.11267089
000390 0c 15 b2 be 13 29 84 3c 61 36 cb be 19 33 97 3e
       -0.34781682 0.016132867 -0.39689925 0.29531172
0003a0 4d 67 24 bf 7c 44 0c 3e ab 6c 53 be be a3 8e 3e
       -0.64220124 0.13698 -0.20646922 0.278593
0003b0 e2 24 2c 3f 08 ab 2e 3f da c2 9e be e3 88 6b 3e
       0.6724378 0.6822972 -0.31008035 0.23001437
0003c0 c5 e3 08 bd 91 09 a6 bd c1 07 8d be 9e 13 3e be
       -0.033420343 -0.081072934 -0.27544978 -0.18562171
0003d0 93 f4 e4 3d a5 e1 30 3e 99 59 23 bf c3 73 0d 3f
       0.11179461 0.17273577 -0.6380859 0.55254763
0003e0 09 3a 32 be 20 2b f9 3d 16 36 35 3e 0f 51 3a be
       -0.17404951 0.121664286 0.17696413 -0.18194984
0003f0 97 20 70 bb 57 00 5c bd 75 83 c0 bd f6 9b a7 be
       -0.0036640519 -0.05371126 -0.094000734 -0.32736176

architecture.4.bias f4 [9]
000000 4c 11 8e bd 90 e4 81 3b 5c 20 a1 bd 9d 6d 6c 3f
       -0.06936893 0.0039640144 -0.078675 0.92354757
000010 cb 47 d6 3d 69 96 d9 bd e2 1a b7 bc bb 4a 35 3f
       0.10462912 -0.106243916 -0.022351686 0.70817155
000020 7b 71 43 be
       -0.19086258

std f4 [9]
000000 cd cc 4c 3e cd cc 4c 3e cd cc 4c 3e 39 bd ba 3e
       0.2 0.2 0.2 0.3647249
000010 cd cc 4c 3e cd cc 4c 3e 91 7c 54 3e 40 3c 98 3e
       0.2 0.2 0.20750643 0.29733467
000020 cd cc 4c 3e
       0.2

architecture.0.weight f4 [64, 27]
000000 ab 4a eb 3b f9 0e 36 bd f4 50 ca bd 98 4d 8e 3e
       0.007180532 -0.044447873 -0.09878722 0.27793574
000010 a3 40 ae 3f 00 08 84 be 77 08 78 bf e0 b7 36 bf
       1.3613476 -0.25787354 -0.96887916 -0.7137432
000020 09 b9 7a bf 1c 14 37 be 48 dd 9c 3d 78 09 f4 3d
       -0.9793859 -0.17878765 0.076593935 0.119158685
000030 72 4a 38 bc aa f9 d2 3d a5 e7 fa bd a4 d7 42 3c
       -0.011248218 0.10301526 -0.12251214 0.011892233
000040 78 3e 0e be db bb 50 c0 26 c5 00 be 9e e0 a7 bf
       -0.13891017 -3.2614658 -0.12575206 -1.3115423
000050 a6 12 97 3e 49 f2 95 3f 48 3d c8 3e e3 9f 78 3f
       0.29506415 1.1714565 0.39109254 0.9711897
000060 b5 6a ae 3d 22 b5 3c be 05 13 44 be ae 54 e8 3a
       0.085164465 -0.18428472 -0.1914788 0.0017725432
000070 56 c3 be 3c 45 ca 1b 3b 3e c7 98 bd 20 ad 51 be
       0.023286503 0.0023771685 -0.074598774 -0.20476198
000080 27 9a e1 3e fe 22 6b be c9 57 1f bf 0e 0b f9 3d
       0.4406292 -0.22962567 -0.62243325 0.12160312
000090 b3 d9 e1 bb 91 36 23 be 79 8b c3 be d9 c5 1b 3e
       -0.006892407 -0.15938784 -0.38192347 0.15212192
0000a0 71 ca b5 3d 96 51 8f be e3 17 cc 3d 92 e9 88 3d
       0.08876503 -0.27991933 0.099654935 0.06685175
0000b0 f6 95 54 3d 41 1d 84 bd e9 48 0b 3e 15 26 5a be
       0.051900826 -0.06450892 0.13602032 -0.2130359
0000c0 15 3d 84 3e 93 bc 16 3f 27 e6 0c 3e e3 a9 33 3e
       0.25827852 0.5888149 0.13759671 0.17545275
0000d0 d5 a6 cf bd be 34 5f be 91 3c d8 bd 78 6f f9 3c
       -0.101392426 -0.21797463 -0.10558427 0.03044866
0000e0 0b 68 aa 3d f9 c1 b1 3e 13 94 15 bf da d5 50 3f
       0.08320626 0.34718302 -0.5842907 0.8157631
0000f0 bc f8 5b 3f 47 a8 51 3f 25 27 2f bf 50 f1 08 3e
       0.85926414 0.81897396 -0.68419105 0.13373303
000100 4c f2 f6 bc 88 0b 07 3e 45 1e 18 bd d4 9f 67 bd
       -0.030144833 0.13187993 -0.037138242 -0.05654891
000110 e3 00 38 3d dc 8a 19 3d 22 4a a9 be 8f 64 9d be
       0.04492272 0.037485942 -0.3306437 -0.30740783
000120 f7 54 8c be b4 49 1f 3f 78 f3 42 bf d6 05 5d bf
       -0.27408573 0.6222184 -0.76152754 -0.8633703
000130 cb 5a 5f bf 8a 7c 3c 3f 2c fd df bd 5e fb 94 3d
       -0.87247914 0.7362753 -0.109369606 0.07274507
000140 12 45 29 be c1 fc a5 bd b1 d6 84 bc d1 66 cf 3e
       -0.16530254 -0.081048496 -0.016215654 0.4050813
000150 b6 38 cd be 17 91 f0 3d ef 32 82 3d 80 ed 45 3e
       -0.4008233 0.11746424 0.06357371 0.1932888
000160 13 ac a9 be ea 4c 22 3e a4 5a 4f be a1 45 4d 3e
       -0.33139095 0.15849653 -0.2024942 0.20046093
000170 b8 46 24 3e 00 e5 c4 bc 88 05 d8 bc be 68 a6 bc
       0.16042602 -0.024034977 -0.026369825 -0.020313617
000180 42 95 96 bc 00 35 85 bc a8 34 14 3d 2b 3a e5 3e
       -0.018381719 -0.016260624 0.03618303 0.4477094
000190 9b 94 9c bd 3a 0a a0 bd 6f d5 49 be cb f9 50 3e
       -0.07645532 -0.078144506 -0.19710325 0.20407788
0001a0 64 e2 22 be 1f 2e 05 3e b2 8d 76 be fd 83 36 be
       -0.15906674 0.13005875 -0.2407749 -0.17823787
0001b0 d6 18 e7 3b 2d a2 ca 3c e2 00 a7 ba b4 4e 11 3e
       0.007052521 0.024735535 -0.0012741352 0.14190179
0001c0 9e 87 f3 bd 5d f7 9d be f2 94 8e 3c 5e 1f 5e 3d
       -0.11891101 -0.30852786 0.017405007 0.054229133
0001d0 fb 28 0a be 5a 8d 18 3e e8 78 92 bd d0 cf 10 be
       -0.13492195 0.14897671 -0.07151967 -0.14141774
0001e0 ae 80 8f be 9a 9d 1f 3d 3a c7 c1 be e4 6e 7b 3a
       -0.28027862 0.03896866 -0.3784731 0.0009591414
0001f0 27 b6 21 bb 29 e3 d3 bc 39 3f 18 3d 75 79 34 bd
       -0.0024675222 -0.025865154 0.03716967 -0.044061143
000200 11 5e bb bd 0b cd 93 bc 59 80 01 bd cc 75 42 3e
       -0.09148801 -0.018042108 -0.031616542 0.18990248
000210 5b a2 13 3e 29 12 4f bd f1 47 51 be 07 5f a1 bb
       0.14417402 -0.05055443 -0.204376 -0.004924658
000220 55 38 8a 3b fa ab 9f bc 79 a4 bc bc 9e 23 c1 3b
       0.004218141 -0.019491185 -0.023027645 0.0058941385
000230 8d e2 8c 3d 07 b5 1d bd e5 ed b2 3a 48 c4 6b 3c
       0.06879149 -0.03850272 0.001365122 0.014390059
000240 60 fc 08 3d d7 e0 f0 bc 06 ba 29 3e 62 ec 10 3f
       0.03344381 -0.029404087 0.16574869 0.5661069
000250 15 2d 56 3e 03 40 ec 3f b5 47 67 bb 0f 46 03 3d
       0.20915635 1.8457035 -0.0035290543 0.032049235
000260 83 91 32 be e7 5e a9 3c 56 66 39 bd 3b c6 23 bb
       -0.17438321 0.020675136 -0.04526361 -0.002498998
000270 1a 5f 8d 3d ef ea 28 3d 46 a7 5f bc 5d 06 7c bb
       0.06902905 0.041239675 -0.013650721 -0.0038455941
000280 d7 21 fa bc a5 69 34 3d 3d 7c a2 bb e8 80 14 bb
       -0.030533714 0.044046063 -0.004958658 -0.0022659842
000290 14 23 c6 3c 7d 38 68 bd 7b 8b 5b 3e 9a 2a 73 3c
       0.024186648 -0.056694496 0.21439926 0.0148417
0002a0 ac d5 b2 bc b7 bf 82 3b 29 1e 2b 3d 91 7b 56 3d
       -0.021830402 0.0039901393 0.04177681 0.052363936
0002b0 78 16 1e be 0d 3f 65 bb 9e 0d cc bc a8 69 aa bd
       -0.15438259 -0.0034980208 -0.024908837 -0.083209336
0002c0 f0 af 90 3d 20 e1 11 bd fa 96 ea bb 74 a3 a7 3d
       0.070648074 -0.035615087 -0.007159111 0.08185473
0002d0 d2 4b 4f 3c f8 2e e7 3d 62 f0 65 3e 3d b8 2c 3e
       0.012652354 0.112882555 0.2245498 0.16867156
0002e0 6b 6a 5b 3e c4 45 98 bc 2b 3e 41 3d cf 07 b0 bd
       0.21427314 -0.018587954 0.04717843 -0.08595239
0002f0 e2 82 1c 3e 34 1c 32 bc ca 73 98 3c 1a 84 a2 3b
       0.15284303 -0.010870982 0.0186099 0.0049595954
000300 3a 92 8d 3d 9e ab 0e 3d 35 b7 26 3d 7b c8 1d bd
       0.06912656 0.034831636 0.040702064 -0.03852127
000310 ef ac 1f bd 8d c7 4b bd ab 4a 25 3d 71 19 d4 3c
       -0.03898328 -0.049750853 0.040354412 0.025891038
000320 95 55 55 bd 02 90 81 3f 7b e6 95 bf a8 bf 54 3e
       -0.05208357 1.0122073 -1.1710962 0.20776236
000330 2b 3b 0f bd 10 ae 8b bc b1 c5 68 be 35 a7 04 bd
       -0.034968536 -0.017050773 -0.22731663 -0.032386024
000340 56 7e 94 bd f6 9b 7e 3d 84 1e 8c 3c f8 02 c5 bc
       -0.07250659 0.062160455 0.017104395 -0.024049267
000350 be 6f 82 3a 16 df d5 ba 11 bf 79 bc d8 4f 44 3c
       0.0009951515 -0.0016317095 -0.015243308 0.011981927
000360 9b 4b f5 bc 76 18 d8 3c a4 38 4b bd d4 64 80 be
       -0.029943278 0.026378851 -0.049614564 -0.25076926
000370 58 6c 81 3e 61 90 87 be e4 16 26 3e a4 ce 3a bd
       0.25277972 -0.2647734 0.1621967 -0.045607224
000380 df 85 86 3e e4 30 d7 be 7c 49 7a 3e 3a 39 02 bf
       0.2627401 -0.42029488 0.24442095 -0.5086857
000390 5f eb 44 be 1b 32 b5 3d a6 f0 a3 be 07 c3 cd bd
       -0.19230412 0.088474475 -0.32019538 -0.10046964
0003a0 41 b5 49 bd 61 39 ff 3c 0f 4f 1e be 2e 92 ab 3c
       -0.049245123 0.03115529 -0.15459846 0.020943727
0003b0 24 84 43 3d 9a 5b e8 3c b3 6a d3 bd d6 7a 98 3c
       0.04773344 0.028363992 -0.10323086 0.01861326
0003c0 74 35 01 be ec 47 c6 3c 89 86 69 be da f2 be 3e
       -0.12618047 0.024204217 -0.22805227 0.37294656
0003d0 8e ae ad bd 5d 98 f9 bd e7 98 7c bb ac bf c2 3e
       -0.08480559 -0.12187264 -0.0038543285 0.3803686
0003e0 68 c3 9f bd 83 7e 33 3e 2b bf 4d be a4 90 ab 3e
       -0.07800943 0.17528729 -0.20092456 0.3350879
0003f0 6a a1 88 3e 2e 5a 2e be c5 47 eb 3e 5d 1e 05 bc
       0.2668565 -0.17026588 0.45953193 -0.008124915

architecture.0.bias f4 [64]
000000 22 a9 1a 3e 7c c9 b2 bf 1b d8 28 3d 84 ec b7 3f
       0.15103582 -1.3967738 0.04122172 1.4369054
000010 13 7b a1 3f f1 51 62 bf b2 97 f8 bf 94 f4 5c 3f
       1.2615684 -0.8840628 -1.9421294 0.86310697
000020 be 07 01 3f 6e 2d b2 3f 71 ec 08 bf c1 96 70 3f
       0.5040244 1.3920114 -0.5348578 0.9398003
000030 33 3a 91 3f 87 86 f1 3e 5f 68 b3 bf 3a e1 a1 3f
       1.1345886 0.4717295 -1.4016227 1.2646859
000040 d2 46 14 3d c0 fa 6e 3e 30 e5 92 bf 71 31 c6 bf
       0.036200352 0.23337841 -1.1476192 -1.5483838
000050 09 47 e2 bf ef 60 d0 bf 36 6b b3 bf b3 18 50 ba
       -1.7677928 -1.6279582 -1.4017093 -0.0007938251
000060 41 9f 95 bf 52 e7 38 3f 16 6b 9f bf f5 a7 5a bf
       -1.1689225 0.72227967 -1.2454555 -0.8541253
000070 97 9f 68 bf 88 ac 9f bf 1a ec cb bf d1 cd 9b bf
       -0.90868515 -1.2474527 -1.5931427 -1.2172185
000080 ba 72 af bf df 96 94 bd 70 8a 3b bf 7e 96 ab 3f
       -1.3706887 -0.07255339 -0.73258114 1.3405302
000090 96 c8 61 3f e9 db 09 bf c3 2e 9b bf 4d 13 40 3d
       0.88196695 -0.5385118 -1.2123646 0.046893407
0000a0 ba 1b 04 3f 0f 1a bb 3f a0 1a 44 bf 6c 2b 0e 3e
       0.5160481 1.4617327 -0.76603127 0.13883752
0000b0 c9 93 cb 3d 2f 70 a0 bf 15 08 40 3f 21 6a 72 3f
       0.09940297 -1.2534236 0.7501233 0.9469319
0000c0 9d 94 81 bd 84 69 35 3f 43 ca 9f bf 79 74 b0 3f
       -0.06327174 0.7086413 -1.24836 1.3785545
0000d0 e4 2f b8 bf 66 83 e1 3f be 2b 34 3d b4 cb b9 bf
       -1.4389615 1.7618225 0.04398703 -1.451529
0000e0 2c f2 b8 bf 7d 3e bb 3f 71 e0 8a 3c b1 bd 92 bf
       -1.4448905 1.4628445 0.016952725 -1.1464139
0000f0 6e 5d bc 3d 7d e0 b1 bc 8b c3 d7 be 27 0e ca bc
       0.09197508 -0.02171349 -0.42141375 -0.024664951

architecture.2.weight f4 [64, 64]
000000 bf f3 21 be c0 7f e8 be c0 29 54 be 89 40 28 bf
       -0.15815638 -0.45409966 -0.20719051 -0.6572347
000010 53 68 e2 3e 5d 73 3a be 39 e2 ab 3e d6 eb 1b 3e
       0.44220218 -0.1820807 0.33571032 0.15226683
000020 57 db d6 3d 06 0e 2f bf 9f d5 86 be d7 48 23 3e
       0.104910545 -0.68380773 -0.26334855 0.15945755
000030 11 f9 e7 bd 76 e5 82 3e e5 9f 12 3f db df da 3d
       -0.113268025 0.2556569 0.5727523 0.10687228
000040 ae 02 90 3e 1f 99 00 bf 97 72 cf 3e c2 df 51 b9
       0.28127044 -0.50233644 0.40517113 -0.0002001515
000050 a4 20 60 3e 72 64 dd be 51 1b 17 3f 42 e7 d0 3c
       0.21887451 -0.43240696 0.59026057 0.025500897
000060 c1 a3 7b 3d f8 1c 60 be 53 cb 23 3f 92 a5 69 be
       0.061435465 -0.2188605 0.63982123 -0.22817066
000070 4c 01 8c be 99 20 7a 3e 11 b4 f7 3a be c6 e7 3d
       -0.2734474 0.24426498 0.0018898268 0.11317204
000080 03 8a 75 3f 65 be d4 3e 50 c0 06 3d 7b 8e ed 3d
       0.95913714 0.4155151 0.032898247 0.115994416
000090 d2 ef 69 3e a6 1c 9a be 77 cf bc 3d 92 6b 99 3e
       0.2284539 -0.30099982 0.09219258 0.29964882
0000a0 32 4a 04 be a7 22 98 3e 1d dc 69 3d a5 c7 b3 3f
       -0.12918928 0.29713938 0.057094682 1.4045302
0000b0 de cb 69 bc 91 dc 21 3f 63 b0 37 3f 88 ec 02 3e
       -0.014269797 0.6322718 0.7175352 0.12785542
0000c0 c4 1c 8d bd f1 52 53 bd cc ae 18 3e 5a ed 21 3d
       -0.06890252 -0.05159277 0.1491043 0.039532997
0000d0 23 42 b9 bd 58 25 25 3e fd 2a 22 bd 0e 5d f1 3e
       -0.09045818 0.16127527 -0.039591778 0.47141308
0000e0 94 dd a8 bc cd a1 6e be 62 2e f9 be f0 f7 90 3e
       -0.02061347 -0.2330391 -0.486682 0.2831416
0000f0 37 67 0b be b3 c1 bb 3e 84 f8 b6 ba eb 3c 3b be
       -0.13613592 0.36671218 -0.0013959561 -0.18284957
000100 ad be c0 be dc e6 35 bf 3d a0 be 3e 84 ae 2e 3f
       -0.37645474 -0.7105539 0.37231627 0.6823504
000110 59 dd 07 3f 64 94 08 bf 18 f0 6b bf 32 38 ca 3e
       0.53072125 -0.53351426 -0.9216323 0.39496
000120 df c3 cf 3e 2b 52 d2 3e 16 9f 13 bf f5 5e d1 3e
       0.40579125 0.41078314 -0.5766462 0.4089276
000130 43 7b 45 3e dc ac 48 3e a1 82 fa be 6f 61 7a 3e
       0.19285302 0.1959719 -0.48927787 0.2445123
000140 ef d1 d6 3c a5 69 af 3e 12 17 01 bf b3 60 80 bf
       0.026223151 0.34260288 -0.5042583 -1.002951
000150 c5 94 09 bf 23 ca 86 bf 10 42 0c bf 78 fd 4f bd
       -0.5374263 -1.0530437 -0.54788303 -0.050778836
000160 45 a1 90 be 7b 6d d0 bd 68 ce d5 be fc 7d 9c 3e
       -0.2824804 -0.10177132 -0.41759038 0.30564868
000170 91 a1 99 be 71 d6 2a bf 9f 84 f8 be 00 ce 0d bf
       -0.30006078 -0.6673346 -0.48538682 -0.55392456
000180 28 4e 30 bf b4 98 82 3e ca 99 0d bf 50 99 00 3f
       -0.68869257 0.25507128 -0.5531279 0.50233936
000190 bf 48 84 3e 44 b5 d6 be 02 db 46 be 33 c4 dc bd
       0.2583675 -0.4193517 -0.19419482 -0.107796095
0001a0 87 32 35 3e f0 76 fc 3e 02 53 b3 be 82 79 08 bb
       0.17695056 0.49309492 -0.35024267 -0.0020824377
0001b0 76 d9 55 be e8 da 1f 3d aa 79 19 be 11 c4 9e 3e
       -0.20883736 0.039027125 -0.14987817 0.31008962
0001c0 d5 75 5d be fc 88 1f 3e d7 10 f3 be d4 37 90 bc
       -0.2162698 0.15579599 -0.47473785 -0.017604746
0001d0 9e 4c 17 bf 9a 05 3d 3f 0d c6 d3 3b ca a5 26 bf
       -0.59101284 0.7383667 0.0064628185 -0.65096724
0001e0 d3 9c ad be 25 da 53 3f ce 1a 99 be a4 b3 ff be
       -0.3390871 0.8275474 -0.29903263 -0.49941742
0001f0 28 11 1d be 1a 82 8e be 8b c7 bd 3d 02 4b d5 bc
       -0.15338576 -0.27833635 0.092665754 -0.026036743
000200 9f 29 08 3f 01 73 2a 3f 6d e8 e7 be ff a5 79 bf
       0.5318851 0.6658173 -0.45294514 -0.97518915
000210 cb 43 a9 be 25 60 1d 3f e6 42 23 3f c2 9a 1b bf
       -0.33059534 0.6147483 0.63773954 -0.60783017
000220 33 8d dd be b0 2d 2a bf 8b ee ba 3e 49 1c a4 be
       -0.4327179 -0.66475964 0.3651012 -0.3205283
000230 6f 76 3f be 10 84 c7 be 07 f3 00 3f 24 43 0c bf
       -0.18697523 -0.38967943 0.5037083 -0.5478995
000240 73 02 54 be bf bd 6b be 76 8d 50 3f 91 bb 3e 3f
       -0.2070406 -0.23021601 0.8146585 0.74504954
000250 51 8c 5c 3e 86 68 65 3f db c2 77 3e 41 f7 ec bd
       0.21537901 0.89612615 0.24195425 -0.115705974
000260 88 07 9d 3e fb 79 39 bd 32 3e ca 3e 81 56 16 be
       0.30669808 -0.045282345 0.39500576 -0.14681436
000270 5b 0b e8 3d eb fa 0f 3f e2 40 3b 3f 55 06 0f 3f
       0.11330291 0.56242245 0.7314588 0.55869037
000280 0d b6 55 3f eb 17 bd bc 34 f8 0a 3f 80 9b b7 be
       0.8348091 -0.023082694 0.5428498 -0.35860825
000290 8e c1 99 be 63 b3 24 3f a4 01 ec bd 39 38 9b 3e
       -0.30030483 0.6433622 -0.115237504 0.30316332
0002a0 0b 6e c7 3d 6d 2a 58 bf 01 6f e0 3e 9f 3d 0a bd
       0.09737786 -0.84439737 0.4383469 -0.033750173
0002b0 68 6f 1f be f2 f0 ec bd a0 cb 05 bd 0a 96 01 bf
       -0.15569842 -0.11569394 -0.032664895 -0.50619566
0002c0 79 0c df 3c e8 7c 02 be 2c 77 4f 3c f7 76 bf be
       0.027227627 -0.1274296 0.01266269 -0.3739545
0002d0 39 a8 14 3f 59 d6 34 bf 4b c1 04 be c5 22 e4 3d
       0.5806919 -0.7063957 -0.1296436 0.11139444
0002e0 71 04 29 3f 12 7f b6 bf 0e 7d df 3e 38 48 49 3f
       0.660224 -1.4257529 0.43650097 0.7862582
0002f0 5e 39 82 3e 59 c2 e5 3e b6 7b d7 bd 54 53 2a 3c
       0.25434393 0.44874838 -0.10521643 0.010395844
000300 8b e8 6e bc 6e 34 ab be 8a 29 98 bd 7a 4e 6a 3f
       -0.01458181 -0.33438438 -0.07429798 0.91525996
000310 aa b9 da bb fc a8 4d 3d 79 ac c8 3e 23 34 b5 bc
       -0.006674965 0.050209984 0.39194086 -0.022119587
000320 0a 4e c1 3e e3 be 19 3f 94 ba ce bd a9 59 d8 3e
       0.37754852 0.60056895 -0.10094181 0.42255905
000330 15 a2 4b 3e 79 a7 c8 be d9 48 e2 be b6 f2 14 3d
       0.19886048 -0.39190271 -0.44196203 0.03636428
000340 de 76 97 3e 7a c7 79 bf 6d 2a bc be 2b 4c 68 3f
       0.29582876 -0.9757 -0.36751118 0.90741223
000350 a7 ba 0c 3f a5 f0 9e 3e ce 5a cc be b4 24 58 3e
       0.5497231 0.31042972 -0.39913028 0.21107751
000360 c0 eb 05 3f b2 f1 48 be 01 0a 45 bf e8 6f 44 bc
       0.5231285 -0.1962345 -0.7696839 -0.011989571
000370 49 8c 98 3e 83 69 26 3f 20 65 84 be 06 d4 89 3e
       0.2979453 0.6500475 -0.25858402 0.26919574
000380 b2 92 42 bf 1e 85 a3 be 7f 67 81 3e 96 83 ab 3e
       -0.7600509 -0.31937498 0.25274274 0.3349883
000390 09 4a fe 3d 7c 46 b6 3d 43 4a 11 3e 15 37 dc 3e
       0.12416465 0.089001626 0.14188485 0.43010774
0003a0 8a 88 19 3e 9d 88 70 3f 56 3b 4e 3c 35 90 68 3e
       0.14993492 0.93958455 0.012587389 0.2271126
0003b0 9b fe 5c 3f 7a d2 16 bf 7e f5 08 3e 6b 01 dc 3c
       0.86326 -0.5891491 0.13374898 0.026856145
0003c0 db 01 be bd a9 4f 9c be 2c 09 a4 bd d9 39 46 3d
       -0.09277698 -0.30529526 -0.08009562 0.04839501
0003d0 23 22 d7 3e bc 77 2f bf 1a 0f 27 3d fb f5 e9 bd
       0.42018232 -0.68542075 0.040785886 -0.1142387
0003e0 ca b9 89 3e 84 bd d2 3e c7 63 21 bf 1e 37 0a bd
       0.26899558 0.41160214 -0.63042873 -0.03374397
0003f0 5f 90 b3 3e a1 d4 1d 3d c0 f6 9b be 11 fe 33 bd
       0.35071084 0.038532857 -0.30461693 -0.04394347

architecture.2.bias f4 [64]
000000 a3 cf b8 3e b5 8b 86 3f 1e 00 a2 bf d4 04 fc be
       0.36095914 1.0511385 -1.2656286 -0.49222434
000010 84 5a 8f 3e 17 b6 95 bf f3 b4 72 3f cd 8b 31 bf
       0.27998745 -1.1696194 0.94807357 -0.69353944
000020 54 38 a6 bf 7a 1e 3e 3f d3 58 4f 3f a4 25 a4 bf
       -1.298594 0.74265254 0.8099491 -1.2823987
000030 44 dd 86 bf e4 42 08 3f fe 95 1d bc f2 17 48 3f
       -1.0536275 0.53227067 -0.00961828 0.7816154
000040 b9 fe 9f 3f d8 df 05 3f 1d da 1b bf 30 53 9c 3f
       1.249961 0.52294683 -0.6087969 1.2212887
000050 93 7f bd 3e ec b9 5b bf 98 4b fe 3e e6 a7 a4 3f
       0.37011394 -0.8583057 0.49667048 1.2863739
000060 33 a2 22 bf ab 34 40 3f 58 3e ad 3f ea 3e be be
       -0.63528746 0.75080365 1.3534651 -0.37157375
000070 5a a7 85 bf fb 4e c1 be 02 e7 9e bf 83 a9 bc 3e
       -1.0441697 -0.3775557 -1.2414248 0.36848077
000080 c3 f2 56 bf 3d 16 d1 3e 69 e5 35 3f cd ce 9c bf
       -0.83964175 0.4083728 0.7105318 -1.225061
000090 fc cf a1 bf 73 85 b9 3f 01 f6 2e bf e9 91 29 bf
       -1.2641597 1.449385 -0.6834412 -0.66238266
0000a0 29 47 15 bf 67 ee a2 bf bd 96 43 bf 57 f4 31 3f
       -0.58311707 -1.2729005 -0.76401883 0.6951346
0000b0 5e e6 9b bf 8f 68 29 3f a2 6f 0a bf ef 28 80 3f
       -1.2179677 0.6617517 -0.5407659 1.0012492
0000c0 14 46 28 bf 47 52 98 3f eb bd b7 3f 65 5e ff be
       -0.6573193 1.1900109 1.4354833 -0.49876705
0000d0 ca 6d a1 bf 30 30 8c bf dc 55 58 bf 12 da 0e 3e
       -1.261163 -1.0952206 -0.8450601 0.13950375
0000e0 e7 48 0f 3f f6 e6 e8 3e d6 3d e6 be bf 87 6d 3f
       0.55970615 0.4548871 -0.44969052 0.9278526
0000f0 01 d4 81 bf 7b 93 41 3f de f4 95 bf 90 5a 9e 3f
       -1.0142823 0.7561566 -1.1715353 1.2371387

architecture.4.weight f4 [1, 64]
000000 ab cf 01 c1 96 af a5 c0 32 cd a4 40 91 b3 01 41
       -8.1132 -5.177684 5.1500483 8.106339
000010 86 b9 e8 c0 70 0e a4 40 84 ff a2 c0 f3 cb a5 40
       -7.272647 5.1267624 -5.093691 5.181146
000020 78 46 a6 40 62 7c aa c0 a4 e0 a1 c0 e4 64 a7 40
       5.196102 -5.3276834 -5.058672 5.2310658
000030 76 19 a7 40 07 50 f6 c0 fd 08 db c0 ed 26 d3 c0
       5.221858 -7.697269 -6.844847 -6.5985017
000040 dc c7 aa c0 ab 3a f6 c0 5f e7 d4 40 86 34 aa c0
       -5.336897 -7.6946616 6.6532435 -5.3189116
000050 f7 60 e1 c0 d7 02 cb 40 e6 2f d7 c0 16 d6 a5 c0
       -7.0430865 6.3440967 -6.724597 -5.1823835
000060 58 99 d9 40 90 04 08 c1 74 04 a3 c0 df a1 f0 40
       6.7999687 -8.501114 -5.0942936 7.5197597
000070 f8 fa aa 40 40 10 d0 40 ce e4 a4 40 1c 64 02 41
       5.343136 6.5019836 5.1529303 8.149441
000080 80 26 a3 40 af 3b e7 c0 d9 61 f5 c0 26 82 a2 40
       5.0984497 -7.2260356 -7.6681943 5.0783873
000090 20 15 a4 40 c6 8d a3 c0 34 85 84 40 28 59 a6 40
       5.1275787 -5.1110563 4.14126 5.1983833
0000a0 45 c8 da 40 e4 db a1 40 f7 46 95 40 e1 c1 ab c0
       6.836947 5.058092 4.6649127 -5.367417
0000b0 aa ea a6 40 bd bd fc c0 1a da c8 40 49 06 ad c0
       5.2161455 -7.8981614 6.2766237 -5.407017
0000c0 cd ce d6 40 b4 d2 a4 c0 f4 7c a2 c0 a0 86 f3 40
       6.712744 -5.1507206 -5.077753 7.6101837
0000d0 34 44 a2 40 86 3d 82 40 33 2c a5 40 f7 70 05 c1
       5.0708256 4.07001 5.1616454 -8.340079
0000e0 75 79 00 c1 5f 41 ad c0 1a 87 f5 40 ae 60 af c0
       -8.029653 -5.41423 7.672742 -5.4805517
0000f0 e0 20 af 40 27 e5 a7 c0 76 d2 a0 40 ca e9 a7 c0
       5.472763 -5.2467227 5.025691 -5.2472887
