raisimGymTorch/data/ouzel_only_planning/2022-05-09-12-17-53/full_21000.pt (torch, 162032 bytes, 36 tensors)

architecture.0.weight f4 [64, 27]
0.17306353 -0.16250023 0.34688264 0.046468668 0.25346458 -0.2168503 -0.27512056 0.6170722
0.077575095 0.5327293 -0.20559186 -0.07475664 0.25952366 -0.26331803 -0.012805088 -0.37896502
0.57675856 0.3170244 -0.097600564 -0.025259161 -0.015822755 0.08220992 0.17241904 0.02467929
0.47833082 -0.51683146 0.0050704353 0.06476871 -0.06477098 -0.3644437 0.037517674 0.07685672
0.08445799 -0.060009077 -0.110367075 -0.17959282 0.16296361 -0.53935623 0.1121659 -0.2384081
0.34728566 -0.39261702 0.25220278 -0.03764903 0.09471278 0.21887432 0.10021698 0.34443462
-0.10620682 0.021167252 -0.30056006 -0.37036213 -0.18579493 -0.14130166 0.11488473 0.54590285
0.30639634 0.34606802 0.14866388 0.037665866 0.030458076 -0.16920947 -0.64346457 -0.043782853
-0.10353251 0.023645442 -0.030250622 0.12129675 -0.08836553 0.023940587 -0.15297773 0.31254384
-0.23660849 0.19135684 0.24393134 0.17275767 0.08171428 -0.26145667 -0.122106425 -0.20454784
-0.039054364 -0.14255367 -0.24188249 -0.102413006 0.091186225 0.109390095 0.4703905 -0.088442445
-0.22772314 0.09520216 -0.089063324 -0.26789764 0.0067024464 -0.80327326 0.092520036 0.13430831
0.01924927 -0.09237229 0.029938899 0.050706506 0.20403354 0.13412122 0.030132229 -0.25295022
0.1850501 0.19311157 0.0024869787 -0.11359431 -0.11251494 0.26157755 -0.32561085 0.1915898
0.17656346 -0.18442266 0.34761718 0.04239217 -0.112720266 -0.15371022 -0.34319884 0.17685428
-0.02267263 0.101051964 0.37726694 0.045278788 -0.117427185 0.56417954 0.25617507 0.436828
-0.30216938 0.31559703 0.051345635 -0.0721764 -0.08660795 -0.29217547 0.10383489 -0.2857506
-0.15321597 -0.21639146 0.3156642 -0.029645016 0.14894259 0.19422379 -0.2590207 -0.13748506
-0.21159154 0.14605194 0.17550267 0.038720038 0.0929022 0.39770424 -0.027021764 -0.28717074
0.013741327 0.095698744 -0.28871986 -0.29806623 0.37202054 -0.7505598 -0.01657306 -0.23374034
0.20497496 -0.07496505 0.020417413 -0.5101844 -0.40131557 0.34881538 -0.23384772 0.08171886
0.094257206 0.057163917 -0.27302408 0.2992228 -0.11494717 0.23645794 0.16221203 0.19319911
0.080332436 0.04670673 -0.16275156 -0.29319227 0.14849938 -0.032378506 -0.005892587 0.33728004
0.07416615 0.28937232 0.033703346 0.10689948 0.02511248 -0.29528087 -0.04779254 -0.35206825
0.27864546 -0.07681125 -0.20454732 0.18067317 0.07905374 -0.09877342 -0.116762765 -0.05512696
-0.25517172 0.025829738 0.3387438 0.13653077 -0.27798167 -0.34340808 0.09386271 -0.06789222
0.17967127 0.15191185 -0.16843374 -0.14462653 -0.15865228 0.018628892 0.098026745 0.030516751
-0.09078498 0.02033524 0.1673086 -0.44925848 0.23846087 0.280899 0.07022892 0.032870572
0.08156166 -0.14219281 0.07818787 0.16430695 0.08785242 -0.4514722 0.53738296 -0.26305893
-0.10496307 0.13562505 0.17331788 -0.31705725 -0.08129559 0.1622835 0.1117114 0.32344034
-0.36033577 -0.12480224 -0.14478067 0.17192428 0.07634882 -0.16839507 -0.5035033 0.28354046
-0.12709022 0.10141544 -0.3558091 -0.120720886 -0.32478288 0.13559137 -0.123906516 -0.36656937
00000000: 9137 313e 7666 26be 9a9a b13e ee55 3e3d
00000010: 1cc6 813e 010e 5ebe 9adc 8cbe 72f8 1d3f
00000020: b1df 9e3d f360 083f ac86 52be 021a 99bd
00000030: 49e0 843e 9fd1 86be 6fcc 51bc b407 c2be
00000040: 73a6 133f 0651 a23e cee2 c7bd 4dec cebc
00000050: b99e 81bc ad5d a83d 9e8e 303e 392c ca3c
00000060: c7e7 f43e 114f 04bf e525 a63b 75a5 843d
00000070: a6a6 84bd 5d98 babe 22ac 193d 0e67 9d3d
00000080: 50f8 ac3d 14cc 75bd 2208 e2bd 2ee7 37be
00000090: efdf 263e 4013 0abf 3cb7 e53d 4121 74be
000000a0: 6dcf b13e 1905 c9be b920 813e df35 1abd
000000b0: c6f8 c13d 9720 603e 8f3e cd3d bc59 b03e
000000c0: f682 d9bd f266 ad3c 02e3 99be 1ba0 bdbe
000000d0: 0741 3ebe 62b1 10be af48 eb3d 4ac0 0b3f
000000e0: fbdf 9c3e d42f b13e 583b 183e 8647 1a3d
000000f0: 3783 f93c 3f45 2dbe 18ba 24bf a655 33bd
00000100: da08 d4bd 16b4 c13c 27d0 f7bc 6e6a f83d
00000110: fdf8 b4bd 0d1f c43c 32a6 1cbe bf05 a03e
00000120: 7f49 72be 0cf3 433e 23c9 793e 63e7 303e
00000130: d159 a73d a6dd 85be ef12 fabd fd74 51be
00000140: 78f7 1fbd 97f9 11be 0bb0 77be e9bd d1bd
00000150: d8bf ba3d ea07 e03d 06d7 f03e 5021 b5bd
00000160: 4130 69be 5af9 c23d d566 b6bd e129 89be
00000170: 32a0 db3b 51a3 4dbf 257b bd3d 1e88 093e
00000180: a5b0 9d3c af2d bdbd 6c42 f53c a0b1 4f3d
00000190: 2bee 503e 1357 093e ddd7 f63c b182 81be
000001a0: c67d 3d3e 0abf 453e 94fc 223b 22a4 e8bd
000001b0: 3c6e e6bd 7eed 853e 77b6 a6be 1e30 443e
000001c0: 0dcd 343e 4bd9 3cbe e1fa b13e 69a3 2d3d
000001d0: e2d9 e6bd 3666 1dbe c2b7 afbe 4a19 353e
000001e0: f4bb b9bc 55f4 ce3d 2229 c13e 4076 393d
000001f0: aa7d f0bd 126e 103f 6129 833e eba7 df3e
00000200: f2b5 9abe ef95 a13e cd4f 523d 38d1 93bd
00000210: 825f b1bd 0698 95be 63a7 d43d e74d 92be
00000220: a6e4 1cbe b995 5dbe bd9e a13e 1bda f2bc
00000230: 6884 183e 9ae2 463e 5c9e 84be e2c8 0cbe
00000240: 74ab 58be a48e 153e f9b6 333e e798 1e3d
00000250: 8243 be3d e49f cb3e bf5c ddbc 0b08 93be
00000260: 4e23 613c b4fd c33d 17d3 93be 239c 98be
00000270: 7a79 be3e b024 40bf 3ac4 87bc a159 6fbe
00000280: f5e4 513e 4787 99bd 6b42 a73c 729b 02bf
00000290: 3c79 cdbe ee97 b23e c775 6fbe 385c a73d
000002a0: ec09 c13d b624 6a3d d0c9 8bbe bb33 993e
000002b0: 6c69 ebbd 0822 723e e91a 263e fdd5 453e
000002c0: 5585 a43d 8e4f 3f3d 58a8 26be 4c1d 96be
000002d0: 3910 183e 539f 04bd 9a16 c1bb f8af ac3e
000002e0: 6ce4 973d 9c28 943e 850c 0a3d 1dee da3d
000002f0: b0b8 cd3c 0e2f 97be 1cc2 43bd 4a42 b4be
00000300: 9eaa 8e3e 374f 9dbd da74 51be 6302 393e
00000310: ede6 a13d b849 cabd 5121 efbd cfcc 61bd
00000320: dea5 82be e398 d33c d46f ad3e b9ce 0b3e
00000330: 9d53 8ebe 2fd3 afbe 183b c03d 140b 8bbd
00000340: bffb 373e c88e 1b3e e579 2cbe fa18 14be
00000350: be75 22be 9e9b 983c 3fc2 c83d 44fe f93c
00000360: 7aed b9bd 1796 a63c f252 2b3e 3505 e6be
00000370: 162f 743e fed1 8f3e 2ed4 8f3d 4ba3 063d
00000380: cd09 a73d fe9a 11be f620 a03d 1540 283e
00000390: f8eb b33d 5d27 e7be ee91 093f a9af 86be
000003a0: e1f6 d6bd 4be1 0a3e 3e7a 313e 5455 a2be
000003b0: 4d7e a6bd a52d 263e f2c8 e43d f999 a53e
000003c0: ee7d b8be 5198 ffbd 6241 14be eb0c 303e
000003d0: c55c 9c3d c26f 2cbe 98e5 00bf 372c 913e
000003e0: f023 02be e6b2 cf3d 9c2c b6be 833c f7bd
000003f0: f149 a6be 77d8 0a3e b3c2 fdbd fbae bbbe

architecture.0.bias f4 [64]
-0.09358743 -0.18005683 0.8450059 0.063118294 0.19651465 -0.5098777 -0.7695044 -0.8172616
-0.9513809 0.055841196 -0.6368627 0.3726777 1.0010363 -0.92241555 1.1013594 0.8901647
-0.5804695 -0.40641963 -0.9739316 0.25954875 1.2212951 -0.93855375 0.81100804 -0.8777581
0.22469768 0.3470018 0.23540515 -0.7274366 -0.46008345 -0.040172853 -0.06213425 -0.28979436
-0.56785846 -0.7818206 -0.7025737 0.2101048 0.98429275 -0.25187287 0.38820797 -0.011798211
-0.49908617 -0.5862603 0.8935708 -0.1057924 0.0883161 0.5985827 -0.09311279 -0.36208147
0.15318914 1.0055414 0.770998 0.45914146 -0.05089074 -1.0615435 -0.37157694 0.29071224
-0.62196493 -1.0371319 0.94753253 1.0526824 1.1082771 0.7068422 -0.056095313 0.09048052
00000000: c4aa bfbd d160 38be 4f52 583f 2a44 813d
00000010: 233b 493e 5887 02bf 3efe 44bf 0e38 51bf
00000020: b38d 73bf bdb9 643d 6f09 23bf 9dcf be3e
00000030: f521 803f 6d23 6cbf 58f9 8c3f d5e1 633f
00000040: a699 14bf 3c16 d0be 9553 79bf 93e3 843e
00000050: 6653 9c3f 0f45 70bf 399e 4f3f c1b4 60bf
00000060: 2617 663e 38aa b13e 0c0e 713e 4939 3abf
00000070: 0f90 ebbe 4a8c 24bd 7c80 7ebd ed5f 94be
00000080: 2c5f 11bf 6525 48bf dfdb 33bf b625 573e
00000090: 9cfa 7b3f 7bf5 80be 32c3 c63e 494d 41bc
000000a0: 3988 ffbe 2815 16bf 0ec1 643f b0a9 d8bd
000000b0: 12df b43d b73c 193f ebb1 bebd be62 b9be
000000c0: 9ddd 1c3e 95b5 803f 2060 453f 9714 eb3e
000000d0: cf72 50bd a8e0 87bf 553f bebe 3cd8 943e
000000e0: 1839 1fbf bdc0 84bf 7e91 723f 4cbe 863f
000000f0: 06dc 8d3f 9cf3 343f 33c4 65bd da4d b93d

architecture.2.weight f4 [64, 64]
-0.1462569 0.3441289 -0.24912684 -0.18718173 0.044737514 0.24913022 0.12322145 0.2610033
0.18325542 -0.11697864 0.33747637 -0.02482853 -0.57035786 -0.17981492 -0.019429246 -0.60300183
0.19840303 0.21789218 0.36459756 -0.06166818 -0.70551205 0.44426942 -0.23487651 0.22052678
0.09813768 -0.15009321 -0.015375617 0.45917252 -0.06728324 -0.20908949 0.062417623 0.19684891
0.14054975 0.38821664 0.08838852 0.12854895 -0.12746222 0.004836818 0.018740933 0.26497164
0.29690507 -0.10298436 0.17835149 -0.079282336 -0.5336606 -0.042414773 0.22391088 0.17428948
0.20237862 0.07964962 -0.2610859 0.033031426 0.10044458 0.14306147 0.2658017 -0.08392426
-0.0026539823 -0.08367415 -0.4621898 -0.17474547 -0.21174553 -0.36980948 -0.27206787 0.20015284
-0.03348727 -0.2884557 0.10213141 0.19687794 0.20321655 -0.041628923 -0.20867288 -0.059343684
0.39848834 -0.09292776 0.0508538 -0.041312203 0.18468808 0.2096875 0.10963942 0.19105627
-0.0459424 0.18175304 -0.19300413 -0.09594514 0.37709245 0.038296286 -0.14031486 -0.11566671
0.044428054 0.3695911 0.07932863 -0.1385381 0.34321526 0.17895101 -0.018548807 0.24340716
-0.36258408 -0.14408098 -0.058857705 0.06893913 0.23527543 -0.10526192 -0.16946779 0.12488159
0.17407766 -0.09030588 -0.24219158 0.04696857 0.17845021 -0.18976523 0.10880155 0.038294528
-0.22976783 -0.13702157 0.06494174 -0.00701235 -0.34323654 0.46356726 0.14821477 0.22285695
0.22440714 0.497057 -0.18709995 0.27491188 0.54608554 -0.02620791 -0.055804178 0.025110012
0.30011022 -0.56831145 -0.007657541 -0.31385472 0.06100944 -0.08360888 -0.0714421 -0.1303675
0.32999352 -0.09906549 -0.1415232 -0.14475897 -0.10862403 -0.3667301 -0.012545384 -0.33427912
-0.4566362 0.031756226 -0.27196223 -0.29095668 0.7347042 -0.26096335 0.32675377 -0.17616206
0.6275547 0.07712991 0.014666789 0.21052308 0.063079156 -0.22310443 0.14361523 -0.09696032
-0.23964958 0.30134925 -0.113988 -0.07281124 0.33102268 -0.09968911 -0.0029681653 0.12908547
0.014178486 -0.3288528 0.36745614 -0.25219473 -0.08815366 0.45526263 -0.16222252 -0.082768776
0.07549791 0.41170877 -0.31961837 0.25359082 0.45120585 -0.08287335 -0.13525379 -0.091703296
-0.3181358 -0.54214853 0.29626325 0.033507634 -0.1894481 0.009201736 0.17700171 0.027906843
-0.06913831 0.03194585 -0.20458317 -0.27875137 0.12259998 -0.0027689803 0.088716865 -0.08854202
0.1739302 -0.23473291 0.61694276 -0.5147701 -0.5839505 0.2976259 -0.20227101 -0.28030342
0.22163427 -0.096617356 0.21658161 0.21714808 -0.47738183 0.2671883 -0.16240653 -0.16420677
-0.31359845 0.031992253 -0.3261907 0.22015725 -0.052017126 -0.2193472 -0.11066019 -0.21178204
0.47504938 -0.2929168 0.3425839 -0.055252224 -0.29469052 0.36909935 -0.1868778 0.3108701
0.14043476 0.22958913 -0.26644385 -0.21279436 0.035706248 -0.6360707 0.37157375 -0.011291666
0.028381921 -0.0641317 -0.17264359 -0.28147134 0.032489225 0.1791737 0.073324315 0.13765149
0.117207184 0.1839306 0.2467887 -0.08559802 -0.11236619 -0.11176749 0.012340169 -0.13002343
00000000: 5ec4 15be aa31 b03e 1b1b 7fbe 91ac 3fbe
00000010: af3e 373d fe1b 7f3e 875b fc3d 39a2 853e
00000020: 4fa7 3b3e 7f92 efbd b4c9 ac3e 3465 cbbc
00000030: f902 12bf 6721 38be 152a 9fbc 545e 1abf
00000040: 2a2a 4b3e 211f 5f3e 88ac ba3e c697 7cbd
00000050: 709c 34bf 4877 e33e 7883 70be c6d1 613e
00000060: 68fc c83d 09b2 19be 03ea 7bbc a918 eb3e
00000070: cccb 89bd 8e1b 56be 9fa9 7f3d c392 493e
00000080: 46ec 0f3e 55c4 c63e 0a05 b53d 56a2 033e
00000090: 7585 02be 2c7e 9e3b 9686 993c 5daa 873e
000000a0: f103 983e 77e9 d2bd c6a1 363e c75e a2bd
000000b0: fb9d 08bf 1dbb 2dbd e548 653e f178 323e
000000c0: 573c 4f3e 571f a33d 0dad 85be f64b 073d
000000d0: e3b5 cd3d b57e 123e 2917 883e 7ce0 abbd
000000e0: 6fee 2dbb 5a5d abbd 24a4 ecbe 7af0 32be
000000f0: d2d3 58be ab57 bdbe 7b4c 8bbe def4 4c3e
00000100: f329 09bd 77b0 93be 462a d13d 5f9a 493e
00000110: 0018 503e 1783 2abd 58ae 55be 5d12 73bd
00000120: aa06 cc3e e950 bebd 134c 503d fc36 29bd
00000130: df1e 3d3e 52b8 563e a28a e03d 41a4 433e
00000140: 192e 3cbd 781d 3a3e e0a2 45be e37e c4bd
00000150: 4312 c13e 91dc 1c3d b3ae 0fbe abe2 ecbd
00000160: 31fa 353d 0b3b bd3e 0c77 a23d efdc 0dbe
00000170: e9b9 af3e ef3e 373e abf3 97bc ba3f 793e
00000180: 9fa4 b9be f789 13be c714 71bd f52f 8d3d
00000190: 0bec 703e 9093 d7bd f788 2dbe ebc1 ff3d
000001a0: 6a41 323e 4af2 b8bd 1201 78be 1e62 403d
000001b0: a7bb 363e d151 42be 59d3 de3d b9da 1c3d
000001c0: 4248 6bbe 624f 0cbe 2d00 853d dbc7 e5bb
000001d0: b3bc afbe b058 ed3e 9dc5 173e 9d34 643e
000001e0: fcca 653e 417e fe3e 2197 3fbe 40c1 8c3e
000001f0: 43cc 0b3f f9b1 d6bc ec92 64bd 83b3 cd3c
00000200: 0ca8 993e dc7c 11bf 1cec fabb 91b1 a0be
00000210: 09e5 793d 223b abbd 3c50 92bd 0f7f 05be
00000220: e9f4 a83e d9e2 cabd 75eb 10be b23b 14be
00000230: 4776 debd 0cc4 bbbe 278b 4dbc a226 abbe
00000240: 38cc e9be d112 023d a23e 8bbe 46f8 94be
00000250: 9315 3c3f fd9c 85be 454c a73e d463 34be
00000260: 6da7 203f 49f6 9d3d f94c 703c 5d93 573e
00000270: a52f 813d 7d75 64be df0f 133e 2293 c6bd
00000280: b366 75be 734a 9a3e 8a72 e9bd 0f1e 95bd
00000290: ce7b a93e ce29 ccbd 8d85 42bb fb2e 043e
000002a0: e14c 683c 655f a8be 3623 bc3e ab1f 81be
000002b0: e889 b4bd 2f18 e93e a91d 26be ad82 a9bd
000002c0: a69e 9a3d 7ecb d23e 05a5 a3be a8d6 813e
000002d0: 7404 e73e 81b9 a9bd f87f 0abe f0ce bbbd
000002e0: b2e2 a2be 3fca 0abf d1af 973e 4d3f 093d
000002f0: affe 41be e1c2 163c f03f 353e e49c e43c
00000300: 6398 8dbd a7d9 023d 407e 51be 80b8 8ebe
00000310: b315 fb3d c877 35bb 30b1 b53d 8555 b5bd
00000320: c21a 323e d35d 70be f6ef 1d3f f9c7 03bf
00000330: c87d 15bf 6c62 983e 2220 4fbe ee83 8fbe
00000340: 18f4 623e 52df c5bd 92c7 5d3e 115c 5e3e
00000350: 646b f4be e8cc 883e e64d 26be d225 28be
00000360: fa8f a0be 4f0a 033d 7802 a7be e770 613e
00000370: e90f 55bd 8d9c 60be cfa1 e2bd 64dd 58be
00000380: ac39 f33e 31f9 95be 2867 af3e 2850 62bd
00000390: ade1 96be 97fa bc3e e55c 3fbe 5e2a 9f3e
000003a0: 21ce 0f3e 6a19 6b3e 546b 88be c4e6 59be
000003b0: b740 123d 88d5 22bf ea3e be3e ae00 39bc
000003c0: 3481 e83c 7b57 83bd 7bc9 30be 031d 90be
000003d0: 6c13 053d 4f79 373e 0f2b 963d 83f4 0c3e
000003e0: 520a f03d 4e58 3c3e 2db6 7c3e 044e afbd
000003f0: 3f20 e6bd 5be6 e4bd 6c2e 4a3c dd24 05be

architecture.2.bias f4 [64]
-0.62108356 -0.01750849 0.59351695 -0.7416714 -0.3234867 -0.5058735 0.22479402 -0.48346126
-0.18999392 -0.41551006 -0.04993359 -0.22795135 0.15360048 -0.40625885 0.26842535 0.11207798
0.13981484 0.6335583 1.3698797 0.504339 -0.458766 -0.029993067 -0.018367961 -0.74664026
-0.6750951 0.5133218 0.07478878 0.24755435 1.2400669 -0.25951603 0.4630423 0.35899225
-0.21058737 -0.44156468 0.30958658 -0.037999406 -0.39229766 -0.059938192 -0.36839363 0.47726485
-1.3051548 0.10189561 -0.24583992 -0.06977852 0.3987535 0.88545316 -1.0018572 0.07507681
0.2206088 -0.025027325 -0.7017866 -0.23504098 0.27438948 0.06703428 -0.65380687 0.68002963
-0.057733063 0.03177505 0.13242072 0.03908743 -0.06461213 0.20731336 -0.0065732854 -0.075442016
00000000: 55ff 1ebf f76d 8fbc baf0 173f 2dde 3dbf
00000010: 0ca0 a5be ed80 01bf 6730 663e 3c88 f7be
00000020: c48d 42be bcbd d4be 2a87 4cbd 146c 69be
00000030: 7249 1d3e 2901 d0be 0c6f 893e 2489 e53d
00000040: 9f2b 0f3e e030 223f 3858 af3f 5c1c 013f
00000050: 61e3 eabe 05b4 f5bc 6878 96bc d123 3fbf
00000060: 08d3 2cbf 0f69 033f dc2a 993d e37e 7d3e
00000070: 83ba 9e3f 49df 84be e113 ed3e d5cd b73e
00000080: 37a4 57be c414 e2be 2282 9e3e 44a5 1bbd
00000090: 3ddb c8be c081 75bd 179e bcbe 0f5c f43e
000000a0: 500f a7bf a5ae d03d 76bd 7bbe 0ae8 8ebd
000000b0: 6b29 cc3e 0fad 623f db3c 80bf dfc1 993d
000000c0: 46e7 613e 1b06 cdbc 49a8 33bf 95ae 70be
000000d0: c77c 8c3e 4549 893d e35f 27bf 6c16 2e3f
000000e0: 8179 6cbd 8e26 023d 4c99 073e 241a 203d
000000f0: 5d53 84bd f449 543e b764 d7bb 5881 9abd

architecture.4.weight f4 [9, 64]
-0.0364997 0.03907606 -0.080102116 -0.009156063 0.02630043 -0.02044299 0.013851488 -0.0060671703
0.009774234 -0.05094532 0.008465145 -0.048664216 0.04703668 -0.019620823 0.0018030271 -0.015194898
-0.051802892 0.029284323 0.006056037 0.0065306174 0.008316739 0.009417434 -0.045041762 0.060551044
0.052501287 -0.011902097 0.009630426 -0.018866891 0.05342332 0.003674708 0.001483912 -0.0012437466
-0.07991364 0.0051556616 -0.005331726 -0.011736802 -0.0129413465 -0.0433229 0.04479184 0.021523487
-0.07298721 -0.0017717181 -0.056410138 0.0046988213 0.089248106 -0.078478046 -0.025285272 -0.008161108
0.030868337 0.0067804535 -0.036588095 -0.07812787 -0.011312942 0.0091057075 -0.0066808206 -0.03393793
-0.14439498 -0.0077283606 0.0040808218 -0.0016051859 0.040404122 -0.046469294 0.011395508 -0.00017441802
-0.03799924 0.08420052 -0.044823408 -0.041523136 -0.083993316 0.10264185 -0.017239423 -0.0064234105
0.010273658 0.02850274 -0.0066181715 0.019564688 0.1044345 0.08632947 -0.012987765 0.031558268
-0.020975903 0.04797765 0.041637637 -0.16085878 -0.044939738 0.03409391 -0.010612979 -0.070448995
0.018963275 0.08814736 0.02388788 0.0070523974 0.015604285 0.025586348 0.026178127 -0.021105014
0.042224657 -0.0031958162 -0.0013034027 -0.019822415 0.0024565218 -0.015333252 0.012412506 0.04125564
0.12724161 0.019665265 -0.042616803 0.008373312 0.040295422 0.037577096 0.08777521 0.005018016
-0.03996888 0.0036666193 0.068874955 -0.0290065 -0.012132086 0.00040136272 -0.13050999 -0.008776045
0.049827453 0.00081992894 0.0021523996 -0.02103053 0.001939276 -0.05414701 0.009718927 0.055507597
0.010242845 -0.17942992 -0.05053514 0.042538654 -0.07663404 0.042793896 -0.013845815 0.045360062
0.01402282 -0.009752602 0.012171428 -0.032929055 0.025707185 -0.035623007 0.029638084 0.0043802615
0.0813191 -0.010881425 -0.12547885 -0.028488323 -0.016852016 -0.024124507 -0.013515433 -0.049642634
-0.053676754 0.026446255 -0.016030591 -0.013083323 0.20872973 0.006697112 -0.018025015 -0.017445967
-0.09216366 0.0020397408 -0.015958622 -0.012942692 0.0011533757 -0.019608708 0.00636068 0.019767793
0.050211746 0.008986518 -0.06957839 -0.018738689 -0.012897126 -0.013334297 -0.030657789 0.0057580853
-0.11195337 -0.004876948 0.014337198 0.08724897 0.0135417525 0.008148478 0.014480708 0.022698268
0.0040738173 0.018335013 0.006815565 -0.008463207 -0.003696562 -0.025365375 0.015160813 -0.019680746
-0.5523669 0.016260458 0.55537236 -0.4464747 0.027930897 -0.2513878 0.0355554 -0.12423293
-0.23228492 0.048003096 -0.25785303 0.15925461 0.048158176 -0.3622104 0.11178872 0.38498056
0.11073231 0.50447 0.46909595 0.25109923 -0.49736273 -0.21591565 0.009221474 -0.48935288
-0.5114436 0.3371843 0.04452235 0.19534415 0.38189083 -0.3469983 0.010387361 0.05280401
0.06601123 -0.0866492 0.255209 -0.31469458 -0.20066771 -0.07823926 -0.24810895 0.13336508
-0.31695798 -0.17348489 -0.09555152 0.23333569 0.48750108 0.6567724 -0.16088347 -0.22012535
0.027245967 0.11807343 -0.088145696 0.025107222 -0.1193823 0.2057002 -0.45996413 0.33388466
-0.0032730051 -0.05112807 0.50842154 0.06308452 0.04369602 0.06528683 -0.32161063 -0.1155157
00000000: b680 15bd 380e 203d 940c a4bd 5003 16bc
00000010: 0074 d73c 0f78 a7bc 5af1 623c 1dcf c6bb
00000020: 1c24 203c 0aac 50bd 64b1 0a3c 2154 47bd
00000030: 89a9 403d d9bb a0bc 8d53 ec3a 05f4 78bc
00000040: 452f 54bd ade5 ef3c b871 c63b cafe d53b
00000050: ef42 083c 954b 1a3c b67d 38bd 5f04 783d
00000060: 970b 573d 0301 43bc efc8 1d3c bd8e 9abc
00000070: 69d2 5a3d 5fd3 703b d37f c23a 3605 a3ba
00000080: c3a9 a3bd d3f0 a83b c2b5 aebb b74b 40bc
00000090: f107 54bc 5a73 31bd a677 373d 0652 b03c
000000a0: 517a 95bd ff38 e8ba 510e 67bd 92f8 993b
000000b0: b6c7 b63d 19b9 a0bd 0f23 cfbc 2bb6 05bc
000000c0: 98df fc3c 912e de3b 66dd 15bd 8101 a0bd
000000d0: eb59 39bc 1b30 153c c9ea dabb 8002 0bbd
000000e0: 47dc 13be 303e fdbb 6ab8 853b 1a65 d2ba
000000f0: cb7e 253d 9656 3ebd 3ab4 3a3c fbe3 36b9
00000100: 17a5 1bbd 5271 ac3d c098 37bd 2a14 2abd
00000110: b004 acbd e435 d23d b139 8dbc 797b d2bb
00000120: d852 283c 947e e93c 3fdd d8bb 2046 a03c
00000130: c1e1 d53d 81cd b03d a2ca 54bc 3e43 013d
00000140: a8d5 abbc 3684 443d 3a8c 2a3d 2ab8 24be
00000150: bb12 38bd 0ea6 0b3d 0fe2 2dbc 9047 90bd
00000160: df58 9b3c 9a86 b43d 84b0 c33c cc17 e73b
00000170: 1da9 7f3c 769a d13c 8373 d63c 6ce4 acbc
00000180: c3f3 2c3d e670 51bb f0d6 aaba 9e62 a2bc
00000190: 99fd 203b 5238 7bbc d35d 4b3c adfb 283d
000001a0: a04b 023e 0d19 a13c f58e 2ebd 3730 093c
000001b0: d00c 253d 71ea 193d 7dc3 b33d 2b6e a43b
000001c0: 69b6 23bd aa4b 703b 500e 8d3d 0a9f edbc
000001d0: a8c5 46bc fe6d d239 69a4 05be 67c9 0fbc
000001e0: df17 4c3d 80f0 563a 460f 0d3b 3848 acbc
000001f0: 4e2f fe3a 41c9 5dbd 223c 1f3c ef5b 633d
00000200: 9bd1 273c 7abc 37be effd 4ebd 033d 2e3d
00000210: 4ff2 9cbd a748 2f3d 8fd9 62bc 79cb 393d
00000220: f8bf 653c 61c9 1fbc ab6a 473c 9ee0 06bd
00000230: e097 d23c 6ee9 11bd 91cb f23c 4c88 8f3b
00000240: a18a a63d 0148 32bc 877d 00be 5860 e9bc
00000250: 3d0d 8abc c2a0 c5bc d66f 5dbc 1356 4bbd
00000260: 28dc 5bbd d1a5 d83c 9652 83bc 6f5b 56bc
00000270: 3fbd 553e 7373 db3b 32a9 93bc d8ea 8ebc
00000280: 4dc0 bcbd 2cad 053b a8bb 82bc 960d 54bc
00000290: de2c 973a 71a2 a0bc 406d d03b 11f0 a13c
000002a0: d5aa 4d3d 303c 133c 1d7f 8ebd e181 99bc
000002b0: 784e 53bc 1878 5abc 0b26 fbbc 52ae bc3b
000002c0: cf47 e5bd cece 9fbb 91e6 6a3c 97af b23d
000002d0: 3ade 5d3c 3281 053c 7e40 6d3c b8f1 b93c
000002e0: a87d 853b 4f33 963c 1a55 df3b 43a9 0abc
000002f0: 0542 72bb 0ccb cfbc 0f65 783c 8439 a1bc
00000300: eb67 0dbf a734 853c e22c 0e3f 5598 e4be
00000310: 56cf e43c e7b5 80be 8aa2 113d d66d febd
00000320: 19dc 6dbe e59e 443d 5005 84be a413 233e
00000330: 8241 453d a473 b9be 7cf1 e43d 2c1c c53e
00000340: 9fc7 e23d f224 013f 582d f03e 1490 803e
00000350: 54a6 febe fe18 5dbe aa15 173c 768c fabe
00000360: f8ed 02bf 6ca3 ac3e 115d 363d 4c08 483e
00000370: 3287 c33e c3a9 b1be c02f 2a3c 0549 583d
00000380: e530 873d 2375 b1bd c1aa 823e a61f a1be
00000390: d67b 4dbe e83b a0bd 4610 7ebe db90 083e
000003a0: 5148 a2be 06a6 31be 84b0 c3bd 8def 6e3e
000003b0: be99 f93e 3c22 283f a3be 24be 8a68 61be
000003c0: ef32 df3c 7cd0 f13d bb85 b4bd a9ad cd3c
000003d0: b57e f4bd 13a3 523e 6b80 ebbe eef2 aa3e
000003e0: ea7f 56bb ab6b 51bd ea27 023f 7532 813d
000003f0: 99fa 323d 1ab5 853d 26aa a4be 7f93 ecbd

architecture.4.bias f4 [9]
-0.06655916 0.0165667 -0.0350228 0.63717306 0.07631939 -0.08382069 -0.018591259 0.56477296
-0.13278309
00000000: 2b50 88bd e3b6 873c 1174 0fbd c61d 233f
00000010: 574d 9c3d 2faa abbd b24c 98bc f694 103f
00000020: 4af8 07be

std f4 [9]
0.2 0.2 0.2 0.2 0.2 0.2 0.2 0.2
0.2
00000000: cdcc 4c3e cdcc 4c3e cdcc 4c3e cdcc 4c3e
00000010: cdcc 4c3e cdcc 4c3e cdcc 4c3e cdcc 4c3e
00000020: cdcc 4c3e

architecture.0.weight f4 [64, 27]
-0.054067552 0.0070892116 -0.00846567 0.21844183 0.36151603 -0.39481193 -0.36744064 -0.54759556
-0.92267567 0.07911922 0.13511348 -0.04256677 0.021997556 0.040304 0.04438101 0.069546565
-0.07609754 -0.24274647 -0.036164526 -0.3855957 0.32554904 0.30411112 0.53395367 0.912417
-0.19264756 -0.123411275 0.07220662 0.0047125383 0.029976597 0.030697936 -0.017257 0.043903843
0.06226139 0.028754355 -0.3814545 0.2639995 0.038467247 -0.22099292 -0.008766626 0.16979282
0.18388116 -0.0072959303 -0.005144235 -0.029202694 -0.01644846 -0.32937595 0.12135282 0.13771886
-0.10990481 0.48171535 0.14115188 0.053704303 -0.059581585 -0.14665851 -0.13666385 -0.13257736
-0.10123687 0.17249277 -0.3438225 0.3328392 0.326094 0.38800547 -0.1995797 0.13389018
-0.25607455 0.059587635 -0.048487853 -0.058120627 -0.066634506 0.2083526 -0.023172151 0.057890035
-0.099439904 0.30613637 -0.48254675 -0.14865252 -0.43959266 0.22862281 0.022404552 0.008038512
-0.11457538 0.06340361 -0.11022577 0.25803906 -0.3914468 0.15175878 0.24084783 0.11012611
-0.14797693 0.1663459 -0.39387137 0.4157732 0.31790647 0.0013159785 -0.061978564 -0.03152056
0.01762425 -0.016367683 0.012793129 0.3534745 -0.22467326 -0.11034241 -0.15141895 0.14843558
-0.20070888 0.43501237 -0.34454343 -0.26758066 0.033143353 -0.013647683 -0.06407216 0.01624722
0.042241786 -0.23805277 -0.22422935 0.15138133 0.031355027 0.056826353 -0.13585356 -0.12934741
0.09065358 0.06333843 -0.04441585 -0.025659844 0.0023669163 0.023656068 -0.08458482 -0.19174936
0.00019836432 0.07401645 -0.11375867 0.13218199 0.055994302 0.017235858 -0.24157245 -0.012082747
-0.030920723 0.0015138586 0.09995201 -0.04017891 -0.013253462 -0.0005542931 0.113166906 -0.033303462
0.018942606 0.044849895 0.024071224 0.20147383 0.42444596 0.606694 0.044289254 -0.10017622
-0.03527771 -0.020617802 0.04805685 0.016756294 -0.021302175 -0.057858523 0.00093465555 -0.042053647
-0.016583782 -0.0008656313 -0.022554962 0.0009849124 0.040436763 -0.20792884 0.11852953 0.038824372
-0.16441551 -0.08673966 0.030356405 0.027539691 -0.06710389 -0.18878956 -0.06784625 -0.12019892
0.07119275 -0.0017668717 -0.024551783 -0.011049578 0.064209625 0.008918959 0.1748584 0.0011113114
0.09742798 0.12354925 -0.10283844 -0.03481955 0.09417436 -0.025885796 0.045582145 -0.020366888
0.065605395 -0.13476904 0.21395269 -0.04886626 0.27129504 -0.08366641 0.109501526 -0.037662026
0.0030025754 0.1794622 -0.5643903 0.17300268 0.023977503 -0.0010891133 0.11416149 -0.13258508
0.040396262 -0.08527123 0.014052996 -0.080641374 -0.16273813 -0.098225184 0.033677936 0.0024622702
-0.05627285 -0.025818447 -0.19821054 0.04686255 0.22820337 -0.20501715 -0.051356375 0.16402584
0.13465874 -0.17556173 -0.040995024 -0.14948212 -0.011580941 -0.009409977 -0.23518221 0.07067242
0.10277749 0.056690983 -0.11549206 -0.21057175 0.41845405 0.1288925 -0.040759455 -0.05877046
-0.0018240605 -0.100632824 -0.2652887 0.3057842 -0.022643 -0.058038384 0.007188596 0.35664862
-0.061470423 0.0063809757 -0.2322291 0.38354856 0.23655412 -0.30293983 0.4167778 0.014476235
00000000: f075 5dbd 9e4c e83b 98b3 0abc 37af 5f3e
00000010: a118 b93e ca24 cabe 2e21 bcbe 392f 0cbf
00000020: 7934 6cbf 4209 a23d 305b 0a3e 7e5a 2ebd
00000030: 3834 b43c cf15 253d ddc8 353d 6e6e 8e3d
00000040: 07d9 9bbd 8892 78be 4121 14bd cd6c c5be
00000050: 5dae a63e 74b4 9b3e 30b1 083f 2994 693f
00000060: 6745 45be 0dbf fcbd 10e1 933d a36b 9a3b
00000070: 7b91 f53c 3d7a fb3c 8d5e 8dbc 84d4 333d
00000080: cd05 7f3d 418e eb3c 014e c3be f12a 873e
00000090: d58f 1d3d f84b 62be e5a1 0fbc 2bde 2d3e
000000a0: 584b 3c3e b312 efbb f990 a8bb 7d3a efbc
000000b0: ecbe 86bc f7a3 a8be d487 f83d 2c06 0d3e
000000c0: c615 e1bd 65a3 f63e 1e8a 103e 0bf9 5b3d
000000d0: d20b 74bd a62d 16be 9cf1 0bbe 5cc2 07be
000000e0: 4755 cfbd f2a1 303e 8109 b0be e669 aa3e
000000f0: cbf5 a63e a7a8 c63e 9f5e 4cbe 821a 093e
00000100: 341c 83be 2a12 743d 339b 46bd e50f 6ebd
00000110: ac77 88bd 625a 553e 86d3 bdbc 1a1e 6d3d
00000120: 26a7 cbbd e8bd 9c3e 5e10 f7be 5e38 18be
00000130: 4a12 e1be 191c 6a3e c089 b73c f7b3 033c
00000140: 7fa6 eabd c0d9 813d 0cbe e1bd b21d 843e
00000150: b76b c8be a766 1b3e d0a0 763e cc89 e13d
00000160: 4487 17be 9456 2a3e 82a9 c9be 3ae0 d43e
00000170: a3c4 a23e e97c ac3a 3cdd 7dbd b41b 01bd
00000180: bb60 903c 8515 86bc 469a 513c 9cfa b43e
00000190: bf10 66be 34fb e1bd 920d 1bbe 7fff 173e
000001a0: a186 4dbe f1b9 de3e ff67 b0be 5500 89be
000001b0: 53c1 073d 889a 5fbc 4438 83bd e418 853c
000001c0: b905 2d3d 1bc4 73be 619c 65be b503 1b3e
000001d0: 216e 003d c0c2 683d 321d 0bbe a673 04be
000001e0: 96a8 b93d 94b7 813d 65ed 35bd 9834 d2bc
000001f0: 441e 1b3b 5fca c13c ce3a adbd f259 44be
00000200: 0400 5039 f095 973d 4efa e8bd b75a 073e
00000210: 485a 653d 3732 8d3c c55e 77be b7f6 45bc
00000220: 754d fdbc aa6c c63a a4b3 cc3d a492 24bd
00000230: 0c25 59bc fb4d 11ba 0dc4 e73d 3669 08bd
00000240: 862d 9b3c 86b4 373d 0431 c53c 284f 4e3e
00000250: fb50 d93e 4c50 1b3f a668 353d 3129 cdbd
00000260: 5c7f 10bd aae6 a8bc 42d7 443d 7f44 893c
00000270: e681 aebc 0ffd 6cbd ac03 753a 7240 2cbd
00000280: b6da 87bc 88eb 62ba 2fc5 b8bc 2d18 813a
00000290: 05a1 253d 4ceb 54be 9cbf f23d 4e06 1f3d
000002a0: 8a5c 28be 90a4 b1bd ffad f83c eb9a e13c
000002b0: c46d 89bd 0d52 41be faf2 8abd da2a f6bd
000002c0: 81cd 913d 6096 e7ba d220 c9bc 4a09 35bc
000002d0: 5680 833d d320 123c 150e 333e 6ca9 913a
000002e0: 5288 c73d 6407 fd3d f69c d2bd f29e 0ebd
000002f0: 7dde c03d 730e d4bc 58b4 3a3d 76d8 a6bc
00000300: 1f5c 863d e500 0abe 6a16 5b3e fd27 48bd
00000310: 2fe7 8a3e 4b59 abbd 5642 e03d 7f43 1abd
00000320: dbc6 443b f0c4 373e e27b 10bf 9d27 313e
00000330: 786c c43c 94c0 8eba 80cd e93d 62c4 07be
00000340: 8d76 253d afa2 aebd 8a3e 663c 4e27 a5bd
00000350: d3a4 26be 492a c9bd e0f1 093d 0a5e 213b
00000360: 5c7e 66bd 3581 d3bc b4f7 4abe f2f2 3f3d
00000370: 25ae 693e 04f0 51be 105b 52bd 64f6 273e
00000380: fbe3 093e 74c6 33be 66ea 27bd d711 19be
00000390: fdbd 3dbc 4e2c 1abc 9bd3 70be b4bc 903d
000003a0: 017d d23d ce34 683d 1a87 ecbd 1fa0 57be
000003b0: 9c3f d63e 65fc 033e 63f3 26bd 4bb9 70bd
000003c0: 5015 efba 9518 cebd ecd3 87be bf8f 9c3e
000003d0: d07d b9bc a8b9 6dbd 508e eb3b a69a b63e
000003e0: 69c8 7bbd 8117 d13b 77cd 6dbe 7a60 c43e
000003f0: 3e3b 723e ee1a 9bbe e663 d53e bb2d 6d3c

architecture.0.bias f4 [64]
-0.090788715 -0.85729146 0.35303012 1.2641443 0.66603833 -1.0108473 -1.2772726 0.8887884
0.3109066 1.4143087 -0.69876325 0.3926087 1.1928575 0.5734101 -1.1697149 0.54662794
0.4096827 0.5560783 -0.99862206 -1.0733775 -1.124745 -1.3311976 -1.1896453 0.07885409
-0.6429067 0.2597672 -1.2098316 -0.6791639 -0.58754116 -1.0109648 -0.7908469 -0.67228055
-1.2987413 0.35277772 -0.33260563 0.7898475 0.9502772 -0.28553578 -1.2490964 -0.14873925
0.017683472 1.0773289 -0.84109104 0.630231 -0.20720243 -1.1181284 0.8524788 0.89357144
0.016856737 0.73522776 -1.0197518 0.8675844 -1.3245897 1.2815117 0.2372875 -1.211102
-0.8777879 1.0847241 0.09949471 -0.98216575 0.19499004 -0.26233307 -0.40352514 -0.15857461
00000000: 6fef b9bd 7477 5bbf 5dc0 b43e 7bcf a13f
00000010: 7d81 2a3f 7263 81bf ab7d a3bf a387 633f
00000020: 262f 9f3e 1108 b53f 26e2 32bf 0204 c93e
00000030: 8eaf 983f 01cb 123f 38b9 95bf cfef 0b3f
00000040: eec1 d13e 265b 0e3f b2a5 7fbf 6f64 89bf
00000050: a5f7 8fbf af64 aabf 4c46 98bf 417e a13d
00000060: 8995 24bf 3500 853e c3db 9abf afdd 2dbf
00000070: 1969 16bf 4b67 81bf f174 4abf 941a 2cbf
00000080: 283d a6bf 489f b43e 494b aabe 7233 4a3f
00000090: 5e45 733f bf31 92be 64e2 9fbf 1a4f 18be
000000a0: eedc 903c eae5 893f be51 57bf d256 213f
000000b0: e02c 54be d51e 8fbf 0d3c 5a3f 19c1 643f
000000c0: 2417 8a3c e337 3c3f 3a87 82bf 031a 5e3f
000000d0: 288c a9bf 9308 a43f 7ffb 723e 6405 9bbf
000000e0: b5b6 60bf 3dd8 8a3f e2c3 cb3d 376f 7bbf
000000f0: 78ab 473e 8550 86be d99a cebe 6261 22be

architecture.2.weight f4 [64, 64]
-0.46519262 -0.46261406 0.19973527 -0.59053737 0.50265783 0.07212993 0.30414274 0.045556653
0.3268671 -0.6936356 -0.23007761 0.028991997 -0.22101296 0.10104315 0.41538718 0.24710967
0.073706225 -0.651064 0.5309191 -0.20552929 0.106799856 -0.4383846 0.43805555 -0.034827605
-0.21946478 -0.00032312254 0.6761344 -0.12443944 0.046032775 0.35197285 0.20488471 0.065300085
0.7217735 0.3775609 -0.08460301 0.24153863 0.050728917 -0.08141231 0.33757243 -0.14104941
0.2771383 0.0971579 0.08795382 0.929996 -0.08233894 0.5238358 0.5245391 0.21167505
0.14888324 0.22618091 0.02120484 0.146842 -0.17066883 0.16962495 0.30671173 0.59363294
0.034199 -0.3059578 -0.7973534 0.009591069 0.20930994 0.5098121 -0.27825227 0.13100906
-0.37682313 -0.6983641 0.37544197 0.6697063 0.53196317 -0.53409654 -0.9119478 0.3980988
0.4160124 0.40373164 -0.5850691 0.42510667 0.18707134 0.18960364 -0.47825477 0.23635826
0.01549605 0.32438263 -0.50172424 -1.0151697 -0.5322993 -1.0370954 -0.5404794 -0.05106426
-0.26942554 -0.08776717 -0.39868638 0.30280563 -0.3028975 -0.65067714 -0.4780373 -0.56559443
-0.6777133 0.24750386 -0.5396571 0.4971778 0.24008894 -0.41234 -0.1884361 -0.11286306
0.1690673 0.4788795 -0.3470598 0.0048367335 -0.19694154 0.052360043 -0.14997068 0.31931886
-0.22473116 0.15255536 -0.47897857 -0.03088982 -0.5803558 0.7371619 -0.00720293 -0.667049
-0.32313508 0.82822984 -0.3019647 -0.49311933 -0.13211535 -0.27330136 0.094166994 -0.014345108
0.53205746 0.67226714 -0.45885795 -0.96714497 -0.3310961 0.61651486 0.6360164 -0.6145139
-0.44051448 -0.66592187 0.35416186 -0.3267581 -0.18623175 -0.3810961 0.4986087 -0.5489379
-0.2028525 -0.21588105 0.8096325 0.74060816 0.20895629 0.8894572 0.23512675 -0.10869441
0.30972853 -0.0573842 0.39988106 -0.15069081 0.112530075 0.55749375 0.7279658 0.5606087
0.82835203 -0.024342574 0.53567034 -0.3524609 -0.29368106 0.6497045 -0.104181744 0.31387842
0.10501169 -0.8427733 0.42938957 -0.03147823 -0.15856798 -0.12243138 -0.04093315 -0.50931776
0.028193876 -0.12194763 0.007383585 -0.370589 0.57689464 -0.71670014 -0.1280048 0.11048608
0.65446436 -1.4292848 0.4379516 0.7997254 0.24755962 0.45399004 -0.10762523 0.006312902
-0.15621012 -0.23254916 -0.4170211 0.8343376 -0.052623194 -0.017732602 0.28081083 0.106022894
0.3584495 0.5994912 -0.044541184 0.10171523 0.2430281 -0.41575313 -0.5496791 -0.06512905
0.60657054 -0.6938776 -0.5448457 0.5784299 0.27105787 0.2982773 -0.5014558 -0.023487138
0.44836104 -0.23817077 -0.8506527 0.29295585 -0.09428851 0.43278974 -0.10513705 0.2256272
-0.74571216 0.07641616 0.40160534 0.07192741 -0.095648386 0.18595037 0.015825333 0.35274842
0.11799985 0.5150635 -0.1381683 0.39985996 0.55899495 -0.67956924 0.3860907 -0.059108827
-0.104856946 -0.26415777 -0.39740655 -0.19037382 0.52414674 -0.5223438 0.26761243 -0.6364314
0.25088915 -0.059074417 -0.11859528 -0.071148865 0.22775982 0.14740288 -0.35710466 -0.38821977
00000000: ba2d eebe c0db ecbe 6787 4c3e 752d 17bf
00000010: 2fae 003f dbb8 933d 99b8 9b3e 9d99 3a3d
00000020: 205b a73e 1a92 31bf 7799 6bbe a080 ed3c
00000030: 3951 62be b6ef ce3d a1ad d43e 510a 7d3e
00000040: 4af3 963d 21ac 26bf 50ea 073f 4576 52be
00000050: e2b9 da3d f273 e0be d148 e03e 64a7 0ebd
00000060: 60bb 60be c668 a9b9 2517 2d3f 1bda febd
00000070: dd8c 3c3d c935 b43e 4ccd 513e 0dbc 853d
00000080: 26c6 383f aa4f c13e 5844 adbd e755 773e
00000090: 20c9 4f3d 7fbb a6bd 4bd6 ac3e 426f 10be
000000a0: 12e5 8d3e b9fa c63d 2221 b43d 3814 6e3f
000000b0: 51a1 a8bd 1a1a 063f 3248 063f 58c1 583e
000000c0: d974 183e f89b 673e c6b5 ad3c c05d 163e
000000d0: cfc3 2ebe 2ab2 2d3e 5209 9d3e 54f8 173f
000000e0: 4014 0c3d 80a6 9cbe 5a1f 4cbf dc23 1d3c
000000f0: 5855 563e 0c83 023f 1577 8ebe 3d27 063e
00000100: f6ee c0be fdc7 32bf ee39 c03e df71 2b3f
00000110: bd2e 083f 8dba 08bf 6975 69bf 9bd3 cb3e
00000120: 94ff d43e eab5 ce3e 17c7 15bf 95a7 d93e
00000130: a18f 3f3e 7527 423e cfdd f4be e607 723e
00000140: 25e3 7d3c 7b15 a63e 0071 00bf 15f1 81bf
00000150: c444 08bf 8bbf 84bf dc5c 0abf c228 51bd
00000160: 25f2 89be 46bf b3bd 9f20 ccbe 5709 9b3e
00000170: 6215 9bbe c792 26bf 4ec1 f4be ccca 10bf
00000180: 9e7e 2dbf a771 7d3e f826 0abf 178e fe3e
00000190: e0d9 753e 3a1e d3be 65f5 40be bf24 e7bd
000001a0: fa1f 2d3e b22f f53e d2b1 b1be 767d 9e3b
000001b0: 0bab 49be 7c77 563d ea91 19be c37d a33e
000001c0: ed1f 66be 7937 1c3e ae3c f5be a60c fdbc
000001d0: 3392 14bf a4b6 3c3f 8e06 ecbb b9c3 2abf
000001e0: f671 a5be df06 543f 1e9b 9abe 237a fcbe
000001f0: 3f49 07be 28ee 8bbe a0da c03d be07 6bbc
00000200: eb34 083f b319 2c3f 6eef eabe d096 77bf
00000210: 6e85 a9be ebd3 1d3f f9d1 223f c850 1dbf
00000220: 1d8b e1be db79 2abf b454 b53e d64c a7be
00000230: 89b3 3ebe 071f c3be a449 ff3e 3287 0cbf
00000240: 91b8 4fbe ec0f 5dbe 1344 4f3f 7f98 3d3f
00000250: a3f8 553e 78b3 633f 11c5 703e 2d9b debd
00000260: bd94 9e3e b20b 6bbd 36bd cc3e b14e 1abe
00000270: 2b76 e63d e9b7 0e3f f75b 3a3f 0d84 0f3f
00000280: e10e 543f 146a c7bc b121 093f c175 b4be
00000290: 5d5d 96be 0953 263f 3d5d d5bd acb4 a03e
000002a0: 5e10 d73d febf 57bf f3d8 db3e 51ef 00bd
000002b0: a55f 22be 4ebd fabd 85a9 27bd a662 02bf
000002c0: d8f6 e63c aebf f9bd 00f2 f13b d7bd bdbe
000002d0: 5eaf 133f a979 37bf b113 03be 8746 e23d
000002e0: fa8a 273f cef2 b6bf 313b e03e ceba 4c3f
000002f0: 4580 7d3e 6271 e83e 9e6a dcbd 76dc ce3b
00000300: 8cf5 1fbe 5e21 6ebe ca83 d5be 2697 553f
00000310: 6b8b 57bd f643 91bc 70c6 8f3e 8822 d93d
00000320: b186 b73e 4178 193f d170 36bd 1350 d03d
00000330: 5cdc 783e 98dd d4be c5b7 0cbf 6162 85bd
00000340: 3548 1b3f f6a1 31bf 027b 0bbf fb13 143f
00000350: 19c8 8a3e cdb7 983e 685f 00bf 1968 c0bc
00000360: 948f e53e 0ae3 73be 60c4 59bf 4ffe 953e
00000370: 561a c1bd 9e96 dd3e 1852 d7bd d10a 673e
00000380: fee6 3ebf 1380 9c3d 379f cd3e ae4e 933d
00000390: 4de3 c3bd c669 3e3e 21a4 813c 719b b43e
000003a0: e8a9 f13d 34db 033f fe7b 0dbe 72ba cc3e
000003b0: 4b1a 0f3f 40f8 2dbf aead c53e 191c 72bd
000003c0: 3dbf d6bd b03f 87be df78 cbbe 5bf1 42be
000003d0: 7b2e 063f 53b8 05bf 7f04 893e 2bed 22bf
000003e0: 8b74 803e 04f8 71bd 15e2 f2bd 7fb6 91bd
000003f0: df39 693e c8f0 163e 6cd6 b6be bec4 c6be

architecture.2.bias f4 [64]
0.33512512 1.0325346 -1.2593766 -0.364336 0.1318507 -1.16771 1.1303682 -0.7682829
-1.2933745 0.64537376 0.63236845 -1.2799019 -1.0537896 0.41924047 0.04343495 0.56370926
1.246342 0.49622843 -0.47501403 1.2208599 0.3211229 -0.86524564 0.40503842 1.2860683
-0.43156758 0.50569403 1.3409725 -0.18197772 -0.74906236 -0.34725198 -1.2410549 -0.29720864
-1.2571303 0.3354844 0.515136 -1.2189974 -1.2468145 1.4457453 -0.5407548 -0.66368246
-0.39738047 -1.2761941 -0.7102615 0.5572209 -1.2058654 0.5119829 -0.30317557 0.7567908
-0.41744018 1.1835426 1.4318738 -0.41885838 -1.2596364 -0.9022899 -0.7793617 0.2812552
0.35190856 0.4836714 -0.4161299 0.9883301 -0.7530912 0.53634083 -1.169748 1.2363801
00000000: 8595 ab3e 182a 843f 4133 a1bf 408a babe
00000010: df03 073e 8577 95bf e8af 903f 30ae 44bf
00000020: 4c8d a5bf 3737 253f e6e2 213f d3d3 a3bf
00000030: 94e2 86bf b0a6 d63e d9e8 313d 404f 103f
00000040: 2288 9f3f a711 fe3e 0a35 f3be 2345 9c3f
00000050: 396a a43e bd80 5dbf 3261 cf3e e39d a43f
00000060: 6df6 dcbe 2a75 013f fda4 ab3f 5e58 3abe
00000070: 8dc2 3fbf 03cb b1be e3da 9ebf bb2b 98be
00000080: a5e9 a0bf 9cc4 ab3e f4df 033f 1b08 9cbf
00000090: 9e97 9fbf 2f0e b93f e86e 0abf 18e7 29bf
000000a0: 7475 cbbe 545a a3bf b3d3 35bf 07a6 0e3f
000000b0: cc59 9abf 5011 033f d439 9bbe 0bbd 413f
000000c0: b8ba d5be 537e 973f a447 b73f 9b74 d6be
000000d0: c43b a1bf 79fc 66bf 4084 47bf ae00 903e
000000e0: 5c2d b43e c7a3 f73e fa0e d5be 3403 7d3f
000000f0: 96ca 40bf a24d 093f 4dba 95bf b441 9e3f

architecture.4.weight f4 [1, 64]
-7.985368 -5.1948223 5.1671867 7.9068 -7.1078606 5.143901 -5.1144905 5.2043037
5.2132406 -5.3502035 -5.083141 5.248204 5.243817 -7.921007 -6.6404734 -6.482857
-5.3540354 -7.602131 6.482405 -5.33605 -6.810664 6.3836093 -6.6689234 -5.199522
6.615633 -8.303679 -5.111432 7.3293185 5.3694696 6.704831 5.1700687 7.9755235
5.1196146 -7.131458 -7.6138983 5.0955257 5.144717 -5.128195 4.891146 5.2202735
6.6494784 5.0752306 4.686168 -5.144701 5.233284 -7.6392236 6.024825 -5.429806
6.4206285 -5.167859 -5.0948915 7.626511 5.087964 4.998615 5.183722 -8.209474
-7.772134 -5.437674 7.49375 -5.5015597 5.165762 -5.2648115 5.0428295 -5.264427
00000000: 2288 ffc0 fc3b a6c0 9859 a540 8104 fd40
00000010: 9873 e3c0 d69a a440 e8a9 a3c0 a889 a640
00000020: ded2 a640 de34 abc0 17a9 a2c0 4af1 a740
00000030: 59cd a740 e478 fdc0 c27e d4c0 9173 cfc0
00000040: 4254 abc0 a844 f3c0 dd6f cf40 ecc0 aac0
00000050: f6f0 d9c0 8746 cc40 d267 d5c0 7c62 a6c0
00000060: 44b3 d340 dfdb 04c1 da90 a3c0 c789 ea40
00000070: b2d2 ab40 fa8d d640 3471 a540 7d37 ff40
00000080: e2d3 a340 e734 e4c0 0ea5 f3c0 8c0e a340
00000090: 86a1 a440 2c1a a4c0 4584 9c40 7b0c a740
000000a0: 87c8 d440 4a68 a240 17f5 9540 64a1 a4c0
000000b0: 1077 a740 8574 f4c0 5ecb c040 f9c0 adc0
000000c0: ca75 cd40 1a5f a5c0 5a09 a3c0 610c f440
000000d0: 9ad0 a240 a7f4 9f40 0de1 a540 015a 03c1
000000e0: 52b5 f8c0 6d01 aec0 cdcc ef40 c70c b0c0
000000f0: ec4d a540 5679 a8c0 dc5e a140 3076 a8c0

exp_avg f4 [64, 27]
-0.00024573537 8.020095e-06 -8.245845e-05 -4.1595362e-05 8.6815664e-05 -0.00021547133 0.00021486406 -8.8647124e-05
1.1272803e-05 4.3380633e-06 -0.00016051116 -0.00015161111 -7.179522e-06 0.0008876247 0.0001798526 -0.00040835765
0.0002716145 -0.00042375803 -5.9643644e-05 7.223687e-05 -0.00021347706 0.0002232705 -0.000100953395 -6.3693615e-06
-2.4094676e-05 -0.00016070345 -0.00014641884 -2.490024e-05 -5.2481686e-05 -1.9365727e-05 -6.527959e-05 4.378288e-05
-7.3789946e-05 0.0001313879 -0.0001948103 -5.3202737e-05 -8.3833365e-05 -8.882414e-05 -8.301172e-05 4.5713743e-05
0.00010873364 4.3206892e-05 7.660742e-05 -3.8901242e-05 -3.0298663e-05 -6.681028e-05 3.3026994e-05 -6.537631e-05
0.00012719235 -0.00019037588 -4.9926974e-05 -9.5776486e-05 -8.223397e-05 -6.5910295e-05 -3.1100757e-05 -0.00025299474
0.00013397059 0.0001825229 0.00011037241 -0.00053151004 0.00046241947 -0.00018988851 0.00010399055 0.00012756856
-0.00052247517 -8.8121655e-05 -4.0686486e-05 0.0012068427 0.00036002835 -0.0003654467 0.00047152658 -0.000680777
0.00021103713 7.6945245e-05 -0.0005398717 0.0004429688 -0.00021232475 9.408277e-05 7.537757e-05 -0.00052865647
-3.8520746e-05 0.00010893125 -8.292792e-07 0.0001463348 1.00885345e-05 3.2739765e-05 1.6953267e-05 -0.00014397042
-5.90533e-05 -2.2088985e-05 1.7603876e-05 9.8909375e-05 7.731687e-05 2.5302912e-05 -0.0002508004 -9.810385e-05
5.9551865e-05 -0.000113141046 0.00012235672 -1.6028178e-05 5.8911093e-05 3.555786e-05 -0.00012521382 -3.8098224e-05
-4.6767334e-05 2.1549064e-05 0.00010842829 5.7114983e-05 -5.9359245e-05 -6.89544e-05 1.0770072e-05 3.0936248e-05
5.1671697e-05 -4.5406632e-05 -4.2101692e-05 -2.5573694e-05 -3.1321353e-05 1.5276595e-05 1.235872e-05 4.257866e-05
-2.5004645e-06 2.9472649e-05 4.6958852e-05 -3.3309657e-06 2.3627765e-05 -5.5163542e-05 3.2844582e-05 5.0528033e-05
-5.3260243e-05 -4.504983e-05 -1.615784e-05 -2.4883282e-05 2.0914962e-05 4.193659e-06 5.0256105e-05 0.000106978805
-6.6388435e-05 -0.00014049225 -6.215123e-05 -0.00010785148 0.00017034792 -0.00012023558 -5.5928685e-06 -2.4409777e-05
-4.5124903e-05 0.00010616398 4.5293913e-05 -4.5202847e-05 -0.00024528216 -7.222717e-05 2.4759986e-05 9.705037e-05
0.00020992095 -6.306904e-05 -8.966028e-05 0.00017577669 -0.000114704264 -1.4576738e-05 -9.179677e-06 -3.1465104e-05
0.0001185197 2.4307132e-05 -0.00016540516 -4.577899e-05 -0.00024848475 -2.099618e-05 -1.794709e-05 -0.00019280871
0.00034133886 -0.00021259853 6.2442e-06 -0.00014364961 -0.00026497492 -0.00020467091 -7.122016e-05 0.00016380381
1.9495248e-05 -0.0001385167 -5.9083242e-05 0.00010401113 -4.4470566e-05 -9.052128e-06 -0.00018924479 0.00034066665
-0.00022892482 5.208644e-06 -0.00013650613 -0.00024217844 -0.0002154398 0.00013584763 -0.0001485078 -8.7906024e-05
-4.576324e-05 4.535608e-06 -0.00010353275 0.00015082692 -9.783329e-05 7.0435526e-05 -2.6705524e-05 -0.0001634403
-8.1476486e-05 3.6887373e-06 0.0001579782 1.6427686e-05 5.1920553e-05 7.687527e-05 -4.0695468e-05 -2.9557496e-05
-1.3572092e-05 -0.00010454013 0.00015005053 -0.00012116208 9.644817e-05 -3.3668846e-05 -0.00016367811 -7.201331e-05
0.00012719556 -4.6356025e-05 0.00012265777 3.4661796e-05 9.457153e-05 -0.0001444433 7.7242636e-05 -7.286204e-05
5.2970787e-05 8.9842586e-05 -6.452003e-05 2.0335197e-05 -3.0078447e-05 -2.3924651e-05 5.280076e-05 8.168295e-05
1.1086747e-06 -2.5677056e-05 3.2945067e-05 0.000102584956 -0.00013501823 8.229787e-05 -7.161292e-05 4.6631278e-05
8.201585e-05 -5.7586018e-05 1.6262784e-05 -4.283143e-05 -5.4050357e-05 -5.9488906e-05 -1.3693888e-05 -5.462602e-06
-3.269676e-05 7.496344e-05 3.0555716e-06 2.3348874e-05 -9.155061e-05 -5.3503405e-05 -4.268098e-05 -2.8179307e-05
00000000: 0bd6 80b9 0c8e 0637 8bed acb8 ae76 2eb8
00000010: ce10 b638 25f0 61b9 224d 6139 10e8 b9b8
00000020: 5220 3d37 ae8f 9136 e34e 28b9 ccf9 1eb9
00000030: a0e7 f0b6 7caf 683a d196 3c39 d618 d6b9
00000040: 7b67 8e39 d72b deb9 e029 7ab8 e07d 9738
00000050: d0d8 5fb9 b81d 6a39 f1b6 d3b8 66b8 d5b6
00000060: ec1e cab7 8182 28b9 0288 19b9 dce0 d0b7
00000070: c81f 5cb8 9573 a2b7 b7e6 88b8 82a3 3738
00000080: adbf 9ab8 2cc5 0939 fe45 4cb9 0126 5fb8
00000090: b2cf afb8 1947 bab8 9416 aeb8 c2bc 3f38
000000a0: ee07 e438 0c39 3538 4ca8 a038 e429 23b8
000000b0: e229 feb7 7f1c 8cb8 7786 0a38 a41a 89b8
000000c0: f05e 0539 a39f 47b9 ae68 51b8 9cdb c8b8
000000d0: 0775 acb8 5239 8ab8 2f72 02b8 61a4 84b9
000000e0: 757a 0c39 9e63 3f39 bd77 e738 0955 0bba
000000f0: e470 f239 cf1c 47b9 8015 da38 edc3 0539
00000100: b7f6 08ba f4cd b8b8 c8a6 2ab8 ec2e 9e3a
00000110: 30c2 bc39 6d99 bfb9 3a37 f739 2c76 32ba
00000120: d949 5d39 aa5d a138 2d86 0dba 443e e839
00000130: 7ea3 5eb9 4d4e c538 0614 9e38 8995 0aba
00000140: 5691 21b8 0572 e438 a29b 5eb5 7371 1939
00000150: ed41 2937 0e52 0938 dd36 8e37 c4f6 16b9
00000160: 00b0 77b8 bc4b b9b7 09ac 9337 916d cf38
00000170: 2e25 a238 9741 d437 dc7d 83b9 1abd cdb8
00000180: 54c7 7938 2346 edb8 e24c 0039 4074 86b7
00000190: 4e17 7738 f623 1538 d44b 03b9 a8cb 1fb8
000001a0: 0b28 44b8 43c4 b437 ff63 e338 bf8e 6f38
000001b0: 81f8 78b8 9d9b 90b8 1bb1 3437 8bc1 0138
000001c0: 10ba 5838 0073 3eb8 5996 30b8 1787 d6b7
000001d0: 0c5f 03b8 3d26 8037 4c58 4f37 7d96 3238
000001e0: a7cd 27b6 083c f737 aff5 4438 8e89 5fb6
000001f0: 3d34 c637 675f 67b8 9ac2 0938 10ee 5338
00000200: c063 5fb8 e3f3 3cb8 b28a 87b7 71bc d0b7
00000210: 8a72 af37 42b7 8c36 15ca 5238 cf59 e038
00000220: 053a 8bb8 1a51 13b9 3057 82b8 532e e2b8
00000230: 6c9f 3239 fc26 fcb8 60aa bbb6 99c3 ccb7
00000240: 7f44 3db8 5aa4 de38 f8f9 3d38 3098 3db8
00000250: 3799 80b9 ab78 97b8 aab3 cf37 8587 cb38
00000260: 3a1e 5c39 ef43 84b8 ff07 bcb8 b250 3839
00000270: 628d f0b8 9d8e 74b7 6a02 1ab7 66f9 03b8
00000280: c88d f838 2be7 cb37 9c70 2db9 d102 40b8
00000290: 0f47 82b9 f420 b0b7 158d 96b7 b22c 4ab9
000002a0: baf5 b239 fcec 5eb9 4585 d136 a6a0 16b9
000002b0: 55ec 8ab9 ee9c 56b9 085c 95b8 c0c2 2b39
000002c0: ba89 a337 cb3e 11b9 26d0 77b8 8d20 da38
000002d0: e885 3ab8 98de 17b7 0370 46b9 819b b239
000002e0: 8a0b 70b9 e9c5 ae36 1623 0fb9 48f1 7db9
000002f0: aee7 61b9 5272 0e39 c2b8 1bb9 305a b8b8
00000300: e8f1 3fb8 9330 9836 b91f d9b8 4b27 1e39
00000310: d92b cdb8 c9b6 9338 ad05 e0b7 2c61 2bb9
00000320: 5bde aab8 068c 7736 f3a6 2539 30ce 8937
00000330: 45c5 5938 1938 a138 6db0 2ab8 3df2 f7b7
00000340: b1b3 63b7 8e3c dbb8 e256 1d39 6518 feb8
00000350: 3844 ca38 a637 0db8 02a1 2bb9 da05 97b8
00000360: cc5f 0539 676e 42b8 b29d 0039 d261 1138
00000370: b454 c638 b475 17b9 53fd a138 83cd 98b8
00000380: f32c 5e38 df69 bc38 ed4e 87b8 8195 aa37
00000390: f950 fcb7 ccb1 c8b7 6276 5d38 334d ab38
000003a0: c6cd 9435 0f65 d7b7 7f2e 0a38 e122 d738
000003b0: ae93 0db9 5597 ac38 e52e 96b8 f495 4338
000003c0: edff ab38 8488 71b8 106c 8837 e6a5 33b8
000003d0: 21b4 62b8 ba83 79b8 cdbe 65b7 654b b7b6
000003e0: e123 09b8 b135 9d38 520e 4d36 53dd c337
000003f0: dcfe bfb8 d868 60b8 5a04 33b8 9a62 ecb7
