raisimGymTorch/data/ouzel_only_planning/2022-05-09-12-17-53/full_2000.pt (torch, 161968 bytes, 36 tensors)

architecture.0.weight f4 [64, 27]
0	0xbcee4947	-0.029087676
1	0xbe64d992	-0.22348621
2	0x3e73edcb	0.2382118
3	0x3e076d27	0.13225232
4	0xba8198a8	-0.0009887414
5	0xbe83d146	-0.257456
6	0xbec91715	-0.39275423
7	0x3ef53c11	0.4789739
8	0x3d446fde	0.047958247
9	0x3e5a7820	0.21334887
10	0x3dcdcaed	0.10048471
11	0xbda1eed2	-0.079068795
12	0x3e86ad92	0.263043
13	0xbe6db2a6	-0.2321268
14	0xbdbd6a3f	-0.092487805
15	0xbe867059	-0.2625759
16	0x3e159e86	0.14611253
17	0x3ecea3aa	0.4035924
18	0xbcec74a4	-0.028864212
19	0xbe527448	-0.2055217
20	0xbbb1f8ae	-0.0054312563
21	0xbe0599f0	-0.13047004
22	0x3d6f4661	0.058416728
23	0x3bad10c7	0.005281541
24	0x3e007d99	0.12547912
25	0xbe3cb250	-0.18427396
26	0xbb72f66f	-0.0037073155
27	0x3e0d4cba	0.137988
28	0x3dc32bcb	0.09529837
29	0xbe7019f4	-0.234474
30	0x3cb432e3	0.02199692
31	0x3dfc5273	0.123204134
32	0xbdc2fc9d	-0.095208384
33	0xbe34d4e1	-0.17659332
34	0xbcc2927b	-0.023751488
35	0x3d3bb816	0.045829855
36	0x3e27c5fa	0.16384116
37	0xbe8d2992	-0.27570778
38	0x3deb122f	0.114780776
39	0xbc876097	-0.01652555
40	0x3e5cd089	0.21563925
41	0xbde134ab	-0.10996374
42	0xbc7e8252	-0.0155340005
43	0xbd17d437	-0.03706762
44	0xbdc37803	-0.09544375
45	0x3e37eb4d	0.17960854
46	0x3de8ad3d	0.113611676
47	0x3dd47232	0.103733435
48	0xbe931385	-0.2872583
49	0xbc76714f	-0.015041663
50	0xbe282b4c	-0.16422766
51	0xbea631b8	-0.32459807
52	0x3dd5a301	0.10431481
53	0xbe413b22	-0.18870214
54	0x3ebc08c3	0.36725435
55	0x3e4f5b4a	0.20249668
56	0x3e9bfeba	0.30467778
57	0x3ef53974	0.47895396
58	0x3dc8de3e	0.09808014
59	0xbd86b480	-0.065773964
60	0x3db08b49	0.086203165
61	0xbe5f213b	-0.2179002
62	0xbf039afb	-0.51408356
63	0x3de2e14a	0.11078127
64	0x3e0ade84	0.13561445
65	0x3d0ab3f4	0.033863023
66	0x3defa13b	0.11700674
67	0x3e3cdbf9	0.18443288
68	0xbe2951ed	-0.16535158
69	0xbd638bf9	-0.05555341
70	0xbd196c83	-0.037457
71	0x3d4c2baf	0.049846347
72	0xbdc28259	-0.09497518
73	0x3e17bf51	0.14819075
74	0x3dfce2f6	0.12347977
75	0x3e82c8b6	0.25543755
76	0x3e09fccf	0.13475345
77	0xbd51c377	-0.0512118
78	0x3d053774	0.032523587
79	0xbcdd83df	-0.02704042
80	0xbdfe9c96	-0.1243221
81	0xbe335f72	-0.17516878
82	0xbddceac6	-0.10786967
83	0xbd76b401	-0.06023026
84	0x3dd29e0d	0.10284052
85	0xbcf2cb52	-0.029637966
86	0x3ecdb201	0.4017487
87	0x3cc20a0c	0.023686431
88	0xbde219be	-0.11040066
89	0x3e472edc	0.19451469
90	0x3d188792	0.037238665
91	0xbed11a77	-0.40840504
92	0x3b6b5601	0.0035909417
93	0xbe9a4b9a	-0.30135804
94	0x3da561d8	0.08075303
95	0xbca93711	-0.02065614
96	0x3e723187	0.23651706
97	0xbe459907	-0.19296657
98	0x3db06df5	0.08614723
99	0x3d16d93f	0.036828276
100	0x3d9873d2	0.07443966
101	0x3e590d78	0.21196544
102	0x3d5ebdc2	0.054380186
103	0xbe208fc6	-0.15679845
104	0x3e662ab6	0.2247723
105	0x3e766daa	0.24065271
106	0xbdc8a57e	-0.0979719
107	0xbe49360a	-0.1964952
108	0xbea6f4a6	-0.32608527
109	0x3ebe1c33	0.3713089
110	0xbdbe7b38	-0.09300846
111	0x3e0d4895	0.13797219
112	0xbda72a63	-0.081623815
113	0x3dd3f29c	0.103490084
114	0x3e943f9a	0.28954774
115	0x3b7cfd96	0.0038603297
116	0xbd0d7267	-0.03453293
117	0x3d7b1e6a	0.061308302
118	0xbe36bc8f	-0.17845367
119	0x3e63d1f8	0.22248065
120	0xbd992724	-0.074781686
121	0x3d09c8a0	0.033638597
122	0x3dbc9997	0.092089824
123	0xbe0b1bf4	-0.13584882
124	0xbc9aa535	-0.018877605
125	0x3e6ef881	0.23336984
126	0x3e58a4a8	0.21156561
127	0x3d970efe	0.073759064
128	0xbdfc387b	-0.1231546
129	0x3e89e8a6	0.2693531
130	0x3d46c3ba	0.048526503
131	0xbd87fa96	-0.06639592
132	0x3dd1d7e3	0.10246255
133	0xbd856f40	-0.0651536
134	0x3e084518	0.13307607
135	0x3e00971e	0.12557647
136	0xbc07330e	-0.0082519185
137	0xbe6557cd	-0.22396775
138	0x3dda3d06	0.106561705
139	0x3d04f6f5	0.03246208
140	0x3da2406a	0.07922442
141	0x3d527e9e	0.051390283
142	0x3e3ab3bf	0.1823263
143	0xbea650ba	-0.32483464
144	0x3cd91611	0.02649978
145	0xbc90cb94	-0.017675199
146	0x3eec3d95	0.46140733
147	0x3e3b2d2a	0.18278947
148	0xbd8841db	-0.06653186
149	0x3e0dccd6	0.1384767
150	0xbea8361e	-0.32853788
151	0xbdcb960d	-0.09940729
152	0x3c45014c	0.012024235
153	0xbe0ecbd1	-0.13944937
154	0xbe2d728f	-0.16938232
155	0xbea19dd0	-0.31565714
156	0x3e762f42	0.24041465
157	0xbe986c0e	-0.2976994
158	0xbd66c8f4	-0.056343988
159	0xbd852af3	-0.065023325
160	0x3d40346b	0.04692499
161	0x3dcc9382	0.099890724
162	0xbdaa0d48	-0.083033144
163	0xbea04b51	-0.31307462
164	0xbe40774f	-0.18795513
165	0x3e316938	0.17325294
166	0xbdf07bbe	-0.11742352
167	0xbcb3d5a5	-0.02195246
168	0xbdc60466	-0.09668808
169	0x3e04b416	0.12959322
170	0xbdfb551a	-0.12272091
171	0x3dd6c4e5	0.104867734
172	0xbe0fc29c	-0.14039081
173	0x3d11b7ef	0.035575803
174	0x3e997359	0.29970816
175	0x3e6a9b01	0.22910692
176	0x3d3a7046	0.04551723
177	0x3e3e372a	0.18575731
178	0xbde96230	-0.11395681
179	0xbe65099f	-0.22366951
180	0xbd680cdf	-0.0566529
181	0x3d276506	0.040867828
182	0xbd0ad342	-0.033892877
183	0x3ea99b66	0.33126372
184	0x3d6fd5aa	0.058553375
185	0x3e836a29	0.2566693
186	0xbe08145f	-0.13289021
187	0x3de3e32c	0.11127314
188	0xbe14cff0	-0.14532447
189	0xbde4c7e7	-0.11170941
190	0xbe043e80	-0.12914467
191	0xbcb5f5cb	-0.02221193
192	0x3eea27d0	0.457335
193	0xbd0e86d1	-0.03479654
194	0xbcd6bc5a	-0.02621286
195	0x3e1ecd3f	0.15507983
196	0x3e687d14	0.22703964
197	0xbe29d741	-0.16586019
198	0xbe027486	-0.12739763
199	0x393545b4	0.00017287472
200	0xbe86ef12	-0.2635427
201	0x3cf314a5	0.02967293
202	0x3e64f022	0.22357228
203	0x3e9874c7	0.29776594
204	0xbd9a40eb	-0.07531913
205	0xbe6c1a97	-0.23057018
206	0x3d8100a8	0.06298953
207	0x3c7f022e	0.0155644845
208	0x3e2167e2	0.15762284
209	0x3eb144a1	0.34622672
210	0xbd64756b	-0.05577604
211	0x3ca9b6b9	0.020717012
212	0xbe8b7c1a	-0.2724312
213	0xbc8a3f24	-0.01687581
214	0x3e1400d4	0.14453441
215	0x3cb92985	0.022602806
216	0xbd8e9314	-0.06961647
217	0x3c83e60b	0.016100904
218	0x3de33cea	0.11095603
219	0xbebc692c	-0.3679899
220	0x3e8d429d	0.27589884
221	0x3e824628	0.2544415
222	0x3e10ab03	0.14127736
223	0x3e1af4f1	0.151325
224	0xbe320ae7	-0.17386971
225	0xbc890efd	-0.01673078
226	0x3dbd28b9	0.09236283
227	0x3e0eb149	0.13934816
228	0x3ddc4bbe	0.10756634
229	0xbe93c6ee	-0.2886271
230	0x3ecf50b7	0.40491268
231	0x3d4dc279	0.05023429
232	0xbd915ed9	-0.07098169
233	0xbd23325e	-0.039842956
234	0x3ebdb4c3	0.37051973
235	0xbead6550	-0.33866358
236	0xbd094df5	-0.03352161
237	0x3df40374	0.11914721
238	0x3dda46a9	0.106580086
239	0x3df9667a	0.12177749
240	0xbe84e00c	-0.25952184
241	0xbdcf24d0	-0.10114443
242	0xbe29bf82	-0.1657696
243	0xbe52794a	-0.2055408
244	0xbe2439dd	-0.16037698
245	0x3b27d96c	0.0025611771
246	0xbe172c74	-0.14763051
247	0xbc8538da	-0.01626246
248	0xbdcc818d	-0.09985647
249	0x3c9db6d1	0.019252213
250	0xbe8326c3	-0.2561551
251	0xbeca3acc	-0.39497983
252	0xbe60c736	-0.21950993
253	0x3da0a1e0	0.07843375
254	0x3deeccf4	0.116601855
255	0xbddc5b22	-0.1075957

architecture.0.bias f4 [64]
0	0xbe8351c3	-0.25648317
1	0xbdb7fed1	-0.08984149
2	0x3d8fe312	0.07025732
3	0x3d80f194	0.06296077
4	0xbd8aa298	-0.067692935
5	0xbe952d76	-0.29136246
6	0xbed389a3	-0.41315946
7	0xbebc43c1	-0.36770442
8	0xbe65d7e5	-0.22445638
9	0x3e11ce1c	0.1423878
10	0xbead6d1f	-0.33872315
11	0x3d80e4e4	0.062936574
12	0x3ea5ee89	0.3240855
13	0xbeac98ef	-0.3371043
14	0x3e71c9a9	0.23612083
15	0x3e2a8929	0.16653885
16	0xbe90b35c	-0.2826184
17	0xbbd34c21	-0.0064482843
18	0xbec28052	-0.37988526
19	0x3e598766	0.21243057
20	0x3f06cec5	0.52659255
21	0xbed6509e	-0.4185838
22	0x3e773a6f	0.24143384
23	0xbecc843f	-0.39944646
24	0x3e078483	0.13234143
25	0x3c05fc2b	0.008177797
26	0xbe5369b0	-0.20645785
27	0xbec50370	-0.38479185
28	0xbd012b76	-0.03153559
29	0x3e55964d	0.20858116
30	0xbe5c022c	-0.21485204
31	0xbd53bc5d	-0.05169331
32	0xbe4162f3	-0.18885402
33	0xbe3444a6	-0.17604312
34	0xbe5734fe	-0.21016309
35	0x3ecd5c0e	0.40109295
36	0x3e84be70	0.25926542
37	0xbd64c0e5	-0.05584802
38	0x3d419798	0.04726371
39	0xbbddc228	-0.00676753
40	0xbe474f2b	-0.19463794
41	0xbe875268	-0.26430058
42	0x3e828823	0.2549449
43	0x3d4b8c67	0.049694445
44	0x3d8b7468	0.06809312
45	0x3e8d3de3	0.27586278
46	0x3e1cac91	0.15300204
47	0xbe531e7a	-0.20617095
48	0xbe0f1447	-0.13972579
49	0x3eea3f12	0.45751244
50	0x3e16ee3f	0.14739321
51	0x3e9177d6	0.2841174
52	0xbdc6500e	-0.09683238
53	0xbebf4dd2	-0.3736406
54	0xbe221942	-0.15829948
55	0xbc149561	-0.009068818
56	0xbe1533e9	-0.14570583
57	0xbe954e1f	-0.29161164
58	0x3ea1b285	0.31581512
59	0x3e686bf6	0.22697434
60	0x3eaa84e4	0.33304513
61	0x3e6dadaa	0.23210779
62	0xbe3276d6	-0.17428145
63	0x3b79fd85	0.0038145494

architecture.2.weight f4 [64, 64]
0	0xbe24dfe4	-0.16101032
1	0x3e1a5892	0.1507285
2	0xbdf945e9	-0.121715374
3	0xbe720c58	-0.23637521
4	0xbe9805af	-0.29691836
5	0x3e964797	0.29351494
6	0x3d13f95d	0.036126483
7	0x3e455a8b	0.1927282
8	0xbd902956	-0.07039134
9	0xbe01d485	-0.12678726
10	0x3e0ed48b	0.13948266
11	0xbd4ef8d2	-0.050530262
12	0xbebf1457	-0.37320206
13	0xbd6ade67	-0.057341006
14	0xbcbf185a	-0.023327041
15	0xbea23f25	-0.316888
16	0x3e1018b6	0.14071926
17	0x3d0d4082	0.034485348
18	0x3cf0c680	0.029391527
19	0xbe164db2	-0.14678076
20	0xbe9fcd66	-0.31211394
21	0x3eec09ab	0.46101126
22	0xbd8c5dc5	-0.068538226
23	0x3e77d140	0.24200916
24	0x3e562180	0.20911217
25	0xbcf87088	-0.030327097
26	0x3e94d257	0.29066727
27	0x3c9c28dd	0.019062454
28	0x3e0cf9f6	0.13767228
29	0xbd9b3f5f	-0.075804465
30	0x3e264ea5	0.16240938
31	0x3e6fa081	0.23401071
32	0x3d030e3e	0.031996004
33	0x3e93758c	0.2880062
34	0xbce4c722	-0.027926985
35	0x3df9fce5	0.12206439
36	0x3e2511c0	0.16120052
37	0x3e07e35e	0.13270327
38	0x3e302006	0.17199716
39	0x3ea559e2	0.32295138
40	0x3e310af1	0.1728933
41	0xbdb02ef0	-0.086027026
42	0x3e988bb6	0.2979409
43	0xbe54f698	-0.20797193
44	0xbf0a8ed2	-0.54124177
45	0x3d528c1f	0.05140316
46	0x3e6c85d5	0.23097928
47	0x3d9a8c5f	0.07546305
48	0x3e97470d	0.29546395
49	0x3e0bad29	0.13640274
50	0xbe402e04	-0.18767554
51	0xbdcd330b	-0.10019501
52	0x3d4ebd49	0.050473485
53	0x3d692269	0.05691758
54	0x3c500834	0.012697268
55	0xbdb9970e	-0.090620145
56	0x3c38f2f9	0.011288398
57	0xbdd94865	-0.10609511
58	0xbe2ac364	-0.16676098
59	0xbe3e9d10	-0.18614602
60	0x3dacaac7	0.08431011
61	0xbdcea7fc	-0.10090634
62	0xbcdff742	-0.027339581
63	0x3da184d1	0.07886661
64	0xbe197767	-0.14986955
65	0xbe111a5e	-0.14170215
66	0xbdba26f6	-0.090894625
67	0x3e62e5d1	0.2215798
68	0x3de3441b	0.110969745
69	0xbb34d74f	-0.0027594154
70	0xbcf6375e	-0.030055698
71	0x3dd585fa	0.104259446
72	0x3ddd4a11	0.10805143
73	0x3d03d9a9	0.03219
74	0x3e0d138f	0.13776992
75	0x3c0db1e9	0.008648374
76	0x3d9b5a2c	0.07585558
77	0x3cf46570	0.029833525
78	0xbd178f4c	-0.037001893
79	0x3dd62238	0.104557455
80	0x3e1b9b01	0.15195848
81	0x3e422af2	0.18961695
82	0x3d687b92	0.05675847
83	0xbc8ad0a2	-0.016945187
84	0x3e4d7316	0.20063433
85	0x3b42c684	0.0029720375
86	0x3e1b800c	0.15185565
87	0x3d646d39	0.055768225
88	0x3e21b34e	0.15791056
89	0xbcd581a1	-0.026062788
90	0x3d6e5b01	0.058192257
91	0x3d0ecaff	0.03486156
92	0x3e08aa0d	0.13346119
93	0x3e4f87a1	0.20266582
94	0xbec4dbe7	-0.38449022
95	0x3ea887b9	0.32916048
96	0xbc40d803	-0.011770251
97	0xbc346e54	-0.011012632
98	0xbe1dc335	-0.15406497
99	0xbcd38bad	-0.025823439
100	0x3e9db1b3	0.30799636
101	0x3e591b78	0.21201885
102	0xbe000978	-0.12503612
103	0x3db86925	0.0900443
104	0x3ece312d	0.40271893
105	0xbe552fbe	-0.20818993
106	0xbbdffaeb	-0.0068353317
107	0x3e61c5c7	0.22048102
108	0xbd4e25e2	-0.050329097
109	0xbe129708	-0.14315426
110	0x3e6fcf41	0.23418905
111	0xbd4926b1	-0.049109165
112	0xbe8396e9	-0.25701073
113	0x3d3ca32b	0.046054047
114	0xbd716122	-0.058930524
115	0xbdd6c00b	-0.10485848
116	0xbe3c426d	-0.18384714
117	0x3e99c6e4	0.30034554
118	0x3e07d178	0.132635
119	0x3d89a842	0.06721546
120	0x3e7d26c9	0.24721827
121	0x3ea76194	0.32691634
122	0xbe81e9f5	-0.25373808
123	0x3e849f4a	0.25902778
124	0x3ecf05ea	0.404342
125	0x3e15f200	0.14643097
126	0xbd537230	-0.05162257
127	0x3da5ed32	0.08101882
128	0x3eaf8de4	0.3428794
129	0xbee2479e	-0.44195265
130	0xbcc8ee46	-0.02452768
131	0xbe68ca7f	-0.22733496
132	0x3dde7967	0.108629994
133	0xbdc70eb6	-0.09719603
134	0x3e1a68ea	0.15079084
135	0xbe0bf880	-0.13669014
136	0x3f019455	0.5061696
137	0x3ccea76d	0.02522632
138	0xbd7ad934	-0.061242297
139	0x3d823e70	0.06359565
140	0xbbe0bf73	-0.00685876
141	0xbe82e9d9	-0.25569037
142	0x3d303f7c	0.043029293
143	0xbe405194	-0.1878112
144	0xbe4b72fa	-0.19868079
145	0xbe0676c7	-0.13131247
146	0xbe1ca094	-0.1529563
147	0xbe9e3c4c	-0.30905378
148	0x3eb3419d	0.35010996
149	0xbdc950c1	-0.09829856
150	0x3e81a42f	0.25320575
151	0xbe1ecba5	-0.15507372
152	0x3ef8c1cc	0.48585355
153	0x3e822c0b	0.25424227
154	0xbdb0443c	-0.08606765
155	0x3e28c992	0.16483143
156	0x3df2979a	0.11845322
157	0xbe349a31	-0.17636944
158	0x3df0f5b8	0.11765617
159	0x3d0fa7af	0.035072025
160	0xbd2ea3a5	-0.042636532
161	0x3df9be1e	0.12194465
162	0xbdf79eed	-0.120908596
163	0x3d91bef4	0.071164995
164	0x3e136f9d	0.14398046
165	0x3de29f82	0.1106558
166	0xbe5903fe	-0.21192929
167	0x3dbd3040	0.092377186
168	0xbdfaf5c7	-0.122539096
169	0xbe7933c4	-0.24336153
170	0x3dce343a	0.10068555
171	0xbdc01b01	-0.093801506
172	0x3dd74985	0.105120696
173	0x3ddeb4c0	0.10874319
174	0x3dfa713a	0.122286275
175	0xbbac25a9	-0.005253513
176	0x3cccf767	0.025020314
177	0x3e6b6bb6	0.22990307
178	0xbe741a57	-0.23838173
179	0x3e684439	0.22682275
180	0x3ebde133	0.37085876
181	0x3ccd8c99	0.025091456
182	0x3e7d7d96	0.24754938
183	0x3dbcb7a8	0.09214717
184	0xbdf880a8	-0.12133914
185	0xbdaecc86	-0.085351035
186	0x3de7dae0	0.11321044
187	0x3e27f355	0.16401418
188	0xbe013888	-0.12619221
189	0x3e0bea5d	0.13663621
190	0x3e65c6f9	0.22439183
191	0x3c87b0be	0.01656377
192	0xbd593bd6	-0.05303558
193	0x3df7a2f9	0.120916314
194	0x3dba62cd	0.09100876
195	0xbe740742	-0.23830894
196	0x3da0f04a	0.078583315
197	0xbdfff1e2	-0.12497307
198	0xbe142518	-0.14467275
199	0xbe658b59	-0.22416438
200	0x3e7446ba	0.23855105
201	0xbe254fc2	-0.16143706
202	0x3ebf9ee0	0.374259
203	0xbecdd4c1	-0.4020138
204	0xbe84cf2c	-0.2593931
205	0x3e48c143	0.19604973
206	0xbe265b29	-0.16245712
207	0x39cc7b55	0.00039001802
208	0x3df5f1c2	0.12009002
209	0xbde75a46	-0.11296515
210	0x3d3bf685	0.045889396
211	0x3d7fafc6	0.06242349
212	0xbe8a5ce7	-0.27024004
213	0xbdb9bf9d	-0.090697505
214	0x3d8aff17	0.06786936
215	0xbda032f7	-0.07822221
216	0xbe8135c7	-0.2523634
217	0x3e6b11d8	0.22956026
218	0xbdbd86e1	-0.09254242
219	0x3dd72ce6	0.105066106
220	0x3e38b2d2	0.18036965
221	0xbe6607a7	-0.22463857
222	0x3cd997e1	0.02656168
223	0xbe58df0c	-0.21178836
224	0x3ec20749	0.37896183
225	0xbe520f5f	-0.20513676
226	0x3e3122e1	0.17298461
227	0xbe699340	-0.22810078
228	0xbdc02af9	-0.093831964
229	0x3e6a6bd7	0.228927
230	0xbd9ef106	-0.07760815
231	0x3e548a82	0.20755962
232	0x3e04745f	0.12935017
233	0x3dd55595	0.10416714
234	0x3bd695ba	0.0065486105
235	0xbe20dba0	-0.1570878
236	0xbe5b8334	-0.21436769
237	0xbe9bb1b2	-0.30409008
238	0x3e318de5	0.17339285
239	0x3c6e9bd7	0.014563522
240	0xbbbf3784	-0.0058354754
241	0xbb930f5d	-0.0044879154
242	0xbddfaa1d	-0.109211184
243	0xbdaf46f1	-0.08558453
244	0x3cb007ae	0.021488037
245	0x3eb2a36a	0.348903
246	0xbc86f357	-0.016473455
247	0x3dc8f672	0.09812631
248	0x3e375f2e	0.17907402
249	0x3e72db9f	0.23716591
250	0x3e280733	0.16408996
251	0xbd7124a9	-0.058872852
252	0xbdb8a7e9	-0.09016401
253	0xbe113e8a	-0.14184013
254	0x3e2f4dc5	0.1711951
255	0xbde97503	-0.11399271

architecture.2.bias f4 [64]
0	0xbe682a3b	-0.2267236
1	0x3d1cbe87	0.03826764
2	0x3e83ad57	0.25718185
3	0xbe7f81ef	-0.2495191
4	0xbc66d532	-0.014088916
5	0xbe5d819e	-0.21631476
6	0x3e2fca9b	0.17167132
7	0xbe142063	-0.1446548
8	0xbd9ceed9	-0.07662744
9	0xbd9d86ac	-0.07691702
10	0xbca9214f	-0.020645766
11	0xbd3b9092	-0.04579217
12	0x3d59046d	0.052982736
13	0xbe58ce7f	-0.21172522
14	0x3e5bccda	0.21464863
15	0xbcd0c4ac	-0.025484405
16	0x3cce1fbe	0.02516162
17	0x3e715549	0.2356769
18	0x3ec2ef19	0.38073042
19	0x3e8470a8	0.258672
20	0xbe8603e2	-0.26174837
21	0xbe5006ec	-0.2031514
22	0x3d41ccf5	0.047314603
23	0xbeacd42f	-0.33755633
24	0xbdc19a08	-0.09453207
25	0x3e3815af	0.17977022
26	0xbc09f3cd	-0.008419943
27	0x3e4ee31b	0.20203821
28	0x3e2e6e04	0.17034155
29	0xbc90523f	-0.017617343
30	0x3e885afd	0.2663192
31	0x3e7a357c	0.24434465
32	0xbdd06cd5	-0.10177008
33	0x3c8cb2f6	0.017175179
34	0xbd8ecbb1	-0.06972445
35	0xbe8b56b3	-0.27214584
36	0xbe5231e9	-0.20526852
37	0xbe3a7e74	-0.182123
38	0xbe1c030e	-0.1523554
39	0x3cb3d02b	0.021949848
40	0xbe932aad	-0.28743497
41	0x3dada75b	0.08479186
42	0xbd68219c	-0.056672677
43	0xbdc247e9	-0.09486372
44	0x3de7b59c	0.11313936
45	0x3e80041e	0.2500314
46	0xbe02480c	-0.12722796
47	0xbd591942	-0.053002603
48	0x3da178bd	0.07884357
49	0xbd876eac	-0.06612906
50	0xbd61c518	-0.055119604
51	0x3cfe902e	0.03107461
52	0x3e817a66	0.25288695
53	0x3d9f2f3e	0.077726826
54	0xbe1b6167	-0.15173875
55	0x3e1750e4	0.14776951
56	0xbdb114d9	-0.086465545
57	0xbc103dcf	-0.008803799
58	0x3df443c9	0.119269915
59	0xbd29add7	-0.041425552
60	0xbd779d34	-0.060452655
61	0x3d8b6ff0	0.0680846
62	0xbde057be	-0.109542355
63	0xbb9cd946	-0.004786643

architecture.4.weight f4 [9, 64]
0	0xbdff64a0	-0.124703646
1	0x3d03633f	0.03207707
2	0xbd9d69a0	-0.07686162
3	0xbd93de6a	-0.072201565
4	0x3d4b3677	0.04961249
5	0xbca7a7b9	-0.020465719
6	0x3ddc224b	0.10748728
7	0x3c50140c	0.012700092
8	0xbd527b1d	-0.05138694
9	0xbcb33084	-0.02187372
10	0x3e5bca66	0.21463928
11	0xbd52ba93	-0.051447462
12	0xbe250aae	-0.16117355
13	0xbd265202	-0.040605552
14	0x3e0c3da4	0.13695389
15	0xbdcfa59d	-0.1013901
16	0x3dc83320	0.09775376
17	0x3d128090	0.035767138
18	0xbdbed593	-0.0931808
19	0x3db6404e	0.08898984
20	0xbd069522	-0.032857068
21	0x3dd25f73	0.10272112
22	0x3dfaafce	0.12240563
23	0x3cbd9c5b	0.023145845
24	0x3cdff9b5	0.02734075
25	0x3de2b02e	0.1106876
26	0xbd2b5736	-0.041831218
27	0x3cd4a105	0.025955686
28	0x3ae8b47d	0.0017753985
29	0x3c86f8b2	0.016476009
30	0x3d5ae0f1	0.053437177
31	0x3da34304	0.079717666
32	0xbe400bf9	-0.18754567
33	0xbce24b1d	-0.027623707
34	0x3ad9c9f3	0.0016615972
35	0xbd504590	-0.05084759
36	0x3b9fa553	0.004872003
37	0xbb6e81b2	-0.0036393222
38	0x3de8a593	0.11359706
39	0x3d8be3b9	0.06830544
40	0x3cdacaee	0.026708093
41	0xbda02a5b	-0.07820579
42	0xbd891eef	-0.06695353
43	0x3c9a334d	0.01882329
44	0x3e152114	0.145634
45	0xbe31ac53	-0.17350893
46	0x3c2e5d96	0.01064243
47	0x3e526247	0.20545302
48	0xbe25eae0	-0.16202879
49	0x3e72fa4e	0.23728296
50	0x3c611970	0.013738975
51	0xbe736e22	-0.23772481
52	0x3c8712cc	0.016488455
53	0xbce0b45d	-0.027429754
54	0x3e02bbe5	0.12766989
55	0xbd2a6ba3	-0.041606557
56	0x3d47ea21	0.048807267
57	0x3d3a07aa	0.045417465
58	0x3e6987cf	0.22805713
59	0xbd1933fa	-0.037403084
60	0x3e00a3f0	0.12562537
61	0x3cc57a9a	0.024106313
62	0xbe292021	-0.16516162
63	0x3d8cf7f4	0.06883231
64	0x3d028ccd	0.03187256
65	0xbe137203	-0.14398961
66	0x3cd30ab3	0.025761938
67	0xbd85f584	-0.06540969
68	0xbe379887	-0.17929278
69	0x3d926ee6	0.071500584
70	0x3de4fb6a	0.11180766
71	0xbdf1806f	-0.11792075
72	0x3def6ed7	0.11691063
73	0xbd9db3e5	-0.07700328
74	0x3d61e1bf	0.05514693
75	0x3d51a861	0.05118597
76	0xbde6c2ba	-0.1126761
77	0x3dab2b47	0.08357864
78	0x3da8e1a1	0.0824616
79	0x3e19b72c	0.15011281
80	0x3d8548da	0.06508036
81	0xbe0580a7	-0.13037358
82	0x3de7f015	0.11325089
83	0xbe8cd99c	-0.27509773
84	0x3c89584e	0.01676574
85	0xbd8d515f	-0.06900286
86	0xbd2676ae	-0.040640526
87	0x3c42b742	0.011884512
88	0xbdece9fc	-0.115680665
89	0x3e030805	0.12796028
90	0xbe61d562	-0.22054055
91	0xbe148157	-0.14502464
92	0x3d903aae	0.07042442
93	0x3da92e36	0.08260767
94	0x3c85c398	0.016328618
95	0x3d660bff	0.056163784
96	0x3c355691	0.011068002
97	0xbc181782	-0.009282948
98	0xbdb34a00	-0.08754349
99	0x3d2b1b7b	0.041774254
100	0xbb36b3b0	-0.0027878098
101	0xbe19e05a	-0.1502699
102	0x3cbee7de	0.023303922
103	0x3e088585	0.13332184
104	0x3e85c5f3	0.26127586
105	0xbe5c0990	-0.21488023
106	0xbe0329c0	-0.12808895
107	0xbcac8095	-0.021057406
108	0xbdeca5b2	-0.115550414
109	0x3d72a187	0.059236076
110	0x3dce4594	0.10071865
111	0x3ce1da0a	0.02756979
112	0x3dd992b2	0.10623683
113	0x3e4b1589	0.19832434
114	0x3d37c051	0.04486114
115	0x3d3e1b24	0.046412602
116	0x3c339dc1	0.010962904
117	0x3d464d18	0.048413366
118	0x3c0f7ff8	0.0087585375
119	0x3d9690ee	0.07351862
120	0x3e6f5f03	0.23376088
121	0x3d6c67af	0.057716068
122	0xbd13fcf9	-0.036129925
123	0xbd3f5db1	-0.04672021
124	0xbdeb4590	-0.11487877
125	0xbe17137d	-0.14753528
126	0xbdab068c	-0.08350858
127	0xbdc3bd7b	-0.09557625
128	0x3e0878aa	0.1332728
129	0xbe127137	-0.14301
130	0xbcf84c39	-0.030309783
131	0x3bc35b2a	0.0059617953
132	0x3cc088f3	0.023502802
133	0xbd6f1b0e	-0.05837541
134	0xbd8b389d	-0.067979075
135	0x3dc9a595	0.098460354
136	0xbd94cc6c	-0.07265553
137	0xbd09146a	-0.033466734
138	0x3d2eb8bb	0.04265664
139	0xbe203862	-0.15646508
140	0x3c681e42	0.01416737
141	0x3dcd8626	0.100353524
142	0x3df8eb9e	0.121543154
143	0xbe2c2fca	-0.16815105
144	0xbc18fd41	-0.009337724
145	0xbdfb497b	-0.12269875
146	0xbd7c725c	-0.0616325
147	0x3dcf98cf	0.10136568
148	0x3c881e7f	0.016616104
149	0x3e602415	0.21888764
150	0xbd84cb5d	-0.06484101
151	0x3da3e568	0.0800274
152	0xbdc9a805	-0.098465
153	0x3c8caab6	0.017171245
154	0x3d6a9bc1	0.057277445
155	0xbbbe3262	-0.005804346
156	0x3e8db84d	0.27679673
157	0x3d4b4111	0.0496226
158	0x3df4782e	0.11936985
159	0x3d59a8fe	0.05313968
160	0xbe86633a	-0.2624758
161	0x3c337f19	0.010955595
162	0x3da99bac	0.08281645
163	0x3c7da1a6	0.0154804345
164	0xbbab8a93	-0.005235025
165	0xbe06584b	-0.13119619
166	0xbc98752d	-0.018610561
167	0x3d63cf1b	0.055617433
168	0x3cbc8ea6	0.023017239
169	0x3d7475dd	0.059682716
170	0xbd60c5e5	-0.054876227
171	0x3d4c528f	0.04988342
172	0xbe3370f2	-0.17523554
173	0xbd8c2e76	-0.06844799
174	0xbcbd6772	-0.023120616
175	0xbd4212c2	-0.04738117
176	0xbdd6c439	-0.10486645
177	0x3d8a0eec	0.06741127
178	0x3d1ecbff	0.038768765
179	0x3e29570d	0.16537113
180	0x3d8a4795	0.067519344
181	0x3cb915c3	0.022593385
182	0xbdb51b2a	-0.08843072
183	0x3dfe1a7d	0.12407396
184	0x3dbc9718	0.09208506
185	0xbd48ed2f	-0.04905432
186	0xbdf5857d	-0.119883515
187	0x3e856ae5	0.26058117
188	0xbd79913a	-0.060929514
189	0x3db4ac68	0.088219464
190	0xbbb9ed4a	-0.005674039
191	0x3d6091a6	0.0548264
192	0xbec4684d	-0.38360825
193	0x3d9832e0	0.07431579
194	0x3e95de8e	0.29271358
195	0xbe9663c4	-0.2937299
196	0x3d47ae9a	0.048750497
197	0xbe428a93	-0.18998174
198	0x3ce524bc	0.027971618
199	0xbd19e8c9	-0.037575517
200	0xbe269472	-0.16267565
201	0xbd6b4443	-0.057438146
202	0xbd0f2f58	-0.03495726
203	0x3df371c0	0.118869305
204	0x3e153349	0.14570345
205	0xbe93438d	-0.28762475
206	0x3e65b02f	0.2243049
207	0x3e0f83c7	0.14015113
208	0x3e1c610a	0.15271392
209	0x3ed3c03b	0.41357598
210	0x3e9a5837	0.30145428
211	0x3d8e2b05	0.06941799
212	0xbe983b8f	-0.2973294
213	0xbe34f568	-0.1767174
214	0x3c0d80a9	0.008636632
215	0xbe972866	-0.2952301
216	0xbee2aeaa	-0.44273883
217	0x3ddb01fb	0.10693737
218	0x3e111875	0.14169486
219	0x3dd899f5	0.1057624
220	0x3e1446d5	0.14480145
221	0xbe8d0f38	-0.27550673
222	0x3d8c01da	0.06836291
223	0x3ea2d97f	0.3180656
224	0xbe25911e	-0.16168639
225	0xbd156615	-0.036474306
226	0x3e2ed831	0.17074658
227	0xbdfe8282	-0.12427236
228	0xbe29cf85	-0.16583069
229	0xbdc6ea22	-0.09712626
230	0xbccebd84	-0.025236852
231	0x3e07d916	0.13266405
232	0xbdde4dbe	-0.10854672
233	0xbb97da6b	-0.0046341917
234	0xbe66fd2d	-0.22557516
235	0x3e845657	0.25847122
236	0x3eb75b9e	0.35812086
237	0x3f1280ca	0.57227767
238	0xbd567439	-0.052356932
239	0x3adacef1	0.0016693753
240	0x3dd36134	0.103212744
241	0xbdf14f75	-0.11782733
242	0xbd82e515	-0.0639135
243	0x3d9c6a19	0.07637424
244	0x3cf72705	0.030169973
245	0x3d8b242d	0.06794009
246	0xbeac9e41	-0.33714488
247	0x3e2f7e36	0.1713799
248	0x3a0b1ef0	0.0005307039
249	0xbdf1e77e	-0.11811732
250	0x3ef19d48	0.4719031
251	0x3e28f596	0.16499934
252	0xbe23ebc0	-0.160079
253	0x3c9e4bca	0.019323248
254	0xbdb26903	-0.08711436
255	0x3d2006da	0.039069034

architecture.4.bias f4 [9]
0	0xbdf9ee05	-0.12203602
1	0x3d6944f3	0.05695052
2	0xbceba1b5	-0.028763631
3	0x3eb955ec	0.36198366
4	0x3e327ecf	0.17431186
5	0x3c57852c	0.013154309
6	0x3cc5d9ed	0.024151767
7	0x3e942ff8	0.28942847
8	0x3cc194aa	0.023630459

std f4 [9]
0	0x3e58a94a	0.21158329
1	0x3e4ccccd	0.2
2	0x3e4ccccd	0.2
3	0x3f674285	0.90335876
4	0x3f3a6492	0.7280971
5	0x3f43b523	0.7644827
6	0x3f813bd8	1.0096388
7	0x3f83fa89	1.0310832
8	0x3f6f0cef	0.9337911

architecture.0.weight f4 [64, 27]
0	0xbeb17528	-0.34659696
1	0xbdedd67f	-0.116131775
2	0xbe1dbadf	-0.15403317
3	0x3e0690be	0.13141152
4	0xbcdc151a	-0.02686553
5	0xbe376aac	-0.17911786
6	0xbe97ede4	-0.29673684
7	0xbd85c568	-0.06531793
8	0xbe0c4135	-0.1369675
9	0xbe94695d	-0.28986636
10	0xbd6d17c4	-0.057883993
11	0x3d95e0dc	0.07318279
12	0x3e21ac25	0.15788324
13	0x3e196dbc	0.14983267
14	0x3e16d249	0.14728655
15	0x3b7e1c1c	0.0038774079
16	0x3d6f03ac	0.05835311
17	0xbeaa899f	-0.33308122
18	0xbe10a31e	-0.14124724
19	0x3e1c5bb4	0.15269357
20	0xbd664eb2	-0.056227393
21	0x3df81e31	0.121151336
22	0x3e9fd169	0.31214455
23	0x3e688d71	0.22710206
24	0x3e275c3d	0.1634378
25	0xbe67f502	-0.22652057
26	0x3e28dfd7	0.16491638
27	0xbcc5adaa	-0.024130661
28	0xbdbdff76	-0.09277241
29	0x3d61a5a6	0.055089615
30	0xbe05d9a1	-0.130713
31	0x3e82e2ec	0.25563753
32	0x3e79f599	0.24410094
33	0x3e03f215	0.12885316
34	0x3c8e0e3c	0.017340772
35	0x3e934c5a	0.2876919
36	0xbe2bc455	-0.16774113
37	0xbec7981f	-0.38983247
38	0x3e787b53	0.24265794
39	0xbc3d62b0	-0.011559173
40	0x3dc8f65d	0.09812615
41	0x3e0c3079	0.13690366
42	0xbd11bc4b	-0.03557996
43	0x3e59fc99	0.21287765
44	0xbc9ab20f	-0.018883733
45	0xbeded5e7	-0.4352257
46	0xbdd40776	-0.103529856
47	0x3e3a8a4a	0.18216816
48	0xbe1ab8dd	-0.15109582
49	0x3e61716e	0.22015926
50	0x3ed5c70a	0.41753417
51	0x3e04c78c	0.12966746
52	0xbe415e4f	-0.18883632
53	0xbde319e5	-0.11088923
54	0xbe74b753	-0.23898058
55	0xbe47d0f7	-0.19513308
56	0xbdb3d8e3	-0.08781602
57	0xbd55caa9	-0.052195225
58	0xbeb4d49b	-0.35318455
59	0x3e98ddf4	0.29856837
60	0x3e0fe1ed	0.14051028
61	0x3c94a62b	0.018145641
62	0xbd9ce37a	-0.07660575
63	0x3eaf38df	0.34223077
64	0xbeea0a85	-0.4571115
65	0xbdcd80d3	-0.10034337
66	0xbd19b7e0	-0.037528872
67	0x3e1253f3	0.14289837
68	0xbdb0f8e3	-0.086412214
69	0x3d61f131	0.05516166
70	0x3d521178	0.05128619
71	0xbdb1c9f3	-0.08681097
72	0xbd3428c0	-0.043984175
73	0x3e6381f7	0.22217546
74	0xbe9610fd	-0.29309836
75	0x3cebee0f	0.028800039
76	0xbc786ad5	-0.0151621895
77	0xbc821901	-0.015881063
78	0x3ccff4e9	0.025385337
79	0xbe0fbaa3	-0.1403604
80	0xbe37d9a5	-0.17954119
81	0x3d8cd9e0	0.06877494
82	0xbed055bf	-0.4069042
83	0x3f289122	0.65846455
84	0x3c0b0d16	0.008487007
85	0x3df5728a	0.11984737
86	0x3e2db635	0.16964038
87	0x3d91971c	0.071089
88	0x3a290d40	0.0006448813
89	0xbcea0051	-0.028564604
90	0xbe91a188	-0.2844355
91	0x3e60a4f0	0.21937919
92	0x3e37a2f5	0.17933257
93	0x3a19406b	0.0005846086
94	0xbdbdc772	-0.09266557
95	0x3dbd9a55	0.09257952
96	0x3d6db3fc	0.058032975
97	0xbcab8fc9	-0.020942586
98	0x3dad2f7c	0.084563226
99	0x3c891924	0.01673562
100	0xbcd1f87d	-0.025631184
101	0xbe194d65	-0.1497093
102	0x3d8e3e40	0.06945467
103	0xbdba81f3	-0.09106817
104	0xbe061944	-0.13095576
105	0x3e6cfeff	0.23144148
106	0xbe15059e	-0.14552924
107	0xbe77ab71	-0.24186493
108	0x3e02ff85	0.12792785
109	0xbd73e4ad	-0.059544254
110	0xbd2516de	-0.04030501
111	0xbd89f8f4	-0.06736937
112	0xbdcbf8af	-0.09959542
113	0x3db2e707	0.08735471
114	0x3db56795	0.08857647
115	0x3c8e5ae7	0.01737733
116	0xbe9a610b	-0.30152163
117	0xbc97f5ba	-0.018549789
118	0x3c2e13b4	0.010624815
119	0xbd61ee34	-0.05515881
120	0xbbe77358	-0.0070633106
121	0x3e024251	0.1272061
122	0x3ce5d670	0.028056353
123	0x3e7ad960	0.24496984
124	0xbe87c709	-0.2651904
125	0x3c9b4b9a	0.018956948
126	0xbc920f5d	-0.017829591
127	0xbd63a58f	-0.05557781
128	0xbdbfc14b	-0.093630396
129	0x3dddf433	0.10837593
130	0xbe3e9407	-0.18611155
131	0x3c95ff48	0.018310204
132	0x3d026d12	0.0318423
133	0x3e2b8f45	0.16753872
134	0xbe510c76	-0.2041491
135	0x3df762c8	0.12079388
136	0xbe190058	-0.14941537
137	0x3c80e69f	0.015734969
138	0xbb87cec3	-0.004144521
139	0xbc1b59ac	-0.009481829
140	0xbe0f95d9	-0.14022006
141	0x3d8b24ee	0.06794153
142	0x3d80f254	0.062962204
143	0x3d9a60f6	0.07538025
144	0x3ed9fbd9	0.42574957
145	0xbe98cb95	-0.2984282
146	0x3daff910	0.08592427
147	0x3de5b613	0.112163685
148	0x3e24be5d	0.16088243
149	0x3e340101	0.17578508
150	0xbe3abd65	-0.18236311
151	0xbe0ffae0	-0.14060545
152	0xbd4dceae	-0.050245933
153	0x3e0c72a2	0.13715604
154	0xbdba879b	-0.09107896
155	0xbda5ac15	-0.08089463
156	0x3e4b58b7	0.19858061
157	0xbeaeee98	-0.34166408
158	0xbdb8445e	-0.08997415
159	0x3dd2d5cc	0.10294685
160	0xbe1ece6f	-0.15508436
161	0x3ea20f1d	0.31652156
162	0x3c93cfc6	0.01804341
163	0xbd3d161a	-0.046163656
164	0x3e08306b	0.1329972
165	0x3bf6f948	0.007537041
166	0x3da6c80c	0.08143625
167	0x3f002b82	0.5006639
168	0xbe09c754	-0.13454944
169	0x3e85d1a9	0.2613652
170	0xbe352931	-0.17691495
171	0xbe2e095e	-0.16995761
172	0xbdcb1d8f	-0.09917747
173	0xbe1b0d61	-0.15141822
174	0xbbd48d47	-0.006486568
175	0x3daee56c	0.085398525
176	0xbd1c86f3	-0.038214635
177	0xbd459690	-0.04823929
178	0xba348ce4	-0.00068874494
179	0x3cb6daef	0.022321193
180	0x3e895feb	0.26830992
181	0xbe1bba2a	-0.15207735
182	0x3e16bb8c	0.14719981
183	0x3dd45db2	0.103694335
184	0x3e88f2e1	0.26747802
185	0x3cb7c404	0.022432335
186	0xbebef59d	-0.37296763
187	0xbe44a209	-0.19202437
188	0xbd708f55	-0.058730442
189	0xbd3d6a2d	-0.046243835
190	0xbdd3420b	-0.10315331
191	0x3cac693b	0.021046272
192	0x3de68899	0.11256523
193	0x3e98ed7b	0.29868683
194	0xbe0c3ae1	-0.13694336
195	0xbbc43f3d	-0.005988984
196	0x3b2a7355	0.0026008685
197	0xbd9b1513	-0.07572379
198	0xbd6f545d	-0.058430064
199	0x3dcd7f8e	0.10034095
200	0x3c42395c	0.011854496
201	0x3e159ba5	0.14610155
202	0x3cb70269	0.022340016
203	0x3d8640d3	0.06555333
204	0xbe0d0bf2	-0.13774088
205	0xbd31efef	-0.04344171
206	0x3d0077e7	0.031364348
207	0xbe9c1b39	-0.3048952
208	0x3ead7765	0.33880153
209	0xbeadfe90	-0.33983278
210	0x3c86d8d1	0.016460808
211	0xbe440848	-0.19143784
212	0x3df2a75a	0.11848326
213	0x3e5877e7	0.21139489
214	0x3dfad6bb	0.12247988
215	0x3e6bb51a	0.23018304
216	0xbd15ef3b	-0.0366051
217	0xbd9b0ed3	-0.07571187
218	0x3db1d1ae	0.08682571
219	0x3d805b94	0.06267467
220	0x3ccd3cba	0.02505337
221	0x3d857ab2	0.06517543
222	0x3d77b0b2	0.060471244
223	0x3c4abb4f	0.012373759
224	0x3e0b58a3	0.13608031
225	0x3e07d0a4	0.13263184
226	0xbc89a4fd	-0.016802305
227	0xbe167924	-0.14694649
228	0xbd93bca5	-0.072137155
229	0xbd53a304	-0.051669136
230	0x3d204f79	0.03913829
231	0x3e2635ea	0.16231504
232	0x3e809f13	0.25121364
233	0x3e2912c6	0.16511068
234	0x3d41f372	0.04735131
235	0xbe869967	-0.26288912
236	0x3eed4b64	0.4634658
237	0xbd480be5	-0.04883947
238	0xbd1601bb	-0.036622744
239	0xbc21dfb4	-0.009879995
240	0x3dc7734c	0.09738788
241	0x3bb7a1de	0.005604013
242	0xbebbae32	-0.36656338
243	0x3f3e9502	0.7444612
244	0x3e3e6cac	0.18596143
245	0xbe143a4c	-0.14475363
246	0xbd8a59c1	-0.067554004
247	0x3eca0c7d	0.39462653
248	0x3bad8d7c	0.0052964073
249	0xbe24ce45	-0.1609431
250	0xbda93434	-0.0826191
251	0x3e35228f	0.17688964
252	0x3d67358b	0.056447547
253	0xbe830621	-0.25590613
254	0x3e18246e	0.14857647
255	0x3dfc2c46	0.12313132

architecture.0.bias f4 [64]
0	0xbf16ac25	-0.5885642
1	0xbf42cb4f	-0.76091474
2	0x3f0d15cd	0.5511139
3	0x3fa92b4a	1.3216336
4	0x3f1f7ec9	0.62302834
5	0xbf26c147	-0.6513867
6	0xbf5479c6	-0.8299831
7	0x3f4f3192	0.80935013
8	0x3e6bc5f3	0.2302473
9	0x3fb35deb	1.4013036
10	0xbf286779	-0.65782887
11	0x3f08f916	0.53505075
12	0x3f8a268f	1.0793017
13	0x3e68396e	0.22678158
14	0xbf70c904	-0.94056726
15	0x3e908b69	0.28231362
16	0xbdb7f648	-0.08982521
17	0x3ee23051	0.44177487
18	0xbf687e1f	-0.90817446
19	0xbf36a0e1	-0.7133923
20	0xbee36975	-0.44416395
21	0xbf7a39c5	-0.977444
22	0xbf59c2b3	-0.8506271
23	0x3eed9f01	0.46410373
24	0xbf0ca3e9	-0.5493761
25	0x3e72a24f	0.23694728
26	0xbf9d4d3a	-1.2289193
27	0xbedaf48f	-0.42764708
28	0xbf13c78b	-0.57726353
29	0xbf37cc75	-0.7179635
30	0xbf1b3030	-0.60620403
31	0xbf382787	-0.71935314
32	0xbf4ebd8c	-0.80757976
33	0x3e9ab5a8	0.30216718
34	0xbf24988b	-0.6429526
35	0x3f1f765f	0.62289995
36	0x3ee60c1c	0.44931114
37	0xbee7bed4	-0.45262778
38	0xbf6eb009	-0.9323736
39	0xbe9123b7	-0.2834756
40	0x3e8b689d	0.2722825
41	0x3f41819f	0.7558841
42	0xbf1f0bfc	-0.6212766
43	0x3e36cee3	0.17852359
44	0x3e8195ad	0.25309506
45	0xbf7cad12	-0.98701584
46	0x3eb60939	0.3555391
47	0x3ef4f590	0.478436
48	0xbf0c5bd8	-0.5482764
49	0x3eca656a	0.39530498
50	0xbf0cb10b	-0.54957646
51	0x3ea9cca6	0.33163947
52	0xbf3751b3	-0.7160904
53	0x3f5654d1	0.8372317
54	0x3ea98a97	0.33113548
55	0xbf5cb259	-0.86209637
56	0xbf30d588	-0.6907582
57	0x3f4d7677	0.8025889
58	0xbeb5d0ce	-0.35510868
59	0xbf2481a7	-0.64260334
60	0xbdd1c5af	-0.10242783
61	0xbee99b4e	-0.456263
62	0xbea013a8	-0.31264997
63	0x3df9705d	0.12179635

architecture.2.weight f4 [64, 64]
0	0xbd71cd7c	-0.059033856
1	0xbf02d9d0	-0.51113605
2	0x3e742848	0.23843491
3	0xbf0db092	-0.5534755
4	0x3e74be18	0.2390064
5	0xbe7604bd	-0.24025245
6	0x3bc81f71	0.0061072637
7	0x3e5e4a19	0.21707954
8	0xbe02f24b	-0.1278774
9	0xbf2c5a93	-0.67325705
10	0xbea46da2	-0.32114893
11	0xbe206188	-0.15662205
12	0xbdadae1e	-0.08480476
13	0x3e8ee7cb	0.2791122
14	0x3eee91d0	0.4659562
15	0x3ed8f1e4	0.42372048
16	0x3d05e710	0.03269106
17	0xbe2f494f	-0.17117809
18	0x3ee4d972	0.44697148
19	0xbd3b1e37	-0.045683112
20	0xbce10116	-0.027466338
21	0xbf27f638	-0.65610075
22	0x3eff3c3f	0.49850652
23	0xbce1eaff	-0.027577875
24	0xbe320264	-0.17383724
25	0x3e6c067b	0.23049347
26	0x3f4194b8	0.7561755
27	0xbe242382	-0.1602917
28	0xbcd70f9d	-0.026252562
29	0xbd8e59f6	-0.069507524
30	0x3e80b23a	0.25135976
31	0xbdab82fd	-0.083745934
32	0x3f0a9e7a	0.54148066
33	0x3e478af7	0.19486605
34	0xbe90d9f6	-0.2829129
35	0x3e572b9e	0.21012732
36	0x3ed38677	0.41313526
37	0xbeab7a47	-0.33491728
38	0x3ea6527e	0.32484812
39	0xbe49d7b8	-0.19711196
40	0x3e006593	0.12538747
41	0x3e821156	0.2540385
42	0x3ea88a44	0.32917988
43	0x3c3f7fc2	0.011688175
44	0xbce3c264	-0.027802654
45	0x3ed163cb	0.40896448
46	0x3e170d71	0.14751221
47	0x3e40417b	0.18774979
48	0x3ec88e77	0.39171192
49	0x3ddbcc6c	0.1073235
50	0x3f03e1c2	0.51516354
51	0x3e7a665c	0.2445311
52	0xbdfb8f26	-0.12283163
53	0x3efd1139	0.49427202
54	0x3eb59728	0.35466886
55	0x3f02d439	0.51105076
56	0xbe5ffe35	-0.21874316
57	0x3e00e14c	0.12585944
58	0x3e118239	0.14209832
59	0x3e45166d	0.19246836
60	0x3dfe8af5	0.12428848
61	0x3e817a2f	0.2528853
62	0xbebee3ce	-0.37283176
63	0x3e344bc7	0.17607032
64	0xbdfd2026	-0.123596475
65	0xbea61b2a	-0.324426
66	0x3e8cee83	0.2752572
67	0x3e12581b	0.14291422
68	0x3ea99650	0.33122492
69	0xbe81ed29	-0.2537625
70	0xbf2279ba	-0.6346699
71	0x3e4eba9f	0.20188378
72	0x3e9fbb30	0.311975
73	0x3c733c3d	0.014845905
74	0xbee49088	-0.4464152
75	0x3eb7e0af	0.35913607
76	0xbdccd88c	-0.100022405
77	0x3e0004ed	0.12501879
78	0xbe8e76b3	-0.27824935
79	0x3e9f3749	0.31096867
80	0xbe39439b	-0.18092196
81	0x3e8068c9	0.25079945
82	0xbe3fd597	-0.18733822
83	0xbf58bd22	-0.84663594
84	0xbeca2eae	-0.3948874
85	0xbf590938	-0.8477969
86	0xbdf96219	-0.12176914
87	0xbdfbd725	-0.12296895
88	0xbd8c8db4	-0.06862965
89	0xbbc51699	-0.0060146567
90	0xbda52c40	-0.08065081
91	0x3d7a9e28	0.061185986
92	0xbe2b30ad	-0.16717787
93	0xbe8a4811	-0.27008107
94	0xbe8aad3e	-0.27085298
95	0xbee327f6	-0.44366425
96	0xbeb79ce8	-0.35861897
97	0x3e8c12e8	0.27358174
98	0xbe5e17fe	-0.2168884
99	0x3ed2ea61	0.41194442
100	0x3e3663e2	0.1781154
101	0xbe957e1e	-0.29197782
102	0x3dafe83f	0.08589219
103	0xbde42d38	-0.11141437
104	0x3e50600f	0.20349143
105	0x3e3497f0	0.17636085
106	0xbd5eae43	-0.054365408
107	0xbe69ae5f	-0.22820424
108	0xbe02ace9	-0.12761272
109	0x3ea8f3c4	0.32998478
110	0xbe874a67	-0.26423952
111	0x3df9be17	0.1219446
112	0xbecaf205	-0.3963777
113	0x3e79e4af	0.24403642
114	0xbee065d8	-0.438277
115	0x3ce27f19	0.027648496
116	0xbed9152d	-0.42398968
117	0x3ee69113	0.45032558
118	0x3d343512	0.043995924
119	0xbefa8a17	-0.4893348
120	0xbe226a88	-0.15860951
121	0x3f10ec5e	0.5661067
122	0xbeaba761	-0.33526137
123	0xbedb467d	-0.42827216
124	0xbe5b5b58	-0.21421564
125	0xbea9eb13	-0.3318716
126	0x3d74d953	0.05977757
127	0x3de309fe	0.1108589
128	0x3ecb7640	0.39738655
129	0x3f412fd9	0.75463635
130	0xbef1e724	-0.4724666
131	0xbf165829	-0.5872827
132	0xbec2953c	-0.38004482
133	0x3f0aa9ac	0.5416515
134	0x3f215266	0.63016355
135	0xbf4341ee	-0.76272476
136	0xbf04cd51	-0.5187579
137	0xbedadfc3	-0.42748842
138	0x3e974785	0.29546753
139	0xbeb50c94	-0.3536116
140	0xbde4ba89	-0.11168391
141	0xbeb03fd8	-0.3442371
142	0x3f04ce9f	0.5187778
143	0xbedc64e7	-0.43045732
144	0xbd13e851	-0.036110226
145	0xbd92d8b6	-0.071702406
146	0x3f2e0831	0.6798125
147	0x3f1e2034	0.6176789
148	0x3e9ab697	0.3021743
149	0x3f602e3e	0.8757056
150	0x3d9288e8	0.07155019
151	0xbdcb2653	-0.09919419
152	0x3ecbc1f7	0.3979642
153	0xbd426195	-0.047456343
154	0x3e2ba405	0.16761787
155	0xbde9ab5d	-0.11409638
156	0x3dfaad1a	0.12240048
157	0x3ee613b9	0.44936922
158	0x3eda9bd1	0.42697003
159	0x3f056516	0.5210737
160	0x3f0279d5	0.5096715
161	0xbe3bc18b	-0.1833555
162	0x3ebdb684	0.3705331
163	0xbeabfc86	-0.33591098
164	0xbce29028	-0.02765663
165	0x3ecc32e6	0.39882582
166	0xbded7fa0	-0.11596608
167	0x3e9def3b	0.3084658
168	0xbbb1c951	-0.00542561
169	0xbf50055e	-0.8125819
170	0x3ee50253	0.44728336
171	0x3d59fa91	0.053217474
172	0xbebcdd32	-0.3688751
173	0xbe0cb741	-0.13741781
174	0xbe1d4afb	-0.15360634
175	0xbef07008	-0.46960473
176	0x3e1ed16c	0.15509576
177	0xbd6add7a	-0.057340123
178	0x3d64df7f	0.055877205
179	0xbe729cf1	-0.23692681
180	0x3ee522f0	0.44753218
181	0xbf2bfbf9	-0.67181355
182	0xbe864013	-0.2622076
183	0x3d007dd4	0.03137
184	0x3f16f0de	0.58961284
185	0xbfa67984	-1.3005834
186	0x3ed5ffa9	0.41796616
187	0x3f36ca2f	0.7140226
188	0x3ebb83e6	0.36624068
189	0x3ee034c3	0.43790254
190	0x3e35aa9f	0.17740868
191	0xbe4dbf9e	-0.20092627
192	0xbe5a0217	-0.2128986
193	0x3ebaea7e	0.36507028
194	0xbdaa5355	-0.083166756
195	0x3f06912f	0.5256528
196	0x3c817e79	0.015807377
197	0x3d4d29f0	0.050088823
198	0x3e6a7323	0.22895484
199	0xbe7b01c8	-0.24512398
200	0x3eecce3d	0.46251097
201	0x3f1561a5	0.5835212
202	0x3e4bbcf2	0.19896296
203	0xbe3bf11a	-0.18353692
204	0x3dc56f4a	0.09640367
205	0xbeaad324	-0.33364213
206	0xbebe4eca	-0.37169486
207	0x3d07b265	0.033129115
208	0x3df5238c	0.11969671
209	0xbee0e4fc	-0.439247
210	0xbeedce96	-0.46446675
211	0x3ef7f5a2	0.4842959
212	0x3ed4dd64	0.41575158
213	0x3eee9c7c	0.46603763
214	0xbf019a5b	-0.5062615
215	0xbe9a84c3	-0.30179414
216	0x3f07bef4	0.53025746
217	0xbec34b64	-0.38143456
218	0xbf0c183f	-0.54724497
219	0x3ee74e27	0.45176813
220	0x3e06441b	0.13111918
221	0x3b946e87	0.0045297774
222	0x3d35dc1d	0.04439937
223	0x3ecd6054	0.40112555
224	0xbeb565e3	-0.35429296
225	0xbdcfcc3e	-0.10146378
226	0x3eb23145	0.34803215
227	0xbe4ff916	-0.20309862
228	0xbe0adcc3	-0.13560776
229	0x3d3e4cbb	0.046459895
230	0xbdf4f016	-0.11959855
231	0xbd25d256	-0.040483795
232	0xbdeaac61	-0.1145866
233	0xbe2976c7	-0.16549216
234	0xbe5ddfac	-0.21667355
235	0x3e8f8e3c	0.28038204
236	0x3e44dc45	0.19224651
237	0xbf3354a8	-0.7005105
238	0xbc1123c9	-0.0088586295
239	0x3e2e5a98	0.17026746
240	0x3e806579	0.25077417
241	0xbdff531a	-0.12467022
242	0xbe980930	-0.2969451
243	0xbe4cd57b	-0.20003311
244	0x3ed04877	0.40680286
245	0xbf0bc965	-0.5460418
246	0x3e2304eb	0.15919845
247	0xbef7085f	-0.48248574
248	0x3e236b06	0.15958795
249	0xbec21378	-0.37905478
250	0xbd1f985e	-0.038963668
251	0x3d61dc81	0.05514193
252	0x3e802b16	0.25032872
253	0xbdcfdafd	-0.101491906
254	0x3e190443	0.14943032
255	0xbea863ab	-0.3288854

architecture.2.bias f4 [64]
0	0x3e6822ba	0.22669497
1	0x3ef42cd1	0.47690442
2	0xbf80d7de	-1.0065877
3	0xbe3db562	-0.18526223
4	0x3e4a7bcb	0.19773786
5	0xbf65f5aa	-0.8982798
6	0x3f66787f	0.9002761
7	0xbf40eedd	-0.75364476
8	0xbf7a296c	-0.97719455
9	0x3eed4c17	0.46347114
10	0x3eec9252	0.46205384
11	0xbf89f8b8	-1.0779028
12	0xbf63b7bd	-0.8895224
13	0x3e2f40fb	0.17114632
14	0x3ea18f25	0.31554523
15	0x3ee749cd	0.45173493
16	0x3f751076	0.9572824
17	0x3e8871f3	0.26649436
18	0xbece77ee	-0.40325874
19	0x3f614bdd	0.88006383
20	0x3e54c243	0.2077723
21	0xbead6ce4	-0.3387214
22	0x3ef8f4f6	0.4862439
23	0x3f8496a2	1.035847
24	0xbed6cd95	-0.41953722
25	0x3e935dcc	0.287825
26	0x3f82eb74	1.0228105
27	0xbc1c7bbc	-0.009550985
28	0xbf498128	-0.787127
29	0xbec18d2e	-0.37803024
30	0xbf77b1ce	-0.96755683
31	0xbe5e0062	-0.21679834
32	0xbf8b21a1	-1.0869638
33	0x3db21349	0.086950846
34	0x3e4326cd	0.1905777
35	0xbf7e0ae3	-0.9923536
36	0xbf738d39	-0.95137364
37	0x3f9392b9	1.1529151
38	0xbed39d7b	-0.41331086
39	0xbf436356	-0.7632345
40	0xbe88a2ff	-0.26686856
41	0xbf74e6e5	-0.9566482
42	0xbf255faa	-0.64599097
43	0x3eb8907f	0.36047742
44	0xbf73bc02	-0.9520875
45	0x3e923e85	0.28563324
46	0xbe8630c5	-0.26209083
47	0x3f71b7ba	0.9442097
48	0xbeacb3ee	-0.33731025
49	0x3f64fa87	0.89444774
50	0x3f914373	1.1348709
51	0xbe7476ae	-0.23873398
52	0xbf6f8836	-0.93567216
53	0xbf5a316a	-0.8523165
54	0xbeb6c1b5	-0.35694662
55	0x3e5e0def	0.21685003
56	0x3de99768	0.114058316
57	0x3f15512e	0.58326995
58	0xbe381860	-0.17978048
59	0x3f73546a	0.9505068
60	0xbf2fe8be	-0.6871451
61	0x3eecaa54	0.462237
62	0xbf6b9c58	-0.92035437
63	0x3f6f82b9	0.9355884

architecture.4.weight f4 [1, 64]
0	0xc0c82ff1	-6.255852
1	0xc0ae57e5	-5.4482293
2	0x40ad7460	5.420456
3	0x40c45735	6.1356454
4	0xc0ba1ed0	-5.8162613
5	0x40acb5d3	5.3971953
6	0xc0abc456	-5.367717
7	0x40aeaf00	5.4588623
8	0x40aeeda5	5.4665093
9	0xc0b2de18	-5.589611
10	0xc0aca4c5	-5.3951135
11	0x40b008b4	5.5010624
12	0x40afc635	5.492945
13	0xc0c6e465	-6.21538
14	0xc0ac7796	-5.389598
15	0xc0b12e37	-5.5368915
16	0xc0b36f0a	-5.6073046
17	0xc0bf6e37	-5.982204
18	0x40add177	5.4318194
19	0xc0b2dbb4	-5.589319
20	0xc0b5ef53	-5.6854644
21	0x40b8bfbc	5.773405
22	0xc0acc209	-5.398686
23	0xc0ae7d44	-5.452791
24	0x40b62a35	5.692652
25	0xc0d27d38	-6.5777855
26	0xc0ababa0	-5.3647003
27	0x40b965ad	5.7936616
28	0x40b3e416	5.6215925
29	0x40b549ee	5.6652746
30	0x40ad8bff	5.4233394
31	0x40c66a15	6.2004495
32	0x40abf036	5.3730726
33	0xc0badb83	-5.839296
34	0xc0c19d8d	-6.0504823
35	0x40ab2955	5.3487954
36	0x40acb8ce	5.397559
37	0xc0ac34f2	-5.381463
38	0x40add8b7	5.4327044
39	0x40aead33	5.4586425
40	0x40b3c7f3	5.618158
41	0x40aa831f	5.328506
42	0x40b3de9b	5.6209235
43	0xc0b3bc36	-5.616725
44	0x40b01616	5.502696
45	0xc0c1632f	-6.0433574
46	0x40af8ca5	5.4859185
47	0xc0b5ffb4	-5.6874638
48	0x40b15d1c	5.542616
49	0xc0ad79df	-5.421127
50	0xc0ab2420	-5.34816
51	0x40c162a9	6.0432935
52	0x40aaeb63	5.3412337
53	0x40b14703	5.5399184
54	0x40ae38ba	5.4444246
55	0xc0cc3d05	-6.3824487
56	0xc0c5b276	-6.178035
57	0xc0b5fd3d	-5.687163
58	0x40bdc769	5.930592
59	0xc0b8729d	-5.763991
60	0x40afa949	5.4894147
61	0xc0b0d7b8	-5.526333
62	0x40a97970	5.296074
63	0xc0b090f9	-5.517697

exp_avg f4 [64, 27]
0	0x36bcc1ef	5.6254135e-06
1	0x37158ad8	8.913419e-06
2	0x366a0739	3.4872921e-06
3	0x36cebb7e	6.1611054e-06
4	0xb60b1542	-2.0724988e-06
5	0xb6d32305	-6.292367e-06
6	0x36a7234c	4.981097e-06
7	0x36b7d899	5.4790403e-06
8	0x36320807	2.652874e-06
9	0xb72373fd	-9.742563e-06
10	0x373dc7be	1.1311784e-05
11	0x3703f1ef	7.864538e-06
12	0x3760ce76	1.3399511e-05
13	0xb69543b3	-4.4484273e-06
14	0x36c39269	5.8284973e-06
15	0x369dc9be	4.7024505e-06
16	0x3392b5c5	6.8317185e-08
17	0xb73ea802	-1.1364e-05
18	0xb6a93541	-5.042792e-06
19	0x36ec097a	7.0344513e-06
20	0xb708bcb8	-8.150171e-06
21	0x36902a1b	4.296436e-06
22	0x363193ec	2.6461157e-06
23	0xb637148e	-2.728109e-06
24	0x3623ebac	2.4426072e-06
25	0x371ed37a	9.466772e-06
26	0x374537cb	1.1755105e-05
27	0xb70c3e78	-8.359195e-06
28	0x3633398a	2.670657e-06
29	0x35bdf964	1.415418e-06
30	0x368eae6f	4.2522365e-06
31	0xb5e55b77	-1.7088449e-06
32	0x365fb2ea	3.3333731e-06
33	0x361a07d0	2.2952336e-06
34	0x332823fe	3.9148283e-08
35	0x3627bcf0	2.4994915e-06
36	0xb69371e3	-4.3941996e-06
37	0xb65c612d	-3.2839118e-06
38	0x36aca5d8	5.145306e-06
39	0x3639e383	2.7699577e-06
40	0x36135821	2.1956005e-06
41	0xb65f006a	-3.322983e-06
42	0xb6b6a34e	-5.443034e-06
43	0xb519c5ce	-5.7284785e-07
44	0xb5e054a3	-1.6713933e-06
45	0x369fad1d	4.7587223e-06
46	0xb661ed8d	-3.3665885e-06
47	0x36d1e3d4	6.255208e-06
48	0x36965804	4.4805947e-06
49	0xb6002731	-1.9096299e-06
50	0xb52c86cd	-6.4271154e-07
51	0xb661486d	-3.356977e-06
52	0xb63eb0a5	-2.8415027e-06
53	0x36ca5214	6.0296243e-06
54	0xb5c7e9e2	-1.4894724e-06
55	0x364e5b30	3.074947e-06
56	0x34737aae	2.2675769e-07
57	0x35ed0d0a	1.7661671e-06
58	0x35344a2a	6.716315e-07
59	0xb69b0162	-4.619521e-06
60	0x364f04ef	3.0848275e-06
61	0x35aeda50	1.3027548e-06
62	0x33acef0e	8.052858e-08
63	0x3572823f	9.034156e-07
64	0x36e10791	6.7064034e-06
65	0x3606d539	2.0091668e-06
66	0x363ad355	2.7839171e-06
67	0xb740c08d	-1.14889235e-05
68	0x344f0ee2	1.9283792e-07
69	0xb5e50843	-1.7064234e-06
70	0xb70f4741	-8.540054e-06
71	0xb686c15c	-4.016021e-06
72	0x343c0935	1.7512214e-07
73	0x36674198	3.4459863e-06
74	0xb694876e	-4.42651e-06
75	0x3614dc78	2.2182048e-06
76	0xb52fe5b0	-6.552682e-07
77	0xb558da6b	-8.078411e-07
78	0x366ab067	3.4971397e-06
79	0x36c25499	5.791499e-06
80	0x365ae8dc	3.2620073e-06
81	0x3249cc07	1.174613e-08
82	0x36193b1a	2.2833178e-06
83	0x35e3f275	1.6983382e-06
84	0x36d364ee	6.30004e-06
85	0x3647b3a7	2.9757882e-06
86	0xb5b733ff	-1.3649695e-06
87	0x363062b2	2.6283492e-06
88	0x3697e058	4.5262677e-06
89	0x351b8b7f	5.7944993e-07
90	0x36837d98	3.9187253e-06
91	0xb5ba28b6	-1.3869928e-06
92	0x366f4d3e	3.5658736e-06
93	0xb5fca92f	-1.8824702e-06
94	0xb59fb932	-1.1900322e-06
95	0x3587d5a6	1.0120464e-06
96	0x3646be50	2.9615076e-06
97	0xb59048c3	-1.0750013e-06
98	0xb604559a	-1.971936e-06
99	0x3721cdf4	9.6443e-06
100	0x35d69208	1.5986743e-06
101	0x35a956dd	1.2616762e-06
102	0x36538da1	3.152389e-06
103	0x36c93722	5.996685e-06
104	0x363cae97	2.8115808e-06
105	0xb5da8b71	-1.6282848e-06
106	0xb643cbff	-2.9176006e-06
107	0x36549a12	3.1680142e-06
108	0xb6ef2833	-7.127435e-06
109	0x356603c7	8.5687174e-07
110	0xb51ce2e0	-5.8444675e-07
111	0xb7471749	-1.1866746e-05
112	0xb716ed3d	-8.995933e-06
113	0xb6881097	-4.055047e-06
114	0x36370a12	2.7274987e-06
115	0xb717645e	-9.02367e-06
116	0x374b423e	1.2115166e-05
117	0x372abb1f	1.0176357e-05
118	0xb670a50e	-3.5858861e-06
119	0xb772a269	-1.4462138e-05
120	0x350e6fe7	5.306196e-07
121	0xb557a8e6	-8.033952e-07
122	0xb59ad32c	-1.1535353e-06
123	0x35b143ba	1.3207239e-06
124	0x369003a8	4.29196e-06
125	0x3552dd9b	7.8553575e-07
126	0xb736f97f	-1.0906136e-05
127	0xb6872a15	-4.0282125e-06
128	0xb6f3b439	-7.262945e-06
129	0xb5ef4b4d	-1.7828803e-06
130	0xb598dde4	-1.1389461e-06
131	0x377a14e9	1.490603e-05
132	0x37166abe	8.96555e-06
133	0xb6d56d4a	-6.3606176e-06
134	0xb6b1e69b	-5.301857e-06
135	0xb691a2bf	-4.340283e-06
136	0x3692d790	4.376234e-06
137	0x3556a5a3	7.9962246e-07
138	0xb429127f	-1.574608e-07
139	0xb6edcb54	-7.086821e-06
140	0x370b4eb3	8.303369e-06
141	0xb6c5b161	-5.891707e-06
142	0x359b13b6	1.1554137e-06
143	0x3492a96c	2.731789e-07
144	0xb58de1d3	-1.0571042e-06
145	0x369321eb	4.38489e-06
146	0x369f6669	4.7504914e-06
147	0x36f447a2	7.280106e-06
148	0x33b4d2cb	8.420246e-08
149	0xb624d3d2	-2.45612e-06
150	0x35c170dd	1.4412468e-06
151	0xb6118006	-2.1681203e-06
152	0xb6873ae5	-4.0301697e-06
153	0xb38f6889	-6.677971e-08
154	0xb63c33b8	-2.8044287e-06
155	0x36897fdf	4.0978043e-06
156	0xb7042ab2	-7.877754e-06
157	0x3623957a	2.43759e-06
158	0xb635b144	-2.7074284e-06
159	0xb544f6e5	-7.337497e-07
160	0x3701c61b	7.735124e-06
161	0x3688c79e	4.0763543e-06
162	0xb61ba604	-2.3193434e-06
163	0x3596b9da	1.1229961e-06
164	0x3617c10e	2.2613126e-06
165	0x368ddf46	4.22812e-06
166	0x370bf92c	8.3430605e-06
167	0xb6f27937	-7.2262733e-06
168	0x36ae545f	5.195426e-06
169	0x36f1d370	7.2069743e-06
170	0x355f9f53	8.330582e-07
171	0xb5eead6d	-1.7782855e-06
172	0x3676c038	3.6768743e-06
173	0xb5aba042	-1.2787134e-06
174	0x365c1de4	3.2799953e-06
175	0x36bc6815	5.6149534e-06
176	0xb607a85c	-2.0214566e-06
177	0x3606ab07	2.0067107e-06
178	0x3707cd96	8.094494e-06
179	0x35a3ded0	1.2209293e-06
180	0x36871ad6	4.0264376e-06
181	0x36fad30b	7.4751492e-06
182	0xb70c686c	-8.368963e-06
183	0x37048f98	7.901246e-06
184	0x36a6ae0b	4.967447e-06
185	0xb6892fed	-4.0884975e-06
186	0x354d0029	7.6368684e-07
187	0x364f28a1	3.0869053e-06
188	0x35508451	7.7678584e-07
189	0xb595f936	-1.1173895e-06
190	0xb54598e6	-7.3610715e-07
191	0xb6824e2c	-3.8834023e-06
192	0x37429310	1.1597542e-05
193	0xb6a28827	-4.8438264e-06
194	0xb6853957	-3.970384e-06
195	0x36f20ef1	7.2139014e-06
196	0x371e902a	9.4511e-06
197	0x3670edcc	3.5901203e-06
198	0xb58b8685	-1.0395457e-06
199	0x36a1add7	4.8184115e-06
200	0x3720b58c	9.579013e-06
201	0x35cc7c59	1.5235374e-06
202	0xb56f4e94	-8.9148784e-07
203	0xb5d90f14	-1.6172148e-06
204	0xb644a84a	-2.9304233e-06
205	0x361a1a40	2.2963068e-06
206	0xb632fce8	-2.6671278e-06
207	0x37322ce8	1.0620082e-05
208	0xb4f9709e	-4.6461804e-07
209	0xb6a858ab	-5.0171125e-06
210	0x36a3ba2c	4.879452e-06
211	0x363e6f30	2.8376926e-06
212	0xb63c65ca	-2.8073432e-06
213	0x3639f58a	2.771007e-06
214	0x371028fd	8.592612e-06
215	0x374a8f53	1.20735085e-05
216	0xb62e2631	-2.595025e-06
217	0x371da03b	9.395236e-06
218	0x374881e1	1.1951169e-05
219	0x3738870d	1.0998699e-05
220	0x3624f22f	2.4578874e-06
221	0xb7a79271	-1.9976143e-05
222	0x3781eb00	1.5487429e-05
223	0x3787b89b	1.6179218e-05
224	0x37125c41	8.723758e-06
225	0xb7438c2a	-1.165554e-05
226	0x37a78924	1.9971812e-05
227	0x36920c44	4.352567e-06
228	0xb4da4d92	-4.0662104e-07
229	0x3755b4c9	1.2737882e-05
230	0x37419de5	1.1540459e-05
231	0xb6f0ae39	-7.1728396e-06
232	0xb7206bf6	-9.56188e-06
233	0xb6b35ecf	-5.345653e-06
234	0x35b56547	1.3515026e-06
235	0x37384023	1.0982188e-05
236	0xb7966661	-1.7929067e-05
237	0x379fc53d	1.9046123e-05
238	0x36af3cc3	5.22248e-06
239	0xb681b282	-3.8652806e-06
240	0x369c3eef	4.6564887e-06
241	0x37a683c6	1.9850104e-05
242	0x37818783	1.5441101e-05
243	0x359ca2e0	1.1670309e-06
244	0x36ceb6ba	6.1605506e-06
245	0x366aa88f	3.4966831e-06
246	0xb51f2abb	-5.9294297e-07
247	0x369ed9aa	4.7341064e-06
248	0xb7bcdfda	-2.2515585e-05
249	0x36e3a43b	6.784246e-06
250	0x37509190	1.24316575e-05
251	0x36511d4d	3.1160482e-06
252	0xb71ffd66	-9.536137e-06
253	0x37836759	1.5664542e-05
254	0x360630b1	1.9995898e-06
255	0x361bd848	2.3222692e-06
