raisimGymTorch/data/ouzel_only_planning/2022-05-09-12-17-53/full_23000.pt (torch, 162032 bytes, 36 tensors)

architecture.0.weight f4 [64, 27]
000000 95 36 1b 3d f4 91 a7 bd 21 55 c7 3e dd 2b b1 3c
       0.03789385 -0.08182135 0.38932136 0.021627361
000010 37 d9 48 3e 5b 9e 19 be 16 af c1 be 3e 58 1a 3f
       0.19614111 -0.15001814 -0.37828892 0.60290897
000020 1f c5 81 bc 0e eb 13 3f 5c d5 23 be 70 3b d5 bd
       -0.015841065 0.5778054 -0.15999359 -0.104117274
000030 4f 8e 61 3e 04 57 8e be 8f 6e 06 bd 27 23 cd be
       0.22026943 -0.27800763 -0.03282028 -0.40065882
000040 59 50 2b 3f 68 75 bb 3e 34 84 e2 bd 20 c5 99 bd
       0.66919476 0.3661301 -0.11060372 -0.07508302
000050 11 b9 5b 3d 27 ad e0 bc 56 1e 1a 3e a3 24 20 bd
       0.05364329 -0.027426315 0.15050635 -0.03909744
000060 de 7b 01 3f c2 a3 ef be 76 9a 41 bc 5d 72 5f 3d
       0.5057963 -0.46804625 -0.0118166115 0.054552425
000070 11 e8 d0 3c e5 ea e3 be 27 6d 04 3e f1 3c 11 3e
       0.025501283 -0.44515148 0.12932263 0.14183404
000080 51 26 c3 3d 21 6b f8 bd 00 5f e0 bd ae 23 5c be
       0.09528793 -0.12129808 -0.1095562 -0.21497986
000090 22 71 5b 3d 49 51 c9 be 13 e6 d4 3d 21 42 2a be
       0.05357469 -0.39319828 0.10395446 -0.16626789
0000a0 18 a4 81 3e 51 6a c0 be 16 6d 74 3e 13 59 4d bd
       0.25320506 -0.37581113 0.23869738 -0.050133776
0000b0 1e 81 49 3e 15 79 9a 3e 55 8c 2b 3e c0 4d a8 3e
       0.1967816 0.30170503 0.16752751 0.3287182
0000c0 9a 08 1f be 89 89 92 3c c9 df a5 be c5 61 ea be
       -0.15530625 0.017887847 -0.32397297 -0.45777717
0000d0 80 1c 83 bd 36 9b 20 be 7c 25 22 3e 8b 8f 1d 3f
       -0.0640192 -0.15684208 0.15834612 0.61547154
0000e0 db aa 94 3e 90 ff ed 3e 8f 9f 3e 3e 64 56 6d 3d
       0.29036602 0.4648404 0.18615554 0.057943717
0000f0 4f 0c 37 bd ca f9 23 be 6e 87 16 bf 4f 55 05 bd
       -0.044689473 -0.16013256 -0.588004 -0.03255206
000100 e2 7b ba bd 5f dc 40 3d cf 67 75 bd f7 e9 42 3e
       -0.0910566 0.047085162 -0.059913453 0.19034563
000110 d1 14 b8 bd df f1 22 3d 63 10 a6 bd f8 75 7a 3e
       -0.089883454 0.039781447 -0.08108594 0.24459064
000120 ee ae 0b be ec 39 56 3e 53 f7 7e 3e 71 85 fc 3d
       -0.13640949 0.20920533 0.24899034 0.123301394
000130 65 e7 9d 3d 91 2d 5e be f9 8b dd bd 4a b4 53 be
       0.07710151 -0.2169707 -0.10817713 -0.20674244
000140 35 7e c8 bb 70 fc a7 be 7d 32 56 be 43 42 bc bd
       -0.0061185607 -0.32809782 -0.20917697 -0.09192326
000150 eb f1 b5 3d dc bd 0a 3e 28 e8 d9 3e 05 05 f5 bd
       0.08884033 0.13548988 0.42559934 -0.11963848
000160 93 14 5f be 49 cb 04 3e 3d 00 4f bd 9f 86 89 be
       -0.21785192 0.12968172 -0.050537337 -0.2686052
000170 c2 af 84 3a 8c bb 49 bf b1 9e bc 3d d2 a4 2a 3e
       0.0010123181 -0.788018 0.092099555 0.16664436
000180 1c 95 9c 3c a9 79 91 3b be 65 1c ba b1 4b 5f 3d
       0.01911407 0.004439552 -0.00059660885 0.054515544
000190 ac ef 57 3e 3f c3 a4 3d 49 20 a5 3c e2 ea 62 be
       0.21087521 0.08045053 0.020156996 -0.22159913
0001a0 01 41 64 3e be 80 68 3e d7 e1 41 3c 0a 66 ec bd
       0.22290422 0.22705361 0.01183363 -0.115429
0001b0 c4 d6 24 be da 89 a3 3e 03 a0 db be 10 67 48 3e
       -0.16097552 0.3194111 -0.42895517 0.19570565
0001c0 8d 17 28 3e f3 6d 46 be 68 6a bc 3e 67 3b 80 3d
       0.16415234 -0.1937788 0.36799932 0.0626133
0001d0 3f 9c 38 be 5d b4 bd bd ac ec b6 be 91 cd 35 3e
       -0.18028353 -0.09262917 -0.3572744 0.17754199
0001e0 87 ad 0c 3d 0a bb 9d 3d 1d 4a a8 3e be 33 24 be
       0.034345176 0.077016905 0.32869044 -0.16035363
0001f0 84 3a de bd 87 37 f0 3e fe 26 6f 3e 90 50 d9 3e
       -0.10851005 0.46917364 0.23354718 0.42444277
000200 a6 79 8f be eb be b0 3e a2 67 93 3d 35 5e 12 be
       -0.28022498 0.3452066 0.07197501 -0.1429375
000210 9e 6e de bc 7f 19 9d be af f4 f4 3d 00 64 aa be
       -0.027152356 -0.30683514 0.11960732 -0.3327942
000220 0e df fd bd 6e 85 0d be fb 69 90 3e d0 a0 93 bd
       -0.1239606 -0.1382043 0.28205857 -0.07208407
000230 1d 98 24 3e a6 0d 4e 3e 7b 2a 8a be b1 57 00 be
       0.16073652 0.20122394 -0.26985535 -0.12533452
000240 54 6e 15 be ba 70 fa 3d 0e 5f 6a 3e d8 a9 98 3b
       -0.14592868 0.12228532 0.22887823 0.004658919
000250 3a 7d 56 3d f6 41 e2 3e 52 d5 e1 bc bf fc be be
       0.05236552 0.4419095 -0.02756754 -0.37302205
000260 7f 1f 00 bd fb 75 ae 3d 6d 8a aa be 08 35 81 be
       -0.031280037 0.08518597 -0.33308735 -0.25235772
000270 31 a1 bc 3e 64 f7 3b bf d4 7e 51 3c d1 eb 32 be
       0.3684173 -0.73424363 0.012786586 -0.1747277
000280 e7 87 3d 3e 5e 09 21 bd 3a b9 a4 bc 38 4a 10 bf
       0.18508874 -0.039315574 -0.020107854 -0.5636325
000290 51 5a b6 be b3 d3 94 3e 4a 54 83 be 45 5a f6 3d
       -0.3561578 0.29067764 -0.25650245 0.12028936
0002a0 12 73 d9 3d 80 cc 8f bb 38 9d bc be fe f8 b2 3e
       0.10617651 -0.004388392 -0.36838698 0.3495559
0002b0 1f 53 bc bd 1d 14 95 3e 50 fe 62 3e 33 33 c4 3d
       -0.091955416 0.29116908 0.22167325 0.09580078
0002c0 34 f8 23 3e ae 66 b7 3d 8f ed 57 be 31 1a a7 be
       0.1601265 0.089551315 -0.21086715 -0.3263717
0002d0 a4 e2 00 3e 46 ad 5b bd a5 2d 5c 3d 6d 20 b0 3e
       0.12586457 -0.053632043 0.053754468 0.3439974
0002e0 b1 0a 65 3d 2a 88 5e 3e f6 c4 ab 3d 23 fc f9 3d
       0.0559184 0.2173163 0.08387177 0.122062944
0002f0 11 ae b5 3d 3d 96 a0 be d4 41 0c 3d f5 b5 eb be
       0.08871091 -0.31364623 0.034242466 -0.4603726
000300 e9 03 7b 3e 8d 96 00 be e8 48 61 be db a6 52 3e
       0.2451321 -0.1255743 -0.22000468 0.20571463
000310 65 04 8d 3d d7 c2 00 be cc 2a 84 bd ff 70 c7 bd
       0.06885604 -0.12574326 -0.06453475 -0.09738349
000320 44 6d 32 be 52 e4 ac 3d 2f 9e c5 3e 9f 38 e3 3d
       -0.17424494 0.08441986 0.38597247 0.11094784
000330 de 9c 65 be 28 dc ba be 06 f1 81 3d c5 38 cf bd
       -0.22423121 -0.3649609 0.063448 -0.1011825
000340 f9 c4 e4 3d 81 a6 19 3e 0f 95 23 be 33 b7 ee bd
       0.11170382 0.15004922 -0.1597483 -0.11656036
000350 7d 62 3b be d6 0d a0 3d 97 08 1b 3d 0a 55 c2 3d
       -0.18299289 0.07815139 0.03784999 0.09488876
000360 6c 21 fe bd 7a e3 d6 3c 9e 80 bc 3c b9 dc c5 be
       -0.124087185 0.026231516 0.023010548 -0.3864496
000370 94 ed 7d 3e f2 74 79 3e ce 26 d7 3c 55 96 c7 3d
       0.2479766 0.24361017 0.02626362 0.097454704
000380 e9 bb 8b 3d 78 ef cc bd 89 18 1b 3d 32 f6 5d 3e
       0.068229504 -0.100066125 0.037865195 0.21675947
000390 62 98 2e 3e 8c 0e e8 be ed 1e 35 3f 16 0e 4a be
       0.17050317 -0.45323598 0.70750314 -0.19731936
0003a0 37 df d1 bd 0d 7a 30 3e 18 8a 89 3e 63 3b 9f be
       -0.10247653 0.17234059 0.2686317 -0.31099996
0003b0 c5 b1 f5 bd a9 13 0c 3e f6 b7 48 3e c1 a3 9e 3e
       -0.119967975 0.13679375 0.19601426 0.3098431
0003c0 d7 ea a9 be 13 64 26 be 73 cc ae bd c0 96 91 3e
       -0.3318698 -0.16249113 -0.08535089 0.28435326
0003d0 64 81 34 3e b7 de 16 be ff 77 f0 be a2 f9 b6 3e
       0.17627484 -0.14733396 -0.4696655 0.3573733
0003e0 c0 63 8a bd 45 0b f9 3d 8e 2f ae be e3 e4 cd bd
       -0.06757307 0.121603526 -0.34020656 -0.10053422
0003f0 f0 bb c4 be dd 56 2f 3e da 77 da bd ff 51 b5 be
       -0.38424635 0.1712298 -0.10667391 -0.3541412

architecture.0.bias f4 [64]
000000 de f6 95 bd a4 e4 86 be 4f fe 59 3f d0 d9 a6 3d
       -0.07322477 -0.26346314 0.8515367 0.08147013
000010 82 2c 39 3e 3f b8 0a bf a6 2e 3d bf a0 84 59 bf
       0.18083385 -0.5418739 -0.73899305 -0.84967995
000020 33 03 75 bf f7 26 91 3c f2 13 1a bf 0b 05 b3 3e
       -0.95708007 0.017718775 -0.60186684 0.34964785
000030 90 05 87 3f 6d 13 75 bf 69 2f 8a 3f ca a4 6a 3f
       1.0548573 -0.95732766 1.0795718 0.916577
000040 33 55 26 bf d1 1d d0 be be b4 71 bf 14 94 8a 3e
       -0.64973754 -0.40647748 -0.94416416 0.270661
000050 42 c2 a3 3f 12 43 84 bf 5f 92 57 3f 4d 41 67 bf
       1.2793658 -1.0332968 0.8420772 -0.90334016
000060 a9 03 55 3e 67 af ae 3e c4 73 5d 3e 8a c3 43 bf
       0.20802177 0.34118196 0.21626192 -0.76470244
000070 7d 0d ee be dd 18 b6 bc f7 f2 7c bd bf af ba be
       -0.46494666 -0.022228653 -0.061755147 -0.3646221
000080 95 45 36 bf f7 a5 42 bf 6d ad 3a bf 1c 5d 67 3e
       -0.71199924 -0.7603449 -0.72920877 0.22594112
000090 78 eb 7e 3f 88 57 92 be d9 c0 de 3e 59 42 c2 ba
       0.99578047 -0.28582406 0.43506506 -0.0014820799
0000a0 6c 1d fc be 71 f1 13 bf 0b eb 6b 3f 6d 58 4a be
       -0.49241197 -0.57790285 0.9215552 -0.19760294
0000b0 63 40 05 3e af 0a 17 3f 90 64 16 be b9 c0 bd be
       0.13012843 0.59000677 -0.14686799 -0.37061098
0000c0 a9 62 26 3e a0 f2 86 3f 53 35 47 3f 22 f4 05 3f
       0.16248573 1.0542793 0.7781574 0.5232564
0000d0 15 b3 f2 bc fc e2 81 bf 1f 99 d0 be 66 33 8d 3e
       -0.029626409 -1.0147395 -0.40741822 0.27578276
0000e0 c5 45 35 bf 80 41 87 bf f0 4d 6b 3f d8 08 86 3f
       -0.70809585 -1.0566864 0.919158 1.0471449
0000f0 8c f0 8c 3f 4d 69 33 3f fe 1b 06 be d8 a5 0b 3e
       1.1010909 0.7008255 -0.13096616 0.13637483

architecture.2.weight f4 [64, 64]
000000 3f a1 0b be fb d2 a1 3e 12 b7 41 be bb 33 63 be
       -0.13635729 0.31606278 -0.18917492 -0.22187702
000010 1f d0 8c 3d a9 0e 8c 3e ae 40 01 3e 67 53 a2 3e
       0.068756334 0.27354935 0.1262233 0.31704256
000020 5e 68 97 3e f2 43 c2 bd 9c 16 ac 3e 93 cf 8d bd
       0.29571813 -0.09485616 0.33611 -0.06924357
000030 51 50 0b bf aa 26 63 be 4c cc 63 bd 88 34 14 bf
       -0.5441943 -0.22182718 -0.055614755 -0.57892656
000040 49 7f b7 3d ba 59 19 3e 06 1c cb 3e 9d 5f da bd
       0.089598246 0.14975634 0.39669818 -0.10662768
000050 a4 38 25 bf 94 45 f8 3e 2d e4 77 be c4 43 67 3e
       -0.6453955 0.48490584 -0.24208136 0.22584444
000060 0e d1 14 3e 1c 9d 27 be 75 c5 25 bc f4 c8 00 3f
       0.14532873 -0.16368526 -0.010117878 0.5030663
000070 be 95 33 bd 33 e3 74 be f5 d6 4b 3d 8e 62 63 3e
       -0.043843977 -0.23914795 0.049765546 0.22205564
000080 37 45 48 3e 25 c4 bf 3e f2 22 c8 3d 3b de a6 3d
       0.19557653 0.37454334 0.0977229 0.08147856
000090 98 32 be bd 5f 5f a5 bc b2 bf 5f bc a6 34 5f 3e
       -0.09286994 -0.020187078 -0.013656544 0.21797428
0000a0 e3 c5 76 3e df 8f f4 bd 45 ec 3f 3e 98 f6 82 bd
       0.24098925 -0.11941504 0.18742473 -0.0639469
0000b0 4c ad 00 bf cb 2b 8b 3d 6d 09 c0 3d 18 a8 2c 3e
       -0.5026443 0.06795462 0.09376798 0.16860998
0000c0 a0 e5 30 3e 9a 43 6e 3d ba 90 60 be 25 ce cc 3d
       0.17275095 0.05816994 -0.21930209 0.100002564
0000d0 30 5b 45 3e 82 f9 1d 3e be e9 83 3e a7 2f 3b bd
       0.19273067 0.15427211 0.2576427 -0.04569974
0000e0 b5 d8 d8 bc 2f ac aa bd 14 92 04 bf d6 81 d8 bd
       -0.026470521 -0.08333623 -0.517854 -0.10571639
0000f0 3f 45 a6 be 20 1c db be d1 cd 86 be ec 6e 28 3e
       -0.32474706 -0.42794895 -0.263289 0.16448563
000100 4c ea 5a 3d 07 95 64 be 6d dd ae 3d b7 a8 a6 3d
       0.0534461 -0.22322474 0.08538327 0.081376486
000110 ed 12 47 3e 6a 8e 1e bd da c3 07 be 81 b5 f8 bd
       0.19440813 -0.038710035 -0.13258305 -0.12143994
000120 3a e2 bf 3e d3 f0 a6 bd 6a 36 c4 3a c6 99 1b bc
       0.37477285 -0.08151402 0.001496983 -0.009497112
000130 f9 59 27 3e 33 6f 87 3e 2c cd ec 3d 23 3d 0d 3e
       0.16342916 0.26452026 0.11562571 0.13792853
000140 da 97 71 bd 89 7d 50 3e 31 8c 50 be c2 9f dd bd
       -0.058982708 0.20360388 -0.20365979 -0.10821487
000150 6b 2d c9 3e 1e b0 20 3c 79 08 00 be ba 20 04 be
       0.39292464 0.009807615 -0.12503232 -0.12903109
000160 99 a2 d3 3d d5 93 b9 3e 63 14 c0 3c f2 93 06 be
       0.103337474 0.362456 0.023447221 -0.13142374
000170 46 ae e1 3e 69 03 25 3e 00 13 bf ba 06 08 89 3e
       0.44078273 0.16114582 -0.0014577806 0.26763934
000180 f8 ba bd be bf 06 1a be b8 35 18 bd f9 3f 89 3d
       -0.37056708 -0.15041636 -0.037160605 0.06701655
000190 50 6a 78 3e f2 7c 3b be 7d 2c 6e be ba af 12 3e
       0.24259305 -0.18309382 -0.23259158 0.14324847
0001a0 92 af 28 3e 16 b7 52 bd 94 c9 81 be 2e 59 11 3e
       0.16473225 -0.051444136 -0.25349104 0.14194176
0001b0 24 55 63 3e cd 5c 26 be 98 0a 13 3e c2 7a f2 b9
       0.22200447 -0.16246338 0.1435951 -0.000462493
0001c0 65 44 40 be b7 f6 e9 bd e1 22 4e 3d 5f de 2e bc
       -0.1877609 -0.1142401 0.050326232 -0.010673135
0001d0 97 12 a1 be fe bd f9 3e f5 64 11 3e 8e 39 29 3e
       -0.31459495 0.48777765 0.14198668 0.16525862
0001e0 29 6e 63 3e b5 43 00 3f 50 91 22 be 1f 5f 8a 3e
       0.22209992 0.5010331 -0.15875745 0.27025697
0001f0 61 eb 13 3f 2d 88 03 bd 08 cc 26 3d 0c a8 c4 3d
       0.57781035 -0.03211229 0.040721923 0.09602365
000200 ef 97 70 3e 6b d8 0d bf 23 85 34 bd 91 5e 89 be
       0.23495458 -0.5540835 -0.04407228 -0.2682996
000210 a9 c3 0c bd 15 1e f6 bd 5b 1b d4 bd 1c ca f5 bd
       -0.034366284 -0.120174564 -0.1035678 -0.1200144
000220 ac 6a 95 3e 4a 52 cd bc 45 6f 40 be cd 8f 19 be
       0.29182947 -0.025063653 -0.18792446 -0.14996262
000230 f5 ba 0f be 30 d5 ad be 79 9a 67 bb 84 b8 ce be
       -0.14036162 -0.33951712 -0.0035339876 -0.4037515
000240 43 f3 e5 be 94 6e 0c 3d fd 9e 88 be 8b d4 55 be
       -0.44912156 0.034285143 -0.26683798 -0.2088186
000250 13 fe 36 3f 25 48 7d be 8a f1 8a 3e 71 12 31 be
       0.71481436 -0.24734552 0.27137405 -0.17292191
000260 48 e3 22 3f a0 af 2b 3c c2 22 ad 3d 8e c8 58 3e
       0.63628054 0.010478884 0.08453895 0.21170256
000270 87 92 8f 3d 76 5e 40 be fc 54 4d 3e 3c a6 09 be
       0.0701037 -0.18786034 0.2005195 -0.1344232
000280 b8 7f a1 be 82 32 bd 3e 74 f0 77 be 93 1c 03 be
       -0.31542754 0.36952597 -0.2421282 -0.12803869
000290 6f 49 9e 3e 66 f4 fe bd 98 a7 c7 bd af 6f 4b 3d
       0.309154 -0.12448959 -0.09748763 0.049667057
0002a0 90 c2 01 3c 30 d8 9c be 3a b9 dc 3e ec 28 79 be
       0.0079199225 -0.30633688 0.43110067 -0.24332017
0002b0 3e 4e fc bd 7c c8 de 3e 7b 32 3b be 05 dd b1 bd
       -0.12319611 0.43512332 -0.18280976 -0.08684734
0002c0 a5 f9 db 3d dd bf ef 3e db 75 a1 be 98 38 4b 3e
       0.10740975 0.46826068 -0.3153523 0.19845808
0002d0 51 0c c9 3e 76 78 09 bd c1 6f 4d be c9 01 21 be
       0.3926721 -0.033562146 -0.20062162 -0.15723337
0002e0 d5 a7 65 be 5a 31 0d bf 0a 25 9f 3e 86 00 12 3c
       -0.22427304 -0.5515343 0.31082946 0.008911258
0002f0 b4 3e 30 be 7d 09 5c 3d dc 44 50 3e 7f 26 48 3d
       -0.1721142 0.053719986 0.20338768 0.048864838
000300 e7 8c d3 3d 08 65 33 bc 44 f4 11 be b3 00 9c be
       0.10329609 -0.010949381 -0.14253336 -0.30469283
000310 fe 5c fd 3d 11 4f bb bd a9 67 29 3c 11 0f 3f be
       0.123712525 -0.0914594 0.010339656 -0.18658091
000320 b9 47 63 3e 1a c3 4f be 3f f7 09 3f 42 9a 03 bf
       0.22195329 -0.20289269 0.5389289 -0.51407254
000330 8b 0f 16 bf c2 ac a9 3e 3a 70 87 be 89 7c 88 be
       -0.58617467 0.33139616 -0.2645281 -0.26657513
000340 b4 c3 18 3e d1 87 0c be b2 2a 62 3e 01 9b 20 3e
       0.14918405 -0.13723685 0.220866 0.1568413
000350 d7 0e d7 be 1a ed 95 3e 8d 32 ee bd 13 4f f7 bd
       -0.4200351 0.29282457 -0.116307355 -0.12075629
000360 c1 a0 95 be 95 ca af 3c 72 7d af be ef d6 67 3e
       -0.29224208 0.021458903 -0.34275395 0.22640584
000370 fb c9 86 bc 25 e9 17 be e9 92 4f be 3f 13 4c be
       -0.016453734 -0.14835031 -0.20270886 -0.19929217
000380 81 e6 08 3f 48 f6 87 be de 35 9e 3e 0a 7e 38 3b
       0.5347672 -0.26555085 0.30900472 0.0028151297
000390 49 c9 5c be dd aa bc 3e bd 1e 06 be 5e cb b6 3e
       -0.21561159 0.36849108 -0.13097663 0.35702032
0003a0 0f e7 1c 3e 40 77 01 3e 16 50 8d be ff 42 5c be
       0.15322517 0.12643147 -0.27600163 -0.21509932
0003b0 61 e5 b4 3d 97 db 11 bf 3b 75 03 3f 38 86 38 bd
       0.08832813 -0.5697569 0.51350754 -0.045049876
0003c0 a4 85 a6 bd 4e b9 15 be 5a 74 45 be eb a7 70 be
       -0.08130959 -0.1462147 -0.19282666 -0.23501556
0003d0 1f e4 c3 3d 66 f6 54 3e 7d 4c 97 3d a6 0b 3d 3e
       0.09564995 0.20797119 0.07387636 0.18461475
0003e0 75 9e 8c 3d 53 81 51 3e 5b 64 4c 3e 76 7f 36 be
       0.06866161 0.2045949 0.19960158 -0.1782206
0003f0 88 18 84 be d2 9e 2c be 50 da af bd 1a fe 45 be
       -0.25799966 -0.1685746 -0.08586562 -0.19335213

architecture.2.bias f4 [64]
000000 1e 3e 2e bf e1 e8 d9 bb 19 3d 1b 3f 21 99 52 bf
       -0.68063533 -0.006650076 0.606401 -0.82264906
000010 e1 00 b0 be 0d 40 f8 be 3f 17 4d 3e 00 7c 07 bf
       -0.3437567 -0.48486367 0.20028399 -0.52923584
000020 cd 82 55 be b1 e9 bf be be c9 59 bd ee 20 fb bd
       -0.20850678 -0.3748298 -0.053170912 -0.1226214
000030 f3 e3 39 3e 86 f1 d3 be a4 25 a1 3e 63 0e 01 3e
       0.18153362 -0.41395205 0.3147403 0.12603144
000040 f2 17 82 3e b9 b4 29 3f bd e2 b4 3f de f3 13 3f
       0.25408894 0.66291386 1.4131695 0.57793987
000050 69 fb 03 bf e4 e8 37 bd f5 f1 16 bd 15 dd 3e bf
       -0.51555496 -0.044899836 -0.036851842 -0.74556094
000060 79 e7 36 bf 6c 86 00 3f 1d f0 79 3d bb 62 71 3e
       -0.7144695 0.5020511 0.061020005 0.23572819
000070 09 e7 a4 3f d4 75 7b be ca 10 ec 3e 3b b3 ae 3e
       1.2883006 -0.24556667 0.4610656 0.34121117
000080 80 2e 4f be 39 89 c7 be c2 39 b7 3e 37 60 1f bd
       -0.20232582 -0.3897188 0.35786253 -0.038910117
000090 34 d6 cb be 18 65 ab bd a6 83 b9 be e6 ec 0b 3f
       -0.39811862 -0.083688915 -0.36233252 0.54658353
0000a0 e9 cc a6 bf a0 9f 09 3e 45 d1 72 be 69 6c 95 bd
       -1.3031284 0.13439798 -0.23712642 -0.07296068
0000b0 29 52 bb 3e eb 3e 61 3f a1 5c 8a bf c1 ea bd 3d
       0.3658612 0.8798663 -1.0809518 0.092732914
0000c0 23 05 28 3e cb c1 a8 bd 01 a2 40 bf 4d 7b 6e be
       0.1640821 -0.08240088 -0.752472 -0.23289223
0000d0 c6 d6 8f 3e a1 e6 9a 3d f3 db 35 bf 1c 1d 52 3f
       0.28093547 0.0756352 -0.7103874 0.8207567
0000e0 5c 5d 4d bd 53 ec b6 3d fd 65 03 3e 2a 35 98 3c
       -0.050137863 0.08931794 0.12831874 0.018580038
0000f0 d8 44 8e bd 9e 1b 5d 3e 24 c5 e3 3a 79 95 96 bd
       -0.06946725 0.21592566 0.0017377478 -0.073527284

architecture.4.weight f4 [9, 64]
000000 e1 43 00 bd 4e eb 77 3d 9e da 83 bd d5 d5 9f bc
       -0.031314734 0.06052714 -0.06438182 -0.019511143
000010 67 78 0e 3d ae b9 2a bd 79 75 81 3c 9a ef 34 bd
       0.034782793 -0.041680984 0.015803086 -0.044173814
000020 59 11 f6 3c d4 11 30 bd d8 a8 ee 3a bd 6b 12 bd
       0.030037569 -0.042985752 0.0018208278 -0.03574728
000030 6a f2 76 3d dc 2a 4b bd 90 49 ac 3b e3 1b df 3b
       0.060289778 -0.04960142 0.005257793 0.0068087443
000040 e8 1a 52 bd d1 d6 b7 3c e9 ef 2f bc f6 67 6b bc
       -0.05129519 0.0224413 -0.010738351 -0.014368048
000050 46 f5 2e bc 9a ec 04 3d bc 58 29 bd 83 8a 50 3d
       -0.010678595 0.032452203 -0.04134439 0.050913345
000060 53 72 51 3d 7a be 94 3a 8f ae 10 3d 1d 10 ee 3a
       0.05113442 0.001134827 0.035322722 0.0018162761
000070 8e 5a 0f 3d fa 9a 53 3c 78 d9 5c bc c1 df 8c 3c
       0.03499847 0.012915367 -0.013479583 0.017196538
000080 d0 8e ce bd 4a 4f 94 bc 5b 3d 02 3c 68 39 0c 3c
       -0.10085833 -0.018104214 0.007949199 0.008558609
000090 f5 cf b6 bc c5 34 f2 bc 71 a1 5a 3d 57 56 cf 3c
       -0.022315959 -0.029566178 0.05337662 0.025309725
0000a0 26 c4 64 bd f4 8c e2 bb 8f 53 d8 bc 45 f8 e3 3a
       -0.055851124 -0.0069137756 -0.026407031 0.0017392716
0000b0 5d 37 bb 3d a7 5d 9b bd d7 93 69 bb 6d 52 28 3b
       0.09141419 -0.07586222 -0.0035641098 0.0025683895
0000c0 0d 78 bc bb e5 e4 a9 3b 5e ae 10 bc 2f 54 ad bd
       -0.005751616 0.005184757 -0.008830635 -0.08463322
0000d0 dd 5e 8e 3b 26 3a aa bb 44 92 58 3c c5 1b 24 bd
       0.0043448047 -0.00519492 0.013218466 -0.040065546
0000e0 40 52 05 be 4f 72 c4 bc 73 7f 77 bc 3e 9d ff 38
       -0.13019657 -0.023980288 -0.01510607 0.00012188636
0000f0 b4 de 0e 3d 0d a1 2f bc fd 16 22 ba fd d6 06 3d
       0.034880355 -0.01071955 -0.0006183235 0.032919873
000100 47 77 5f bd e4 03 9e 3d f5 14 17 bd 3e 21 35 bd
       -0.05455711 0.07715586 -0.03688522 -0.044221155
000110 10 95 8e bd 05 bd 5e 3d 2d 94 fe bc af a1 87 bb
       -0.06962025 0.05437948 -0.031076515 -0.0041391472
000120 a0 3c 92 3c 32 38 2d 3d a4 78 70 bb f6 5d 5f ba
       0.017851174 0.04228992 -0.0036693001 -0.0008520776
000130 df 87 ea 3d d1 9c ca 3d de f8 a6 bc 03 6b 14 3b
       0.114516966 0.098931916 -0.020382341 0.0022646792
000140 b4 41 49 bd 8d 99 32 3d 00 63 57 3d 8a ba 32 be
       -0.049134925 0.04360347 0.052584648 -0.17453972
000150 b4 ba 21 bd e1 f2 19 3c 8f 7a c9 bc 0c 5c 69 bd
       -0.039484695 0.009396286 -0.024594573 -0.05697255
000160 7f a9 8c 3c 4a 4f 16 3d 3f e8 33 3b c6 bf ce 3a
       0.017170666 0.03669671 0.0027451662 0.0015773706
000170 b8 fb cb 3c 89 db 70 3b e1 49 98 3c 5d 31 8e bc
       0.024900302 0.0036751947 0.018589916 -0.017357523
000180 8d 3e 8e 3c ce 36 d8 bc d1 0f 98 3c 94 77 91 bb
       0.01736381 -0.02639332 0.01856223 -0.0044393037
000190 be a3 5b 3c 66 de bd bb 0e b2 93 3c 9b 86 38 3d
       0.013405738 -0.005794334 0.018029239 0.045050245
0001a0 eb e9 e9 3d b1 f2 87 3c 43 84 e8 bc 80 90 25 3b
       0.114215694 0.016595216 -0.02838338 0.002526313
0001b0 62 34 3c 3c 1f 09 e6 3c 1b e6 a0 3d 34 49 43 bb
       0.011487098 0.028080521 0.07856389 -0.002979827
0001c0 75 ee 87 bc 7a 85 a2 3b 7a 94 69 3d 80 f4 c8 bc
       -0.016593197 0.0049597593 0.057026364 -0.02453065
0001d0 33 8f 79 3b 88 18 96 3b 49 77 e4 bd 74 94 cb ba
       0.0038079738 0.004580561 -0.11155564 -0.0015531913
0001e0 c8 da a9 3c e3 b9 7d 3c ae 37 b6 bb 77 b0 68 bc
       0.020734206 0.015486213 -0.0055608368 -0.014202229
0001f0 83 87 cd 3c da 23 1b bd 00 ed 8c bb 43 36 52 3d
       0.025089031 -0.037875988 -0.0043007135 0.05132128
000200 73 6e d7 3c 02 fa 28 be e2 63 0f bc c6 3d 2f 3d
       0.026297783 -0.1650162 -0.008751841 0.04278352
000210 55 4b 26 bd a8 6e 32 3d 81 75 d5 bc 9f 2f f7 3c
       -0.040599186 0.04356256 -0.026057007 0.030174075
000220 8f 84 06 3d 9e 6c a0 bb 12 1d 01 bd 6d e4 1d bd
       0.03284126 -0.0048957607 -0.031521864 -0.038547922
000230 f4 0a da 3d 42 16 55 bd 83 fc 21 bb 70 b0 d2 bb
       0.106466204 -0.05202318 -0.002471716 -0.0064297244
000240 19 58 db 3d e1 b6 51 3c bb e1 fd bd e8 61 51 bd
       0.10710163 0.012799949 -0.1239657 -0.05111876
000250 20 63 a2 bc 1c 46 9f bc c8 42 0f bd 42 68 06 bd
       -0.019822657 -0.01944261 -0.034975797 -0.03281427
000260 02 d5 41 bd 80 95 9e 3c 98 1f 79 bb 9e 89 0b 3c
       -0.04732228 0.019358397 -0.0038013216 0.008516697
000270 d2 83 56 3e 00 fb 9b 3c 4b 28 3f bc 45 9a 76 3c
       0.20948723 0.019040585 -0.011667321 0.015051429
000280 20 7c 07 be bc 86 a6 bc 6a 36 ab bc 73 8f 91 bc
       -0.13230944 -0.020327918 -0.02089997 -0.017768597
000290 36 6d ac 3a a0 30 16 bd 59 6d dc 3c 30 d8 45 3d
       0.0013155106 -0.036667466 0.02690761 0.048301876
0002a0 fc 7f 40 3d b9 08 18 bb 86 70 c0 bd 3e 77 78 bc
       0.046997055 -0.0023198558 -0.09396462 -0.015165148
0002b0 47 d1 81 3b 5f 73 fa bc 90 67 1a bd a7 0a 99 3c
       0.0039617154 -0.030572591 -0.03769642 0.018681837
0002c0 ef ef 01 be f1 05 bf 3c 5b de 02 3d 4a fe f1 3d
       -0.12689184 0.023318263 0.031950336 0.1181608
0002d0 a2 ee a1 bb fd 0f 04 bc e8 87 bf 3c e5 b0 c7 3c
       -0.0049417773 -0.0080604525 0.023380235 0.024376342
0002e0 86 66 5f bc f0 8e 83 3b f4 21 e2 bc 87 c9 9a 3a
       -0.013635283 0.004014842 -0.02760408 0.0011809327
0002f0 fb 33 fe 3b 91 a0 b2 bc c4 43 9d 3b 35 e0 9e 3b
       0.0077576614 -0.02180508 0.004799338 0.004848505
000300 a2 32 07 bf 4f 26 1a bd ef 75 06 3f 05 ab d6 be
       -0.52811635 -0.03763419 0.525237 -0.41927353
000310 3d 4a 4c 3c 77 73 8a be ff 24 61 bb 2b 5b fa bd
       0.012468872 -0.27041218 -0.0034354327 -0.1222442
000320 1c 87 6f be aa 49 74 3d 5c 92 8c be 03 f7 1f 3e
       -0.23391384 0.059640564 -0.27455413 0.15621571
000330 b7 50 72 3d 32 92 c0 be a5 a2 0e 3e ac 31 cd 3e
       0.059159007 -0.37611538 0.13929231 0.4007696
000340 c4 1f 85 3d 2c c7 f5 3e 8f bd f7 3e 97 81 73 3e
       0.065001994 0.4800352 0.4838681 0.23779903
000350 5f b6 fd be 1c a9 5a be 91 9e ee bc 05 67 f9 be
       -0.495532 -0.21353573 -0.029128345 -0.4871141
000360 04 93 02 bf c0 fa 9c 3e 96 b7 3f 3d 91 b3 4f 3e
       -0.5100558 0.30660057 0.04680594 0.20283343
000370 68 fa cb 3e 54 c1 b1 be 2e e9 f9 3c 80 36 c2 3d
       0.39839482 -0.3471781 0.030506697 0.09483051
000380 f1 ff 8a 3d d5 ae e3 bd 65 e5 80 3e 58 dc 8b be
       0.06787098 -0.11117331 0.25175014 -0.27316546
000390 b7 13 67 be e1 b5 59 bd 24 e9 4c be f7 b1 0f 3e
       -0.22566114 -0.05315197 -0.20010811 0.14032732
0003a0 93 66 aa be 11 eb 32 be c4 07 68 bd 03 44 5e 3e
       -0.33281383 -0.17472483 -0.05664803 0.21705632
0003b0 fa 2f 02 3f 8f fd 23 3f 22 91 30 be 41 ef 3d be
       0.50854456 0.64058775 -0.17242864 -0.185483
0003c0 0b d9 a4 bb 04 b2 10 3e ee 2e cd bd 4b 28 87 3d
       -0.0050307564 0.14130408 -0.10018717 0.06599482
0003d0 91 39 dd bd 9e 3c 69 3e 9c b1 ec be 26 39 a4 3e
       -0.108019955 0.2277703 -0.46229255 0.3207485
0003e0 47 42 c3 bc 00 0e be bd ba e9 0e 3f ee 9e b5 3d
       -0.023835314 -0.09280014 0.5582539 0.08868204
0003f0 3e 89 f7 3c 1e f7 a6 3d c1 30 a7 be 44 97 ac bd
       0.03021681 0.081526026 -0.32654384 -0.08427289

architecture.4.bias f4 [9]
000000 e2 01 ac bd 7b 3e f2 3c b0 d7 05 bd 54 41 27 3f
       -0.083987966 0.029570809 -0.0326764 0.6533406
000010 18 82 bd 3d e1 d9 a4 bd 78 0e de bc a6 d5 14 3f
       0.09253329 -0.080493696 -0.027106509 0.581385
000020 55 86 fa bd
       -0.12232653

std f4 [9]
000000 cd cc 4c 3e cd cc 4c 3e cd cc 4c 3e cd cc 4c 3e
       0.2 0.2 0.2 0.2
000010 cd cc 4c 3e cd cc 4c 3e c3 0a 4d 3e cd cc 4c 3e
       0.2 0.2 0.20023637 0.2
000020 cd cc 4c 3e
       0.2

architecture.0.weight f4 [64, 27]
000000 e4 a3 6b bc d4 9c 37 bd ba e6 9c bc 96 6f 4c 3e
       -0.014382336 -0.044827297 -0.019152988 0.19964442
000010 c0 55 d7 3e a7 92 c6 be 8a 12 c6 be 08 15 0e bf
       0.4205761 -0.38783762 -0.3868602 -0.5550084
000020 65 c8 7c bf fe 5d ed 3d 99 7d 0a 3e 60 7a 00 bd
       -0.9874328 0.11590193 0.13524474 -0.031366706
000030 73 c4 12 bc 9c 28 ec 3c 05 ae 5c 3b fa 9d 93 3d
       -0.00895797 0.028827958 0.003367306 0.07207866
000040 cf 2b ce bd af 67 a4 be 9e 5d 8a bd 81 e0 d8 be
       -0.100669496 -0.32110354 -0.06756137 -0.42358783
000050 a7 5b d4 3e 6e c4 a8 3e 1d 5e 0e 3f 67 63 7b 3f
       0.41476175 0.32962364 0.55612355 0.9819855
000060 ce da 39 be 98 f8 c4 bd d4 2d 99 3d f5 dd 96 bb
       -0.18149874 -0.09617728 0.07479444 -0.004604096
000070 09 97 24 3d bd bb 27 3d f8 0a c9 bb f3 f5 82 3d
       0.0401831 0.040950526 -0.006135341 0.06394567
000080 35 bc 96 3d 0f 7f 71 3c e5 a6 d7 be fc 62 44 3e
       0.073601164 0.014739766 -0.42119518 0.19178385
000090 35 d5 a1 3c 99 52 7e be e6 27 01 bc fd ea 11 3e
       0.019754985 -0.24836196 -0.007883048 0.14249797
0000a0 42 d4 1c 3e 71 b3 81 bd 49 48 85 bc c0 32 23 bd
       0.15315345 -0.06333054 -0.01626982 -0.03984332
0000b0 b9 d3 1e 3c bc 3d 9a be 03 fb 1b 3e df cc fe 3d
       0.009694033 -0.30125225 0.15232472 0.1244142
0000c0 35 68 cb bd ed 8a e3 3e 41 07 ae 3d 87 77 02 3d
       -0.09931985 0.4444193 0.08497477 0.03185227
0000d0 83 b7 a0 bd 77 bb 06 be 9a f1 02 be 95 ff 09 be
       -0.07847502 -0.1315745 -0.12787476 -0.13476403
0000e0 1a b3 2b bd 2a a1 3c 3e ec d5 c2 be e7 49 cf 3e
       -0.04191885 0.18420854 -0.38053834 0.4048607
0000f0 e6 59 a7 3e 5c 08 dd 3e 26 57 72 be 3e a2 f4 3d
       0.32685775 0.4317044 -0.23666057 0.11945008
000100 d7 b4 40 be fd d3 c0 3d b4 b6 f7 bd 36 fd 1e be
       -0.18818985 0.094154336 -0.12095395 -0.1552628
000110 9f 5f a8 bd 80 1a 44 3e 97 56 51 bb 5a 57 fc bc
       -0.08221363 0.19150734 -0.003194248 -0.030803371
000120 07 9d f0 bd 35 5d 87 3e 21 1c ec be a3 8d 3e be
       -0.117487006 0.264383 -0.4611521 -0.18608718
000130 f3 75 f9 be b3 1b 86 3e e8 42 3c 3d 8a 72 15 3d
       -0.487228 0.26193008 0.045962244 0.036486186
000140 23 a9 d2 bd c7 77 37 3d 27 ee b0 bd 55 58 8e 3e
       -0.102861665 0.044791963 -0.08639174 0.27801767
000150 4c 92 c6 be dc e0 30 3e 7c 9c 4d 3e e1 51 d5 3d
       -0.3878349 0.17273277 0.20079225 0.10416008
000160 85 a5 24 be 3c ea 51 3e ea ea c8 be 4d b8 cb 3e
       -0.16078766 0.2049951 -0.39241725 0.39789048
000170 f8 bc 94 3e cb db d7 bc 41 d1 24 bd f7 fa b6 bc
       0.29050422 -0.026349923 -0.040238623 -0.022336466
000180 da d8 31 3c 79 bb 8e bc 8e ce 39 3c 34 ad af 3e
       0.010854924 -0.017423378 0.01134075 0.3431183
000190 e2 44 4e be 8a 87 03 be 8f f1 25 be 24 8b 10 3e
       -0.20143464 -0.12844673 -0.16205429 0.14115578
0001a0 fc ef 0a be d0 89 d0 3e a2 a9 b9 be 13 94 91 be
       -0.1356811 0.40730143 -0.36262232 -0.28433284
0001b0 49 1b 0e 3d e0 a7 fc 3c ed b8 59 bd 5e 4e ca 3b
       0.03469399 0.030841768 -0.053154875 0.006173893
0001c0 fe 1c c0 3d b8 8e 68 be 8d 86 7f be bd db 10 3e
       0.0938053 -0.22710693 -0.24953671 0.14146324
0001d0 98 3d d8 3c 49 d0 16 3e a3 af 2d be 4c 91 f2 bd
       0.026396558 0.14727892 -0.16961531 -0.118441194
0001e0 62 90 b7 3d 95 ba b0 3c ab 16 a3 bd d3 71 0e 3d
       0.08963086 0.021573344 -0.07963308 0.03477652
0001f0 e0 58 74 3c eb 1d ac 3d ee 1d ab bd f4 e5 33 be
       0.014913768 0.08404144 -0.08355318 -0.17568189
000200 74 2a 11 3d 70 38 99 3d ef a4 03 be 8b cb ab 3d
       0.035440877 0.07481468 -0.12855886 0.08388432
000210 df 4e 1a 3e fe ba ec bb 4f e2 67 be 4f ed 38 bc
       0.1506915 -0.0072244396 -0.22644924 -0.0112870475
000220 1b 73 02 bc ee db 22 bc 34 74 96 3d 8d ce 38 bd
       -0.007962014 -0.009940131 0.07346383 -0.045118857
000230 e4 41 92 bc 2c ba 4a 3d 14 27 cc 3d bb ed 41 bd
       -0.017853685 0.049493954 0.09968391 -0.047345858
000240 09 9b e8 3c 88 5e 2d 3c be f7 c2 3c 20 c3 28 3e
       0.028394239 0.01058162 0.023799773 0.16480684
000250 83 86 eb 3e f0 d0 2a 3f 57 90 16 3d 29 5a 60 bd
       0.46001062 0.66725063 0.036758747 -0.054773483
000260 ce 3b ad bd 1d ec 98 bd 52 0f a1 3b 36 3b 1c bc
       -0.084586725 -0.0746691 0.0049151564 -0.009535601
000270 17 e6 32 3c c3 2c 8a bd 87 46 70 3c 87 f7 ee bc
       0.0109191155 -0.06746819 0.0146652525 -0.029170765
000280 c8 21 bf bc 65 2f bf bc 03 11 9f ba 8f a2 98 bc
       -0.023331538 -0.02333803 -0.0012135807 -0.018632201
000290 04 76 2a 3d d3 69 24 be 5a 36 ea 3d 8a f8 f1 3b
       0.041616455 -0.16055994 0.11436148 0.0073843645
0002a0 2a 0e 1a be 96 06 96 bd 1a 09 7a 3c fe f5 80 3c
       -0.15044466 -0.07325475 0.015260959 0.015742298
0002b0 25 07 5d bd 41 a1 ff bd 9e 8c ae bd 83 77 d9 bd
       -0.05396189 -0.124819286 -0.08522914 -0.10618498
0002c0 84 fa 06 3d 8f 10 bf bc dc c4 91 bc c9 04 e9 bb
       0.032953754 -0.023323325 -0.017794065 -0.007111166
0002d0 c8 27 bb 3d 34 bf 2b 3c 8d 20 16 3e 3a 11 58 3b
       0.09138447 0.010482598 0.14660855 0.0032969252
0002e0 0f a9 eb 3d e3 fe e8 3d de f8 d2 bd 8a c1 64 bc
       0.11506855 0.11376741 -0.10301374 -0.013962159
0002f0 69 d4 11 3e 08 c1 cc bc f9 a5 55 3d 2b 67 5e bc
       0.14241184 -0.024994388 0.052160237 -0.013574402
000300 8a b0 c2 3d 2e 0e e7 bd 10 ba 3a 3e 8a 5d 75 bd
       0.095063284 -0.112820014 0.1823504 -0.05990366
000310 fe 8f 7f 3e dd ed 08 bd 49 9d e8 3d 95 d2 12 bd
       0.24957272 -0.03342997 0.11358125 -0.035845358
000320 79 3c d8 bc b8 11 8f 3e 2c d2 f9 be cd 5b 3c 3e
       -0.026396023 0.27943206 -0.4879316 0.18394394
000330 66 c2 9a 3d 20 e1 23 bd 5c 20 be 3d a5 86 bc bd
       0.0755661 -0.040009618 0.09283516 -0.09205369
000340 ff 8f 2d 3d 46 69 8f bd 96 40 44 bc 4c 68 98 bd
       0.042373654 -0.07002501 -0.011978289 -0.07441768
000350 9d 59 06 be d1 23 c4 bd d3 96 aa bc 34 c7 b9 bb
       -0.13120122 -0.09577144 -0.020823872 -0.005669499
000360 77 fd de bc 01 df 19 bd 0d ec 15 be 80 53 5a 3c
       -0.02722047 -0.03756619 -0.14640827 0.013325572
000370 dc 67 7d 3e f4 84 71 be 66 bc b7 bd b4 c4 01 3e
       0.2474665 -0.23585874 -0.08971481 0.12672693
000380 b9 6b 2b 3e 33 b0 13 be ee 4e 59 3d a4 7c d9 bd
       0.16740312 -0.14422683 0.05305379 -0.106194764
000390 9d e2 f7 bc c4 09 2a bc 5c 11 c0 be c4 14 d0 3d
       -0.030259425 -0.010378305 -0.37513244 0.10160211
0003a0 09 03 09 3e 5d db 9e 3d 12 a5 b8 bd 2f 54 35 be
       0.13380064 0.07756684 -0.0901586 -0.17707895
0003b0 4d b1 ca 3e e2 ab c5 3d ef 78 2f bd 8f b7 43 bd
       0.39588395 0.09651925 -0.04283994 -0.047782477
0003c0 8d ab 7e 3d 45 36 56 bd fe 68 4a be 7d 18 99 3e
       0.062175322 -0.05229785 -0.19766614 0.29901496
0003d0 f0 3b 56 bd 1a 06 90 bd e9 84 3c 3c 4e 2c ac 3e
       -0.052303255 -0.07032414 0.011506298 0.33627552
0003e0 d9 1a b7 bd 98 b7 0c 3d 76 f0 64 be 48 49 c0 3e
       -0.08940668 0.034354776 -0.22357354 0.3755591
0003f0 12 e6 68 3e 71 03 a0 be ff aa dc 3e 67 64 d2 3c
       0.22744015 -0.31252626 0.4309921 0.025682641

architecture.0.bias f4 [64]
000000 40 a8 26 bd 96 50 5c bf bc c9 ad 3e 9a 1b a5 3f
       -0.0406878 -0.86060464 0.33942974 1.2899048
000010 15 1e 37 3f 49 8e 7b bf 17 d6 a7 bf 3e 3a 5a 3f
       0.71530277 -0.98263985 -1.311221 0.8524512
000020 4f c1 8a 3e ec fe b4 3f 62 f8 31 bf 84 30 e6 3e
       0.27100608 1.4140296 -0.6951963 0.4495889
000030 20 8a 9a 3f d2 df 17 3f 27 24 9a bf c8 d0 1e 3f
       1.2073402 0.593259 -1.2042283 0.62037325
000040 ef 81 ce 3e 4a be 0f 3f 2e 2d 82 bf 42 a8 8d bf
       0.40333506 0.56149733 -1.0170038 -1.1066973
000050 2c 83 91 bf 4e a2 af bf d7 dd 99 bf d8 bc 57 3d
       -1.1368155 -1.3721406 -1.2020825 0.05267033
000060 98 9c 28 bf 30 62 b1 3e 32 4d 9b bf 9a 6d 26 bf
       -0.65863943 0.34645224 -1.2132933 -0.6501099
000070 77 74 1a bf 86 0a 86 bf 6a c3 53 bf 4b 16 2c bf
       -0.6033396 -1.0471961 -0.82720053 -0.67221516
000080 e8 67 ad bf 4f fe 82 3e aa 9f 96 be 2e a9 52 3f
       -1.3547335 0.25584647 -0.2941869 0.822894
000090 cb ca 70 3f 67 6e ab be 57 db a2 bf 24 84 40 bd
       0.9405944 -0.33482668 -1.2723187 -0.04700102
0000a0 2e 36 5a 3b 92 24 8d 3f 16 4e 5c bf 2e 90 1c 3f
       0.0033296454 1.1026785 -0.8605665 0.611575
0000b0 bf 36 8b be 10 f3 91 bf 73 ee 5a 3f fa 11 6b 3f
       -0.27190205 -1.1402302 0.85520095 0.91824305
0000c0 6f 67 62 bd 45 97 42 3f 04 ac 84 bf 9a 5a 56 3f
       -0.055274423 0.7601207 -1.0364995 0.83731997
0000d0 ca b9 ab bf 0b 41 aa 3f e2 af 84 3e 92 5d 9d bf
       -1.3416073 1.33011 0.25915438 -1.229418
0000e0 8d 62 67 bf dd 1f 8e 3f 25 02 9c 3d 99 ef 80 bf
       -0.9038475 1.1103474 0.076175965 -1.0073119
0000f0 c2 5e 78 3e fb a9 1c be c1 72 cb be 48 9e 1b be
       0.24254897 -0.15299217 -0.39735988 -0.15197098

architecture.2.weight f4 [64, 64]
000000 e6 49 07 bf 73 fa f9 be d4 8b 30 3e ed 7a 14 bf
       -0.52847135 -0.4882389 0.1724084 -0.5800007
000010 0a 66 fc 3e a3 28 72 3d 7b 8c 9e 3e ff e1 81 3d
       0.492966 0.059120785 0.30966553 0.063419335
000020 74 46 9d 3e 67 c8 33 bf 6f a9 77 be 94 60 87 bc
       0.30717814 -0.70227665 -0.24185728 -0.016525544
000030 cd 53 77 be e4 c7 dc 3d e2 b2 c4 3e 14 8c 7c 3e
       -0.24153061 0.107803136 0.38417727 0.2466281
000040 6c 50 c0 3d d3 f0 09 bf 72 46 03 3f af 3e 31 be
       0.09390339 -0.53883094 0.51279366 -0.17309068
000050 5e a2 02 3e b7 e1 eb be a9 f1 d8 3e f9 3f 11 be
       0.1275725 -0.46070644 0.42371872 -0.1418456
000060 a4 35 4a be 2f 14 19 bd b7 d8 28 3f 67 09 ec bd
       -0.19747025 -0.037372764 0.6595568 -0.11525231
000070 96 3f 22 3d 70 64 bc 3e 4c 90 33 3e 2c 5a ab 3d
       0.03961142 0.36795378 0.17535514 0.08366808
000080 3e 28 3c 3f 65 78 d2 3e 24 2f d8 bd 8f c9 34 3e
       0.73498905 0.4110748 -0.10555866 0.17655014
000090 64 62 6f 3d e4 e1 8f bd 30 0e a0 3e 37 b8 88 bd
       0.058443442 -0.07025507 0.31260824 -0.06675761
0000a0 ee b5 96 3e 2e 7c e5 3d 18 69 99 3d fc 03 6c 3f
       0.29435676 0.11205326 0.07490748 0.9219358
0000b0 fc ff 45 be c0 15 01 3f 9e df 0b 3f 82 71 51 3e
       -0.19335932 0.5042381 0.5463809 0.20453456
0000c0 4b ab 0d 3e 9a fc 3c 3e 3d 06 0f 3c a0 18 e5 3d
       0.13834874 0.18455735 0.008729515 0.111863375
0000d0 77 20 31 be 03 45 2c 3e c6 30 84 3e 04 2c 14 3f
       -0.1729754 0.16823201 0.2581846 0.5787966
0000e0 f8 07 84 3c c3 65 99 be c7 3c 63 bf a8 c5 dd 3c
       0.016117081 -0.2996045 -0.88764614 0.027071789
0000f0 1b 43 7f 3e 4a 83 01 3f 59 f4 70 be 17 57 fd 3d
       0.24927942 0.50590956 -0.23530711 0.12370127
000100 4c b9 c2 be ba 5c 33 bf a2 a5 be 3e a4 55 2c 3f
       -0.38031995 -0.70063365 0.37235743 0.6731818
000110 94 c3 07 3f db 90 08 bf 71 43 6a bf 31 59 c6 3e
       0.53032804 -0.5334603 -0.9150916 0.38739923
000120 29 00 d4 3e 39 18 d0 3e 0a a7 14 bf a3 f9 d5 3e
       0.41406372 0.4064348 -0.5806738 0.4179202
000130 38 ca 43 3e 1c 41 49 3e e0 80 f5 be f1 19 7a 3e
       0.19120109 0.19653744 -0.47949886 0.24423958
000140 22 15 9b 3c bc 35 a9 3e 5f e5 ff be 02 c3 81 bf
       0.018930975 0.3304881 -0.49979684 -1.0137637
000150 ab d5 08 bf bf 6e 85 bf 3e a4 0b bf ac 94 3a bd
       -0.5345103 -1.0424422 -0.5454749 -0.04555194
000160 37 8d 8a be 7b dc bd bd 74 9b ce be 04 a3 9c 3e
       -0.27060863 -0.09270569 -0.40352976 0.3059312
000170 56 ce 98 be 31 c9 27 bf b0 75 f4 be db cc 0f bf
       -0.29844922 -0.6554137 -0.47746038 -0.5617196
000180 37 fe 2d bf 46 62 7f 3e c0 e1 0a bf b2 30 00 3f
       -0.67966026 0.24939832 -0.5425072 0.50074303
000190 83 d3 7b 3e fa 8c d5 be f5 dd 40 be a0 64 e6 bd
       0.24592404 -0.4170912 -0.1883467 -0.112496614
0001a0 78 e4 38 3e a5 3d f9 3e ce 67 b4 be a9 5b 33 3b
       0.18055904 0.48679844 -0.35235447 0.0027367866
0001b0 a4 06 4d be 99 95 44 3d 21 bd 1a be 8c 2f a5 3e
       -0.20022064 0.04799423 -0.1511121 0.32262838
0001c0 d6 22 64 be e4 80 21 3e af 5e f6 be 65 11 e2 bc
       -0.22278914 0.15771824 -0.48119113 -0.027596185
0001d0 bd 80 16 bf 0f c0 3b 3f 74 07 2a bb 39 1c 2a bf
       -0.5879019 0.73339933 -0.0025944384 -0.66449314
0001e0 08 de a7 be b4 3e 53 3f 0c 82 9b be 5b 39 fb be
       -0.32786584 0.8251755 -0.30372655 -0.49067196
0001f0 e6 73 0f be 2e 11 8b be ef 0f c9 3d 9b b0 76 bc
       -0.14009055 -0.27161545 0.09817492 -0.015056754
000200 31 da 05 3f 3e 7c 2c 3f 4b e0 e7 be 4f cf 7a bf
       0.5228606 0.6737708 -0.4528831 -0.9797258
000210 42 b8 a8 be 7d 04 1b 3f 90 39 25 3f cf 90 1a bf
       -0.32953078 0.60553724 0.6454096 -0.6037721
000220 8e 3e dc be 66 0e 2c bf e8 07 b9 3e 4b 33 a2 be
       -0.43016475 -0.6720947 0.36138844 -0.31679758
000230 7e 86 47 be b1 ce c9 be 67 8c 02 3f c5 0f 0c bf
       -0.19484898 -0.39415506 0.50995487 -0.5471156
000240 c4 85 5c be 40 83 6a be d5 32 52 3f 3c ea 3d 3f
       -0.21535403 -0.2290163 0.82108814 0.7418554
000250 70 03 60 3e 15 28 67 3f bc 6c 7f 3e f9 22 f3 bd
       0.21876311 0.90295535 0.24943823 -0.11871905
000260 c2 3e a0 3e 27 fd 64 bd fc 19 cc 3e 0d 86 15 be
       0.3129788 -0.055905487 0.39863575 -0.14601918
000270 fe 9c f4 3d 96 00 12 3f e9 eb 39 3f 58 0c 0d 3f
       0.119440064 0.57032144 0.72625595 0.5509696
000280 61 40 57 3f 4e 4f d6 bc 03 a8 0c 3f aa 17 ba be
       0.8408261 -0.026160862 0.54943866 -0.3634618
000290 6a 91 9d be d1 c0 23 3f cd f6 e7 bd 71 6e 9a 3e
       -0.30775005 0.6396609 -0.113263704 0.30162385
0002a0 d6 d3 b6 3d 68 a3 59 bf ae f5 e2 3e 32 ac 16 bd
       0.08927123 -0.85014963 0.44328064 -0.036785312
0002b0 0f 77 29 be f3 55 e4 bd af 99 ea bc 44 1a 01 bf
       -0.16549323 -0.11149206 -0.028637735 -0.50430703
0002c0 26 b4 1a 3d 71 7a 09 be 71 53 6b 3c 70 9b c3 be
       0.03776946 -0.13425614 0.014363156 -0.38204527
0002d0 d4 0c 16 3f fd 74 35 bf 99 a4 0a be 36 d2 f5 3d
       0.58613324 -0.70881635 -0.13539352 0.12002985
0002e0 42 a2 2a 3f ab db b5 bf 46 5f de 3e 42 fc 49 3f
       0.66653836 -1.4207662 0.43432063 0.7890054
0002f0 39 0b 7c 3e de b6 e1 3e e4 d1 c8 bd f3 8d 8c 3c
       0.24613656 0.4408483 -0.098056585 0.01715753
000300 5c 58 eb bd bc 41 8a be 44 ed e6 be 53 ed 5d 3f
       -0.114914626 -0.27003276 -0.45102894 0.86690253
000310 8e 13 0b bd e0 4c 7e bd 4d 79 8c 3e af 51 96 3d
       -0.033954196 -0.062085032 0.27436295 0.07339799
000320 44 9d a1 3e 19 49 1b 3f 47 4c c9 bd e4 8c 9e 3d
       0.31565297 0.60658413 -0.09829002 0.077417165
000330 17 9d 83 3e 1f 24 e1 be f2 d5 06 bf eb b5 47 3c
       0.25705788 -0.4397287 -0.52670205 0.012189369
000340 57 c2 0b 3f 30 eb 33 bf 79 09 10 bf f6 60 25 3f
       0.54593414 -0.7028074 -0.56264454 0.64601076
000350 69 dc 99 3e ca 9b 8f 3e cf 4a ff be da f0 a7 bd
       0.30050972 0.28048545 -0.49861762 -0.08200236
000360 81 b4 e4 3e 9e f8 55 be 43 28 58 bf 2b f7 6c 3e
       0.44668964 -0.20895621 -0.84436435 0.23141162
000370 58 39 ca bc 25 7f dc 3e 83 8b d8 bd 05 1b 81 3e
       -0.024685547 0.43065754 -0.10573485 0.25215927
000380 cc fc 43 bf cd 1f 20 bd 20 e9 de 3e 3e dd 36 3d
       -0.7655761 -0.039092828 0.43537235 0.044644587
000390 0f 2b bf bd 3d 62 38 3e 71 10 0a 3d 65 79 cc 3e
       -0.09334385 0.18006225 0.033707086 0.39936367
0003a0 df f2 51 3e 32 73 10 3f 58 98 ff bd be df ae 3e
       0.20502804 0.56425774 -0.12480229 0.34155077
0003b0 ad 3a 27 3f f6 b1 2a bf 09 b7 a7 3e 9a 91 b3 bd
       0.6532391 -0.66677797 0.32756832 -0.08768006
0003c0 9a 52 d8 bd 15 f4 85 be d3 bb 97 be 14 fb 15 be
       -0.1056263 -0.26162782 -0.29635486 -0.1464656
0003d0 40 14 03 3f 1b fe 06 bf f8 cd 80 3e 52 4c 1b bf
       0.51202774 -0.52731484 0.25157142 -0.6066333
0003e0 c9 15 7c 3e 20 e4 96 3c 81 88 1c be 76 34 2c bd
       0.24617685 0.018419325 -0.15286447 -0.04204222
0003f0 a1 0c 69 3e 47 6b 0e 3e 41 79 9c be 0b 01 a8 be
       0.22758724 0.1390811 -0.3056126 -0.32813296

architecture.2.bias f4 [64]
000000 c3 23 b2 3e 39 ef 84 3f d5 fe a2 bf 1b 93 b6 be
       0.3479291 1.0385505 -1.2734019 -0.35659108
000010 61 7a 0b 3e e1 b3 95 bf 01 61 90 3f 13 d1 65 bf
       0.13620903 -1.169552 1.1279603 -0.89772147
000020 dd 91 a6 bf 79 f8 28 3f 42 e5 24 3f 15 12 a4 bf
       -1.3013264 0.6600414 0.6441232 -1.2818018
000030 7b b8 8a bf da a5 d4 3e 8c b7 64 3d f8 b1 15 3f
       -1.0837549 0.41532785 0.055839106 0.58474684
000040 4a cb 9f 3f f4 56 00 3f 6c c6 f8 be 46 88 9d 3f
       1.2483914 0.5013268 -0.48588884 1.2307212
000050 ed 14 a6 3e 06 c6 50 bf c8 2d d3 3e 95 cf a4 3f
       0.3243784 -0.8155216 0.41245866 1.2875849
000060 6c f3 e6 be 2c 8b 06 3f fa 5a ac 3f 39 b1 42 be
       -0.4510759 0.5255611 1.3465264 -0.19012918
000070 d1 22 49 bf 6b c4 b3 be e6 0b 9f bf 8b 92 62 be
       -0.7856875 -0.35110793 -1.2425506 -0.22126214
000080 c2 33 a2 bf af bb ac 3e 60 7b 09 3f 93 2f 9c bf
       -1.2672045 0.3373694 0.5370388 -1.2202018
000090 5d a1 a1 bf ce 12 b9 3f 18 ea 0e bf 86 da 2a bf
       -1.2627369 1.4458864 -0.5582595 -0.6673969
0000a0 17 a7 d3 be 96 9c a3 bf 1b 25 45 bf 38 60 12 3f
       -0.41338417 -1.2782161 -0.77009743 0.5717807
0000b0 d1 e8 9b bf 51 34 06 3f b5 b3 a4 be 91 7a 4d 3f
       -1.2180425 0.5242358 -0.32168356 0.80265146
0000c0 f7 d6 d8 be 35 8e 98 3f a0 a3 b7 3f b1 2a d9 be
       -0.42351505 1.1918398 1.4346809 -0.42415383
0000d0 9d a5 a1 bf 9d b8 68 bf b7 a4 4d bf 10 72 91 3e
       -1.2628666 -0.909067 -0.8032946 0.28407335
0000e0 89 15 be 3e 7d a8 06 3f 02 20 dc be 2b b2 7e 3f
       0.37125805 0.5260084 -0.4299317 0.9949061
0000f0 ec e1 42 bf 8b aa 11 3f d8 01 96 bf 3d 54 9e 3f
       -0.7612598 0.5690085 -1.1719313 1.2369457

architecture.4.weight f4 [1, 64]
000000 ad 5b ff c0 1e 8b a6 c0 ba a8 a5 40 c9 30 fd 40
       -7.979941 -5.204482 5.1768465 7.912205
000010 7c 65 e3 c0 f8 e9 a4 40 0a f9 a3 c0 c7 d8 a6 40
       -7.106138 5.1535606 -5.1241503 5.213962
000020 00 22 a7 40 90 80 ab c0 a5 f2 a2 c0 6c 40 a8 40
       5.2229004 -5.3594437 -5.0921197 5.257864
000030 7b 1b a8 40 05 2d fd c0 05 8b d4 c0 ce 3d cf c0
       5.2533545 -7.9117455 -6.64197 -6.4762945
000040 64 a3 ab c0 98 08 f3 c0 6e 7f cf 40 0e 10 ab c0
       -5.363695 -7.594799 6.4843054 -5.34571
000050 bf f4 d9 c0 78 93 cc 40 d8 0f d5 c0 9e b1 a6 c0
       -6.811126 6.3930016 -6.658184 -5.209182
000060 3a b4 d3 40 54 d4 04 c1 fc df a3 c0 16 8a ea 40
       6.6157503 -8.301838 -5.121092 7.329356
000070 28 18 ac 40 98 52 d6 40 56 c0 a5 40 d9 62 ff 40
       5.3779488 6.6975822 5.1797285 7.9808164
000080 04 23 a4 40 ec 2f e4 c0 7c 6c f3 c0 ae 5d a3 40
       5.1292744 -7.13085 -7.6069927 5.1051855
000090 a8 f0 a4 40 4e 69 a4 c0 8a 34 98 40 cb 56 a7 40
       5.154377 -5.1378546 4.7564135 5.229345
0000a0 e8 39 d5 40 6c b7 a2 40 d5 37 96 40 11 51 a4 c0
       6.6633186 5.0848904 4.6943154 -5.134896
0000b0 32 c6 a7 40 f7 87 f4 c0 ce ee c0 40 40 13 ae c0
       5.242944 -7.6415973 6.029151 -5.43985
0000c0 19 92 cd 40 3c ae a5 c0 7c 58 a3 c0 9a eb f3 40
       6.424084 -5.177519 -5.1045513 7.62251
0000d0 bc 1f a3 40 1a 92 9c 40 4b 33 a6 40 92 5f 03 c1
       5.097624 4.8928347 5.1937613 -8.210833
0000e0 00 cf f8 c0 8f 4e ae c0 4d e3 ef 40 45 5a b0 c0
       -7.7752686 -5.4470897 7.4964967 -5.511019
0000f0 05 5b a5 40 b5 d3 a8 c0 fe ad a1 40 52 c5 a8 c0
       5.167361 -5.275843 5.0524893 -5.274087
