raisimGymTorch/data/ouzel_only_planning/2022-05-09-12-17-53/full_20000.pt (torch, 162032 bytes, 36 tensors)

architecture.0.weight f4 [64, 27]
0.15032518 -0.12447178 0.31757766 0.06984784 0.1687223 -0.23038003 -0.21267909 0.6058823
0.08730708 0.5085 -0.22362974 -0.038558956 0.23907042 -0.19070949 0.017649135 -0.37762582
0.57328224 0.38821158 -0.0943834 -0.095471695 -0.020501904 0.1425838 0.1716273 0.014487842
0.4379284 -0.53576106 0.053143147 0.061779976 0.02379894 -0.32227594 0.045223087 0.06839172
0.05883741 -0.14963625 -0.105000496 -0.2446914 0.1673512 -0.5159799 0.13130336 -0.1813854
0.30845636 -0.34452358 0.33602566 -0.12490947 0.0034885937 0.23223495 0.09544893 0.32739562
-0.21842563 0.031302992 -0.35469303 -0.3624309 -0.17278814 -0.13985942 0.13954803 0.5484193
0.32504928 0.38652468 0.15065831 0.024917245 0.033679605 -0.16447514 -0.6721636 -0.04868675
-0.08039655 0.08133493 -0.04253941 0.12051069 -0.13518505 -0.0014705388 -0.16523306 0.2221364
-0.18538661 0.1995598 0.23610076 0.18140328 0.08342097 -0.26749223 -0.13092482 -0.17208083
0.002657993 -0.09977033 -0.21047452 -0.086257756 0.07036379 0.100791946 0.4888119 -0.04488599
-0.2456649 0.10138425 -0.09642788 -0.3416877 0.022372717 -0.75435185 0.036746513 0.11000792
0.12422633 -0.10365059 0.05394614 0.0341436 0.19246751 0.1385309 0.06713639 -0.25307557
0.18492815 0.19295296 -0.064380646 -0.098959796 -0.21897647 0.23372756 -0.3301506 0.18053073
0.18546315 -0.21168177 0.29423216 0.019195158 -0.109191604 -0.10493675 -0.34314135 0.2723484
-0.05937437 0.08577192 0.5007899 0.08741201 -0.11369914 0.40498185 0.27513093 0.44257915
-0.3312344 0.26265195 0.040131174 -0.07463553 -0.044201363 -0.30433843 0.15903999 -0.24756964
-0.16596626 -0.23665163 0.30714563 -0.05106529 0.20034143 0.15821439 -0.2880018 -0.15388127
-0.20871365 0.116292894 0.14278778 0.02285138 0.06531153 0.4244841 -0.0058919834 -0.28863037
0.093502834 0.083732516 -0.32248306 -0.25812152 0.34521976 -0.7701802 -0.029179703 -0.23080285
0.16042797 -0.10866022 0.08009723 -0.55605966 -0.39335847 0.29035714 -0.32193106 0.092737325
0.056594495 0.047067072 -0.2836813 0.2632418 -0.14190026 0.18189289 0.13688548 0.231324
0.12206317 0.10670219 -0.14987624 -0.28466564 0.07434597 -0.11822834 0.012301827 0.28988242
0.06562577 0.28289285 0.002292439 0.099489614 -0.019070998 -0.25756842 -0.026965152 -0.31459773
0.24692316 -0.08886737 -0.24180146 0.16224039 0.09062801 -0.115819104 -0.0952323 -0.16681527
-0.25546455 0.04821345 0.28932455 0.18923804 -0.22234927 -0.40024066 0.02299834 -0.099696934
0.17734797 0.124448866 -0.16608112 -0.1336903 -0.16702618 0.032715958 -0.03925246 0.02529423
-0.16202141 0.07935078 0.132109 -0.4465576 0.2398386 0.28817764 0.055288337 0.009257158
-0.009917836 -0.08816307 0.06851595 0.17135209 0.09938114 -0.49890497 0.5792294 -0.27798826
-0.09424618 0.11230799 0.17621274 -0.31740275 -0.079526745 0.14674644 0.0847139 0.22616808
-0.29896417 -0.13347006 -0.14397359 0.14447218 0.12448497 -0.11863391 -0.37903547 0.29986873
-0.1332763 0.09974945 -0.26054567 -0.097851224 -0.33521873 0.107936665 -0.114688344 -0.3183622
00000000: d8ee 193e 10eb febd 8a99 a23e 620c 8f3d
00000010: 8ac5 2c3e bee8 6bbe 8cc8 59be 1a1b 1b3f
00000020: 0ece b23d 0e2d 023f 32ff 64be ffef 1dbd
00000030: e0ce 743e 5949 43be eb94 903c 2c58 c1be
00000040: a0c2 123f abc3 c63e 164c c1bd aa86 c3bd
00000050: 9cf3 a7bc 7d01 123e 11bf 2f3e 6a5e 6d3c
00000060: 2738 e03e a327 09bf a1ac 593d 000d 7d3d
00000070: fff5 c23c 5a01 a5be d83b 393d f510 8c3d
00000080: 7fff 703d 3f3a 19be 800a d7bd 6290 7abe
00000090: 1d5e 2b3e 4217 04bf 6374 063e 18bd 39be
000000a0: feed 9d3e 6565 b0be 8e0b ac3e 89d0 ffbd
000000b0: e4a0 643b 00cf 6d3e bb7a c33d 66a0 a73e
000000c0: f8aa 5fbe 9137 003d 539a b5be 8b90 b9be
000000d0: 60ef 30be 4f37 0fbe aee5 0e3e 3565 0c3f
000000e0: dc6c a63e 90e6 c53e 2c46 1a3e 401f cc3c
000000f0: a0f3 093d 2c6c 28be ea12 2cbf c26b 47bd
00000100: f2a6 a4bd ee92 a63d ce3d 2ebd 4fce f63d
00000110: f36d 0abe 18bf c0ba db32 29be b977 633e
00000120: fdd5 3dbe 6759 4c3e 66c4 713e c8c1 393e
00000130: 9dd8 aa3d bef4 88be 2811 06be f535 30be
00000140: b931 2e3b 6354 ccbd a286 57be e8a7 b0bd
00000150: e41a 903d 026c ce3d 8e45 fa3e 5fda 37bd
00000160: 948f 7bbe 8ca2 cf3d fb7b c5bd b1f1 aebe
00000170: fd46 b73c 341d 41bf 8383 163d d54b e13d
00000180: 606a fe3d c346 d4bd a1f6 5c3d 29da 0b3d
00000190: 3416 453e 0bdb 0d3e ce7e 893d 1f93 81be
000001a0: ce5d 3d3e 7695 453e 00da 83bd 6fab cabd
000001b0: 5e3b 60be 4756 6f3e 8009 a9be 0cdd 383e
000001c0: 0dea 3d3e 1bc3 58be 99a5 963e 2a3f 9d3c
000001d0: d99f dfbd 14e9 d6bd 39b0 afbe 4071 8b3e
000001e0: 8a32 73bd 30a9 af3d c433 003f 1105 b33d
000001f0: 18db e8bd c859 cf3e f6dd 8c3e bc99 e23e
00000200: 8e97 a9be 517a 863e 9660 243d 83da 98bd
00000210: 7d0c 35bd 3fd2 9bbe 61db 223e e582 7dbe
00000220: 0ff3 29be ce54 72be 3142 9d3e d629 51bd
00000230: 4e26 4d3e f402 223e f974 93be 0d93 1dbe
00000240: 08b9 55be f82a ee3d f636 123e d132 bb3c
00000250: 0dc2 853d fb55 d93e 8a11 c1bb 5cc7 93be
00000260: 6a7e bf3d f47b ab3d 801c a5be 8128 84be
00000270: a5c0 b03e 882a 45bf 460a efbc 9557 6cbe
00000280: 3b47 243e 4089 debd 040a a43d ed59 0ebf
00000290: 4866 c9be b1a9 943e 26d4 a4be 11ed bd3d
000002a0: a1cf 673d 67c9 403d ad3e 91be a1c7 863e
000002b0: 4d4e 11be 2142 3a3e b52b 0c3e 33e0 6c3e
000002c0: 41fc f93d ae86 da3d 2879 19be b2bf 91be
000002d0: b342 983d b321 f2bd 9a8d 493c 786b 943e
000002e0: ce66 863d 55d7 903e bf3c 163b 36c1 cb3d
000002f0: c83a 9cbc 02e0 83be 06e6 dcbc f412 a1be
00000300: 6dd9 7c3e 1800 b6bd cd9a 77be 5822 263e
00000310: 2e9b b93d 9132 edbd 2709 c3bd 9fd1 2abe
00000320: 40cc 82be 777b 453d 5922 943e 9ec7 413e
00000330: 87af 63be 58ec ccbe 0467 bc3c e82d ccbd
00000340: b59a 353e 0cdf fe3d 2b11 2abe 1ce6 08be
00000350: e908 2bbe 2b01 063d 30c7 20bd d835 cf3c
00000360: f1e8 25be a982 a23d 9547 073e 33a3 e4be
00000370: 4098 753e 058c 933e 0676 623d 56ab 173c
00000380: 6b7e 22bc d78e b4bd 1752 8c3d ec76 2f3e
00000390: 5788 cb3d 7970 ffbe 6148 143f 7a54 8ebe
000003a0: 2404 c1bd bb01 e63d 1d71 343e 9d82 a2be
000003b0: ebde a2bd b344 163e 7b7e ad3d 9b98 673e
000003c0: d511 99be 60ac 08be d06d 13be 84f0 133e
000003d0: faf1 fe3d 56f6 f2bd f010 c2be 6588 993e
000003e0: 9579 08be 7149 cc3d 3e66 85be 3966 c8bd
000003f0: caa1 abbe e60d dd3d b9e1 eabd 5f00 a3be

architecture.0.bias f4 [64]
-0.08179714 -0.16610242 0.7977934 0.06284224 0.18712503 -0.4471576 -0.7038837 -0.81160975
-0.9185021 -0.0457848 -0.6412282 0.36798787 0.9810612 -0.9005338 1.070835 0.86678314
-0.5920811 -0.39222145 -0.92927814 0.25840363 1.1822168 -0.90793455 0.78820735 -0.838589
0.15405153 0.31706437 0.29573128 -0.7407424 -0.4568349 -0.076822534 -0.043506723 -0.26510686
-0.52263725 -0.7733155 -0.6891095 0.22486132 0.9623725 -0.22203092 0.3636001 -0.083182245
-0.47384676 -0.5416894 0.8522571 -0.13034737 0.0777695 0.5624767 -0.07234521 -0.34615454
0.14228258 0.9780762 0.78159606 0.46229798 -0.05903511 -1.0206804 -0.33958098 0.3045541
-0.6046827 -0.9950985 0.9513241 1.0316833 1.1165589 0.6672462 -0.076928146 0.048795007
00000000: 4285 a7bd c116 2abe 303c 4c3f 6fb3 803d
00000010: b49d 3f3e d7f1 e4be b931 34bf a8c5 4fbf
00000020: f422 6bbf d888 3bbd 8827 24bf e868 bc3e
00000030: d426 7b3f 6289 66bf 1f11 893f 80e5 5d3f
00000040: a192 17bf 40d1 c8be 2ce5 6dbf 7b4d 843e
00000050: e152 973f 666e 68bf f5c7 493f c5ad 56bf
00000060: afbf 1d3e 4356 a23e 176a 973e 4ba1 3dbf
00000070: 44e6 e9be 2255 9dbd 1b34 32bd 16bc 87be
00000080: 8ecb 05bf 01f8 45bf 7b69 30bf 0c42 663e
00000090: 0b5e 763f 135c 63be cb29 ba3e 745b aabd
000000a0: 0b9c f2be 28ac 0abf 852d 5a3f c879 05be
000000b0: 9e45 9f3d 79fe 0f3f ba29 94bd 2b3b b1be
000000c0: 86b2 113e 3463 7a3f ae16 483f 52b2 ec3e
000000d0: cdce 71bd a8a5 82bf 8fdd adbe 84ee 9b3e
000000e0: 7ccc 1abf c6be 7ebf fa89 733f 330e 843f
000000f0: 67eb 8e3f a6d0 2a3f 818c 9dbd 46dd 473d

architecture.2.weight f4 [64, 64]
-0.12653321 0.36219814 -0.19062218 -0.20562914 0.055861745 0.21612132 0.075282015 0.2519139
0.15625215 -0.14132087 0.3306319 -0.02172528 -0.55871445 -0.1803446 -0.053876154 -0.58710307
0.22802798 0.20454521 0.3612566 -0.11095362 -0.6879318 0.43247175 -0.17826986 0.2743254
0.16541044 -0.16544075 0.0105395755 0.4122465 -0.057506967 -0.26554972 0.014166553 0.18361354
0.16206741 0.37286597 0.059273478 0.1646267 -0.06284954 0.025026983 0.07877392 0.24307658
0.24491198 -0.14150777 0.2581856 -0.14001806 -0.50159293 -0.06065157 0.16031262 0.2070944
0.18996686 0.11657369 -0.265568 -0.03000627 0.1878068 0.09071749 0.3187366 -0.10809896
0.018013384 -0.10142533 -0.43167606 -0.12006517 -0.26626664 -0.3494804 -0.26605394 0.20463134
-0.011454873 -0.2455906 0.08570665 0.2592164 0.19432652 -0.023410043 -0.19386457 -0.05549732
0.39047626 -0.09637396 0.025881432 -0.079148136 0.19146898 0.19642423 0.107270345 0.20537607
-0.03639296 0.15924919 -0.17200312 -0.09596453 0.36981124 0.058287125 -0.16182733 -0.11092375
0.010662931 0.33990076 0.08207918 -0.114841856 0.36898038 0.16094778 -0.0103879385 0.2735674
-0.3411965 -0.13122495 -0.02110928 0.022167843 0.23587732 -0.07048466 -0.17302456 0.12478909
0.1565928 -0.08802627 -0.26066163 -0.0031294264 0.20846672 -0.23287933 0.10356884 0.011234254
-0.23045526 -0.18042298 0.07663249 -0.018751558 -0.3424272 0.45278987 0.15028428 0.2701023
0.18865392 0.50081027 -0.22442044 0.22793484 0.5035683 -0.05550227 -0.042420644 0.042294867
0.33341914 -0.5202248 -0.0014258068 -0.29046458 0.08726792 -0.123617485 -0.075790815 -0.14332305
0.29331356 -0.076535776 -0.0933845 -0.061856914 -0.11287416 -0.3713598 -0.015242544 -0.3659844
-0.4233375 -0.04580332 -0.22589117 -0.25752285 0.7570103 -0.18534733 0.3112619 -0.170658
0.5946348 0.06868487 -0.0041265744 0.19807908 0.0292998 -0.24648234 0.10227032 -0.09326631
-0.20928895 0.29210868 -0.19139984 -0.019955 0.36470804 -0.06989626 -0.010542997 0.14823128
-0.008913069 -0.3608899 0.35930243 -0.23839085 -0.06558564 0.41814846 -0.08708387 -0.096861325
0.018272933 0.46057698 -0.2875435 0.19865273 0.42096108 -0.08327834 -0.16291475 -0.04874914
-0.32108793 -0.5537499 0.30158585 0.034988347 -0.19393682 0.01478832 0.15177478 0.02635037
-0.07501937 -0.0052268463 -0.14344485 -0.27483833 0.11378785 -0.026868578 0.046775717 -0.10729966
0.25043258 -0.24959296 0.6143125 -0.54750246 -0.56572074 0.3340311 -0.20874068 -0.24548103
0.22026254 -0.13931924 0.24668463 0.2003757 -0.48988357 0.2559088 -0.0984068 -0.15217024
-0.27387187 0.056681536 -0.3636134 0.15906969 0.0032005631 -0.15025966 -0.21079397 -0.17312764
0.43031648 -0.28927222 0.30575585 0.06292445 -0.33845046 0.38028002 -0.18817522 0.2617743
0.06151833 0.18168682 -0.19465727 -0.22538182 0.08456187 -0.6680947 0.35665545 -0.026477953
-0.06394936 -0.13433412 -0.13653088 -0.2816399 0.029388478 0.17258161 0.1565044 0.11942596
0.057427444 0.21644203 0.22207361 -0.04084156 -0.14351529 -0.15588145 -0.018191723 -0.10006323
00000000: ec91 01be 0972 b93e 7632 43be 7290 52be
00000010: 49cf 643d e84e 5d3e 752d 9a3d dcfa 803e
00000020: 9000 203e 6bb6 10be 9648 a93e 37f9 b1bc
00000030: e907 0fbf 41ac 38be 3ead 5cbd 634c 16bf
00000040: 2b80 693e 4d74 513e a0f6 b83e a73b e3bd
00000050: 4c1c 30bf f06c dd3e 608c 36be 6174 8c3e
00000060: 5b61 293e 4d69 29be 2fae 2c3c f911 d33e
00000070: 6d8c 6bbd 22f6 87be d41a 683c 3005 3c3e
00000080: 00f5 253e 4ae8 be3e bfc8 723d e793 283e
00000090: 42b7 80bd 6305 cd3c 3954 a13d 11e9 783e
000000a0: 35ca 7a3e 6ae7 10be e730 843e e560 0fbe
000000b0: 6568 00bf c86d 78bd fe28 243e 8e10 543e
000000c0: ac86 423e 30be ee3d 87f8 87be b6cf f5bc
000000d0: 6d50 403e 17ca b93d 7231 a33e fd62 ddbd
000000e0: ce90 933c 15b8 cfbd a504 ddbe bae4 f5bd
000000f0: 1a54 88be 18ef b2be 3938 88be e18a 513e
00000100: 38ad 3bbc 1a7c 7bbe f886 af3d 03b8 843e
00000110: 88fd 463e 6bc6 bfbc 6f84 46be 2851 63bd
00000120: 81ec c73e b65f c5bd 4c05 d43c 6b18 a2bd
00000130: 7210 443e 6f23 493e 8eb0 db3d 1b4e 523e
00000140: c910 15bd 3812 233e 9621 30be 0d89 c4bd
00000150: e657 bd3e 7bbe 6e3d 10b6 25be fe2b e3bd
00000160: 93b3 2e3c 7907 ae3e 2119 a83d 3532 ebbd
00000170: ffea bc3e 7fcf 243e 2c32 2abc 0711 8c3e
00000180: 4fb1 aebe d55f 06be 5eed acbc 5699 b53c
00000190: d389 713e 435a 90bd 5a2d 31be 6c91 ff3d
000001a0: dd59 203e 1e47 b4bd 7175 85be 1017 4dbb
000001b0: 4d78 553e eb77 6ebe e61b d43d e00f 383c
000001c0: 77fc 6bbe cdc0 38be 7ff1 9c3d de9c 99bc
000001d0: 9e52 afbe 13d4 e73e 1fe4 193e d94a 8a3e
000001e0: 7e2e 413e 1a35 003f 79ce 65be c067 693e
000001f0: dae9 003f 5956 63bd 45c1 2dbd 623d 2d3d
00000200: eab5 aa3e 742d 05bf 23e2 baba c6b7 94be
00000210: 86b9 b23d 2a2b fdbd 3738 9bbd 47c3 12be
00000220: 322d 963e cabe 9cbd 5f40 bfbd ad5d 7dbd
00000230: 912a e7bd df22 bebe ddbb 79bc 4f62 bbbe
00000240: b1bf d8be 439c 3bbd 0450 67be 09da 83be
00000250: 6dcb 413f b1cb 3dbe b85d 9f3e f9c0 2ebe
00000260: fc39 183f a7aa 8c3d 3738 87bb 3ed5 4a3e
00000270: 2206 f03c de65 7cbe 1a73 d13d 6802 bfbd
00000280: d84f 56be 458f 953e 52fe 43be ab78 a3bc
00000290: 03bb ba3e c525 8fbd 89bc 2cbc f1c9 173e
000002a0: 1f08 12bc 90c6 b8be 7df6 b73e bb1c 74be
000002b0: c451 86bd 8e17 d63e 0759 b2bd 3b5f c6bd
000002c0: 1eb1 953c bfd0 eb3e e738 93be 9f6b 4b3e
000002d0: 3688 d73e d68d aabd 20d3 26be 2ead 47bd
000002e0: a365 a4be 8ec2 0dbf 7669 9a3e f14f 0f3d
000002f0: 6097 46be b64a 723c d96a 1b3e bbdc d73c
00000300: c1a3 99bd f745 abbb 35e3 12be 9cb7 8cbe
00000310: 9b09 e93d 7e1b dcbc e597 3f3d edbf dbbd
00000320: b338 803e 4c95 7fbe 9643 1d3f 1f29 0cbf
00000330: 13d3 10bf 2006 ab3e 1ec0 55be 615f 7bbe
00000340: 818c 613e b4a9 0ebe e59a 7c3e 4a2f 4d3e
00000350: 05d2 fabe 7a06 833e 8189 c9bd 84d2 1bbe
00000360: ef38 8cbe e62a 683d 892b babe 2ae3 223e
00000370: 8ac0 513b abdd 19be 60da 57be 5f48 31be
00000380: 7152 dc3e 7d1b 94be 088c 9c3e 89de 803d
00000390: 6149 adbe 10b4 c23e 01b1 40be 4807 863e
000003a0: a5fa 7b3d 1c0c 3a3e 3c54 47be 7eca 66be
000003b0: c62e ad3d 4108 2bbf 8b9b b63e 4be8 d8bc
000003c0: e2f7 82bd e28e 09be c0ce 0bbe 1b33 90be
000003d0: 1bc0 f03c 3cb9 303e b042 203e 9995 f43d
000003e0: 0a39 6b3d fba2 5d3e 4467 633e 7b49 27bd
000003f0: acf5 12be 639f 1fbe cf06 95bc f3ed ccbd

architecture.2.bias f4 [64]
-0.58418393 -0.029856147 0.5902585 -0.72645396 -0.3010347 -0.4912745 0.19232126 -0.47436914
-0.16017239 -0.40463793 -0.056078453 -0.2448571 0.13489227 -0.41680285 0.265701 0.07358347
0.1030431 0.61723965 1.2836097 0.47901487 -0.46451378 -0.014103924 -0.039859656 -0.7062354
-0.60007805 0.46901178 0.08174686 0.22387686 1.1756138 -0.23918186 0.46231437 0.3293904
-0.20731197 -0.43624443 0.27711177 -0.02503076 -0.39990342 -0.044585254 -0.33930627 0.4046824
-1.2287554 0.14158596 -0.22676545 -0.066841215 0.40611392 0.86241215 -0.88551176 0.079799786
0.18027343 -0.04967567 -0.6365348 -0.2298821 0.24427713 0.035901 -0.60129774 0.6475786
-0.066999465 0.041769814 0.12023967 0.003037318 -0.16782469 0.2028071 0.003950834 -0.06901746
00000000: 148d 15bf e194 f4bc 2e1b 173f e3f8 39bf
00000010: 3821 9abe 5588 fbbe ddef 443e 83e0 f2be
00000020: 3b04 24be b42c cfbe 85b2 65bd d2bb 7abe
00000030: 3321 0a3e 2f67 d5be f609 883e eeb2 963d
00000040: 4308 d33d 6b03 1e3f 534d a43f 7041 f53e
00000050: c0d4 edbe 2514 67bc e143 23bd d8cb 34bf
00000060: b79e 19bf 5022 f03e e66a a73d fa3f 653e
00000070: 837a 963f 17ec 74be 78b4 ec3e dca5 a83e
00000080: 9749 54be 6e5b dfbe 98e1 8d3e 4f0d cdbc
00000090: 24c0 ccbe 079f 36bd 8db9 adbe 8832 cf3e
000000a0: db47 9dbf e9fb 103e 3435 68be 0ce4 88bd
000000b0: 2aee cf3e 0bc7 5c3f e6b0 62bf 126e a33d
000000c0: 9999 383e b778 4bbd f2f3 22bf 3766 6bbe
000000d0: c923 7a3e ed0c 133d a6ee 19bf b6c7 253f
000000e0: 0437 89bd d316 2b3d 3740 f63d bd0d 473b
000000f0: 3cda 2bbe aaac 4f3e ff75 813b 0759 8dbd

architecture.4.weight f4 [9, 64]
-0.03171197 0.041575387 -0.06069585 -0.032854863 0.011268854 -0.005565061 -0.004786451 0.005414109
0.019828765 -0.0640571 0.008459678 -0.035999514 0.013849294 -0.04321712 -0.0028312497 0.01231791
-0.011347381 0.03286643 -0.012205416 0.0046819304 0.00051926734 0.009780219 -0.009930941 0.05582686
0.014236104 -0.00211218 0.022560028 -0.0012411852 0.035670962 0.019288646 0.0019322734 -0.0012837241
-0.083057314 -0.01674115 -0.009932325 0.0023389321 0.004613985 -0.049959805 0.052619778 0.017053336
-0.054346107 -0.025995092 -0.029166274 -0.0061470736 0.079214476 -0.06544884 -0.020050997 -0.021290667
0.031464133 0.011195443 -0.025678707 -0.08959193 -0.014184562 0.0066123204 0.01050187 -0.024526909
-0.13832039 -0.0021427618 0.009018205 0.004011319 0.04235415 -0.009888715 0.01061998 0.039509207
-0.005367153 0.052951276 -0.022363633 -0.052473895 -0.09644043 0.09386698 0.00037358358 -0.02147824
-0.011339106 0.024169168 0.0068233614 -0.021659452 0.06419585 0.062353384 -0.014525606 -0.009925514
-0.019278472 0.064233065 0.033643015 -0.15327516 -0.041343424 0.02323712 0.0023956702 -0.073604785
-0.011338697 0.067530744 -0.0063712895 -0.000112476315 0.007423106 0.018323053 0.011706096 0.00014974044
0.044509638 -0.03006144 0.031238995 0.0039440263 0.021616979 -0.03799896 0.0315232 0.048592955
0.13501443 0.015149962 -0.056727454 0.03662791 0.04827875 0.03336754 0.09809228 0.015771503
-0.027008014 0.013045021 0.07452259 -0.0032630705 -0.00851639 -0.0033111216 -0.1197034 -0.019131232
0.0109383995 -0.011360782 0.034056764 -0.019884158 0.02356603 -0.07422184 -0.0009929134 0.053467795
0.0054910323 -0.1500565 -0.062747866 0.042214572 -0.067242704 0.034893792 -0.010747867 0.07114932
-0.01591154 -0.035605412 -0.023704777 0.006594607 0.008162035 -0.053134587 0.0062096757 0.0005334246
0.051470377 -0.01625957 -0.12203174 -0.03058697 -0.00876764 -0.022653824 -0.02094743 -0.053335566
-0.07984438 0.015144728 0.01267127 -0.029653864 0.21343265 0.00580916 -0.011749045 -0.02653522
-0.13985668 -0.00581903 -0.00716025 -0.017219784 0.008693307 0.007839679 0.034175187 0.024390051
0.04441877 -0.0017558291 -0.023591913 -0.052659985 -0.008086611 -0.029761855 -0.030404747 0.0022382226
-0.1255917 0.0048296503 0.0140108215 0.08055518 -0.0010313668 -0.0064449534 0.00977009 0.023844203
0.005155912 0.00024086432 -0.020300915 -0.016083239 -0.002027462 -0.0069568264 -0.0036732075 -0.019043759
-0.54155815 -0.022454333 0.55316585 -0.4427525 0.06383249 -0.27826652 0.033282552 -0.11837
-0.2372914 0.046287272 -0.23009513 0.16173774 0.067794114 -0.37235063 0.089369886 0.36842328
0.104358286 0.5059975 0.45079136 0.23611353 -0.5127465 -0.22888082 0.03252265 -0.47394565
-0.5250992 0.35596716 0.039355487 0.17806838 0.36456242 -0.3012048 0.036752306 0.07703351
0.011750562 -0.09861864 0.27234626 -0.30276766 -0.19188438 -0.032487605 -0.21292351 0.12995544
-0.2968654 -0.14996456 -0.1456104 0.21938026 0.5080501 0.6498834 -0.14558727 -0.17455313
0.036197733 0.10230892 -0.08044224 0.019317629 -0.082006425 0.1976229 -0.46636868 0.32375085
-0.026075365 -0.08967349 0.46858963 0.06699193 0.032996044 0.088700086 -0.3003435 -0.10889012
00000000: 69e4 01bd f44a 2a3d 369c 78bd d292 06bd
00000010: 00a1 383c 1d5b b6bb a9d7 9cbb d768 b13b
00000020: ef6f a23c 5e30 83bd 769a 0a3c 3a74 13bd
00000030: 26e8 623c 6f04 31bd 7d8c 39bb 0fd1 493c
00000040: 5eea 39bc f39e 063d 3af9 47bc e16a 993b
00000050: 711f 083a 363d 203c 63b5 22bc b5aa 643d
00000060: 8c3e 693c 806c 0abb cfcf b83c 44af a2ba
00000070: b71b 123d 3903 9e3c 5644 fd3a a242 a8ba
00000080: f419 aabd bc24 89bc 31bb 22bc c548 193b
00000090: e930 973b a7a2 4cbd d687 573d 70b3 8b3c
000000a0: 069a 5ebd a9f3 d4bc 1cee eebc 646d c9bb
000000b0: 333b a23d 0b0a 86bd fd41 a4bc c469 aebc
000000c0: 89e0 003d 176d 373c 275c d2bc f97b b7bd
000000d0: 5d66 68bc 2aac d83b 0910 2c3c a8ec c8bc
000000e0: dca3 0dbe 946d 0cbb 18c1 133c 6271 833b
000000f0: 8c7b 2d3d 4704 22bc 6dff 2d3c 68d4 213d
00000100: f1de afbb 70e3 583d f033 b7bc deee 56bd
00000110: 8f82 c5bd 553d c03d 8add c339 22f3 afbc
00000120: a8c7 39bc 6bfe c53c 8196 df3b 2a6f b1bc
00000130: 1d79 833d 4366 7f3d cffc 6dbc a09e 22bc
00000140: e3ed 9dbc a08c 833d 42cd 093d 2af4 1cbe
00000150: b957 29bd c65b be3c ad00 1d3b 1bbe 96bd
00000160: f1c5 39bc 8f4d 8a3d 40c6 d0bb 43e1 ebb8
00000170: 873d f33b 3a1a 963c edca 3f3c a503 1d39
00000180: bd4f 363d 6943 f6bc ece8 ff3c e43c 813b
00000190: 1716 b13c cca4 1bbd 791e 013d 6809 473d
000001a0: 3941 0a3e 8c37 783c 0c5b 68bd 2607 163d
000001b0: f0bf 453d 67ac 083d 9be4 c83d 3d33 813c
000001c0: e93f ddbc c9ba 553c 4d9f 983d 3dd9 55bb
000001d0: 5488 0bbc 67ff 58bb 0e27 f5bd 1ab9 9cbc
000001e0: f936 333c 9322 3abc 1b7f 0b3d 1ae4 a2bc
000001f0: 8c0d c13c 9f01 98bd a524 82ba 0c01 5b3d
00000200: 1eee b33b 69a8 19be f481 80bd 30e9 2c3d
00000210: 8bb6 89bd cbec 0e3d d217 30bc bcb6 913d
00000220: eb58 82bc fbd6 11bd 8530 c2bc 9317 d83b
00000230: 0eba 053c a7a3 59bd 897a cb3b 85d5 0b3a
00000240: 9ad2 523d ca32 85bc c7eb f9bd 8691 fabc
00000250: 26a6 0fbc 8394 b9bc f299 abbc 6576 5abd
00000260: 7385 a3bd 9821 783c 299b 4f3c a9ec f2bc
00000270: 178e 5a3e c45a be3b 117f 40bc 6460 d9bc
00000280: 9736 0fbe 90ad bebb 88a0 eabb 8110 8dbc
00000290: 5f6e 0e3c ff71 003c 48fb 0b3d a5cd c73c
000002a0: 75f0 353d d923 e6ba d443 c1bc ffb1 57bd
000002b0: b47d 04bc 22cf f3bc 6013 f9bc 25af 123b
000002c0: 1c9b 00be 0b42 9e3b a58d 653c 1dfa a43d
000002d0: ed2e 87ba 3030 d3bb ba12 203c eb54 c33c
000002e0: edf2 a83b 8690 7c39 1b4e a6bc ffc0 83bc
000002f0: 2bdf 04bb 17f6 e3bb 32ba 70bb a801 9cbc
00000300: 8ea3 0abf 26f2 b7bc 479c 0d3f 75b0 e2be
00000310: 9cba 823d f378 8ebe 4953 083d f86b f2bd
00000320: 84fc 72be b997 3d3d 0f9e 6bbe 949e 253e
00000330: a4d7 8a3d bea4 bebe 8f07 b73d faa1 bc3e
00000340: ccb9 d53d 0d89 013f 20ce e63e bfc7 713e
00000350: 5b43 03bf bc5f 6abe 7836 053d 01a9 f2be
00000360: e76c 06bf 5441 b63e 3833 213d 8f57 363e
00000370: eda7 ba3e 8437 9abe 9689 163d bfc3 9d3d
00000380: 6e85 403c 92f8 c9bd f870 8b3e 5d04 9bbe
00000390: 577d 44be b911 05bd 9f08 5abe 0a13 053e
000003a0: befe 97be 4f90 19be e51a 15be 38a5 603e
000003b0: 920f 023f c25e 263f d414 15be 0ebe 32be
000003c0: 1344 143d 5787 d13d e7be a4bd 0140 9e3c
000003d0: fcf2 a7bd a85d 4a3e e0c7 eebe acc2 a53e
000003e0: 019c d5bc bca6 b7bd fbea ef3e 1133 893d
000003f0: dc26 073d 64a8 b53d a0c6 99be c901 dfbd

architecture.4.bias f4 [9]
-0.08626096 0.009732463 -0.029626343 0.6169689 0.08352256 -0.08690049 -0.018562697 0.55968565
-0.11772373
00000000: 96a9 b0bd e974 1f3c f2b2 f2bc adf1 1d3f
00000010: e00d ab3d e2f8 b1bd cc10 98bc 8f47 0f3f
00000020: 2419 f1bd

std f4 [9]
0.2 0.2 0.2 0.2024462 0.2 0.2 0.20381948 0.2
0.2
00000000: cdcc 4c3e cdcc 4c3e cdcc 4c3e 0f4e 4f3e
00000010: cdcc 4c3e cdcc 4c3e 0eb6 503e cdcc 4c3e
00000020: cdcc 4c3e

architecture.0.weight f4 [64, 27]
-0.05616519 0.012529737 -0.003040305 0.23228118 0.33560896 -0.35161752 -0.3871344 -0.5218722
-0.8830667 0.057456806 0.13272516 -0.045072097 -0.016232677 0.022112856 0.063316055 0.01877614
-0.078796834 -0.2398623 -0.029345741 -0.37163824 0.30174917 0.25747216 0.5157786 0.857894
-0.2214891 -0.11388755 0.06279485 -0.0006859161 0.013689974 0.013664108 -0.031618286 -0.0050702705
0.09896647 0.0153391 -0.3679666 0.29910222 0.04886328 -0.19950278 0.0323673 0.20086716
0.20223767 0.026092773 -0.006959889 -0.008304405 0.021226192 -0.35308516 0.069062024 0.1862578
-0.1273391 0.50110465 0.17840967 0.060186762 -0.04377467 -0.10109833 -0.08645014 -0.18464178
-0.15446791 0.15112562 -0.3396362 0.37326697 0.3481894 0.35112795 -0.17124243 0.13513562
-0.24055229 0.08252894 -0.120801814 -0.07397471 0.0054687695 0.1649104 -0.0069718068 -0.03610465
-0.12927808 0.29130656 -0.4339091 -0.10324988 -0.42860618 0.23363754 0.036761094 0.044884186
-0.091182604 0.07148541 -0.10031755 0.26053214 -0.38577637 0.19358474 0.24429628 0.11703432
-0.14814448 0.15730673 -0.4133985 0.3976414 0.27993622 0.023253614 -0.059031643 -0.025140855
0.027977468 -0.03827574 0.020965336 0.35656756 -0.19482969 -0.11427725 -0.14769502 0.12808731
-0.20613416 0.40285462 -0.36042777 -0.3067531 0.032715287 -0.032888114 -0.0759993 -0.010535997
0.060125623 -0.19761854 -0.25423202 0.12993927 0.02783075 -0.019802198 -0.13554324 -0.19384241
0.029711612 0.068666756 -0.010941307 -0.0010754843 0.015864655 0.04213356 -0.10073476 -0.16096783
0.021608409 0.028860971 -0.13501877 0.13591336 -0.008721201 0.0012373996 -0.29264238 -0.024507018
-0.00821099 0.02452409 0.062467586 -0.034642506 -0.052996166 0.0175478 0.12860566 -0.024933908
0.01773378 0.03134473 -0.008507733 0.10110283 0.4583036 0.5997136 0.040424444 -0.09803452
-0.11003567 -0.0856045 0.05627116 0.00018159347 0.012454177 -0.08638152 0.0026466406 -0.043388013
-0.017239144 -0.01992075 -0.025073342 -0.0053580995 0.0038087887 -0.2369109 0.10879546 0.047798377
-0.18027437 -0.06681795 0.043081164 0.047637664 -0.07102426 -0.18116687 -0.09965815 -0.13185155
0.063524485 -0.003893024 -0.0236399 0.014593006 0.040382147 -0.00030205448 0.18208954 -0.0086208
0.12789747 0.14633141 -0.083122924 -0.025659151 0.11214844 0.0031780193 0.034848023 -0.011769155
0.06203499 -0.13448758 0.18728058 -0.022745648 0.29099318 -0.052126464 0.102304734 -0.05563613
0.036297943 0.24836464 -0.5263806 0.20776688 0.06066928 -0.018886495 0.13087061 -0.11692016
0.068005644 -0.11348184 0.03917938 -0.056995217 -0.15190308 -0.114166714 0.018527983 0.00052075007
-0.05974599 -0.059566163 -0.22024047 0.079280145 0.19254042 -0.1526704 -0.032115903 0.16871107
0.1546918 -0.13798563 -0.06398288 -0.18460912 -0.01830865 -0.06996502 -0.22293648 0.030236747
0.13118395 0.033003923 -0.10082634 -0.23561147 0.4605968 0.13196692 -0.0413684 -0.041263144
0.017535344 -0.11344351 -0.29135194 0.28645918 -0.0031406342 -0.072156765 0.01721429 0.3757194
-0.06116033 -0.01208235 -0.24857703 0.40687424 0.2251145 -0.32137105 0.4119327 0.031298663
00000000: 780d 66bd 8749 4d3c db3f 47bb 1edb 6d3e
00000010: f0d4 ab3e 3607 b4be 7b36 c6be 6b99 05bf
00000020: a910 62bf d457 6b3d 1be9 073e 859d 38bd
00000030: 64fa 84bc 0526 b53c d9ab 813d 6bd0 993c
00000040: 3c60 a1bd 769e 75be 7b66 f0bc 5e47 bebe
00000050: de7e 9a3e 64d3 833e 110a 043f f19e 5b3f
00000060: 0ace 62be e03d e9bd 969a 803d 0dcf 33ba
00000070: ea4b 603c 6cdf 5f3c 2d82 01bd 8324 a6bb
00000080: efae ca3d d950 7b3c 1e66 bcbe ed23 993e
00000090: dd24 483d 754a 4cbe 9393 043d 1fb0 4d3e
000000a0: 6417 4f3e 83c0 d53c c80f e4bb 330f 08bc
000000b0: 8de2 ad3c 94c7 b4be 6470 8d3d 5dba 3e3e
000000c0: 2e65 02be 6548 003f 06b1 363e 6586 763d
000000d0: 124d 33bd a40c cfbd c50c b1bd bc12 3dbe
000000e0: d62c 1ebe adc0 1a3e cce4 adbe d91c bf3e
000000f0: e245 b23e 0bc7 b33e 2d5a 2fbe fe60 0a3e
00000100: 5753 76be ef04 a93d f166 f7bd 0e80 97bd
00000110: 5d33 b33b 46de 283e c173 e4bb 78e2 13bd
00000120: 7961 04be 2226 953e 5529 debe ac74 d3bd
00000130: 4572 dbbe ae3e 6f3e cd92 163d 7bd8 373d
00000140: f2bd babd f166 923d 4a73 cdbd 7864 853e
00000150: 7b84 c5be 143b 463e ce28 7a3e b1af ef3d
00000160: 30b3 17be 0415 213e f8a8 d3be a797 cb3e
00000170: cd53 8f3e 5d7e be3c 2acb 71bd 32f4 cdbc
00000180: 0131 e53c 06c7 1cbd 7fbf ab3c 0690 b63e
00000190: 6f81 47be 310a eabd 5d3d 17be 5229 033e
000001a0: d514 53be f642 ce3e fd89 b8be be0e 9dbe
000001b0: 7700 063d b0b5 06bd 85a5 9bbd 2d9f 2cbc
000001c0: 4946 763d 845c 4abe b32a 82be cd0e 053e
000001d0: 50fd e33c 3838 a2bc d9cb 0abe a07e 46be
000001e0: c465 f33c 28a1 8c3d 2b43 33bc 44f7 8cba
000001f0: 98f6 813c 3d94 2c3d 074e cebd c0d4 24be
00000200: 1e04 b13c d86d ec3c 5c42 0abe df2c 0b3e
00000210: 5ee3 0ebc 3e30 a23a 39d5 95be f1c2 c8bc
00000220: 6387 06bc bfe6 c83c 03de 7f3d 4de5 0dbd
00000230: 8212 59bd 67c0 8f3c 34b1 033e 3242 ccbc
00000240: 6f46 913c 5563 003d 0564 0bbc 000f cf3d
00000250: c5a6 ea3e d586 193f 1a94 253d 53c6 c8bd
00000260: 625a e1bd 6951 afbd 967c 663d 206a 3e39
00000270: 9b0c 4c3c cbe8 b0bd 4373 2d3b a1b7 31bd
00000280: 1b39 8dbc d730 a3bc 9c66 cdbc ff92 afbb
00000290: df9c 793b c598 72be 27d0 de3d 3bc8 433d
000002a0: d899 38be d9d7 88bd e075 303d b61f 433d
000002b0: 2b75 91bd cf83 39be 9219 ccbd 1804 07be
000002c0: 2019 823d 1b22 7fbb 77a8 c1bc 8117 6f3c
000002d0: c067 253d 115d 9eb9 ae75 3a3e 423e 0dbc
000002e0: 8ef7 023e e7d7 153e 5a3c aabd 2433 d2bc
000002f0: 15ae e53d 5146 503b cdbc 0e3d 6ad3 40bc
00000300: 6718 7e3d 1db7 09be 7bc6 3f3e 1555 babc
00000310: 0ffd 943e 8f82 55bd 2585 d13d b6e2 63bd
00000320: 27ad 143d 4d53 7e3e e1c0 06bf d7c0 543e
00000330: 5a80 783d dab7 9abc f202 063e d673 efbd
00000340: 8b46 8b3d 2b69 e8bd 8f7a 203d d173 69bd
00000350: 7b8c 1bbe 3dd0 e9bd ffc7 973c f282 083a
00000360: 36b8 74bd a6fb 73bd b886 61be a15d a23d
00000370: 5129 453e a155 1cbe f78b 03bd 98c2 2c3e
00000380: 8767 1e3e 1b4c 0dbe 7509 83bd 2c0a 3dbe
00000390: 06fc 95bc d249 8fbd 7649 64be 0eb3 f73c
000003a0: 1655 063e 1f2f 073d 0a7e cebd 2244 71be
000003b0: 58d3 eb3e 5622 073e e971 29bd 8b03 29bd
000003c0: 48a6 8f3c 1255 e8bd 152c 95be c7aa 923e
000003d0: 19d3 4dbb edc6 93bd fc04 8d3c 4b5e c03e
000003e0: 4183 7abd 0df5 45bc fa8a 7ebe d251 d03e
000003f0: 6a84 663e bf8a a4be d8e8 d23e 0733 003d

architecture.0.bias f4 [64]
-0.16096477 -0.8627861 0.38304645 1.2556531 0.66165966 -1.0233127 -1.2567853 0.8597922
0.29995295 1.4117224 -0.6993251 0.3543123 1.1873775 0.5939371 -1.1534148 0.51298684
0.41413984 0.575481 -0.9894853 -1.0618593 -1.1207663 -1.3196961 -1.1819049 0.08272125
-0.640734 0.2853694 -1.2106475 -0.65334827 -0.5738554 -0.9969239 -0.78000903 -0.69373566
-1.2581425 0.37075183 -0.3804177 0.77439946 0.9271547 -0.28274918 -1.2443179 -0.16543029
0.041690476 1.0691923 -0.83753264 0.64135957 -0.19230472 -1.11212 0.8616293 0.8846803
0.06280792 0.6834968 -1.0064977 0.8338094 -1.3100134 1.2558903 0.2425773 -1.1934435
-0.8455567 1.0683858 0.09319063 -0.96221733 0.16427022 -0.28564468 -0.3929948 -0.17261305
00000000: f3d3 24be 8ddf 5cbf aa1e c43e 3eb9 a03f
00000010: 8762 293f e9fb 82bf 57de a0bf 571b 5c3f
00000020: 6f93 993e 52b3 b43f f806 33bf 6c68 b53e
00000030: fcfb 973f 430c 183f 19a3 93bf 1b53 033f
00000040: 230a d43e b952 133f e94e 7dbf 01eb 87bf
00000050: 4575 8fbf cdeb a8bf a948 97bf c269 a93d
00000060: 2507 24bf f01b 923e 7ff6 9abf d541 27bf
00000070: 30e8 12bf 6836 7fbf acae 47bf a998 31bf
00000080: d00a a1bf 2fd3 bd3e 1cc6 c2be 0b3f 463f
00000090: 035a 6d3f 80c4 90be cf45 9fbf 8f66 29be
000000a0: a2c3 2a3d 4bdb 883f 8a68 56bf 2430 243f
000000b0: 87eb 44be f359 8ebf bd93 5c3f 687a 623f
000000c0: 70a1 803d a5f9 2e3f ebd4 80bf 8874 553f
000000d0: 85ae a7bf 03c1 a03f 2f66 783e c2c2 98bf
000000e0: 6776 58bf dec0 883f bbda be3d e053 76bf
000000f0: 7436 283e 0540 92be 9d36 c9be 7ac1 30be

architecture.2.weight f4 [64, 64]
-0.48443112 -0.46911755 0.21087992 -0.5691204 0.5092154 0.07612018 0.29678968 0.03247021
0.34495482 -0.6819963 -0.23673078 0.0021392878 -0.1994862 0.12357759 0.41540828 0.28162992
0.07552759 -0.6815708 0.5338692 -0.21483271 0.07547535 -0.43802327 0.4432737 0.002409281
-0.22887187 0.006551604 0.6702897 -0.16401882 0.048780106 0.34943995 0.1949075 0.0075236456
0.7018679 0.36073595 -0.11065679 0.32024598 0.043157414 -0.07111341 0.3386041 -0.14503764
0.25064534 0.097797975 0.08858299 0.916284 -0.04700444 0.5187661 0.51587254 0.22563672
0.21095517 0.23911695 0.01652396 0.17171794 -0.17600189 0.16842483 0.29876053 0.60949004
0.028404549 -0.2915058 -0.8121831 0.018261934 0.18799381 0.48450673 -0.2733796 0.13061234
-0.3818135 -0.6882348 0.36773106 0.660867 0.5377295 -0.5402027 -0.9049594 0.40399984
0.42323214 0.3979773 -0.5908328 0.43078277 0.1804382 0.18295799 -0.47640687 0.23590598
0.010937582 0.31615937 -0.49762645 -1.0213369 -0.5273329 -1.029574 -0.53854436 -0.05729656
-0.2610387 -0.081726715 -0.39265752 0.2945862 -0.2960945 -0.6428443 -0.4737804 -0.57390714
-0.6745573 0.24506369 -0.5338976 0.49461567 0.23145722 -0.41669405 -0.1832353 -0.11383515
0.1750444 0.47514632 -0.3538398 0.013125651 -0.18998091 0.06019868 -0.14385743 0.32736304
-0.21909994 0.1465308 -0.48072442 -0.035870608 -0.5730369 0.73165214 -0.01461996 -0.677274
-0.32384667 0.83310145 -0.29673585 -0.48651186 -0.1301244 -0.2740877 0.09950058 -0.006193249
0.53572816 0.6675614 -0.4544147 -0.9620359 -0.3342799 0.6197405 0.63318855 -0.6174369
-0.44425955 -0.6631491 0.3571887 -0.32923388 -0.18345532 -0.37483644 0.4981461 -0.5492079
-0.20069738 -0.21202484 0.8077798 0.74438465 0.20714764 0.885889 0.23383589 -0.10538927
0.30472982 -0.06005787 0.39707825 -0.14478117 0.1087389 0.553756 0.7256309 0.5643982
0.82621306 -0.024072804 0.53147197 -0.3507919 -0.2890546 0.65300393 -0.10595118 0.31271374
0.10304492 -0.8412067 0.4317302 -0.035139922 -0.16074876 -0.1263713 -0.045500495 -0.51384914
0.024078073 -0.11856728 0.008565762 -0.36931834 0.5736584 -0.7154845 -0.12488956 0.114845835
0.6551542 -1.4321935 0.43621665 0.7959842 0.24690619 0.4568635 -0.10936205 0.0030498756
-0.08025702 -0.20468244 -0.38861695 0.8112606 -0.050050553 -0.0341289 0.27261913 0.037183587
0.43234095 0.6043493 0.011280632 0.12875624 0.2467014 -0.4272573 -0.55603594 -0.08945459
0.6703976 -0.67960346 -0.52800596 0.51642877 0.2389975 0.2894339 -0.51996744 0.02668505
0.49981475 -0.29097083 -0.85845494 0.29321727 -0.103085205 0.41738236 -0.12675016 0.1364862
-0.7026785 0.0014007329 0.40213206 0.14370929 -0.10602657 0.21902789 0.021827508 0.28589752
0.09449045 0.47381055 -0.17922848 0.43012276 0.5108381 -0.6990468 0.40343016 -0.008874628
-0.08123543 -0.22289145 -0.4292688 -0.25292256 0.52453816 -0.5002314 0.23868969 -0.6845868
0.23972741 -0.0920945 -0.04663356 -0.09672313 0.2548329 0.21789451 -0.26807162 -0.3560969
00000000: 5b07 f8be 2d30 f0be e8f0 573e e0b1 11bf
00000010: f15b 023f e6e4 9b3d d1f4 973e 7cff 043d
00000020: eb9d b03e 4f97 2ebf 8e69 72be 4b33 0c3b
00000030: 1c46 4cbe 3f16 fd3d 65b0 d43e cc31 903e
00000040: 36ae 9a3d 6d7b 2ebf a7ab 083f 1bfd 5bbe
00000050: d292 9a3d 9644 e0be c5f4 e23e 07e5 1d3b
00000060: 635d 6abe d6ae d63b 1b98 2b3f 8df4 27be
00000070: a6cd 473d cbe9 b23e d595 473e ea88 f63b
00000080: 9dad 333f 62b2 b83e 07a0 e2bd 48f7 a33e
00000090: d4c5 303d e8a3 91bd 845d ad3e bf84 14be
000000a0: 9654 803e 4e4a c83d 006b b53d 9791 6a3f
000000b0: ba87 40bd dbcd 043f 3910 043f 500d 673e
000000c0: a204 583e 13db 743e 415d 873c d4d6 2f3e
000000d0: d739 34be 8f77 2c3e 24f7 983e 8a07 1c3f
000000e0: a8b0 e83c 4040 95be 3beb 4fbf 0d9a 953c
000000f0: 7381 403e 4411 f83e 69f8 8bbe 3ebf 053e
00000100: 0f7d c3be 2830 30bf 3f47 bc3e 942e 293f
00000110: a4a8 093f b94a 0abf 6bab 67bf 11d9 ce3e
00000120: e2b1 d83e aec3 cb3e d240 17bf 8f8f dc3e
00000130: cbc4 383e 5759 3b3e 9aeb f3be 5691 713e
00000140: 8b33 333c a4df a13e e5c8 febe 2bbb 82bf
00000150: 4aff 06bf 15c9 83bf 0bde 09bf ccaf 6abd
00000160: dda6 85be 5660 a7bd 680a c9be 01d4 963e
00000170: b399 97be 7291 24bf 5893 f2be 94eb 12bf
00000180: caaf 2cbf faf1 7a3e 83ad 08bf 443e fd3e
00000190: 1f03 6d3e ec58 d5be 09a2 3bbe 6722 e9bd
000001a0: d73e 333e 6146 f33e 7e2a b5be f80c 573c
000001b0: 5b8a 42be e492 763d 5d4f 13be 219c a73e
000001c0: bc5b 60be 2c0c 163e 8321 f6be 0fed 12bd
000001d0: 8cb2 12bf 8e4d 3b3f 8f88 6fbc d461 2dbf
000001e0: 3bcf a5be 2346 553f c3ed 97be 1518 f9be
000001f0: 553f 05be 3955 8cbe f6c6 cb3d bdf0 cabb
00000200: 7b25 093f 4ee5 2a3f 0ba9 e8be fc47 76bf
00000210: bc26 abbe 50a7 1e3f a518 223f 5810 1ebf
00000220: fd75 e3be 24c4 29bf 70e1 b63e 5891 a8be
00000230: b6db 3bbe 90ea bfbe 010d ff3e e498 0cbf
00000240: 9d83 4dbe 0a1d 59be a8ca 4e3f fe8f 3e3f
00000250: 831e 543e 9fc9 623f ad72 6f3e 54d6 d7bd
00000260: 8c05 9c3e 3eff 75bd d74d cb3e 8441 14be
00000270: 80b2 de3d f4c2 0d3f f2c2 393f 677c 103f
00000280: b382 533f 5434 c5bc 8c0e 083f ff9a b3be
00000290: f7fe 93be 442b 273f effc d8bd 041c a03e
000002a0: 3709 d33d 5359 57bf be0b dd3e e1ee 0fbd
000002b0: 539b 24be 7a67 01be ba5e 3abd 9e8b 03bf
000002c0: 613f c53c 67d3 f2bd 6957 0c3c 4b17 bdbe
000002d0: 47db 123f fe29 37bf 19c6 ffbd 4b34 eb3d
000002e0: 30b8 273f 1e52 b7bf ca57 df3e 9fc5 4b3f
000002f0: fad4 7c3e 03ea e93e 36f9 dfbd 6ce0 473b
00000300: cb5d a4bd 4698 51be cdf8 c6be c6ae 4f3f
00000310: cf01 4dbd bfca 0bbd bc94 8b3e d14d 183d
00000320: cb5b dd3e a3b6 1a3f 66d2 383c add8 033e
00000330: 4b9f 7c3e 78c1 dabe 5f58 0ebf f833 b7bd
00000340: 2d9f 2b3f 7efa 2dbf 662b 07bf ad34 043f
00000350: c3bb 743e ae30 943e 961c 05bf 9b9a da3c
00000360: b8e7 ff3e 21fa 94be b4c3 5bbf 9320 963e
00000370: 561e d3bd 24b3 d53e cbca 01be 0ac3 0b3e
00000380: bde2 33bf cc98 b73a 41e4 cd3e 8728 133e
00000390: 7524 d9bd d948 603e 9acf b23c 2961 923e
000003a0: 3684 c13d 4c97 f23e ac87 37be 0d39 dc3e
000003b0: 49c6 023f bbf4 32bf 668e ce3e e366 11bc
000003c0: c35e a6bd a83d 64be 1fc9 dbbe 117f 81be
000003d0: 2248 063f 2a0f 00bf 126b 743e 1541 2fbf
000003e0: 1a7b 753e 0b9c bcbd d502 3fbd c716 c6bd
000003f0: 7579 823e bd1f 5f3e af40 89be 5552 b6be

architecture.2.bias f4 [64]
0.33712572 1.0244685 -1.2555002 -0.36262837 0.14027485 -1.1630627 1.1297195 -0.74131
-1.2895087 0.6187218 0.65693116 -1.2786875 -1.0262965 0.41945142 0.01957085 0.55542207
1.2413671 0.4903478 -0.47240546 1.2119972 0.32776862 -0.7892296 0.40798694 1.2866673
-0.42475182 0.50070584 1.3367082 -0.17903343 -0.7523791 -0.3430979 -1.2330548 -0.34192988
-1.2477657 0.32845774 0.51351845 -1.2161818 -1.2385263 1.4431368 -0.5390037 -0.71878564
-0.38982564 -1.2708215 -0.6737606 0.5525989 -1.2027293 0.5052815 -0.30058822 0.78492856
-0.41874534 1.1873373 1.4271321 -0.41607493 -1.2598883 -0.8967639 -0.7565555 0.29308203
0.34839863 0.47659892 -0.41754106 1.011573 -0.7502445 0.5158476 -1.1706142 1.2367301
00000000: be9b ac3e c921 833f 3bb4 a0bf 6daa b9be
00000010: 36a4 0f3e 3ddf 94bf a69a 903f 7ec6 3dbf
00000020: 9f0e a5bf 8d64 1e3f a42c 283f 08ac a3bf
00000030: af5d 83bf 56c2 d63e 0c53 a03c 2430 0e3f
00000040: 1ee5 9e3f de0e fb3e 21df f1be b922 9b3f
00000050: 4ad1 a73e f30a 4abf aae3 d03e 84b1 a43f
00000060: 1279 d9be 422e 003f 4119 ab3f 8a54 37be
00000070: eb9b 40bf 87aa afbe bdd4 9dbf 6f11 afbe
00000080: c9b6 9fbf 9d2b a83e f275 033f d8ab 9bbf
00000090: 0888 9ebf b5b8 b83f 25fc 09bf 5602 38bf
000000a0: 3a97 c7be 47aa a2bf 937b 2cbf 1f77 0d3f
000000b0: 09f3 99bf 215a 013f b3e6 99be 14f1 483f
000000c0: ca65 d6be abfa 973f 44ac b63f c607 d5be
000000d0: 0544 a1bf 5292 65bf 9fad 41bf d90e 963e
000000e0: 4e61 b23e c604 f43e f1c7 d5be 397b 813f
000000f0: 0610 40bf 970e 043f b0d6 95bf 2c4d 9e3f

architecture.4.weight f4 [1, 64]
-7.984856 -5.1925917 5.164956 7.9007034 -7.1061363 5.14167 -5.11226 5.202087
5.21101 -5.3482475 -5.0808625 5.2459736 5.2417407 -7.924258 -6.636198 -6.4817753
-5.3518047 -7.6019545 6.48029 -5.3338194 -6.8098226 6.3814626 -6.669387 -5.1972914
6.61302 -8.3017 -5.1092014 7.3245316 5.3681126 6.702468 5.167838 7.968156
5.117384 -7.126438 -7.614164 5.093295 5.1424866 -5.125964 4.9664493 5.2180357
6.639895 5.073 4.6920323 -5.155083 5.2310534 -7.633698 6.020911 -5.4267483
6.41725 -5.1656284 -5.092661 7.6280036 5.0857334 5.0484695 5.1817474 -8.204398
-7.765599 -5.4352183 7.4894586 -5.49933 5.16606 -5.2627883 5.040599 -5.2621965
00000000: f183 ffc0 b629 a6c0 5247 a540 90d2 fc40
00000010: 7865 e3c0 9088 a440 a297 a3c0 7f77 a640
00000020: 98c0 a640 d824 abc0 6d96 a2c0 04df a740
00000030: 57bc a740 8693 fdc0 bc5b d4c0 b46a cfc0
00000040: fc41 abc0 3643 f3c0 895e cf40 a6ae aac0
00000050: 11ea d9c0 f134 cc40 9e6b d5c0 3650 a6c0
00000060: dc9d d340 c3d3 04c1 947e a3c0 9062 ea40
00000070: 94c7 ab40 9e7a d640 ee5e a540 22fb fe40
00000080: 9cc1 a340 c80b e4c0 3ba7 f3c0 46fc a240
00000090: 408f a440 e607 a4c0 27ed 9e40 26fa a640
000000a0: 057a d440 0456 a240 2125 9640 71f6 a4c0
000000b0: ca64 a740 4147 f4c0 4eab c040 eca7 adc0
000000c0: 1d5a cd40 d44c a5c0 14f7 a2c0 9b18 f440
000000d0: 54be a240 108d a140 e0d0 a540 3745 03c1
000000e0: c97f f8c0 4fed adc0 a5a9 ef40 83fa afc0
000000f0: 5d50 a540 c368 a8c0 964c a140 ea63 a8c0

exp_avg f4 [64, 27]
-4.944921e-05 -1.09298e-05 2.6138208e-05 -2.218869e-05 5.977968e-05 -9.82103e-06 -3.130387e-05 -2.2696417e-05
-1.4879314e-05 -1.9388555e-05 1.7279559e-06 -4.1907057e-05 4.5198794e-05 -0.000110084366 -0.00010552387 -3.57398e-05
-1.1219229e-05 -7.459863e-05 -1.9311847e-05 4.6940426e-05 -1.9644653e-05 -1.1551161e-05 -1.5539983e-05 -1.5722217e-05
-3.936399e-06 -7.0871984e-06 -6.076188e-05 -0.00013358072 -4.8165115e-05 -9.05209e-06 -3.2315533e-05 -5.96514e-05
4.488424e-05 9.357378e-06 -5.045174e-05 -3.9579572e-06 4.2405787e-05 8.762056e-08 7.5352995e-07 5.67519e-05
-1.2408941e-06 -6.8625246e-05 2.4005634e-05 -4.8045746e-05 -3.4668365e-06 -5.507702e-06 -5.5062163e-05 3.9474304e-05
-5.962999e-07 -4.04247e-05 -1.724985e-05 4.8983522e-05 1.2238711e-05 -1.205303e-05 1.1023809e-05 -2.6692265e-05
1.6792528e-05 3.190788e-05 -4.195964e-05 7.185259e-05 2.7447228e-05 9.793547e-06 6.3783475e-05 -3.5157944e-05
2.185891e-05 6.0079183e-05 2.86401e-07 0.000106649175 0.00010354138 5.32102e-05 -2.9770892e-05 1.816181e-05
2.1573447e-05 -3.1302294e-05 7.1459406e-05 2.5707948e-05 -5.7636057e-06 5.014466e-05 -4.598445e-05 1.843718e-05
7.66891e-05 -2.8850705e-05 -7.197878e-06 -1.0262108e-05 -6.6576695e-06 -1.2064352e-05 1.158957e-05 -2.2066593e-05
-1.0176617e-05 2.6365293e-05 -1.321201e-05 -3.359045e-05 9.90161e-06 2.3579783e-05 1.025432e-06 -3.914099e-05
1.3562876e-06 -2.4212684e-06 3.2084185e-06 -6.1538444e-06 -1.4759789e-05 7.2861485e-06 -2.3061337e-05 -9.558411e-06
3.3236083e-05 -9.246978e-06 -3.8054615e-05 9.7268685e-06 5.252998e-06 -1.3756967e-05 2.87637e-05 1.32588875e-05
5.2367e-06 -3.632499e-05 -3.1916465e-05 1.362379e-06 -8.145906e-06 -5.5395118e-05 3.0678253e-05 -2.1598256e-05
-2.500216e-05 1.6532322e-05 -6.951624e-06 -5.474484e-05 -4.036166e-06 3.189839e-05 7.766211e-06 1.543919e-05
-3.531114e-05 -2.4328234e-05 -5.1587003e-06 -6.83619e-06 -6.030583e-05 3.3527984e-05 -1.7385797e-05 -4.9650134e-05
-6.865607e-05 -8.1164835e-06 -3.3340086e-05 4.000685e-05 5.780665e-07 4.0874525e-06 -5.305791e-05 -2.0899579e-05
8.211413e-05 -4.18457e-05 -1.44053765e-05 -1.4254406e-05 -2.1341382e-05 -6.208766e-05 1.6968643e-05 -6.4918495e-05
1.6487207e-05 -2.8921137e-05 3.6278405e-05 2.8713953e-06 -2.180008e-06 -4.1400926e-05 -1.0811761e-05 8.745673e-05
-4.5688295e-05 -2.0464253e-05 -1.8494808e-05 -3.5022036e-05 5.99002e-05 -7.662224e-06 2.1356649e-05 -3.9150706e-05
6.124181e-05 -1.5602891e-05 2.6029022e-05 -1.0292909e-05 -1.8749093e-05 3.9516697e-05 -6.3325715e-05 -2.3185314e-05
-7.165921e-05 2.102528e-05 -3.9392347e-05 -5.384683e-06 -8.001649e-06 1.6554492e-05 -3.910352e-05 6.1468585e-05
-7.547143e-06 4.6830217e-05 -8.593748e-06 -2.5977448e-05 2.792427e-05 -7.637422e-05 -8.911192e-05 6.695669e-06
-2.4126079e-05 -7.261748e-06 4.3400873e-05 -6.799755e-06 -2.3897894e-05 -2.6403191e-05 -1.2462822e-05 -1.6630453e-05
-1.6642642e-05 -3.758261e-05 -1.672145e-05 -6.556157e-05 3.7580652e-05 -6.346328e-05 -2.3805385e-05 -1.2634851e-05
-3.6191693e-06 4.132605e-05 -1.126442e-05 -1.3198509e-05 -1.8511324e-05 -6.2493436e-06 -1.5450636e-05 -2.2414843e-05
-2.7924321e-05 -1.1759329e-05 -1.0829275e-05 1.6335953e-05 -1.5757389e-05 -5.7629142e-05 -1.1068353e-05 -2.096914e-06
-2.2752794e-05 8.277232e-06 -1.871262e-07 -1.6564518e-05 3.595511e-05 -2.8778346e-05 -3.9724193e-05 -5.2341336e-05
1.8989662e-05 -2.638967e-05 8.036724e-06 -1.4903215e-05 -5.7312514e-05 -2.1382489e-06 -8.452456e-06 -2.7935588e-05
1.2875519e-06 2.1062153e-06 -2.2396935e-05 -0.0002020258 4.362351e-05 9.669048e-05 1.0702788e-05 -2.3757395e-05
9.231331e-06 -1.8388248e-05 3.36674e-05 -2.1758291e-05 -5.1089974e-06 -6.3709365e-07 -1.166108e-06 4.483653e-05
00000000: af67 4fb8 225f 37b7 6043 db37 d921 bab7
00000010: f1bb 7a38 01c5 24b7 464c 03b8 2f64 beb7
00000020: 2ba2 79b7 9ba4 a2b7 1dec e735 5cc5 2fb8
00000030: d693 3d38 18dd e6b8 b24c ddb8 51e7 15b8
00000040: 393a 3cb7 d671 9cb8 e0ff a1b7 e6e1 4438
00000050: 92ca a4b7 dccb 41b7 dc5b 82b7 34e3 83b7
00000060: 6915 84b6 92ce edb6 92da 7eb8 cd11 0cb9
00000070: e604 4ab8 6ede 17b7 8a8a 07b8 3432 7ab8
00000080: 1642 3c38 a2fd 1c37 259c 53b8 98ce 84b6
00000090: dedc 3138 ea29 bc33 2f46 4a35 e308 6e38
000000a0: cc8c a6b5 e6ea 8fb8 b55f c937 ba84 49b8
000000b0: cca7 68b6 cdce b8b6 8cf2 66b8 3691 2538
000000c0: 6b11 20b5 b18d 29b8 c5b3 90b7 a873 4d38
000000d0: dd54 4d37 5f37 4ab7 e6f2 3837 34e9 dfb7
000000e0: aedd 8c37 d3d4 0538 d2fd 2fb8 91af 9638
000000f0: 793e e637 f74e 2437 7ec3 8538 8e76 13b8
00000100: a75d b737 88fd 7b38 a7c2 9934 d7a8 df38
00000110: 5b24 d938 042e 5f38 81bc f9b7 315a 9837
00000120: a0f8 b437 954a 03b8 7adc 9538 66a7 d737
00000130: ff64 c1b6 6b52 5238 6ddf 40b8 8ba9 9a37
00000140: 26d4 a038 6b04 f2b7 4d85 f1b6 6b2b 2cb7
00000150: f264 dfb6 ff67 4ab7 d370 4237 a61b b9b7
00000160: 3dbc 2ab7 092b dd37 27a9 5db7 79e3 0cb8
00000170: 171f 2637 33cd c537 93a1 8935 512b 24b8
00000180: b009 b635 137d 22b6 3650 5736 1f7d ceb6
00000190: d0a0 77b7 8a7b f436 d873 c1b7 105d 20b7
000001a0: f966 0b38 7823 1bb7 d59c 1fb8 9530 2337
000001b0: e942 b036 b9cd 66b7 9349 f137 7d72 5e37
000001c0: e9b6 af36 a95b 18b8 0bde 05b8 fcda b635
000001d0: 66aa 08b7 0e58 68b8 86ac 0038 e72d b5b7
000001e0: bbbb d1b7 e4ae 8a37 ff41 e9b6 d39d 65b8
000001f0: 676e 87b6 a3ca 0538 9f4b 0237 6883 8137
00000200: 0c1b 14b8 7c14 ccb7 e618 adb6 6d62 e5b6
00000210: e4f0 7cb8 66a0 0c38 b7d7 91b7 6d3f 50b8
00000220: 72fb 8fb8 082c 08b7 a5d6 0bb8 07cd 2738
00000230: 6d2c 1b35 f326 8936 7f8a 5eb8 8151 afb7
00000240: b034 ac38 7a83 2fb8 9fae 71b7 3526 6fb7
00000250: 4506 b3b7 0f35 82b8 e257 8e37 da24 88b8
00000260: 024e 8a37 ab9b f2b7 a429 1838 32b2 4036
00000270: 414c 12b6 e8a5 2db8 2964 35b7 f968 b738
00000280: 6fa1 3fb8 a6aa abb7 4c25 9bb7 a0e4 12b8
00000290: 5a3d 7b38 008d 00b7 0e27 b337 c035 24b8
000002a0: f26e 8038 f4e2 82b7 e658 da37 b5af 2cb7
000002b0: 5f47 9db7 bbbe 2538 bccd 84b8 157e c2b7
000002c0: bf47 96b8 725f b037 3639 25b8 13ae b4b6
000002d0: d23e 06b7 80de 8a37 1603 24b8 b2e8 8038
000002e0: 773d fdb6 906b 4438 de2d 10b7 25ea d9b7
000002f0: ea3e ea37 192b a0b8 99e1 bab8 5cab e036
00000300: 5c62 cab7 f1a9 f3b6 5509 3638 7329 e4b6
00000310: 5678 c8b7 6c7c ddb7 6a17 51b7 a081 8bb7
00000320: cd9b 8bb7 05a2 1db8 0a45 8cb7 1a7e 89b8
00000330: eb9f 1d38 9717 85b8 adb1 c7b7 46fa 53b7
00000340: dbe0 72b6 8255 2d38 51fc 3cb7 2a6f 5db7
00000350: c448 9bb7 74b1 d1b6 fd9b 81b7 8207 bcb7
00000360: 063f eab7 ef49 45b7 62af 35b7 3109 8937
00000370: bc2e 84b7 d2b6 71b8 37b2 39b7 b5b8 0cb6
00000380: 41dd beb7 71de 0a37 dcec 48b4 08f4 8ab7
00000390: 81ce 1638 0769 f1b7 879d 26b8 1589 5bb8
000003a0: fd4b 9f37 635f ddb7 77d5 0637 d208 7ab7
000003b0: d862 70b8 d67e 0fb6 06cf 0db7 3857 eab7
000003c0: f2cf ac35 8158 0d36 0de1 bbb7 e3d6 53b9
000003d0: 63f8 3638 4ec6 ca38 2090 3337 9e4a c7b7
000003e0: 44e0 1a37 7640 9ab7 1836 0d38 9385 b6b7
000003f0: f46d abb6 be04 2bb5 2a83 9cb5 dc0e 3c38
