raisimGymTorch/data/ouzel_only_planning/2022-05-09-12-17-53/full_36000.pt (torch, 162032 bytes, 36 tensors)

architecture.0.weight f4 [64, 27]
000000 96 82 49 3d 75 80 16 be 35 6e 46 3e 6b 0e 4c bd
       0.049196802 -0.1469744 0.19377978 -0.049818438
000010 d9 e0 b1 3e e3 e7 cc be 38 6d b6 be 51 d2 e4 3e
       0.34741858 -0.40020666 -0.35630202 0.4469171
000020 b5 53 6a 3d f2 6d 28 3f 0a 7a 94 be 6f 48 a2 bd
       0.057208735 0.65792763 -0.28999358 -0.07923972
000030 76 6b 9c 3e 72 96 86 be 53 8d 2b be 4e e7 a1 be
       0.30550736 -0.26286656 -0.1675313 -0.31621784
000040 ec 5a 7b 3f 06 b7 9c 3e 93 04 25 be ce bd da 3b
       0.9818561 0.30608386 -0.16115026 0.0066754585
000050 20 90 2e be 65 a3 5b bb 3a e6 85 3d c0 5b 58 3d
       -0.17047167 -0.0033514139 0.06538053 0.052821875
000060 12 d0 21 3f 8d 2f 1f bf d4 5a 9b 3c 9f af 92 be
       0.63208115 -0.6218193 0.018964209 -0.28649613
000070 cf 2c 04 be c3 74 8e be a5 8e f9 3d f2 89 ea 3e
       -0.12907718 -0.27823457 0.121854104 0.4580837
000080 42 48 3d 3e 19 1f 16 be 11 48 b9 bc 7e 55 91 bd
       0.18484595 -0.146603 -0.022617372 -0.070963845
000090 96 d8 a6 bd 9b 2c 98 be 7d ec 8e 3d e4 af 19 be
       -0.08146779 -0.2972153 0.069787 -0.15008503
0000a0 d0 e8 56 3d 21 79 a9 be 93 3c d7 3e ee a9 44 3e
       0.05246812 -0.33100227 0.42038402 0.19205448
0000b0 ab 38 d1 3e 72 a2 9b 3e fc c2 cf 3e da fb dc 3e
       0.40863547 0.30397373 0.4057845 0.43160897
0000c0 dc 5b 01 be d2 40 a6 3c 92 cb 1d be 09 ce 25 bf
       -0.12632698 0.02029458 -0.15409687 -0.6476751
0000d0 db c2 a9 bc ac e7 83 be 21 68 be 3d 6f 4e 2a 3f
       -0.020722797 -0.2576269 0.09297205 0.6652593
0000e0 09 78 9a 3e db 83 15 3f e7 07 3d 3e e1 04 0c 3e
       0.30169705 0.5840432 0.18460046 0.13673736
0000f0 48 ef 4a be 74 3a 6e be 7e 7e be be 14 07 4a bc
       -0.19817841 -0.23264486 -0.3720588 -0.012330789
000100 71 4c 80 bd 32 42 78 bd 93 e5 f8 bd dd 0a 80 3e
       -0.0626458 -0.060610004 -0.12153163 0.25008288
000110 47 73 63 be f5 52 27 3e f2 6a 5e be d0 07 ea 3e
       -0.22211944 0.1634024 -0.21720484 0.45709085
000120 02 23 52 bd 4e e9 92 3e 66 59 b2 3e 2a 26 1f bd
       -0.051302917 0.28693622 0.3483383 -0.038854755
000130 ff 3f 3c bd 19 97 00 bc 4c 8a ff bd 8d ea 33 be
       -0.04595947 -0.0078485245 -0.1247755 -0.17569943
000140 a8 0e f4 bd 0c 3a b4 be d7 f6 b0 be f2 1c 68 3e
       -0.11916858 -0.35200536 -0.34563324 0.22667292
000150 72 7a cd 3d f1 79 9a 3d 3a 22 81 3e 7a 14 11 be
       0.1003312 0.0754279 0.25221425 -0.14167967
000160 29 81 00 be 32 c3 70 bd 0b 5a 4f 3d 7f 73 9d be
       -0.1254927 -0.058779903 0.05062298 -0.3075218
000170 c2 04 05 bd ee 87 97 bf 01 2b 9d 3e 25 cf 58 3e
       -0.03247524 -1.1838357 0.30696872 0.2117277
000180 1f 38 52 3e 02 72 be bd 3d a3 f9 3d ba 58 e4 3d
       0.20529221 -0.09299089 0.12189338 0.11149736
000190 98 37 3d 3e f6 a7 89 bd 1f ec f8 bc 1e 47 18 be
       0.18478239 -0.06721489 -0.030386029 -0.14870879
0001a0 cf ed 25 3c 62 10 be 3e 29 d2 ee bb fb 4e 27 be
       0.010127499 0.37121874 -0.0072882366 -0.16338722
0001b0 c0 f9 07 3d 83 6a 34 3e 2d 0d 09 bf 60 56 96 3e
       0.033197165 0.17618756 -0.5353573 0.29362774
0001c0 2c 27 06 3e 4e 19 9c be ee 86 ce 3e 5f 2f 2c 3e
       0.1310088 -0.30488056 0.40337318 0.16814946
0001d0 a2 88 82 3d 28 d2 50 3e 02 f1 f5 be 49 57 d1 3c
       0.06373717 0.20392668 -0.48035437 0.025554316
0001e0 1a 92 79 3e bd 13 89 3e c5 73 ba 3e c4 14 c1 3c
       0.2437214 0.26772872 0.3641645 0.023569472
0001f0 68 3e bd bd 59 56 be 3e 8e 90 ad 3e 10 2d da 3e
       -0.09240419 0.37175253 0.3389935 0.42612505
000200 ba be c5 be 70 85 ad 3e f6 b8 32 3e c7 73 b8 3d
       -0.38622075 0.33890867 0.1745337 0.09006458
000210 c6 f0 73 3e 36 34 d5 be e5 cb 74 bb f8 5f b9 be
       0.23822317 -0.41641396 -0.0037352976 -0.3620603
000220 71 bc 68 be de d5 a7 be 26 1b e6 3d 3a 36 e0 bd
       -0.22728135 -0.32780355 0.11235647 -0.10947843
000230 72 01 8f 3e da e1 20 3e 4b c5 ca be c7 91 3b be
       0.2793079 0.15711156 -0.39603648 -0.18317328
000240 96 c1 50 be f2 bb 3a 3e 0f 90 3d 3e 7a 84 d9 ba
       -0.20386347 0.18235758 0.18511985 -0.0016595267
000250 3f 2c e1 3d 8d 42 17 3f 18 da 75 3e e0 05 86 be
       0.109947674 0.59085923 0.24008977 -0.26176357
000260 89 ef b6 3c c3 6b 3a bd 45 04 b7 be 87 7b 17 be
       0.022331016 -0.045512926 -0.35745445 -0.14793216
000270 fc 43 96 3e 80 35 60 bf 3d 45 92 bc fe 40 83 be
       0.29348743 -0.87581635 -0.017855281 -0.25635523
000280 7b 5f 95 3e 7a 99 14 be e8 56 05 3d 8c e8 0d bf
       0.29174408 -0.14511672 0.032553583 -0.55432963
000290 54 20 a2 be f6 e3 9e 3e 31 d2 ed be ad 25 45 3e
       -0.3166529 0.31033295 -0.46449426 0.19252653
0002a0 74 71 24 3e c8 e0 14 bd d7 a6 e4 be 53 1b 83 3e
       0.16058904 -0.03634718 -0.4465854 0.25606784
0002b0 14 0d 41 be e4 12 c9 3e 49 1c 68 3e fc d6 d1 3d
       -0.18852645 0.39272225 0.2266704 0.10246083
0002c0 1e 7f 8c 3d a6 f8 4b 3e 14 77 24 be d0 f9 11 bf
       0.06860183 0.1991907 -0.1606105 -0.5702181
0002d0 a3 49 c0 3d 96 ba 82 be c1 18 ca 3d 96 1b b3 3e
       0.09389045 -0.2553298 0.09868003 0.34981984
0002e0 18 12 8a bb 8b 57 2c 3e 39 7e d3 bc c4 21 9e 3a
       -0.0042135827 0.1683027 -0.025817024 0.0012064506
0002f0 87 1c 2f 3e 76 33 93 be 3f 43 52 be 0a 57 00 bf
       0.17100726 -0.287502 -0.20533465 -0.5013281
000300 b7 89 8f 3e d2 d2 1e bd 94 b5 54 be 5a ec 7d 3e
       0.28034756 -0.038775273 -0.20772392 0.24797192
000310 42 d8 23 3e 27 4a a6 be f3 ec 58 bd 58 bc 11 be
       0.16000465 -0.3247845 -0.052960347 -0.14232004
000320 13 25 2c be 7e 78 57 3e 50 fc 67 3f 72 d5 be bd
       -0.16811018 0.21042058 0.90619373 -0.09318055
000330 c5 e7 bc be 81 cc ef bd 5a 26 3b 3c 81 a6 ca bd
       -0.36895576 -0.11708928 0.011422718 -0.09895039
000340 af e2 17 3e 90 bd f3 3d f2 07 71 bd 6b 32 8b bd
       0.14832567 0.119013906 -0.058845468 -0.06796726
000350 19 56 ca be 56 3a 60 3d 6f ac 1e bc 97 44 98 3d
       -0.39518812 0.054743133 -0.009684666 0.074349575
000360 6b 88 aa be 79 e1 0b be 40 43 81 3c 43 d7 da be
       -0.33307204 -0.1366023 0.015779138 -0.42742357
000370 f7 98 9b 3e e7 14 8f 3e 09 86 de 3d c6 7e d2 bc
       0.3039014 0.27945635 0.10865409 -0.025695216
000380 02 29 ab bd 75 21 54 be 6a 88 95 3b bc 42 9b 3e
       -0.08357431 -0.20715888 0.004563381 0.30324352
000390 36 33 1d 3e 8f c0 02 bf be 1c 4e 3f 7d 5b 62 be
       0.15351567 -0.5107507 0.8051261 -0.22105213
0003a0 08 3f 4e 3d 62 fa 8f bd 55 cd 99 3e 3c 52 a6 be
       0.05035308 -0.070301786 0.30039468 -0.32484615
0003b0 c9 02 bc bd 55 1f 84 3e f7 a9 4e 3e 24 bf e7 3d
       -0.09180219 0.25805154 0.20182024 0.11315754
0003c0 05 dd dc be 55 57 2f be 66 d5 a8 bc c4 7b b1 3e
       -0.43137375 -0.17123158 -0.020609569 0.34664738
0003d0 b4 a3 5d 3e cf 56 ab bd 0d 28 f8 be d5 19 5e 3e
       0.21644479 -0.08366167 -0.48468056 0.21689542
0003e0 d7 72 82 bd b1 4b e6 3d 61 9a a3 be a2 ff a5 be
       -0.0636956 0.11244906 -0.3195372 -0.32421595
0003f0 2f 92 93 be a9 ed 8d bc 7a 02 5d bd 0b 04 a3 be
       -0.28822467 -0.01732524 -0.05395744 -0.31839022

architecture.0.bias f4 [64]
000000 5c ef d2 3d 9f fa b5 be 57 03 6e 3f 1f 80 29 3e
       0.102995604 -0.3554277 0.92973846 0.1655278
000010 c9 b6 fa 3d d4 b5 0c bf 63 ef 46 bf 6d 59 50 bf
       0.12241895 -0.5496495 -0.77709025 -0.8138645
000020 3b 3d 80 bf 7e 58 73 3e 22 b3 41 bf 79 99 b5 3e
       -1.0018686 0.23764226 -0.7566396 0.35468653
000030 87 ca a5 3f d5 ea 8c bf b5 3d a5 3f b4 7a 8a 3f
       1.2952431 -1.1009165 1.2909456 1.0818696
000040 7e 33 27 bf e2 5a ba be 58 9c 73 bf 53 b8 95 3e
       -0.65312946 -0.36397463 -0.95160437 0.2924219
000050 30 7d bb 3f c7 20 87 bf c4 53 61 3f 7f 8a 7b bf
       1.4647579 -1.0556878 0.8801844 -0.98258203
000060 0f 5a 6f 3e 55 bb d6 3e b9 bc 1e 3e e3 95 6b bf
       0.23374198 0.41939798 0.1550168 -0.92025584
000070 38 d5 24 bf 27 4e ae 3d 9f 22 10 bd 0b 86 19 bf
       -0.64387846 0.08511 -0.035189267 -0.5997016
000080 88 b2 71 bf 0a 75 48 bf 73 f1 44 bf 4a eb 3b 3e
       -0.9441304 -0.7830359 -0.7693092 0.18351474
000090 80 e4 8d 3f 3b 23 e0 be d3 c0 0a 3f ce 11 76 3c
       1.1085358 -0.4377688 0.54200476 0.015018893
0000a0 ba e5 d1 be 93 20 0e bf 16 a2 86 3f 67 1d 60 be
       -0.4099558 -0.55518454 1.0518215 -0.21886216
0000b0 4e aa e4 bc c9 58 1a 3f 35 9a 9a be dd d8 f1 be
       -0.027913239 0.60291725 -0.30195776 -0.47235766
0000c0 84 a6 8f 3e f5 c6 8f 3f ac 8f 64 3f c9 db 21 3f
       0.2805673 1.1232592 0.89281726 0.6322599
0000d0 21 99 d3 3d 57 ea 97 bf 3f 7c 21 bf 16 39 c5 3d
       0.103319414 -1.186839 -0.6308021 0.09630029
0000e0 2b a1 4b bf 01 4e a0 bf c7 30 8d 3f 7f de 94 3f
       -0.795428 -1.2523805 1.1030511 1.16304
0000f0 53 0e a9 3f ca e5 64 3f 11 dd 2e be db 97 42 3e
       1.3207496 0.8941313 -0.17076518 0.19003241

architecture.2.weight f4 [64, 64]
000000 9c aa 5e bd 6b 05 8e 3e 74 e3 f3 be a5 99 ae bd
       -0.054361925 0.2773851 -0.4763447 -0.08525399
000010 16 c8 82 bd eb fc 8c 3e e8 e6 5f 3e 60 b2 cb 3e
       -0.063858196 0.2753671 0.21865427 0.39784527
000020 09 2e 11 3f 6b 60 b6 bd 08 b2 12 3f 49 88 9d bc
       0.5671087 -0.08905109 0.57302904 -0.019230025
000030 40 97 12 bf 3b ed a4 bd f8 3d 64 be 07 07 0a bf
       -0.5726204 -0.080530606 -0.22289264 -0.5391697
000040 c9 47 c7 bd b3 a5 e1 3d 00 13 82 3e 23 9b e0 bd
       -0.09730489 0.11017933 0.2540512 -0.1096709
000050 c0 cc 4e bf 86 5c 0e 3f ff 82 99 be 83 d4 bb 3e
       -0.80781174 0.5560993 -0.29982755 0.3668557
000060 e5 b2 7d bd ee 8f b4 bd a9 b4 8b 3d 02 42 f4 3e
       -0.061938185 -0.08816515 0.068215676 0.4770661
000070 b0 1a b9 3d 16 c5 ab bd a7 9c 5f 3e e1 2c ca 3e
       0.09038293 -0.083872005 0.21837102 0.39487365
000080 8f f6 85 3e 3e d4 f1 3e 67 39 ed 3d f8 4b c9 3d
       0.26164672 0.4723224 0.11583214 0.09828943
000090 c9 0b 7e be ea 9a 83 bd bf 7c 4e be dd ca 7e 3e
       -0.24809183 -0.06426032 -0.20164774 0.24882074
0000a0 67 6c 96 3e 4f 5a 24 bc 31 10 27 bd ce 41 e9 bd
       0.2937958 -0.010031297 -0.040786926 -0.113895044
0000b0 31 07 d7 be cd 0c 81 bd 8e 9f 1d 3c ef b8 a8 bd
       -0.41997674 -0.0630127 0.00962056 -0.08238398
0000c0 ca 9c 8b 3d 6d 3a 16 3d e5 f7 4f be 35 7a a9 3e
       0.068170145 0.036676813 -0.20309408 0.3310105
0000d0 1e e2 c6 bd b8 20 b1 3e f4 12 7f 3d c3 88 16 3e
       -0.09711097 0.34595275 0.062273934 0.14700608
0000e0 17 61 83 3e f2 41 24 3e 9e 5e 41 bf 4e b4 0b bd
       0.2566001 0.16040781 -0.75535 -0.0341075
0000f0 45 df b1 be 95 95 a9 be ee cc db be 2f da 0a 3e
       -0.34740654 -0.33121935 -0.42929786 0.13559793
000100 0b c2 99 bc eb 4f 1e be c1 c7 0b bd e1 d7 11 3d
       -0.018769285 -0.15460174 -0.034126047 0.03560627
000110 0c c6 ac bc 13 4f d1 bd 6b 4e 3a 3c bf e1 3d be
       -0.02109053 -0.1022016 0.011371235 -0.18543147
000120 da b7 0a 3f a0 c0 c8 3c 7f d8 71 bd 9c da 05 3c
       0.54186785 0.024505913 -0.059044357 0.008169796
000130 62 95 8c bd e4 36 d4 3e 80 d1 ad 3e 17 c1 72 3e
       -0.0686443 0.41448128 0.33948898 0.2370647
000140 aa 93 c2 bd 04 d4 d5 3d 84 43 bd be 70 9e 96 bd
       -0.09500821 0.104408294 -0.36965573 -0.07354438
000150 bd 58 e7 3e 38 68 b5 bd d8 9c b7 3c 7a ff 99 be
       0.4518489 -0.08857769 0.022413656 -0.30077726
000160 24 ce b5 3d 26 99 9b 3e bc 0d 05 be bd fd 86 bc
       0.08877209 0.3039028 -0.1299352 -0.016478414
000170 2d 80 01 3f 97 f8 25 3e 12 bc 37 b9 4b 04 b8 3e
       0.50586206 0.16208111 -0.00017522302 0.35940775
000180 14 11 c9 be 5e 53 83 bd fc 2b fa 3c a9 fc a1 3d
       -0.39270842 -0.064123854 0.030538552 0.07909519
000190 13 df 45 3e fe 9b 2f be 2c e4 3c be c4 8c 25 3b
       0.19323377 -0.1714935 -0.18446416 0.0025260905
0001a0 ef 84 28 3e c2 b7 b6 bc 5f 63 cc be e6 77 65 bc
       0.1645696 -0.02230442 -0.39919564 -0.014005637
0001b0 ba 15 32 3e 87 86 91 be 8d 46 2c 3e 65 1d de bc
       0.173911 -0.2842295 0.16823788 -0.027113626
0001c0 5d 8b fb bd 74 79 4b be 70 79 f4 bc ee e1 e7 3c
       -0.12282441 -0.1987055 -0.029843062 0.028305974
0001d0 ad a0 b2 be 52 cd 1b 3f d9 b4 80 bd e8 dd 1e bd
       -0.3488821 0.6086017 -0.06284494 -0.038785845
0001e0 86 b9 4d 3e 7f 44 08 3f 92 67 83 bc 15 54 b2 3e
       0.20090303 0.53229517 -0.016040597 0.34829774
0001f0 f2 17 2f 3f 08 8d 28 be 07 80 ed 3e 14 f9 d6 bd
       0.6839591 -0.16460049 0.4638674 -0.10496727
000200 33 0e b4 3e 0f 67 1e bf 8d b0 1d be 45 6e 5f be
       0.35167083 -0.61876005 -0.1539938 -0.21819408
000210 78 6c 1c 3d d3 91 26 bd b4 c1 84 bd 38 2c b4 bd
       0.03818938 -0.040666413 -0.064822584 -0.087974966
000220 5c 35 d0 3d 1d d1 d9 bd ab 08 83 be 32 e0 22 3c
       0.101664275 -0.10635588 -0.2559255 0.009941148
000230 d0 98 48 bd 97 3f cb be 2a ea 3e bc 79 00 8d be
       -0.04897386 -0.39696953 -0.011652509 -0.27539423
000240 2a 7b 3b be 3c 9a f4 3d 4a 39 2d be b7 4c 65 be
       -0.18308702 0.1194348 -0.16916385 -0.22392546
000250 fa 84 4b 3f d4 e3 d5 be 5a 92 85 3e ab 2e a5 be
       0.7949978 -0.41775382 0.2608822 -0.32262167
000260 fd d7 e9 3e 75 df f0 bc 28 e6 94 bd 35 d7 b9 3e
       0.45672598 -0.029403428 -0.07270461 0.36297002
000270 48 ba 6b 3d ba d6 a1 be aa d8 31 3d 06 70 da bd
       0.0575507 -0.31609136 0.043419518 -0.10665898
000280 38 b6 70 be 38 3c 38 3e 92 02 4c be af f6 a4 3d
       -0.23507011 0.17991722 -0.19922855 0.08054864
000290 54 85 fe 3e 87 88 ec bd 72 55 b4 3d 8c 5e 80 3e
       0.49711096 -0.11549478 0.0880536 0.25072134
0002a0 8c 20 bb 3c d6 fa 1e be aa 59 bd 3e 27 2d a7 be
       0.022842668 -0.15525374 0.3698247 -0.32651636
0002b0 d5 87 b5 bd 31 d3 d9 3e 16 3b 11 be 0a 17 00 be
       -0.088637985 0.4254394 -0.14182696 -0.12508789
0002c0 4c 2e da 3d 2d 22 af 3e 73 b3 b7 be d8 c0 d8 3e
       0.10653362 0.34205762 -0.35879096 0.42334628
0002d0 7c 1c 0c 3f e0 49 3d be 94 0a c6 be c1 60 ac bd
       0.54730964 -0.18485212 -0.38679945 -0.08416892
0002e0 3f f1 c0 be 13 69 36 bf 40 39 f4 3e cc ce 42 3e
       -0.37684056 -0.7125408 0.47699928 0.19024199
0002f0 11 fe 5a be 45 d3 7e 3c bd 29 9a 3e 7d af bf bd
       -0.21385981 0.0155533 0.3010997 -0.093596436
000300 0b 79 fa 3d fe 2b cf bd 9d 1a 96 be 8e a5 a0 be
       0.12230118 -0.10115813 -0.2931718 -0.31376308
000310 1f 89 40 3e c2 83 69 be 8b 91 db 3d e4 21 82 be
       0.18802308 -0.22804168 0.107211195 -0.25416481
000320 57 bd f4 3e fb 7c bb be ed d9 38 3f 37 8b f0 be
       0.47800705 -0.3661879 0.7220753 -0.46981212
000330 8d cc b8 be 63 27 ae 3e 18 a5 c2 be 27 69 85 be
       -0.3609356 0.34014425 -0.38016582 -0.26056787
000340 1e e7 a3 3e e6 45 bd bc 90 3d c2 3e 9c dc 67 3e
       0.32012266 -0.02310462 0.37937593 0.2264275
000350 7e 95 c1 be 57 b2 b9 3e f0 f0 65 be 67 3b 60 bd
       -0.37809366 0.36268875 -0.22455192 -0.05474415
000360 2b 5e a3 be 1e 72 b8 3d be 47 bf be cb e6 c1 3e
       -0.31907782 0.09006141 -0.37359422 0.37871394
000370 24 c2 67 3e fc 10 3d bc 67 fd 9b be 69 63 81 be
       0.22632653 -0.011539694 -0.30466768 -0.25271156
000380 44 cc f2 3e 9a c3 b2 be 8e b7 d8 3e b0 02 49 3e
       0.47421467 -0.34914857 0.4232754 0.19629931
000390 35 4b bb be db 8c d1 3e 14 09 4f be a4 cf b7 3e
       -0.36580816 0.40927777 -0.20218307 0.35900605
0003a0 8e 10 6e 3e 84 29 93 3e 52 10 a8 be a4 80 9d bd
       0.23248503 0.2874261 -0.3282495 -0.07690552
0003b0 5f d6 84 3e a2 72 4c bf 24 ee 38 3f 50 cf 0e 3d
       0.25944802 -0.79862416 0.72238374 0.034865677
0003c0 72 f6 94 3d 1d 9f 80 3d cb d3 7c bc e0 d5 b8 bc
       0.07273568 0.062803484 -0.015431355 -0.022562921
0003d0 d5 41 3e bc 68 8a 9f 3e 67 c0 60 3e cc 51 f6 3e
       -0.011612375 0.31160283 0.21948396 0.4810928
0003e0 c3 83 5e 3e 66 0b fc 3d 70 a3 a9 3d 71 35 82 bc
       0.2172995 0.123068616 0.08283126 -0.015894623
0003f0 bb b5 9b be d8 db 4d be d0 04 8e 3c ab 11 e0 bd
       -0.30412087 -0.20103395 0.01733628 -0.1094087

architecture.2.bias f4 [64]
000000 ff 65 7a bf 56 58 43 3d 6c d0 5c 3f 56 79 63 bf
       -0.97811884 0.047691666 0.86255527 -0.8885702
000010 46 10 cf be 30 a0 07 bf 29 8a a5 3e 7a 84 08 bf
       -0.40442103 -0.529788 0.3233197 -0.53327143
000020 bb 6c 86 be 23 9f c7 be 9b 47 0c be 30 28 43 3e
       -0.2625483 -0.389886 -0.1369919 0.19058299
000030 f6 41 fb 3d 97 49 e5 be 70 3e b4 3e 24 ef 99 3d
       0.122684404 -0.44782707 0.35203886 0.075163156
000040 7e 02 0d 3f bf 83 15 3f f3 b3 e9 3f a6 16 26 3f
       0.5508193 0.58404154 1.8258041 0.6487831
000050 73 e1 ff be a6 22 80 3d d0 0f 76 bd 40 44 47 bf
       -0.49976692 0.06256609 -0.060073674 -0.77838516
000060 d1 d2 73 bf d3 21 05 3f 3c e4 cd 3c b7 86 3a 3e
       -0.95243555 0.52004737 0.025133245 0.18215452
000070 b7 76 d6 3f 6d c6 85 be 3a 66 01 3f 83 16 bb 3e
       1.6754979 -0.2612795 0.5054661 0.36540613
000080 7b 9c 82 be 11 7e 0e bf fd 1f 1c 3f 4c 99 7c bd
       -0.2551001 -0.5566111 0.6098631 -0.061669633
000090 5c e8 ca be f1 c1 08 be 1b b5 02 bf 82 01 63 3f
       -0.396304 -0.13355233 -0.51057595 0.88674176
0000a0 e7 70 e2 bf f5 40 30 3e 91 f9 a6 be 16 6c fe bd
       -1.7690705 0.17212279 -0.3261228 -0.124229595
0000b0 f2 24 bd 3e ca dc 7f 3f 98 f8 96 bf 51 7e 05 3e
       0.3694225 0.9994627 -1.1794615 0.13036467
0000c0 c9 28 71 3e 0f 14 09 be b2 fc 7a bf e5 e1 ce be
       0.23550715 -0.13386558 -0.9804183 -0.4040672
0000d0 c5 4d 66 3e f7 ae 1a 3c 7c 8f 67 bf 87 76 9c 3f
       0.22490604 0.009441129 -0.90453315 1.2223672
0000e0 99 55 c2 bd f6 a3 c4 3e c0 ea 0e 3e 8c 81 b1 3d
       -0.09488983 0.38406342 0.13956738 0.08667287
0000f0 84 bf 95 bd 32 8c 6d 3e 30 88 65 bc 00 4c 26 be
       -0.07311919 0.23198012 -0.01400952 -0.16239929

architecture.4.weight f4 [9, 64]
000000 60 f5 37 bc 98 77 d1 3d 77 34 56 bd c9 62 42 3b
       -0.011227936 0.10227889 -0.052296128 0.0029660931
000010 06 ea 84 3c 3d cc 07 bd 79 e8 2c bc 70 a8 00 ba
       0.016224872 -0.03315376 -0.010553473 -0.00049079116
000020 98 d7 49 3c 50 bc f2 bc 1d 94 7f ba 0c 67 a3 bb
       0.012319468 -0.02963081 -0.00097495486 -0.0049866494
000030 98 b1 67 3c 4a 88 97 bc 1d 2e 97 3c fd c4 d2 3b
       0.014141463 -0.018497605 0.018454606 0.0064321742
000040 f8 18 84 bc 04 f3 10 bc 75 98 c6 bb 01 79 0d 3c
       -0.016125187 -0.008847002 -0.0060606548 0.008634807
000050 25 9d d2 3c 02 f5 d1 bc 8e d6 b3 bc 33 9a fe bb
       0.025709698 -0.025629524 -0.021952894 -0.007769847
000060 da 4d ca bb b9 ff 27 3c 0c d5 f0 bb 5c 8a 08 bb
       -0.0061738314 0.01025384 -0.007349616 -0.0020834422
000070 a5 6c 41 3d 94 7d 7b 3b 1d 37 21 bc 2f 13 72 3c
       0.047222752 0.003837441 -0.0098398 0.014775082
000080 67 28 e9 bd 48 4f 82 ba b8 92 67 3b 03 a8 3e 3c
       -0.11384659 -0.000994184 0.0035335254 0.011636737
000090 da fb c2 ba 0e 10 6c bb 60 f6 b0 3c 08 8d 20 3d
       -0.0014876083 -0.0036020312 0.021601856 0.039196998
0000a0 df f4 85 bd 50 f4 74 bc 4e b9 37 bd 00 46 86 b7
       -0.06540846 -0.014950827 -0.044854455 -1.6006641e-05
0000b0 07 34 e2 3c 6c 35 e4 bc ff 54 31 3b 62 eb 14 3b
       0.0276127 -0.027857505 0.0027058718 0.0022723307
0000c0 7a d1 28 bb e8 10 9a 3c 2e 0a 5a b9 7b 55 9c bd
       -0.0025759623 0.01880689 -0.00020793892 -0.076334916
0000d0 47 e7 30 3c a8 35 e5 bb 1a 1f 99 3b 04 d2 df bc
       0.010797328 -0.0069949217 0.004672897 -0.027321823
0000e0 3a 47 a0 bd 58 d1 96 3b bd c1 42 bc 84 18 86 3c
       -0.078260854 0.0046025924 -0.011887011 0.016369112
0000f0 bb dc 1f bc e1 16 f7 bb 84 25 00 bb bd 8e 4d 3d
       -0.009757216 -0.007540569 -0.001955361 0.050184954
000100 ff e6 e4 bd ed d5 a0 3d f8 89 31 3b 1f 4a f8 3c
       -0.111768715 0.07853303 0.0027090292 0.030308781
000110 27 17 6a bd ea 3f f3 3c de 53 7d bd c9 04 5d 3c
       -0.057150986 0.029693563 -0.06184756 0.01348991
000120 09 93 f0 bc b8 5b 94 3d df d5 8f 3b 80 68 c1 bb
       -0.029366987 0.072440565 0.004389509 -0.00590235
000130 99 f7 ac 3d ef 4e 4c 3d de 0e c0 3a 06 a5 9f bb
       0.08445663 0.049879964 0.0014652868 -0.0048719672
000140 67 2e 3f bd a1 4d 4c 3c f3 d9 57 3d 17 76 86 bb
       -0.046675112 0.01246968 0.052698087 -0.004103433
000150 19 c7 69 bc 38 f6 47 bb b5 fe 5a bd 24 66 2d bd
       -0.01426866 -0.0030511748 -0.053465564 -0.042333737
000160 c9 a8 af bb b7 31 14 3d 6a 6b 2c bc 0c f1 90 3c
       -0.005360697 0.036180224 -0.010523656 0.017693065
000170 d7 19 99 3c df f2 22 bb 03 7a 9e 3c dd 47 8f 3c
       0.01868908 -0.0024864 0.01934529 0.017490322
000180 c1 97 d8 3c 4e 00 07 bd dd ab 30 3c 27 61 21 bc
       0.02643955 -0.032959275 0.010783163 -0.009849823
000190 ae 5f 8b 3b c7 bb c2 bb 9f a0 cf 3c 4a 6d 03 3d
       0.0042533493 -0.005942795 0.025345145 0.032086648
0001a0 85 bd f6 3d b4 4a 04 bc a1 98 f0 bc ec 2a c8 bb
       0.12047867 -0.008074451 -0.029369654 -0.0061086323
0001b0 b9 d6 a0 3c 26 87 13 bd 46 ad 1c 3c 4e 60 21 bc
       0.019633638 -0.03601756 0.009562796 -0.009849621
0001c0 88 a4 86 bd 41 ed 45 bb 34 56 a4 3d 83 a2 51 bc
       -0.065743506 -0.0030201229 0.080242544 -0.0127950935
0001d0 55 60 39 3c d2 c3 15 bc 48 2d a3 3a 72 42 01 3c
       0.011314471 -0.0091409255 0.0012449408 0.007889377
0001e0 da 2e e3 3c 5c f7 a0 bb 89 4d 54 3a 2d 03 9d 3c
       0.027732302 -0.0049123 0.0008098712 0.019166553
0001f0 33 41 29 3c 5d 35 81 bc 45 d0 33 3c aa 3d 62 3d
       0.010330486 -0.015772516 0.010974948 0.05523459
000200 9b c9 36 3b 46 8a 25 be c9 69 e8 bc b6 df 06 3c
       0.0027891162 -0.16166028 -0.028370755 0.008232048
000210 f9 94 f5 bc d5 43 11 bc 4a fd a7 bc 58 93 97 bb
       -0.029978262 -0.00886627 -0.02050652 -0.004625719
000220 21 a8 fd bc 47 ad 6e bc 17 1b e0 ba 8f 98 5d bc
       -0.03096396 -0.01456768 -0.0017097917 -0.013525142
000230 b1 2c cf 3d b7 f8 e5 bb 94 98 9d 37 b7 c6 9f 39
       0.10115946 -0.0070181745 1.8786908e-05 0.00030474897
000240 da ee 3f 3d 16 50 f7 ba 43 fb 05 be f8 a4 1a bd
       0.046858646 -0.0018868472 -0.1308413 -0.037754983
000250 ac 49 0d 3d d9 01 90 3a 52 47 8a bd b3 5b c5 3c
       0.034494087 0.0010986879 -0.067518845 0.024091577
000260 2c 12 1c bd c1 c5 8b 3b 17 f4 4b 3c ed c9 84 3b
       -0.038103268 0.0042655175 0.012448332 0.0040523917
000270 29 a7 37 3e 53 b1 9d bb d0 ba c6 3b e9 75 3c bc
       0.1793486 -0.0048123985 0.0060647503 -0.011502721
000280 0f 60 95 bd a2 8c 96 bc 58 0d 35 bd ce 54 f3 bc
       -0.07293712 -0.018377606 -0.04420218 -0.029703524
000290 ec 89 f8 3b bd 3d d5 bc f2 20 c5 3c 13 1f 71 bb
       0.007584801 -0.026030416 0.024063561 -0.0036792203
0002a0 2b a7 6a 3d 46 44 01 3b 16 80 14 bd 72 73 9f ba
       0.05728833 0.0019724532 -0.036254965 -0.0012165143
0002b0 c3 9d 0d 3b cb 34 3f 3d 7f 77 12 bd f8 d9 b3 3b
       0.0021608926 0.046681207 -0.03575849 0.0054886304
0002c0 7a da 6e bd 6f d5 3b 3b 3a d7 78 3c 25 69 92 3d
       -0.058313824 0.0028661152 0.015188033 0.07148961
0002d0 88 76 ef 39 f7 26 bf ba 1d 2e 17 3d 7f 56 fd 3c
       0.00045673945 -0.0014583756 0.03690921 0.030925034
0002e0 8a 07 a4 bb ad 74 c6 bb 92 82 82 bc 90 af ce bb
       -0.0050057815 -0.0060563893 -0.015931401 -0.00630755
0002f0 52 7a ea 3a b9 ae 70 bc 6f 8a ed bb c5 0c 81 bc
       0.0017889237 -0.014690095 -0.0072491686 -0.01575316
000300 d9 a9 0b bf 3a 3a 66 bd d5 45 02 3f 3c 87 db be
       -0.5455604 -0.056207873 0.50887805 -0.42876613
000310 b6 8d 24 bd 29 6a 16 be 4e 2c ee 3c 5d 15 1c be
       -0.04017421 -0.14688934 0.02907386 -0.15242524
000320 6a 01 7e be 5c 70 9b ba b4 6b 53 be f8 1b d6 3d
       -0.24805227 -0.0011859047 -0.20646554 0.10454553
000330 b3 80 ec 3c d5 75 da be 69 80 75 3d 9d 73 7d 3e
       0.028869962 -0.42668024 0.059936915 0.24751134
000340 12 24 1b 3e 49 76 f8 3e bf 96 0b 3f 89 39 8b 3e
       0.15150478 0.48527744 0.54526895 0.27192333
000350 8a c8 f7 be 10 5a 26 be e4 22 c5 bc 36 36 f3 be
       -0.48395187 -0.16245294 -0.024064489 -0.47502297
000360 23 59 f6 be 83 73 a7 3e 7d ed 81 3b 33 81 d0 3d
       -0.4811488 0.32705316 0.0039650784 0.10180893
000370 64 96 ec 3e 69 7a 59 be e0 9e 60 3d 83 e0 80 3d
       0.4620849 -0.21238102 0.054839015 0.06292822
000380 59 d6 a3 bd 42 92 ee bd d5 fe 80 3e 45 93 9a be
       -0.07999868 -0.1164899 0.2519442 -0.30190483
000390 d7 8a 40 be 08 72 be 3b 6c 6e 25 be b5 fb 1c 3e
       -0.18802963 0.0058119334 -0.16155404 0.15330394
0003a0 a8 47 ce be 32 bf d0 bd ed c9 e7 b9 b7 57 2d 3e
       -0.40289044 -0.101927176 -0.000442102 0.16927992
0003b0 79 5d 07 3f 2d 93 1d 3f 67 33 3d be 25 62 7c bd
       0.52877 0.615527 -0.1847664 -0.061617035
0003c0 bc 59 13 3d a7 54 07 3c 9b 90 0a be 15 88 1d bd
       0.03597425 0.008259929 -0.13531725 -0.038459856
0003d0 00 f5 6c 3d 7b 58 32 bb 54 ec fa be 1d 66 c0 3e
       0.057850838 -0.0027213383 -0.4900843 0.37577906
0003e0 10 31 c9 3d af 35 82 bd 6a 70 be 3e 59 53 96 3d
       0.09823811 -0.063578956 0.3719514 0.07340116
0003f0 81 8f 09 bc 0c 28 e2 3b 98 5f 9c be 53 e0 09 be
       -0.00839603 0.0069017466 -0.30541682 -0.13464479

architecture.4.bias f4 [9]
000000 8a e2 a5 bd 5d 8a e8 3c c6 1f 12 bd 4d c7 3a 3f
       -0.080998495 0.02838629 -0.035674833 0.7296036
000010 c1 a1 d8 3d 98 dd 37 bd f1 88 83 bd 6f bb 1e 3f
       0.10577727 -0.044889063 -0.06422604 0.6200475
000020 5c e2 04 be
       -0.12976974

std f4 [9]
000000 cd cc 4c 3e cd cc 4c 3e cd cc 4c 3e 15 43 56 3e
       0.2 0.2 0.2 0.20924027
000010 cd cc 4c 3e cd cc 4c 3e 9a 54 71 3e cd cc 4c 3e
       0.2 0.2 0.23567429 0.2
000020 cd cc 4c 3e
       0.2

architecture.0.weight f4 [64, 27]
000000 1d 3f 82 3c 57 6a b9 bc 9f d1 e8 bc 35 dc 70 3e
       0.015899235 -0.022633715 -0.028420268 0.23521502
000010 a5 af 39 3f 0c 7e d0 be 0f 03 2a bf 34 8a 1b bf
       0.7253364 -0.40721166 -0.6641092 -0.60757756
000020 c5 a9 90 bf 7d b2 dc 3c 1a 2b c9 3d f8 f0 90 3d
       -1.130181 0.026940579 0.09822674 0.07077211
000030 35 83 c9 3c d1 51 c3 3d 5b 8d 4f 3d 36 1c 31 3d
       0.024598697 0.095370896 0.050671916 0.043239795
000040 fe ff d8 bb 9e ee 50 bf 06 08 84 be 81 ef 3e bf
       -0.0066223135 -0.816141 -0.2578737 -0.74584204
000050 19 0a dd 3e f3 1b 31 3f c4 4c 16 3f aa ff 93 3f
       0.43171766 0.6918327 0.58710885 1.1562397
000060 df 41 14 bd 50 d0 01 be 44 86 ae bd 09 4e 4c 3d
       -0.036195632 -0.12677121 -0.08521703 0.049879108
000070 10 2b fa bc 5f c1 f2 3b 92 92 aa ba e7 e6 9e bd
       -0.030538112 0.0074083055 -0.0013013652 -0.07758885
000080 84 36 12 3e ad e2 eb bd 6e b8 f8 be de fe 18 3e
       0.14278609 -0.11517844 -0.4857821 0.14940974
000090 f9 8f 30 3d ef 12 8b be 32 7a 46 be f2 78 bc 3d
       0.043106053 -0.27162883 -0.19382551 0.09202756
0000a0 bb 55 84 3d 80 29 1a be 6f fe 27 3e 68 70 06 be
       0.06461664 -0.15054893 0.16405652 -0.13128817
0000b0 25 35 11 3d e8 72 6f be 2e 4b 34 3e e2 77 1c bd
       0.035451073 -0.23383677 0.17606804 -0.038200267
0000c0 a1 7e d2 3d 91 25 12 3f d7 0b c0 3d 34 05 3e 3e
       0.10278059 0.5708857 0.09377258 0.18556672
0000d0 26 d7 3a bc e2 37 21 be 4f da 04 be 5e bb 81 bd
       -0.011403834 -0.15743974 -0.12973903 -0.063345656
0000e0 8e 7e a1 bb 9f 33 65 3e 8d b7 ca be be f8 29 3f
       -0.0049284166 0.22382973 -0.39593163 0.66395175
0000f0 aa ac f4 3e 08 42 27 3f 75 32 c9 be 05 97 97 3d
       0.47787982 0.6533513 -0.39296308 0.074018516
000100 f2 7e b1 bc 4d da 87 3d 67 a6 f8 bd 62 07 b1 bd
       -0.021666978 0.066334344 -0.12141114 -0.08643986
000110 29 f1 98 3c 87 1b 6b 3e 72 93 2c be 10 93 61 bd
       0.018669682 0.2295972 -0.16853121 -0.05507189
000120 a7 95 10 be a8 5c ac 3e 56 f6 2d bf 1f b8 ed be
       -0.14119588 0.3366444 -0.67954004 -0.46429536
000130 31 f2 29 bf 97 cb f7 3e 32 92 12 bd 4a 7a 99 3d
       -0.6638518 0.48397514 -0.035783954 0.07494028
000140 02 70 c7 bd 94 3f 3a 3c 97 92 02 bd b8 7e a9 3e
       -0.09738161 0.011367697 -0.03187808 0.3310449
000150 fa 0d e0 be b5 3e 40 3e 49 45 17 3e 05 8a f3 3d
       -0.43760663 0.18773921 0.14772524 0.118915595
000160 d2 91 80 be 54 47 5b 3e 42 d9 a4 be cb 63 aa 3e
       -0.25111252 0.21413928 -0.32197005 0.3327926
000170 9b 7f 73 3e 81 12 27 bc 7e 95 a1 bc d8 27 4b 3c
       0.23779146 -0.010197283 -0.019724604 0.012399636
000180 45 5f a0 bb 55 58 a0 bc c2 46 62 3c 41 f4 cf 3e
       -0.0048941695 -0.01957337 0.013810815 0.40616038
000190 d1 86 42 be 99 bf f6 bd 77 28 f5 bd e7 47 6c 3e
       -0.18996741 -0.12048263 -0.11970609 0.23074304
0001a0 e7 4e 33 be 59 ef 9d 3e 0d ac a6 be ff ed 83 be
       -0.17510568 0.3084667 -0.3255314 -0.25767514
0001b0 ac 7f 71 3c 05 f2 81 3c f4 73 4d 3c 75 62 a5 3d
       0.014739912 0.015862474 0.012539852 0.0807542
0001c0 fa c3 d1 3d 27 a0 ad be 9f 4b 9f be 5d 83 4a 3e
       0.10242458 -0.3391125 -0.31112382 0.19776674
0001d0 61 9d e5 bb c0 58 62 3e 02 87 8d 3a 31 04 05 3c
       -0.0070072864 0.22104168 0.0010797682 0.008118675
0001e0 5d c7 b1 bd d9 ee b4 3d 18 41 4d be 00 32 98 3d
       -0.08680604 0.08834619 -0.20044363 0.07431412
0001f0 cc 97 d0 bd a0 c5 ca bc a7 79 7b 3d fe 94 09 be
       -0.10185203 -0.024752438 0.061395314 -0.13435742
000200 da 0a 07 3d f0 71 80 3d 0f 50 19 be f5 48 0d 3e
       0.032969333 0.06271732 -0.14971946 0.13797362
000210 7c 4b 74 3e f0 66 94 bd f3 b7 63 be 5a 6d 4b bb
       0.2385692 -0.07246196 -0.2223814 -0.003104052
000220 b9 8d 67 bb 25 60 88 bc cf 46 71 bb d2 fc 57 bc
       -0.0035332276 -0.016647408 -0.0036815887 -0.013182836
000230 50 57 41 3c f5 24 21 bd a4 9a e3 3c 10 e0 5d bd
       0.011800602 -0.039341886 0.0277837 -0.05416876
000240 2f cb 1d 3c 29 0f 51 bd 63 72 e8 3d 24 e7 af 3e
       0.009630962 -0.05103985 0.113499425 0.34356034
000250 3a 67 05 3f 1b ae 8b 3f 3e 4c af 3d e1 d0 ad bd
       0.52110636 1.0912508 0.08559464 -0.08487106
000260 17 2c 1f be 6e 05 90 bc 80 23 35 3c 22 f9 10 3d
       -0.15544163 -0.017580714 0.011055827 0.03539384
000270 f4 be 46 3d 0a f2 1d bc 23 28 ac 3d 98 51 01 bc
       0.04852195 -0.009640226 0.08406093 -0.007892989
000280 e2 a0 73 bd 1b 5e a6 bc a5 56 b0 bc 3b 0d c1 3c
       -0.0594796 -0.020308545 -0.02152569 0.02356588
000290 d3 7a 85 3d a4 be 20 bd d9 ae c8 3d 57 f6 be bc
       0.065175675 -0.03924431 0.097989745 -0.023310823
0002a0 74 29 f3 bd 3a 43 8b 3c 21 49 a8 3c ce cf d1 3c
       -0.11873141 0.01699983 0.020542683 0.025611784
0002b0 b3 b2 09 bc 05 a1 a5 bd fa 9d d7 bd 59 e5 3a be
       -0.008404422 -0.08087353 -0.105281785 -0.18251552
0002c0 15 82 25 3c f8 f6 67 bb 74 04 ee bc 94 df bd 3c
       0.010101815 -0.0035395008 -0.029054858 0.0231779
0002d0 00 cf 0d 3e 75 dd 93 3c 8f 0f f9 3d f8 ab 1d 3d
       0.13848495 0.018049935 0.12161171 0.03849408
0002e0 b4 6f 00 3e 98 0c e0 3d c7 5b 38 bd a6 81 74 3c
       0.12542611 0.10939902 -0.0450094 0.014923489
0002f0 3d 76 0c 3e 40 5c b8 bc 8f 41 09 3c b6 10 44 3c
       0.1371698 -0.022504926 0.008377447 0.011966875
000300 c3 5b d0 3d e3 c5 bd bd 9f 6f 09 3e 11 d8 95 bd
       0.10173752 -0.092662595 0.13421486 -0.07316602
000310 88 5f 4f 3e d4 10 30 bd ad 01 12 3d 69 e6 24 3d
       0.20251286 -0.0429848 0.03564613 0.0402588
000320 49 c3 13 3c 7b 99 05 3f dd 62 1c bf 09 40 09 3e
       0.009018728 0.5218732 -0.61088353 0.13403334
000330 84 a6 ae 3c bf b0 03 bd fa 3c a3 bd aa 15 6f bd
       0.021319635 -0.03215098 -0.07970615 -0.05837027
000340 b6 5b 93 bc 3d ce 3c 3c a3 1e 2f 3a 92 31 f6 bd
       -0.017988067 0.01152378 0.00066802854 -0.120211735
000350 f4 b6 ab bd d2 3a 94 bd 40 ec 90 bd df b1 d7 3c
       -0.08384505 -0.072377816 -0.07076311 0.026329933
000360 d6 31 2b bc f6 1b d6 3b 5a d8 c8 bd 0f 3c 4e be
       -0.0104488935 0.006534095 -0.09806891 -0.20140098
000370 5f 1c 8c 3e f3 d6 bf be c9 37 0b bd 10 a8 f7 ba
       0.27365395 -0.3746868 -0.033988748 -0.0018894691
000380 9d d4 2d 3e 0d 08 9c be 13 35 ef 3d 51 9b 94 be
       0.16975637 -0.30474892 0.11680045 -0.29024747
000390 be 05 0a be c4 84 a6 3d c3 1e b8 be dd 61 b4 3d
       -0.13478753 0.08130792 -0.3596097 0.088077284
0003a0 b0 fb 8e 3e 24 3c 4c 3d 49 37 22 3c ee 68 82 be
       0.27926397 0.049862042 0.009900876 -0.2547068
0003b0 36 57 b2 3e d0 f8 34 3e dc 50 f8 3c 9f 17 91 3c
       0.34832162 0.1767304 0.030311994 0.017711459
0003c0 dd cb 35 3e 48 84 1d be bf 82 8f be e0 52 a1 3e
       0.17753549 -0.15382493 -0.2802944 0.3150854
0003d0 51 bc da bd 30 2f 84 bd 87 5b 19 bc 15 16 bc 3e
       -0.1068045 -0.06454313 -0.009360201 0.36735597
0003e0 aa 0d b5 bd e3 a3 04 3e 2d bb 8f be c8 87 9c 3e
       -0.08840497 0.12953143 -0.2807249 0.30572343
0003f0 7e cb 66 3e 73 6b 73 be 0c fe 04 3f 04 00 e4 3c
       0.22538564 -0.23771457 0.51950145 0.027832039

architecture.0.bias f4 [64]
000000 03 4c 2d 3d 3a 01 8d bf 1d fa 22 3c 9d 86 ae 3f
       0.04230882 -1.1015999 0.009947327 1.3634831
000010 f3 84 91 3f db 0f 60 bf 67 dc c6 bf 0f df 6b 3f
       1.1368698 -0.87524194 -1.5536011 0.92137235
000020 19 5d 79 3e 21 67 b5 3f c3 af 05 bf a9 c0 3d 3f
       0.2435192 1.4172097 -0.52221316 0.741221
000030 fa 77 97 3f 09 e0 17 3f 08 65 9f bf b2 f0 61 3f
       1.1833489 0.59326226 -1.2452707 0.88257897
000040 cf 77 b0 3e 69 aa fd 3e 82 13 8a bf 3c d6 a6 bf
       0.34466407 0.49544075 -1.0787203 -1.3034129
000050 8d 6b ae bf dd f5 c3 bf 5c ac a0 bf b2 0f 99 3d
       -1.3626572 -1.5309407 -1.25526 0.07473697
000060 c7 a1 65 bf 6f dc 0c 3f 1d 53 9f bf 83 4a 5b bf
       -0.8969998 0.55023855 -1.2447239 -0.8566057
000070 1f 36 1c bf af d3 9c bf a9 af 88 bf ad 89 62 bf
       -0.6102008 -1.2252101 -1.0678607 -0.88491327
000080 21 0f b3 bf 37 67 a1 3d b5 2f eb be 2c 47 88 3f
       -1.3988992 0.07881015 -0.45934835 1.064672
000090 4c 66 77 3f c1 8e 1b bf 4e 3a a4 bf 72 c5 38 bc
       0.9664047 -0.607647 -1.2830293 -0.011277543
0000a0 ed 38 a4 3e c2 c1 a4 3f 13 ef 63 bf 1a 3f 02 3f
       0.3207468 1.287163 -0.89036673 0.50877535
0000b0 7c ec 23 be b9 1b 97 bf 4f 47 5f 3f 96 fd 64 3f
       -0.1600818 -1.1805335 0.87218183 0.8944944
0000c0 21 c5 04 be af a9 5d 3f 60 2d 97 bf 67 23 7d 3f
       -0.12965824 0.8658704 -1.1810722 0.98882145
0000d0 25 45 b4 bf f1 f3 c8 3f ad bd 5f 3e 65 b8 a6 bf
       -1.4083601 1.5699445 0.218497 -1.3025023
0000e0 a6 99 8e bf 7a 1f a5 3f 8b 7d 88 3c dd cb 80 bf
       -1.114064 1.2900231 0.016661426 -1.0062214
0000f0 ec bb 3d 3e a0 ab 96 3d d9 22 f0 be 4f 64 62 3d
       0.18528718 0.073569536 -0.46901587 0.055271443

architecture.2.weight f4 [64, 64]
000000 88 47 a0 be 61 1d 18 bf ba 01 94 bc c7 95 1d bf
       -0.31304574 -0.5941983 -0.01806723 -0.6155667
000010 08 02 f4 3e 98 a6 46 bc 39 e8 8e 3e 3d 6e ae bc
       0.476578 -0.01212468 0.27911547 -0.0212928
000020 a5 6c 95 3e 67 d0 38 bf 6d 6d 9a be 84 a2 36 3e
       0.29184452 -0.72192997 -0.3016161 0.17835432
000030 ba c6 4f be c7 72 25 3c ab 25 ae 3e 0e 8e 34 3e
       -0.20290652 0.010098166 0.34013113 0.17632315
000040 19 08 2d 3e f0 4d 04 bf f7 c4 aa 3e 8e 3e 0e ba
       0.1689762 -0.51681423 0.33353397 -0.00054261915
000050 97 8c 1e 3e f9 c5 00 bf b7 33 e2 3e 27 b4 a6 bd
       0.15483318 -0.5030208 0.4418008 -0.0813983
000060 11 79 2e bd 7f ab 99 3c f0 6b 12 3f 31 35 ac bd
       -0.042595927 0.018758534 0.5719595 -0.08408583
000070 cc 3e 90 3d 2e 95 d5 3e 5a a9 38 3e 2b 0a b0 3d
       0.070432276 0.41715378 0.18033352 0.085956894
000080 88 d1 51 3f b1 50 1c 3e f8 2a 98 3b b4 8d d6 3d
       0.81960344 0.15265156 0.004643794 0.104762465
000090 92 d1 0f 3d 8f d8 d6 bd 71 93 4e 3e d5 2c 05 be
       0.03511197 -0.10490524 0.20173432 -0.13005383
0000a0 28 9f 89 3e 24 d4 3d 3e de 71 fb 3d 66 b0 6d 3f
       0.2687924 0.18537956 0.12277578 0.9284729
0000b0 4a c2 95 3d 82 42 06 3f 5c 35 38 3f 77 3a fe 3d
       0.07312448 0.5244523 0.7195642 0.12413495
0000c0 e0 e4 45 3d 4b d2 40 3e c8 ae e8 bc 69 28 bd 3c
       0.048313975 0.1883022 -0.028403655 0.023090558
0000d0 37 d8 27 be ee 05 2a 3e 8d d5 be 3d 17 29 e4 3e
       -0.16391073 0.16603824 0.09318075 0.445626
0000e0 90 9b 0a 3d b2 4f 9e be f5 c8 8e bf 62 a3 d5 3d
       0.033839762 -0.30920178 -1.1155077 0.104315534
0000f0 4a b1 e4 3e 3e 2e 36 3f b7 82 59 be e4 8e ba 3d
       0.4466651 0.7116431 -0.2124127 0.091092855
000100 45 66 c0 be 21 0e 36 bf 26 8b be 3e a1 a8 2e 3f
       -0.37578025 -0.7111531 0.37215537 0.6822606
000110 11 ef 07 3f be 6c 08 bf 2d 17 6c bf 0f 26 ca 3e
       0.5309916 -0.5329093 -0.92222863 0.3948216
000120 fe 9b cf 3e ba 9b d2 3e 18 9a 13 bf 62 32 d1 3e
       0.405487 0.41134435 -0.57657003 0.40858752
000130 08 0e 46 3e 6c 0b 49 3e 23 cd fa be 45 05 7a 3e
       0.1934129 0.19633263 -0.48984632 0.24416073
000140 ba 18 db 3c 00 31 af 3e ae 36 01 bf b5 5f 80 bf
       0.026745189 0.34217072 -0.5047406 -1.0029207
000150 b1 aa 09 bf f2 d7 86 bf 16 59 0c bf 31 1e 50 bd
       -0.5377608 -1.0534651 -0.54823434 -0.050810043
000160 2e f1 90 be da 72 cf bd 86 15 d6 be 0c 61 9c 3e
       -0.28309005 -0.10129328 -0.41813296 0.3054279
000170 42 bb 99 be 37 fc 2a bf 27 9b f8 be dc ca 0d bf
       -0.3002568 -0.667911 -0.48555872 -0.55387664
000180 fe 5d 30 bf 28 e2 82 3e af a5 0d bf 75 a9 00 3f
       -0.6889342 0.2556317 -0.5533094 0.5025857
000190 70 99 84 3e 60 b0 d6 be cd 49 47 be 34 f4 dd bd
       0.25898314 -0.41931438 -0.19461747 -0.10837594
0001a0 b4 d5 35 3e 60 c2 fc 3e a6 5e b3 be 7c 44 04 bb
       0.17757303 0.49367046 -0.3503315 -0.0020182421
0001b0 d2 3b 55 be 1c 81 1d 3d 20 85 19 be 00 91 9e 3e
       -0.20823601 0.038453206 -0.1499219 0.3097
0001c0 89 17 5e be ba 40 20 3e a3 37 f3 be 38 6d 8b bc
       -0.21688665 0.15649691 -0.47503385 -0.017019853
0001d0 3d 55 17 bf 62 21 3d 3f 65 7a e7 3b e4 ce 26 bf
       -0.5911444 0.73879063 0.007064151 -0.6515944
0001e0 c8 dc ad be c5 da 53 3f 38 d1 98 be c8 dd ff be
       -0.33957505 0.8275569 -0.2984712 -0.49973893
0001f0 80 43 1c be eb 50 8e be fd 98 bc 3d 2f 81 da bc
       -0.15260124 -0.2779611 0.09208868 -0.026672928
000200 a5 37 07 3f 1d 6b 2b 3f 87 c0 e7 be b4 e7 79 bf
       0.5281928 0.66960317 -0.45264074 -0.97619176
000210 d2 6e aa be fa 62 1c 3f a7 39 24 3f 68 f2 1a bf
       -0.33287674 0.61088526 0.6415047 -0.6052613
000220 9d cf dc be a2 05 2b bf 85 03 bb 3e e1 a2 a2 be
       -0.43127146 -0.6680547 0.36526123 -0.31764892
000230 ac cf 42 be dd 0b c8 be 0b e3 01 3f 80 cd 0b bf
       -0.19024533 -0.3907155 0.50737065 -0.54610443
000240 89 74 57 be 1e 4e 6a be 26 3e 51 3f 52 8b 3e 3f
       -0.21040548 -0.22881362 0.81735456 0.74431336
000250 e6 5e 5f 3e a6 3e 66 3f 04 f2 7a 3e 4a 84 eb bd
       0.21813545 0.89939344 0.24506384 -0.114998415
000260 54 f5 9e 3e 5a 12 47 bd 06 01 cc 3e 4b 28 17 be
       0.31046546 -0.048601486 0.3984453 -0.14761464
000270 44 a3 e7 3d b6 eb 10 3f e5 f1 3a 3f 14 8a 0e 3f
       0.11310437 0.56609666 0.7302535 0.5567944
000280 a0 17 56 3f 16 4d d7 bc 6d 86 0b 3f c6 83 b7 be
       0.836298 -0.026281875 0.5450199 -0.35842723
000290 9a b1 9b be 9a 5a 24 3f ba 0a e9 bd 9a ed 9c 3e
       -0.30408937 0.64200747 -0.11378999 0.30650026
0002a0 20 99 bf 3d 3e 16 59 bf 36 83 e1 3e 31 f0 0b bd
       0.09355378 -0.84799564 0.44045419 -0.03416461
0002b0 ae 6f 22 be 41 85 e5 bd 3d e9 04 bd ba a3 01 bf
       -0.15862915 -0.11207057 -0.032448996 -0.5064045
0002c0 e8 41 fd 3c c9 d3 05 be bf 31 80 3c 86 68 c1 be
       0.030915216 -0.13069071 0.01564872 -0.37775058
0002d0 ee 25 15 3f 64 3c 35 bf a9 5b 08 be 61 11 eb 3d
       0.58261 -0.70795274 -0.13316216 0.11477924
0002e0 8e bb 29 3f e5 4b b6 bf 23 22 de 3e c0 9d 49 3f
       0.6630181 -1.4241911 0.4338542 0.7875633
0002f0 88 ae 80 3e ca 90 e4 3e e4 68 d0 bd 87 70 63 3c
       0.25133157 0.44641715 -0.10176256 0.013881809
000300 5e 22 ba bc 12 f8 97 be 2e a9 cd be cb 00 6b 3f
       -0.022721466 -0.2968145 -0.40168136 0.91798085
000310 99 38 86 3d 32 15 d0 bd f6 e3 a9 3e e6 cc 47 3e
       0.06553764 -0.10160293 0.33181733 0.19511756
000320 35 ee b3 3e 86 a2 16 3f 94 9d de bd 87 6d 4c 3e
       0.35142675 0.5884174 -0.108698994 0.19963656
000330 3b 3a 4d 3e 11 00 c4 be df ad eb be e1 59 cd 3d
       0.20041744 -0.382813 -0.4603109 0.10026909
000340 d6 a3 40 3e b3 05 4d bf e6 0d ed be 1d 81 60 3f
       0.18812498 -0.8008682 -0.46299666 0.8769701
000350 96 bf fe 3e ac 68 90 3e 69 bd d4 be ab b2 64 38
       0.49755543 0.28204858 -0.41550758 5.4525834e-05
000360 78 f5 e8 3e 45 93 41 be 3c 98 54 bf 1e e1 70 3d
       0.45499778 -0.18903835 -0.8304479 0.05880844
000370 59 e3 b2 3d 24 3c 1b 3f 12 01 4a be 5e ef 92 3e
       0.087347694 0.6063864 -0.19726971 0.28698248
000380 af 82 44 bf 31 f6 af be b7 d3 be 3e 6c 82 45 3e
       -0.7676191 -0.34367517 0.372709 0.19288033
000390 be 5e 99 3c 94 47 46 3e 1a 68 da 3d cf a2 f6 3e
       0.018721934 0.19363242 0.10664387 0.48171088
0003a0 aa 69 94 3e 57 f6 4f 3f 4e 7a e9 b9 71 d9 96 3e
       0.28986865 0.8123526 -0.00044532347 0.2946277
0003b0 7d 04 ee 3e c2 36 19 bf 10 67 7e 3e 03 7f d0 bd
       0.464878 -0.5984918 0.24844003 -0.101804756
0003c0 fb ac 21 be bc f2 c5 be da 5f 9c bd fa 15 04 bd
       -0.15788643 -0.38661754 -0.0763547 -0.03224752
0003d0 8e 84 f6 3e f2 07 17 bf 0f 6e 49 3e 1c e1 c3 be
       0.48148006 -0.589965 0.1967089 -0.38257682
0003e0 7c a8 53 3e cc b4 68 3e ca c3 08 bf ba c1 3a bd
       0.2066974 0.22725219 -0.5342375 -0.04559491
0003f0 aa 96 44 3e 25 60 2f 3e 47 6b 8b be 6e f3 82 be
       0.19198099 0.1712652 -0.27230284 -0.25576347

architecture.2.bias f4 [64]
000000 aa 8c cc 3e c3 9f 86 3f 96 7d a2 bf cc 43 d0 be
       0.39951068 1.0517505 -1.2694576 -0.40676725
000010 14 ff 49 3e 36 e0 95 bf c8 ad 5e 3f 05 af 2e bf
       0.19726211 -1.1709049 0.8698392 -0.6823581
000020 67 4f a6 bf f5 59 4a 3f d9 11 3e 3f e8 35 a4 bf
       -1.2992982 0.79043514 0.74245983 -1.2828951
000030 36 d0 89 bf 49 2e dd 3e e6 cc 64 3e e8 3f 31 3f
       -1.0766666 0.43199375 0.22343788 0.6923814
000040 59 0d a0 3f ca 00 0a 3f 01 f9 05 bf 5a ae 9c 3f
       1.2504073 0.53907454 -0.52333075 1.2240708
000050 ce c4 bf 3e c1 98 62 bf ad 06 e0 3e 39 c0 a4 3f
       0.37454838 -0.88514334 0.43755093 1.2871162
000060 82 92 05 bf c4 0b 20 3f 03 40 ad 3f da d9 92 be
       -0.5217668 0.6251795 1.353516 -0.28681833
000070 58 c7 6a bf b1 e9 b8 be 8f 12 9f bf 6b 4b c0 3d
       -0.91710424 -0.36115792 -1.2427539 0.09389385
000080 46 e2 8b bf 30 e7 d5 3e e7 c7 1f 3f 71 ce 9c bf
       -1.0928428 0.41777945 0.624144 -1.2250501
000090 f2 fb a1 bf 53 95 b9 3f b0 6e 1e bf ec 28 3f bf
       -1.2655013 1.4498695 -0.61887646 -0.74671817
0000a0 91 b7 f1 be 04 6a a3 bf 00 68 5f bf 98 40 21 3f
       -0.47210363 -1.2766728 -0.87268066 0.6298919
0000b0 3e 07 9c bf 05 2f 2b 3f 66 de d1 be ae 1f 56 3f
       -1.218971 0.6686862 -0.4098999 0.8364209
0000c0 82 c1 09 bf d1 57 98 3f f0 be b7 3f be da da be
       -0.53810894 1.19018 1.4355145 -0.42745012
0000d0 bd 79 a1 bf 5f 70 73 bf 94 53 67 bf 54 c3 30 3e
       -1.2615277 -0.9509334 -0.90361905 0.17262012
0000e0 95 b6 15 3f eb 6f f3 3e ed b2 df be 20 17 80 3f
       0.58481723 0.47546324 -0.43691197 1.0007057
0000f0 21 d9 60 bf e4 bc 35 3f e3 0b 96 bf af 5a 9e 3f
       -0.8783131 0.7099135 -1.1722378 1.2371424

architecture.4.weight f4 [1, 64]
000000 02 36 00 c1 52 bf a6 c0 ee dc a5 40 21 1d ff 40
       -8.0131855 -5.2108545 5.183219 7.972306
000010 1a da e4 c0 2c 1e a5 40 5f 2b a4 c0 73 05 a7 40
       -7.1516237 5.159933 -5.1302943 5.219415
000020 34 56 a7 40 56 98 ab c0 9e 11 a3 c0 a0 74 a8 40
       5.229273 -5.3623457 -5.0959005 5.2642365
000030 db 49 a8 40 05 0f fc c0 12 4f d6 c0 79 09 d0 c0
       5.2590156 -7.8768334 -6.697152 -6.5011563
000040 98 d7 ab c0 75 79 f3 c0 ed 17 d2 40 42 44 ab c0
       -5.3700676 -7.6085763 6.5654206 -5.3520823
000050 1b 0e dc c0 ea 7c cc 40 34 5c d5 c0 d2 e5 a6 c0
       -6.876722 6.3902483 -6.6675053 -5.215554
000060 80 da d5 40 85 90 05 c1 30 14 a4 c0 ea 7d ec 40
       6.6829224 -8.347783 -5.1274643 7.3903704
000070 d4 1e ac 40 00 b6 d6 40 8a f4 a5 40 46 ad 00 41
       5.378763 6.709717 5.186101 8.042303
000080 69 56 a4 40 18 cf e5 c0 b3 e1 f3 c0 e2 91 a3 40
       5.135548 -7.18153 -7.621301 5.111558
000090 dc 24 a5 40 82 9d a4 c0 c4 57 86 40 b5 8b a7 40
       5.1607494 -5.144227 4.1982136 5.235804
0000a0 0f 7b d7 40 a0 eb a2 40 3b 6c 96 40 02 cb a6 c0
       6.733772 5.091263 4.7007117 -5.212281
0000b0 66 fa a7 40 f1 e3 f6 c0 d2 19 c4 40 bc 44 ae c0
       5.249316 -7.715325 6.128152 -5.4458904
0000c0 14 f9 cf 40 70 e2 a5 c0 b0 8c a3 c0 2c e9 f3 40
       6.499155 -5.1838913 -5.110924 7.6222134
0000d0 f0 53 a3 40 61 4b 89 40 6c 5f a6 40 00 05 04 c1
       5.1039963 4.2904515 5.199148 -8.251221
0000e0 73 6d fa c0 cf 75 ae c0 38 52 f1 40 5a 86 b0 c0
       -7.8258605 -5.451881 7.5412865 -5.5164003
0000f0 6d 76 a7 40 b6 09 a9 c0 32 e2 a1 40 86 f9 a8 c0
       5.2332063 -5.2824354 5.0588617 -5.2804594
