raisimGymTorch/data/ouzel_only_planning/2022-05-09-12-17-53/full_5000.pt (torch, 162032 bytes, 36 tensors)

architecture.0.weight f4 [64, 27]
00000000: b1c5 763c f467 99be fb19 a93e 7f0e c63c
00000010: 1978 953d 08d0 89be 82fb a9be c980 0b3f
00000020: cb53 883d 02e0 5d3e c3f8 4a3d 92da 0cbe
00000030: d5ba ac3e eb7b 8cbe 7314 06be 5f48 a7be
00000040: 472b 663e 2284 ca3e 1377 20be 5e23 57be
00000050: 2670 6b3c 7ee3 27bc af6b 8c3d 8820 fdbc
00000060: 1295 703d 2ee8 85be 94ab 1bbe f44b 7b3d
00000070: e9c8 cf3d 3c30 5abe 8b20 6bbc 128c 033d
00000080: 60d6 10be 04fa 26be 844a cb3d 6230 55bd
00000090: 5f7f 163e ea42 8fbe cbe3 193e ce5d 983d
000000a0: 04bd 6b3e a47b 1cbe bdac bd3d 0011 bfbd
000000b0: ff24 22be aab1 443e 14da 703d 7ce7 133e
000000c0: 3f4b 89be 4c92 193e 669a 17be abd3 c1be
000000d0: 4324 9e3d 397a 0fbe 5c2d 8e3e d3ab e43e
000000e0: db0b d83e 48d3 e93e 3521 1a3e 74aa 94bd
000000f0: 9488 9abc c727 36be daaa 0dbf c347 c83d
00000100: bf3d 933d 5e63 a63d 3930 cbbd 6f4d cb3d
00000110: 8f96 d7bd f323 8ebd f308 d6bd 4e8a a73d
00000120: 5a52 3ebe a48f 163e 61c1 9b3d d67c 2a3e
00000130: e611 563d a571 f2bd 6b59 87ba 2dc3 a5bd
00000140: 93a0 23bd 093f 3bbd bd35 94be bcbe 04be
00000150: 16f0 483c c299 e3bd 5907 903e 0c3e 8c3d
00000160: 31d4 3fbe 4267 953d 0ade aa3d 2c26 efbe
00000170: d422 08bc 0c0b 9bbe 5346 7f3d f7f6 cc3d
00000180: 63fc e2bc 94ce 9fbe b162 9abc 0ae8 1bbd
00000190: c98d 4ebd 5a69 28bd 9719 f33d 2eb4 32be
000001a0: 093a 103e b5f5 bb3e 93ac e3bd 3f97 25be
000001b0: f35a bdbe 7fc6 8e3e a98a 59be 3b49 0d3e
000001c0: ec49 943c 3e61 a73c f746 6e3e 8245 603d
000001d0: 6894 77bd e82b 9e3d f623 c2bd b160 1e3e
000001e0: c47d 88bc fd29 343d ff05 6f3e 4dca a2bd
000001f0: e154 bbbd 60ff 5a3e 1fdf 1e3e e4f6 3e3e
00000200: 8d72 06be 1d40 2e3e 4909 a43d 7abc 0abd
00000210: 4d47 9d3d ff71 b2bc a2e7 7fbc 1510 773e
00000220: 3195 0bbe 8dc0 9fbe 5064 123e e27c bb3d
00000230: 5f2a 023e e478 063e bad9 c23d b4e4 b2be
00000240: 0d00 2cbd 68d9 943e 219e d83e 42c4 2e3e
00000250: dffd 433d d7ea 8b3e fce2 95be 394f fabd
00000260: 8b62 bb3d b8aa 98ba a817 2fbe 9afc 79be
00000270: 9f5e a53e 1165 a2be 394e 2bbe f8fa b6bd
00000280: 52f4 a03e 6ea8 2e3d e24e 1fbd dd5a c6be
00000290: 2414 9fbe 7f87 573e 8599 2cbe a39a e9bd
000002a0: b81f 5ebd 3cb8 a43d ea1e 99be 7f34 543e
000002b0: afec 32bd 1628 d73d e9b1 573e 8629 253e
000002c0: 8c51 abbb ba15 543e ded2 12be a09a adbe
000002d0: 24ad 443d 8e00 d43c cbcd 1ebe b677 923e
000002e0: 0229 a03d 5085 543e dd5c 82bc 00bf 443e
000002f0: 05be 18bd d96e 22bd 4a1a 55be 89cb b5bd
00000300: 6ac0 aa3e 4775 29be 18e8 5cbe e568 6a3e
00000310: 67dc 3d3e 6941 0fbe 0831 02bd 1b0f 39ba
00000320: 431c a1be d98a 823d 853d 3f3e f4d6 663e
00000330: 1e10 c3bd a7fb 5abe ec59 d63c 54b4 19bd
00000340: 0715 d63d 66e1 813e e3e4 e7bd 6a8d 24bd
00000350: d317 35be a147 9d3d e077 083e 781b 46bd
00000360: 7178 95bd 522c b3bc 2c54 483e fc12 d0be
00000370: 3caf 8e3e c251 673e d01e d93c 700b 483e
00000380: 6507 24be 6d47 3f3d 8c79 773d eadb 013e
00000390: cd64 603e d6ea a3be 966a b03e 6f3b 8ebd
000003a0: 8f61 313c d34c 1ebe fb2c 8b3e a9ec b6be
000003b0: c73f 2ebd 430c cd3d fc1d 113e ffe2 143e
000003c0: fdf4 68be f2d5 18be 1750 63be ca0e 0c3d
000003d0: 6581 49be 0e3d 2d3d e132 6dbe 95e5 023e
000003e0: 70c3 f53b 7fe2 723c f277 e8be 4474 79be
000003f0: aebc 25be 79fb 473e 3f1e 86bd 42cc 01be
0.015061782 -0.29962122 0.33027634 0.024176834 0.072982974 -0.26916528 -0.33199698 0.54493386
0.06656607 0.21667483 0.049553644 -0.13755253 0.33736292 -0.27438292 -0.13093738 -0.32672402
0.22477446 0.39553934 -0.15670423 -0.21009585 0.01437 -0.010247109 0.068564765 -0.030899301
0.058735915 -0.26153702 -0.1520217 0.06135173 0.101457424 -0.21307462 -0.014351021 0.032116003
-0.14144278 -0.16306311 0.09926322 -0.052048095 0.14697026 -0.2798074 0.15028302 0.07439767
0.23021322 -0.1528154 0.09261463 -0.09329414 -0.15834425 0.19208398 0.058801726 0.14443773
-0.2681522 0.14997214 -0.14804992 -0.37856802 0.0772176 -0.14011468 0.2776898 0.4466234
0.42196545 0.45669007 0.1505173 -0.07259074 -0.018863954 -0.17788611 -0.55338824 0.097793125
0.071895115 0.081244215 -0.09921307 0.09926879 -0.10526764 -0.069404505 -0.10450926 0.081806764
-0.18586102 0.14703232 0.076052435 0.16649184 0.052263163 -0.11838082 -0.0010326331 -0.080938675
-0.039948057 -0.045714412 -0.2894725 -0.12963384 0.012264272 -0.11113311 0.28130606 0.06847772
-0.18733288 0.072950855 0.08343132 -0.4670881 -0.008309085 -0.30281866 0.062322926 0.10008042
-0.027708238 -0.31212294 -0.018845888 -0.038063087 -0.050428186 -0.041116096 0.11870115 -0.17451546
0.14084639 0.36710897 -0.111169 -0.16170977 -0.3698345 0.27885816 -0.21244301 0.13797466
0.018101655 0.02043211 0.23269258 0.054753788 -0.060444266 0.07723218 -0.09479515 0.15466572
-0.016661532 0.043985356 0.23342131 -0.07948742 -0.09147049 0.2138648 0.15514801 0.18648869
-0.13129635 0.17016645 0.080095835 -0.03387115 0.07679615 -0.021782873 -0.01561919 0.24127229
-0.13631131 -0.31201592 0.14296079 0.09154679 0.12711476 0.13132054 0.09514184 -0.34940112
-0.041992236 0.29072118 0.42308143 0.17067054 0.047849532 0.27327606 -0.29274738 -0.12222142
0.09149655 -0.0011647558 -0.17098868 -0.24412766 0.32298753 -0.31717733 -0.16729058 -0.08934587
0.31436402 0.042641096 -0.038893588 -0.38741198 -0.31070054 0.21047781 -0.16855438 -0.11406448
-0.054229468 0.080429524 -0.29906398 0.2072315 -0.04368275 0.10505693 0.21063961 0.16129121
-0.005228227 0.20711413 -0.14338252 -0.33907032 0.048016682 0.02587917 -0.15508191 0.28606957
0.078203216 0.2075398 -0.015913421 0.19213486 -0.03729059 -0.039656494 -0.2081081 -0.08876712
0.33349925 -0.16548644 -0.21572912 0.22891577 0.18541108 -0.13989796 -0.03178504 -0.0007059441
-0.31466874 0.06374139 0.18675812 0.22542936 -0.095245585 -0.2138506 0.026165925 -0.03752549
0.104532294 0.25367278 -0.113229536 -0.040173925 -0.1768487 0.07679678 0.13326979 -0.04836604
-0.07298363 -0.02187172 0.19563359 -0.40639484 0.27868068 0.22589782 0.02650395 0.19535613
-0.16018446 0.046698976 0.06041865 0.12681547 0.21913452 -0.32015103 0.3445632 -0.0694493
0.010826482 -0.15458994 0.27182755 -0.35727432 -0.04254129 0.10012104 0.14171594 0.14539717
-0.22749706 -0.14925364 -0.2219852 0.03419379 -0.19678266 0.042294554 -0.2316394 0.12782891
0.0075001046 0.014824509 -0.4540401 -0.24360758 -0.16185257 0.19529523 -0.06548738 -0.12675574

architecture.0.bias f4 [64]
00000000: 3903 38be c950 43be 22bf b73e 762c 42bc
00000010: 699c 8f3e 9415 8fbe bb92 ddbe 5a6b e9be
00000020: 4c7b 13bf 6c2f e23c ec02 d1be ebee 2b3e
00000030: f144 0c3f 9df0 1ebf f4c4 243f 14f3 f63e
00000040: 93c9 a9be 1c83 30be 2771 1ebf 31f6 8a3d
00000050: 3b2d 333f 5887 f2be 7bae d73e 4aad febe
00000060: 3ad8 ab3c f78b 0b3e 983e d53c c03a d8be
00000070: faa6 16be e3fd 85bd b48e ebbd 9974 adbd
00000080: fae5 82be 820a 10bf 7b76 e2be c48a 5b3e
00000090: c005 123f c49c 9bbd b8c4 ec3d 9187 09be
000000a0: 909d 8ebe cb3e afbe c60c fa3e fad3 babd
000000b0: 53b8 f53c 6ffc bb3e a85e 3e3b 6487 1ebe
000000c0: 25af d63d 983d 2d3f 0758 c93e e1cb 2c3e
000000d0: 1150 4ebd e93e 24bf 09ac 40be 2dbf cf3d
000000e0: fa43 8fbe 4bce 15bf 2e35 f73e b48b 173f
000000f0: 2cbb 313f b953 e13e 7b10 33be c414 773d
-0.1796998 -0.19073786 0.3588801 -0.011851421 0.2804902 -0.2794615 -0.4327601 -0.45589715
-0.5761001 0.027610503 -0.40822542 0.16790359 0.54792696 -0.62085897 0.64363027 0.4823233
-0.331616 -0.17237514 -0.61891407 0.067852385 0.6999089 -0.47368884 0.42125306 -0.49741584
0.020977128 0.13627611 0.026030824 -0.42232323 -0.14712134 -0.06542566 -0.11501828 -0.08469505
-0.25566083 -0.56266034 -0.44231018 0.21439654 0.57040024 -0.0759826 0.115609586 -0.1343062
-0.27854586 -0.34227595 0.4883787 -0.091224626 0.02999512 0.3671603 0.0029048119 -0.15481335
0.10482625 0.6767211 0.39324972 0.16874649 -0.050369326 -0.64158493 -0.18815626 0.10143886
-0.2798155 -0.58517903 0.4828276 0.59197545 0.69426227 0.44009188 -0.17486756 0.060322538

architecture.2.weight f4 [64, 64]
00000000: 350f 4dbe 5afc 123e 17bb d2bd da23 a5be
00000010: 8323 86be a840 9e3e 9447 f03d 6369 123e
00000020: af24 1cbd 7c56 63bd 38bb 9b3d fb3a f3bd
00000030: da44 d0be c3a4 22be da0f 52bd ddfc 6ebe
00000040: ce1c 333e efdf 193e 0a77 9d3c fbf1 75be
00000050: 19e6 eebe f232 ef3e 537e 82bc 5d77 6b3e
00000060: c458 893e 601d 213d 3004 693e 26f1 b53d
00000070: 7e72 a93d cd53 0fbe f1ad 803e 25e1 6f3e
00000080: 90b1 d03b 3894 763e 5f53 b93c 14d0 df3d
00000090: dcd9 c13d 2727 363e d6de c93d 448a 983e
000000a0: dd8d 413e 7a9b 53bd f39d 913e fa22 3bbe
000000b0: 4903 f4be d940 a73d 0094 6a3e 1fb9 053e
000000c0: c8e3 8d3e d757 3c3e af4a 34be ad4e 60be
000000d0: f4f8 463d b42e 133e 7236 3a3d f7ab 3dbe
000000e0: 1081 62bd 34be eebc d953 40be 07bb 12be
000000f0: 2737 5d3e e87d a5bd 643d ccbd e8c9 553c
00000100: 87bf d6bd 1829 2cbe c87a aabd 19d9 7f3e
00000110: 1093 5d3d c796 e7bc bd3e 77bd 0e33 d13b
00000120: f8ad c13d 7803 15bd 9225 1a3e 405b 4a3d
00000130: e0df d53d ad0d f23c 8dad d1bd 8c24 433e
00000140: 9324 2d3e 5cfd 4c3e 52e3 57bd f21a 33bd
00000150: 0afe ba3e 39cb fe3d 00c7 083e 159e a8ba
00000160: 0634 4d3e 2fe3 f73b 663e bb3d ada5 81bd
00000170: d5a7 2c3e 0643 283e 783c 5ebe 63f9 fd3e
00000180: 9e57 833c 3f9e a2bd 9425 0abe a9ef 80bd
00000190: 54af e73e 6b6d 073e 1d10 ddbc b511 f33d
000001a0: 3bc4 c83e c722 12be e7ae c2bb 5e56 683e
000001b0: 0131 b9bd 3098 0a3a 7b8d df3d 75b0 2a3c
000001c0: 25ac 63be 1817 883d ffa8 dabd 7e24 9dbd
000001d0: 6f05 f7bd fde8 bf3e 21db acbc 1545 423e
000001e0: b858 8a3e acd0 a03e 31f6 87be cf57 283e
000001f0: c214 c43e 88d4 e83d 7407 a33b f983 1cbd
00000200: 2a8d ea3e a04b d7be da46 c53c 0718 09be
00000210: 2ea5 313e 63dc 29be 3237 bdbc 45f1 4dbe
00000220: 04c5 b63e 8e94 0abb 0312 0bbe 6409 913d
00000230: 2db8 e43b 01d5 61be 7bfa d53c a0bb a9bd
00000240: eb20 3cbe af9c 70be 660c 1abe 9a79 84be
00000250: 7aa8 dc3e 4303 5bbe 26c2 373e ba9a 22be
00000260: 837d 043f 7833 6e3e 8b6d fcbd 1f12 7d3d
00000270: b9a0 4a3d 7260 3dbe e961 00bd 71ee 4a3b
00000280: aff6 0ebe e6d7 743e 4bc5 c6bd 3476 6a3e
00000290: ee45 393e 8dea 2a3e b10c 9ebd e979 023e
000002a0: a985 7dbe a685 4bbe 7a65 c73d cef5 1fbe
000002b0: 9c99 243e a3e2 843d 960c 203e 487d dcbc
000002c0: 7802 72bd 9e7c 593e 7cb8 05be d2c8 973e
000002d0: 8cc1 b53e dfa6 abbd 78c0 b03d 9745 2e3d
000002e0: b8cb 50be 0bca 2dbe 132d fe3d eeed 303e
000002f0: f51b afbe 748c 973d b7dd 683e e9f0 ca3d
00000300: 932c d6bd bd9d 493e 7d85 663d 08aa a3be
00000310: 8007 103c f71e 87bc 2f8a 87bc 0c0b 42be
00000320: be7d c83e 8444 fbbd d1c3 d93e fee3 c3be
00000330: d9c5 90be 11fe 5e3e 8d15 87be dce4 d0bc
00000340: 10b9 0f3e f1d2 4dbc 2564 573d 1cb0 ab3d
00000350: a1cb 5dbe 5d23 093d a1be f23d aebf 9cbd
00000360: f082 85be f870 b43d a495 0dbd 456d 0c3e
00000370: 5fb3 763e 3093 69be f97f a6bb 517b 31be
00000380: 3a24 093f 7772 61be 7f8a 973e 4621 60be
00000390: cba5 47be 8979 823e 014e 66bd a1e5 523e
000003a0: 360a de3d 79c7 b03d 3f8e 2bbd 070f 10be
000003b0: e9b3 c4bd 87ed cabe 93ab 303e 2dc4 6a3c
000003c0: b702 a8bd 0b1c 4dbd 6c6c 0ebe 4b66 0abe
000003d0: 2bf9 973c a88d 9e3e 29f6 563d cf4c 4b3e
000003e0: 025e e73d 3198 8b3e 406d 6c3e 02ed 60bd
000003f0: 37d1 a9bd 4bea 7fbe 6b5e 223d 66b0 75bd
-0.20025332 0.14354077 -0.10289591 -0.32253915 -0.26198968 0.30908704 0.117324024 0.14298014
-0.03812092 -0.0555024 0.076040685 -0.11876484 -0.4067753 -0.15883164 -0.05128465 -0.23338647
0.17491457 0.1502683 0.019221801 -0.2401809 -0.46659926 0.46718556 -0.015929377 0.22994752
0.26825535 0.039334655 0.22755504 0.08883886 0.08273791 -0.13996811 0.25132707 0.2342573
0.0063688233 0.24079978 0.022622762 0.1092836 0.094653815 0.17788373 0.09856956 0.29792988
0.18901773 -0.051661946 0.28440818 -0.18275061 -0.47658756 0.081666656 0.2290802 0.130589
0.27712846 0.18392883 -0.17606615 -0.21905012 0.048577264 0.14373285 0.04546208 -0.1852263
-0.055298865 -0.02914343 -0.18781985 -0.14329158 0.2160307 -0.08080655 -0.09972647 0.0130486265
-0.1048575 -0.16812551 -0.083242 0.2498516 0.054095328 -0.028270138 -0.060362566 0.00638426
0.0945701 -0.03638026 0.15053394 0.04940343 0.104430914 0.029547537 -0.1023818 0.1905691
0.16908483 0.20018524 -0.052707024 -0.04372687 0.3652194 0.124411054 0.13357162 -0.0012864495
0.20039377 0.007564924 0.09142761 -0.06330428 0.16860898 0.16431817 -0.21702754 0.4960433
0.01603299 -0.07940339 -0.13490897 -0.062957115 0.45250952 0.13225333 -0.026985222 0.11868612
0.39212212 -0.14271079 -0.00594126 0.22689196 -0.0904255 0.000528696 0.10915657 0.010418047
-0.22233637 0.0664503 -0.10676765 -0.07672976 -0.12061583 0.37482443 -0.021100583 0.18971665
0.27020812 0.31409204 -0.26555017 0.16439746 0.38297087 0.11368662 0.0049752537 -0.038211796
0.45810825 -0.42049885 0.024081636 -0.13388072 0.17348167 -0.16587977 -0.023097608 -0.20111568
0.35697186 -0.0021145674 -0.1358109 0.07081869 0.0069799633 -0.22053911 0.026120415 -0.0828774
-0.18371932 -0.2349727 -0.15043792 -0.25874025 0.43097287 -0.21387963 0.17945156 -0.15879336
0.51754016 0.23261821 -0.12325581 0.06178486 0.049469683 -0.18493822 -0.031343374 0.0030964876
-0.1396129 0.23910484 -0.097055994 0.22896653 0.18093082 0.16691037 -0.077172644 0.12741818
-0.24758019 -0.19875202 0.09736152 -0.15621111 0.16074222 0.0648854 0.15629801 -0.026915208
-0.059084386 0.21238944 -0.13058656 0.296454 0.35499227 -0.083814375 0.086304605 0.042546835
-0.20390213 -0.16971605 0.12410941 0.17278263 -0.34201017 0.07399836 0.22740828 0.09909231
-0.104577206 0.19689079 0.056279648 -0.3196566 0.008790851 -0.016494257 -0.016545383 -0.18949527
0.39158434 -0.12268928 0.4253221 -0.38259882 -0.28275946 0.21776606 -0.2638363 -0.025499754
0.1403544 -0.012562499 0.05258574 0.083831996 -0.2165971 0.03348099 0.11852766 -0.076537475
-0.2607646 0.088106096 -0.034566537 0.13713558 0.24091862 -0.22810054 -0.0050811735 -0.17332198
0.535709 -0.22016321 0.29597852 -0.21887693 -0.19496839 0.2548335 -0.056226734 0.20595409
0.10841791 0.086317964 -0.041883703 -0.14068232 -0.09604628 -0.39634344 0.1725295 0.0143289985
-0.08203643 -0.050075572 -0.13908547 -0.13515584 0.01855143 0.3096745 0.05248085 0.19853519
0.112972274 0.2726455 0.2308855 -0.05491353 -0.08291858 -0.2499172 0.039640825 -0.05998268

architecture.2.bias f4 [64]
00000000: f545 8cbe bf1b 013d c3a8 af3e 516e a6be
00000010: d000 30bd e481 a6be b8f8 0e3e 83a5 99be
00000020: e966 c8bd 7d3a 19be 7b89 2bbd edc1 0cbe
00000030: 6e94 0d3b d28e 6abe 8054 413e 55cb db3a
00000040: 08e8 053e cf5b 973e 61ac ed3e 2dbf 973e
00000050: d9dd ccbe 53ae 0dbe 824f a93c 4cb1 d7be
00000060: 2c01 8bbe fbd6 a43e 0cc9 38bd fef1 783e
00000070: 9769 9c3e 021a 26be 54de bd3e b582 803e
00000080: 8b0e d7bd 4db9 8cbe fc15 823d 99ca d83c
00000090: 9dbe 83be e9f9 85bd 0390 3fbe e343 323e
000000a0: d741 afbe 7ceb fd3d 6da1 f3bd 8ec4 aebd
000000b0: 63f4 843e edb6 ef3e 8ee0 90be 4fe3 c3bc
000000c0: 673e 233e 98b5 98bd d329 20be d500 2cbd
000000d0: 5500 943e 88de 8e3d a193 96be 0e9c 903e
000000e0: 3f32 1dbe 0b46 17be 91f5 ad3d 5ba4 b8bd
000000f0: 3f4e e3bd 0635 2c3e 8081 a2bd 2416 0dbd
-0.27397123 0.0315206 0.34308442 -0.3250604 -0.042969525 -0.32520974 0.13962066 -0.30009088
-0.097852536 -0.14963718 -0.04187916 -0.13745852 0.0021603364 -0.22906044 0.1887989 0.0016768972
0.13076794 0.29562232 0.46420577 0.29638043 -0.40013006 -0.1383603 0.020667795 -0.42127454
-0.27149332 0.32195267 -0.04511361 0.24311063 0.3054931 -0.16220859 0.37083685 0.25099722
-0.10500821 -0.27485123 0.063518494 0.026463794 -0.25731364 -0.06541807 -0.1870728 0.17408709
-0.3422992 0.12398431 -0.11896024 -0.085335836 0.25967702 0.4681925 -0.28296322 -0.0239121
0.15941773 -0.07456511 -0.15640955 -0.04199298 0.28906503 0.06976038 -0.29409507 0.2824406
-0.15351199 -0.14772813 0.08494104 -0.09015723 -0.11098909 0.16817102 -0.079348564 -0.034444943

architecture.4.weight f4 [9, 64]
00000000: 7c68 46bd e9b5 2f3d 3986 82bc bf43 3bbd
00000010: 1dc1 8d3d aac8 34bd 348d 583c 78c6 223d
00000020: 57a2 2cbd 0be4 12bd cbc2 e73d 4282 cdbc
00000030: 4e68 c2bd 836c 1a3b c71b 043d 32e9 29bd
00000040: b7d0 8e3d 78be 343d 1d77 24bc 965b 33bb
00000050: 128f 57bd 2f61 4b3d 415b 0b3d 6d91 ab3c
00000060: fc8f 173d 2c19 703a 3fbe feb8 89d1 11bc
00000070: 3728 103d e67c 32bc ce23 553d ecef 943d
00000080: 940d 04be db31 8bbd 09e0 16bd 52c2 a9bb
00000090: 0aa0 99bc fc78 9dbd f676 103d 80b9 69ba
000000a0: 6bb1 aabc 0592 8bbc 893d 9dbc 4e63 0ebb
000000b0: 5aaf c53d bb0c 11be 44c6 05bc f401 d93d
000000c0: 7792 1e3c b77a 1d3e ccfe abbc 9b61 ffbd
000000d0: 485d 03bd efb4 203d 6b17 b63d b65e 59bc
000000e0: 3b63 3b3c 0d46 feba 6274 023e c840 febc
000000f0: 72a1 1c3d 7412 7abb fa8d ac3b cf4d 093c
00000100: 5c0b 763d d7ea 3dbd 66e7 863c 5879 1cbd
00000110: c33b 9ebd 229b 913c c640 493c 2515 f0bc
00000120: 2a0c c13c b2b6 edbd 707f 883c 712f d13c
00000130: acef f53c 56ba 603d 1c44 533b 2988 483d
00000140: 37cb b53c 56f1 eebc 4072 f93d e31b 3cbe
00000150: 734e 29bc df4c 323d 6a61 ccbc edae b1bc
00000160: 47e5 92bd 28a0 ba3d 3db7 99bd 9898 f7bb
00000170: 467f 593d fb7f ae3c 3fc7 b7bb 7ca3 903d
00000180: 6a9e 96bc faf0 e8bc 4d9e 04bc 3849 c03c
00000190: c29e fc3a 70c0 9ebd fb9e bdbc 05db c93d
000001a0: 6b9b 473e df18 b6bd 1dce 83bd 13e9 c0bc
000001b0: 3a13 75bd 2d88 973d 95d6 7d3d 5fc5 dc3c
000001c0: 0a03 1d3d 197e db3d 2988 523d cccb 093d
000001d0: 7e2c 93bd ac84 11bd f2bf 903c c7a3 283b
000001e0: 2aa3 a63d 99f2 8abb 0957 9d3c 7899 4cbc
000001f0: 0c8a 9dbd bb06 6cbd 8c3c d039 5b7c 4b3c
00000200: b1e1 e43d 192d 50bd fbef 36bc 5f3f 053d
00000210: 6ac8 b83c bf59 65bd 48e9 e83a c05f b63d
00000220: dd3d 37bd 4660 f83b d2f8 8cbd 3e26 0cbd
00000230: b577 cd3d 1c56 c9ba 14a5 f33c ce38 6cbd
00000240: 4e83 f9bc 5d1f 56bd c1e2 60bd e9d6 0e3d
00000250: 332d 02bc 205f 933d 93f1 b1bd 3638 a63d
00000260: e619 8fbd 6f43 d53c d7aa 223d 58ba 4ebc
00000270: 8912 7f3e f78e 46bb 4ad0 963d 045a a03d
00000280: a564 0cbe f048 dd3a ce22 29bc 4e8c d83c
00000290: 9209 84bc 25b3 91bd 39db 23bd f02f 093d
000002a0: 70f3 673d 5982 a2bc e2b2 79bc 62b4 32bd
000002b0: c13f 04be 852d e2bc ba77 49bc 82b8 373d
000002c0: 5d48 d2bd facb 4d3d 1c43 9dbc e15d df3d
000002d0: 28b3 7c3d 2c64 4b3d 2df1 6cbd 275a 943d
000002e0: fa73 3bbd 18c6 6fbc 7863 dbbd 15df 7c3d
000002f0: 2537 2c3d fbba 763b 7e7c 043d 2565 873c
00000300: 2e35 16bf ec9e babd 4a05 f23e 8769 e8be
00000310: 51f8 d73c 591b b8be 3ff1 1f3d 7f91 43be
00000320: f3ae 66be 7839 963d 08dd 16be 561b 903e
00000330: e27e 803e a4ca dcbe caa6 be3c f521 cc3e
00000340: 02a6 713e 6746 083f 044b d23e 52d2 a33e
00000350: 0a68 f1be c83b b8be 8d43 fa3d 86f0 00bf
00000360: 7fc2 0dbf 6847 a23e a401 383e c220 413e
00000370: f7d0 b03e 3708 abbe 0433 8b3d 599c e63e
00000380: 2f41 9ebd 3c6e 5bbd e135 973e 9ea1 90be
00000390: 2f14 98be fbdf 12be c01d 7cbe 1c55 7f3d
000003a0: 2678 91be 17c7 13be fc8a a4be e451 b33d
000003b0: 1b7d 033f 5a1a 253f 08d2 f2bd 3ca9 00be
000003c0: 5996 903d dc6c d43c 69ce 06be a0be 423c
000003d0: 78dd 21bd ed0d 6d3e 4e36 01bf e2d5 ab3e
000003e0: 431a 9f3b 5414 0b3d ae70 0d3f 61d5 933e
000003f0: 569f 8e3d 02d4 0a3e a382 63be b9a5 15bb
-0.048439488 0.042898092 -0.015933143 -0.045718905 0.06921599 -0.04413668 0.013217259 0.039740056
-0.042147007 -0.03586201 0.11316451 -0.025086526 -0.09492551 0.0023563213 0.032253053 -0.041482158
0.06973403 0.044126958 -0.010038164 -0.0027367822 -0.052626677 0.04965323 0.034022573 0.020943368
0.03700255 0.00091590243 -0.000121471 -0.008900055 0.035194602 -0.010894036 0.0520361 0.07272324
-0.12895805 -0.067966186 -0.03683475 -0.0051806355 -0.01875307 -0.076890916 0.0352697 -0.0008915886
-0.020836553 -0.017037401 -0.019194381 -0.002172667 0.09652586 -0.14165013 -0.008164946 0.10596076
0.009678475 0.15378843 -0.02099552 -0.12469789 -0.03207138 0.03923505 0.088911854 -0.01326721
0.011437233 -0.0019399539 0.12739709 -0.03103675 0.038239904 -0.0038157972 0.0052659484 0.008380367
0.060069427 -0.04636654 0.016467761 -0.03820166 -0.077262424 0.017774168 0.01228351 -0.029306957
0.02356537 -0.11607112 0.01666233 0.025535317 0.030021511 0.054865204 0.0032236641 0.048957977
0.022191627 -0.029167812 0.121799946 -0.18370013 -0.010333645 0.04353034 -0.024948794 -0.021689856
-0.071726374 0.09112579 -0.07505653 -0.0075560324 0.053099893 0.02130126 -0.005608469 0.07062432
-0.018386085 -0.02843522 -0.0080943825 0.023472413 0.0019273388 -0.07751548 -0.023147097 0.09856228
0.19492881 -0.088914625 -0.06435797 -0.023548638 -0.05983279 0.0739902 0.06197222 0.026949583
0.038332976 0.107174106 0.051399384 0.03364162 -0.071862206 -0.035526916 0.017669652 0.0025732385
0.0813659 -0.0042403457 0.01920654 -0.012487762 -0.07692346 -0.057623606 0.00039717962 0.012419785
0.1117586 -0.05082426 -0.011165614 0.03253114 0.022556502 -0.05599379 0.0017769719 0.089049816
-0.04473673 0.007579836 -0.06883396 -0.034216158 0.10032598 -0.0015360746 0.029741801 -0.05767136
-0.030458119 -0.052276004 -0.05490375 0.034872923 -0.007945347 0.07195878 -0.08688655 0.0811619
-0.069873616 0.026033131 0.039713707 -0.01261767 0.24909414 -0.0030297616 0.07363947 0.07829669
-0.13710268 0.0016882699 -0.0103232395 0.02643409 -0.016117845 -0.07114247 -0.04000399 0.033492982
0.056628644 -0.019837545 -0.015240403 -0.043629058 -0.12914945 -0.027609596 -0.012296611 0.044853695
-0.102677085 0.050243355 -0.01919704 0.10906578 0.061694294 0.04965608 -0.05784719 0.07243758
-0.0457649 -0.014634632 -0.107123315 0.061736185 0.042044777 0.003764807 0.032345288 0.016527722
-0.58674896 -0.09112343 0.4726966 -0.4539301 0.026363524 -0.35958365 0.03904843 -0.19098471
-0.22527675 0.0733518 -0.14732754 0.28145856 0.25096804 -0.43123353 0.02327289 0.39869657
0.23598483 0.53232425 0.41072857 0.319964 -0.47149688 -0.3598311 0.122199155 -0.5036701
-0.553749 0.31695104 0.17969376 0.18860152 0.34534428 -0.33404705 0.0679684 0.4504116
-0.077272765 -0.053571925 0.29533294 -0.28248304 -0.297029 -0.14343254 -0.24620724 0.062337026
-0.28411978 -0.14431415 -0.32137287 0.08755854 0.5136277 0.64493334 -0.118564665 -0.12564558
0.070599265 0.025930814 -0.13164677 0.011886269 -0.03951785 0.23149844 -0.5047349 0.33561617
0.0048554256 0.033954933 0.5525006 0.28873733 0.06963985 0.13557437 -0.22217803 -0.0022834374

architecture.4.bias f4 [9]
00000000: 8428 fbbd 9a95 8c3d 1ce4 f3bb 29fc 063f
00000010: 8c17 983d 7487 d7bc 07c1 46bd 5c98 d93e
00000020: 643c a7bd
-0.12263587 0.06864472 -0.0074429642 0.52728516 0.07426366 -0.026309706 -0.04852393 0.42499053
-0.081658155

std f4 [9]
00000000: cdcc 4c3e cdcc 4c3e cdcc 4c3e 55b6 973e
00000010: cdcc 4c3e cdcc 4c3e cc8c 3e3f f84f 263f
00000020: cdcc 4c3e
0.2 0.2 0.2 0.29631296 0.2 0.2 0.7443359 0.6496577
0.2

architecture.0.weight f4 [64, 27]
00000000: c47e fabe c81d a73b f387 bcbd 9ad9 d53c
00000010: 196d aa3e 10d4 94be 6cdb 83be dcf4 a7be
00000020: 48b8 8bbe acb4 7fbe 2cf7 77bd ff45 fbbd
00000030: ca08 0dbe 0cf5 36bd 8009 3fbd 2144 ad3d
00000040: 83bc fabc 6390 33be e50c 103e 3bf3 873d
00000050: 546e 5e3c 8ab1 b23e be1a 4f3e c7d0 e73e
00000060: 64aa 52bd c798 5fbe 3f6c 2a3e 35e9 80bc
00000070: 24ef 57bd fc72 d03b 9758 04be 549f 3b3e
00000080: eca1 b93e 43c4 833e 7acc 26be 5345 f23d
00000090: 4ae6 20bd bb97 b6be acc3 da3d fd7a a63c
000000a0: 4ca4 02bd 4b5e 0ebd 9e80 d8bc a7b4 383d
000000b0: c454 40bd 87ef 01bf 72d0 85bd 6763 293e
000000c0: 4151 75bd 419c ed3e 3f80 873e 772d 83bb
000000d0: 1e11 41be cf63 45be 8b25 c7bd 7d93 1ebe
000000e0: 5a82 a8bd 167c b83c 738c f3be 674b 793e
000000f0: 7272 0e3e f6d2 2a3e 9efa 6ebe c9ee 5b3e
00000100: e94f c1be 7eed 00bd 43ee 803c 6d8e 643c
00000110: fe8a 15be e1df 8a3d 7406 0abc e219 cebc
00000120: 5e88 01be 4e32 823e f942 c7be 7efa 5f3d
00000130: 7f5b b0bd c7bb 543d 566a e23d 37e1 97be
00000140: 966f 80bd 827f 163e 24ac 20be a533 d53e
00000150: 9e62 8ebd ea27 7d3e c641 c43e ed17 303d
00000160: dcfb 9f3d 2009 a43d 99b1 b1be 58b9 493e
00000170: 97e9 9b3e 0988 fbbd b4b4 2c3d 1746 503d
00000180: 4f5e b9bc 0fe6 823c 91fc ef3d 5256 833d
00000190: 31e8 16be 923c 84be 32ea 1dbc 0461 73bd
000001a0: ac12 d53c 7f1e d93e a143 a5be 5d3c 8abe
000001b0: 69d6 8a3c 919b d83b 29df a2bd 6738 a9bd
000001c0: eecf 713c 060c 163b 9d70 babd d66b 03be
000001d0: 6b64 63bd f31b 0abe ce1d bcbd 7cf6 9dbe
000001e0: eca8 d3bc d463 6cbc ec43 c6bd 401e 10bd
000001f0: b63c a83d 8a15 573d 1a95 84bd b9eb 07be
00000200: f88d 903c a107 2b3e 3057 c3be a0d8 6e3d
00000210: 41cc c03c 01a4 ed3d 2457 c5be 180d 8a3d
00000220: c408 81bd 713d db3a ff88 ae3d fb13 61be
00000230: c84a a6be 8afe b1bd 795a 353b a4c8 283e
00000240: 4877 9e3e f023 11be 1a89 403c ff96 95bd
00000250: 75cb 973e 57e8 2f3e ca53 16bd d732 5fbd
00000260: 1150 5e3c af3e 0abe 2262 d03d 9a4e 83bd
00000270: 4c9f d73d 4278 cabe 7666 803d 8f25 8fbb
00000280: ec6f 7abe f57d 273e ebb5 10bd 0268 a4bc
00000290: 4549 c13b 17df 47be 2862 283e bc3d a73e
000002a0: 379f 63be d24a d23d b565 12be 803c 8bbd
000002b0: 8795 fabd 5488 32be dd87 6abc 96cd fe3c
000002c0: 56a6 1e3d b503 4f3d abf3 473c b225 253d
000002d0: 4768 393e 876a d43c 5064 663e 3e4b f4bc
000002e0: b070 d93d caee 653e ba97 55be 224e 3fbd
000002f0: eac2 bcbc 7dd4 8dbd 0076 f4bd 5267 aa3c
00000300: 9508 5b3e b3e8 823e 4f58 99bd 4b32 35bd
00000310: e616 903c c497 e5bd 96a1 4a3c 267c 3ebe
00000320: a4ef 8e3c 76de 963e 8b87 fdbc c325 093e
00000330: 775f 873d ec4b 283d 8591 36bb 64b9 93be
00000340: 3c3f 5a3e 5ee5 a6be a44e 243e fca8 c5bd
00000350: cef4 49be 0eb4 a73e eb73 943d ce31 cd3d
00000360: 89c7 30bc ff13 423d 36ee 8bbd 09cb f33d
00000370: ed3f f5bb 2e6f 19be 0f96 3a3d 2e5c b43d
00000380: cbc4 0d3c 7c24 2d3d 2e2f cc3d afec 9abe
00000390: f26d 643d d1d9 c8bd 630d 5bbd 10f4 65bc
000003a0: f78f ce3d 39a3 c03c 3293 903c 0f2e a6be
000003b0: c2ba dc3e d88e bb3d 2b2f 0abe 2b91 2cbe
000003c0: 4ed2 a73d 19bc dd3d 3e5a e0be cdfb d13e
000003d0: 0231 bc3d 97db 26be b8cd 3abd d54b c93e
000003e0: 2249 07bd e68a 84be dea6 82be 9258 ac3e
000003f0: ff5d 003e d147 cabe cc86 843e b2a0 c93d
-0.4892484 0.0050999857 -0.09205618 0.026104737 0.3328636 -0.2906804 -0.25753343 -0.32804
-0.27289033 -0.24971265 -0.060538456 -0.1226921 -0.13772884 -0.04466729 -0.04663992 0.0846026
-0.030607468 -0.17535548 0.14067419 0.066381894 0.013576109 0.34901077 0.20225045 0.45276472
-0.05143203 -0.21835624 0.16642855 -0.015736202 -0.052718297 0.0063613635 -0.1292442 0.18322498
0.3625635 0.25735673 -0.16288939 0.11829629 -0.03928212 -0.35662636 0.10681853 0.020322317
-0.031894967 -0.034757894 -0.026428517 0.04509416 -0.04695584 -0.50756115 -0.065338984 0.16541825
-0.059891943 0.46408275 0.26465032 -0.0040032226 -0.18854186 -0.19276355 -0.09723958 -0.1548595
-0.082279876 0.022520106 -0.47568092 0.2434517 0.13910845 0.16682038 -0.2333779 0.21477808
-0.3775628 -0.03147649 0.015738612 0.013949973 -0.14603803 0.06780983 -0.00842439 -0.025158826
-0.12649676 0.25429004 -0.38918284 0.054682247 -0.086112015 0.05193689 0.11055438 -0.29664013
-0.06271283 0.14697078 -0.15690666 0.41640964 -0.069524035 0.24722257 0.3833143 0.042991567
0.0781171 0.08009553 -0.3470581 0.1969961 0.30451652 -0.12281806 0.04216452 0.050848093
-0.022627978 0.015978841 0.11718095 0.06412949 -0.14737011 -0.2582746 -0.009638356 -0.059418693
0.02600988 0.4240608 -0.3227816 -0.2699918 0.016947942 0.006610342 -0.07952721 -0.08262711
0.014759047 0.002289535 -0.091035105 -0.12834105 -0.055515688 -0.13487224 -0.09185372 -0.30852115
-0.025837384 -0.014428098 -0.09680924 -0.0351851 0.08214705 0.052510776 -0.06473751 -0.13273515
0.017645821 0.16702129 -0.38152456 0.05831206 0.023534896 0.11603547 -0.38543046 0.06740779
-0.063005 0.0016726685 0.08522224 -0.21980278 -0.3247893 -0.086911276 0.0027672334 0.16482788
0.3095038 -0.14173865 0.011751438 -0.07304191 0.29647413 0.17178474 -0.036701 -0.054491844
0.013568894 -0.13500474 0.10174967 -0.064114764 0.1052843 -0.39544874 0.06269543 -0.004368491
-0.24456757 0.16356643 -0.03532974 -0.020069126 0.005898627 -0.19518696 0.16443694 0.32664287
-0.22228704 0.10268177 -0.1429661 -0.06798649 -0.12235551 -0.17434818 -0.014314619 0.03110389
0.03873285 0.050540645 0.012204091 0.040319152 0.18106185 0.025929702 0.22499204 -0.029821035
0.106171966 0.22454372 -0.2085866 -0.046705373 -0.023042161 -0.069252945 -0.11936569 0.02080122
0.21389993 0.2556816 -0.07487547 -0.044237416 0.017589044 -0.112105876 0.012367627 -0.18602046
0.017448254 0.294666 -0.030948421 0.13393311 0.06610005 0.04108803 -0.0027857732 -0.2885238
0.21313184 -0.32596868 0.16045624 -0.09651372 -0.19722292 0.32754558 0.07248672 0.10019265
-0.01078976 0.04738235 -0.068325445 0.1190396 -0.007484427 -0.14983818 0.045553263 0.088066444
0.008652876 0.042271122 0.09969936 -0.302587 0.055768915 -0.0980717 -0.053479563 -0.01403524
0.10086053 0.02351533 0.017648313 -0.32457015 0.43111235 0.09158105 -0.13494556 -0.16852252
0.08194409 0.108268924 -0.4381885 0.4101242 0.09189035 -0.16294704 -0.045606345 0.39315668
-0.03302873 -0.2588722 -0.25517935 0.33661324 0.12535857 -0.39507917 0.25884092 0.09845103

architecture.0.bias f4 [64]
00000000: 0508 12bf 78bd 5bbf f3cd ca3e f82a 9d3f
00000010: 8b39 263f be73 5abf 4b49 7bbf fbb9 5a3f
00000020: 7aca 693e b1a4 ac3f d03a 0ebf bb2c e43e
00000030: e530 9b3f 8a4e c53e ea40 87bf 868a 8b3e
00000040: 5e6f f83d 150a 2c3f be37 77bf 100f 4dbf
00000050: 8e45 0cbf af9d 8bbf 0c8a 83bf 4147 b33e
00000060: 06e6 0abf e1d6 f73d b026 a2bf 7956 17bf
00000070: bffb 1fbf 1809 54bf 4fbf 26bf d7b5 24bf
00000080: fef4 55bf a3e7 b03e 6f02 08bf bcda 253f
00000090: c0f5 fa3e dd5a b3be 33c5 90bf 0d5a f2bd
000000a0: 1f8b 623e 0343 503f 795b 30bf 2e30 0a3f
000000b0: 2bf2 8bbd 1a54 92bf ccf9 4a3f 45d8 393f
000000c0: 43a9 34be e02a 2c3f 36ab 4cbf 2de2 a23e
000000d0: 37dd 71bf 08a5 723f d53d 9c3e 70ea 7dbf
000000e0: e5c0 41bf f409 5b3f f204 3d3d 35e5 60bf
000000f0: d193 97bd 6427 aebe 0378 8abe f190 513d
-0.57043487 -0.8583598 0.39610252 1.2278738 0.64931554 -0.8533286 -0.9815871 0.85440034
0.22831145 1.348776 -0.5555849 0.44565377 1.2124296 0.38536483 -1.0566685 0.27254122
0.121306166 0.67202884 -0.9656943 -0.8010111 -0.5479363 -1.0907496 -1.0276504 0.350153
-0.5425724 0.12101532 -1.2668056 -0.5911632 -0.6249351 -0.82826376 -0.65135664 -0.64339966
-0.83576953 0.34551725 -0.53128713 0.6478689 0.49015617 -0.3503026 -1.131018 -0.11833582
0.22123383 0.8135225 -0.68889576 0.53979766 -0.06833299 -1.1431916 0.7928741 0.72595626
-0.17642693 0.6725292 -0.7994875 0.31813183 -0.9447817 0.9478307 0.30515924 -0.9918585
-0.7568496 0.8556206 0.046147294 -0.8784974 -0.074012406 -0.34014428 -0.27044687 0.051163618

architecture.2.weight f4 [64, 64]
00000000: 731b b9be 46d7 3fbf 4ee0 4c3e 7fba 07bf
00000010: 0e7a 0a3f eedd 59be e294 583d cd67 9e3e
00000020: d5fd 5d3e 7754 1abf b433 2fbe 53d0 183e
00000030: 1343 f03b 7cb1 283e 2c69 d43e 1ee5 6f3e
00000040: da97 803d c322 cfbe 1073 033f 12b5 f0bd
00000050: 2c70 89ba 8b67 eabe b8e0 1f3f ce02 073e
00000060: c43e aebe 6ab1 d83d 7579 533f 3734 fcbd
00000070: 36a9 96bd 247e 26bd a571 0b3c ce9c 513d
00000080: a60c 0c3f ade2 583e d5e7 a1be 9ac3 0f3f
00000090: 82ca e13e 6bd1 6ebe cb84 8e3e 256d 1ebe
000000a0: d88f a63e 8a79 7b3e e383 843e 67f4 fb3e
000000b0: b3f6 833e 1845 003f 38c6 a13e 3018 753e
000000c0: f7ed ea3e 84d0 413e 037c 7f3e 5b53 863e
000000d0: f58d b2be e2ab e23e 9c06 0c3e ed4b 2c3f
000000e0: 1f7e e0bd aa81 37bc 3f56 9c3b 1cbe c83d
000000f0: b35b c1bc 45f2 b63e 2c81 d0be 7768 973d
00000100: fccb ccbe 79f7 26bf 4984 b53e f85a 183f
00000110: 047a 0a3f db10 00bf 554a 59bf 10b5 e33e
00000120: 324b e73e 7772 c03e 1871 10bf 33e9 e83e
00000130: 804d 1b3e a886 1b3e 96cb dfbe 91b4 7a3e
00000140: 6932 74bd 35aa 813e d76d f4be 2399 7ebf
00000150: 534f 07bf 9b73 7ebf 45ab febe 16ea c0bd
00000160: 7752 81be 29f1 f8bc 2fb4 b5be edf6 7c3e
00000170: 87a2 98be d302 19bf efc4 d8be eb3f 15bf
00000180: fa8a 2dbf 10ec 543e 4055 efbe 0d70 ff3e
00000190: 8065 3d3e ead4 b0be 1b4e 28be 0327 11be
000001a0: 119c e93d 90b2 d83e 172f 95be f1db 083d
000001b0: 3c0a 11be 69d6 123e b75e 45be 1dc6 b03e
000001c0: d050 6cbe 6365 3a3e 1551 d9be 0d57 8ebc
000001d0: 59e5 01bf 3789 2c3f f967 b4bb 983e 3dbf
000001e0: de80 9dbe 44a7 513f 3eb3 72be f7a2 fbbe
000001f0: c35f 22be 92ab a7be aa87 a13c 954d 203d
00000200: 8226 173f ee25 1b3f b263 cdbe 6975 59bf
00000210: 6fcb 8ebe 8d8a 0f3f 77a9 fc3e 7468 36bf
00000220: cad7 03bf cd73 26bf 4baa 9a3e a477 bebe
00000230: bc3e 84bd 2e52 8bbe a01c e83e eb60 0abf
00000240: 0aa0 c7bd ad0d 0bbe ae90 393f f696 373f
00000250: 0556 293e bc1a 553f c2d2 003e d27c 2ebd
00000260: 585b 833e cad6 e6bd 6ce8 a43e ae58 8bbd
00000270: c128 0d3e dff7 f23e 8a1a 1e3f 116e 023f
00000280: 2f4f 593f a2d6 02bd d0a2 f13e f7df c4be
00000290: df86 6cbe 9255 073f 5757 34be 3edc c73e
000002a0: 4118 543e d2ad 50bf c82d 973e 88fe b9bd
000002b0: a4ff 5abe dc22 8cbe d94b 953b 3aa9 f4be
000002c0: bb0d 91bc d401 31be 6739 f3bd 4298 f7be
000002d0: 196d e03e dd57 16bf 503e aebd eac0 033e
000002e0: 403a 293f 8e80 acbf 69ea a93e 4f65 5d3f
000002f0: 1292 aa3e 6c3e 193f ae6b 173c ffd4 993b
00000300: b061 853d ccc9 1c3e d138 6dbe 2a1a 263f
00000310: 5b1d 053e f078 993e 9bb6 703e 9dcb 88be
00000320: c817 cc3e cd0c 1c3f 8170 7d3e 312d 6dbe
00000330: dbe3 b03e 325e abbe 7c80 24bf 2ec9 3c3d
00000340: 0ea0 f23e 2b73 f7be 54bc 06bf 0df0 f83e
00000350: 964b 663e 30f6 b73e 4ab0 26bf a6b7 98be
00000360: 561f 173f 9ae7 cebe 1a83 26bf 2680 d73e
00000370: cf97 aabd bf95 953d 054e 943d 813d e83e
00000380: f0e5 84be d01a f4bd 2405 ce3e 710e fbbd
00000390: 4fee 51be 1423 97bd 7807 15be 33ae b23d
000003a0: ff67 cabd d387 ff3c cd92 16be f11e c43e
000003b0: 6b02 0d3e 6f8b 3abf 2750 bb3e 0dff 803e
000003c0: b3a7 ee3d db3c 81be ed79 bebe 46f6 92be
000003d0: fa7c 053f 5133 01bf aee9 0a3e 0b87 01bf
000003e0: 8fcd 623e 46ed d3be f4c5 37be 29c3 a0bd
000003f0: b968 ac3d 8326 d5bd 05ce 73bd 6d09 b0be
-0.36153755 -0.74937856 0.2000744 -0.53018945 0.5409249 -0.21276066 0.05287636 0.3093857
0.2167886 -0.60285133 -0.17109567 0.1492322 0.0073322146 0.16473955 0.4148649 0.23427245
0.062789634 -0.4045621 0.51347446 -0.117532864 -0.00104857 -0.45782122 0.6245227 0.13184664
-0.3403226 0.10580714 0.82607204 -0.12314647 -0.07356493 -0.04064764 0.008510982 0.05117493
0.547068 0.2118022 -0.31622186 0.5615784 0.44099814 -0.23322074 0.27835688 -0.15471323
0.3253162 0.24558082 0.25881872 0.49209902 0.25774154 0.5010543 0.3159654 0.23935008
0.45884678 0.18927199 0.2494965 0.2623547 -0.3487393 0.4427176 0.13674396 0.67303354
-0.10961556 -0.011200348 0.0047710235 0.098018855 -0.023603296 0.35731712 -0.4072355 0.07392972
-0.39999378 -0.65221363 0.35452488 0.5951381 0.5409243 -0.5002572 -0.84879047 0.44474077
0.45174557 0.3758733 -0.5642257 0.45490417 0.15166283 0.15188086 -0.4371001 0.24482943
-0.059618387 0.2532517 -0.4774005 -0.9945242 -0.52855414 -0.9939515 -0.49740043 -0.09419648
-0.25258228 -0.030388432 -0.35489032 0.2470357 -0.298115 -0.59769934 -0.42337748 -0.58300656
-0.67790186 0.20793176 -0.46744728 0.49890175 0.1849575 -0.3453744 -0.16436045 -0.14175038
0.114067204 0.42323732 -0.2913749 0.033412877 -0.1416406 0.14339603 -0.19274412 0.34526148
-0.23077703 0.18202738 -0.42444673 -0.017375493 -0.5074058 0.67396873 -0.0055055586 -0.73923635
-0.3076238 0.8189585 -0.23701188 -0.4914777 -0.15856843 -0.32748085 0.01971801 0.039136488
0.59043133 0.6060475 -0.40115124 -0.8494478 -0.27889583 0.56070787 0.4934804 -0.7125313
-0.5150114 -0.6502045 0.30208048 -0.37200654 -0.06457278 -0.27211136 0.4533434 -0.54054135
-0.09747322 -0.13579436 0.7248639 0.71714723 0.1653672 0.8324392 0.12580398 -0.042599507
0.25655627 -0.112714365 0.32208574 -0.06804024 0.13785078 0.47454736 0.61759245 0.509492
0.8488645 -0.03194297 0.4719453 -0.38452122 -0.23098324 0.52864945 -0.17611443 0.3903522
0.20712377 -0.8151523 0.29527116 -0.09081751 -0.21386582 -0.27370346 0.004556161 -0.4778536
-0.017706743 -0.17285854 -0.11876183 -0.4835835 0.43833235 -0.5872782 -0.08507979 0.1286656
0.6610451 -1.3476732 0.33186653 0.8648271 0.33314568 0.59860873 0.009241981 0.0046945806
0.06512773 0.15311354 -0.23166205 0.64883673 0.1299948 0.2997508 0.23507158 -0.26717845
0.39861894 0.6095703 0.24749948 -0.2316177 0.3454884 -0.33470303 -0.6425855 0.046090297
0.47387737 -0.48330054 -0.52631116 0.48620644 0.22489771 0.35930014 -0.65112746 -0.29827613
0.5903219 -0.40411073 -0.65043795 0.42089957 -0.083297364 0.073039524 0.072414435 0.45359424
-0.25956678 -0.119191766 0.40238297 -0.12258614 -0.20501064 -0.073797375 -0.1455363 0.08724632
-0.09883117 0.031192696 -0.14704438 0.38304856 0.13770454 -0.7286901 0.3658459 0.25194588
0.1165308 -0.25241742 -0.37202397 -0.28703517 0.52143824 -0.5046893 0.13565704 -0.50596684
0.22148727 -0.41391963 -0.17946607 -0.07849724 0.08418412 -0.10407736 -0.059522647 -0.3438219

architecture.2.bias f4 [64]
00000000: d102 b83e 29ae 6e3f 7346 8cbf a7c8 89be
00000010: 7668 c63d fb12 83bf 7d9e 633f f676 20bf
00000020: 8069 98bf 3e58 0c3f d5be f53e 7b5a 78bf
00000030: c1c6 48bf 5493 ad3e eaa7 f03d 753b d33e
00000040: 990b 983f a3b6 c73e fd8a a2be fb3c 8a3f
00000050: 2fde 653e 46c3 aebe fb20 a23e 4c68 993f
00000060: 97b0 9dbe 3184 e63e 0ee7 9d3f 6c94 9dbd
00000070: 9855 2fbf 69e7 9abe c221 91bf 1f5b f1be
00000080: 2793 7ebf 0333 453e ae88 aa3e 1690 8dbf
00000090: eb16 69bf 5baa af3f d2c1 a6be 5514 4cbf
000000a0: 1069 41be 7a6c 91bf 024f 13bf 3e33 df3e
000000b0: 5a7b 55bf 707c e03e c046 e5bd 77b4 723f
000000c0: 0b4c 6cbe a565 8c3f c826 aa3f ac02 99be
000000d0: 871c 93bf 0699 4cbf 1d81 d9be 6120 a93e
000000e0: dc56 433e 844e 003f 9fe8 a2be d575 533f
000000f0: 405c 16bf b70b 013f 26d4 72bf 48b8 963f
0.3593965 0.932345 -1.0958999 -0.26910898 0.09687893 -1.0240167 0.8891371 -0.6268152
-1.1907196 0.54822147 0.47997156 -0.9701306 -0.78428274 0.33901465 0.11750777 0.412563
1.1878539 0.39006528 -0.31746665 1.079986 0.22448038 -0.34133357 0.31665787 1.1984954
-0.3079879 0.4502273 1.2336137 -0.07694325 -0.6848998 -0.30254677 -1.1338427 -0.47139832
-0.99443287 0.1925774 0.33307403 -1.1059597 -0.91050595 1.3723863 -0.32569748 -0.79718524
-0.18887734 -1.136123 -0.5754243 0.43593782 -0.83391345 0.43844938 -0.11195135 0.9480662
-0.23075883 1.096852 1.3293085 -0.2988485 -1.1493081 -0.79920995 -0.42481318 0.33032516
0.19076103 0.50119805 -0.318181 0.8260167 -0.5873451 0.504085 -0.9485496 1.1774988

architecture.4.weight f4 [1, 64]
00000000: 1c9e f8c0 24f4 a6c0 c011 a640 957e f540
00000010: 9286 ddc0 fe52 a540 1062 a4c0 5353 a740
00000020: 068b a740 65a7 abc0 858c a4c0 e5ab a840
00000030: 9d8e a840 b243 f7c0 0360 ccc0 fac8 cbc0
00000040: 6a0c acc0 d8c5 efc0 8a26 c640 1479 abc0
00000050: f171 d5c0 ec81 d440 cee9 c9c0 a51a a7c0
00000060: adc4 d040 ce59 01c1 0149 a4c0 5d0a e340
00000070: 1d9a ac40 8e62 d140 5c29 a640 5a94 f040
00000080: 778d a440 33da e0c0 45c3 eec0 b5c6 a340
00000090: d262 a540 54d2 a4c0 fc3d b140 896e a740
000000a0: a616 ca40 7220 a340 e46a ad40 7ad2 afc0
000000b0: c934 a840 481d ecc0 549e ba40 089d aec0
000000c0: cb01 c840 4217 a6c0 81c1 a3c0 f6ae ea40
000000d0: c388 a340 eb7a ad40 9a1f ab40 a6cf fbc0
000000e0: c640 efc0 4096 aec0 8788 e940 4c11 b1c0
000000f0: 608b b540 3a8e a9c0 0517 a240 592e a9c0
-7.7693005 -5.2173023 5.1896667 7.671702 -6.922677 5.166381 -5.1369705 5.2289214
5.2357206 -5.364184 -5.1421533 5.270983 5.267409 -7.7270136 -6.38672 -6.3682833
-5.3765154 -7.492901 6.1922045 -5.35853 -6.670159 6.6408596 -6.3097906 -5.2220025
6.5240083 -8.084425 -5.1339116 7.095015 5.3938127 6.5432806 5.1925488 7.5181093
5.1422687 -7.0266356 -7.4613366 5.118006 5.168313 -5.150675 5.5388165 5.232243
6.3152647 5.0977106 5.419298 -5.494443 5.2564435 -7.3785744 5.831827 -5.456669
6.250219 -5.190339 -5.117371 7.3338575 5.1104445 5.4212546 5.3476076 -7.8690977
-7.476657 -5.455841 7.297916 -5.5333614 5.6732635 -5.2986116 5.06531 -5.2869077

exp_avg f4 [64, 27]
00000000: 9574 5638 4d73 7a38 bd25 ebb6 6981 8db6
00000010: d823 8eb7 06fa d5b7 59d8 c235 a7a7 f1b7
00000020: 2df4 ad37 53db 23b7 8de7 69b8 a6b7 80b7
00000030: 6956 5138 e53b 39b7 5484 7d38 7800 eab7
00000040: 30ee 58b6 4c22 b2b7 4e83 ddb6 fdf6 80b7
00000050: 19b5 d1b7 9124 1a37 671a e5b7 aad3 6537
00000060: 3bf9 0db6 82e8 72b8 f0cb 7a36 61d5 15b7
00000070: 9858 d536 288d 6737 f0c4 81b7 72f5 ec37
00000080: a2ff 0437 0d9e c3b5 1d57 1f38 ac58 6db8
00000090: d7e7 bf37 5e88 8438 d6cd e237 f4b7 d1b7
000000a0: 1505 1f36 7863 2eb6 5598 1d37 e011 8637
000000b0: 5feb b8b7 14c3 6fb7 7b84 1138 62e2 2337
000000c0: 6dea 0db6 2c87 2138 373e 6cb8 9af5 bc37
000000d0: d5a2 8738 79e8 cf37 13b5 e037 5ead 1db7
000000e0: 6918 1537 f589 9b37 0ad2 c1b5 ba58 e035
000000f0: 2546 a0b7 5410 94b7 fe1e 4e38 2ac8 adb7
00000100: 257c 24b8 b73f a6b7 61d8 9537 7ae0 2ab7
00000110: 0b09 f8b6 9349 02b6 f126 0b37 5ed3 4937
00000120: a5a3 8637 6605 0f35 7476 a736 e228 aeb7
00000130: 1b21 96b7 e6d7 2638 daad aab7 5f53 19b8
00000140: 8e4f 68b7 c32b 8bb5 88a0 e6b7 f692 a1b6
00000150: b9a8 12b5 1fe8 1136 ca77 9737 4d6c e737
00000160: 3316 5138 a8e7 b6b7 3abf 0f38 cf5e 22b7
00000170: 65a9 3938 f5ea 9bb6 9f52 de37 46a1 49b7
00000180: 6a4f 4837 a3de b737 3172 2637 299f adb6
00000190: 1a58 07b6 2120 9537 1d9e f337 b3bb 3f38
000001a0: 5546 c4b7 0fba 0d38 14d6 28b7 08e3 3938
000001b0: 5cb5 ba37 d735 0cb6 32cc 3337 39f7 cb37
000001c0: 1d32 e8b7 b7b8 1437 4a57 3938 2049 a938
000001d0: 4063 4437 8fdf 4638 16a1 0738 8f7c 3938
000001e0: 1dd1 bab4 f0db d235 61fd 0db8 fb8b feb7
000001f0: f7b4 deb6 20f6 87b7 2cb9 e037 e66a b8b7
00000200: ee65 5637 c77a 2138 e32e a938 779b 5c37
00000210: 04da 6b38 c249 0638 be0c 6038 bd89 57b7
00000220: 8967 8cb7 2e0c a037 6e20 8937 8a30 51b7
00000230: 3fd9 aa37 a340 0f36 8e0d 9438 3e38 f4b6
00000240: 50af 3938 b8aa d337 7f1e 5538 3f13 89b6
00000250: 616d d5b6 aafd 0837 6ffe c137 b67c 88b7
00000260: c04c 62b7 1d00 8137 c493 73b7 5229 a437
00000270: 9b64 c636 7d70 9138 7dfb 0835 7d0f 3938
00000280: 63d2 8d37 6c7f 3d38 062c 43b8 31b9 58b7
00000290: 40fb f3b6 3558 ef36 99d2 1a38 baa5 2938
000002a0: 9d8c 64b8 8a17 2f38 4791 5fb8 edc3 3737
000002b0: 4659 a338 3e0d 55b6 6295 e6b7 7567 f8b5
000002c0: 0468 04b8 4d67 9437 0e7c ddb6 0619 0cb8
000002d0: 7fc3 4837 4d92 1f38 34a3 0338 57db 4bb8
000002e0: ccef 3138 fc95 2db8 13e3 c236 41cf 9a38
000002f0: 42db 31b7 8223 ecb7 1d9a a036 43ba a5b7
00000300: db19 fdb7 4c8f 9eb6 b3e4 5737 b8c8 6c36
00000310: 930c 0338 60b1 10b8 8686 2838 1d03 1538
00000320: 7567 2838 ecce 79b6 99a2 4eb7 1824 7bb5
00000330: e270 89b6 4051 61b6 87b3 34b7 1ca2 e2b7
00000340: 4632 43b6 ca5e 0b37 e6f5 3c37 b93d 0338
00000350: 7148 d6b7 9b23 1e38 929b 0638 1ce1 2538
00000360: a43c c8b7 efe7 8138 0d68 9fb8 fc60 a8b7
00000370: f510 51b7 7928 3e37 94d2 0fb8 cb7f 27b8
00000380: 7086 adb7 e6ff 99b8 e39c 34b6 2ece e1b7
00000390: a296 7fb6 fcd8 37b7 b8e7 f134 468d 80b7
000003a0: 35cd f5b7 05c4 60b7 1929 a2b7 72f7 83b7
000003b0: 61b9 ccb6 d8e3 8cb7 dc84 27b8 78d6 5ab7
000003c0: fe9e 99b8 0e04 15b7 08c4 24b8 7b4b 7eb7
000003d0: 424d 99b7 686e 8d37 e09f 93b7 6aa5 8936
000003e0: b3da 1437 9e69 9837 0aa0 f037 c42c 80b7
000003f0: 8841 fd37 f98d e137 402f c037 9349 c336
5.113015e-05 5.9712027e-05 -7.007939e-06 -4.217193e-06 -1.694441e-05 -2.5508005e-05 1.4517092e-06 -2.8807508e-05
2.073691e-05 -9.7666225e-06 -5.5767177e-05 -1.5344307e-05 4.990996e-05 -1.1040805e-05 6.044314e-05 -2.7895192e-05
-3.2325152e-06 -2.1235224e-05 -6.601599e-06 -1.5373802e-05 -2.4999072e-05 9.187629e-06 -2.7311222e-05 1.36987455e-05
-2.1155709e-06 -5.7913836e-05 3.737161e-06 -8.930773e-06 6.3582083e-06 1.3801538e-05 -1.5469705e-05 2.8247687e-05
7.927332e-06 -1.4574631e-06 3.7989685e-05 -5.6587785e-05 2.2876933e-05 6.319651e-05 2.703715e-05 -2.5000401e-05
2.3695804e-06 -2.598592e-06 9.393397e-06 1.5982368e-05 -2.2044112e-05 -1.429093e-05 3.4694076e-05 9.768266e-06
-2.114709e-06 3.851128e-05 -5.6324727e-05 2.2525714e-05 6.4676315e-05 2.4784576e-05 2.67872e-05 -9.398294e-06
8.8867755e-06 1.8541681e-05 -1.444075e-06 1.6715123e-06 -1.910615e-05 -1.7650578e-05 4.914309e-05 -2.0716416e-05
-3.9216266e-05 -1.9818412e-05 1.7862943e-05 -1.0185055e-05 -7.3920287e-06 -1.9414335e-06 8.294112e-06 1.2029746e-05
1.6050248e-05 5.3279507e-07 4.9907776e-06 -2.0761454e-05 -1.789681e-05 3.9778555e-05 -2.0346535e-05 -3.6555688e-05
-1.38468e-05 -1.0369043e-06 -2.749289e-05 -4.8152824e-06 -5.463476e-07 2.1741796e-06 1.8056384e-05 2.7587777e-05
4.9850158e-05 -2.1803964e-05 3.427195e-05 -9.678027e-06 4.4265198e-05 -4.6467126e-06 2.6502936e-05 -1.2018083e-05
1.1939419e-05 2.1918973e-05 9.920958e-06 -5.1743305e-06 -2.016785e-06 1.7777145e-05 2.9041485e-05 4.5712757e-05
-2.3397772e-05 3.37903e-05 -1.0063424e-05 4.4318876e-05 2.225738e-05 -2.0892965e-06 1.0716774e-05 2.4314608e-05
-2.7679891e-05 8.864495e-06 4.418873e-05 8.0721686e-05 1.1705619e-05 4.7415084e-05 3.233653e-05 4.422344e-05
-3.479735e-07 1.571023e-06 -3.3852997e-05 -3.0344343e-05 -6.6371827e-06 -1.6207865e-05 2.6789108e-05 -2.1984288e-05
1.2779126e-05 3.8499737e-05 8.067281e-05 1.3149219e-05 5.623141e-05 3.2016782e-05 5.341763e-05 -1.2847068e-05
-1.6737513e-05 1.9079158e-05 1.6346774e-05 -1.2468672e-05 2.0366742e-05 2.1346284e-06 7.059715e-05 -7.278314e-06
4.427071e-05 2.5232657e-05 5.081156e-05 -4.0851587e-06 -6.360628e-06 8.1652925e-06 2.3125873e-05 -1.6270536e-05
-1.34885195e-05 1.5378051e-05 -1.4518333e-05 1.9569565e-05 5.912572e-06 6.9350914e-05 5.102991e-07 4.412186e-05
1.6906479e-05 4.5179782e-05 -4.6532623e-05 -1.29177215e-05 -7.2712137e-06 7.1330237e-06 3.6912596e-05 4.0447085e-05
-5.4490392e-05 4.1745174e-05 -5.3302643e-05 1.09532675e-05 7.789074e-05 -3.1747181e-06 -2.7487698e-05 -1.850755e-06
-3.1568125e-05 1.7691078e-05 -6.600755e-06 -3.3401906e-05 1.1966446e-05 3.8044807e-05 3.138483e-05 -4.8603248e-05
4.2423417e-05 -4.1386098e-05 5.8080855e-06 7.381896e-05 -1.0601072e-05 -2.8149927e-05 4.7863127e-06 -1.9756268e-05
-3.017199e-05 -4.725449e-06 1.2868247e-05 3.5283574e-06 3.1244545e-05 -3.449747e-05 4.0179606e-05 3.5527268e-05
4.0150673e-05 -3.7224336e-06 -1.23164145e-05 -9.355731e-07 -4.0960595e-06 -3.3574906e-06 -1.07706355e-05 -2.7016787e-05
-2.9086527e-06 8.307115e-06 1.1262926e-05 3.1290318e-05 -2.5544521e-05 3.7703296e-05 3.2092976e-05 3.9548715e-05
-2.3870096e-05 6.1944e-05 -7.601092e-05 -2.0072323e-05 -1.2461319e-05 1.1334306e-05 -3.4289973e-05 -3.993492e-05
-2.068581e-05 -7.343273e-05 -2.691341e-06 -2.69181e-05 -3.808564e-06 -1.0958171e-05 4.5058346e-07 -1.5324575e-05
-2.9301833e-05 -1.339708e-05 -1.9331042e-05 -1.5731643e-05 -6.1012547e-06 -1.6795399e-05 -3.9939638e-05 -1.30437475e-05
-7.325223e-05 -8.882036e-06 -3.9283215e-05 -1.5157154e-05 -1.8274997e-05 1.6859922e-05 -1.7598213e-05 4.102175e-06
8.872407e-06 1.8168994e-05 2.8684753e-05 -1.5279635e-05 3.0190466e-05 2.6888201e-05 2.2910186e-05 5.820018e-06
