raisimGymTorch/data/ouzel_only_planning/2022-05-09-12-17-53/full_52000.pt (torch, 162032 bytes, 36 tensors)

architecture.0.weight f4 [64, 27]
-0.1668575 -0.52603835 0.15988803 0.259598 0.28938848 -0.29564804 -0.26195848 0.63613635
0.055965118 0.46001476 -0.24873082 -0.20177631 0.2836072 -0.1253098 -0.39705637 0.058607824
1.0353073 0.8055596 0.15087798 -0.019236028 -0.18593761 0.14088087 0.25252724 0.028174594
0.5542925 -0.57296234 -0.05835545 -0.21319485 0.0039705713 -0.38419306 -0.06599437 0.08380615
0.09673294 -0.335301 -0.040220127 0.000109479464 -0.10569981 -0.2847686 0.2532701 -0.5676196
-0.23359004 -0.16950613 0.2840079 -0.21152544 0.47964224 0.0904614 -0.004474775 0.32843387
-0.27610886 -0.040767256 -0.030780353 -0.6248123 -0.09031761 -0.100425825 0.022119515 0.73321944
0.32437304 0.52450716 0.2581502 0.148219 -0.13079433 -0.35900405 -0.36280572 0.091532305
-0.12837577 -0.13687254 -0.07573171 0.445677 -0.124710746 0.12811778 -0.35849047 0.4719998
-0.08570256 0.35014758 0.4606196 0.044251323 -0.17706414 -0.017056488 -0.039948937 -0.28706783
-0.1776719 -0.71730345 -0.7512769 0.030780358 0.09680071 0.0554337 0.10144372 -0.22094893
-0.08938174 -0.1728511 -0.014567604 -0.27925184 0.1544984 -1.1787661 0.077112965 0.5525822
0.52713263 -0.3648105 0.09357505 0.09343746 0.10125753 -0.21921168 -0.034385104 -0.0867967
-0.1168004 0.3071418 0.03393456 0.009644077 -0.10930608 0.4012386 -0.54668915 0.36709684
0.15394275 -0.4028142 0.42581335 -0.08611166 -0.19424814 -0.090524934 -0.45694634 -0.10381313
0.27791968 0.4614331 0.5325708 -0.04511756 0.26380965 0.27412635 0.36525407 0.45425117
-0.41569817 0.36185455 -0.022280226 -0.103795946 -0.08340947 -0.34330586 -0.09056455 -0.33125454
-0.19962333 -0.67583436 0.07705278 -0.11412306 0.3018764 0.13781324 -0.43660605 -0.11916935
-0.05853786 0.31492394 0.22584675 0.051328655 0.41559893 0.16572785 0.3319834 -0.2424247
-0.013838024 -0.047535963 -0.31240067 -0.14943026 0.311149 -0.8703543 0.030187298 -0.118458785
0.41999 -0.0890887 0.021643167 -0.56446445 -0.4917822 0.1538221 -0.6020997 0.16681923
0.18401596 -0.17595854 -0.2729418 0.19947201 -0.26484117 0.29674134 0.044817373 0.24621841
0.07484105 0.41808447 -0.2828528 -0.5410459 -0.046241757 -0.27935264 0.030329695 0.29449543
-0.11886488 0.39585644 -0.088056915 -0.036313362 0.071803965 -0.07480027 0.09169505 -0.634517
0.29350787 -0.00075180316 -0.11530111 0.14643903 0.15026905 -0.39320832 -0.07451603 -0.08319018
0.18839239 0.07160412 1.0403801 -0.41239086 -0.55036837 -0.053973753 0.04612791 -0.1174951
0.22357607 0.113808535 -0.08154765 -0.11215748 -0.46634004 0.06607867 0.037945237 0.44390306
-0.066898875 0.112191364 0.2790251 -0.399795 0.3479401 0.3551106 0.014261834 -0.068909936
-0.0589842 -0.2771234 -0.04214513 0.3370834 0.17583328 -0.4868697 1.1404586 -0.3578872
0.13087817 -0.13103251 0.38682818 -0.25279674 -0.11359726 0.20579672 0.09112088 0.03980269
-0.47343367 -0.10928852 0.029844698 0.51409465 0.43767524 -0.22842042 -0.41310266 0.52757514
0.057960145 0.2938469 -0.4568683 -0.4883444 -0.269949 0.17386141 -0.0702444 -0.64400315
00000000: b1dc 2abe 73aa 06bf b0b9 233e 07ea 843e
00000010: ba2a 943e 2e5f 97be 6c1f 86be d5d9 223f
00000020: ae3b 653d 0e87 eb3e 4bb3 7ebe 739e 4ebe
00000030: f734 913e 3651 00be f94a cbbe c20e 703d
00000040: f384 843f 2739 4e3f c27f 1a3e e094 9dbc
00000050: 6e66 3ebe 1343 103e 404b 813e 68ce e63c
00000060: 1de6 0d3f a9ad 12bf 2006 6fbd c04f 5abe
00000070: 911b 823b f4b4 c4be 0e28 87bd 8fa2 ab3d
00000080: eb1b c63d 93ac abbe dcbd 24bd 5798 e538
00000090: 2479 d8bd 31cd 91be 9eac 813e 854f 11bf
000000a0: 3a32 6fbe 0493 2dbe 7c69 913e 209a 58be
000000b0: ab93 f53e d443 b93d 22a1 92bb 7c28 a83e
000000c0: 245e 8dbe 91fb 26bd 1427 fcbc b3f3 1fbf
000000d0: 70f8 b8bd 0eac cdbd fc33 b53c 45b4 3b3f
000000e0: 3914 a63e 1a46 063f 432c 843e b9c6 173e
000000f0: f3ee 05be 61cf b7be acc1 b9be 4a75 bb3d
00000100: f074 03be 5128 0cbe 3a19 9bbd c72f e43e
00000110: 5968 ffbd 4f31 033e 108c b7be f5a9 f13e
00000120: d384 afbd 8b46 b33e 55d6 eb3e e040 353d
00000130: 4d50 35be 0cba 8bbc 7fa1 23bd 8efa 92be
00000140: 9fef 35be 33a1 37bf af53 40bf 1727 fc3c
00000150: 733f c63d 730e 633d bac1 cf3d 7040 62be
00000160: c60d b7bd e1ff 30be f6ac 6ebc 19fa 8ebe
00000170: d434 1e3e cfe1 96bf 67ed 9d3d 0776 0d3f
00000180: 2af2 063f 71c8 babe 47a4 bf3d 245c bf3d
00000190: 1c60 cf3d 0779 60be 65d7 0cbd 78c2 b1bd
000001a0: 0c35 efbd b141 9d3e f7fe 0a3d 3102 1e3c
000001b0: dedb dfbd 256f cd3e d2f3 0bbf 1ef4 bb3e
000001c0: 2ba3 1d3e aa3d cebe 3504 da3e 4f5b b0bd
000001d0: fce8 46be 2365 b9bd dff4 e9be fa9b d4bd
000001e0: 7d4b 8e3e f640 ec3e 8f56 083f 31cd 38bd
000001f0: 0f12 873e 4a5a 8c3e 9502 bb3e 9c93 e83e
00000200: 64d6 d4be 0045 b93e 0585 b6bc f892 d4bd
00000210: 96d2 aabd c9c5 afbe e879 b9bd 329a a9be
00000220: 0f6a 4cbe 7b03 2dbf d9cd 9d3d 5ab9 e9bd
00000230: 8b8f 9a3e ea1e 0d3e d48a dfbe 0f0f f4bd
00000240: 65c5 6fbd b63d a13e 5f44 673e ff3d 523d
00000250: 62c9 d43e 90b4 293e baf9 a93e 2e3e 78be
00000260: e1b8 62bc 12b5 42bd fbf2 9fbe 3f04 19be
00000270: ec4e 9f3e 8acf 5ebf 5a4b f73c 859a f2bd
00000280: ee08 d73e 2374 b6bd 034d b13c be80 10bf
00000290: e0ca fbbe 8a83 1d3e 3523 1abf a9d2 2a3e
000002a0: ae6e 3c3e 7a2e 34be 07bf 8bbe 6442 4c3e
000002b0: 4399 87be 7bee 973e 6c92 373d ae20 7c3e
000002c0: 4446 993d 2b0f d63e 15d2 90be fc81 0abf
000002d0: ff67 3dbd 4f07 8fbe fb75 f83c 1bc8 963e
000002e0: 6e6f f3bd b2ad ca3e 2f57 b4bd 52bd 14bd
000002f0: f50d 933d e230 99bd 9dca bb3d b56f 22bf
00000300: aa46 963e a814 45ba fd22 ecbd 1df4 153e
00000310: 21e0 193e 9a52 c9be dc9b 98bd 9d5f aabd
00000320: efe9 403e 2ea5 923d 2d2b 853f e524 d3be
00000330: f1e4 0cbf 9513 5dbd 9ff0 3c3d 45a1 f0bd
00000340: 20f1 643e 7314 e93d 7402 a7bd d2b2 e5bd
00000350: 1fc4 eebe 4154 873d 776c 1b3d 4347 e33e
00000360: 4702 89bd 96c4 e53d 61dc 8e3e eeb1 ccbe
00000370: 3425 b23e 0ed1 b53e 78aa 693c a720 8dbd
00000380: 6b99 71bd 1ee3 8dbe 5fa0 2cbd 3296 ac3e
00000390: a40d 343e fc46 f9be 8cfa 913f fe3c b7be
000003a0: ed04 063e 632d 06be 580e c63e 936e 81be
000003b0: aea5 e8bd 60bc 523e 959d ba3d 2508 233d
000003c0: e665 f2be a9d2 dfbd de7c f43c b59b 033f
000003d0: f816 e03e 0be7 69be 3182 d3be 2a0f 073f
000003e0: 9e67 6d3d 1a73 963e a4ea e9be 4708 fabe
000003f0: c136 8abe ba08 323e 4cdc 8fbd 64dd 24bf

architecture.0.bias f4 [64]
0.2898435 -0.5466412 1.1108111 0.0067924145 0.20028299 -0.7687637 -0.8937108 -0.98291206
-0.9969756 0.2043322 -0.7439241 0.29757285 1.3915708 -1.2138811 1.1484722 1.1886916
-0.86239845 -0.39886948 -1.0639417 0.35311905 1.6301727 -1.18016 0.9108757 -1.0307422
0.09217977 0.5604497 0.21936467 -1.3350627 -0.8059339 -0.056051992 -0.063130535 -0.6968041
-1.1509188 -0.8346533 -0.83715194 0.2488561 1.1460087 -0.5004283 0.6784591 -0.26972267
-0.5730335 -0.4892867 1.0852497 -0.57876074 -0.1624704 0.44587454 -0.19874495 -0.520722
0.16862516 1.1398658 1.0531659 0.5800519 0.24771364 -1.4241523 -0.6949849 0.24539155
-0.5966136 -1.215452 1.1456925 1.2528263 1.4383506 1.1182817 -0.20236638 0.07947716
00000000: 5e66 943e adf0 0bbf 0f2f 8e3f e792 de3b
00000010: fc16 4d3e b3cd 44bf 3bca 64bf 20a0 7bbf
00000020: cb39 7fbf 763c 513e cf71 3ebf 785b 983e
00000030: fe1e b23f 7560 9bbf 2301 933f 0c27 983f
00000040: 25c6 5cbf 9f38 ccbe 3e2f 88bf 05cc b43e
00000050: 80a9 d03f 7c0f 97bf 262f 693f 5cef 83bf
00000060: bfc8 bc3d a279 0f3f 22a1 603e 56e3 aabf
00000070: af51 4ebf c696 65bd 954a 81bd c161 32bf
00000080: 4f51 93bf d7ab 55bf 974f 56bf 22d4 7e3e
00000090: 6ab0 923f 121c 00bf 7faf 2d3f 1719 8abe
000000a0: 53b2 12bf c983 fabe 76e9 8a3f aa29 14bf
000000b0: a45e 26be ab49 e43e cc83 4bbe 094e 05bf
000000c0: 13ac 2c3e 1fe7 913f 24ce 863f 487e 143f
000000d0: a5a8 7d3e 9f4a b6bf 88ea 31bf ec47 7b3e
000000e0: abbb 18bf ee93 9bbf 0da6 923f 9d5c a03f
000000f0: df1b b83f db23 8f3f 2239 4fbe ecc4 a23d

architecture.2.weight f4 [64, 64]
0.049511775 0.43058404 -0.33387062 0.0026720765 -0.034912847 -0.077267975 0.071705125 0.3649072
0.38731098 -0.013261531 0.49271092 -0.24905708 -0.51394475 0.08977637 -0.38234368 -0.3738722
-0.13818851 -0.026554713 0.38581854 -0.2592171 -0.87637484 0.56270176 -0.23676695 0.6151129
-0.022276899 -0.11999957 0.15682358 0.35515925 0.09021837 -0.14561598 0.19415383 0.3484596
0.1810835 0.5587854 0.36220258 -0.06977223 -0.18133958 -0.04836144 -0.26382902 0.1358996
0.32248345 -0.047786776 -0.015948154 0.12667982 -0.55651164 -0.20336369 0.12747543 -0.063004605
0.0029745137 0.07104814 -0.10651949 0.4993969 -0.027658748 0.30479625 0.20782325 0.20828307
0.1450744 0.40454486 -0.78613937 -0.13294493 -0.44870245 -0.46307254 -0.41119266 0.114529155
0.12939298 -0.14779969 -0.00039350594 0.16623236 -0.065716855 -0.115543 -0.036840536 -0.34257975
0.51199543 0.09847834 -0.028232059 -0.02247174 -0.14649783 0.388622 0.4454385 0.11130447
-0.052043363 0.13728824 -0.30455282 0.0008819299 0.6027574 0.076872714 0.05890352 -0.21588808
0.229181 0.25862578 -0.14571437 -0.04379965 0.56954896 0.20446403 -0.1295081 0.46468073
-0.4295393 -0.17606986 0.026666809 0.11439415 0.2717912 -0.060446523 -0.27734938 0.06129451
-0.050140508 -0.040945895 -0.29911906 0.092789136 0.09165741 -0.27970996 0.055538025 -0.0147465905
-0.05407667 -0.24042289 -0.15011685 0.16744643 -0.1684828 0.7998546 0.008536471 0.030458156
0.19895956 0.6409715 0.060674015 0.49880835 0.7864656 -0.14536478 0.5397128 0.06570588
0.645869 -0.8678966 -0.22445095 -0.25090542 0.11844374 0.07526084 0.010072591 -0.12741935
-0.031478375 -0.059065424 -0.299253 0.15077433 0.012092562 -0.16572407 0.06643378 -0.13204554
-0.09413181 0.2633056 -0.22998747 -0.062326647 0.9207689 -0.74650556 0.046892982 -0.5319827
0.31769848 -0.05449959 -0.06490514 0.39832953 0.15544942 -0.3848756 0.05425745 -0.43892762
-0.25906017 -0.016944988 -0.15474227 0.31316736 0.63473696 -0.07290273 0.08025908 0.6666029
0.09726551 0.010090266 0.11454724 -0.27314377 0.12223512 0.27672312 0.061224163 -0.104649104
0.11537838 0.7104392 -0.33842725 0.46615383 0.32067877 -0.1558399 -0.51642156 -0.17524934
-0.1222555 -0.565405 0.37727627 -0.016187126 0.027748533 0.005163344 0.3061101 -0.16686307
-0.20013356 0.2137731 -0.31470045 -0.11921937 0.238893 -0.01586445 0.30160597 -0.27008864
0.49058232 -0.2910648 0.7250752 -0.6273845 -0.20517401 0.7233315 -0.3844562 -0.26913905
0.63049775 0.05990956 0.54692215 0.41615435 -0.7792141 0.27305573 -0.5238437 -0.14438677
0.0035047797 -0.03933877 -0.36268535 0.33733577 0.23953804 0.16116725 -0.31247547 -0.08212135
0.47539672 -0.29771242 0.27696782 0.10773774 -0.7729336 0.29880115 -0.16651373 0.11021758
0.076786734 0.5719423 -0.27149054 -0.2218848 0.4591397 -0.91226155 0.70558727 0.0015343232
0.30832502 -0.16680753 -0.158831 -0.34147164 -0.100313224 0.09541266 0.5087703 0.41041723
0.39393708 0.30238396 0.21684289 -0.076293625 -0.41760975 -0.13898799 0.37905428 -0.39856574
00000000: dccc 4a3d 8375 dc3e 17f1 aabe 011e 2f3b
00000010: c600 0fbd ac3e 9ebd 23da 923d 1ed5 ba3e
00000020: a04d c63e e446 59bc 9b44 fc3e d208 7fbe
00000030: e291 03bf acdc b73d 8dc2 c3be 2d6c bfbe
00000040: 4a81 0dbe 4589 d9bc 028a c53e 1bb8 84be
00000050: 1a5a 60bf 390d 103f 0973 72be 0a78 1d3f
00000060: 0b7e b6bc 56c2 f5bd 5c96 203e 6fd7 b53e
00000070: 69c4 b83d 5b1c 15be 43d0 463e 4c69 b23e
00000080: f46d 393e 8f0c 0f3f 9e72 b93e bee4 8ebd
00000090: 15b1 39be a516 46bd 9914 87be 4429 0b3e
000000a0: 8d1c a53e 11bc 43bd b4a5 82bc 5bb8 013e
000000b0: 8c77 0ebf 923e 50be eb88 023e 8f08 81bd
000000c0: 0ff0 423b b081 913d e426 dabd f3b0 ff3e
000000d0: 9994 e2bc 410e 9c3e 9ecf 543e 2848 553e
000000e0: 628e 143e 8120 cf3e 6e40 49bf b722 08be
000000f0: 54bc e5be d817 edbe d887 d2be 438e ea3d
00000100: 987f 043e cd58 17be 794f ceb9 d138 2a3e
00000110: 8f96 86bd cfa1 ecbd 1ae6 16bd 9d66 afbe
00000120: 2212 033f 03af c93d eb46 e7bc a816 b8bc
00000130: 8703 16be 76f9 c63e 8410 e43e 99f3 e33d
00000140: 6c2b 55bd 4a95 0c3e 59ee 9bbe 5031 673a
00000150: 4f4e 1a3f 716f 9d3d d144 713d c411 5dbe
00000160: 6dae 6a3e 996a 843e 2636 15be 4367 33bd
00000170: f6cd 113f 055f 513e c59d 04be a2ea ed3e
00000180: 93ec dbbe a84b 34be 5a74 da3c 7b47 ea3d
00000190: 3728 8b3e c696 77bd bd00 8ebe f40f 7b3d
000001a0: 2260 4dbd e2b6 27bd 2226 99be 3b08 be3d
000001b0: e1b6 bb3d 2536 8fbe d77b 633d af9b 71bc
000001c0: 807f 5dbd 6b31 76be 3bb8 19be 1477 2b3e
000001d0: c186 2cbe 45c3 4c3f 8edc 0b3c 6283 f93c
000001e0: 0ebc 4b3e b516 243f 5185 783d cf63 ff3e
000001f0: cf55 493f 81da 14be 9e2a 0a3f ce90 863d
00000200: ac57 253f 792e 5ebf 78d6 65be ad76 80be
00000210: a292 f23d 5b22 9a3d 8207 253c 387a 02be
00000220: 78ef 00bd 96ee 71bd b037 99be 9664 1a3e
00000230: e21f 463c 92b3 29be 6f0e 883d f236 07be
00000240: 2ec8 c0bd fecf 863e d681 6bbe 3a4a 7fbd
00000250: 83b7 6b3f fd1a 3fbf db12 403d 0530 08bf
00000260: 60a9 a23e f63a 5fbd fcec 84bd d9f1 cb3e
00000270: 222e 1f3e 6a0e c5be 0f3d 5e3d 1fbb e0be
00000280: 89a3 84be 37d0 8abc c274 1ebe 7957 a03e
00000290: 1f7e 223f 074e 95bd df5e a43d 7da6 2a3f
000002a0: 2433 c73d a551 253c be97 ea3d 80d9 8bbe
000002b0: 6856 fa3d a7ae 8d3e 30c6 7a3d 4552 d6bd
000002c0: 804b ec3d 58df 353f 5646 adbe b7ab ee3e
000002d0: 0230 a43e 7f94 1fbe 3434 04bf 9074 33be
000002e0: 1761 fabd 62be 10bf 5b2a c13e dd9a 84bc
000002f0: e450 e33c 4531 a93b 77ba 9c3e 27de 2abe
00000300: d0ef 4cbe 56e7 5a3e 6b20 a1be 4929 f4bd
00000310: 5ea0 743e 2af6 81bc 196c 9a3e 0f49 8abe
00000320: 9b2d fb3e 7206 95be 879e 393f 459c 20bf
00000330: 2319 52be 412c 393f 71d7 c4be 98cc 89be
00000340: 4d68 213f ba63 753d 1703 0c3f 2f12 d53e
00000350: 937a 47bf f6cd 8b3e 9f1a 06bf 20da 13be
00000360: 72b0 653b b121 21bd e5b1 b9be 46b7 ac3e
00000370: 7649 753e 0709 253e c9fc 9fbe 3d2f a8bd
00000380: 3367 f33e c36d 98be bace 8d3e 9ba5 dc3d
00000390: fade 45bf 77fc 983e 9382 2abe c1b9 e13d
000003a0: 5d42 9d3d d06a 123f cf00 8bbe c535 63be
000003b0: 5c14 eb3e f989 69bf 5ea1 343f 581b c93a
000003c0: c7dc 9d3e 98cf 2abe 98a4 22be 5fd5 aebe
000003d0: 0571 cdbd b667 c33d c53e 023f 3522 d23e
000003e0: 1fb2 c93e 12d2 9a3e 100c 5e3e d53f 9cbd
000003f0: f2d0 d5be de52 0ebe 6713 c23e cf10 ccbe

architecture.2.bias f4 [64]
-1.3870274 0.08512594 1.0308518 -0.88653195 -0.5322121 -0.5608203 0.55416834 -0.4665585
-0.1312912 -0.51890737 -0.23939653 0.106334336 0.087616146 -0.4728236 0.4767937 0.1348986
0.6097015 0.6400471 2.0158823 0.6353332 -0.5233792 0.065173715 -0.13509311 -0.85995805
-1.0338359 0.4480611 0.009974269 0.24782889 2.1016161 -0.34114507 0.49658805 0.37627345
-0.24133219 -0.57829964 0.5561127 0.06738693 -0.3878709 0.017774591 -0.61281806 1.1842091
-1.7638277 0.24729517 -0.38680986 -0.19622104 0.37583128 1.2750297 -1.7662829 0.27948353
0.36508507 -0.40392554 -0.9495755 -0.5190867 0.24410985 0.19565856 -1.0000901 1.906194
-0.0944986 0.2928888 0.15022898 -0.0080264155 -0.12530437 0.121733256 0.06978023 -0.866823
00000000: 1d8a b1bf 8256 ae3d f4f2 833f c2f3 62bf
00000010: 0d3f 08bf eb91 0fbf fadd 0d3f c1e0 eebe
00000020: 3371 06be 1dd7 04bf 5d24 75be d1c5 d93d
00000030: 1870 b33d ef15 f2be 4e1e f43e dc22 0a3e
00000040: 6615 1c3f 20da 233f 3704 0140 32a5 223f
00000050: 2efc 05bf cc79 853d d955 0abe 3626 5cbf
00000060: bc54 84bf 4468 e53e 1e6b 233c dbc6 7d3e
00000070: e180 0640 91aa aebe ca40 fe3e eaa6 c03e
00000080: c91f 77be 720b 14bf 675d 0e3f 2902 8a3d
00000090: 0497 c6be 059c 913c a5e1 1cbf 2a94 973f
000000a0: 1bc5 e1bf f23a 7d3e f10b c6be 2bee 48be
000000b0: f56c c03e 2c34 a33f 8f15 e2bf 7718 8f3e
000000c0: 6eec ba3e 54cf cebe 6117 73bf dee2 04bf
000000d0: eff7 793e b85a 483e f402 80bf 2afe f33f
000000e0: 7b88 c1bd 85f5 953e a0d5 193e 3a81 03bc
000000f0: ca4f 00be 494f f93d f0e8 8e3d 1de8 5dbf

architecture.4.weight f4 [9, 64]
-0.02412577 0.08380428 -0.029225476 -0.016745646 0.027200151 -0.03772681 -0.03001388 0.0019052984
-0.0016430067 -0.018985461 0.004775123 0.004195394 0.051583167 -0.007122258 -0.006414507 0.0025559266
-0.00030245542 -0.0072131506 0.031745676 -0.0018538189 0.009950945 -0.01286128 -0.010946372 -0.02452727
0.004452923 0.0022562847 -0.0126565425 -0.0050166105 0.051847223 0.003715069 -0.006365123 -9.97851e-06
-0.10866334 -0.0015334669 0.01957154 -0.010558289 0.0068000318 0.0012881906 0.010546423 0.048358418
-0.0014882977 0.010536869 -0.05003622 -0.012588237 0.0098795425 -0.05815215 -0.02226852 -0.02088832
0.01548804 0.0029890742 0.029530788 -0.018371422 0.009068552 -0.005513355 0.004210774 -0.012554693
-0.03777163 -0.01895974 -0.0124541605 -0.0046994668 0.0011281637 -0.011184518 0.0032784187 0.06448809
-0.068003446 0.06667356 -0.015085027 -0.007168071 -0.011375573 0.0013909341 -0.07607239 -0.00027700712
0.0028720158 0.07468579 0.007509753 -0.002423413 0.09482447 0.012732687 0.0013030564 -0.0034992537
0.017517464 0.008627791 0.013335813 -0.0019652746 -0.0058767125 0.030270651 -0.062248573 -0.024834981
0.034063037 -0.0013396329 0.0019556482 0.014729385 -0.014370851 0.0014330919 0.00853847 -0.014622885
0.051450573 -0.014662173 0.00021198636 0.016303537 0.007827449 0.00012533092 0.034138113 0.032511964
-0.0038613826 -0.0060090595 -0.042630963 -0.0016074876 0.013944602 -0.045120962 0.010450363 -0.026581734
-0.07596984 -0.014227399 -0.014709298 0.0459057 -0.016395982 0.0060323738 0.022815464 -0.022446144
0.037697326 0.018566003 0.0023480768 -0.0061457683 -0.006989975 0.013724996 0.012936761 0.023303097
0.029798135 -0.1513082 0.00056881114 -0.02500816 -0.0036112736 0.007525486 -0.017324848 -0.001595348
-0.011280139 -0.01994468 -0.00092529133 -0.004030788 0.034337044 0.00068155007 -0.006420801 -0.008606698
0.022995306 -0.002484052 -0.12369139 -0.016408065 0.020767232 -0.02125602 -0.054841977 0.0017908039
-0.016831055 0.011117005 -0.003453116 -0.006474595 0.14305124 -0.0015242652 -0.012688468 -0.006347881
-0.0627063 -0.025456453 -0.016190145 -0.018498097 0.014357858 -0.0045504007 0.009810496 0.0062831445
-0.006004489 0.0012788151 -0.04568214 -0.012224236 -0.004975327 0.01638186 -0.016498169 -0.0073505295
-0.029492326 0.008342082 -0.024311386 0.06092472 -0.004051947 0.0025867056 -0.015138897 -0.005923484
-0.019964337 0.005788636 0.008283855 -0.0068348404 -0.00030389207 -0.010590325 0.006947875 0.009007466
-0.6381773 0.07327694 0.5408456 -0.4099266 -0.047209725 -0.131723 0.07421545 -0.23304571
-0.26479164 0.029815523 -0.14652292 0.03151813 -0.016391879 -0.47723976 0.078261435 0.14684439
0.25779232 0.44161808 0.66106105 0.19937088 -0.48468992 -0.038514905 -0.064325266 -0.5468486
-0.5445654 0.30266634 -0.015150966 0.06791932 0.55901647 -0.21949877 0.2297513 0.09073246
-0.14289501 -0.18375194 0.32299766 -0.23789608 -0.116513945 -0.027590845 -0.30805522 0.22233887
-0.47884056 0.010540019 -0.10001127 0.11222737 0.5157801 0.6748911 -0.2627134 0.04082326
-0.055624224 -0.07761687 -0.22015168 -0.1519814 0.026696268 0.026823474 -0.5525051 0.47965848
-0.09225996 0.025324944 0.26895532 -0.011003745 0.011444515 0.076904245 -0.2225841 -0.26796022
00000000: 68a3 c5bc 94a1 ab3d 446a efbc 2a2e 89bc
00000010: dad2 de3c 6d87 1abd abdf f5bc 35bb f93a
00000020: 285a d7ba 6687 9bbc a378 9c3b 8479 893b
00000030: df48 533d d561 e9bb c930 d2bb 5581 273b
00000040: e192 9eb9 4b5c ecbb c107 023d d7fb f2ba
00000050: 4a09 233c 1eb8 52bc 6958 33bc 6aed c8bc
00000060: d3e9 913b 2dde 133b 635d 4fbc 6162 a4bb
00000070: c15d 543d 8478 733b 8692 d0bb 6069 27b7
00000080: e38a debd 9cfe c8ba 7f54 a03c acfc 2cbc
00000090: cdd2 de3b 81d8 a83a e7ca 2c3c 7a13 463d
000000a0: fc12 c3ba d5a2 2c3c c8f2 4cbd e53e 4ebc
000000b0: cedd 213c f330 6ebd 796c b6bc fb1d abbc
000000c0: 8cc1 7d3c 58e4 433b 8dea f13c aa7f 96bc
000000d0: 4494 143c 60a9 b4bb 88fa 893b 33b2 4dbc
000000e0: 6db6 1abd 7551 9bbc 890c 4cbc fcfd 99bb
000000f0: e4de 933a 453f 37bc bdda 563b 5512 843d
00000100: 6445 8bbd 268c 883d 3027 77bc 23e2 eabb
00000110: 9d60 3abc 0150 b63a d7cb 9bbd 443b 91b9
00000120: 6e38 3c3b ddf4 983d 6014 f63b 20d2 1ebb
00000130: 5533 c23d c39c 503c 51cb aa3a bc53 65bb
00000140: c980 8f3c 945b 0d3c 747e 5a3c d6cb 00bb
00000150: 7091 c0bb 28fa f73c 5cf8 7ebd bb72 cbbc
00000160: af85 0b3d 9f96 afba 552a 003b 8553 713c
00000170: b873 6bbc 96d6 bb3a f0e4 0b3c d394 6fbc
00000180: d6bd 523d 9c39 70bc a848 5e39 ff8e 853c
00000190: b33e 003c 436b 0339 68d4 0b3d 442b 053d
000001a0: 400f 7dbb a5e7 c4bb ce9d 2ebd 55b2 d2ba
000001b0: e677 643c c2d0 38bd 0038 2b3c f0c1 d9bc
000001c0: 1396 9bbd 091a 69bc 44ff 70bc 9e07 3c3d
000001d0: de50 86bc 38ab c53b 7fe7 ba3c fae0 b7bc
000001e0: 8368 1a3d bb17 983c 31e2 193b 7162 c9bb
000001f0: 290c e5bb cede 603c b5f4 533c 23e6 be3c
00000200: 381b f43c 89f0 1abe 451c 153a eadd ccbc
00000210: 1eab 6cbb 5a98 f63b d7ec 8dbc ff1a d1ba
00000220: 55d0 38bc 0763 a3bc 408f 72ba b314 84bb
00000230: 00a5 0c3d 0daa 323a 9565 d2bb 1c03 0dbc
00000240: a760 bc3c 7acb 22bb e951 fdbd 356a 86bc
00000250: 0b20 aa3c 1b21 aebc fba1 60bd 68b9 ea3a
00000260: 48e1 89bc 1924 363c ac4d 62bb d728 d4bb
00000270: 067c 123e dac9 c7ba 4be3 4fbc e301 d0bb
00000280: 296c 80bd 0d8a d0bc 32a1 84bc 5289 97bc
00000290: 393d 6b3c 871b 95bb 34bc 203c d6e2 cd3b
000002a0: 4ec1 c4bb ea9d a73a 321d 3bbd 2948 48bc
000002b0: 1108 a3bb 4033 863c 2b27 87bc b6dc f0bb
000002c0: e499 f1bc 3aad 083c ac28 c7bc 338c 793d
000002d0: 32c6 84bb b885 293b 2309 78bc c919 c2bb
000002e0: 408c a3bc 99ae bd3b 02b9 073c ccf6 dfbb
000002f0: b453 9fb9 0b83 2dbc 00ab e33b 0d94 133c
00000300: 965f 23bf 3812 963d db74 0a3f e6e1 d1be
00000310: fc5e 41bd 65e2 06be 45fe 973d 89a3 6ebe
00000320: c592 87be af3f f43c 1b0a 16be 2819 013d
00000330: 4348 86bc c558 f4be 8847 a03d 605e 163e
00000340: 5bfd 833e c41b e23e 4c3b 293f e127 4c3e
00000350: 4729 f8be cec1 1dbd f7bc 83bd 45fe 0bbf
00000360: a368 0bbf 15f7 9a3e c23b 78bc 4919 8b3d
00000370: b41b 0f3f 49c4 60be ed43 6b3e f1d1 b93d
00000380: 1253 12be 7829 3cbe f35f a53e 089b 73be
00000390: dd9e eebd 3206 e2bc 6ab9 9dbe cdac 633e
000003a0: 972a f5be 0bb0 2c3c b5d2 ccbd 77d7 e53d
000003b0: 2a0a 043f aac5 2c3f 5f82 86be 4a36 273d
000003c0: 3ad6 63bd 98f5 9ebd 716f 61be 03a1 1bbe
000003d0: 22b2 da3c e7bc db3c f970 0dbf cc95 f53e
000003e0: caf2 bcbd 4276 cf3c 83b4 893e 0d49 34bc
000003f0: c681 3b3c f97f 9d3d 16ed 63be 1532 89be

architecture.4.bias f4 [9]
-0.055737823 -0.000190217 -0.056022804 0.8474646 0.10620469 -0.05793083 -0.049786363 0.6892066
-0.16136813
00000000: 584d 64bd fd74 47b9 2b78 65bd 71f3 583f
00000010: d881 d93d e148 6dbd c9ec 4bbd d86f 303f
00000020: b03d 25be

std f4 [9]
0.2 0.2 0.2 0.31412473 0.2 0.2 0.23286189 0.3446844
0.2
00000000: cdcc 4c3e cdcc 4c3e cdcc 4c3e f5d4 a03e
00000010: cdcc 4c3e cdcc 4c3e 5973 6e3e 797a b03e
00000020: cdcc 4c3e

architecture.0.weight f4 [64, 27]
-0.015151934 -0.031583562 -0.027871994 0.2821612 0.9840569 -0.23123917 -0.95169353 -0.66408634
-1.0752388 -0.15707937 0.11440548 0.12489956 -0.01842343 0.17975451 -0.038502004 0.10635431
-0.06848658 -2.4313376 -0.21555823 -1.2154042 0.38940492 0.86677563 0.5051208 1.034371
0.09883077 -0.13088214 -0.14183594 0.062543005 -0.008855893 0.00581356 -0.07661664 -0.14300025
0.5410754 -0.26822606 -0.7269049 0.034176547 -0.10332436 -0.18474059 -0.33466923 0.13956638
0.036841087 -0.2033823 0.14912717 -0.027179714 -0.03271427 -0.07855521 0.19133796 0.05906683
0.2726229 0.5908266 0.030983059 0.15019551 -0.027567795 -0.18012288 -0.12257946 0.021219382
0.05107878 0.262071 -0.5626691 0.79973495 0.6884687 0.77444345 -0.57758427 0.113051966
-0.06456869 0.086313665 -0.08850327 -0.08147217 0.01565011 0.06479374 -0.19486338 -0.25153264
-0.25024515 0.5439934 -0.6817244 -0.68049985 -0.8189834 0.63793963 -0.13340878 0.039146256
-0.15184489 -0.063815184 0.0076826247 0.38321358 -0.40749952 0.14261372 0.09714635 0.12934186
-0.31186873 0.14007643 -0.23489082 0.27874467 0.18810095 0.011318865 -0.010280085 0.0061361277
-0.011889897 -0.033923317 0.0021366822 0.45313627 -0.104355685 -0.0934322 -0.16574717 0.20415212
-0.13597308 0.21292038 -0.26105762 -0.23758212 0.004136555 -0.014163809 0.03733261 0.22875084
-0.030975528 -0.4193587 -0.184604 0.054713424 -0.12248295 0.1684502 -0.123890765 -0.044556975
-0.19665541 0.015116475 -0.33005613 0.05952867 -0.070568755 0.011763662 -0.012209199 -0.16220652
-0.003917965 0.05163236 -0.15865089 0.22056396 0.09399558 -0.08733627 -0.35284123 -0.023150688
0.010213999 -0.004358185 0.012692487 0.0135270115 0.071842596 -0.045866422 0.012580431 0.027323047
0.0066852355 -0.016598063 0.15192963 0.58528185 0.36790317 1.5144945 0.008473933 -0.012215635
-0.17951186 0.0187367 -0.027130919 0.004791368 0.067879565 0.037180457 0.03845202 -0.027554106
-0.036067255 0.025106525 -0.003860189 0.02593939 0.017689254 -0.013925335 0.10539556 0.015131927
-0.0794966 0.022911793 0.02026647 0.015755009 -0.07145734 -0.0072673815 -0.0899955 -0.16357325
0.06475318 -0.022676732 -0.0014718106 0.06692677 0.09405525 0.03923649 0.17366071 0.10505832
0.16395737 0.037396964 0.03861501 -0.011233076 0.13786007 -0.007394424 0.029965896 0.01226684
0.06529568 0.021861756 0.0746431 0.009776981 0.037299763 -0.04409786 0.06137979 0.024863891
-0.026499728 0.8207925 -0.9232593 0.06552784 0.08206583 0.0010874968 -0.19504592 -0.0568874
-0.018430509 -0.005198786 0.0029397213 -0.034318298 -0.019078648 -0.0013613559 -0.06991724 0.0034865544
-0.013608791 0.013939299 -0.079235084 -0.24777508 0.31267706 -0.33197802 0.09127723 0.031651426
0.21510711 -0.4616509 0.24630035 -0.56149024 -0.073886685 0.064854495 -0.28925374 -0.025846696
0.12017276 0.12398771 -0.03515431 -0.0807849 0.19253585 0.14456736 0.083889656 0.052854683
-0.06231364 0.093342 -0.42502323 0.3185764 -0.1496259 -0.083189525 0.008331742 0.35998705
-0.076739155 0.18219447 -0.2165004 0.30139267 0.31913424 -0.20703806 0.5222561 0.014802117
00000000: d13f 78bc c45d 01bd cf53 e4bc 6f77 903e
00000010: 27eb 7b3f f6c9 6cbe 30a2 73bf 9001 2abf
00000020: 6da1 89bf 6ad9 20be 6c4d ea3d 57cb ff3d
00000030: bcec 96bc 9111 383e 47b4 1dbd 4ad0 d93d
00000040: b142 8cbd 099b 1bc0 4cbb 5cbe 5d92 9bbf
00000050: 1560 c73e 02e5 5d3f 994f 013f 4566 843f
00000060: c967 ca3d f805 06be 713d 11be 8c16 803d
00000070: 4f18 11bc ad7f be3b 2fe9 9cbd a86e 12be
00000080: eb83 0a3f ed54 89be 7116 3abf b5fc 0b3d
00000090: b99b d3bd a32c 3dbe c459 abbe 7dea 0e3e
000000a0: aee6 163d 7343 50be cbb4 183e fea7 debc
000000b0: 66ff 05bd 8ee1 a0bd 19ee 433e 0ff0 713d
000000c0: 3b95 8b3e 6940 173f 2fd0 fd3c dacc 193e
000000d0: dbd5 e1bc 2272 38be f10a fbbd 45d4 ad3c
000000e0: fc37 513d 2c2e 863e 150b 10bf 6ebb 4c3f
000000f0: 7c3f 303f ed41 463f 90dc 13bf ca87 e73d
00000100: 973c 84bd 38c5 b03d 3441 b5bd e2da a6bd
00000110: a934 803c 95b2 843d 448a 47be e3c8 80be
00000120: 2220 80be 2743 0b3f 7e85 2ebf 3d35 2ebf
00000130: e5a8 51bf 0350 233f 509c 08be d357 203d
00000140: 3a7d 1bbe 89b1 82bd 87be fb3b 9234 c43e
00000150: c7a3 d0be 5509 123e aaf4 c63d 3172 043e
00000160: 42ad 9fbe 3270 0f3e 3887 70be 9fb7 8e3e
00000170: 899d 403e c372 393c cd6d 28bc 9211 c93b
00000180: d8cd 42bc 2df3 0abd 9407 0c3b 7a01 e83e
00000190: 6fb8 d5bd 6259 bfbd a0b9 29be 410d 513e
000001a0: 873c 0bbe cd07 5a3e 58a9 85be ba48 73be
000001b0: f08b 873b 520f 68bc 14ea 183d a93d 6a3e
000001c0: 64c0 fdbc 2fb6 d6be d508 3dbe 2f1b 603d
000001d0: 57d8 fabd 367e 2c3e 71ba fdbd 6081 36bd
000001e0: 0960 49be 17ab 773c 1efd a8be 56d4 733d
000001f0: 5a86 90bd 60bc 403c 1809 48bc 7719 26be
00000200: 4662 80bb 747c 533d 6175 22be 85db 613e
00000210: c180 c03d 5cdd b2bd 9ba7 b4be 83a6 bdbc
00000220: 9e58 273c 1bcf 8ebb 26f4 4f3c 66a0 5d3c
00000230: 3622 933d 6ede 3bbd 271e 4e3c 95d4 df3c
00000240: d20f db3b a9f8 87bc 7193 1b3e 08d5 153f
00000250: ce5d bc3e f5da c13f 40d6 0a3c 1624 48bc
00000260: f5d1 37be b57d 993c a941 debc e800 9d3b
00000270: 7104 8b3d 894a 183d de7f 1d3d 26b9 e1bc
00000280: 42bb 13bd 33ac cd3c 3afb 7cbb d87e d43c
00000290: 0ee9 903c 1727 64bc a1d9 d73d e7eb 773c
000002a0: 1dcf a2bd 83b1 bb3c de05 a63c a610 813c
000002b0: 3a58 92bd 3723 eebb 904f b8bd bf7f 27be
000002c0: 519d 843d 8ec4 b9bc c5e9 c0ba e710 893d
000002d0: 0aa0 c03d 71b6 203d 1dd4 313e d128 d73d
000002e0: 71e4 273e 8f2d 193d c62a 1e3d f00a 38bc
000002f0: 312b 0d3e ed4c f2bb 0a7b f53c dbfa 483c
00000300: beb9 853d 6d17 b33c 7bde 983d a12f 203c
00000310: a3c7 183d f59f 34bd 6069 7b3d 5caf cb3c
00000320: f515 d9bc 751f 523f b95a 6cbf 7633 863d
00000330: 2112 a83d 568a 8e3a 1eba 47be c302 69bd
00000340: 94fb 96bc 945a aabb 57a8 403b 5891 0cbd
00000350: d34a 9cbc 866f b2ba c530 8fbd ad7e 643b
00000360: 68f7 5ebc a861 643c 0146 a2bd c0b8 7dbe
00000370: 3517 a03e 06f9 a9be 8eef ba3d eda4 013d
00000380: 0a45 5c3e 825d ecbe 2936 7c3e d3bd 0fbf
00000390: e751 97bd 6fd2 843d 1119 94be 73bc d3bc
000003a0: 231d f63d 45ed fd3d f7fd 0fbd 8e72 a5bd
000003b0: 1e28 453e 7709 143e 57ce ab3d 277e 583d
000003c0: 963c 7fbd 172a bf3d a59c d9be 721c a33e
000003d0: 8837 19be 455f aabd dc81 083c 3950 b83e
000003e0: 6b29 9dbd 3091 3a3e 48b2 5dbe 2450 9a3e
000003f0: 9065 a33e c901 54be 93b2 053f 9484 723c

architecture.0.bias f4 [64]
0.123502254 -1.249245 0.039558113 1.4292836 1.2949986 -0.85894394 -1.782316 0.8811625
0.41610637 1.4282686 -0.4320241 0.8538335 1.1322759 0.6007418 -1.348411 1.2141156
0.11278745 0.3518805 -1.1287109 -1.4107022 -1.5731442 -1.577395 -1.3715062 0.03255673
-0.9750534 0.6242874 -1.2805431 -0.857562 -0.85156375 -1.2060065 -1.4987972 -1.0926625
-1.417447 -0.059717562 -0.6246894 1.3526983 0.9269771 -0.45307976 -1.2196795 -0.025415644
0.49288592 1.376437 -0.7942839 0.22738682 -0.0050672675 -1.2279229 0.8229351 0.9274683
-0.11871196 0.6817034 -1.2139739 1.2503244 -1.4839134 1.7145396 0.2477063 -1.3449872
-1.3935478 1.3852586 0.01839072 -1.0988979 -0.0016602371 0.04070213 -0.58305067 0.014829407
00000000: c0ee fc3d 43e7 9fbf b007 223d c4f2 b63f
00000010: 84c2 a53f c0e3 5bbf ee22 e4bf de93 613f
00000020: e50b d53e 81d1 b63f 4332 ddbe d594 5a3f
00000030: 6bee 903f 37ca 193f bb98 acbf 2468 9b3f
00000040: 1bfd e63d ae29 b43e 9979 90bf e491 b4bf
00000050: ca5c c9bf 14e8 c9bf 848d afbf 355a 053d
00000060: 1a9d 79bf 4dd1 1f3f d6e8 a3bf 2f89 5bbf
00000070: 1500 5abf 6c5e 9abf 96d8 bfbf 5ddc 8bbf
00000080: e76e b5bf 679a 74bd a5eb 1fbf 3825 ad3f
00000090: 5f4e 6d3f 12fa e7be 751e 9cbf 7834 d0bc
000000a0: 8b5b fc3e 162f b03f 3156 4bbf 17d8 683e
000000b0: 520b a6bb 942c 9dbf e0ab 523f 906e 6d3f
000000c0: 421f f3bd 1d84 2e3f 7f63 9bbf a10a a03f
000000d0: e0f0 bdbf 0976 db3f b8a6 7d3e 8a28 acbf
000000e0: c65f b2bf 2750 b13f 23a8 963c b0a8 8cbf
000000f0: 509c d9ba 47b7 263d cf42 15bf 0bf7 723c

architecture.2.weight f4 [64, 64]
-0.1461615 -0.51769394 0.3326582 -0.6731373 0.4516417 -0.08639086 0.27963758 0.09432734
0.17633241 -0.71233124 -0.33204338 0.3429841 -0.20886886 0.10322555 0.4338818 0.07736566
0.021546535 -0.32094255 0.3159109 0.055977985 0.2042944 -0.47191462 0.47390404 -0.03923842
-0.0028904995 -0.03979226 0.5528119 -0.14322199 -0.01610295 0.31813887 0.10595165 0.1365327
0.90437055 0.18251301 -0.013789467 0.017705813 0.1730419 -0.22555196 0.14742088 0.15654197
0.1034802 0.19124429 0.15464807 1.099466 -0.08943691 0.56101817 0.7509091 0.19627127
-0.08505817 0.0815079 -0.009351491 0.051675264 -0.15473773 0.1745502 0.19336827 0.4601224
0.12138692 -0.23496155 -0.6380989 0.12769838 0.053469166 0.6095679 -0.12525511 -0.05267521
-0.37578312 -0.71115863 0.37217042 0.6822644 0.5309678 -0.5328956 -0.9222262 0.39482644
0.40546528 0.4113397 -0.5765906 0.40859103 0.19339234 0.19633326 -0.48984194 0.24417718
0.026763678 0.342187 -0.50473493 -1.0028977 -0.5377598 -1.0534878 -0.5482232 -0.05080778
-0.2830834 -0.10129297 -0.4181434 0.30541512 -0.3002356 -0.6679158 -0.48553213 -0.5538782
-0.6889033 0.25563848 -0.55332816 0.5026182 0.25897938 -0.41930953 -0.19460636 -0.10837536
0.17757118 0.4936605 -0.35030907 -0.0020101068 -0.20825814 0.03845665 -0.14987849 0.3097055
-0.21688554 0.15646815 -0.47502658 -0.01701685 -0.59116256 0.73878324 0.0070599974 -0.6515808
-0.33958483 0.82753265 -0.29848233 -0.49974257 -0.15263265 -0.27799988 0.0920853 -0.026684375
0.5282464 0.66954273 -0.4527134 -0.97613883 -0.33285728 0.61096007 0.64145625 -0.6054704
-0.4312989 -0.66798574 0.36520866 -0.31772476 -0.19019474 -0.39068392 0.50731874 -0.5460143
-0.21037365 -0.22861184 0.8172664 0.7443873 0.2181849 0.8993512 0.24505131 -0.11502482
0.31041014 -0.04853964 0.39836648 -0.14753957 0.11304135 0.5660407 0.7302741 0.55678314
0.8362061 -0.026351295 0.5449894 -0.35844433 -0.3040272 0.6420501 -0.113767594 0.30643228
0.09360333 -0.8479089 0.44037342 -0.034279633 -0.15857932 -0.11211308 -0.032597203 -0.50653857
0.030869093 -0.1307147 0.015617221 -0.37765333 0.58259106 -0.7079044 -0.13308184 0.11475875
0.66290957 -1.4243416 0.4338791 0.78755635 0.2512334 0.4465225 -0.10178141 0.013831129
-0.09948432 -0.36862093 -0.042729113 0.90131557 -0.0071036075 -0.0039240704 0.3724109 0.031367335
0.4268156 0.5962661 -0.036971677 0.31290743 0.21833023 -0.39535522 -0.43836075 0.06398098
0.42576975 -0.9243257 -0.3996495 0.9095008 0.53009295 0.2934075 -0.38197765 0.1062543
0.5263991 -0.14983854 -0.80165213 0.011504105 0.23106329 0.6001929 -0.24516545 0.22335632
-0.7749342 -0.25993115 0.34536654 0.2995741 0.12026956 0.12141861 0.1411089 0.38394234
0.20455372 0.9282467 0.020669224 0.27290028 0.75008386 -0.59679204 0.20288913 -0.04525407
-0.13178438 -0.2855583 -0.024076322 0.008290774 0.4564836 -0.65006876 -0.014563906 -0.21677165
0.2257595 0.36775842 -0.70390254 -0.034375753 0.16763528 0.23983638 -0.40550002 -0.22628021
00000000: 5cab 15be 9787 04bf 2d52 aa3e ba52 2cbf
00000010: 953d e73e b1ed b0bd a82c 8f3e b12e c13d
00000020: 7c90 343e 575b 36bf 9701 aabe 9d9b af3e
00000030: b8e1 55be eb67 d33d c125 de3e e371 9e3d
00000040: 5c82 b03c 9552 a4be 13bf a13e 2c49 653d
00000050: 8d32 513e cb9e f1be 8da3 f23e 77b8 20bd
00000060: 896e 3dbb 35fd 22bd 1585 0d3f c9a8 12be
00000070: 55ea 83bc 19e3 a23e 2efd d83d 3acf 0b3e
00000080: d484 673f b1e4 3a3e 37ed 61bc c80b 913c
00000090: e531 313e 18f7 66be 80f5 163e 8a4c 203e
000000a0: 6ded d33d 8bd5 433e 105c 1e3e 4dbb 8c3f
000000b0: b32a b7bd e39e 0f3f 943b 403f 56fb 483e
000000c0: fa32 aebd 9ded a63d ff36 19bc 71a9 533d
000000d0: 9173 1ebe 4abd 323e 5502 463e 2a95 eb3e
000000e0: b599 f83d c399 70be 735a 23bf 5dc3 023e
000000f0: 7c02 5b3d a40c 1c3f e042 00be f6c1 57bd
00000100: a566 c0be 7e0e 36bf 1f8d be3e e1a8 2e3f
00000110: 81ed 073f d96b 08bf 0417 6cbf b126 ca3e
00000120: 2599 cf3e 1e9b d23e 719b 13bf d832 d13e
00000130: a408 463e 960b 493e 90cc fabe 9509 7a3e
00000140: 803f db3c 2233 af3e 4f36 01bf f45e 80bf
00000150: a0aa 09bf b0d8 86bf 5b58 0cbf d21b 50bd
00000160: 4ff0 90be b072 cfbd e416 d6be 5f5f 9c3e
00000170: 7bb8 99be 88fc 2abf ab97 f8be f6ca 0dbf
00000180: f75b 30bf 0ce3 823e eaa6 0dbf 96ab 003f
00000190: f298 843e bdaf d6be e446 47be e7f3 ddbd
000001a0: 38d5 353e 12c1 fc3e b65b b3be ffbb 03bb
000001b0: 9f41 55be b884 1d3d bf79 19be b891 9e3e
000001c0: 3e17 5ebe 3039 203e af36 f3be ec66 8bbc
000001d0: 6e56 17bf e620 3d3f 8d57 e73b 00ce 26bf
000001e0: 10de adbe 2ed9 533f add2 98be 42de ffbe
000001f0: bc4b 1cbe 0056 8ebe 3897 bc3d 3199 dabc
00000200: 283b 073f 2767 2b3f 0dca e7be 3ce4 79bf
00000210: 456c aabe e167 1c3f 7a36 243f 1c00 1bbf
00000220: 36d3 dcbe 1d01 2bbf a1fc ba3e d2ac a2be
00000230: 69c2 42be b907 c8be a4df 013f 98c7 0bbf
00000240: 316c 57be 3919 6abe 5f38 513f 2b90 3e3f
00000250: dd6b 5f3e e13b 663f bbee 7a3e 2292 ebbd
00000260: 14ee 9e3e 80d1 46bd b1f6 cb3e 9d14 17be
00000270: 3982 e73d 0be8 103f 3ef3 3a3f 5789 0e3f
00000280: 9a11 563f acde d7bc 6d84 0b3f 0486 b7be
00000290: 74a9 9bbe 655d 243f fcfe e8bd b1e4 9c3e
000002a0: 1ab3 bf3d 8f10 59bf a078 e13e cd68 0cbd
000002b0: 9e62 22be 8b9b e5bd a584 05bd 83ac 01bf
000002c0: 2ee1 fc3c 13da 05be 5fdf 7f3c c75b c1be
000002d0: b024 153f 3939 35bf 9b46 08be a306 eb3d
000002e0: 71b4 293f d350 b6bf 6725 de3e 4b9d 493f
000002f0: aaa1 803e 999e e43e c672 d0bd f69b 623c
00000300: 6fbe cbbd e2bb bcbe b904 2fbd 9ebc 663f
00000310: 61c5 e8bb 7d95 80bb a4ac be3e 097b 003d
00000320: 9387 da3e e5a4 183f 9d6f 17bd 6735 a03e
00000330: f691 5f3e 006c cabe d270 e0be 7608 833d
00000340: 7efe d93e 9ca0 6cbf dc9e ccbe 0bd5 683f
00000350: 2cb4 073f 8239 963e 9392 c3be db9b d93d
00000360: 17c2 063f 466f 19be 1339 4dbf b77b 3c3c
00000370: db9b 6c3e 3ea6 193f a70c 7bbe 85b7 643e
00000380: 1662 46bf b215 85be e2d3 b03e c761 993e
00000390: e34f f63d 52aa f83d da7e 103e 1794 c43e
000003a0: 8876 513e 93a1 6d3f 8152 a93c 96b9 8b3e
000003b0: 7f05 403f 5dc7 18bf 2bc2 4f3e 555c 39bd
000003c0: 7cf2 06be b334 92be b53b c5bc 07d6 073c
000003d0: 38b8 e93e e86a 26bf 739d 6ebc 63f9 5dbe
000003e0: 802d 673e d54a bc3e f532 34bf 97cd 0cbd
000003f0: 95a8 2b3e ab97 753e b39d cfbe 00b6 67be

architecture.2.bias f4 [64]
0.40928686 1.0517428 -1.2694031 -0.45938447 0.24554522 -1.1705171 0.88476485 -0.73393565
-1.2993758 0.77394056 0.7720057 -1.2825899 -1.0916857 0.4835334 0.08784879 0.75389796
1.2503672 0.523068 -0.5819146 1.2242584 0.35204017 -0.9042806 0.47740713 1.2869536
-0.5931468 0.6985358 1.3534995 -0.3410839 -1.0075425 -0.36697719 -1.2427568 0.28632864
-0.93551904 0.40952682 0.6834199 -1.2251496 -1.2656239 1.4498098 -0.66607654 -0.696927
-0.53620785 -1.276436 -0.885902 0.6693257 -1.2189068 0.68290883 -0.49383402 0.9621635
-0.62659043 1.1901438 1.4355055 -0.4711844 -1.2615398 -1.0594231 -0.8967795 0.13831182
0.6242521 0.48402977 -0.43185738 0.94312674 -0.9567719 0.7002824 -1.1720448 1.2371509
00000000: 0c8e d13e 829f 863f cd7b a2bf 7134 ebbe
00000010: 3570 7b3e 81d3 95bf f37f 623f 35e3 3bbf
00000020: f251 a6bf f820 463f 2aa2 453f e82b a4bf
00000030: 5bbc 8bbf b191 f73e 11ea b33d 75ff 403f
00000040: 080c a03f c9e7 053f 5bf8 14bf 80b4 9c3f
00000050: 9c3e b43e ef7e 67bf b56e f43e e5ba a43f
00000060: 78d8 17bf 3ed3 323f 793f ad3f 8da2 aebe
00000070: 27f7 80bf 6fe4 bbbe a812 9fbf ab99 923e
00000080: 2d7e 6fbf 80ad d13e 9bf4 2e3f b4d1 9cbf
00000090: f7ff a1bf 5e93 b93f fe83 2abf cf69 32bf
000000a0: eb44 09bf 4162 a3bf 79ca 62bf ee58 2b3f
000000b0: 2305 9cbf 1dd3 2e3f d0d7 fcbe 5950 763f
000000c0: 3b68 20bf a256 983f a5be b73f 153f f1be
000000d0: 237a a1bf 2d9b 87bf 5793 65bf 9da1 0d3e
000000e0: fcce 1f3f c0d2 f73e 691c ddbe c170 713f
000000f0: 01ef 74bf b545 333f 9005 96bf f65a 9e3f

architecture.4.weight f4 [1, 64]
-8.070753 -5.185994 5.1583586 8.057614 -7.235154 5.1350727 -5.103573 5.1912265
5.2044125 -5.334336 -5.068351 5.239376 5.2325277 -7.7959967 -6.7864766 -6.554286
-5.345207 -7.657185 6.624412 -5.327222 -6.973789 6.355124 -6.7183447 -5.190694
6.7581067 -8.441794 -5.102604 7.4654274 5.353039 6.6305737 5.1612406 8.112002
5.1092467 -7.2219353 -7.661295 5.0866976 5.135889 -5.1193666 4.0966225 5.2095146
6.8129396 5.0664024 4.6752973 -5.3137527 5.224456 -7.826811 6.22751 -5.4165373
6.631313 -5.159031 -5.0860634 7.614067 5.079136 4.0836473 5.171081 -8.309596
-7.9555063 -5.4240656 7.6136036 -5.48976 5.3629017 -5.2561045 5.0340014 -5.255599
00000000: ce21 01c1 aaf3 a5c0 4611 a540 fdeb 0041
00000010: 6286 e7c0 8452 a440 7850 a3c0 871e a640
00000020: 8c8a a640 e1b2 aac0 ee2f a2c0 f8a8 a740
00000030: de70 a740 ce78 f9c0 d12a d9c0 b6bc d1c0
00000040: f00b abc0 a907 f5c0 2ffb d340 9a78 aac0
00000050: 4829 dfc0 2d5d cb40 aefc d6c0 2a1a a6c0
00000060: 6942 d840 9711 07c1 8848 a3c0 c8e4 ee40
00000070: 184c ab40 a92d d440 e228 a540 c3ca 0141
00000080: f37e a340 181a e7c0 5429 f5c0 3ac6 a240
00000090: 3459 a440 dad1 a3c0 8817 8340 58b4 a640
000000a0: 9a03 da40 f81f a240 099c 9540 430a aac0
000000b0: be2e a740 3c75 fac0 c347 c740 4654 adc0
000000c0: b733 d440 c816 a5c0 08c1 a2c0 70a6 f340
000000d0: 4888 a240 3dad 8240 7f79 a540 1bf4 04c1
000000e0: 8293 fec0 f291 adc0 a4a2 f340 1dac afc0
000000f0: e49c ab40 0232 a8c0 8a16 a140 de2d a8c0

exp_avg f4 [64, 27]
-0.0001092582 -2.656414e-06 1.894097e-05 -2.2789287e-05 6.674503e-05 1.9052139e-05 -1.1665529e-05 -9.506714e-05
3.66597e-05 -4.6642548e-05 -6.0408336e-05 -0.00011632438 8.1624945e-05 -5.2340663e-05 -2.0038146e-05 -3.8805112e-05
8.1158305e-06 1.3770193e-05 -2.9322528e-05 7.0031136e-05 3.3386823e-05 -1.766319e-05 -9.713814e-05 4.3812986e-05
-3.488449e-05 -5.648095e-05 -0.00011888289 6.8995564e-07 -3.6786718e-05 8.476199e-06 1.4162775e-05 -2.7695074e-05
-8.156678e-05 3.932735e-05 7.392771e-06 3.211541e-05 -1.1159179e-05 -5.5983755e-06 -1.7303305e-06 -1.6614747e-05
1.488957e-05 1.4822721e-05 -3.79617e-05 -5.578646e-05 -1.4594012e-05 1.0299902e-05 -3.228916e-05 -6.985663e-05
3.845368e-05 9.420598e-06 2.2095532e-05 -1.0402845e-05 -5.032172e-06 2.0807547e-06 -2.4038582e-05 0.000100102225
2.1549975e-05 -2.9453202e-05 2.2226193e-06 3.5567304e-05 -3.8394974e-05 -4.859903e-05 -5.1163537e-05 -5.243609e-05
5.4535296e-05 -2.921517e-05 4.7096615e-05 -0.00010655209 1.1658983e-05 -7.071362e-05 -9.38688e-06 1.8197372e-05
-3.2354037e-05 1.3915472e-05 3.8518316e-05 -5.377355e-05 -3.329904e-05 -5.408799e-05 -3.7645386e-05 7.26428e-05
-1.9919351e-05 -2.0289706e-05 -2.3615083e-05 5.8365866e-05 -0.000118406024 0.00015812485 7.958478e-05 -0.000109815475
-0.000151819 -7.419872e-05 0.00015053694 6.672531e-05 -2.107247e-05 4.010039e-05 -1.90896e-05 -2.697896e-05
-2.7776892e-05 -3.0603842e-05 2.7038238e-06 -0.00012597292 0.00015455578 7.99949e-05 -0.000107409505 -0.0001547967
-8.111191e-05 0.00013319361 6.654581e-05 -2.9215898e-05 -4.0058145e-05 3.239105e-05 -2.1832495e-06 1.8094443e-05
9.191151e-05 4.453242e-05 -3.9143884e-05 4.7671212e-05 -3.1533287e-05 -3.260827e-05 6.320591e-05 -5.1164312e-05
-0.00011254742 -1.5023855e-05 -1.59916e-05 1.2540723e-05 -2.8217357e-05 -3.6305562e-05 2.4449744e-05 8.4862324e-05
4.761315e-05 -4.8605132e-05 4.5880162e-05 -4.3064632e-05 -4.2271862e-05 6.4325046e-05 -4.385332e-05 -5.100976e-05
2.4926667e-05 -1.5100628e-06 -0.0001490943 -3.810981e-06 0.000100020545 -4.132719e-05 -0.00010923262 -9.715351e-06
9.225287e-06 -7.682417e-05 4.110981e-05 -3.1715594e-05 4.8634167e-05 1.5830406e-05 8.6435044e-05 3.0001433e-05
1.1710746e-05 -0.00015573495 -9.145106e-06 8.378853e-05 -2.9852989e-05 -0.00012981442 -6.8504187e-06 -1.6548873e-05
-8.9749265e-05 2.831358e-05 -4.0045798e-05 -0.000108797554 9.0518806e-05 -3.6047535e-05 -2.5895084e-05 5.4058004e-05
-8.264673e-06 0.00013347119 1.0675064e-05 -4.2576827e-05 -2.4195522e-06 -6.81089e-06 0.00011612414 0.00015532853
-7.73633e-05 6.804225e-05 -2.0281019e-05 1.6557631e-05 -3.798744e-05 -2.5990857e-05 4.7770223e-05 3.2224782e-06
0.00011538455 2.115966e-05 -6.2007566e-05 -2.2944605e-05 -2.6869235e-05 -3.3130105e-05 -2.6024214e-05 -2.4422112e-05
0.00011466206 -0.00013561976 3.0617648e-05 0.00012511139 7.776272e-05 2.012438e-05 -1.7507385e-06 0.000116539624
4.4409477e-05 -3.0836305e-05 6.0417104e-05 1.2346387e-05 2.2827093e-05 -2.0646357e-05 -7.0800575e-05 9.982774e-05
-0.0001343031 3.2720516e-05 0.00013362014 6.846022e-05 1.9598072e-05 -4.2334523e-06 0.00011530995 3.299284e-05
7.331602e-05 -3.178465e-05 2.908938e-05 3.6660058e-05 -0.0001297828 -3.428435e-06 0.00011740953 9.263749e-06
0.0001526657 -5.7936824e-05 7.419981e-06 -0.000108050415 4.4889992e-05 -0.00010469859 -3.5416092e-06 2.0848134e-05
9.372747e-06 5.6033477e-06 4.242585e-05 -0.00012673617 1.900559e-06 0.00011497286 8.829628e-06 0.00014610279
-5.1387633e-05 1.7612909e-05 -0.00012259168 2.0811372e-06 4.4337277e-05 3.2482374e-05 -1.4889102e-05 -2.731755e-05
4.55926e-05 -1.3892579e-05 -9.428401e-06 3.87684e-05 -6.264278e-05 -2.0330028e-05 3.6308313e-05 5.7398324e-06
00000000: 8d21 e5b8 d844 32b6 6ce3 9e37 9f2b bfb7
00000010: 77f9 8b38 28d2 9f37 11b7 43b7 c85e c7b8
00000020: 0ec3 1938 0ea2 43b8 f55e 7db8 2df3 f3b8
00000030: 0f2e ab38 5c88 5bb8 9717 a8b7 acc2 22b8
00000040: 3a29 0837 8706 6737 a6f9 f5b7 aedd 9238
00000050: d408 0c38 692b 94b7 a4b6 cbb8 d6c3 3738
00000060: f050 12b8 f5e5 6cb8 c450 f9b8 6435 3935
00000070: 704b 1ab8 ff34 0e37 a89c 6d37 b852 e8b7
00000080: d50e abb8 6cf3 2438 6b0f f836 a9b3 0638
00000090: 4f38 3bb7 aed9 bbb6 b43d e8b5 e65f 8bb7
000000a0: 37ce 7937 1aaf 7837 1139 1fb8 41fc 69b8
000000b0: ced8 74b7 becd 2c37 396e 07b8 fe7f 92b8
000000c0: 5349 2138 290d 1e37 cb59 b937 e187 2eb7
000000d0: 07da a8b6 18a3 0b36 76a6 c9b7 f9ed d138
000000e0: 38c6 b437 4512 f7b7 4f28 1536 1a2e 1538
000000f0: 4a0a 21b8 d0d6 4bb8 6e98 56b8 d3ee 5bb8
00000100: d4bc 6438 1a13 f5b7 9b89 4538 b874 dfb8
00000110: f39a 4337 164c 94b8 587c 1db7 8fa6 9837
00000120: e2b3 07b8 7f76 6937 ba8e 2138 e98a 61b8
00000130: 92aa 0bb8 89dc 62b8 6de5 1db8 ce57 9838
00000140: 7b18 a7b7 d033 aab7 0119 c6b7 dfcd 7438
00000150: c050 f8b8 51ce 2539 c1e6 a638 bc4c e6b8
00000160: 9a31 1fb9 229b 9bb8 74d9 1d39 e1ee 8b38
00000170: c9c4 b0b7 7731 2838 9b22 a0b7 e050 e2b7
00000180: 6c02 e9b7 a05c 00b8 5773 3536 9917 04b9
00000190: 4010 2239 efc2 a738 0a41 e1b8 ec50 22b9
000001a0: a01a aab8 e3a9 0b39 828e 8b38 aa14 f5b7
000001b0: 1b04 28b8 a0db 0738 f183 12b6 85c9 9737
000001c0: 9ec0 c038 52c8 3a38 6d2e 24b8 93f2 4738
000001d0: 9c42 04b8 ddc4 08b8 6a8d 8438 4399 56b8
000001e0: 7007 ecb8 f70e 7cb7 b325 86b7 ff65 5237
000001f0: 50b4 ecb7 cd46 18b8 6d19 cd37 1df8 b138
00000200: 3bb4 4738 5ddd 4bb8 736f 4038 4ca0 34b8
00000210: 114d 31b8 3fe6 8638 25ef 37b8 50f3 55b8
00000220: 9c19 d137 5dad cab5 3256 1cb9 28c0 7fb6
00000230: 1fc2 d138 bb56 2db8 d113 e5b8 1dff 22b7
00000240: 4ec6 1a37 aa1c a1b8 536d 2c38 5c06 05b8
00000250: 8afc 4b38 8acb 8437 7644 b538 96ab fb37
00000260: 4579 4437 c84c 23b9 ee6d 19b7 a0b7 af38
00000270: ce6c fab7 cb1e 08b9 a6dc e5b6 6fd2 8ab7
00000280: c537 bcb8 f382 ed37 d9f6 27b8 3e2a e4b8
00000290: ead4 bd38 bf31 17b8 4539 d9b7 57bc 6238
000002a0: 80a8 0ab7 66f4 0b39 0d19 3337 8594 32b8
000002b0: 975f 22b6 1a89 e4b6 ac87 f338 afdf 2239
000002c0: 1b3e a2b8 e8b1 8e38 2821 aab7 3ee5 8a37
000002d0: b454 1fb8 f106 dab7 e35c 4838 c141 5836
000002e0: 9cfa f138 0680 b137 0f0a 82b8 2a79 c0b7
000002f0: 3e65 e1b7 2ef5 0ab8 934e dab7 16de ccb7
00000300: ba76 f038 2735 0eb9 736b 0038 5530 0339
00000310: 8b14 a338 c7d0 a837 ebfa eab5 bc66 f438
00000320: 5044 3a38 3b56 01b8 5f68 7d38 5423 4f37
00000330: cf7c bf37 b731 adb7 c57a 94b8 9c5a d138
00000340: b7d3 0cb9 633d 0938 621c 0c39 4d92 8f38
00000350: 8a66 a437 140d 8eb6 8fd2 f138 cb61 0a38
00000360: 3dc1 9938 8250 05b8 f804 f437 70c3 1938
00000370: 4e16 08b9 1114 66b6 c339 f638 806b 1b37
00000380: e314 2039 3101 73b8 27f9 f836 2099 e2b8
00000390: 4348 3c38 a191 dbb8 62ac 6db6 07e3 ae37
000003a0: a43f 1d37 6404 bc36 69f2 3138 7be4 04b9
000003b0: b616 ff35 961d f138 f722 1437 2b33 1939
000003c0: 0d89 57b8 6fbf 9337 f48b 00b9 aaa9 0b36
000003d0: caf6 3938 af3d 0838 35cc 79b7 fe27 e5b7
000003e0: ae3a 3f38 2c14 69b7 ad2e 1eb7 419b 2238
000003f0: 165f 83b8 678a aab7 c149 1838 c998 c036
