raisimGymTorch/data/ouzel_only_planning/2022-05-09-12-17-53/full_77000.pt (torch, 162032 bytes, 36 tensors)

architecture.0.weight f4 [64, 27]
00000000: fcfa c83d 5c2b 90be d7b6 ab3d c57a 933e
00000010: 8537 a8bd 0afa 0dbe 49e4 c03d d482 413f
00000020: 9be3 383e 0bdd 163e 1436 41bc 94bd a5be
00000030: baa7 003d 9e85 b5be 492b 82be a321 fabc
00000040: a304 d63f 9eb6 9a3f 95fa d73d b7d6 a2be
00000050: 9c2c 9e3c 36dd f13e bf11 a43e 4c9b d03d
00000060: e429 933e 63f2 bcbe 20af 4bbe d637 803e
00000070: 33b8 4d3e 0b8a 4cbe 79cb 37be f4b0 0b3e
00000080: 6ebe 42bd 32ca 55be dc4d 14be 2a1a bcbd
00000090: 97f2 f8bd 41a4 5cbe c5ed 743e fb8f a6bf
000000a0: d397 c0be 0b54 1abf 717c ea3e 952d 9fbd
000000b0: 9507 123f 6726 d9bd 7c74 183d 9878 273e
000000c0: 6b41 15be 9345 46be 52db 0a3d 4a56 26bf
000000d0: 2091 cbbd 054a 7fbe 71ab 603e e2e2 fb3e
000000e0: 7005 c53d 610a 113f 704c 573e 5a72 eb3e
000000f0: 04c6 39be 91e3 69be 3cb9 3abf 0ca3 073e
00000100: 8ad2 b5be 08f9 a5bd f97c c7be 389b ad3e
00000110: ba99 1dbe 3f4f 5f3d a585 afbd dcd1 113f
00000120: 501b 29bd 1270 3c3e 68af 4c3f 10f1 ed3c
00000130: e1b0 6f3d bb1a efbe c8c8 da3c d4b5 c1be
00000140: 9348 17be fdd5 60bf 2fd0 09bf 728d 893c
00000150: 9656 7bbd ddb0 94be e7b5 92bc c7ea 70be
00000160: e820 583c 31be 86be 7010 023e 4159 a9be
00000170: 5965 713d 8a54 03c0 c01b 4dbd eaec 7c3f
00000180: f131 613e 9ea0 6bbe fe61 ab3c fcd6 d6bd
00000190: 1907 abbe 30b7 a9be d328 4b3d b3c3 0cbd
000001a0: 6336 4ebe 4ba2 943e 1812 c0bb ded7 11be
000001b0: 4f20 6a3e a19c 023f 5052 00bf cfc5 bd3e
000001c0: 671c 583d 2b26 cfbe c626 0b3f 5527 9f3d
000001d0: 0f0d 983d ee4e 8abe 2c0c 02bf d559 afbc
000001e0: cfc6 d43e 5858 dd3e fb45 293f 7531 c1be
000001f0: af2d 313d 36fa f93e 32d1 903e 3df1 df3e
00000200: 4ba1 03bf 3397 e33e 0540 f43d cdd6 003e
00000210: 8d6d aebd 1bf3 9dbe 9551 cfbd 8f19 303e
00000220: 1086 08be 3b13 d0be 1bfd 66bd 5191 45be
00000230: 673d 69be 7ac9 08be ad05 8dbe 2921 dfbe
00000240: 907f 15be 8349 b73e 91d4 ff3e 60c9 22be
00000250: dd8f d43e ce63 ba3e b193 423f d6d1 653d
00000260: de07 30be 0c74 15be 54a5 cbbe 3725 45bf
00000270: 535c b13c e6a0 37bf f566 5dbe af90 c4bd
00000280: 76a6 d53e 823a 5c3e f8ab 5abb 694f 2fbf
00000290: 5f9d d1be f2f1 1c3e 2b29 e2be 5ea2 613e
000002a0: 750b eabd aaf7 9bbd 274d 15bf 9d2d d03e
000002b0: 95ad b9bd 8fe6 a43e 1d86 2dbe bc2b 1d3f
000002c0: eb12 8d3e c092 063f 0c85 4dbe bd85 53bf
000002d0: 5b43 65bd 18db 4cbe e99c 313c 4888 2ebd
000002e0: 3c8d 40bd c0e5 ef3d 3d71 1d3e 4b56 003e
000002f0: aa87 4d3d 4595 9e3e be67 22bc 2634 d7be
00000300: c007 a53e d8f1 0dbc 5333 8dbe 75e4 143e
00000310: 4ca9 823e 0685 e9be 2d90 b43c 16ad f63d
00000320: 9eaf e83e 4ba0 353d 4f97 113f 0759 7abf
00000330: 590b e1be 06d8 813e a5c4 df3d 682f 24be
00000340: d989 8a3e ea65 8dbd 05dd 15be 0a7c 02be
00000350: 30ff 02bf e65d 333e 8d28 533e da70 1e3f
00000360: 821d 72be ecb9 003f fba7 093e f596 d5be
00000370: 81b8 643e d6bb 3f3e d419 783e 2eea 8d3c
00000380: 6d1d 93bd a06e b3be 5c86 2dbd 3205 be3e
00000390: e191 c13d 400a f3be 0f1f 8c3f a218 aabe
000003a0: 59b2 053f 0938 983e d754 b53e 6606 c0be
000003b0: 5d17 b0be dcca b13e 5755 3a3e e27a a73d
000003c0: 420d 02bf 6869 0abe 4ae1 18bd 2685 083e
000003d0: 05dd e13e 4b5f 283e 092e 25bf b806 253f
000003e0: 1a51 a53d a625 ea3d c9e3 85be 00b1 70bf
000003f0: e765 2fbd baf7 003f 6867 e8be 35a6 92bf
0.098134965 -0.2815808 0.08384483 0.28804603 -0.082137145 -0.13864914 0.09418542 0.7559025
0.18055575 0.14732759 -0.011792678 -0.323712 0.031409957 -0.35453504 -0.2542365 -0.030533617
1.6720165 1.208698 0.105458416 -0.3180444 0.01930838 0.47239083 0.3204479 0.101858705
0.28742898 -0.36903676 -0.19891024 0.250426 0.20089798 -0.19974534 -0.17948712 0.13641721
-0.04754489 -0.20877913 -0.14482826 -0.09184678 -0.12155645 -0.21547033 0.23918827 -1.3012689
-0.37615833 -0.6028449 0.45798066 -0.07772366 0.5704282 -0.10603028 0.037220463 0.16354597
-0.14575736 -0.19362478 0.033900566 -0.64975417 -0.0993979 -0.2493058 0.219404 0.49196535
0.09620178 0.5665646 0.21025252 0.4598568 -0.18141943 -0.22840716 -0.72938895 0.13245791
-0.3551219 -0.081041396 -0.38962534 0.33907485 -0.15390673 0.054518934 -0.085704125 0.56960845
-0.041285813 0.18402126 0.7995515 0.029045612 0.058518294 -0.4670008 0.026707068 -0.37834036
-0.14773779 -0.8782652 -0.5383329 0.01679108 -0.06136187 -0.29041186 -0.017909003 -0.2352706
0.013191439 -0.2631698 0.12701583 -0.33075908 0.058934543 -2.0520349 -0.050075293 0.98799
0.21991707 -0.2301049 0.02092075 -0.10490224 -0.33403853 -0.33147573 0.04959948 -0.03436632
-0.20137934 0.2903007 -0.005861532 -0.14242503 0.22863887 0.51020247 -0.501256 0.37064978
0.05276146 -0.40458807 0.5435604 0.07771174 0.07424366 -0.27013344 -0.5079982 -0.02140514
0.4155793 0.43231463 0.66122407 -0.37733045 0.043256458 0.48823708 0.28284603 0.43738738
-0.5141799 0.44451293 0.11926273 0.1258194 -0.08516989 -0.30849537 -0.101229824 0.1719725
-0.13332391 -0.40639672 -0.056393724 -0.19293715 -0.2277733 -0.13358107 -0.27543393 -0.43579987
-0.14599442 0.35798272 0.49966863 -0.15897131 0.4151601 0.3640427 0.7600661 0.05610832
-0.17190501 -0.1459505 -0.39774573 -0.7700991 0.021650469 -0.71729887 -0.21621306 -0.09597909
0.41728562 0.21506694 -0.0033366662 -0.68480545 -0.40940377 0.1532667 -0.44172034 0.22034594
-0.114279665 -0.076155975 -0.5832085 0.406598 -0.09066311 0.32207152 -0.16945691 0.6139486
0.27553496 0.5256767 -0.20070285 -0.82625943 -0.05597244 -0.20005453 0.010840633 -0.042610437
-0.04700969 0.11713743 0.15375228 0.12532918 0.050178207 0.3097326 -0.009912429 -0.42031974
0.32232475 -0.008663617 -0.2757822 0.14540274 0.25519788 -0.456093 0.022041405 0.12044732
0.45446485 0.04434232 0.56871504 -0.97792095 -0.4395397 0.25360125 0.10926179 -0.16033709
0.27058294 -0.06904204 -0.14635094 -0.1274263 -0.51170635 0.17516288 0.20620938 0.6189095
-0.23644069 0.50283694 0.13442986 -0.41716734 0.22336008 0.18723997 0.24228603 0.01732358
-0.07183347 -0.35045338 -0.042364463 0.3711334 0.09451652 -0.47468758 1.0946978 -0.33221918
0.5222526 0.2973025 0.3541629 -0.37504882 -0.34392825 0.34725082 0.18196617 0.08177735
-0.5080148 -0.13516772 -0.037324227 0.13332042 0.44113937 0.16442601 -0.6452337 0.64463377
0.080721095 0.11432962 -0.2615035 -0.9402008 -0.04282179 0.50378 -0.45391393 -1.1456972

architecture.0.bias f4 [64]
00000000: fe62 1c3f 5b10 1fbf 7b25 bd3f 85d4 1b3e
00000010: cce9 843e 04b3 70bf 594f a1bf 9e08 a6bf
00000020: d9e2 89bf 223a a63e 9513 2dbf 5a1f 003f
00000030: c5d2 d93f 7681 c2bf 4c51 953f e3a1 c73f
00000040: 00e3 54bf b706 26bf 0e87 9ebf d15f 183f
00000050: 2a0a f63f 8306 9cbf 9046 753f 69c3 afbf
00000060: 1a52 f13b 076f 203f d603 613e ae70 e0bf
00000070: e331 59bf 6e43 163b 4c1f 63bc 7285 84bf
00000080: 37fd 9cbf 7f42 8dbf d705 98bf 25fa 823e
00000090: 0459 a63f c9f1 24bf bfee 4b3f 12eb 65be
000000a0: 578c 53bf 6971 38bf 5c1b b53f 53ce 6abf
000000b0: 073e a1be 3bcc e13e a4ff 56be 37b3 2fbf
000000c0: 2123 073f 3212 9e3f e62b 963f 2810 823f
000000d0: c5fb af3e 4828 c0bf f186 5cbf edb0 9c3e
000000e0: d940 33bf bc22 b0bf ebad b73f d8e8 c63f
000000f0: 4801 cf3f bb2c a43f 673e e6bd 8ba7 4d3e
0.6108855 -0.6213433 1.4777063 0.15217789 0.25959623 -0.94023156 -1.260234 -1.297138
-1.0772353 0.32466227 -0.67608005 0.5004784 1.7017447 -1.5195758 1.1665435 1.5596279
-0.83158875 -0.64853996 -1.2384965 0.59521204 1.9221852 -1.2189487 0.95810795 -1.373151
0.0073645236 0.62669414 0.2197412 -1.7534387 -0.84841746 0.0022928375 -0.013862442 -1.0353224
-1.2264775 -1.1035918 -1.1876782 0.2558147 1.2995915 -0.64431435 0.7966117 -0.22452953
-0.82636017 -0.7204805 1.4148974 -0.91721076 -0.31492636 0.44101128 -0.20995957 -0.68632835
0.5278798 1.2349303 1.1732147 1.016118 0.34371772 -1.5012293 -0.86143404 0.30603734
-0.70020825 -1.37606 1.434995 1.5539808 1.6172266 1.2826151 -0.11242371 0.20083444

architecture.2.weight f4 [64, 64]
00000000: ba5c 85bd 39e5 813e 9983 e2be 8198 8abc
00000010: b5a9 a1ba a449 b7bc b067 5c3e 07d8 2a3f
00000020: 2b99 c93e 0883 bcbd b904 823e 52f7 2abe
00000030: 092a 15bf 4a48 e73d 1de5 cfbe 1095 65be
00000040: 8d4c 0abe 06f3 bb3d 0784 153f 9961 34be
00000050: 4aad 50bf 1dd7 e93e 24c9 b9be cd32 003f
00000060: 5efa ecbd 55ac 4b3d adae d23d a1d2 e63e
00000070: a52a 833e 4fc3 9fbd 3b7a f63d 8539 9a3e
00000080: 108f 9c3e d3e4 a43e ec50 213e a243 03be
00000090: b70e b9bd 3a11 73be 65ca ccbe 0192 1f3e
000000a0: fe1f b63e a2b6 383d 3dfe 52bd c4b3 5f3e
000000b0: b571 acbe fe81 8bbe 0466 20be 8e63 b53e
000000c0: 3077 123d f8fe cabc 1cc6 a7be 99ee 213f
000000d0: c9aa 5e3c 379e be3e 505b 153e 2b5b 9b3e
000000e0: 49c2 a63d f716 103f 3c26 94bf 8aad b3be
000000f0: 1316 18bf d129 24bf 71c4 5cbe 4d3f ca3e
00000100: 120e a33d e145 4ebe d7d7 7c3d 284f 773e
00000110: 5ea5 b1bd ed91 91bd 171e 13be e200 0bbf
00000120: 132a 1d3f c507 c83d b073 6d3d c4e3 babb
00000130: 40d6 89bd 15f9 0b3f a4ce c83e e67a e53d
00000140: a762 093e 56e2 d73d 63a9 b1be 322f 043e
00000150: 7bad 4e3f e7a6 853e 8404 053d bd0c 02be
00000160: 9838 543e 64a3 e43e 8037 ecbd 001f 8bbd
00000170: d083 443f 9e8d e13e 63d3 dabd 90a9 193f
00000180: 380b afbe d32f d6bd 2742 853c 4861 f93d
00000190: 28ed 023e d1ff aebd 8832 7fbe 5d87 473d
000001a0: afe3 4f3e 95a1 a1bd 6534 80be d843 883e
000001b0: 93c2 03bd 83be 85be 6dea 77be 47bd 4bbd
000001c0: 27c3 08be 2f32 f0be df37 e13d f23d 903e
000001d0: 20f5 2cbe ecd5 673f 89f5 203e f675 d3bb
000001e0: d3d1 913e ea7e 2e3f a74f 1a3b 7ad0 293f
000001f0: e5f1 543f 1cda 94be eee4 c63e b890 343d
00000200: e5b8 273e a705 07bf 55d2 013e da99 0bbe
00000210: bc0c b9be 720e 933c da77 333e 921e fabe
00000220: 42d3 e5be 0b6e cd3e f2ae 48be 23f7 d63c
00000230: 90c6 2abe 311c d13d 4bbb 9a3d 195a 3ebe
00000240: 4acd aabe 531f 463f 0589 2abf 6c7f 80be
00000250: 65c0 383f b6c5 60bf 59fc 423d 2ecb 58be
00000260: 20dd f43e 10ad 9b3d ac60 023f e86a 8e3e
00000270: e0cf 963d 7167 e5bd 7dc7 063f 89d4 6abf
00000280: 1512 11be d38f be3e 1700 38bf 87c5 203e
00000290: cf78 223f 7814 11bf 8426 d03e 3f74 0f3f
000002a0: 07df 0e3f 1028 cdbd e68c 673e 4cd4 84bf
000002b0: b5f0 ba3d f8eb 293f 84d6 0cbe 444f e7be
000002c0: 1dd7 c3bd 4a7f 2a3f 2385 94be 2049 ef3e
000002d0: 2cc0 b93e a03a 2dbd 08d1 15bf 26ca dabe
000002e0: 0e3c 593d c61d 26bf 1578 153f 3e55 fa3d
000002f0: 165f 44be 9304 5e3e c637 883d 91dc 03be
00000300: 1f81 1bbf 7f62 453e 8fea b03d 19fa 803e
00000310: 0914 313f e89f 853e a336 1c3f ff13 ccbe
00000320: e5bb fc3e b9b9 f1be 1b40 f23e 7617 53bf
00000330: 74ac 4f3e 074e 1b3f ea01 87be eb91 10bf
00000340: f3bc 153f 3bdd 23bd 4b3f ea3e f9e0 4b3f
00000350: b968 3dbf 7cd3 073e cee0 2ebf 2eb9 9dbe
00000360: 6472 b9bd 7d5c a1bd 67a4 13bf 5837 983d
00000370: 22e3 12bd d2c3 883e 57d4 31be 1dc0 a23e
00000380: 5697 c43e 5683 54bf f971 c73e 1ef3 033e
00000390: 3d0e 45bf 5231 873e 6937 06bf cc72 e43b
000003a0: d66a 953d c651 883f a1f3 9c3d 1b50 cf3d
000003b0: 624a af3e bc5d 8ebf 3784 473f 1bf2 40bd
000003c0: cdd8 8d3e 4dcc 0ebf faf3 943e d762 39bf
000003d0: a731 5fbe 73ea b1be 23ab 0d3f 9ef1 543f
000003e0: fd60 183f 5c38 78be cbe0 9dbd 23aa fbbd
000003f0: 8c4d 0e3e a5dc 7e3d 98f2 553e b1c8 01bf
-0.06511827 0.25370196 -0.44241026 -0.016918423 -0.0012333902 -0.022373982 0.21523929 0.6673588
0.3937467 -0.0920468 0.25394228 -0.16695908 -0.58267266 0.11293085 -0.40604487 -0.22420144
-0.13505764 0.091772124 0.5840458 -0.17615356 -0.8151442 0.4567193 -0.3628627 0.50077516
-0.11571191 0.049724896 0.10287223 0.45082572 0.25618473 -0.07800924 0.12035032 0.3012201
0.30577898 0.3220583 0.15753525 -0.12818769 -0.0903601 -0.2373704 -0.39998165 0.1558304
0.35571283 0.045096047 -0.05151199 0.21845919 -0.33680502 -0.27247614 -0.15663916 0.35427517
0.035758197 -0.024779782 -0.32768333 0.63254696 0.013590523 0.37230083 0.14585614 0.30342993
0.08142526 0.5628504 -1.1574168 -0.35093337 -0.5940868 -0.64126307 -0.21559311 0.3950142
0.07961668 -0.20143844 0.06172928 0.2415129 -0.086741194 -0.07107911 -0.14366947 -0.5429822
0.61392325 0.09767107 0.057971656 -0.0057034213 -0.06730318 0.54676944 0.39220154 0.11205082
0.13416539 0.10541217 -0.34699544 0.12908629 0.8073346 0.261039 0.03247501 -0.12700172
0.20724714 0.44655907 -0.11534023 -0.06793022 0.7676363 0.44053358 -0.1068485 0.60024357
-0.34188247 -0.104583405 0.016266895 0.12176758 0.1278578 -0.08544887 -0.2492162 0.048713077
0.20301698 -0.078921475 -0.25039974 0.2661426 -0.032167982 -0.2612191 -0.2421052 -0.049741056
-0.13355695 -0.46913287 0.10996985 0.2817226 -0.16890383 0.90560794 0.15718664 -0.006453271
0.28480396 0.68162405 0.0023546012 0.66333735 0.831816 -0.29072654 0.38846534 0.044083327
0.16379125 -0.52743 0.12677892 -0.13632908 -0.36142528 0.017951224 0.17526188 -0.48851448
-0.4488774 0.4012302 -0.19597986 0.02624089 -0.16677308 0.10210455 0.075552545 -0.18589057
-0.33359748 0.77391547 -0.66615325 -0.25097215 0.7216857 -0.8780168 0.04760394 -0.21171257
0.47824955 0.076013684 0.5092876 0.27815938 0.07363868 -0.112013705 0.52648145 -0.9173055
-0.14167054 0.37219104 -0.7187514 0.1570035 0.6346559 -0.5667186 0.40654385 0.5603675
0.5580906 -0.10017407 0.22612342 -1.0377288 0.091279425 0.66375685 -0.13753706 -0.45177662
-0.09562514 0.6660048 -0.29007825 0.46735477 0.36279428 -0.042292237 -0.5852208 -0.42732352
0.05303579 -0.6488918 0.58386356 0.1222329 -0.19176897 0.21681432 0.06651263 -0.12877108
-0.607439 0.19275855 0.086384885 0.2519081 0.69171196 0.2609856 0.6102087 -0.39859006
0.49362102 -0.47212008 0.47314534 -0.82457674 0.2028063 0.60665935 -0.26368648 -0.56472653
0.5849144 -0.040005904 0.45751414 0.79640156 -0.7398792 0.13264269 -0.68311775 -0.30805343
-0.090550214 -0.07878969 -0.57672733 0.07432431 -0.035861142 0.267119 -0.17366157 0.31787196
0.3839671 -0.830129 0.38954142 0.1288571 -0.7697485 0.26404816 -0.524283 0.0069716927
0.07295768 1.0649955 0.07663656 0.10122701 0.34236437 -1.1122355 0.7793612 -0.04710589
0.27704468 -0.5578049 0.2909239 -0.7241644 -0.21796285 -0.34749183 0.5533926 0.8318118
0.5952299 -0.2424025 -0.077088915 -0.122883104 0.1389677 0.06222214 0.20893323 -0.50696856

architecture.2.bias f4 [64]
00000000: 8610 fabf 24c1 cd3d e257 983f b280 2dbf
00000010: b93e 14bf 7c75 25bf eeea 393f c83d 47bf
00000020: f2f5 88be 0094 11bf 9f8e 07bf 6d67 a33d
00000030: df5e 1a3e 6fba 39bf ba0d 243f 54ad b73e
00000040: 3b58 6d3f 9689 6f3f 6d14 1040 9393 233f
00000050: 5989 41bf eac8 923e 772a 9ebe 6ddc 66bf
00000060: b5be 68bf a4fa 173f 4ae1 e33c fd3e 213e
00000070: ccc3 3440 7da6 21be c873 bd3e 0dad c83e
00000080: 2b00 87be 362a 49bf 9abd 003f fb0e b33e
00000090: 183b 11bf f40c 903d 15e6 4abf dda4 df3f
000000a0: b1e6 04c0 f848 af3e b127 09bf ec0c c83d
000000b0: 5d8d dc3e b24d ba3f b29a f0bf 1451 0c3f
000000c0: ad31 e73e bc31 30bf 78ef a2bf 6f0f 36bf
000000d0: f674 2f3f 09e7 143f 25f4 84bf ce42 1e40
000000e0: 7e1f 7bbd d682 e03e b7bb fc3d dca2 76bd
000000f0: ffd3 1dbe cea8 3ebd 3afc d03d 04d8 37bf
-1.9536293 0.10046604 1.190182 -0.677745 -0.5790821 -0.6463239 0.726241 -0.77828646
-0.2675014 -0.56866455 -0.52952 0.07978711 0.15075253 -0.725501 0.64083445 0.35874426
0.92712754 0.93569314 2.2512467 0.63897055 -0.756002 0.2866891 -0.30891773 -0.90180093
-0.90915996 0.5936682 0.027817387 0.15746684 2.8244505 -0.15786166 0.37002397 0.39194527
-0.26367316 -0.78580034 0.5028931 0.34972367 -0.56730795 0.070337206 -0.7925733 1.7472187
-2.0765803 0.34235358 -0.5357619 0.0976809 0.43076602 1.4554961 -1.8797209 0.54811215
0.45155087 -0.6882589 -1.272933 -0.711173 0.68537843 0.5816503 -1.0387007 2.4728274
-0.06130933 0.4384982 0.12340491 -0.06021391 -0.15412901 -0.046547703 0.102043584 -0.7181399

architecture.4.weight f4 [9, 64]
00000000: c1b1 86bc 148c 8e3d 1d28 1cba 103b efbc
00000010: 23d2 7cb9 9fc9 6c3c efe6 fa3a 1c3b 9a3b
00000020: b994 efbb 321f 8b3c 3475 683c 78de 88bc
00000030: 47d7 b33c 8f12 6abc a5fa 703c b24d a83b
00000040: eaaf 96bc b52f 8a3b c521 bc3c a244 3fbc
00000050: ff9a 2aba 7235 f43a b58a d3bc 67f2 5f3c
00000060: afef 9c3c af78 7abc 4608 8d3b f375 82bc
00000070: ed90 fa3c da66 eebb c641 47bb e271 34bc
00000080: ce07 09be fd0b 853c 7d7d dabb 8542 54bc
00000090: e175 3f3c 2d44 a03b f0d2 e53a 637d 0a3d
000000a0: 4210 90bc 21af 9b3c e39b ffbc a609 a73b
000000b0: d375 853b b367 363d 61cc 81bb 11c5 93bc
000000c0: c35d 46bc 6fc8 2e3b a7a8 b63c 1fc5 9fbc
000000d0: 19fa d03b a6a1 a3bc ffcf f53a ac3e ebbc
000000e0: 7c6d edbc 616d 32bc 0a13 fabb 60df a93c
000000f0: 672e 3eba 948d 4dbc c4cb b13b 807c 8fbc
00000100: dbae 6fbd 57bf 1b3d 9fbd 2d3c 5783 183d
00000110: 44ef dcbc 8235 f139 cc82 85bd 40c8 7f3c
00000120: 1a61 3b3c ec8d ce39 5efb a5bc e95b 333b
00000130: 8d32 073e 7db4 c2bc 0f56 c2bc 4231 a9bb
00000140: 184d 97bc 6fb3 113c 6f53 65bb 3923 2bba
00000150: e7af 27bc d334 853c 1b30 12bd 1c2f 47bc
00000160: cd39 59ba e015 f6bb 786f 0bbb b8a0 89bc
00000170: e788 b4bc db23 073b 4e05 82bc 8561 363b
00000180: b390 1c3d 3fd5 8e3c 9aa5 133c b089 003d
00000190: 06ff 79b8 78ad 033d 43a2 273d f4f8 193c
000001a0: 05e9 16bc 7ba0 0fbb 5b2e 73bd 5dcc 05bc
000001b0: d588 ed3a 4b7b 70bd 70ca 9cbc 05a2 d7bc
000001c0: e610 86bd fe28 16bc f309 09bd 0dee e73c
000001d0: 881d c1b8 334b 8a3b 8113 ec3b e29b c5bc
000001e0: b39d 1f3a 361b bf3c a257 90bc 97be 75bc
000001f0: 034a 293c 6406 893a cccf 6c3c 4908 cf3c
00000200: 4580 1a3d b79c 0cbe 70a8 c03b 0675 1abc
00000210: 046a fa3a b69f 00bc 0060 cdbc 83df 943c
00000220: 4e95 0fbc 5982 f9bb 20b5 be3c 5179 0fbc
00000230: 0bce 1f3d 8af6 32bc f541 153d 5ac5 91bc
00000240: 3b78 5cbc eef4 f1ba d6e7 26bd 3b4e 3e3c
00000250: 2960 543c eb53 a0bc 5157 ccbc 317d cabb
00000260: 751c 223c 741c a63c e79e 7bbb ba42 57bb
00000270: 18c3 243e 38f2 eebb 9b1c 3d3a 3788 12bc
00000280: 05b1 29bd 1f7a 8b3c d887 97bc 8420 f03b
00000290: f84c 8a3c ba2d 173c 40d7 c03c 89e6 813c
000002a0: 43e9 743b e195 fbbb a415 74bc 900d 88bb
000002b0: 4f81 f0bb 1f62 c13c ac08 7a3c 7b6f 283b
000002c0: 9a56 afbc 69e0 7abc f78e d8bc 2223 403d
000002d0: 8436 b3bc 0b5f 8d3c ee2e 993b 5fd9 97bc
000002e0: 0b8e 893b eb69 0d3c f3b3 8839 30c5 18bb
000002f0: 947b c03b b372 a4bb 18f4 093a e93c 17bc
00000300: 025f 53bf d6b0 3abe 0a1d 353f 3403 13bf
00000310: d611 b6bc efa5 92bd 9089 6e3e 7151 c4be
00000320: 18b4 c6be fd2d 7cbe 1b06 e7bd 5792 673e
00000330: 6e1b ee3d 1dc7 24bf 31a8 a43d 8c7b 9f3d
00000340: c838 c63e 234e 163f 43db 533f 7476 b43e
00000350: b0f2 e0be 57a4 683e d543 8ebd 639c 4ebf
00000360: 6d07 54bf bb49 b63e 10e3 b4be d2d3 033e
00000370: 9aad 423f 54cd f7be 2f23 8e3e 5152 06be
00000380: 7181 85bc e841 9dbe 773d e43e a487 c7bd
00000390: 3018 a7be 0908 9b3e 7a77 d6be 59ac d63e
000003a0: d093 1abf b508 193e 6495 59be 9b4d 6b3e
000003b0: 1abe 3d3f 4dc9 453f 12a6 d3be 08af 153e
000003c0: 28c2 893d 5202 52be f133 81be 59a0 12be
000003d0: fd86 f13d 429c 033e e2c0 27bf e329 2c3f
000003e0: 6ebb a8bd e1ee d43d 14f8 3e3e cdaa 3abd
000003f0: a08a 1ebc 23db 2dbe 826b 523d f40d a8be
-0.016442182 0.069603115 -0.0005956905 -0.029202968 -0.00024110875 0.014452367 0.001914231 0.0047067534
-0.0073114303 0.016982649 0.0141881 -0.016707644 0.021953238 -0.014286651 0.014708196 0.005136215
-0.01839443 0.004217113 0.022965321 -0.011674078 -0.00065080816 0.0018631651 -0.025822977 0.013668633
0.019157259 -0.015287562 0.004303965 -0.015925383 0.030586684 -0.0072754445 -0.0030404194 -0.01101348
-0.13381884 0.016241068 -0.0066677914 -0.012955313 0.011685819 0.0048909397 0.0017534178 0.033810984
-0.017585877 0.019004406 -0.031202262 0.0050975857 0.0040728836 0.04453249 -0.0039611314 -0.018038305
-0.0121073155 0.002666976 0.022297217 -0.019503174 0.00637747 -0.01997454 0.0018754004 -0.028716408
-0.02898287 -0.010890336 -0.007631664 0.020736396 -0.00072548393 -0.012545962 0.005425902 -0.01751542
-0.058516365 0.038024273 0.010604291 0.03723463 -0.02696956 0.00046006968 -0.06519088 0.015611708
0.011436725 0.00039397122 -0.020261463 0.0027368015 0.13202877 -0.023767704 -0.023722677 -0.0051633427
-0.018469378 0.008892878 -0.0034992357 -0.0006528381 -0.0102348095 0.01626054 -0.03569041 -0.012157228
-0.0008286506 -0.007509932 -0.0021276157 -0.01680027 -0.022037936 0.0020620737 -0.01587167 0.0027829122
0.038223933 0.017435668 0.00901165 0.03138131 -5.9603735e-05 0.032147855 0.04092623 0.009397734
-0.00921083 -0.0021915722 -0.05937038 -0.0081664 0.0018122444 -0.05871133 -0.019139498 -0.026322374
-0.06546192 -0.009165047 -0.033456754 0.028311754 -9.208458e-05 0.00422039 0.0072044735 -0.024122182
0.00060888677 0.023328405 -0.017619912 -0.014999053 0.010332587 0.0010454175 0.0144538395 0.025272505
0.037719984 -0.13731657 0.0058794543 -0.009427315 0.0019105081 -0.007850578 -0.02507019 0.018172985
-0.008763624 -0.0076144156 0.023279727 -0.008756951 0.039014857 -0.010923037 0.036439855 -0.0177943
-0.0134564 -0.0018459836 -0.04074844 0.011615331 0.0129623795 -0.019571265 -0.02494398 -0.0061794748
0.00989448 0.02027724 -0.0038394274 -0.0032846169 0.16090047 -0.0072920583 0.00072140404 -0.008943609
-0.041428585 0.017026005 -0.018497393 0.007328095 0.016882405 0.009227211 0.02354014 0.015856998
0.003737048 -0.007677779 -0.014897738 -0.0041520074 -0.0073396335 0.023606358 0.015260857 0.0025701213
-0.0214036 -0.015312293 -0.026435358 0.046908505 -0.021876581 0.017257234 0.004674784 -0.018536268
0.004197841 0.00863121 0.00026074014 -0.0023310892 0.0058741067 -0.005018556 0.0005262508 -0.009230831
-0.82566845 -0.1823152 0.70747435 -0.5742676 -0.022225302 -0.071605556 0.23294663 -0.38343385
-0.38809276 -0.24626918 -0.112804614 0.22614418 0.116263255 -0.6436632 0.080398925 0.077872366
0.38715196 0.5871298 0.8275644 0.35246623 -0.43935156 0.2271894 -0.06946532 -0.8070738
-0.8282383 0.35603127 -0.35329485 0.12873772 0.76046145 -0.4839884 0.27761218 -0.13117339
-0.016297074 -0.30714345 0.44578144 -0.09742668 -0.3263564 0.30279568 -0.41888028 0.41928366
-0.60381794 0.14944728 -0.21248394 0.22978823 0.74118197 0.77260286 -0.4133764 0.1461755
0.067264855 -0.20508698 -0.2523494 -0.1431898 0.11793325 0.12852576 -0.6552869 0.67251414
-0.082388744 0.10397125 0.18649322 -0.045573045 -0.009676605 -0.16978125 0.05137206 -0.32823145

architecture.4.bias f4 [9]
00000000: 19a7 92bd 0b67 eebb 71cc 94bd fc35 863f
00000010: 450d bd3d 3ec8 84bd 16f3 b8bd 4957 3a3f
00000020: 9521 5dbe
-0.071607776 -0.0072754673 -0.072655566 1.0485225 0.092310466 -0.06483506 -0.0903074 0.72789437
-0.21594842

std f4 [9]
00000000: cdcc 4c3e cdcc 4c3e cdcc 4c3e e74b c83e
00000010: cdcc 4c3e cdcc 4c3e f19a be3e 107b ce3e
00000020: cdcc 4c3e
0.2 0.2 0.2 0.3912041 0.2 0.2 0.37227586 0.40328264
0.2

architecture.0.weight f4 [64, 27]
00000000: 9a0b 04bd eded 44bd fcc5 cebc ae60 183e
00000010: c035 bc3f 3295 5dbe e3d6 84bf c659 03bf
00000020: 1f8d 68bf 2fb1 02be 6b6b 553e 75e7 7c3d
00000030: fb20 913b e1a5 fa3d 94ae 55bd c810 eb3d
00000040: 2a2a a1be a258 6cc0 0c8b 29be a137 c2bf
00000050: 2030 953e 360a 9a3f fb8b 063f 41c5 7d3f
00000060: 1202 5b3d 066f b8bd 9c85 87be 55d6 053c
00000070: 46a7 86bc 9661 acbc 2c2c ca3c 0e78 44be
00000080: 507d ec3e 89c8 77be 85cc 16bf b4d6 863e
00000090: f476 67bc 6db1 c8bd 8706 c6be 4489 da3d
000000a0: e842 363e 4e08 acbe bc17 1a3e 74c1 cb3d
000000b0: b264 513d eaca 1abd b03e 2c3e aaa4 97be
000000c0: a0aa 343e 9944 013f adf9 423e d2d4 ab3d
000000d0: 0327 0ebe a447 5dbe a450 58bd 5a2a 6bbc
000000e0: 1131 b53d 64af b53e e244 2ebf 501c 5a3f
000000f0: e81f 693f 5362 573f ce82 3ebf 6455 4c3e
00000100: a799 92bd 090a d63d fa57 c83c d4b7 b7bd
00000110: e8f9 d7bc f7e5 563d de29 d1be 805b e4be
00000120: 8dc3 b0be 3898 283f 4a8c 4ebf 3d64 6fbf
00000130: 913d 61bf 79a3 3c3f 17a7 23be 1760 933c
00000140: 5948 30be dfb6 aabd 37f6 a1bd 54fb d43e
00000150: 945c e5be 9cf6 a53d 73bb b43c 39a4 813e
00000160: 3d57 b1be 5b8a 4d3e 7818 00be 9074 433e
00000170: c1a6 d63d 166c 4cba 87f8 d2bc 3923 183c
00000180: 8265 3bbc d970 1ebd 975a b83c d9ba c83e
00000190: 7407 99bd e69d bfbc e1a1 5dbe 5c67 8d3e
000001a0: fe4c 3fbe ae28 b83d a18d 42be b6cb 10be
000001b0: 3691 b139 d220 d9bc 4dc0 c53c e3b2 ca3d
000001c0: 6429 79bd 5165 8dbe 2335 bc3d 0f79 923d
000001d0: 0a9b 15bd 56ee e93c 1ec2 a9bd a163 5bbe
000001e0: d67f b7be ca2c c73d f19f 85be 78e3 ddb7
000001f0: 2a7b 61bc 1fc5 dfbc 7a32 843d 9476 3bbc
00000200: c5bf f6bd 4d58 bdbc 99f2 303d 7e43 803e
00000210: 4c9a f03d 3916 ea3c 3500 07be 1c50 a8b9
00000220: 2468 b03b 6d96 40bd 478d 573c f672 ed3c
00000230: 1db3 563d 0c31 9cbd b6c8 8a3c 9ab4 303d
00000240: 4562 2f3a 6e3c 8bba a499 1d3e 466f 3c3f
00000250: 07da 0b3e 48d8 0340 7192 3abd a267 d53c
00000260: dce5 33bd 47aa 313c 5e1e cbbc aca2 583b
00000270: 06c5 6e3d 225b d23b c3b5 ccbc c051 683c
00000280: bb10 51bb 11c8 03bc 5e3f 8fbc 8da5 033c
00000290: 0cef 61bb 412c 9abd 832c b53d 67d3 c5bc
000002a0: fd38 91bd 4f0c 9bbd bc06 763d 0781 133e
000002b0: a1e2 aebd 1e98 8bbd 4c3a 58bb 6c5c 9abc
000002c0: ff00 993d a8b3 b6bd c8a8 003d 2a0a 0e3e
000002d0: a921 6e3d 7b6a 2dbd 2912 3b3e 1913 c83d
000002e0: a434 493e 2bca 443c 357b 1b3e dad1 2abd
000002f0: e4fb 0a3e d700 aabc d5fd c93c d23d 3b3c
00000300: f9ec 483c c771 123d cc0e ac3c 46bc b5bc
00000310: 5286 25bd f6f8 b0bd 3dcb 383c e15b b73b
00000320: b487 83bc cb4c bc3f 8d3d b7bf 3e62 773e
00000330: db40 e5bc 18f7 e7bc 66f6 60be 1436 5a3c
00000340: c0ad 81bd bba4 523d f614 08bc 2dc7 dc3c
00000350: 2913 c4bb a747 933c b84b a7bc 9bf7 043c
00000360: 81f0 9cbc bd5a 7a3d 3c3c 603b cd6e 54be
00000370: 421a 093e fdeb aebe 6517 953e c483 8e3c
00000380: bc11 de3e 1271 8fbe 953b 653e 0dc1 e2be
00000390: 7fb0 41be 1878 853e 2cfb 7dbe 667c 49bd
000003a0: 3148 3cbe 9d0e b53c 770d 24be 97cb 2a3d
000003b0: 9a84 1d3c 0a58 073d 752d 85bd 8ef4 b1bb
000003c0: ff0e 00be df3c 2d3d 4567 15be d3c4 cc3e
000003d0: 7c8f 3ebd 166d 1abe 3e0c 0cbd c3b3 c73e
000003e0: e6d8 b3bd 61bb 2e3e 485b 47be cc69 9e3e
000003f0: d449 823e 90e4 23be 1616 c03e 8149 183d
-0.032237627 -0.048078466 -0.02524089 0.1488063 1.4703903 -0.21638945 -1.0378078 -0.5130886
-0.90840334 -0.12762903 0.20841758 0.061744172 0.0044289804 0.1223867 -0.052168444 0.1147781
-0.3147748 -3.6929097 -0.16556948 -1.5173227 0.2913828 1.2034366 0.52557343 0.9912911
0.05346877 -0.09005551 -0.26469123 0.0081687765 -0.016437184 -0.021042626 0.024679266 -0.19186422
0.46189356 -0.24197592 -0.5890582 0.2633568 -0.014127482 -0.09799466 -0.38676855 0.106707126
0.1779896 -0.33600086 0.15048116 0.09949008 0.05112142 -0.03779117 0.16820788 -0.29617816
0.17643213 0.50495297 0.19040556 0.08390202 -0.1388207 -0.2160936 -0.05281128 -0.014353359
0.08847249 0.35485375 -0.68073857 0.8519945 0.9106431 0.84134406 -0.7441834 0.19954449
-0.07158213 0.10451133 0.024456013 -0.08970609 -0.026364282 0.052465405 -0.40852255 -0.4460106
-0.34524193 0.6585727 -0.80682814 -0.93512326 -0.8798457 0.7368694 -0.15981708 0.017990155
-0.17215098 -0.08335661 -0.0790829 0.41597998 -0.44797194 0.08103678 0.022062039 0.25320604
-0.3463687 0.2007231 -0.12509334 0.19087434 0.104810245 -0.00077980885 -0.025753273 0.0092857415
-0.011437776 -0.03868184 0.022504134 0.39205053 -0.07472125 -0.023390722 -0.21643783 0.2761792
-0.18681714 0.08992134 -0.1899934 -0.1414021 0.0003386826 -0.026504908 0.024139548 0.09897401
-0.06083049 -0.2761636 0.091898225 0.07151996 -0.03652481 0.02855603 -0.08288978 -0.21424724
-0.3583972 0.0972534 -0.26098588 -2.6451176e-05 -0.013762275 -0.027315674 0.0645494 -0.011441845
-0.12048296 -0.023113394 0.04320011 0.25051492 0.1174818 0.02857505 -0.13183673 -0.00032103143
0.0053835083 -0.047018457 0.013156242 0.028985482 0.05241691 -0.076265424 0.01694141 0.043140985
0.00066903635 -0.0010622868 0.1539064 0.7360729 0.1365739 2.0600758 -0.045549814 0.026050393
-0.043920383 0.01084382 -0.024794754 0.0033055944 0.058293365 0.0064195553 -0.024989014 0.014179647
-0.0031900841 -0.008043305 -0.01748627 0.008035076 -0.0034474758 -0.07527972 0.088463806 -0.024148656
-0.07090948 -0.07570707 0.060065016 0.14404689 -0.0853932 -0.068161234 -0.0032993732 -0.018842898
0.07470893 -0.089209855 0.031410962 0.13871065 0.05813757 -0.042337876 0.18268646 0.097692676
0.19648987 0.012011091 0.15183719 -0.041704036 0.13572651 -0.020752354 0.02465717 0.011428313
0.01226353 0.035753038 0.02100315 -0.022184502 -0.0404113 -0.086412355 0.0112789245 0.0055956696
-0.01605592 1.4710935 -1.4315659 0.2415857 -0.027985027 -0.028316066 -0.21968994 0.013318557
-0.06331968 0.05142663 -0.008305779 0.026950443 -0.0059837294 0.017978502 -0.020421848 0.008115674
-0.01915765 0.06112169 0.003421559 -0.20745392 0.13388923 -0.3416442 0.2911941 0.017396815
0.43372905 -0.28015953 0.2238601 -0.4428791 -0.18914984 0.26068187 -0.24802846 -0.0491909
-0.18386914 0.022101695 -0.16020761 0.041698065 0.009614134 0.033042945 -0.06502811 -0.0054307645
-0.1250572 0.04229438 -0.14590175 0.39993915 -0.046523556 -0.15080675 -0.034191363 0.39004335
-0.087816045 0.17063667 -0.19468415 0.30940092 0.2544695 -0.16005158 0.3751685 0.037179474

architecture.0.bias f4 [64]
00000000: 4c26 0d3e aca2 bebf 15ab a83d 0b76 b63f
00000010: f5db 9b3f 124e 6bbf 8b52 09c0 ce86 5e3f
00000020: 07ee 193f 0e1f b23f 31f7 1fbf eb35 613f
00000030: 487f 943f a19d 453e a023 b9bf 2850 a43f
00000040: c2df 3b3c 57fa 1e3e d358 98bf a94b d5bf
00000050: 30d9 eebf 555e d4bf ddac b1bf 10cf 223d
00000060: c7d0 9cbf 7c6c 4b3f 553e a1bf 4212 49bf
00000070: 4457 80bf 5a00 a1bf 0f65 debf b224 a0bf
00000080: c2f6 a8bf 8abf 53bd 7049 4fbf 587b b53f
00000090: 40df 5e3f 210c 14bf 3f0b 9cbf edd4 3b3d
000000a0: 81d3 103f 515b b33f f3b6 38bf ee6f e73d
000000b0: 62cb 293e 12c4 a6bf 784f 1f3f f459 7b3f
000000c0: b787 c7bd eb73 303f 5fa9 a5bf 22b1 bd3f
000000d0: 41c0 afbf bc1a ef3f 08c3 44bd e006 bfbf
000000e0: 5c92 b3bf f5b7 bb3f 8e78 7f3c b180 95bf
000000f0: f424 913d 4e6d a2bd 0ec9 2bbe 9474 98bd
0.1378414 -1.4893394 0.08235756 1.4254774 1.21765 -0.91916 -2.145663 0.86924446
0.60128826 1.3915727 -0.6248656 0.879729 1.1601343 0.19298412 -1.4463997 1.2836962
0.011466922 0.15525185 -1.1902107 -1.6663715 -1.866003 -1.6591288 -1.3880879 0.03974825
-1.2251214 0.7946241 -1.2597147 -0.78543484 -1.0026631 -1.2578232 -1.7374591 -1.2511199
-1.3200305 -0.051696338 -0.8097143 1.4178267 0.870594 -0.5783101 -1.2190932 0.04585736
0.5657273 1.4012243 -0.7215416 0.11300646 0.1658149 -1.3028586 0.62230635 0.9818413
-0.097426824 0.68926877 -1.2942313 1.4819682 -1.3730546 1.8680034 -0.04803756 -1.4923973
-1.402904 1.4665514 0.015592707 -1.1679899 0.070871264 -0.079310045 -0.16775915 -0.074441105

architecture.2.weight f4 [64, 64]
00000000: 7e6f 50be a1e8 fdbe 731f 8fbe 8e42 08bf
00000010: ec1c 9f3e 0a21 efbd 45af dd3e db06 ff3d
00000020: d440 a4bd 9d75 1abf 969d 14be b641 0e3d
00000030: 34d4 aa3d bc03 a43e d206 433f 9370 213e
00000040: a288 e43d f808 dcbe 35a2 003f a9b9 03be
00000050: 0d8f 663e 7e0a a8be e8e9 243f b1c6 abbc
00000060: f67b a33d bdec c2be a6e1 273f 294f 5ebe
00000070: 8380 f5be 1024 e03d a34f 68be 9248 653d
00000080: ecd3 713f 5b97 b03e 8710 373d ae15 2a3a
00000090: 34ff 323e 1d37 c9be b5c6 0c3e a617 f93e
000000a0: 6789 51be 2c70 ce3e 9d52 36bd edd5 c73f
000000b0: 121d 8a3b abf4 103f 97c8 653f f34b 963d
000000c0: ec57 cdbd fc31 18be eb00 993e 6cc5 f2bd
000000d0: 7f48 fcbb 7c12 043e 7256 10be 420a f63e
000000e0: 2d95 03bd b756 88bd 0caf 2ebf 57c7 b23e
000000f0: 0e32 b5be 2f77 963e c0ea 073e 11e1 50bd
00000100: cebe c0be 1ee5 35bf 4ca3 be3e 50ad 2e3f
00000110: 4ddb 073f 9496 08bf 5eee 6bbf 9843 ca3e
00000120: 3cc3 cf3e d750 d23e 9c9b 13bf 1364 d13e
00000130: a776 453e 65a3 483e 8c7d fabe b367 7a3e
00000140: 94d9 d63c 9f6e af3e 6a15 01bf 5e61 80bf
00000150: 2e92 09bf 14c8 86bf 4543 0cbf eebb 4fbd
00000160: 8d9d 90be d670 d0bd 8cc9 d5be 9e81 9c3e
00000170: 11a5 99be 61d4 2abf 0c86 f8be 92ce 0dbf
00000180: 9a4f 30bf 6698 823e 3d9a 0dbf 1199 003f
00000190: 0b45 843e 11b3 d6be 76db 46be efb5 dcbd
000001a0: 6b28 353e 6d73 fc3e 4154 b3be 3b3d 0abb
000001b0: eedc 55be 57fb 1f3d 4689 19be 3fc1 9e3e
000001c0: 1177 5dbe 247a 1f3e f30e f3be 4359 90bc
000001d0: 2b49 17bf 5a05 3d3f 9f87 d33b 28a5 26bf
000001e0: 8b99 adbe e3d8 533f 2e21 99be 44b0 ffbe
000001f0: f410 1dbe a280 8ebe 36d3 bd3d 8fd9 d4bc
00000200: 8e55 083f 674a 2a3f 51b7 e7be 2b89 79bf
00000210: 1532 a9be 218f 1d3f d415 233f a88c 1bbf
00000220: 099d ddbe 7714 2abf 2bcd ba3e 34f8 a3be
00000230: bfcb 3ebe 3faf c7be 6dc5 003f 6651 0cbf
00000240: b454 53be ae5a 6cbe c769 503f 87b0 3e3f
00000250: e518 5c3e 383a 653f 9a1a 773e 8e39 eebd
00000260: 28ac 9c3e fe9b 36bd 1703 ca3e 178f 16be
00000270: a929 e73d e1cf 0f3f 695a 3b3f c816 0f3f
00000280: a5ab 553f c391 b7bc 75ce 0a3f c460 b7be
00000290: 5b92 99be 929d 243f 0133 edbd df6c 9b3e
000002a0: a5e9 c83d bf0b 58bf 2c1d e03e 28b2 08bd
000002b0: 6e07 1fbe a940 eebd 7b37 06bd 8ea4 01bf
000002c0: 5f9d d93c b377 02be 43d1 433c 0921 bfbe
000002d0: be86 143f a1ae 34bf 0ef5 04be e2be e23d
000002e0: a6e7 283f 4c88 b6bf b0b9 df3e f653 493f
000002f0: 7884 823e 1aee e53e c5c8 d8bd d9d0 1f3c
00000300: 7f31 e6bd 3736 9bbe 31ed 02be 5e26 6e3f
00000310: 2188 383d 3650 c53c 04eb d13e 75bc c5bc
00000320: c075 b03e 24e4 223f 29c8 edbd b53e e73e
00000330: d733 433e 24ff b6be 40c5 ecbe 6104 8f3d
00000340: d819 af3e 332c 8fbf 3cc8 b7be bcb7 6b3f
00000350: f66c 0f3f edb8 ae3e f012 dbbe 49d7 b13e
00000360: 15df 0f3f 36e6 3bbe d4a2 43bf ffa3 f7bc
00000370: 2a92 c03e 5070 2f3f cc33 94be 9c1f 973e
00000380: 5a4f 3dbf 22d9 a1be 5549 8b3e e0c7 c83e
00000390: 49ed 643d 052b df3d 4c9e 013e 37bf b93e
000003a0: a1f9 093e 61e0 6f3f 1d4d 2dbd 8b26 953e
000003b0: 3719 4a3f c8d9 10bf 2e73 a33d b90c 1e3d
000003c0: 70ac 3dbd 14ea 88be 8f8d c6bd 4db5 0d3e
000003d0: 796d c63e 3395 36bf 9d12 823d 7359 f5bc
000003e0: ad1f a13e e262 da3e 3148 14bf 0067 b0bd
000003f0: f723 803e 9696 623e 09a7 b9be bbaf 4c3d
-0.20355031 -0.49591544 -0.2795368 -0.53226554 0.31076753 -0.116762236 0.43297783 0.124524795
-0.080201775 -0.60335714 -0.1451324 0.034730636 0.08341256 0.320341 0.7618228 0.157656
0.11158873 -0.42975593 0.5024751 -0.12863792 0.22515507 -0.32820505 0.6441941 -0.020968767
0.07982628 -0.38071242 0.6557869 -0.21709885 -0.4794961 0.109443784 -0.22686629 0.05597741
0.9446399 0.34490475 0.044693496 0.0006488216 0.17480165 -0.3929986 0.13747676 0.48650855
-0.20462571 0.40319955 -0.04451238 1.561216 0.004214891 0.56623334 0.897592 0.07338705
-0.100265354 -0.14862818 0.29883513 -0.118540615 -0.007699072 0.12897676 -0.14095476 0.480547
-0.032124687 -0.066571645 -0.6823585 0.3491771 -0.3538975 0.29387805 0.13273144 -0.05099589
-0.37645572 -0.7105273 0.3723396 0.68233204 0.53069 -0.53354764 -0.92160594 0.39504695
0.4057864 0.410773 -0.57659316 0.40896663 0.19283544 0.1959358 -0.4892391 0.2445362
0.026226796 0.34264085 -0.504233 -1.0029714 -0.5373868 -1.0529809 -0.54790145 -0.050716333
-0.28245202 -0.10177772 -0.4175533 0.3056764 -0.30008748 -0.66730314 -0.4853977 -0.55393326
-0.6887146 0.25506896 -0.55313474 0.5023356 0.25833926 -0.41933492 -0.19419655 -0.107768886
0.176912 0.49306813 -0.35025218 -0.0021093625 -0.20885059 0.039058056 -0.14993772 0.3100681
-0.21627451 0.15573937 -0.47472343 -0.017620688 -0.5909602 0.7383629 0.0064553763 -0.6509576
-0.33906206 0.8275282 -0.29908127 -0.49939167 -0.15338498 -0.27832514 0.09268801 -0.025982646
0.53255546 0.6651978 -0.45257047 -0.97474927 -0.33046022 0.6154652 0.6370518 -0.607615
-0.4328387 -0.66437477 0.36484656 -0.320253 -0.1863241 -0.3900089 0.5030125 -0.54811704
-0.2063778 -0.23081467 0.81411403 0.7448811 0.21493872 0.8954196 0.24131241 -0.116320714
0.30600095 -0.04458236 0.39455482 -0.14703022 0.11287243 0.56176573 0.7318483 0.55894136
0.83465034 -0.022408372 0.5422128 -0.35816014 -0.29994473 0.64302933 -0.11581994 0.303565
0.09810189 -0.84392923 0.43772256 -0.033373028 -0.15530178 -0.11633427 -0.032767754 -0.50641716
0.026564298 -0.12740974 0.011951747 -0.3732989 0.580181 -0.7057896 -0.12984106 0.11071564
0.6597847 -1.4260345 0.43696356 0.7864374 0.2549169 0.4490822 -0.10585169 0.009754383
-0.112399094 -0.303148 -0.12785794 0.93027294 0.045051698 0.0240861 0.40999615 -0.024137715
0.34464836 0.63629365 -0.11610443 0.4516503 0.19062744 -0.35741532 -0.4624424 0.06983257
0.34199405 -1.1185364 -0.35894954 0.9207723 0.56025636 0.34125462 -0.42787886 0.34734562
0.5619977 -0.18349537 -0.7642033 -0.030229567 0.37611514 0.6853075 -0.28945768 0.29516304
-0.73949206 -0.31610972 0.27204385 0.39214993 0.055890355 0.10896877 0.12658042 0.36278698
0.13474132 0.9370175 -0.04230987 0.29130968 0.78944725 -0.5658231 0.07980953 0.038586352
-0.046307027 -0.26741087 -0.09694969 0.13838692 0.38755396 -0.7132141 0.063512065 -0.02994988
0.3146948 0.42653567 -0.57922655 -0.08613396 0.2502744 0.22127756 -0.3626025 0.049972277

architecture.2.bias f4 [64]
00000000: d606 8d3e c98a 863f a0e8 a1bf 04c6 05bf
00000010: e712 9f3e f0ad 95bf 409c 543f 2afb 1dbf
00000020: 9d33 a6bf 6645 313f 982b 4e3f b524 a4bf
00000030: 4e23 76bf 1975 133f 5070 b5bd ab31 503f
00000040: 66fd 9f3f 7e19 003f 46cb 28bf 322f 9c3f
00000050: 5653 b53e 8e0f 57bf cd7d 033f 06a4 a43f
00000060: 899d 2bbf 3ac2 453f 7c3e ad3f a3d6 cdbe
00000070: 96ff 82bf 7984 c4be ebd5 9ebf e8c4 e43e
00000080: fb4c 42bf de6c da3e f135 3d3f b6ce 9cbf
00000090: ee9a a1bf 7f82 b93f 49db 2fbf c48e 28bf
000000a0: 88b1 27bf b5e3 a2bf f667 21bf 916c 353f
000000b0: 07e2 9bbf 25c4 1b3f b630 15bf 9ec7 803f
000000c0: 9c8f 2ebf 4752 983f d4bd b73f a1e8 0abf
000000d0: 5e6c a1bf 2d7b 8fbf f5d9 50bf 145b d33d
000000e0: be44 de3e 90f1 e13e aeef d8be b406 5e3f
000000f0: d8a0 89bf 4215 443f fbf4 95bf 905a 9e3f
0.27544278 1.0511104 -1.2649117 -0.5225527 0.3106911 -1.1693707 0.8305092 -0.6171137
-1.2984501 0.6924652 0.8053527 -1.2823702 -0.9614762 0.5760055 -0.088593125 0.8132579
1.2499206 0.500389 -0.6593517 1.2201903 0.35415143 -0.8400811 0.5136383 1.2862556
-0.67037255 0.7724949 1.3534694 -0.40202817 -1.0234249 -0.3838232 -1.2409033 0.44681478
-0.7589871 0.42661184 0.73910433 -1.2250583 -1.2625406 1.4492949 -0.6869398 -0.65842843
-0.65505266 -1.2725741 -0.63049257 0.70868784 -1.2178353 0.6084617 -0.5827745 1.0060918
-0.6818788 1.1900109 1.4354806 -0.54261214 -1.2611196 -1.1209465 -0.81582576 0.10320106
0.4341182 0.4412961 -0.4237036 0.8672898 -1.0752211 0.76594937 -1.1715387 1.2371387

architecture.4.weight f4 [1, 64]
00000000: cc95 02c1 1ac9 a5c0 b6e6 a440 b581 0241
00000010: 1951 e9c0 f427 a440 900a a3c0 44d4 a540
00000020: fc5f a640 9a95 aac0 96e9 a1c0 687e a740
00000030: 2336 a740 cf47 f1c0 a7c2 dcc0 a926 d3c0
00000040: 60e1 aac0 e14f f7c0 cf9a d440 0a4e aac0
00000050: 0b65 e3c0 d6fd ca40 a575 d7c0 9aef a5c0
00000060: adb4 da40 9ec3 08c1 f81d a3c0 be24 f240
00000070: 7f07 ab40 e3c7 c740 52fe a440 63eb 0241
00000080: 651e a340 1aba e5c0 45d8 f4c0 aa9b a240
00000090: a42e a440 4aa7 a3c0 a2b4 8440 e255 a640
000000a0: 554a db40 68f5 a140 a54a 9540 ff82 abc0
000000b0: 2e04 a740 f78a fec0 1534 c940 fa11 adc0
000000c0: 0bc8 d840 38ec a4c0 7896 a2c0 927f f340
000000d0: b85d a240 e12a 8240 d83e a540 5dcf 05c1
000000e0: 322e 01c1 8948 adc0 9d42 f740 e76a afc0
000000f0: b79b b140 a3ea a7c0 faeb a040 4e03 a8c0
-8.1615715 -5.1807985 5.153163 8.156667 -7.2911496 5.129877 -5.0950394 5.1821613
5.199217 -5.330762 -5.059764 5.2341805 5.2253585 -7.5400157 -6.8987613 -6.5984693
-5.3400116 -7.728501 6.6438975 -5.3220263 -7.1060843 6.343486 -6.733111 -5.185498
6.834555 -8.547758 -5.0974083 7.566985 5.344665 6.24315 5.156045 8.182467
5.0974603 -7.1789675 -7.6514 5.081502 5.1306934 -5.114171 4.14705 5.1979837
6.8528237 5.061207 4.665362 -5.3597407 5.21926 -7.9544635 6.2876077 -5.4084444
6.7744193 -5.1538353 -5.080868 7.6093225 5.0739403 4.0677342 5.1639214 -8.363126
-8.073778 -5.4151044 7.7268815 -5.4817996 5.550258 -5.247392 5.0288057 -5.2504034

exp_avg f4 [64, 27]
00000000: 1321 d237 1f2d 0fb8 0704 6c38 77b5 ccb7
00000010: be00 7237 db2e 9135 efdc f737 f17b 7334
00000020: e0f7 b436 a001 b0b7 3707 ef37 f145 28b8
00000030: 981c a835 c69f 0437 2e48 2cb6 9e24 c9b6
00000040: 1d7c 8ab8 7a71 5138 8719 0bb8 d9e2 b237
00000050: 4800 4537 9e8b 9037 c585 b136 2a43 9036
00000060: 1235 22b8 f1d1 6537 e5ee 25b8 23b1 bd37
00000070: a6b3 ea37 8008 a2b8 8033 1838 a552 3438
00000080: a43f a2b7 53ed 4836 144c 8bb7 a32c 5d37
00000090: a081 8137 dd55 49b7 7fdd 9eb6 abb8 82b7
000000a0: d4b8 d9b7 7525 d937 6b6d 0fb8 4d40 2938
000000b0: 86bb d5b7 4d4a 0538 3151 0538 3df5 5db7
000000c0: f3ec 1537 f447 26b7 2bd7 0f38 292c 1238
000000d0: 4246 b9b7 b15c 00b7 77f3 ee38 c180 d4b8
000000e0: d745 b536 01cd 8137 1ba3 c0b7 a81a 26b7
000000f0: 7c6a 91b7 6821 9937 7698 28b7 3f1c fcb6
00000100: 8eb7 47b8 a218 2f37 37ef 4eb8 63ea 92b8
00000110: b05f ad38 5609 d8b8 64d3 f9b7 8e3c 14b8
00000120: 7b87 ea37 54c3 ffb7 5745 2337 7cf1 06b7
00000130: 83bc bd37 772d 8eb7 9510 97b7 9349 04b8
00000140: c777 3037 2b89 c7b7 db1a b738 2b1b fdb8
00000150: d8f2 9337 ea2b c037 6582 9038 d002 afb8
00000160: 7c33 cf38 f954 b337 932d 21b8 cef8 e8b8
00000170: f4f9 0938 2bde 2038 e2aa 23b7 4339 4538
00000180: 21a5 1a39 e704 c7b7 566d 48b7 3cc6 0038
00000190: 240a 0d38 3b3b 7738 48b4 97b8 9683 bb38
000001a0: bddd cf37 bac9 fcb7 f9d8 b7b8 b8ab 0137
000001b0: ae5c 81b8 1603 6338 f8ae a2b7 ccdf 02b8
000001c0: d9a6 c6b6 f878 f437 c682 6438 a8b8 4a36
000001d0: df99 6cb7 a1d6 4a38 3968 c937 b636 a136
000001e0: 0888 c0b6 d27b a037 514d f0b7 3840 1f37
000001f0: 2926 7138 151a 6ab7 f8d5 15b8 a329 a2b6
00000200: e2c4 5b37 00c3 5838 e6b6 9d36 9267 67b7
00000210: e607 4238 a256 ba37 0975 ae37 bc75 adb8
00000220: f043 1e39 df71 36b9 9bd7 5537 aec5 6038
00000230: dd2c c937 af78 b0b7 0377 4ab7 3d88 6d38
00000240: 2818 3838 de3e acb7 94cb 8eb7 af54 ebb7
00000250: 4807 b138 2aeb 1338 ce30 b438 586b 9e38
00000260: 710d f337 6c50 9ab7 e203 8a38 18d9 3538
00000270: ac78 3db7 c03c 36b8 f112 5238 3cc8 2138
00000280: 22cd 7435 1c5b 26b8 0b3e 3db9 5a6f de36
00000290: 9959 04b9 8859 9137 f013 2338 5a9d c937
000002a0: 7f40 bb35 f71a ab37 610d 9737 d53b 3138
000002b0: 35d6 2438 788a 6d37 ac71 82b6 a8cb 0e39
000002c0: 0663 8e37 bf41 3b38 90d5 3438 257d 8338
000002d0: f1a8 a537 267e 6f38 c431 eb36 53e9 1b37
000002e0: 1cc9 1037 a465 f037 9a55 8f38 2234 a937
000002f0: 154d 0d35 c41b beb8 1f17 3338 6a86 ceb7
00000300: b072 df36 7039 a937 3307 7237 0c8b 2c37
00000310: 4a51 beb5 348c b037 cdfd d4b7 37fb 98b5
00000320: 3cf7 fe36 8513 3338 340f cb34 57e3 c736
00000330: b045 2937 b043 e538 0d56 c536 3a86 a9b6
00000340: b53b b137 7d08 f436 e6f1 cc36 39f2 e8b6
00000350: c18a bb37 d55f b2b7 e918 4cb7 d815 d336
00000360: a32b 44b8 5ddd 9838 8b89 a137 bb04 26b8
00000370: fef6 44b8 79e9 e137 5c97 3fb7 7f3a 56b8
00000380: 6c67 0bb7 a90a beb8 0182 a5b6 4a60 4bb8
00000390: 97f5 82b7 aa3c b537 cf93 c5b8 d8cb 09b7
000003a0: 31a5 7436 24b5 25b8 97d4 29b8 56c7 6cb8
000003b0: b9a0 9237 b788 14b7 2589 6bb8 9567 2fb6
000003c0: ea00 c0b8 c932 22b6 1345 75b8 7403 78b7
000003d0: a357 3c38 eb67 37b8 77a5 3135 d020 ec35
000003e0: af83 d636 68e6 8a37 1ac4 2fb8 1984 c037
000003f0: 54c0 e4b6 0b50 5336 b167 1036 77eb 22b7
2.5049352e-05 -3.413588e-05 5.6270535e-05 -2.4403196e-05 1.4424497e-05 1.0816979e-06 2.9547575e-05 2.2676228e-07
5.3932745e-06 -2.0981592e-05 2.849438e-05 -4.011946e-05 1.2525297e-06 7.905013e-06 -2.5672011e-06 -5.9945296e-06
-6.603471e-05 4.9935166e-05 -3.3163957e-05 2.1324888e-05 1.17421805e-05 1.7231152e-05 5.290584e-06 4.2993533e-06
-3.8673235e-05 1.3698344e-05 -3.9561553e-05 2.2613041e-05 2.7978629e-05 -7.726345e-05 3.6287587e-05 4.2992313e-05
-1.934154e-05 2.9940463e-06 -1.6605518e-05 1.3183019e-05 1.543836e-05 -1.2000525e-05 -4.7345525e-06 -1.55832e-05
-2.5954483e-05 2.5885858e-05 -3.419576e-05 4.0352625e-05 -2.5478901e-05 3.177887e-05 3.1785286e-05 -1.32297255e-05
8.936261e-06 -9.911124e-06 3.4294248e-05 3.485024e-05 -2.2086435e-05 -7.650976e-06 0.00011394073 -0.0001013293
5.402351e-06 1.547346e-05 -2.2964135e-05 -9.900577e-06 -1.7334933e-05 1.8254577e-05 -1.0049078e-05 -7.5134735e-06
-4.7616246e-05 1.0436548e-05 -4.9337013e-05 -7.0054804e-05 8.267106e-05 -0.000103014216 -2.978155e-05 -3.5342346e-05
2.7958062e-05 -3.0489326e-05 9.7317015e-06 -8.043247e-06 2.2618338e-05 -1.694889e-05 -1.8008324e-05 -3.1539774e-05
1.0518305e-05 -2.3786522e-05 8.731122e-05 -0.000120690405 1.7636848e-05 2.2908633e-05 6.890743e-05 -8.345174e-05
9.880119e-05 2.1378031e-05 -3.8427836e-05 -0.000111089656 3.2896132e-05 3.8353883e-05 -9.755344e-06 4.702179e-05
0.000147481 -2.3724931e-05 -1.1946386e-05 3.07022e-05 3.3626464e-05 5.894455e-05 -7.233821e-05 8.941365e-05
2.4779578e-05 -3.0134677e-05 -8.766534e-05 7.728981e-06 -6.168462e-05 5.412389e-05 -1.9393381e-05 -3.1202842e-05
-5.9202835e-06 2.9143397e-05 5.448123e-05 3.020783e-06 -1.4102522e-05 4.836044e-05 2.40096e-05 4.804543e-06
-5.737882e-06 1.9131145e-05 -2.8646233e-05 9.492091e-06 5.7494417e-05 -1.395356e-05 -3.5723642e-05 -4.8328234e-06
1.3099258e-05 5.168002e-05 4.700257e-06 -1.3792787e-05 4.626056e-05 2.221327e-05 2.0796915e-05 -8.2712126e-05
0.00015093363 -0.00017399293 1.2745989e-05 5.3589865e-05 2.3981958e-05 -2.1037033e-05 -1.2067848e-05 5.6632085e-05
4.3891516e-05 -2.0533273e-05 -1.7022518e-05 -2.8053617e-05 8.441374e-05 3.5266545e-05 8.5921594e-05 7.5540214e-05
2.8974117e-05 -1.839568e-05 6.581076e-05 4.3355947e-05 -1.1293374e-05 -4.344876e-05 5.0085542e-05 3.8571874e-05
9.119559e-07 -3.9662336e-05 -0.00018047557 6.6290786e-06 -0.00012621879 1.7327038e-05 3.8880797e-05 2.403434e-05
1.3951357e-06 2.0397345e-05 1.8006833e-05 4.225581e-05 3.9300143e-05 1.4158541e-05 -3.887535e-06 0.00013618043
1.697383e-05 4.4645505e-05 4.311424e-05 6.269877e-05 1.9748202e-05 5.7099525e-05 7.0093392e-06 9.293045e-06
8.629893e-06 2.865756e-05 6.834716e-05 2.0170646e-05 5.263876e-07 -9.065078e-05 4.269846e-05 -2.4619705e-05
6.6592693e-06 2.0173116e-05 1.4426e-05 1.0284373e-05 -1.4179761e-06 2.1046122e-05 -2.5390555e-05 -1.1397996e-06
7.5985718e-06 4.2695105e-05 3.7822758e-07 5.957128e-06 1.008941e-05 0.00010932179 5.881075e-06 -5.0522185e-06
2.1127848e-05 7.272755e-06 6.1078345e-06 -6.942337e-06 2.235675e-05 -2.1263879e-05 -1.2165147e-05 6.290833e-06
-4.677068e-05 7.289157e-05 1.9256744e-05 -3.958189e-05 -4.696007e-05 2.693081e-05 -1.1419728e-05 -5.1076055e-05
-8.309125e-06 -9.0618916e-05 -4.9325176e-06 -4.8488648e-05 -1.561157e-05 2.160513e-05 -9.4212235e-05 -8.213297e-06
3.6454987e-06 -3.9507766e-05 -4.049073e-05 -5.645243e-05 1.7479399e-05 -8.853319e-06 -5.6156092e-05 -2.6137325e-06
-9.155444e-05 -2.4169442e-06 -5.8476882e-05 -1.4782756e-05 4.490431e-05 -4.372738e-05 6.617842e-07 1.759292e-06
6.393027e-06 1.6558173e-05 -4.1905885e-05 2.2949696e-05 -6.8173194e-06 3.1488041e-06 2.1518028e-06 -9.710776e-06
