raisimGymTorch/data/ouzel_only_planning/2022-05-09-12-17-53/full_68000.pt (torch, 162032 bytes, 36 tensors)

architecture.0.weight f4 [64, 27]
0	0xbe82884c	-0.2549461
1	0xbee7267f	-0.45146558
2	0x3c2dcee8	0.010608412
3	0x3e9badbb	0.30405983
4	0x3dd13530	0.10215223
5	0xbe6094a8	-0.21931708
6	0xbd818c73	-0.06325617
7	0x3f6b293d	0.918598
8	0x3e271bc6	0.16319188
9	0x3e60b0c8	0.21942437
10	0xbd50b06d	-0.050949503
11	0xbe0b55b7	-0.13606916
12	0x3eabbb47	0.3354132
13	0xbe02f330	-0.12788081
14	0xbd6bf78f	-0.057609137
15	0x3d50fb5f	0.051020976
16	0x3fba46f3	1.4552902
17	0x3f708d3c	0.93965507
18	0x3e205ffb	0.15661614
19	0xbe05673c	-0.13027662
20	0xbdbc5eac	-0.09197745
21	0x3ea08ba4	0.31356537
22	0x3ef979fc	0.4872588
23	0x3d7b7d64	0.06139888
24	0x3ebbddf7	0.36692783
25	0xbec40363	-0.38283834
26	0xbd1f38f9	-0.038872693
27	0x3c818911	0.015812429
28	0x3e47416f	0.19458555
29	0xbdc9a379	-0.09845633
30	0xbdb84f8e	-0.08999549
31	0x3da6a48f	0.08136856
32	0x3d1832cd	0.037157822
33	0xbe171d63	-0.14757304
34	0xbe331eca	-0.17492214
35	0xbd9782a1	-0.07397962
36	0x3d799d56	0.060941063
37	0xbec83b51	-0.39107755
38	0x3e2e6dc7	0.17034064
39	0xbf957a96	-1.1678035
40	0xbef8e8c1	-0.48615077
41	0xbe92d900	-0.28681183
42	0x3dfb2e42	0.12264682
43	0xbe764275	-0.24048789
44	0x3f37c301	0.7178193
45	0xba1c76cb	-0.0005968629
46	0x3c8695c0	0.016428828
47	0x3e84946e	0.25894493
48	0xbdb101cb	-0.0864292
49	0xbe314be6	-0.17314109
50	0xbc9fc51d	-0.01950317
51	0xbeee905d	-0.46594515
52	0xbe6b5a77	-0.22983728
53	0xbe8ab216	-0.27088994
54	0x3c2bb737	0.010480694
55	0x3f0710ce	0.52760017
56	0x3eba58a3	0.3639575
57	0x3f2a3a26	0.6649498
58	0x3e873680	0.26408768
59	0x3e8a30bf	0.26990315
60	0xbe1aef5e	-0.15130374
61	0xbe3a9887	-0.18222247
62	0xbf4288ea	-0.75990164
63	0x3d85e373	0.06537523
64	0xbeb46882	-0.35235983
65	0xbd5f8ee0	-0.054579616
66	0xbf1d4337	-0.61430687
67	0x3ecd8b45	0.40145317
68	0xbe930e96	-0.28722066
69	0x3e3ae2b0	0.18250537
70	0xbe17b003	-0.14813237
71	0x3f2d49fa	0.67691004
72	0x3d26b71d	0.040701974
73	0x3e8cd185	0.275036
74	0x3f0a4120	0.5400562
75	0x3d0faaa6	0.035074852
76	0x3d986767	0.074415974
77	0xbef6e69a	-0.4822281
78	0x3c0651d9	0.008198225
79	0xbed3ed92	-0.4139219
80	0xbe27eb30	-0.1639831
81	0xbf546f43	-0.8298227
82	0xbf2e0c25	-0.6798728
83	0xbe6b4f66	-0.22979507
84	0xbcdca3c7	-0.026933564
85	0xbe867a72	-0.26265293
86	0x3c44b631	0.012006328
87	0xbeaa4de5	-0.33262554
88	0xbb1d6acb	-0.0024019952
89	0xbe64460e	-0.22292349
90	0xbc1aa642	-0.009439053
91	0xbeb4aa64	-0.35286248
92	0x3d7b9670	0.061422765
93	0xbfce13e4	-1.609982
94	0x3bb25b2c	0.0054429974
95	0x3f66040a	0.89849913
96	0x3e7a446e	0.24440166
97	0xbec6428d	-0.3872265
98	0x3db457f9	0.08805842
99	0xbd84a084	-0.064759284
100	0xbe956980	-0.29182053
101	0xbea68153	-0.32520542
102	0xbd88705d	-0.066620566
103	0xbd2042f1	-0.03912634
104	0xbe0cd30c	-0.13752383
105	0x3e799fe6	0.24377403
106	0xbd5fa8d8	-0.05460438
107	0xbdaf3b82	-0.08556272
108	0x3e945158	0.2896831
109	0x3f65fd2c	0.89839435
110	0xbeb1af11	-0.34703878
111	0x3e9c77af	0.3056006
112	0x3e41bdef	0.1892011
113	0xbeec427a	-0.46144468
114	0x3eb675d8	0.35636783
115	0xbce1aaf7	-0.027547343
116	0xbd8a53b0	-0.067542434
117	0xbe32249b	-0.17396776
118	0xbe54aed1	-0.20769812
119	0xbda0941c	-0.078407496
120	0x3f32179f	0.6956729
121	0x3ec26c0b	0.37973055
122	0x3ee7bf18	0.4526298
123	0xbe10a983	-0.14127164
124	0x3dee83a0	0.11646199
125	0x3e4d1d31	0.20030667
126	0x3e8e0c1a	0.27743608
127	0x3f04ec5f	0.51923174
128	0xbf04a025	-0.5180686
129	0x3ea7624b	0.3269218
130	0x3d06c83c	0.032905802
131	0xbcbd7271	-0.023125859
132	0xbd4d184a	-0.050071992
133	0xbd8ae5ad	-0.067820884
134	0xbe1336b1	-0.14376332
135	0xbdc9968e	-0.09843169
136	0xbe59e86c	-0.21280068
137	0xbecb5fa7	-0.39721414
138	0xbe193506	-0.14961633
139	0xbe1496ed	-0.14510699
140	0xbcd09f0d	-0.025466466
141	0xbd02a352	-0.031894036
142	0xbef7e25a	-0.4841488
143	0xbee1f0c2	-0.44128996
144	0x3d0c0cf0	0.034192026
145	0x3ec28c92	0.37997872
146	0x3ea6cbdc	0.32577407
147	0x3da66675	0.08125011
148	0x3edb66d3	0.42851886
149	0x3db546d6	0.088514015
150	0x3f20bbdc	0.6278665
151	0xbc700828	-0.014650382
152	0xbe6c8276	-0.23096642
153	0xbe5b3f64	-0.214109
154	0xbeacb209	-0.3372958
155	0xbf032f73	-0.51244277
156	0x3e0f22c3	0.13978104
157	0xbf69be8c	-0.91306376
158	0xbe779068	-0.2417618
159	0x3d4af9d4	0.04955466
160	0x3ed767fd	0.42071524
161	0x3d407031	0.046981994
162	0xbe00f38e	-0.12592909
163	0xbf4ab976	-0.7918924
164	0xbee1c7f7	-0.44097874
165	0x3d80b3c1	0.06284285
166	0xbf17a7a5	-0.5924018
167	0x3d44285b	0.04789005
168	0x3d2436a2	0.040091164
169	0xbe19b1ab	-0.15009181
170	0xbf197d3b	-0.5995671
171	0x3e8b61ed	0.2722315
172	0xbe653055	-0.22381718
173	0x3e30125f	0.17194508
174	0xbdfacf6b	-0.12246593
175	0x3f09b483	0.53791064
176	0x3e2d3fb1	0.16918828
177	0x3f1eda77	0.620521
178	0xbee21a92	-0.44160897
179	0xbf1e5f3b	-0.6186406
180	0xbdfe80ef	-0.12426936
181	0xbe9a6c6e	-0.3016085
182	0xbe0d3083	-0.13788037
183	0x3e10ddd1	0.14147116
184	0xbe036465	-0.12831266
185	0x3daf9d59	0.085749336
186	0x3cdafa5d	0.02673071
187	0xbd0d995e	-0.03457009
188	0xbd90b496	-0.07065694
189	0x3ed62c03	0.41830453
190	0xbe652072	-0.22375658
191	0xbeb3b639	-0.35099962
192	0x3ea18373	0.315456
193	0x3ae24329	0.0017262447
194	0xbe3ab2d1	-0.18232276
195	0x3e22a473	0.15883045
196	0x3e63f08d	0.22259732
197	0xbebeb627	-0.37248346
198	0xbd11ccc3	-0.035595667
199	0x3e522c22	0.20524648
200	0x3e8dcce0	0.2769537
201	0x3d582e9c	0.052778825
202	0x3f6121f0	0.8794241
203	0xbf665411	-0.89972025
204	0xbeebcffd	-0.4605712
205	0x3e9af455	0.30264536
206	0x3e42429c	0.18970722
207	0xbe059507	-0.1304513
208	0x3e4f3255	0.20234044
209	0x3d848470	0.06470573
210	0xbc21bf15	-0.009872218
211	0xbdb2227f	-0.08697986
212	0xbef8641d	-0.4851388
213	0x3df722a1	0.12067152
214	0x3ea4d9b7	0.32197353
215	0x3eda96c7	0.4269316
216	0xbe0f5fa3	-0.14001326
217	0x3eb251f7	0.3482816
218	0x3e9fbfae	0.31200927
219	0xbeb2ff2b	-0.34960303
220	0x3e93d26d	0.2887148
221	0x3e1e3739	0.15450753
222	0x3e1d832f	0.15382074
223	0xbd2da6e0	-0.042395473
224	0x3c3cb2aa	0.011517206
225	0xbeaac4c8	-0.33353257
226	0xbd89b161	-0.067232855
227	0x3e935a8f	0.28780028
228	0x3d86bd3b	0.065790616
229	0xbf0bf7d8	-0.54675055
230	0x3f91645e	1.1358755
231	0xbe887aea	-0.26656276
232	0x3ed04988	0.406811
233	0x3e28892b	0.16458575
234	0x3ed2b950	0.41157007
235	0xbea07eb8	-0.3134668
236	0xbeb24388	-0.34817147
237	0x3e9a266b	0.30107436
238	0x3da8cfd1	0.08242763
239	0x3e5ec161	0.21753456
240	0xbef300d1	-0.4746156
241	0xbe370f64	-0.17876965
242	0xbdc9a302	-0.098455444
243	0x3e81ec24	0.25375473
244	0x3ef558b1	0.4791923
245	0xbde1149e	-0.109902605
246	0xbf21e608	-0.63241625
247	0x3efbaaf2	0.49153858
248	0x3e2643aa	0.1623675
249	0x3e98e78e	0.29864162
250	0xbefc3197	-0.49256584
251	0xbf2ca7ef	-0.67443746
252	0xbe9e2dbf	-0.30894276
253	0x3e9cc9b7	0.30622646
254	0xbed6a9c2	-0.4192639
255	0xbf85dfcd	-1.0458924

architecture.0.bias f4 [64]
0	0x3efd8f37	0.49523327
1	0xbf07aea6	-0.5300087
2	0x3f9c27fb	1.2199701
3	0x3bfa067f	0.007630169
4	0x3eaee7cb	0.3416122
5	0xbf546ddd	-0.8298014
6	0xbf8106b7	-1.0080174
7	0xbf8ed245	-1.1157919
8	0xbf8b16df	-1.0866355
9	0x3edc41c7	0.43018934
10	0xbf25b10a	-0.64723265
11	0x3ed52f41	0.41637614
12	0x3fc3d17a	1.5298302
13	0xbfc41ec6	-1.5321891
14	0x3f8de838	1.1086493
15	0x3fb7295a	1.4309494
16	0xbf4342d5	-0.7627385
17	0xbf0b1fa2	-0.5434514
18	0xbf912c46	-1.1341636
19	0x3ed45519	0.41471174
20	0x3fe820e2	1.8135035
21	0xbfa4e744	-1.2883077
22	0x3f640c44	0.89081216
23	0xbf9e0248	-1.2344446
24	0xbdd41ee1	-0.10357452
25	0x3f17f1e3	0.59353465
26	0x3e5c2acd	0.21500702
27	0xbfda5904	-1.7058415
28	0xbf4808bc	-0.7813833
29	0x3b9986d9	0.0046852645
30	0xbd8ab2cb	-0.06772383
31	0xbf6903e0	-0.9102154
32	0xbf9dd56d	-1.2330757
33	0xbf692801	-0.91076666
34	0xbf94c38f	-1.162218
35	0x3e7f8279	0.24952115
36	0x3fa62d90	1.2982655
37	0xbf0ed7d9	-0.5579811
38	0x3f2d607f	0.67725366
39	0xbe9ba40a	-0.3039859
40	0xbf318df3	-0.6935722
41	0xbf1e283a	-0.6178013
42	0x3fa65cec	1.2997108
43	0xbf4a35aa	-0.78988135
44	0xbea41951	-0.32050565
45	0x3ed8e4d8	0.42362094
46	0xbe64a943	-0.22330193
47	0xbf093bbd	-0.5360678
48	0x3ea0f00d	0.31433144
49	0x3f90c993	1.1311516
50	0x3f8c8c91	1.0980397
51	0x3f4aaea7	0.7917275
52	0x3e88cebf	0.26720235
53	0xbfb3a085	-1.4033362
54	0xbf349782	-0.7054368
55	0x3e6a5281	0.22883035
56	0xbf27abc6	-0.6549648
57	0xbfacdb1c	-1.3504367
58	0x3fa89843	1.3171467
59	0x3fbb2ef8	1.4623709
60	0x3fbca5a0	1.4738045
61	0x3fa1fdb5	1.265555
62	0xbe471bc6	-0.19444188
63	0x3e9d118a	0.30677444

architecture.2.weight f4 [64, 64]
0	0x3e8ca071	0.27466157
1	0x3e7c0f67	0.2461525
2	0xbf16c188	-0.58889055
3	0x3c57394b	0.013136218
4	0x3dcb0799	0.099135585
5	0x3d1646c3	0.036688577
6	0x3e9334dc	0.28751266
7	0x3f10602f	0.56396765
8	0x3ee00956	0.43757123
9	0xbe39ec51	-0.18156554
10	0x3eb2154d	0.34781876
11	0xbe7f4a58	-0.24930704
12	0xbf06ebf1	-0.5270377
13	0x398b30ae	0.00026548415
14	0xbeabc9fa	-0.33552533
15	0xbedbb9bc	-0.42915142
16	0xbc731be4	-0.014838193
17	0xbb12400d	-0.002231601
18	0x3f249d21	0.6430226
19	0xbe4c948d	-0.19978543
20	0xbf4965a4	-0.78670716
21	0x3f185bce	0.5951508
22	0xbeb2fe3a	-0.34959584
23	0x3ef0f3cb	0.47061
24	0xbe3993e5	-0.18122824
25	0xbde0126e	-0.10941015
26	0x3de154f3	0.11002531
27	0x3f0d08c3	0.55091494
28	0x3d94b13e	0.07260369
29	0xbe152738	-0.14565742
30	0x3e226ea4	0.15862519
31	0x3ec7c9cf	0.39021155
32	0x3ea5ec84	0.3240701
33	0x3e992b99	0.29916075
34	0x3e327304	0.17426687
35	0xbb8f979c	-0.004382087
36	0xbd9270cf	-0.07150423
37	0x3d52fae7	0.05150881
38	0xbeb7b6da	-0.35881692
39	0x3e6febab	0.23429744
40	0x3e95f9ee	0.29292244
41	0x3d74c01a	0.059753515
42	0xbe3cb173	-0.18427067
43	0x3e39e4fb	0.18153755
44	0xbe8e2183	-0.27759942
45	0xbe6aac44	-0.22917277
46	0xbd5d790d	-0.05407052
47	0x3e2ae02a	0.16687074
48	0xbcb6fe71	-0.022338124
49	0x3d50dd7b	0.05099247
50	0xbe3e2f65	-0.18572767
51	0x3f07a266	0.52982175
52	0x3d1d6519	0.038426492
53	0x3ec77885	0.38959137
54	0x3de5833f	0.11206674
55	0x3ea1544a	0.3150962
56	0x3da262d0	0.07929003
57	0x3ed7ad9f	0.4212465
58	0xbf74ac3f	-0.95575327
59	0xbea6021e	-0.3242349
60	0xbf0ff77c	-0.56237006
61	0xbf0e8c99	-0.55683285
62	0xbe9609e7	-0.2930443
63	0x3e72aa34	0.2369774
64	0x3da3ba0a	0.079944685
65	0xbe137455	-0.14399846
66	0xbc20fe0b	-0.009826194
67	0x3ed33bf4	0.41256678
68	0xbdea6126	-0.11444311
69	0xbd176d69	-0.036969576
70	0xbdbb19d9	-0.091357894
71	0xbefd7068	-0.49499822
72	0x3f07e9ff	0.53091425
73	0x3e4d5220	0.2005086
74	0xbd4ae89a	-0.049538232
75	0x3c043920	0.00807026
76	0xbdb2dce5	-0.087335385
77	0x3eff705b	0.49890408
78	0x3eec8ecc	0.46202695
79	0x3dd59a79	0.10429854
80	0xbd21249d	-0.039341558
81	0x3e4ed1a4	0.20197159
82	0xbe8bf422	-0.27334696
83	0x3e1c3c2a	0.15257326
84	0x3f3b1bc6	0.73089254
85	0x3d93bae6	0.072133824
86	0x3d46dbf0	0.048549592
87	0xbe547506	-0.20747766
88	0x3e782bb0	0.24235415
89	0x3ed7c5f5	0.42143217
90	0xbdc1de1a	-0.09466191
91	0x3ccd4e13	0.025061643
92	0x3f2cac4b	0.674504
93	0x3eae4e38	0.3404405
94	0xbe2dd93b	-0.16977398
95	0x3f095d7a	0.5365826
96	0xbeeb5c96	-0.45969075
97	0xbe42c02e	-0.19018623
98	0xbc00ef88	-0.007869609
99	0x3dfa222c	0.12213549
100	0x3e4e3d5f	0.20140599
101	0xbd609183	-0.05482627
102	0xbe6d6c51	-0.2318585
103	0x3dcb7656	0.0993468
104	0x3d93bca7	0.07213717
105	0xbe32113d	-0.17389388
106	0xbe65aa7e	-0.22428319
107	0x3e947385	0.28994384
108	0x3c7e7f5c	0.0155332945
109	0xbe8feaf1	-0.28108934
110	0xbe117107	-0.14203273
111	0xbcab88a6	-0.020939182
112	0xbd78e38f	-0.06076389
113	0xbeb0085d	-0.3438138
114	0xbcc307ee	-0.023807492
115	0x3e9cc939	0.3062227
116	0xbe620acb	-0.2207443
117	0x3f5e64a0	0.8687229
118	0x3d2a4ad9	0.041575287
119	0x3d36e23e	0.044649355
120	0x3e93a587	0.28837225
121	0x3f2191c4	0.63113046
122	0x3d9fca9f	0.07802319
123	0x3f2174c9	0.63068825
124	0x3f49ec0e	0.78875816
125	0xbea2efc5	-0.31823555
126	0x3e9b14e0	0.30289364
127	0x3c65b6eb	0.014020662
128	0x3eb41d0c	0.3517841
129	0xbefdc1d4	-0.49561942
130	0x3d9e65e1	0.077342756
131	0xbe3ca01e	-0.18420455
132	0xbea100c5	-0.314459
133	0xbd3365fe	-0.04379844
134	0x3e36328b	0.17792718
135	0xbea737be	-0.32659715
136	0xbde5fa29	-0.11229355
137	0x3e80f3fb	0.25186142
138	0xbead4821	-0.33844092
139	0xbccfe3e1	-0.025377216
140	0xbe93df37	-0.28881237
141	0x3d659c83	0.056057464
142	0xbd637295	-0.055529196
143	0xbe0e19bf	-0.13877009
144	0xbe5dbe45	-0.21654613
145	0x3f032966	0.51235044
146	0xbef2f00f	-0.47448775
147	0xbe83585c	-0.2565335
148	0x3f54ec55	0.83173114
149	0xbf5d3a72	-0.86417305
150	0x3d40e3ad	0.04709213
151	0xbd9918e8	-0.074754536
152	0x3ef1a288	0.47194314
153	0x3e15fc75	0.14647086
154	0x3ef162bc	0.4714564
155	0x3e9865ea	0.29765254
156	0x3e83df1d	0.2575616
157	0xbe8577c8	-0.26067948
158	0x3eb197f1	0.34686235
159	0xbf542163	-0.82863444
160	0xbeab7d14	-0.33493865
161	0x3eb38b48	0.350672
162	0xbeac7e42	-0.33690077
163	0x3e48a157	0.19592796
164	0x3f3cc7e3	0.737425
165	0xbf056502	-0.5210725
166	0x3f034b4c	0.5128677
167	0x3f1c95ff	0.61166376
168	0x3f153be2	0.582945
169	0x3e16ca17	0.14725529
170	0x3dadffe2	0.084960714
171	0xbf33b406	-0.7019657
172	0x3e019b93	0.12657003
173	0x3ed61584	0.4181329
174	0xbd8f7183	-0.070040725
175	0xbe886ab5	-0.2664391
176	0x3c300319	0.010742926
177	0x3ecda020	0.40161228
178	0xbec711d9	-0.38880804
179	0x3f1caa17	0.61197037
180	0x3ea3cb30	0.31990957
181	0x3cbb0729	0.022830563
182	0xbf28561f	-0.6575641
183	0xbef3e111	-0.4763265
184	0x3d81820b	0.06323632
185	0xbf0c26c7	-0.5474667
186	0x3f06b091	0.5261317
187	0xbce3cb5d	-0.027806932
188	0xbe2600b2	-0.16211203
189	0x3e14ef6b	0.14544456
190	0x3e8507d9	0.2598255
191	0xbe5ed66d	-0.21761484
192	0xbee33d90	-0.44382906
193	0x3e948a8e	0.2901196
194	0xbe6ecf2b	-0.23321216
195	0x3e522f12	0.20525768
196	0x3ef12226	0.47096366
197	0x3e865d29	0.2624295
198	0x3eaa9738	0.33318496
199	0xbec5b0e5	-0.38611522
200	0x3f0fa525	0.56111366
201	0xbe7228bc	-0.23648351
202	0x3f0e8da2	0.55684865
203	0xbf3d998a	-0.74062407
204	0x3e0420a0	0.1290307
205	0x3f51935f	0.81865495
206	0xbe8c437b	-0.27395234
207	0xbee33836	-0.44378823
208	0x3f0e9738	0.5569949
209	0x3e001da5	0.12511308
210	0x3f24676d	0.64220315
211	0x3f495a41	0.7865334
212	0xbf75472e	-0.95811737
213	0x3afae5cc	0.0019141971
214	0xbf00bd67	-0.50289005
215	0xbeb1cfba	-0.34728795
216	0x3db95f2e	0.09051357
217	0x3d67e39f	0.05661356
218	0xbf25e44b	-0.6480147
219	0x3de1c611	0.11024106
220	0x3b1b0536	0.002365423
221	0x3e398508	0.18117154
222	0xbec983c8	-0.39358354
223	0x3e81e793	0.2537199
224	0x3f05e3cf	0.52300733
225	0xbf07f4b7	-0.5310778
226	0x3ee7b396	0.452542
227	0x3e906012	0.28198296
228	0xbf34a3a9	-0.70562226
229	0x3e555937	0.20834814
230	0xbeb088d4	-0.34479392
231	0x3c8dbb8c	0.017301343
232	0xbbd42c81	-0.006475032
233	0x3f3d45a4	0.7393439
234	0x3c0a57d6	0.008443793
235	0x3e20b173	0.15692692
236	0x3ec7300e	0.3890385
237	0xbf8dd701	-1.1081239
238	0x3f513eee	0.8173665
239	0xbde4cbd1	-0.111716874
240	0x3e9b8771	0.3037677
241	0xbecc683d	-0.39923277
242	0x3e7ebac7	0.24875937
243	0xbf113cfd	-0.56733686
244	0xbe0295e4	-0.12752491
245	0xbe26d47a	-0.16291991
246	0x3f2285a5	0.63485175
247	0x3f192846	0.5982708
248	0x3ed45703	0.41472635
249	0xbdcb1b59	-0.099173255
250	0xbd3f91ea	-0.046770014
251	0xbdc3fdce	-0.09569894
252	0xbd91ade8	-0.07113248
253	0x3b10614e	0.0022030654
254	0x3ea82aa1	0.32845023
255	0xbf08ac13	-0.53387564

architecture.2.bias f4 [64]
0	0xbfe1f40c	-1.7652602
1	0x3de207f8	0.11036676
2	0x3f8edd22	1.1161234
3	0xbf361948	-0.71132326
4	0xbee421a0	-0.44556904
5	0xbf2a0ae9	-0.664229
6	0x3f294e71	0.6613532
7	0xbf243e85	-0.641579
8	0xbe39f960	-0.18161535
9	0xbf089774	-0.533561
10	0xbed0d804	-0.40789807
11	0x3c05e63c	0.008172568
12	0x3df5a507	0.11994367
13	0xbf274b34	-0.65349126
14	0x3f33a0c0	0.7016716
15	0x3e895f00	0.26830292
16	0x3f2123d6	0.62945306
17	0x3f32a5fa	0.6978451
18	0x400b6bb4	2.1784487
19	0x3f1ea781	0.6197434
20	0xbf133a35	-0.5751069
21	0x3de0dd9e	0.1097977
22	0xbea2ea22	-0.31819254
23	0xbf552de2	-0.83273137
24	0xbf59428a	-0.84867156
25	0x3ee7e342	0.4529057
26	0xbd168ff0	-0.036758363
27	0x3d5af9c6	0.05346086
28	0x401f89d4	2.4927874
29	0xbdf09d66	-0.11748771
30	0x3e9e388d	0.3090252
31	0x3e9d6990	0.307446
32	0xbe983146	-0.29725093
33	0xbf2e76c3	-0.68149966
34	0x3f0d18f2	0.5511619
35	0x3e600f8d	0.21880932
36	0xbefd2490	-0.49441957
37	0x3dda237a	0.10651298
38	0xbf5765c1	-0.8413964
39	0x3fc648fd	1.5491024
40	0xbff2914b	-1.895059
41	0x3e7b0224	0.24512535
42	0xbefcd428	-0.49380612
43	0xbe342901	-0.17593767
44	0x3ef8937b	0.4855002
45	0x3fabc736	1.3420169
46	0xbfe69f70	-1.8017406
47	0x3ea9872e	0.33110946
48	0x3ec4d650	0.38444757
49	0xbf195945	-0.5990184
50	0xbf89e8f3	-1.0774215
51	0xbf1fd357	-0.62431854
52	0x3ea6c5a3	0.3257266
53	0x3e9d71ec	0.30750978
54	0xbf7356a1	-0.9505406
55	0x401a3b1a	2.4098573
56	0xbdac0e2c	-0.084011406
57	0x3ea2ca5c	0.31795013
58	0x3da437e7	0.08018475
59	0xbd0fee4c	-0.035139367
60	0xbe254c74	-0.16142446
61	0x3d72069a	0.059088327
62	0x3d16ef2c	0.036849186
63	0xbf3a74e0	-0.7283459

architecture.4.weight f4 [9, 64]
0	0xbca182aa	-0.019715626
1	0x3da102a8	0.07861835
2	0xbc79e88b	-0.0152531965
3	0xbc6d217f	-0.014473318
4	0xba76551b	-0.0009396837
5	0x3b810895	0.0039377906
6	0xbc36c3d3	-0.011155087
7	0x3b0fe6b5	0.002195758
8	0xbbb3c325	-0.0054859095
9	0x3c3dea4a	0.011591503
10	0xbb1f3091	-0.0024290422
11	0xbbdc50d1	-0.0067235013
12	0x3b4e9129	0.0031519628
13	0xbc978849	-0.018497603
14	0x3c59610a	0.013267765
15	0xbc0c062a	-0.0085463915
16	0xbd1a76c2	-0.037710913
17	0xbbc7d2aa	-0.006098111
18	0x3d1b8929	0.037972603
19	0x3b2b728d	0.0026160807
20	0x3c4a608a	0.012352118
21	0xbc92455b	-0.017855337
22	0xbccef321	-0.025262417
23	0x3cb0674e	0.021533635
24	0x3a7e1c28	0.00096935267
25	0x3ad183fd	0.001598477
26	0xbcb9fe11	-0.022704156
27	0xbc324934	-0.010881711
28	0x3d0d2ee3	0.034468543
29	0xbbc46bf2	-0.0059943134
30	0x3af68bc0	0.0018809959
31	0xbb9b282d	-0.004735014
32	0xbe08f160	-0.13373327
33	0x3c2218d0	0.009893611
34	0xbcbfcb80	-0.023412466
35	0xbcca33ca	-0.024682898
36	0xbc1591a5	-0.009128963
37	0x3aea31c5	0.0017867616
38	0x3c8acd1f	0.016943512
39	0x3d22c42d	0.03973787
40	0x3c04e7bf	0.008111893
41	0x3b5e2363	0.0033895604
42	0xbc44512e	-0.011982245
43	0xb8914088	-6.926159e-05
44	0x3b981573	0.004641229
45	0x3c17287e	0.009225963
46	0x39a5bbb5	0.00031611105
47	0xbcda4579	-0.026644455
48	0xbc0c713b	-0.008571918
49	0x3bcaa767	0.0061845067
50	0x3c912727	0.017718865
51	0xbd4e1372	-0.050311513
52	0xbd121989	-0.035668883
53	0x3c339f73	0.010963309
54	0x3aa4d156	0.0012574594
55	0xbcb47e3e	-0.022032853
56	0xbbd83dc6	-0.006599161
57	0x3a94ec8f	0.0011362004
58	0x3c8c9744	0.017161973
59	0x3b21a2a9	0.0024663603
60	0x3b97c29b	0.004631353
61	0xbd0eb5e9	-0.03484145
62	0x3bb8bfdf	0.005638107
63	0xbd0241eb	-0.031801146
64	0xbd6250b1	-0.055252735
65	0x3d5455ad	0.05183952
66	0xbc2b880d	-0.010469449
67	0x3c9c033f	0.019044517
68	0xbcf1c000	-0.029510498
69	0x39708ad9	0.00022939908
70	0xbd8916b8	-0.066937864
71	0xbc18cc84	-0.009326104
72	0x3b3d0ad4	0.0028845565
73	0x3cbeaf1d	0.02327686
74	0xbb87fcaa	-0.004149993
75	0x3abe308a	0.0014510315
76	0x3dbba2d2	0.09161915
77	0x3c379f3f	0.011207401
78	0xbc5232c3	-0.012829485
79	0xbc41286a	-0.011789421
80	0xb8e0867d	-0.00010706203
81	0x3cace8c9	0.021107094
82	0x3ab1c332	0.0013562201
83	0xbbc7e147	-0.006099853
84	0xba39c4ac	-0.00070864963
85	0x3d62eb9a	0.05540047
86	0xbd17f669	-0.03710023
87	0x3c004063	0.007827851
88	0x3c8ce34c	0.017198227
89	0xbbd816dc	-0.006594522
90	0x3af91760	0.0019004159
91	0x3bcaf73e	0.0061940243
92	0xbcc3c8b3	-0.023899412
93	0x3adeff73	0.0017013386
94	0xbb0fe4e5	-0.00219565
95	0xbc5880f0	-0.013214335
96	0x3cb2efb5	0.021842817
97	0x3c2e626f	0.010643586
98	0x3d20ff10	0.039305747
99	0x3ce9ff0e	0.028564002
100	0xbbb864e4	-0.0056272615
101	0x3c87e6aa	0.016589481
102	0xbbc64490	-0.0060506538
103	0x3c1d0914	0.009584684
104	0xbb539290	-0.0032283403
105	0x3c46f183	0.012142542
106	0xbd8bc447	-0.06824546
107	0xbc21036c	-0.009827476
108	0xbbe18ac9	-0.0068829996
109	0xbd7bbccd	-0.06145935
110	0xbcfe56fd	-0.031047339
111	0xbc8b9be9	-0.017042117
112	0xbd2eb450	-0.04265243
113	0xbc9fc702	-0.019504074
114	0x3c217edc	0.009856906
115	0x3d5f9098	0.054581255
116	0xbc73d317	-0.014881871
117	0xbc81c2ff	-0.015840052
118	0xbbcf4134	-0.0063249115
119	0xbce7d2b7	-0.028298719
120	0x3c63f702	0.013913872
121	0x3c28ae5a	0.010295475
122	0xbc391aa9	-0.01129786
123	0x3c6cf2a9	0.014462152
124	0x3c517535	0.012784292
125	0x3cfdf10f	0.030998735
126	0x3cbc7761	0.023006143
127	0x3c3753de	0.011189429
128	0x3d0905ba	0.033452727
129	0xbe050de2	-0.12993577
130	0xbbf4c020	-0.007469192
131	0xbc4e921b	-0.012608076
132	0xbca8e52a	-0.020617086
133	0xbab5d4bc	-0.0013872604
134	0xbc2cfda4	-0.0105585195
135	0xbba19ff8	-0.0049324
136	0xbbc28b5e	-0.005937024
137	0xbc2f34b7	-0.010693721
138	0x3afb4590	0.0019170512
139	0xbc643e7c	-0.013930913
140	0x3d33b508	0.043873817
141	0xbc219290	-0.009861603
142	0xbcf731f4	-0.030175187
143	0xbab2e4c9	-0.0013648506
144	0x3b30439f	0.0026895774
145	0xbcc5fadd	-0.024167472
146	0xbd94ef18	-0.07272166
147	0x3ae7f86f	0.001769794
148	0x3d185123	0.037186753
149	0xbbfba6de	-0.007679804
150	0xbcf3d04e	-0.029762413
151	0xbb49c147	-0.0030785368
152	0x3b0fb09c	0.0021925336
153	0x3cb64650	0.022250324
154	0x3c29df6c	0.010368209
155	0xbb28be6c	-0.0025748266
156	0x3e25fd5d	0.16209932
157	0xbc4a941e	-0.012364415
158	0x3c062d6c	0.00818954
159	0x3b71b2f7	0.0036880353
160	0xbda9c102	-0.082887664
161	0xbd02c34f	-0.031924542
162	0x3c6ba228	0.014381923
163	0xbc767bc8	-0.01504416
164	0x3b724938	0.0036969911
165	0xbcc202bb	-0.023682943
166	0x3a778e5a	0.0009443514
167	0x3ca02e85	0.019553432
168	0x3c0041ca	0.007828185
169	0xbc5c4b74	-0.013445724
170	0xbc41607d	-0.01180279
171	0x3b679e6c	0.003534223
172	0x3ba4d82a	0.0050306516
173	0x3cd3113e	0.025765058
174	0x3bb54673	0.00553208
175	0x3bab9547	0.005236301
176	0xbc57e532	-0.013177203
177	0x3940e7fc	0.00018396968
178	0xbcc54b8b	-0.024083873
179	0x3d8ef083	0.06979468
180	0xbbeefcc8	-0.0072933175
181	0x3a7c62d6	0.0009627765
182	0xbb35e447	-0.0027754472
183	0xbc9917ac	-0.018688045
184	0xbabdeb58	-0.0014489694
185	0x3c290d48	0.010318108
186	0x3b7fe271	0.0039044882
187	0x3b649630	0.0034879558
188	0xbb060be8	-0.0020453874
189	0x3c266e9f	0.01015821
190	0x3afb314b	0.0019164471
191	0xbc50d374	-0.012745727
192	0xbf3cb408	-0.73712206
193	0xbd50b815	-0.050956804
194	0x3f1b4693	0.6065456
195	0xbeea8e89	-0.4581187
196	0xbbb0ab39	-0.005391505
197	0xbe457752	-0.19283798
198	0x3de85453	0.113442086
199	0xbeb16e5e	-0.34654516
200	0xbe9d24e0	-0.30692196
201	0xbe68ac15	-0.22721894
202	0xbe2d8f53	-0.16949205
203	0x3d4df26f	0.05028003
204	0xbca3a11f	-0.01997429
205	0xbf21f8ea	-0.6327044
206	0x3d9e4ec4	0.07729867
207	0x3e322aea	0.17399183
208	0x3e9a0e90	0.30089235
209	0x3f06f6dd	0.52720433
210	0x3f38b50f	0.72151273
211	0x3e62bb22	0.22141698
212	0xbed029f3	-0.40657005
213	0x3e3c7c7d	0.18406864
214	0xbdb94d92	-0.090479985
215	0xbf39b4da	-0.7254158
216	0xbf3c8a92	-0.7364894
217	0x3e91f672	0.28508335
218	0xbe8eb154	-0.27869666
219	0x3d80196a	0.06254847
220	0x3f2ae141	0.6674996
221	0xbeb73537	-0.35782787
222	0x3e8a3eeb	0.27001128
223	0xbde9a79c	-0.11408922
224	0xbd03f11f	-0.032212373
225	0xbe92c9f0	-0.2866969
226	0x3eafed14	0.34360564
227	0xbde81afc	-0.11333272
228	0xbea92506	-0.3303606
229	0xbba5a7e9	-0.005055417
230	0xbec35296	-0.38148946
231	0x3ea7d204	0.32777417
232	0xbf21866e	-0.6309575
233	0x3e16a985	0.14713104
234	0xbe643bcb	-0.22288434
235	0x3e3dce74	0.18535787
236	0x3f262394	0.6489804
237	0x3f32a2ea	0.6977984
238	0xbeb21b18	-0.34786296
239	0x3e4d84d6	0.20070204
240	0x3dadcc51	0.08486236
241	0xbe27e75c	-0.1639685
242	0xbe8c7098	-0.27429652
243	0xbe00f895	-0.12594827
244	0x3d347720	0.04405892
245	0x3de63501	0.112405784
246	0xbf2bde74	-0.6713631
247	0x3f15ca65	0.58511955
248	0xbde0928a	-0.1096545
249	0x3e16d6f2	0.14730433
250	0x3d4134e1	0.04716957
251	0xbe369c34	-0.17833024
252	0xbbd7224b	-0.0065653673
253	0xbde3431b	-0.11096784
254	0xbdf39f81	-0.11895657
255	0xbe9c1c6b	-0.3049043

architecture.4.bias f4 [9]
0	0xbd896dcc	-0.06710395
1	0xbc0e10ce	-0.008670999
2	0xbd92a63d	-0.07160614
3	0x3f749887	0.9554524
4	0x3ddf06ae	0.10889946
5	0xbda60f79	-0.0810842
6	0xbcdad100	-0.026710987
7	0x3f305655	0.6888173
8	0xbe5bac77	-0.21452509

std f4 [9]
0	0x3e4ccccd	0.2
1	0x3e4ccccd	0.2
2	0x3e4ccccd	0.2
3	0x3ee04629	0.43803528
4	0x3e4ccccd	0.2
5	0x3e4ccccd	0.2
6	0x3ebf4fb3	0.37365493
7	0x3ec58d4d	0.38584366
8	0x3e4ccccd	0.2

architecture.0.weight f4 [64, 27]
0	0xb779aa02	-1.488114e-05
1	0xbd3cf974	-0.046136335
2	0xbdba6e2c	-0.09103045
3	0x3e5962ec	0.21229142
4	0x3fb00056	1.3750103
5	0xbe58be38	-0.21166313
6	0xbf83ff87	-1.0312356
7	0xbf1df687	-0.61704296
8	0xbf76b6a3	-0.9637243
9	0xbe0913e7	-0.13386498
10	0x3d813392	0.063086644
11	0x3d7bf10e	0.061509185
12	0xbcc8282f	-0.024433224
13	0x3e0bbaef	0.13645528
14	0xbe0c7901	-0.13718034
15	0x3cb098fb	0.021557322
16	0xbe6c0d25	-0.23051889
17	0xc05e6ee5	-3.4755185
18	0xbe19311a	-0.14960137
19	0xbfb37099	-1.4018737
20	0x3ea7653f	0.32694432
21	0x3f963be6	1.173703
22	0x3eef4a74	0.4673649
23	0x3f71868a	0.94345915
24	0x3df8fe1c	0.121578425
25	0xbe4a83f8	-0.19776905
26	0xbe6bea98	-0.23038709
27	0xbbf29300	-0.0074027777
28	0xbbc92d0c	-0.006139403
29	0xbc8ad582	-0.016947512
30	0xbda201e7	-0.07910519
31	0xbe3a8dde	-0.1821818
32	0x3ee48ef3	0.44640312
33	0xbe6a3261	-0.2287078
34	0xbf11d673	-0.5696785
35	0x3e2dfc2a	0.16990724
36	0xba053e1a	-0.0005082801
37	0xbe308644	-0.17238718
38	0xbec27897	-0.37982628
39	0x3de2cc02	0.11074068
40	0x3ddce9a7	0.10786753
41	0xbe9e4d50	-0.3091836
42	0x3e209d7b	0.15685074
43	0x3dcc4828	0.099747
44	0x3d145654	0.03621514
45	0xbdc7abb0	-0.09749544
46	0x3e1cbb1f	0.15305756
47	0xbe85d69a	-0.2614029
48	0x3e51039e	0.20411536
49	0x3f1bb926	0.6082939
50	0x3e296ee2	0.16546205
51	0x3e2b9412	0.16755703
52	0xbe12824d	-0.14307518
53	0xbe61cc11	-0.22050501
54	0xbd936548	-0.07197052
55	0x3c25bcf8	0.010115854
56	0x3dbaa58c	0.09113607
57	0x3eb155e3	0.3463584
58	0xbf214ca4	-0.6300757
59	0x3f577b2b	0.84172314
60	0x3f5ea4e0	0.8697033
61	0x3f4f2927	0.8092217
62	0xbf36f635	-0.7146943
63	0x3e02f4b4	0.1278866
64	0xbc8e352d	-0.01735934
65	0x3e062dda	0.13103428
66	0xbc86625c	-0.016404323
67	0xbda9e1a4	-0.08294991
68	0x3b73bd79	0.0037191792
69	0x3d5a5937	0.05330774
70	0xbeb6f12c	-0.35730875
71	0xbec140b6	-0.37744683
72	0xbe9482a2	-0.29005915
73	0x3f1b8f47	0.607655
74	0xbf48f333	-0.7849609
75	0xbf67b7e6	-0.9051498
76	0xbf5fd35e	-0.87431896
77	0x3f3a5b39	0.72795445
78	0xbe02ac15	-0.12760957
79	0x3d10e4d9	0.035374496
80	0xbe36af37	-0.17840277
81	0xbd7ff480	-0.062489033
82	0xbcaebb05	-0.021329412
83	0x3eceef93	0.40417156
84	0xbed9da07	-0.42549154
85	0x3dd8f4fe	0.105936036
86	0x3d8e62fe	0.06952475
87	0x3e5deeef	0.21673177
88	0xbeaedb16	-0.34151524
89	0x3e370a80	0.17875099
90	0xbe2cdc78	-0.16880977
91	0x3e546dd2	0.20745018
92	0x3e093de5	0.13402517
93	0xbcee14d3	-0.029062664
94	0x3af709ed	0.0018847563
95	0xbb5708eb	-0.0032811712
96	0xbb2774df	-0.0025551838
97	0xbcfc9fce	-0.03083792
98	0x3d4b729b	0.049669843
99	0x3ed8b753	0.42327365
100	0xbdad19f5	-0.084522165
101	0xbd4bf08b	-0.049789947
102	0xbe54b1c3	-0.20770936
103	0x3e64da9b	0.22349016
104	0xbe1d5654	-0.15364963
105	0x3e037976	0.12839302
106	0xbe67d222	-0.22638753
107	0xbe226aa9	-0.15861
108	0x3d16bf22	0.036803372
109	0x3cd9c44e	0.026582863
110	0x3b9c5a98	0.004771542
111	0x3e17d803	0.14828496
112	0xbdcf3dfe	-0.10119246
113	0xbe8cdc86	-0.27511996
114	0x3cab1944	0.020886071
115	0x3d898d1e	0.06716369
116	0xbe068306	-0.13135919
117	0x3dbea8aa	0.09309514
118	0xbde511f1	-0.11185063
119	0xbe31f05f	-0.1737685
120	0xbe965935	-0.29364935
121	0x3c104d10	0.008807436
122	0xbeaf769a	-0.34270173
123	0xbb63fafe	-0.0034787054
124	0x3cf1cad3	0.02951566
125	0xbc8746a2	-0.016513173
126	0x3da71c95	0.081597485
127	0x3c00b46c	0.007855516
128	0xbda1c3de	-0.07898687
129	0xbd0e0299	-0.034670446
130	0x3cca22f1	0.024674864
131	0x3e41c8af	0.18924211
132	0x3df32e9b	0.11874124
133	0xbcd0d7d4	-0.02549354
134	0xbe3e85db	-0.1860575
135	0xbcb44975	-0.022007683
136	0xbab042f7	-0.0013447691
137	0xbce38efb	-0.02777814
138	0xbbf54bde	-0.0074858507
139	0x3cbb00ae	0.022827473
140	0x3d284681	0.041082863
141	0xbd32e7d0	-0.043678105
142	0x3cbe2e50	0.023215443
143	0x3d07a46b	0.033115786
144	0x3d1c988d	0.03823142
145	0x3be6c6e9	0.007042755
146	0x3e25cc9c	0.16191334
147	0x3f1ef77e	0.62096393
148	0x3e506b16	0.2035335
149	0x3ff4bc66	1.9119995
150	0xbd45b9bc	-0.048272833
151	0x3d869488	0.06571299
152	0xbe203dc2	-0.15648559
153	0x3cc3e931	0.023914905
154	0xbcec4cbc	-0.028845184
155	0xbc382b4e	-0.011240793
156	0x3d6e87f4	0.058235124
157	0x3d20848e	0.039188914
158	0xbd31f0ea	-0.043442644
159	0xbc3446bc	-0.0110031925
160	0xbca9cedd	-0.020728523
161	0x3d26be99	0.04070911
162	0x3c824fdb	0.015907219
163	0xbb43cc5a	-0.0029876442
164	0xba7e9172	-0.0009711004
165	0xbdb95cbf	-0.09050893
166	0x3e1517d1	0.14559866
167	0xbcf54c75	-0.029943684
168	0xbd442ec4	-0.04789616
169	0x3b4687bd	0.0030293309
170	0x3dbe62e8	0.092962086
171	0x3dfedc68	0.12444383
172	0xbe156130	-0.14587855
173	0xbc80aaa8	-0.015706375
174	0xbcd1ee49	-0.025626319
175	0xbc3b94cb	-0.011449049
176	0x3d818e98	0.06326026
177	0xbd8aba81	-0.06773854
178	0x3c9ca1aa	0.019120056
179	0x3dc16bfe	0.09444426
180	0x3ba3bc55	0.004996816
181	0x3d356963	0.044289958
182	0x3e450190	0.19238877
183	0x3e02194e	0.12704965
184	0x3e78b170	0.24286437
185	0x3cd610ee	0.02613112
186	0x3ddfec97	0.10933798
187	0xbd7fce45	-0.062452573
188	0x3e2e0ca0	0.16997004
189	0xbc26dbb0	-0.0101842135
190	0x3ce7c39c	0.028291516
191	0x3c53089d	0.012880472
192	0x3d531c58	0.051540703
193	0x3d1b3f6f	0.037902292
194	0x3cb5e341	0.02220309
195	0xbcd51a52	-0.026013527
196	0xbcc25b6b	-0.023725232
197	0xbd3f12ec	-0.046648905
198	0x3c5699e1	0.013098211
199	0x3bed1426	0.007235068
200	0xbcc233b5	-0.023706296
201	0x3f95b6f3	1.1696457
202	0xbf9a34ce	-1.2047365
203	0x3e46751c	0.19380611
204	0x3be11eab	0.006870111
205	0xbd297d8d	-0.0413795
206	0xbe69c22d	-0.22827978
207	0xbce2f13b	-0.027702918
208	0xbd53313c	-0.051560625
209	0x3d953313	0.07285132
210	0xbc8cfda7	-0.017210795
211	0x3cc827e9	0.024433093
212	0x3c0465a7	0.008080876
213	0xbc66392f	-0.01405172
214	0xbb97cafb	-0.0046323515
215	0x3c5c7b57	0.013457141
216	0xbc049888	-0.008093007
217	0x3d6127b5	0.05496951
218	0xbd019374	-0.031634763
219	0xbe808b1c	-0.25106132
220	0x3e4c2a39	0.19937982
221	0xbeaeab5d	-0.34115115
222	0x3e576a95	0.21036752
223	0xbd78b27b	-0.060717087
224	0x3e9fcea6	0.31212348
225	0xbecb7e9d	-0.39745036
226	0x3e4980be	0.19678017
227	0xbeffb6f1	-0.4994426
228	0xbe45ac2d	-0.19303961
229	0x3de7ad2b	0.11312326
230	0xbe9626b7	-0.29326412
231	0xbde1340d	-0.10996256
232	0xbdd984d7	-0.1062104
233	0x3a7dcdea	0.00096818677
234	0xbe0a5ae6	-0.13511238
235	0x3c3ada0b	0.011404525
236	0x3ca7620f	0.0204325
237	0x3d47082c	0.048591778
238	0xbdf3aed6	-0.11898582
239	0x3d4ea9f9	0.050455067
240	0xbe039785	-0.12850769
241	0xbc85bd5f	-0.01632565
242	0xbe4b1fcc	-0.19836348
243	0x3ec5c266	0.38624877
244	0xbd811362	-0.06302525
245	0xbe09adef	-0.13445257
246	0xbb8d2935	-0.004307891
247	0x3ec52119	0.38501814
248	0xbd7195df	-0.05898082
249	0x3e2c6cb0	0.16838336
250	0xbe304c49	-0.172166
251	0x3ea152e8	0.31508565
252	0x3e878c4a	0.2647422
253	0xbe29f2bb	-0.165965
254	0x3eddc0c3	0.43311128
255	0x3c0b960d	0.008519662

architecture.0.bias f4 [64]
0	0x3e396030	0.18103099
1	0xbfba7fce	-1.4570253
2	0x3d5da7c6	0.05411508
3	0x3fb75e49	1.4325649
4	0x3fa2026f	1.2656993
5	0xbf5de5c7	-0.8667874
6	0xc000431f	-2.0040967
7	0x3f5bc6a5	0.8584998
8	0x3f0a356f	0.53987783
9	0x3fb19b37	1.3875493
10	0xbf168e85	-0.5881122
11	0x3f67f2e9	0.90605026
12	0x3f920d57	1.1410321
13	0x3eb3303d	0.3499774
14	0xbfb6a218	-1.4268217
15	0x3fa40e37	1.2816838
16	0x3a3a6654	0.0007110585
17	0x3e43ed55	0.19133504
18	0xbf93a05e	-1.1533315
19	0xbfcfc812	-1.6232932
20	0xbfe7f489	-1.8121501
21	0xbfd1ea42	-1.6399615
22	0xbfb2a652	-1.3957007
23	0x3cdff3c6	0.02733792
24	0xbf99b0db	-1.2007097
25	0x3f3682aa	0.7129313
26	0xbf9efb18	-1.2420378
27	0xbf4b975e	-0.79527843
28	0xbf6d4567	-0.92684025
29	0xbfa21143	-1.2661518
30	0xbfca6e5c	-1.5814929
31	0xbf9c5be9	-1.2215549
32	0xbfaec55a	-1.3653977
33	0xbd6fd5c1	-0.05855346
34	0xbf3e49f3	-0.7433159
35	0x3faff835	1.3747622
36	0x3f605d0a	0.87641966
37	0xbf10372f	-0.56334203
38	0xbf9a9d4b	-1.2079252
39	0x3d74bb8d	0.059749175
40	0x3f0d083c	0.5509069
41	0x3fba799a	1.456836
42	0xbf3f89d5	-0.7481969
43	0x3e18b51f	0.14912842
44	0x3debc823	0.115127824
45	0xbfa1e293	-1.264727
46	0x3f38a072	0.7211982
47	0x3f792a24	0.97329926
48	0xbdc7decb	-0.09759291
49	0x3f3bb4fc	0.73323035
50	0xbfa073a1	-1.2535287
51	0x3fb85ebd	1.4403912
52	0xbfb62623	-1.4230388
53	0x3fe54860	1.7912712
54	0xbbbe7c9d	-0.005813195
55	0xbfbb25b1	-1.4620878
56	0xbfb73ba7	-1.431508
57	0x3fbbab81	1.4661714
58	0x3c522447	0.012826032
59	0xbf9442bf	-1.1582869
60	0x3da312ff	0.079626076
61	0xbd14728f	-0.036242064
62	0xbe9bdc79	-0.30441645
63	0xbd5734a3	-0.052540433

architecture.2.weight f4 [64, 64]
0	0xbe41f627	-0.18941556
1	0xbef375e6	-0.47550887
2	0xbe551157	-0.20807396
3	0xbf2414fc	-0.6409452
4	0x3ed8421f	0.42237946
5	0xbe5f7c59	-0.21824779
6	0x3ebbe926	0.36701316
7	0x3e266167	0.16248094
8	0x3d9aa7ce	0.075515375
9	0xbf279141	-0.65456015
10	0xbe86c48a	-0.26321822
11	0x3d506d97	0.050885763
12	0xbd39c5ca	-0.045354642
13	0x3e847d39	0.25876787
14	0x3f2949e8	0.66128397
15	0x3e316647	0.17324172
16	0x3e78fbf0	0.24314857
17	0xbec20fce	-0.37902683
18	0x3ee8ca8e	0.45467037
19	0xbcb7fc2d	-0.022459114
20	0x3e5f4343	0.21803002
21	0xbec86778	-0.3914144
22	0x3f1aa94e	0.6041459
23	0x3ceedefe	0.029159065
24	0x3d83873d	0.06422279
25	0xbe868023	-0.26269636
26	0x3f26ba5a	0.651281
27	0xbe75b8c1	-0.2399626
28	0xbead2d85	-0.3382379
29	0x3e5625d5	0.2091287
30	0xbda0b4b0	-0.078469634
31	0x3d8057ba	0.062667325
32	0x3f781bba	0.9691731
33	0x3ed1eb2c	0.40999734
34	0x3d5a7e8e	0.05334335
35	0x3dc94473	0.09827509
36	0x3e57faef	0.21091817
37	0xbea4b004	-0.3216554
38	0x3da1746a	0.07883532
39	0x3ec0a135	0.3762299
40	0xbe07b8a8	-0.13254035
41	0x3eac17de	0.3361196
42	0x38d1729c	9.987244e-05
43	0x3fb90d71	1.4457227
44	0x3ccde338	0.02513276
45	0x3f233199	0.63747555
46	0x3f4866c1	0.7828179
47	0x3dc6b89a	0.09703179
48	0x3c4a57d2	0.01235004
49	0xbdaeade6	-0.08529262
50	0x3e692938	0.2276963
51	0xbbda70d6	-0.006666283
52	0xbd890d5d	-0.06692002
53	0x3e1e4e63	0.1545959
54	0xbd829357	-0.06375759
55	0x3ee69215	0.45033327
56	0xbce317cd	-0.02772131
57	0xbe42070e	-0.18948004
58	0xbf02e17d	-0.5112532
59	0x3ea229af	0.31672427
60	0xbe545bef	-0.20738195
61	0x3ea6992b	0.32538733
62	0x3d2afdfb	0.04174612
63	0xbe29d9a3	-0.16586928
64	0xbec0bc66	-0.37643737
65	0xbf35e36d	-0.7105015
66	0x3ebea62a	0.37236148
67	0x3f2ead90	0.68233585
68	0x3f07da89	0.53067833
69	0xbf08983a	-0.5335728
70	0xbf6becd4	-0.92158246
71	0x3eca3dc6	0.39500254
72	0x3ecfc704	0.40581524
73	0x3ed24c5f	0.41073892
74	0xbf139dec	-0.57662845
75	0x3ed1652c	0.408975
76	0x3e456f7a	0.19280806
77	0x3e48a6a8	0.19594824
78	0xbefa7c07	-0.4892275
79	0x3e7a6af1	0.24454857
80	0x3cd6f7ef	0.02624127
81	0x3eaf6f30	0.34264517
82	0xbf0113dd	-0.50420934
83	0xbf80618b	-1.0029768
84	0xbf0990b1	-0.53736407
85	0xbf86c830	-1.0529842
86	0xbf0c420d	-0.54788285
87	0xbd4fd20b	-0.050737422
88	0xbe909a0d	-0.2824253
89	0xbdd0751e	-0.10178588
90	0xbed5c760	-0.41753674
91	0x3e9c8502	0.30570227
92	0xbe99a04c	-0.3000511
93	0xbf2ad2d0	-0.66727924
94	0xbef88115	-0.48535982
95	0xbf0dcf8c	-0.55394816
96	0xbf304de4	-0.6886885
97	0x3e829a30	0.2550826
98	0xbf0d990d	-0.5531166
99	0x3f0097e1	0.5023175
100	0x3e844186	0.2583124
101	0xbed6b19d	-0.41932383
102	0xbe46d2d8	-0.19416368
103	0xbddca77f	-0.10774135
104	0x3e35249c	0.17689747
105	0x3efc6ff0	0.49304152
106	0xbeb352d5	-0.35024133
107	0xbb0a7629	-0.0021127558
108	0xbe55e310	-0.20887399
109	0x3d2013c3	0.039081346
110	0xbe198002	-0.14990237
111	0x3e9ec5dc	0.3101033
112	0xbe5d7a5f	-0.21628712
113	0x3e1f7b30	0.15574336
114	0xbef30b66	-0.47469634
115	0xbc908df5	-0.017645815
116	0xbf174ab7	-0.5909838
117	0x3f3d037d	0.7383345
118	0x3bd2dcfb	0.0064350343
119	0xbf26a29b	-0.65091866
120	0xbead95e7	-0.3390343
121	0x3f53d9fb	0.82754487
122	0xbe992265	-0.29909053
123	0xbeffae66	-0.49937743
124	0xbe1d12ce	-0.15339205
125	0xbe8e7f00	-0.27831268
126	0x3dbde310	0.09271824
127	0xbcd4ede6	-0.025992345
128	0x3f084144	0.5322459
129	0x3f2a5efc	0.66551185
130	0xbee7cc5d	-0.45273104
131	0xbf799623	-0.97494715
132	0xbea936d6	-0.3304965
133	0x3f1d7a96	0.61515176
134	0x3f232921	0.6373463
135	0xbf1b8fd1	-0.6076632
136	0xbedda555	-0.432902
137	0xbf2a2397	-0.66460556
138	0x3ebad8ab	0.3649343
139	0xbea40429	-0.32034424
140	0xbe3f152a	-0.18660417
141	0xbec79b7c	-0.38985813
142	0x3f00d966	0.50331724
143	0xbf0c453e	-0.54793155
144	0xbe53a628	-0.20668852
145	0xbe6c1e14	-0.23058349
146	0x3f507a3f	0.8143653
147	0x3f3eb046	0.7448772
148	0x3e5c5948	0.21518433
149	0x3f654f2c	0.8957393
150	0x3e7762db	0.24158804
151	0xbdeda58f	-0.116038434
152	0x3e9cd501	0.3063126
153	0xbd37ec23	-0.044902932
154	0x3eca2339	0.39479998
155	0xbe169a25	-0.14707239
156	0x3de76a49	0.11299569
157	0x3f0fe160	0.5620327
158	0x3f3b511a	0.73170626
159	0x3f0f1035	0.55884105
160	0x3f55a8b9	0.83460575
161	0xbcba2887	-0.022724403
162	0x3f0adfd5	0.5424779
163	0xbeb77b7f	-0.35836408
164	0xbe99bbb1	-0.3002601
165	0x3f24a8a5	0.6431983
166	0xbdeca458	-0.115547836
167	0x3e9b4dc7	0.30332777
168	0x3dc840d9	0.09777994
169	0xbf581f51	-0.84422785
170	0x3ee03f8b	0.4379848
171	0xbd093175	-0.03349443
172	0xbe1f2eb4	-0.1554516
173	0xbded9a96	-0.116017506
174	0xbd05bd47	-0.032651212
175	0xbf019ff0	-0.5063467
176	0x3cdc1c43	0.026868945
177	0xbe028fbe	-0.12750146
178	0x3c49052e	0.012269301
179	0xbebf44f3	-0.37357292
180	0x3f149770	0.58043575
181	0xbf34bfdf	-0.7060527
182	0xbe04da55	-0.12973912
183	0x3de3575f	0.11100649
184	0x3f28fa6e	0.66007125
185	0xbfb68199	-1.42583
186	0x3edfa197	0.4367797
187	0x3f494dc3	0.7863428
188	0x3e8267c7	0.254698
189	0x3ee5e8f3	0.4490429
190	0xbdd83ae8	-0.105581105
191	0x3c242305	0.010018115
192	0xbd2f614b	-0.042817395
193	0xbeaee5ae	-0.34159607
194	0xbd97d51f	-0.074136965
195	0x3f6b9eed	0.92039376
196	0x3a8349b6	0.0010016474
197	0x3d26b08f	0.040695723
198	0x3ecb75c0	0.39738274
199	0xbd14581e	-0.036216848
200	0x3ec0e8dc	0.37677658
201	0x3f1cff74	0.6132729
202	0xbdcff838	-0.10154766
203	0x3ed632ad	0.41835538
204	0x3e46800d	0.19384785
205	0xbec638a7	-0.38715097
206	0xbee68422	-0.45022684
207	0x3d3e0893	0.046394896
208	0x3ea9a0cb	0.33130488
209	0xbf80d54f	-1.0065097
210	0xbebb47f3	-0.3657833
211	0x3f6999a2	0.9125005
212	0x3f0a5f43	0.5405161
213	0x3ea3a097	0.31958458
214	0xbed4048b	-0.41409716
215	0x3e871d98	0.26389766
216	0x3f0ac957	0.5421347
217	0xbe5353f6	-0.20637497
218	0xbf45bd18	-0.7724166
219	0xbcbd068b	-0.023074409
220	0x3ea071bb	0.3133677
221	0x3f296fb3	0.66186064
222	0xbe89fd8a	-0.26951247
223	0x3e8fe4d4	0.2810427
224	0xbf425fe8	-0.7592759
225	0xbea0d88c	-0.31415212
226	0x3e827727	0.2548153
227	0x3eb32997	0.34992668
228	0x3de4cd9e	0.11172031
229	0x3dd1f954	0.10252634
230	0x3e108298	0.14112318
231	0x3ecbed51	0.39829496
232	0x3e0bd663	0.13656001
233	0x3f710b5e	0.9415797
234	0xbca47e63	-0.020079797
235	0x3e7a1a14	0.2442401
236	0x3f5a7411	0.85333353
237	0xbf1609b5	-0.5860856
238	0x3dde8ffd	0.10867307
239	0x3d42226b	0.047396105
240	0xbd6ae9c5	-0.057351846
241	0xbe862cf2	-0.26206166
242	0xbdbf6772	-0.093459025
243	0x3d873ca1	0.06603361
244	0x3ed24652	0.41069275
245	0xbf311c5f	-0.69183916
246	0x3d42b1e0	0.047532916
247	0xbdb62087	-0.08892923
248	0x3e934951	0.28766873
249	0x3ed2bac3	0.41158113
250	0xbf2507dc	-0.6446512
251	0xbd5c3837	-0.05376455
252	0x3eb26871	0.34845307
253	0x3de32c7e	0.110924706
254	0xbe9ed176	-0.3101918
255	0x3c11e1f8	0.008903973

architecture.2.bias f4 [64]
0	0x3eab2a04	0.33430493
1	0x3f8689f7	1.0510854
2	0xbfa1f2ef	-1.2652262
3	0xbf00661e	-0.5015582
4	0x3e954fdd	0.29162493
5	0xbf95b17f	-1.1694793
6	0x3f6a933f	0.9163093
7	0xbf2f3d63	-0.68453044
8	0xbfa63817	-1.2985867
9	0x3f37d886	0.71814764
10	0x3f557835	0.83386546
11	0xbfa42591	-1.2823964
12	0xbf863ddb	-1.0487627
13	0x3f0baa51	0.5455676
14	0xbcff0cc9	-0.031134026
15	0x3f4a5c91	0.79047495
16	0x3f9ffdb4	1.2499299
17	0x3f05961f	0.5218219
18	0xbf210f63	-0.62914103
19	0x3f9c4ab5	1.2210299
20	0x3ebdd344	0.37075245
21	0xbf5a2ee7	-0.8522782
22	0x3f00b2aa	0.5027262
23	0x3fa4a5e2	1.2863123
24	0xbf276162	-0.6538297
25	0x3f416a22	0.7555257
26	0x3fad3e58	1.3534651
27	0xbec319d8	-0.38105655
28	0xbf819ba2	-1.012562
29	0xbec0a73d	-0.37627593
30	0xbf9ee3ea	-1.2413304
31	0x3ec37600	0.38175964
32	0xbf4cc520	-0.7998829
33	0x3ed625ed	0.4182581
34	0x3f386118	0.72023153
35	0xbf9cceb6	-1.2250583
36	0xbfa1c859	-1.2639266
37	0x3fb98493	1.4493583
38	0xbf2eefd5	-0.68334705
39	0xbf28e7c8	-0.6597867
40	0xbf19e18a	-0.6010977
41	0xbfa2e981	-1.272751
42	0xbf3a6c11	-0.72821146
43	0x3f341b66	0.70354307
44	0xbf9be692	-1.217974
45	0x3f2593d5	0.646787
46	0xbf0e7dfb	-0.5566098
47	0x3f82341d	1.0172154
48	0xbf2c1693	-0.67221946
49	0x3f985247	1.1900109
50	0x3fb7bdeb	1.4354833
51	0xbf031a93	-0.51212424
52	0xbfa16ce9	-1.2611362
53	0xbf8f07d8	-1.1174269
54	0xbf59ddd5	-0.85104114
55	0x3e09ee1b	0.13469736
56	0x3f046999	0.5172363
57	0x3ee9b016	0.45642155
58	0xbee584d6	-0.44827908
59	0x3f69c296	0.9131254
60	0xbf841aab	-1.0320638
61	0x3f44d51c	0.7688768
62	0xbf95f4b8	-1.1715307
63	0x3f9e5a90	1.2371387

architecture.4.weight f4 [1, 64]
0	0xc10209e9	-8.127419
1	0xc0a5b158	-5.1778984
2	0x40a4cef4	5.150263
3	0x4101f8ea	8.12327
4	0xc0e8e988	-7.278507
5	0x40a41032	5.126977
6	0xc0a2ff58	-5.09367
7	0x40a5cbbe	5.181121
8	0x40a6483a	5.1963167
9	0xc0aa7b9e	-5.32759
10	0xc0a1da7e	-5.0579214
11	0x40a766a6	5.2312803
12	0x40a7150f	5.2213206
13	0xc0f4e72c	-7.653219
14	0xc0db8914	-6.860483
15	0xc0d36974	-6.6066227
16	0xc0aac99e	-5.3371115
17	0xc0f69eab	-7.7068686
18	0x40d4f2fb	6.6546607
19	0xc0aa3648	-5.319126
20	0xc0e20b02	-7.0638437
21	0x40cafad3	6.343118
22	0xc0d75cf4	-6.730097
23	0xc0a5d7d8	-5.182598
24	0x40d9f502	6.811158
25	0xc1084784	-8.51746
26	0xc0a30636	-5.094508
27	0x40f11754	7.5340977
28	0x40aaf814	5.342783
29	0x40cdde8d	6.433417
30	0x40a4e690	5.153145
31	0x41029082	8.16028
32	0x40a3193c	5.0968304
33	0xc0e6cf8c	-7.2128353
34	0xc0f53d3c	-7.663725
35	0x40a283e8	5.078602
36	0x40a416e2	5.1277933
37	0xc0a38f88	-5.111271
38	0x4084ba28	4.147724
39	0x40a64ed2	5.1971216
40	0x40dad2d4	6.838236
41	0x40a1dda6	5.0583067
42	0x40954493	4.664621
43	0xc0abd13f	-5.3692927
44	0x40a6ec6c	5.21636
45	0xc0fd5d69	-7.9176526
46	0x40c9133b	6.2835975
47	0xc0ad036e	-5.4066687
48	0x40d778e7	6.7335086
49	0xc0a4d476	-5.150935
50	0xc0a27eb6	-5.0779676
51	0x40f38e6d	7.611136
52	0x40a245f6	5.07104
53	0x40822ee5	4.0682244
54	0x40a52c08	5.161625
55	0xc105929b	-8.348292
56	0xc100b79a	-8.044825
57	0xc0ad3ad6	-5.413432
58	0x40f6112d	7.6895967
59	0xc0af5fa2	-5.480424
60	0x40b00e49	5.501744
61	0xc0a7e291	-5.246407
62	0x40a0d438	5.0259056
63	0xc0a7eb8c	-5.2475033

exp_avg f4 [64, 27]
0	0x384a5e98	4.824865e-05
1	0x3870c1fa	5.7401114e-05
2	0xb72c6cfc	-1.0277374e-05
3	0x37c08b68	2.29531e-05
4	0xb704c8c3	-7.914557e-06
5	0xb7dd1fe5	-2.6360105e-05
6	0xb80e4d73	-3.392757e-05
7	0xb7ae2833	-2.0761136e-05
8	0xb845477c	-4.7035035e-05
9	0xb5c3793a	-1.4563914e-06
10	0xb7ad6418	-2.0669817e-05
11	0xb7ad95f7	-2.069304e-05
12	0xb7896a3e	-1.6381146e-05
13	0xb8250062	-3.9339422e-05
14	0x3725d86e	9.885158e-06
15	0x38492a36	4.7961446e-05
16	0x3829e891	4.0509334e-05
17	0xb835be12	-4.333078e-05
18	0x37f08ba3	2.8675253e-05
19	0xb6f6af92	-7.3518104e-06
20	0xb8171dc4	-3.6028927e-05
21	0xb80e24a2	-3.3889555e-05
22	0xb79da411	-1.8792258e-05
23	0xb83989c4	-4.423574e-05
24	0xb5de1baa	-1.654834e-06
25	0xb7955724	-1.7802762e-05
26	0xb76c3aaa	-1.4080355e-05
27	0xb7b1d9a3	-2.120139e-05
28	0x38013c2e	3.0812043e-05
29	0x3662e64b	3.3810672e-06
30	0x3887ab08	6.469159e-05
31	0xb743ac3d	-1.1663008e-05
32	0xb88c56e2	-6.6919034e-05
33	0xb81afa55	-3.69496e-05
34	0x387a80c5	5.972457e-05
35	0x3838701c	4.397343e-05
36	0xb822731b	-3.873101e-05
37	0xb7da4542	-2.6019876e-05
38	0x3874b6c2	5.834434e-05
39	0x37fb32ea	2.994524e-05
40	0xb7f3d5a6	-2.9067345e-05
41	0xb7f41d7e	-2.91008e-05
42	0x37c4f57b	2.3479332e-05
43	0xb83d9982	-4.5204077e-05
44	0xb7c384c3	-2.3307633e-05
45	0x3875b7b1	5.8583628e-05
46	0xb6e07967	-6.6898533e-06
47	0xb8824cb6	-6.2131716e-05
48	0xb823eae2	-3.908098e-05
49	0x388efc0f	6.818037e-05
50	0x382965b7	4.038747e-05
51	0xb82d0685	-4.1252486e-05
52	0xb7f56988	-2.9255418e-05
53	0x385ad577	5.2174055e-05
54	0xb867cf75	-5.52679e-05
55	0xb8b27d85	-8.511081e-05
56	0x38adee26	8.2936414e-05
57	0xb7675931	-1.3789439e-05
58	0x35be0d8f	1.4160049e-06
59	0x362750a9	2.493189e-06
60	0xb787bf6c	-1.6182392e-05
61	0xb7c534b2	-2.3508768e-05
62	0xb77db2a4	-1.5121568e-05
63	0xb322f895	-3.794465e-08
64	0x3838695c	4.3967142e-05
65	0xb5850f0a	-9.913649e-07
66	0x385a575a	5.2056603e-05
67	0xb7ba21aa	-2.2188604e-05
68	0xb767d1c4	-1.3817513e-05
69	0xb7d589dd	-2.5455776e-05
70	0xb821367c	-3.8436134e-05
71	0x37a942fa	2.0177558e-05
72	0xb7a59de3	-1.9743055e-05
73	0xb5246f3a	-6.1256617e-07
74	0x36c44ef8	5.8504484e-06
75	0xb7a920d7	-2.0161662e-05
76	0xb804271c	-3.1507676e-05
77	0xb646dbdc	-2.9632274e-06
78	0xb360fcf5	-5.2384127e-08
79	0x380fc79d	3.427976e-05
80	0xb64d8f43	-3.063077e-06
81	0x37fccdc7	3.0136564e-05
82	0xb76f1350	-1.4250007e-05
83	0x37f4b453	2.9171037e-05
84	0x37ace4a9	2.0610476e-05
85	0x37d0554f	2.4835257e-05
86	0xb79656aa	-1.792175e-05
87	0xb75b4878	-1.307029e-05
88	0x3799d636	1.8338771e-05
89	0x381f6fae	3.8012564e-05
90	0x363746dc	2.731037e-06
91	0x3631a798	2.6472608e-06
92	0x3804101d	3.148626e-05
93	0xb8305079	-4.2036616e-05
94	0x3865b822	5.476934e-05
95	0xb818a251	-3.6390793e-05
96	0xb803c3bd	-3.141513e-05
97	0xb806a022	-3.2097225e-05
98	0x3788fa2c	1.6328959e-05
99	0x378658ee	1.6015456e-05
100	0x380af3ab	3.3128697e-05
101	0xb6490706	-2.9955422e-06
102	0xb7287a64	-1.0042077e-05
103	0x37dc296c	2.6245332e-05
104	0x37ccf868	2.4434368e-05
105	0x368fa35d	4.28075e-06
106	0x37089944	8.141917e-06
107	0x37e5399f	2.732576e-05
108	0xb745dd37	-1.1793621e-05
109	0x364f4e98	3.0891151e-06
110	0xb7b06d13	-2.1031627e-05
111	0xb88f03a5	-6.81945e-05
112	0xb5d44ec2	-1.5818152e-06
113	0x3728230a	1.00217385e-05
114	0xb83336a4	-4.2727814e-05
115	0xb7a65676	-1.9829004e-05
116	0xb7091b6c	-8.172221e-06
117	0xb8bb0da1	-8.9193934e-05
118	0xb7b4c581	-2.1549642e-05
119	0xb822d80e	-3.8825026e-05
120	0x35f07301	1.7914864e-06
121	0x37d58db4	2.5457564e-05
122	0x3762f77c	1.3528272e-05
123	0xb6f05316	-7.16223e-06
124	0x37934e63	1.7560267e-05
125	0x36e5aa66	6.844569e-06
126	0xb8868d37	-6.415921e-05
127	0xb68fd18e	-4.2861275e-06
128	0x36b49ba2	5.382536e-06
129	0xb846e0be	-4.7416186e-05
130	0xb804e7da	-3.168718e-05
131	0xb70c07b0	-8.34644e-06
132	0xb8b3bca2	-8.570521e-05
133	0xb78c4e6d	-1.672582e-05
134	0xb8077e2d	-3.230402e-05
135	0xb8c51c7d	-9.3989984e-05
136	0x3794798e	1.7699578e-05
137	0xb87cd773	-6.0282135e-05
138	0xb769ace9	-1.3928141e-05
139	0xb75ab336	-1.3035538e-05
140	0x37917672	1.7340502e-05
141	0x38314163	4.2260985e-05
142	0x376ef297	1.4242388e-05
143	0x37e64634	2.7450827e-05
144	0xb6b38e89	-5.351209e-06
145	0x37fa37b5	2.9828263e-05
146	0xb7853ca9	-1.5883083e-05
147	0x3808fb85	3.2659173e-05
148	0xb7891478	-1.6341204e-05
149	0xb7d36b5b	-2.5203151e-05
150	0xb80e2682	-3.38913e-05
151	0x36d61778	6.380429e-06
152	0xb5a0fbe1	-1.1994235e-06
153	0xb751074b	-1.2459069e-05
154	0xb7888903	-1.6276264e-05
155	0x37a6ca41	1.9882924e-05
156	0x3832afd5	4.2602263e-05
157	0x3717db00	9.051291e-06
158	0x37e2adf1	2.7022297e-05
159	0xb7295388	-1.0092634e-05
160	0x37efeeda	2.8602244e-05
161	0xb797b76f	-1.808602e-05
162	0xb79a4eed	-1.8394983e-05
163	0xb8930478	-7.0103386e-05
164	0xb8061328	-3.196593e-05
165	0xb79bb988	-1.8563835e-05
166	0x37ae2d9f	2.076366e-05
167	0xb719fa3d	-9.177774e-06
168	0xb4c4232d	-3.653344e-07
169	0x37cd7121	2.4490584e-05
170	0xb76d0cac	-1.4129251e-05
171	0xb6db4335	-6.5345325e-06
172	0xb80e6e11	-3.3957946e-05
173	0x36f2598f	7.222588e-06
174	0xb770372f	-1.4317963e-05
175	0x37c2d285	2.3224633e-05
176	0xb813d30a	-3.5244077e-05
177	0xb7f2253a	-2.8865983e-05
178	0x35c9cbd6	1.5034991e-06
179	0x375955f3	1.29542195e-05
180	0xb77a96d6	-1.493628e-05
181	0x37bc1533	2.2421218e-05
182	0x374366a0	1.16468e-05
183	0xb7ad4329	-2.0654481e-05
184	0x37dd265b	2.6363114e-05
185	0xb7bfeafa	-2.2878394e-05
186	0xb7b8a082	-2.2009252e-05
187	0xb81c496a	-3.726167e-05
188	0x37c850e5	2.3879527e-05
189	0xb7e66b84	-2.7468202e-05
190	0xb87bc801	-6.002933e-05
191	0xb7e6e9f6	-2.7527083e-05
192	0xb7a98e77	-2.021271e-05
193	0xb7a34810	-1.9464671e-05
194	0x388a3695	6.5905195e-05
195	0x37a243c7	1.9343466e-05
196	0x3840f878	4.600777e-05
197	0xb7754164	-1.4618363e-05
198	0xb883c2db	-6.2828614e-05
199	0xb852f20b	-5.029332e-05
200	0x38564385	5.108446e-05
201	0xb811cb8b	-3.4760258e-05
202	0x380b8c76	3.3270997e-05
203	0xb8174f83	-3.6075257e-05
204	0x371845b1	9.076132e-06
205	0xb7357de3	-1.0817751e-05
206	0x37f1a5ef	2.8806708e-05
207	0xb7b59118	-2.1644446e-05
208	0xb7d37a14	-2.5210007e-05
209	0x3881dd86	6.192461e-05
210	0x37364f0c	1.086645e-05
211	0x383600b9	4.3392854e-05
212	0xb6f00f17	-7.154314e-06
213	0xb893ed09	-7.0536575e-05
214	0xb841d8c3	-4.621666e-05
215	0x38558b0f	5.0912666e-05
216	0x36c4f941	5.870272e-06
217	0x37da71af	2.6040563e-05
218	0xb8a33702	-7.782692e-05
219	0x38997565	7.317475e-05
220	0x3887fdba	6.484562e-05
221	0x3818e123	3.64493e-05
222	0x37b4d946	2.1558848e-05
223	0x389418ad	7.061786e-05
224	0xb8c759e6	-9.505804e-05
225	0x389e3e31	7.545611e-05
226	0xb881f154	-6.19615e-05
227	0x388b6e2d	6.648558e-05
228	0xb7b8f97f	-2.205069e-05
229	0x37a22676	1.9329815e-05
230	0x3709d415	8.2152155e-06
231	0xb8104601	-3.439747e-05
232	0x36db27b8	6.5313325e-06
233	0x3708e941	8.16054e-06
234	0x38a9cfe2	8.097269e-05
235	0x3891cbb3	6.952081e-05
236	0x381ac6ab	3.6901485e-05
237	0x3724128f	9.779483e-06
238	0x38957104	7.1259245e-05
239	0xb8cd9f14	-9.804792e-05
240	0x389202ed	6.9623675e-05
241	0xb877d8dd	-5.909136e-05
242	0x38a2f713	7.770783e-05
243	0xb6c07683	-5.7358425e-06
244	0xb6af5470	-5.2252362e-06
245	0x377a5b11	1.4922364e-05
246	0xb7ab8107	-2.0444872e-05
247	0xb688bd78	-4.075173e-06
248	0x37264801	9.911136e-06
249	0xb73ac309	-1.1131874e-05
250	0xb76249ee	-1.3487863e-05
251	0x377fb2a4	1.5240777e-05
252	0xb7e10aba	-2.6827085e-05
253	0xb6dc79b3	-6.5706786e-06
254	0xb70b6167	-8.307724e-06
255	0x37402870	1.1453507e-05
