raisimGymTorch/data/ouzel_only_planning/2022-05-09-12-17-53/full_10000.pt (torch, 162032 bytes, 36 tensors)

architecture.0.weight f4 [64, 27]
0.20957415 -0.32213742 0.16826226 -0.058707923 0.19322841 -0.23932049 -0.29064718 0.5578857
0.0078310305 0.2215331 -0.069297135 -0.14274536 0.32872686 -0.3393843 -0.13115768 -0.41686088
0.33478716 0.5767435 -0.24164855 -0.043995716 0.049203243 0.03234243 0.12447077 -0.08647658
0.14535157 -0.36763853 -0.10272376 0.039171502 -0.043898568 -0.16147634 -0.01373176 -0.0068155983
-0.15819204 -0.13800915 0.013842338 -0.2372585 0.15564297 -0.36708176 0.15787902 0.06965002
0.31224164 -0.21770635 0.12385121 -0.16117027 -0.17977624 0.25113082 0.007871184 0.12913257
-0.24006474 0.13887106 -0.36353314 -0.38626558 0.015023927 -0.10588198 0.2565191 0.38683054
0.34064677 0.48952475 0.17912997 -0.023860957 -0.13528602 -0.09440106 -0.6487053 0.10278784
0.02009886 0.18108149 -0.19727476 0.09761745 -0.17515194 -0.088069916 0.010531609 0.15355845
-0.17641045 0.19725308 0.17371942 0.038870417 0.11375792 -0.2304677 -0.0039735455 -0.07652982
0.06565612 -0.13653132 -0.2702704 -0.04781007 0.098434396 -0.13057208 0.45741013 0.048733376
-0.26012382 0.06999592 -0.052486304 -0.5040165 -0.0302152 -0.3647259 -0.08257048 0.06593926
-0.042383082 -0.25746408 -0.015042024 0.08775419 -0.0348297 0.10885119 0.14646344 -0.3009968
0.15934078 0.2588795 -0.19572295 -0.16897757 -0.39909768 0.2587866 -0.25538775 0.18258666
0.048045624 -0.074444525 0.15846792 0.09239687 -0.020305494 -0.036123678 -0.09961742 0.16793457
0.013105862 -0.05202142 0.37917998 0.102519274 0.05664077 0.23074976 0.20400243 0.25842777
-0.1965529 0.11303595 0.07923728 -0.004668017 0.014463679 -0.05516803 0.03982859 0.17419663
-0.0673313 -0.20799422 0.033768386 0.03382249 0.15065022 0.2278905 -0.16410273 -0.28534532
-0.15008672 0.21284635 0.28518704 0.11991024 0.12892619 0.29989386 -0.13411848 -0.34674993
0.069142155 -0.10051596 -0.21587713 -0.23766868 0.37511197 -0.5864306 -0.11834288 -0.18432564
0.24850082 -0.04747568 -0.023469238 -0.37062144 -0.31897607 0.15614514 -0.26418275 -0.0035180503
0.02522393 0.06966017 -0.2649983 0.27258065 0.018105228 0.18257351 0.3280991 0.1678208
-0.055817813 0.15911634 -0.26291397 -0.3345188 0.011219202 -0.057503607 -0.07427381 0.32145062
0.10665308 0.26367983 0.015630933 0.24976902 -0.000280373 -0.1514395 -0.13134131 -0.0787347
0.34715068 -0.28680602 -0.29309884 0.1207284 0.19883698 -0.11592775 -0.047133256 -0.0620417
-0.31605715 0.081943594 0.14241692 0.022605471 -0.14944938 -0.2794567 -0.07615001 0.011591079
0.052650698 0.15451024 -0.23528165 -0.017121049 -0.16427362 0.04771642 0.07478963 -0.024170792
-0.1294697 0.001691105 0.20977189 -0.37057337 0.19124772 0.36462814 -0.048435427 0.11507262
-0.1527931 -0.047728706 0.018656243 0.20094727 0.22161515 -0.2774029 0.4212224 -0.15760529
-0.065475844 -0.06593712 0.28454146 -0.37506357 0.054930877 -0.023962308 0.10522602 0.10654035
-0.2979678 -0.15117706 -0.13236108 -0.005358156 0.031612616 -0.14978848 -0.13241543 0.16502835
-0.044385385 0.03118494 -0.40803438 -0.25113997 -0.26763353 0.2406421 -0.17746297 -0.34744063
00000000: 9b9a 563e 32ef a4be f14c 2c3e b877 70bd
00000010: abdd 453e 6e10 75be b5cf 94be 99d1 0e3f
00000020: b94d 003c 93d9 623e a8eb 8dbd d72b 12be
00000030: e34e a83e c7c3 adbe 334e 06be ca6e d5be
00000040: 3969 ab3e 76a5 133f b872 77be da34 34bd
00000050: 5789 493d 7f79 043d 88ea fe3d a21a b1bd
00000060: 0bd7 143e 1e3b bcbe d660 d2bd 4c72 203d
00000070: fcce 33bd 0e5a 25be 2dfb 60bc 6255 dfbb
00000080: 18fd 21be 4552 0dbe f9ca 623c e4f3 72be
00000090: df60 1f3e 24f2 bbbe 0aab 213e aba4 8e3d
000000a0: 23de 9f3e 6aee 5ebe b4a5 fd3d d209 25be
000000b0: 4317 38be 3894 803e 23f6 003c 543b 043e
000000c0: 88d3 75be 3734 0e3e 0421 babe 9ac4 c5be
000000d0: eb26 763c a7d8 d8bd 7956 833e a70e c63e
000000e0: 4169 ae3e fda2 fa3e d96d 373e 0e78 c3bc
000000f0: 6b88 0abe 5855 c1bd 8d11 26bf 6e82 d23d
00000100: 5da6 a43c 6d6d 393e 6502 4abe a8eb c73d
00000110: 085b 33be 005e b4bd c58c 2c3c 6d3e 1d3e
00000120: f1a4 34be b6fc 493e 81e3 313e 9636 1f3d
00000130: eaf9 e83d baff 6bbe 8434 82bb abbb 9cbd
00000140: b776 863d dece 0bbe e260 8abe 7ed4 43bd
00000150: f997 c93d b0b4 05be a931 ea3e a69c 473d
00000160: f32e 85be 055a 8f3d e1fb 56bd 3a07 01bf
00000170: de85 f7bc 5abd babe b61a a9bd 2a0b 873d
00000180: e299 2dbd 55d2 83be d272 76bc 78b8 b33d
00000190: 96a9 0ebd 5fed de3d 83fa 153e 411c 9abe
000001a0: 3b2a 233e db8b 843e 996b 48be 7508 2dbe
000001b0: 8856 ccbe ad7f 843e 2fc2 82be fff7 3a3e
000001c0: 7dcb 443d 5f76 98bd 6a45 223e 923a bd3d
000001d0: b557 a6bc 6cf6 13bd 3804 ccbd 0af7 2b3e
000001e0: f8b9 563c 6a14 55bd e123 c23e a0f5 d13d
000001f0: 2700 683d aa49 6c3e 03e6 503e a550 843e
00000200: 2a45 49be 647f e73d 2847 a23d 2af6 98bb
00000210: 11f9 6c3c dff7 61bd 4e23 233d 9a60 323e
00000220: fee4 89bd 70fc 54be b850 0a3d 7489 0a3d
00000230: 0d44 1a3e 215c 693e 8c0a 28be c818 92be
00000240: 55b0 19be 65f4 593e 0904 923e 8093 f53d
00000250: 3a05 043e b08b 993e 5b56 09be 3589 b1be
00000260: 679a 8d3d 50db cdbd e50e 5dbe 6b5f 73be
00000270: ad0e c03e 5120 16bf c05d f2bd dcbf 3cbe
00000280: 0077 7e3e dc75 42bd 8f42 c0bc 18c2 bdbe
00000290: d550 a3be 83e4 1f3e f642 87be 178f 66bb
000002a0: 6aa2 ce3c fea9 8e3d dbad 87be b18f 8b3e
000002b0: 6a51 943c 8df4 3a3e 9bfc a73e 37d9 2b3e
000002c0: 38a1 64bd 65ef 223e a99c 86be 0c46 abbe
000002d0: bed0 373c e788 6bbd de1c 98bd 2d95 a43e
000002e0: ee6c da3d 0b01 873e 710c 803c 73c3 7f3e
000002f0: 07ff 92b9 f512 1bbe 567e 06be a93f a1bd
00000300: bcbd b13e 3dd8 92be 0d11 96be 7440 f73d
00000310: ec9b 4b3e 876b edbd cd0e 41bd 701f 7ebd
00000320: 3ed2 a1be 0bd2 a73d bed5 113e 1c2f b93c
00000330: 4209 19be f314 8fbe 89f4 9bbd 82e8 3d3c
00000340: 42a8 573d ef37 1e3e aced 70be 7141 8cbc
00000350: 5837 28be 4b72 433d 4e2b 993d d301 c6bc
00000360: b493 04be 11a8 dd3a 71ce 563e cbbb bdbe
00000370: 71d6 433e 8ab0 ba3e 3a64 46bd 32ab eb3d
00000380: cb75 1cbe 2d7f 43bd fad4 983c 1fc5 4d3e
00000390: 15ef 623e c107 8ebe 76aa d73e 4863 21be
000003a0: 3318 86bd 0a0a 87bd 6baf 913e 5508 c0be
000003b0: 33ff 603d 9a4c c4bc bd80 d73d d431 da3d
000003c0: 3c8f 98be 29ce 1abe aa89 07be 7893 afbb
000003d0: 3b7c 013d 2762 19be e997 07be 31fd 283e
000003e0: 73cd 35bd 8f77 ff3c e2e9 d0be 6b95 80be
000003f0: 4307 89be e26a 763e dab8 35be bde3 b1be

architecture.0.bias f4 [64]
-0.15175696 -0.19765362 0.5455944 0.07631495 0.27461717 -0.37750638 -0.5138032 -0.60623515
-0.6606081 0.010234784 -0.45186827 0.24015681 0.73049796 -0.7130631 0.7698292 0.54280406
-0.42901027 -0.24197665 -0.7763993 0.22705793 0.8911042 -0.59458786 0.5258472 -0.65311366
0.028226301 0.108568065 0.2687409 -0.55797637 -0.2548819 -0.0843785 -0.061863955 -0.10381982
-0.31151935 -0.5761998 -0.55486906 0.18607451 0.66192174 -0.19954251 0.1503704 -0.12507233
-0.35685775 -0.36900136 0.6301881 -0.10646395 0.036647066 0.4773999 0.019258037 -0.23918986
0.1466408 0.77140725 0.5223779 0.3295506 -0.024931695 -0.7771384 -0.27729082 0.20488854
-0.35872492 -0.76402164 0.696123 0.77415055 0.8207323 0.57868475 -0.19409482 -0.052355673
00000000: 2d66 1bbe b665 4abe 13ac 0b3f 034b 9c3d
00000010: 9f9a 8c3e 8448 c1be 9b88 03bf 3a32 1bbf
00000020: 9d1d 29bf ccaf 273c 475b e7be abeb 753e
00000030: ea01 3b3f 4e8b 36bf 8713 453f 35f5 0a3f
00000040: 3ca7 dbbe bac8 77be 1bc2 46bf e081 683e
00000050: 681f 643f e936 18bf ec9d 063f 7532 27bf
00000060: d83a e73c ef58 de3d 6898 893e 8ad7 0ebf
00000070: e17f 82be a3ce acbd 0f65 7dbd 7c9f d4bd
00000080: 777f 9fbe d581 13bf e60b 0ebf 518a 3e3e
00000090: b473 293f df54 4cbe b3fa 193e f612 00be
000000a0: 0fb6 b6be bfed bcbe 0254 213f c509 dabd
000000b0: 3c1b 163d c26d f43e 08c3 9d3c 30ee 74be
000000c0: 0229 163e f27a 453f 8fba 053f dbba a83e
000000d0: 8e3d ccbc 8bf2 46bf 10f9 8dbe 4dce 513e
000000e0: cbaa b7be ec96 43bf 1e35 323f bb2e 463f
000000f0: 831b 523f af24 143f cbc0 46be e772 56bd

architecture.2.weight f4 [64, 64]
-0.025349151 0.0782023 -0.15803644 -0.26602232 -0.28790167 0.2643017 0.0403534 0.14547858
0.10758136 -0.11819705 0.060068555 -0.10105216 -0.45194665 -0.18575491 -0.15338506 -0.29813147
0.07679725 0.17035812 0.08201095 -0.17993248 -0.51678324 0.4093178 0.04792499 0.2919297
0.2505234 0.079718575 0.1564607 0.09922747 0.090696216 -0.07098022 0.06516514 0.25618863
0.017064 0.32935694 0.047193456 0.070930816 -0.06338808 0.124081455 0.18307991 0.26852134
0.13638699 -0.11554493 0.29433376 -0.15566425 -0.466285 0.11809643 0.22838923 0.17669713
0.15577509 0.115167014 -0.23478846 -0.16180961 0.12250752 0.23181528 0.15503585 -0.22413255
-0.16299148 0.028903212 -0.26768994 -0.18729855 -0.04339559 -0.18478061 -0.0847122 0.12806092
-0.093520336 -0.20459495 0.040528696 0.21353547 0.0917955 0.039852835 -0.08580237 -0.024214748
0.17777511 -0.14539649 0.076144405 0.070680626 0.3030064 0.047424436 -0.08361743 0.3028857
0.10317689 0.17644803 -0.11464108 -0.14938353 0.39394504 0.15302587 0.08861723 -0.047322344
0.080113 0.097702056 0.094443634 -0.07935024 0.25013095 0.16967681 -0.21796894 0.5260461
-0.01759285 -0.21125348 -0.11587212 -0.13168304 0.37842366 0.13182138 -0.13327196 0.041783128
0.3175004 -0.07337888 -0.10345238 0.14701271 -0.10447194 0.003630323 0.10374669 0.051110286
-0.2614609 -0.09181875 -0.007049581 0.027561212 -0.33387205 0.38246846 0.10165918 0.23251128
0.13295202 0.36117506 -0.3573859 0.20766017 0.43104935 0.06736205 0.032783438 0.12781109
0.32945785 -0.38608852 0.05793558 -0.16540292 0.18703428 -0.12778923 -0.15848973 -0.3740008
0.25085554 -0.0619912 -0.11029746 -0.0010391779 0.024611423 -0.38840723 -0.023536902 -0.0596607
-0.25386563 -0.10256103 -0.21375953 -0.3162457 0.65835375 -0.2356144 0.2966719 -0.25318527
0.6041686 0.24277025 -0.1621504 0.011981019 -0.059677254 -0.16884165 -0.032392245 0.031053033
-0.22261395 0.2165763 -0.17486937 0.16351816 0.3938185 -0.03371049 -0.019663218 0.19822867
-0.0138076255 -0.32829514 0.22119418 -0.101596184 0.03846735 0.17158504 -0.026244026 -0.14225088
-0.018246477 0.3108255 -0.1725196 0.29657736 0.3934909 -0.10363878 -0.026766686 -0.08796844
-0.2563861 -0.3743693 0.246796 0.099853165 -0.1967539 0.15692864 0.06746138 0.07270587
-0.06658087 0.14490986 0.076449566 -0.344544 -0.0031747348 -0.045790553 -0.04756827 -0.19984916
0.33793446 -0.13554315 0.43498263 -0.47871548 -0.43097425 0.3311888 -0.23697504 -0.10671433
0.1547775 -0.092213385 0.071945675 0.09610669 -0.23543651 0.14562814 -0.02701144 -0.0820147
-0.2495463 0.0463522 -0.13796331 0.13699158 0.15657444 -0.21035255 -0.049027108 -0.09670282
0.5800448 -0.22804417 0.31924066 -0.21157329 -0.21123464 0.40189895 -0.04554767 0.20436057
0.0892021 0.1171639 -0.033277117 -0.18442184 -0.044676736 -0.46357262 0.22771078 -0.036515478
-0.10164731 -0.22685303 -0.1831653 -0.20568565 0.0018643021 0.2971183 -0.016670275 0.10256369
0.091663636 0.30181733 0.23936462 -0.12631938 -0.13685071 -0.24213165 0.08116403 -0.1000461
00000000: 06a9 cfbc 8728 a03d 4ed4 21be 1434 88be
00000010: d967 93be 8d52 873e 9b49 253d 56f8 143e
00000020: 9e53 dc3d 4c11 f2bd 720a 763d 6ff4 cebd
00000030: 8d65 e7be 8936 3ebe f910 1dbe b0a4 98be
00000040: e047 9d3d 5c72 2e3e 5bf5 a73d 3840 38be
00000050: e84b 04bf 1a92 d13e ff4c 443d cf77 953e
00000060: 9a44 803e 7e43 a33d 3c37 203e c637 cb3d
00000070: f0be b93d 145e 91bd 4d75 853d 282b 833e
00000080: cdc9 8b3c 79a1 a83e ed4d 413d 2d44 913d
00000090: 9cd1 81bd 6b1e fe3d 4d79 3b3e a17b 893e
000000a0: 08a9 0b3e d2a2 ecbd eab2 963e 7366 1fbe
000000b0: e8bc eebe 8bdc f13d dede 693e 18f0 343e
000000c0: 8183 1f3e afdc eb3d 636c 70be 6bb1 25be
000000d0: 39e5 fa3d fc60 6d3e b8c1 1e3e 0183 65be
000000e0: 3de7 26be 6ec6 ec3c a80e 89be 31cb 3fbe
000000f0: 93bf 31bd 2137 3dbe 977d adbd 6722 033e
00000100: 9787 bfbd 5781 51be 6b01 263d 0ba9 5a3e
00000110: 47ff bb3d ba3c 233d 27b9 afbd 025e c6bc
00000120: ae0a 363e d1e2 14be 99f1 9b3d 01c1 903d
00000130: a823 9b3e 2040 423d 9d3f abbd d613 9b3e
00000140: 684e d33d cbae 343e f1c8 eabd fff7 18be
00000150: 2ab3 c93e d0b2 1c3e f37c b53d 13d5 41bd
00000160: 4912 a43d 0418 c83d aa6b c13d 6182 a2bd
00000170: 2a11 803e c2bf 2d3e 4033 5fbe f5aa 063f
00000180: e11e 90bc d552 58be 5d4e edbd ebd7 06be
00000190: bfc0 c13e 2ffc 063e 7278 08be c924 2b3d
000001a0: 6a8f a23e ab47 96bd d7de d3bd 808a 163e
000001b0: 62f5 d5bd b7ea 6d3b 2579 d43d 0559 513d
000001c0: 34de 85be 780b bcbd 2c00 e7bb 0dc8 e13c
000001d0: 47f1 aabe e8d2 c33e b032 d03d 7017 6e3e
000001e0: 9324 083e f0eb b83e 49fb b6be dea4 543e
000001f0: 80b2 dc3e 1df5 893d ed47 063d e9e0 023e
00000200: b3ae a83e 65ad c5be dc4d 6d3d 625f 29be
00000210: ea85 3f3e 2edb 02be 224b 22be 087d bfbe
00000220: 2370 803e 7cea 7dbd a2e3 e1bd 0635 88ba
00000230: e59d c93c 50dd c6be 76d0 c0bc c75e 74bd
00000240: adfa 81be 840b d2bd c7e3 5abe f5ea a1be
00000250: df89 283f e744 71be 61e5 973e 80a1 81be
00000260: cbaa 1a3f c498 783e c10a 26be 094c 443c
00000270: 2370 74bd d3e4 2cbe bbad 04bd ee62 fe3c
00000280: e9f4 63be 2dc6 5d3e f510 33be 4e71 273e
00000290: 94a2 c93e 0314 0abd c214 a1bc 75fc 4a3e
000002a0: 6139 62bc 4d16 a8be ba80 623e a911 d0bd
000002b0: f18f 1d3d fdb3 2f3e b6fd d6bc 37aa 11be
000002c0: a379 95bc 8524 9f3e faa8 30be fdd8 973e
000002d0: a477 c93e 9240 d4bd cf45 dbbc cc28 b4bd
000002e0: 0a45 83be 55ad bfbe 17b8 7c3e d17f cc3d
000002f0: db79 49be e7b1 203e 3129 8a3d d1e6 943d
00000300: 8d5b 88bd 4063 143e 9791 9c3d 1268 b0be
00000310: 360f 50bb e08e 3bbd f2d6 42bd 42a5 4cbe
00000320: bf05 ad3e d3cb 0abe 0bb6 de3e 321a f5be
00000330: a8a8 dcbe 9491 a93e 96a9 72be 0b8d dabd
00000340: fe7d 1e3e 5fda bcbd 4158 933d 96d3 c43d
00000350: 4516 71be 8b1f 153e 1847 ddbc 53f7 a7bd
00000360: 1189 7fbe cedb 3d3d 4146 0dbe 8547 0c3e
00000370: 0d55 203e a966 57be a6d0 48bd 210c c6bd
00000380: d17d 143f 6984 69be 8373 a33e aba6 58be
00000390: e54d 58be b3c5 cd3e 3290 3abd e643 513e
000003a0: 97af b63d a0f3 ef3d 964d 08bd 14d9 3cbe
000003b0: f4fe 36bd 6459 edbe 042d 693e 4191 15bd
000003c0: 772c d0bd 294c 68be af8f 3bbe 429f 52be
000003d0: 995b f43a e41f 983e 1a90 88bc e90c d23d
000003e0: 25ba bb3d cd87 9a3e 001c 753e de59 01be
000003f0: 9822 0cbe 5cf1 77be 5439 a63d f8e4 ccbd

architecture.2.bias f4 [64]
-0.37829593 0.012609484 0.5143525 -0.5397111 -0.10819625 -0.44731697 0.16337658 -0.39880672
-0.13299811 -0.19162033 -0.06666807 -0.1736492 0.037862945 -0.32975572 0.25604624 0.033414517
0.10471511 0.51370394 0.646531 0.38114643 -0.36553058 -0.10687047 -0.038899865 -0.5289262
-0.5736062 0.40777436 -0.024632154 0.2186456 0.501642 -0.21464792 0.4656107 0.25247866
-0.20763172 -0.27266908 0.15709375 -0.06977289 -0.25698653 -0.05614215 -0.18628858 0.22120044
-0.58569694 0.11425704 -0.16208366 -0.032541398 0.35454565 0.58429664 -0.40874198 0.0011386019
0.18510628 -0.054163184 -0.32068244 -0.07787785 0.21987088 -0.015779335 -0.38709077 0.34980187
-0.10481083 -0.06854734 0.12808253 -0.08405294 -0.1622488 0.22934154 0.030955315 0.00170034
00000000: 01b0 c1be 0298 4e3c 9bac 033f 822a 0abf
00000010: ff95 ddbd bb06 e5be 314c 273e 6530 ccbe
00000020: a830 08be 1f38 44be 4589 88bd 19d1 31be
00000030: 2d16 1b3d bed5 a8be 7e18 833e a9dd 083d
00000040: e074 d63d 1a82 033f 0e83 253f a025 c33e
00000050: d326 bbbe e8de dabd 7755 1fbd b567 07bf
00000060: dbd7 12bf cdc7 d03e 5fc9 c9bc a2e4 5f3e
00000070: 9c6b 003f aacc 5bbe 8764 ee3e e244 813e
00000080: 699d 54be 489b 8bbe 2fdd 203e 17e5 8ebd
00000090: bd93 83be 50f5 65bd 6fc2 3ebe 5e82 623e
000000a0: 3cf0 15bf 98ff e93d 42f9 25be 214a 05bd
000000b0: 0287 b53e 7794 153f a146 d1be 243d 953a
000000c0: 808c 3d3e 37da 5dbd 7d30 a4be 6c7e 9fbd
000000d0: d525 613e aa43 81bc c330 c6be 3b19 b33e
000000e0: 0fa7 d6bd 8c62 8cbd 1128 033e f323 acbd
000000f0: 8d24 26be 82d8 6a3e 0096 fd3c f1dd de3a

architecture.4.weight f4 [9, 64]
0.034838364 0.028407745 -0.07071993 -0.032495543 0.02950489 -0.07418895 0.0155321825 0.03922672
-0.033159323 0.02766918 0.09024372 -0.055276196 -0.07877465 -0.04069123 0.020384645 -0.026885858
-0.009539631 0.060605686 -0.019823058 -0.028657125 -0.019427763 0.062869295 0.024893781 -0.003371411
0.05467931 -0.021779466 -0.01907335 -0.019642571 0.050560925 -0.07131838 0.0036549042 0.009318705
-0.04902122 -0.049507193 0.00592176 -0.0376254 -0.025685318 -0.054077663 0.05228859 -0.027653154
-0.049896244 0.038290203 -0.021527369 -0.018582996 0.107656695 -0.09853334 -0.023004236 0.0772979
0.050485477 0.06580697 -0.018107256 -0.059377596 0.022783883 0.011625666 0.010447919 -0.034079738
-0.029874297 0.011052271 0.08000188 -0.012793022 0.036776826 -0.009932522 -0.028337108 0.081619255
0.07322487 -0.0066830046 0.059072312 -0.03867071 -0.0674896 0.10629194 -0.0021560192 -0.026596112
0.06466056 0.010448341 0.011804229 0.042647738 0.0059540076 0.05170695 -0.0072209085 -0.01048643
-0.014654232 0.041151315 0.07574836 -0.20151067 -0.0016304912 0.03645038 -0.044400174 -0.009600594
-0.034395598 0.07065358 -0.017775286 0.029119786 0.03710398 -0.021638207 0.028940883 0.03494817
0.007223684 0.009933017 0.019673828 0.011517283 -0.004923987 -0.10508633 -0.00040271148 0.034807745
0.12071857 -0.003689038 -0.06535094 0.045951728 -0.00056166237 0.08556719 0.07417563 -0.008776523
0.010028166 0.018032068 0.05926796 0.023599723 -0.021106297 -7.372411e-05 -0.022259189 0.04087921
0.0042640017 -0.018850205 -0.032570492 0.016914725 -0.07788586 -0.02100307 0.008991856 -0.032424033
0.010496064 -0.07519481 -0.07294115 0.02674227 -0.02082024 -0.020770526 0.009947705 0.0856921
0.011811747 0.050834123 -0.014680248 -0.060927033 0.10204065 -0.025004752 0.03973216 0.029399369
0.03526366 -0.04749417 -0.102490604 -0.013831553 -0.03654023 0.009804884 -0.0011664018 0.03299784
-0.07621767 -0.025731014 -0.0255992 -0.016260356 0.23737875 -0.048808698 0.07962325 -0.037957907
-0.01704853 -0.053425785 0.011225203 -0.007032738 -0.004307666 -0.031177599 0.004662937 0.04839771
0.020090807 -0.021923767 0.008956275 -0.034032553 -0.1116393 -0.052965596 -0.020578794 0.061297882
-0.107101515 0.030928034 -0.013206738 0.015979761 0.064030826 0.025966058 -0.034452066 0.07343444
-0.070460066 0.00582275 -0.10877136 -0.04223606 0.033295028 0.02180663 0.026850317 0.03572124
-0.52835065 0.0066412217 0.53321713 -0.44371146 -0.0061386754 -0.31339222 0.0988269 -0.18174951
-0.21365502 0.09947761 -0.19391973 0.22201474 0.2213125 -0.40016708 0.09492275 0.37311402
0.12741593 0.50349295 0.4210791 0.3094699 -0.49622858 -0.3681828 0.10985129 -0.47261122
-0.5647938 0.357866 0.1533015 0.1105491 0.34504148 -0.27817783 0.044196226 0.3298169
-0.026729858 -0.076668374 0.28179097 -0.31821352 -0.23155665 -0.14223419 -0.18038395 0.09805642
-0.27700725 -0.17782384 -0.22704129 0.08762227 0.5183008 0.6596432 -0.13058738 -0.1116032
0.025740845 0.043479368 -0.13054402 0.059317518 -0.081654005 0.147576 -0.5113317 0.35452664
0.0063772304 0.04037899 0.5210747 0.20819302 0.046591975 0.12944442 -0.26783332 -0.03631185
00000000: acb2 0e3d 5cb7 e83c 9cd5 90bd 0c1a 05bd
00000010: 3db4 f13c 60f0 97bd b27a 7e3c 32ac 203d
00000020: 12d2 07bd 7aaa e23c b3d1 b83d 4b69 62bd
00000030: 9b54 a1bd d9ab 26bd b3fd a63c bb3f dcbc
00000040: 1d4c 1cbc ab3d 783d f763 a2bc 59c2 eabc
00000050: f926 9fbc 9ec1 803d 0bee cb3c e4f2 5cbb
00000060: 6af7 5f3d da6a b2bc b73f 9cbc 75e9 a0bc
00000070: f918 4f3d 5f0f 92bd 1e87 6f3b 7bad 183c
00000080: 7aca 48bd 0ec8 4abd 530b c23b 171d 1abd
00000090: 046a d2bc 8a80 5dbd 902c 563d de88 e2bc
000000a0: 0160 4cbd 30d6 1c3d 2a5a b0bc 5e3b 98bc
000000b0: 1d7b dc3d d9cb c9bd 6173 bcbc 5d4e 9e3d
000000c0: dcc9 4e3d cec5 863d ab55 94bc ec35 73bd
000000d0: 44a5 ba3c 9479 3e3c c02d 2b3c 3297 0bbd
000000e0: f1ba f4bc 9614 353c 07d8 a33d d399 51bc
000000f0: 4ca3 163d 04bc 22bc 3923 e8bc ff27 a73d
00000100: ecf6 953d 1bfd dabb cff5 713d 2e65 1ebd
00000110: fd37 8abd 97af d93d 004c 0dbb 17e0 d9bc
00000120: c16c 843d 852f 2b3c 8666 413c 65af 2e3d
00000130: d619 c33b abca 533d 5f9d ecbb 46cf 2bbc
00000140: 4e18 70bc 488e 283d f521 9b3d d058 4ebe
00000150: 35b6 d5ba fe4c 153d f5dc 35bd cf4b 1dbc
00000160: 66e2 0cbd d3b2 903d 7a9d 91bc 9e8c ee3c
00000170: 58fa 173d 9c42 b1bc 6e15 ed3c d025 0f3d
00000180: a7b4 ec3b 18be 223c 022b a13c fcb2 3c3c
00000190: 6659 a1bb 8037 d7bd 0523 d3b9 9192 0e3d
000001a0: 4c3b f73d cac3 71bb b7d6 85bd e137 3c3d
000001b0: 863c 13ba da3d af3d 65e9 973d 68cb 0fbc
000001c0: 2d4d 243c fdb7 933c f6c2 723d 3554 c13c
000001d0: 1de7 acbc 559c 9ab8 e758 b6bc f570 273d
000001e0: 0ab9 8b3b bf6b 9abc a368 05bd c090 8a3c
000001f0: 9f82 9fbd a10e acbc 9452 133c 10cf 04bd
00000200: aff7 2b3c bdff 99bd 2b62 95bd 9b12 db3c
00000210: 358f aabc f326 aabc b3fb 223c 577f af3d
00000220: 0f86 413c 7137 503d 6c85 70bc a08e 79bd
00000230: b0fa d03d c4d6 ccbc 30be 223d f2d6 f03c
00000240: a170 103d 3f89 42bd 98e6 d1bd bd9d 62bc
00000250: 35ab 15bd aaa4 203c f3e1 98ba be28 073d
00000260: 0318 9cbd d9c9 d2bc 6ab5 d1bc 7034 85bc
00000270: 6a13 733e a1eb 47bd 8411 a33d c079 1bbd
00000280: 5ca9 8bbc ffd4 5abd eae9 373c e272 e6bb
00000290: 5227 8dbb 2a68 ffbc 8dcb 983b ad3c 463d
000002a0: 7a95 a43c 7999 b3bc 57bd 123c b865 0bbd
000002b0: 25a3 e4bd 74f2 58bd dc94 a8bc 7d13 7b3d
000002c0: 0a58 dbbd ca5c fd3c 1361 58bc fde7 823c
000002d0: 9822 833d c5b6 d43c 9c1d 0dbd cc64 963d
000002e0: 5e4d 90bd c4cc be3b 85c3 debd b8ff 2cbd
000002f0: 5e60 083d d1a3 b23c 32f5 db3c 6f50 123d
00000300: fd41 07bf 9b9e d93b eb80 083f 262e e3be
00000310: f126 c9bb f274 a0be c265 ca3d 8b1c 3abe
00000320: 62c8 5abe ebba cb3d e592 46be d557 633e
00000330: be9f 623e b3e2 ccbe dc66 c23d cd08 bf3e
00000340: 5279 023e eae4 003f ae97 d73e d772 9e3e
00000350: ac11 febe 7582 bcbe b7f9 e03d 19fa f1be
00000360: 5496 10bf 363a b73e 12fb 1c3e 9167 e23d
00000370: 47a9 b03e 536d 8ebe 1a07 353d c3dd a83e
00000380: 93f8 dabc 4f04 9dbd e846 903e e2ec a2be
00000390: 301d 6dbe d7a5 11be 92b6 38be ced1 c83d
000003a0: e5d3 8dbe 7417 36be 837d 68be 4e73 b33d
000003b0: 5caf 043f 60de 283f b3b8 05be 3890 e4bd
000003c0: 77de d23c 6c17 323d 55ad 05be edf6 723d
000003d0: 373a a7bd 2a1e 173e a2e6 02bf 8484 b53e
000003e0: 16f8 d03b 7164 253d 2765 053f 8d30 553e
000003f0: 3ad7 3e3d 148d 043e 7321 89be bcbb 14bd

architecture.4.bias f4 [9]
-0.101004295 0.059324335 -0.0014307187 0.5651156 0.103707656 -0.09300992 0.0022637818 0.5094272
-0.096072994
00000000: 57db cebd 13fe 723d f486 bbba 6aab 103f
00000010: ae64 d43d fc7b bebd f55b 143b d269 023f
00000020: ebc1 c4bd

std f4 [9]
0.2 0.2 0.2 0.2596034 0.2 0.2003762 0.20754507 0.20467642
0.20112948
00000000: cdcc 4c3e cdcc 4c3e cdcc 4c3e bdea 843e
00000010: cdcc 4c3e 6b2f 4d3e b286 543e b296 513e
00000020: e3f4 4d3e

architecture.0.weight f4 [64, 27]
-0.25005576 0.10247566 -0.07804718 0.1848024 0.2040884 -0.19193995 -0.3814944 -0.5394193
-0.37316135 -0.3938175 0.22409724 -0.08165297 -0.13496582 -0.05006469 0.0016475361 0.114338934
-0.1201448 -0.15630424 0.16468397 -0.28470272 0.098328084 0.2829029 0.10299565 0.7646333
-0.35668808 -0.06578211 0.06484965 -0.084767774 0.03532219 0.044680614 -0.1108788 0.16610277
0.22538395 0.16743644 -0.32582998 0.17807488 -0.051094223 -0.35851482 0.07803706 0.19421789
0.004510873 -0.048946455 -0.08138682 -0.0037860181 0.09360725 -0.4572665 0.12259818 0.24419864
-0.07124932 0.48352268 0.106136814 0.023550164 -0.17798385 -0.09466215 0.04000465 -0.120416485
-0.0015876597 0.09070175 -0.41856065 0.32330948 0.13158442 0.32323015 -0.16289479 0.25367174
-0.30892843 0.13229114 -0.0135128945 -0.024254387 -0.18462601 0.010163121 0.01420912 0.05383026
-0.12168024 0.24773261 -0.38396734 -0.0987445 -0.17060311 0.1502456 0.12925427 -0.16562012
0.06534552 0.16590428 -0.15106225 0.271536 -0.22816804 0.21038647 0.34443396 0.081890404
-0.03266007 0.066508785 -0.3597777 0.30997103 0.28093672 -0.07468926 -0.04768395 0.037509788
-0.008435384 -0.008188367 0.08066307 0.21025065 -0.21384531 -0.27372947 -0.05328164 0.07784271
-0.12907514 0.43248206 -0.3219143 -0.26081663 0.102308825 -0.02821965 -0.076872855 -0.100326434
0.1482461 -0.167556 -0.28912723 0.021497011 -0.03658955 -0.062262185 -0.21025753 -0.16453744
0.004904514 0.09162268 -0.12982342 0.006992525 -0.015126152 0.041467868 -0.13588476 -0.10108343
-0.0028202764 -0.037837267 -0.218177 0.14076903 0.0082089035 -0.07682789 -0.27562392 -0.039555207
-0.01908147 -0.015007411 0.07773098 -0.23332258 -0.12887819 -0.09547787 0.06928914 0.09913381
0.08734467 0.006561693 0.005837135 0.016530033 0.15517077 0.4622637 0.039668042 -0.055673473
-0.08760491 -0.1057987 -0.044724565 0.06045982 0.16127685 -0.38675624 0.030383207 -0.20744507
-0.09367846 0.06412843 0.028679552 -0.033211954 0.023795294 -0.20874934 0.1447275 0.18157412
-0.24465102 -0.03886531 -0.047160402 -0.043293145 -0.09370936 -0.20798425 0.0022459207 -0.060257696
0.045386534 0.023199307 -0.027254703 0.020721994 0.11239547 0.02531972 0.26329872 -0.0655532
0.12585329 0.17984825 -0.12099666 0.012910415 0.03175185 -0.041568823 0.019169195 -0.053496573
0.24541543 0.14098068 0.110616356 -0.005453678 0.1616498 -0.09626808 0.013504852 -0.18020675
0.0017291447 0.14204822 -0.36753333 0.20345591 0.061062682 0.006826376 0.042775054 -0.19477737
0.09691404 -0.16316418 0.1655903 -0.10573157 -0.18017821 0.16919598 0.04281487 -0.021487098
0.07902882 -0.010752464 -0.100901864 0.12816069 0.081996635 -0.14398623 -0.051985662 0.08925006
0.12284845 -0.014777019 -0.061300416 -0.27503404 0.039867822 -0.1045052 -0.032618165 -0.010237345
0.058075536 0.003428667 -0.06271411 -0.33306417 0.4386528 0.030306952 -0.15478581 -0.09829448
0.012063764 -0.03558607 -0.412442 0.30784604 -0.026927968 -0.08878287 0.009645252 0.33178034
0.03126396 -0.17628734 -0.19063666 0.4951241 0.1677438 -0.40896735 0.31284678 0.04435078
00000000: 4f07 80be c2de d13d 33d7 9fbd d73c 3d3e
00000010: 8dfc 503e e88b 44be 3c53 c3be 6217 0abf
00000020: 010f bfbe 73a2 c9be bf79 653e ac39 a7bd
00000030: 7b34 0abe a210 4dbd 23f2 d73a 882a ea3d
00000040: 7a0e f6bd 380e 20be eaa2 283e 8ec4 91be
00000050: 3c60 c93d a6d8 903e 62ef d23d 02bf 433f
00000060: d29f b6be c5b8 86bd e5cf 843d ba9a adbd
00000070: 00ae 103d 0503 373d 6d14 e3bd d816 2a3e
00000080: 0dcb 663e 7574 2b3e 30d3 a6be 4359 363e
00000090: 2d48 51bd 418f b7be e5d1 9f3d 0ee1 463e
000000a0: f2cf 933b 147c 48bd 22ae a6bd d81e 78bb
000000b0: 28b5 bf3d d61e eabe c114 fb3d 350f 7a3e
000000c0: 2aeb 91bd 4990 f73e 425e d93d 46ec c03c
000000d0: 6641 36be 3bde c1bd eadb 233d eb9c f6bd
000000e0: 0519 d0ba d7c1 b93d 954d d6be d288 a53e
000000f0: 11be 063e 6c7e a53e e4cd 26be 43e1 813e
00000100: de2b 9ebe 5477 073e 3065 5dbc 23b1 c6bc
00000110: 9a0e 3dbe 3883 263c 5ecd 683c 1e7d 5c3d
00000120: 7d33 f9bd 9ead 7d3e 5e97 c4be 8e3a cabd
00000130: 95b2 2ebe fcd9 193e 3b5b 043e 5298 29be
00000140: dfd3 853d d0e2 293e 10b0 1abe c406 8b3e
00000150: e2a4 69be 8d6f 573e a659 b03e 28b6 a73d
00000160: 91c6 05bd c235 883d c834 b8be 86b4 9e3e
00000170: f0d6 8f3e aff6 98bd 3f50 43bd dda3 193d
00000180: 9134 0abc 8028 06bc ae32 a53d f24b 573e
00000190: 44fa 5abe 4526 8cbe d93d 5abd 006c 9f3d
000001a0: 462c 04be 4a6e dd3e f3d1 a4be c289 85be
000001b0: 4a87 d13d e52c e7bc 846f 9dbd f277 cdbd
000001c0: d3cd 173e cd93 2bbe 7c08 94be 801a b03c
000001d0: edde 15bd a206 7fbd c04d 57be 817c 28be
000001e0: 0cb6 a03b aca4 bb3d 6ef0 04be 8d21 e53b
000001f0: aed3 77bc 36da 293d 6025 0bbe d404 cfbd
00000200: 63d4 38bb 40fb 1abd cb69 5fbe c225 103e
00000210: a37e 063c f157 9dbd 941e 8dbe a404 22bd
00000220: be50 9cbc a5e1 75bc 6c31 9f3d 1dec 6ebe
00000230: a5f8 03be e789 c3bd 77e7 8d3d ab06 cb3d
00000240: c3e1 b23d 7803 d73b 7045 bf3b fe69 873c
00000250: 16e5 1e3e d4ad ec3e f57a 223d de09 64bd
00000260: 346a b3bd fdac d8bd 1b31 37bd b7a4 773d
00000270: c225 253e ea04 c6be 34e6 f83c 7b6c 54be
00000280: 7eda bfbd c455 833d 61f1 ea3c 4209 08bd
00000290: 59ee c23c 63c2 55be 7233 143e 91ee 393e
000002a0: cc85 7abe 3b31 1fbd 442b 41bd 2754 31bd
000002b0: b1ea bfbd d3f9 54be 4c30 133b c6d0 76bd
000002c0: 3be7 393d 790c be3c 4145 dfbc 2cc1 a93c
000002d0: 992f e63d 4d6b cf3c 17cf 863e c240 86bd
000002e0: afdf 003e 242a 383e 19cd f7bd 3586 533c
000002f0: 3a0e 023d 1244 2abd b708 9d3c 391f 5bbd
00000300: 2f4e 7b3e 3d5d 103e d48a e23d c4b4 b2bb
00000310: 8687 253e 3328 c5bd 7443 5d3c 1e88 38be
00000320: 78a4 e23a 1775 113e 542d bcbe bf56 503e
00000330: dd1c 7a3d cbaf df3b e534 2f3d b873 47be
00000340: de7a c63d 8314 27be 8190 293e cb89 d8bd
00000350: a380 38be b641 2d3e a55e 2f3d b605 b0bc
00000360: ddd9 a13d 1a2b 30bc a3a5 cebd 8e3c 033e
00000370: daed a73d 2071 13be ebee 54bd bcc8 b63d
00000380: f897 fb3d 4f1b 72bc 2516 7bbd 43d1 8cbe
00000390: 714c 233d d306 d6bd a09a 05bd 89ba 27bc
000003a0: 9de0 6d3d 7db3 603b 4170 80bd 6387 aabe
000003b0: 1a97 e03e 4946 f83c 2c80 1ebe 9e4e c9bd
000003c0: 18a7 453c b3c2 11bd 992b d3be ff9d 9d3e
000003d0: 0b98 dcbc cbd3 b5bd 1e07 1e3c 1ddf a93e
000003e0: a30e 003d ab84 34be 4236 43be e880 fd3e
000003f0: 08c5 2b3e 2b64 d1be 742d a03e 2aa9 353d

architecture.0.bias f4 [64]
-0.6964066 -0.86556613 0.45309436 1.2358047 0.59833384 -0.9718028 -1.1064887 0.9638104
0.37636572 1.4399897 -0.6979157 0.39994627 1.1889374 0.46337482 -1.0683798 0.3203516
0.24609351 0.7880455 -0.9224625 -0.94685364 -0.94053155 -1.2013148 -1.0630722 0.28715533
-0.6102768 0.16618872 -1.2800875 -0.49413717 -0.70278096 -0.8814047 -0.67984563 -0.6631547
-1.0345403 0.41758114 -0.5095426 0.69091684 0.5602997 -0.29331043 -1.2599752 -0.15221816
0.1274097 0.9544179 -0.69651216 0.65123487 -0.041579198 -1.1282847 0.8038155 0.8811938
-0.089194104 0.63657105 -0.9114326 0.5860009 -1.0734774 1.070109 0.31623858 -1.0581387
-0.8012176 0.93313664 0.08902518 -0.9168572 -0.08814494 -0.374275 -0.38999638 0.028319592
00000000: b447 32bf be95 5dbf fcfb e73e d92e 9e3f
00000010: 682c 193f 11c8 78bf 6ca1 8dbf 47bc 763f
00000020: 02b3 c03e 9551 b83f 9aaa 32bf c2c5 cc3e
00000030: 1a2f 983f 773f ed3e abc0 88bf 2005 a43e
00000040: f0ff 7b3e 5abd 493f 8126 6cbf 0065 72bf
00000050: adc6 70bf afc4 99bf c012 88bf 0606 933e
00000060: 1a3b 1cbf 602d 2a3e e8d9 a3bf 8cff fcbe
00000070: 74e9 33bf bda3 61bf 5d0a 2ebf 82c4 29bf
00000080: d16b 84bf 32cd d53e 6271 02bf eddf 303f
00000090: cd6f 0f3f c92c 96be de46 a1bf 14df 1bbe
000000a0: b077 023e bb54 743f 9f4e 32bf 54b7 263f
000000b0: f34e 2abd a26b 90bf dac6 4d3f eb95 613f
000000c0: 66ab b6bd 52f6 223f a653 69bf 2804 163f
000000d0: b567 89bf 55f9 883f 06ea a13e 1771 87bf
000000e0: 991c 4dbf 0be2 6e3f d552 b63d 27b7 6abf
000000f0: 5685 b4bd f9a0 bfbe 9bad c7be 7dfe e73c

architecture.2.weight f4 [64, 64]
-0.4280734 -0.6708435 0.23908971 -0.54534495 0.5708698 -0.076971404 0.11473815 0.1792453
0.1495618 -0.6519826 -0.20314239 -0.04925878 -0.068034485 0.18962169 0.49477452 0.24661355
0.03172987 -0.6683863 0.5940023 -0.1417506 0.0011565988 -0.44602513 0.60887265 0.12094412
-0.29463503 0.051793106 0.83289254 -0.08776181 -0.08780697 0.06999483 0.16886513 0.0024038048
0.58047783 0.34152433 -0.19734155 0.42704558 0.29259324 -0.15763797 0.3314914 -0.16116835
0.2777757 0.21710563 0.15218095 0.58113873 0.19898325 0.5441562 0.32348743 0.2262207
0.29856986 0.18492645 0.15852991 0.24470136 -0.22039095 0.2595689 0.32383946 0.7336184
0.047318716 -0.03802762 -0.17733897 0.12325703 0.012940091 0.44962856 -0.37988696 0.14876617
-0.38271636 -0.67968404 0.3701017 0.6478127 0.53766763 -0.5363076 -0.8920791 0.4301882
0.42864248 0.39121857 -0.5744532 0.44667926 0.17064878 0.17370477 -0.46898958 0.2289493
-0.00047080946 0.30526483 -0.49037763 -1.0154347 -0.52246225 -1.0195054 -0.5421256 -0.07399365
-0.25000077 -0.070055164 -0.38875377 0.28868258 -0.31170848 -0.6326398 -0.46648148 -0.58295333
-0.6771704 0.23541705 -0.525852 0.51149285 0.21557917 -0.3924781 -0.18044029 -0.11575582
0.16046862 0.45784724 -0.34211907 0.013047009 -0.1840971 0.07959617 -0.14432977 0.31993628
-0.21853901 0.15680674 -0.46178257 -0.036538716 -0.55648685 0.72243124 -0.02359622 -0.6904084
-0.32275018 0.8312669 -0.28484973 -0.48305765 -0.13250698 -0.2834166 0.08464633 -0.0014511993
0.54270697 0.66215044 -0.45170704 -0.9472174 -0.33740798 0.61766124 0.6230673 -0.6296113
-0.45320514 -0.6592526 0.3422776 -0.34056848 -0.17729007 -0.36433196 0.48836333 -0.5545843
-0.18875244 -0.20067178 0.8011776 0.7381131 0.20369025 0.87676615 0.2301194 -0.09403422
0.29371816 -0.06751352 0.39318025 -0.13643128 0.115612954 0.54485464 0.71857166 0.5699189
0.8252361 -0.01873069 0.5196888 -0.35809436 -0.2760892 0.64323187 -0.10540748 0.31708667
0.117950864 -0.8314085 0.41631818 -0.03580923 -0.15918216 -0.14140992 -0.05336743 -0.5125661
0.027018571 -0.12142989 -0.0062216152 -0.3702915 0.56149143 -0.70787615 -0.12572232 0.11676117
0.6564227 -1.4338378 0.43108606 0.8010717 0.25292948 0.4691367 -0.101833634 -0.000626653
0.14967346 0.19575328 -0.16433492 0.68155867 0.14409079 0.36026168 0.2535809 -0.20978379
0.41736537 0.6013198 -0.0153913675 -0.22773762 0.30834502 -0.5171684 -0.72424036 0.24443646
0.38613933 -0.52631336 -0.5236835 0.34817544 0.3739253 0.32727304 -0.5671335 -0.21329433
0.65187913 -0.30959365 -0.74043405 0.42224535 -0.40274832 0.29968077 0.0576623 0.42479146
-0.3978609 0.00547617 0.49858612 0.019712677 -0.1798475 0.10396404 -0.057962578 0.055486277
-0.0064982595 0.48037818 -0.27765024 0.40270278 0.2545261 -0.7243609 0.36373147 0.37197787
0.0029738715 -0.29875624 -0.47402647 -0.28081805 0.5849005 -0.54743975 0.1870941 -0.6283541
0.28272304 -0.3839022 -0.16065967 -0.09158483 -0.080417916 -0.1169576 -0.15684032 -0.32090408
00000000: 702c dbbe 66bc 2bbf efd3 743e ba9b 0bbf
00000010: 8624 123f 2fa3 9dbd d6fb ea3d 148c 373e
00000020: ba26 193e 55e8 26bf 8f04 50be 93c3 49bd
00000030: aa55 8bbd 302c 423e 1653 fd3e 4388 7c3e
00000040: 2ef7 013d 5d1b 2bbf 8910 183f 1227 11be
00000050: 0499 973a 685d e4be 14df 1b3f 8db1 f73d
00000060: 67da 96be 0225 543d 7238 553f 77bc b3bd
00000070: 24d4 b3bd 7359 8f3d fbea 2c3e 2789 1d3b
00000080: 329a 143f 47dc ae3e e713 4abe b8a5 da3e
00000090: c8ce 953e d96b 21be 3eb9 a93e 5109 25be
000000a0: 9e38 8e3e f050 5e3e 53d5 1b3e 82c5 143f
000000b0: 44c2 4b3e d24d 0b3f 25a0 a53e 66a6 673e
000000c0: 26de 983e 5c5d 3d3e aa55 223e fe92 7a3e
000000d0: 2aae 61be 37e6 843e 49ce a53e 6ace 3b3f
000000e0: 45d1 413d dac2 1bbd 5998 35be 2f6e fc3d
000000f0: ad02 543c b735 e63e 8b80 c2be 2956 183e
00000100: 66f3 c3be c6ff 2dbf f87d bd3e 0ed7 253f
00000110: 96a4 093f 744b 09bf 4c5f 64bf a141 dc3e
00000120: 0777 db3e cd4d c83e 5d0f 13bf 25b3 e43e
00000130: 8ebe 2e3e aadf 313e 671f f0be af71 6a3e
00000140: fad6 f6b9 ac4b 9c3e c712 fbbe c4f9 81bf
00000150: 16c0 05bf 277f 82bf bec8 0abf fc89 97bd
00000160: 1a00 80be 1579 8fbd bc0a c7be 34ce 933e
00000170: 4198 9fbe aff4 21bf a9d6 eebe 6e3c 15bf
00000180: 0a5b 2dbf 2b11 713e 3d9e 06bf 32f1 023f
00000190: c9c0 5c3e e4f2 c8be 57c5 38be 6311 edbd
000001a0: e351 243e f46a ea3e 3b2a afbe 1fc3 553c
000001b0: f383 3cbe 5103 a33d 2fcb 13be b0ce a33e
000001c0: b1c8 5fbe f291 203e c46e ecbe 9fa9 15bd
000001d0: ec75 0ebf 41f1 383f dc4c c1bc 9bbe 30bf
000001e0: 833f a5be e8cd 543f d3d7 91be 5553 f7be
000001f0: e9af 07be fb1b 91be 0e5b ad3d 2b36 beba
00000200: d8ee 0a3f b182 293f 2546 e7be d77c 72bf
00000210: bdc0 acbe 0c1f 1e3f 5781 1f3f 352e 21bf
00000220: 810a e8be c7c4 28bf 023f af3e fe5e aebe
00000230: 878b 35be b889 babe c20a fa3e 3df9 0dbf
00000240: 5248 41be e77c 4dbe fa19 4d3f fbf4 3c3f
00000250: 2d94 503e bf73 603f 6ca4 6b3e 0395 c0bd
00000260: 3a62 963e 8744 8abd ec4e c93e a4b4 0bbe
00000270: 7cc6 ec3d 987b 0b3f 50f4 373f 34e6 113f
00000280: ac42 533f 1b71 99bc 530a 053f 2558 b7be
00000290: 905b 8dbe d8aa 243f e0df d7bd 2f59 a23e
000002a0: 3990 f13d 30d7 54bf a827 d53e b3ac 12bd
000002b0: a600 23be c3cd 10be ce97 5abd 8837 03bf
000002c0: 0d56 dd3c 3cb0 f8bd b1de cbbb d996 bdbe
000002d0: e7bd 0f3f 5f37 35bf 5abd 00be 7b20 ef3d
000002e0: 510b 283f ff87 b7bf 50b7 dc3e 0913 4d3f
000002f0: f97f 813e af32 f03e 278e d0bd f945 24ba
00000300: 0044 193e 8c73 483e 6a47 28be a17a 2e3f
00000310: 898c 133e 3874 b83e 5bd5 813e 90d1 56be
00000320: eab0 d53e 18f0 193f 132c 7cbc 0d34 69be
00000330: 66df 9d3e 2665 04bf d167 39bf 8d4d 7a3e
00000340: 0eb4 c53e 79bc 06bf 1f10 06bf 0d44 b23e
00000350: 2373 bf3e 5590 a73e a92f 11bf d469 5abe
00000360: 8de1 263f 0f83 9ebe 168d 3dbf 8b30 d83e
00000370: 0735 cebe c26f 993e 4e2f 6c3d 447e d93e
00000380: 6db4 cbbe 7271 b33b ae46 ff3e 7b7c a13c
00000390: f129 38be 19eb d43d 2b6a 6dbd 9445 633d
000003a0: 5aef d4bb 21f4 f53e 2c28 8ebe 0f2f ce3e
000003b0: 3f51 823e b76f 39bf 033b ba3e e273 be3e
000003c0: 49e5 423b 94f6 98be 99b3 f2be 62c7 8fbe
000003d0: 0abc 153f 0325 0cbf 9995 3f3e d0db 20bf
000003e0: 13c1 903e d48e c4be f883 24be d490 bbbd
000003f0: 26b2 a4bd 7787 efbd c09a 20be 8a4d a4be

architecture.2.bias f4 [64]
0.33321717 1.0066124 -1.24009 -0.32944098 0.15277821 -1.1354834 1.1091769 -0.6953122
-1.2627738 0.56855017 0.52210355 -1.2676522 -0.8625007 0.42134595 0.15410975 0.46083996
1.2317997 0.46908334 -0.36240107 1.189647 0.28194368 -0.5209825 0.38634637 1.2794718
-0.38280463 0.46901965 1.3222303 -0.14616144 -0.76718104 -0.32455596 -1.2217155 -0.6019034
-0.9647812 0.2661656 0.4061409 -1.2028633 -1.0990688 1.4273906 -0.4257952 -0.75282407
-0.3179481 -1.2500596 -0.6157743 0.4611783 -1.1487569 0.48117065 -0.20078424 0.8324199
-0.29197878 1.1724471 1.4094526 -0.37496808 -1.2440054 -0.8252266 -0.5602952 0.3835581
0.3136603 0.51487666 -0.3848883 0.8046885 -0.6701528 0.5632183 -1.1634169 1.2279831
00000000: 719b aa3e add8 803f 45bb 9ebf 7dac a8be
00000010: e471 1c3e 8557 91bf 82f9 8d3f fbff 31bf
00000020: 92a2 a1bf 818c 113f 94a8 053f 6d42 a2bf
00000030: d9cc 5cbf a8ba d73e f2ce 1d3e 37f3 eb3e
00000040: 9dab 9d3f b12b f03e a28c b9be 5a46 983f
00000050: ec5a 903e 1c5f 05bf 31cf c53e bbc5 a33f
00000060: f8fe c3be 5823 f03e d83e a93f 58ab 15be
00000070: fa65 44bf 332c a6be 2c61 9cbf 5716 1abf
00000080: e7fb 76bf dc46 883e b3f1 cf3e 6df7 99bf
00000090: 49ae 8cbf bcb4 b63f d401 dabe 14b9 40bf
000000a0: 18ca a2be f401 a0bf 62a3 1dbf 901f ec3e
000000b0: 770a 93bf 005c f63e 629a 4dbe 7819 553f
000000c0: 3e7e 95be bf12 963f f168 b43f d1fb bfbe
000000d0: 923b 9fbf 0d42 53bf 826f 0fbf ba61 c43e
000000e0: 1598 a03e f5ce 033f 1410 c5be 1100 4e3f
000000f0: 228f 2bbf 132f 103f d8ea 94bf 8d2e 9d3f

architecture.4.weight f4 [1, 64]
-7.9877214 -5.114538 5.086902 7.9405146 -7.137175 5.0636168 -5.034206 5.1246095
5.1329565 -5.2649794 -5.0602565 5.1679196 5.1664505 -8.059297 -6.617405 -6.5726614
-5.2737513 -7.7378078 6.4768977 -5.255766 -6.8810472 6.486049 -6.649578 -5.119238
6.7117195 -8.341622 -5.0311475 7.3440075 5.2918363 6.7397265 5.0897846 7.9062443
5.039613 -7.1574416 -7.654865 5.0152416 5.064433 -5.0479107 5.205917 5.1411605
6.582033 4.9949465 5.0895095 -5.590488 5.153 -7.6313496 6.0630226 -5.353275
6.454776 -5.087575 -5.014607 7.71772 5.00768 5.326818 5.154329 -8.184977
-7.7460275 -5.3576517 7.5227647 -5.421868 5.707112 -5.182419 4.9625454 -5.184143
00000000: 6a9b ffc0 4caa a3c0 e7c7 a240 b218 fe40
00000010: bd63 e4c0 2609 a240 3718 a1c0 cdfc a340
00000020: 2e41 a440 b67a a8c0 9fed a1c0 995f a540
00000030: 9053 a540 e1f2 00c1 c8c1 d3c0 3e53 d2c0
00000040: 92c2 a8c0 1f9c f7c0 bf42 cf40 3c2f a8c0
00000050: 8a31 dcc0 b78d cf40 58c9 d4c0 ccd0 a3c0
00000060: 68c6 d640 4977 05c1 29ff a0c0 1c02 eb40
00000070: b956 a940 d7ab d740 84df a240 f4ff fc40
00000080: 8244 a140 c309 e5c0 a7f4 f4c0 dc7c a040
00000090: d60f a240 7c88 a1c0 df96 a640 6384 a440
000000a0: 04a0 d240 9ad6 9f40 43dd a240 47e5 b2c0
000000b0: 60e5 a440 0434 f4c0 4804 c240 074e abc0
000000c0: 868d ce40 6acd a2c0 a977 a0c0 90f7 f640
000000d0: ea3e a040 4b75 aa40 43f0 a440 aaf5 02c1
000000e0: 75df f7c0 e271 abc0 7dba f040 f17f adc0
000000f0: a9a0 b640 60d6 a5c0 2ccd 9e40 80e4 a5c0

exp_avg f4 [64, 27]
-3.7521768e-05 2.9676969e-05 -5.8699636e-05 1.5181162e-06 -1.0128241e-05 4.057896e-06 -8.0138096e-05 1.9618057e-05
-6.1017323e-05 1.190332e-05 3.737838e-05 -6.32941e-05 -5.5091816e-05 -2.5981593e-05 3.207473e-05 4.398329e-06
1.0436515e-06 3.842407e-06 6.370308e-06 -7.54461e-06 6.3976327e-06 -6.916441e-05 1.9923991e-05 -6.83469e-05
1.3974113e-05 3.8387552e-05 -5.9320435e-05 -1.7114346e-05 3.3841174e-05 2.5734123e-06 -1.4885654e-05 4.3979635e-06
4.8999896e-06 -1.4490281e-05 -1.1839165e-05 -5.1417765e-06 -1.2512857e-05 8.201232e-06 -1.4905128e-05 -2.471419e-05
-1.7748178e-05 1.26805135e-05 1.1513119e-05 1.1458654e-05 -1.6479626e-05 -1.28472275e-05 6.9237008e-06 1.2242405e-06
-1.3154089e-05 -7.5397343e-06 -5.0624108e-06 -1.0101833e-05 1.0808941e-05 -1.2610663e-05 9.2357495e-06 -2.2404027e-05
1.0377056e-05 8.479632e-07 1.6154288e-05 3.560308e-05 -2.4433417e-05 -1.2154231e-05 -2.5480063e-06 1.1064299e-06
1.2412463e-05 -7.724567e-06 1.2222638e-05 1.1160569e-05 5.8547125e-06 -7.916488e-06 -8.521983e-06 -2.5011825e-06
-8.201564e-07 1.44909145e-05 3.5863075e-05 -2.1721058e-05 -7.4019194e-06 -1.2960053e-06 -7.800804e-06 1.7380306e-05
-8.621007e-06 -9.907972e-07 -0.00010700008 3.59894e-05 1.331653e-05 5.4220654e-05 3.1434553e-05 5.1123552e-05
2.0988873e-05 -5.8612814e-06 -4.0083978e-05 2.5591793e-05 3.8820395e-05 1.8252655e-07 2.2968341e-05 -1.9331277e-05
2.7778799e-05 3.3616485e-05 -5.9622897e-05 7.531788e-06 5.3868738e-05 2.7888122e-05 5.0920036e-05 2.1319865e-05
-8.1165335e-06 -3.9780723e-05 2.2884326e-05 3.8471797e-05 -1.46424145e-05 -1.2998557e-05 1.7885928e-05 -7.1526533e-06
1.5640799e-05 1.6192774e-06 2.0139132e-06 8.9195464e-07 -1.3335199e-06 -1.491851e-05 1.1563278e-05 5.4442044e-06
-1.082071e-05 1.9534382e-05 1.9210991e-05 2.0868078e-05 7.058256e-06 -1.4108974e-05 -1.006919e-05 1.5176613e-05
-1.0269714e-07 -2.1251026e-06 4.3816215e-07 -6.4954327e-07 -8.2073875e-06 1.4041105e-05 4.6515293e-06 6.680727e-06
3.220959e-05 7.2045236e-06 -4.986798e-06 -1.1416064e-05 -1.1238719e-05 9.088874e-06 -7.567541e-06 2.1788137e-06
4.635818e-06 -3.4835573e-06 5.743364e-06 -4.242863e-05 2.8193645e-06 -1.0704207e-05 1.4575506e-05 -1.8754083e-05
-1.0242084e-05 -9.616707e-06 -1.3971698e-05 -1.2163652e-05 8.195846e-06 -3.984098e-06 4.751461e-07 -2.688072e-07
-6.9001403e-06 2.9592436e-06 -5.0156716e-05 -3.0820238e-06 -1.6023394e-05 -2.5578964e-05 9.592754e-06 -7.7370005e-06
-2.0351816e-05 1.0841237e-06 3.5300418e-06 -2.7639603e-06 -1.357015e-05 1.353926e-05 1.9745701e-05 -2.4652738e-05
3.9205028e-05 4.2434425e-05 7.231988e-05 -6.1090905e-05 -1.8431603e-05 1.16352385e-05 -1.5659426e-06 -8.533224e-06
-7.179096e-06 -1.7244425e-07 4.26248e-06 -1.0928528e-05 1.6653115e-05 5.636361e-06 -2.21715e-05 1.2776659e-05
-1.847706e-05 -1.0911529e-05 3.4421214e-06 4.814322e-07 6.6685807e-06 -2.6296939e-06 -3.957518e-06 -7.436565e-06
-1.0198813e-05 1.2669923e-05 5.129206e-06 1.821118e-05 3.3488948e-06 9.663455e-06 -3.183301e-05 -1.55861e-05
-1.1740684e-05 6.0928437e-06 9.5198044e-07 5.349305e-06 -1.8316692e-07 -6.3738585e-06 -1.1093254e-05 -8.845513e-06
-9.2921255e-06 4.1259533e-05 -2.7330705e-05 -1.7896604e-05 -2.8242373e-05 1.42166255e-05 -3.1993404e-05 -1.2447417e-05
-1.3513628e-05 -7.3269694e-06 -1.0567584e-05 -3.0503126e-05 -2.2454948e-05 -2.52591e-05 -1.3998212e-05 1.8007914e-06
-5.2900673e-06 4.723928e-05 -1.9203004e-05 -2.7296515e-05 1.4592702e-05 -3.347534e-05 -7.761454e-06 -1.1579514e-05
-9.546888e-06 -3.5755568e-06 -3.0796e-05 2.317871e-05 -1.6987524e-05 1.933903e-05 -2.1627202e-06 -1.8818915e-05
-6.7459437e-06 7.941052e-06 -3.2795576e-06 -9.787224e-06 5.6670556e-06 -1.3716247e-05 -1.21330595e-05 1.5276648e-05
00000000: b160 1db8 cef2 f837 4134 76b8 13c2 cb35
00000010: 77ec 29b7 1029 8836 d00f a8b8 7591 a437
00000020: daec 7fb8 5fb4 4737 bbc6 1c38 c3bc 84b8
00000030: 6312 67b8 0cf3 d9b7 fb87 0638 5c95 9336
00000040: 9813 8c35 06ee 8036 87c0 d536 b527 fdb6
00000050: 3fab d636 5c0c 91b8 7222 a737 7655 8fb8
00000060: 5c72 6a37 5202 2138 d5ce 78b8 c790 8fb7
00000070: aff0 0d38 e3b2 2c36 66bd 79b7 3892 9336
00000080: 976a a436 481b 73b7 d4a0 46b7 8687 acb6
00000090: 50ee 51b7 0698 0937 0a11 7ab7 5251 cfb7
000000a0: ece1 94b7 64be 5437 7828 4137 8b3e 4037
000000b0: ba3d 8ab7 6c8a 57b7 2352 e836 9550 a435
000000c0: 62b0 5cb7 d3fd fcb6 c7dd a9b6 0b7b 29b7
000000d0: 0c58 3537 6392 53b7 3ef3 1a37 48f0 bbb7
000000e0: 1e19 2e37 969f 6335 1283 8737 8454 1538
000000f0: 5df6 ccb7 06ea 4bb7 6afe 2ab6 a480 9435
00000100: 1f3f 5037 c398 01b7 d50f 4d37 473e 3b37
00000110: 9973 c436 0fd1 04b7 a3f9 0eb7 fdd9 27b6
00000120: b828 5cb5 011e 7337 af6b 1638 9e35 b6b7
00000130: 015e f8b6 67f2 adb5 33e0 02b7 eccb 9137
00000140: f1a2 10b7 88fb 84b5 3b65 e0b8 53f3 1638
00000150: 106a 5f37 fc6a 6338 98d8 0338 7f6d 5638
00000160: 4311 b037 06ac c4b6 d81f 28b8 f5ad d637
00000170: 15d3 2238 84fc 4334 23ac c037 9a29 a2b7
00000180: 8406 e937 6dff 0c38 9913 7ab8 91b9 fc36
00000190: 1ef1 6138 49f1 e937 f992 5538 10d8 b237
000001a0: 3f2c 08b7 3ada 26b8 b7f7 bf37 c75c 2138
000001b0: b1a8 75b7 6114 5ab7 bd09 9637 d300 f0b6
000001c0: 5c34 8337 f355 d935 c426 0736 a86e 6f35
000001d0: 65fb b2b5 834a 7ab7 e7ff 4137 5cad b636
000001e0: 988a 35b7 c4dd a337 4a27 a137 db0d af37
000001f0: f5d5 ec36 95b5 6cb7 d7ee 28b7 0e9f 7e37
00000200: 5a8a dcb3 fc9c 0eb6 8c3c eb34 465c 2eb5
00000210: 76b2 09b7 1692 6b37 5514 9c36 022b e036
00000220: c918 0738 63be f136 4554 a7b6 9f87 3fb7
00000230: ee8d 3cb7 6b7c 1837 afec fdb6 bc37 1236
00000240: 608d 9b36 0fc7 69b6 1fb7 c036 65f5 31b8
00000250: 5034 3d36 3896 33b7 5289 7437 1652 9db7
00000260: 6ad5 2bb7 7157 21b7 fc67 6ab7 7d12 4cb7
00000270: e480 0937 24af 85b6 9517 ff34 9550 90b4
00000280: c187 e7b6 6b97 4636 5d5f 52b8 c4d4 4eb6
00000290: fa69 86b7 6892 d6b7 91f0 2037 2ace 01b7
000002a0: 31b9 aab7 3582 9135 a8e5 6c36 7a7c 39b6
000002b0: 5aab 63b7 ae26 6337 92a3 a537 5acd ceb7
000002c0: 1470 2438 9efb 3138 71aa 9738 ee1d 80b8
000002d0: 919d 9ab7 f834 4337 612d d2b5 eb29 0fb7
000002e0: f7e3 f0b6 1d29 39b4 6d06 8f36 ac59 37b7
000002f0: 4bb2 8b37 f91f bd36 effc b9b7 555b 5637
00000300: 2fff 9ab7 a910 37b7 32ff 6636 c53b 0135
00000310: acc2 df36 cc79 30b6 d2ca 84b6 9b87 f9b6
00000320: 911b 2bb7 e890 5437 8b1b ac36 36c4 9837
00000330: 93bd 6036 3920 2237 6f84 05b8 e5be 82b7
00000340: dbf9 44b7 2171 cc36 998b 7f35 2e7e b336
00000350: 8aac 44b4 07df d5b6 2a1d 3ab7 3067 14b7
00000360: 60e5 1bb7 160e 2d38 3e44 e5b7 aa20 96b7
00000370: 09ea ecb7 f183 6e37 a830 06b8 40d5 50b7
00000380: 97b8 62b7 30da f5b6 6d4b 31b7 f7e0 ffb7
00000390: a25d bcb7 81e3 d3b7 ddd9 6ab7 b9b2 f135
000003a0: 5581 b1b6 ca22 4638 2316 a1b7 d2fa e4b7
000003b0: 2ed3 7437 df67 0cb8 3137 02b7 a245 42b7
000003c0: 922b 20b7 99f3 6fb6 f42a 01b8 e76f c237
000003d0: 6e80 8eb7 403a a237 4023 11b6 50dd 9db7
000003e0: 375b e2b6 8f3a 0537 5f16 5cb6 cf33 24b7
000003f0: a327 be36 d51e 66b7 188f 4bb7 5a26 8037
