raisimGymTorch/data/ouzel_only_planning/2022-05-09-12-17-53/full_17000.pt (torch, 162032 bytes, 36 tensors)

architecture.0.weight f4 [64, 27]
0	0x3de69aab	0.11259969
1	0xbeaaa685	-0.3333017
2	0x3e96f8c8	0.2948668
3	0xbd028359	-0.031863544
4	0x3e399460	0.18123007
5	0xbe535b6e	-0.20640346
6	0xbe84f3ca	-0.25967246
7	0x3f095575	0.5364602
8	0x3db09ea6	0.0862401
9	0x3ec80060	0.39062786
10	0xbdc71ce2	-0.09722306
11	0xbdb8bb63	-0.09020116
12	0x3e728b1c	0.23685879
13	0xbe9bab54	-0.3040415
14	0xbce27751	-0.027644785
15	0xbed0137e	-0.4063987
16	0x3f1022de	0.56303203
17	0x3ee039fe	0.43794245
18	0xbe5c6ee1	-0.21526672
19	0xbda41d3f	-0.08013391
20	0x3d192319	0.037386987
21	0x3dadc975	0.084856905
22	0x3e05875a	0.13039914
23	0x3a45c8c5	0.00075448706
24	0x3ea37165	0.3192245
25	0xbecedb4e	-0.4040169
26	0xbd1fe1bf	-0.039033648
27	0x3dbb251e	0.09137939
28	0x3d6fb388	0.058520824
29	0xbe8ba5e2	-0.27274996
30	0x3d6dc8dd	0.058052886
31	0x3c500daf	0.012698575
32	0x3ae414ca	0.0017401215
33	0xbe3c21ee	-0.18372318
34	0xbd9812e0	-0.07425475
35	0xbe20b509	-0.1569406
36	0x3d8ed871	0.06974877
37	0xbee22657	-0.44169876
38	0x3db4eda8	0.08834392
39	0xbba5aa73	-0.0050557195
40	0x3ea7cc24	0.32772934
41	0xbe77cff7	-0.24200426
42	0x3eaf3f76	0.34228104
43	0xbe840575	-0.25785413
44	0x3d07aca6	0.033123635
45	0x3e9bae0b	0.30406222
46	0x3d2ae9ac	0.041726753
47	0x3e90f9f9	0.28315714
48	0xbe896761	-0.26836684
49	0x3d7891a3	0.060685765
50	0xbe85fc9f	-0.26169297
51	0xbee7444d	-0.45169297
52	0xbdcd3920	-0.10020661
53	0xbe375bca	-0.17906108
54	0x3e1c143d	0.15242095
55	0x3f01ecc0	0.50751877
56	0x3ea56418	0.32302928
57	0x3ee4af19	0.4466484
58	0x3dd41ba6	0.10356836
59	0x3d92e158	0.07171887
60	0xbcfd327e	-0.030907866
61	0xbe4732cd	-0.19452973
62	0xbf37daa2	-0.7181798
63	0x3ce1bd67	0.027556134
64	0xbc8a6c94	-0.016897477
65	0x3cb26061	0.021774473
66	0xbdf178ba	-0.11790605
67	0x3ce8d1a0	0.02842027
68	0xbce5f09f	-0.028068839
69	0x3d39a10e	0.04531961
70	0xbdb0e476	-0.086373255
71	0x3e1c6a80	0.15275002
72	0xbe1eeb99	-0.15519561
73	0x3e2a2873	0.16616993
74	0x3e866f7a	0.26256925
75	0x3de72c97	0.11287802
76	0x3be4c420	0.0069813877
77	0xbe917509	-0.28409603
78	0xbd9b63b4	-0.07587376
79	0xbdf93488	-0.12168223
80	0xbd6bda11	-0.05758101
81	0xbe2db832	-0.16964796
82	0xbdf37f17	-0.11889475
83	0xbe3c0387	-0.1836072
84	0x3c9c8fec	0.019111596
85	0x3cf9f9f6	0.030514698
86	0x3eed5def	0.46360728
87	0x3dbaa35e	0.09113191
88	0xbe2de82b	-0.16983096
89	0x3d889006	0.06668095
90	0xbe026b1f	-0.12736176
91	0xbec6d824	-0.38836777
92	0xbdc76684	-0.0973635
93	0xbf08d0d6	-0.5344366
94	0xbdb77fe0	-0.08959937
95	0x3da05d22	0.07830264
96	0x3e1d4cff	0.15361403
97	0xbe7843b6	-0.2424458
98	0xbd47f3ea	-0.0488166
99	0x3b89d5ce	0.0042063957
100	0x3df25a80	0.11833668
101	0x3dce4c15	0.10073105
102	0x3e521693	0.20516424
103	0xbe6dc5a5	-0.23219927
104	0x3e19b1e7	0.1500927
105	0x3e2456e5	0.16048773
106	0xbdcea0bb	-0.10089251
107	0xbe62b374	-0.22138768
108	0xbe82b9d6	-0.25532407
109	0x3eaeb03a	0.34118825
110	0xbe9a0162	-0.3007918
111	0x3e6269bb	0.22110645
112	0x3dfcf3b9	0.12351174
113	0xbe09595f	-0.13412999
114	0x3ddd8c2a	0.1081775
115	0x3d8ea549	0.069651194
116	0x3c3b6c33	0.011439371
117	0xbe2c42c1	-0.1682234
118	0xbe935d3b	-0.28782067
119	0x3e4f40d4	0.20239574
120	0x3dbfa6f8	0.09358019
121	0x3cb6b4ac	0.022302948
122	0x3edeb8bd	0.4350032
123	0x3e386682	0.18007854
124	0xbde1c2e0	-0.110234976
125	0x3eb3e054	0.35132086
126	0x3ea133ab	0.31484732
127	0x3ec2b5b9	0.38029268
128	0xbe919751	-0.28435758
129	0x3dc4e9bc	0.09614894
130	0x3d857f37	0.06518405
131	0x3d734dc0	0.05940032
132	0xbde18e8a	-0.11013515
133	0xbe88f214	-0.2674719
134	0x3db4a4e2	0.088205114
135	0xbdc8e23b	-0.09808775
136	0xbe04b40c	-0.12959307
137	0xbe73d41b	-0.2381138
138	0x3e452a49	0.19254412
139	0xbbf9fb0c	-0.007628804
140	0x3e533f17	0.20629536
141	0x3e428a86	0.18998155
142	0xbeaa10f1	-0.3321605
143	0xbe5f2ca8	-0.21794379
144	0xbe22ca1b	-0.1589741
145	0x3db07613	0.08616271
146	0x3e44ab1a	0.19205895
147	0x3c776d24	0.015101705
148	0x3ddba77f	0.10725307
149	0x3ead21ec	0.33814943
150	0x3cbeeca5	0.0233062
151	0xbeb04808	-0.34429955
152	0x3de6b89b	0.112656794
153	0x3c16eb54	0.00921138
154	0xbe9428b4	-0.28937304
155	0xbe35d69e	-0.17757651
156	0x3ebde137	0.37085888
157	0xbf4e15bf	-0.8050193
158	0xbdd82d96	-0.1055557
159	0xbe453e2d	-0.19262
160	0x3e001be9	0.12510647
161	0xbd785ba6	-0.060634278
162	0x3b9f831a	0.0048679234
163	0xbed6e47d	-0.41971198
164	0xbee4f1b2	-0.4471565
165	0x3e3bb9fc	0.18332666
166	0xbe76c5a0	-0.24098825
167	0x3da856b8	0.08219665
168	0x3cfc1519	0.030771779
169	0x3d24e8ba	0.040261008
170	0xbec03196	-0.3753783
171	0x3e913f4e	0.2836861
172	0xbe24e04a	-0.16101184
173	0x3e8223e6	0.25418013
174	0x3e979c6b	0.29611525
175	0x3e6c4cc3	0.23076157
176	0x3d608f0c	0.05482392
177	0x3dcb2947	0.099199824
178	0xbe57afbd	-0.21063133
179	0xbe3d40a7	-0.18481694
180	0xbc9393ee	-0.018014874
181	0xbd80efdf	-0.06295752
182	0x3c8ab1d4	0.016930498
183	0x3e97cdd2	0.29649216
184	0x3dbc8c82	0.09206487
185	0x3e45463d	0.19265075
186	0x3cef5210	0.029213935
187	0x3d7ad9c9	0.061242852
188	0x3da91d28	0.08257514
189	0xbe71912f	-0.2359054
190	0xbd50235d	-0.050814975
191	0xbe585c9e	-0.2112908
192	0x3e6a2839	0.22866906
193	0xbdf3786f	-0.11888205
194	0xbe76bfd2	-0.24096611
195	0x3e73a147	0.23791991
196	0x3da55777	0.08073323
197	0xbddfb836	-0.10923807
198	0xbdef2a07	-0.11677938
199	0xbe0bce34	-0.13652879
200	0xbe89892e	-0.26862472
201	0x3caa188a	0.020763654
202	0x3ea1172d	0.31462994
203	0x3e41200b	0.1885988
204	0xbe37906b	-0.17926185
205	0xbedf7fcd	-0.43652192
206	0xbd7bcd70	-0.061475217
207	0xbddcaf96	-0.10775678
208	0x3e292b1e	0.16520354
209	0x3e331e98	0.1749214
210	0xbdd3959f	-0.10331272
211	0xbdfd9986	-0.12382798
212	0xbe15095b	-0.1455435
213	0x39e61b82	0.00043889513
214	0xbc699eda	-0.014259065
215	0x3cece822	0.028919283
216	0xbe3ac06c	-0.18237466
217	0xbd9be1d2	-0.07611431
218	0x3e129376	0.14314064
219	0xbec609fd	-0.38679495
220	0x3e7d50b2	0.24737814
221	0x3eaf9f5a	0.34301263
222	0xbd0216c9	-0.03176001
223	0x3e28e5f3	0.16493969
224	0xbc786832	-0.015161561
225	0xbca2952d	-0.019846523
226	0x3de4c654	0.111706406
227	0x3e51d9d8	0.20493257
228	0x3e0c821b	0.13721506
229	0xbee0fd79	-0.43943384
230	0x3ed7360a	0.42033416
231	0xbe53ad9a	-0.20671692
232	0x3d8af417	0.06784838
233	0xbd2371a4	-0.039903298
234	0x3e70aea9	0.23504128
235	0xbe97bd5d	-0.2963666
236	0x3cd3c300	0.02584982
237	0x3ce51964	0.027966209
238	0x3e4a7d8a	0.19774452
239	0x3e85d8cf	0.26141974
240	0xbe87284d	-0.26397935
241	0xbdf1b480	-0.11802006
242	0xbdeb52d4	-0.114904076
243	0x3e088977	0.13333689
244	0x3dd2c748	0.10291916
245	0xbd964b77	-0.073386125
246	0xbe65e6db	-0.22451346
247	0x3eac8842	0.33697706
248	0xbe36140a	-0.17781082
249	0x3e1145f8	0.14186847
250	0xbe972a8f	-0.29524657
251	0xbe50748c	-0.20356959
252	0xbe664ab6	-0.22489437
253	0x3e02f9d1	0.1279061
254	0xbe268aaa	-0.16263834
255	0xbe502a64	-0.2032867

architecture.0.bias f4 [64]
0	0xbddf047d	-0.10889528
1	0xbe3e9d33	-0.18614654
2	0x3f3b5d4d	0.7318924
3	0x3db634d1	0.08896793
4	0x3e5afe34	0.21386033
5	0xbecd53ba	-0.4010294
6	0xbf28965f	-0.6585445
7	0xbf3ae3a0	-0.7300358
8	0xbf60e7d7	-0.8785376
9	0xbdddf20d	-0.10837183
10	0xbf249cf2	-0.6430198
11	0x3edd8506	0.4326555
12	0x3f693e09	0.91110283
13	0xbf56fe86	-0.8398212
14	0x3f7b0916	0.9806074
15	0x3f3f601d	0.7475603
16	0xbefbbffe	-0.49169916
17	0xbea839f2	-0.3285671
18	0xbf6b1a12	-0.91836655
19	0x3e8154c1	0.25259975
20	0x3f8e5590	1.1119862
21	0xbf668268	-0.90042734
22	0x3f3ae618	0.73007345
23	0xbf5370d9	-0.82594067
24	0x3de4e0ce	0.111756906
25	0x3e8d8608	0.2764132
26	0x3ea05259	0.31312826
27	0xbf2fd6f3	-0.6868736
28	0xbeb5ce83	-0.35509118
29	0xbcb76d49	-0.022390978
30	0xbc545740	-0.012960255
31	0xbe48b46a	-0.19600073
32	0xbef9b403	-0.4877015
33	0xbf3268ce	-0.6969117
34	0xbf2f8dc7	-0.6857571
35	0x3e806425	0.25076404
36	0x3f6ed5f6	0.9329523
37	0xbe5a671d	-0.21328397
38	0x3e907489	0.2821391
39	0xbd8a02df	-0.06738829
40	0xbed56437	-0.4167802
41	0xbf017558	-0.5056968
42	0x3f49196f	0.78554434
43	0xbc9352d9	-0.01798384
44	0x3d92ed35	0.0717415
45	0x3f12988b	0.5726401
46	0xbdb90f3c	-0.09036109
47	0xbeb38422	-0.35061747
48	0x3e1cb6cb	0.15304105
49	0x3f663fe5	0.89941245
50	0x3f4c5172	0.79811776
51	0x3ee6d136	0.4508149
52	0xbc3fd87a	-0.011709327
53	0xbf74bc32	-0.95599663
54	0xbea189a0	-0.31550312
55	0x3e7f44e6	0.24928626
56	0xbf107a56	-0.5643667
57	0xbf67249a	-0.90290225
58	0x3f5fbc05	0.8739627
59	0x3f7ccecc	0.98753047
60	0x3f88eed2	1.0697882
61	0x3f2120d8	0.6294074
62	0xbde96597	-0.1139633
63	0x3c94d6d7	0.01816885

architecture.2.weight f4 [64, 64]
0	0xbde81940	-0.11332941
1	0x3e98815e	0.297862
2	0xbe38d7c7	-0.18051063
3	0xbe5ed0bb	-0.21759312
4	0x3bdf054f	0.0068060528
5	0x3e798d84	0.2437039
6	0x3c80d9b5	0.01572881
7	0x3e80e54a	0.25174934
8	0x3e31ef70	0.17376494
9	0xbe1ad45b	-0.1512007
10	0x3e909a94	0.28242934
11	0xbe00a766	-0.12563857
12	0xbf0a0ae7	-0.53922886
13	0xbe6872ab	-0.22699992
14	0xbdd93973	-0.10606661
15	0xbf098425	-0.5371726
16	0x3dcd3ac6	0.10020976
17	0x3e2a5bf9	0.16636647
18	0x3e95a401	0.29226688
19	0xbdaaa392	-0.0833198
20	0xbf1fba61	-0.62393767
21	0x3f019dad	0.5063122
22	0xbe43889d	-0.19095083
23	0x3e707810	0.234833
24	0x3e4e4158	0.20142114
25	0xbdea05dd	-0.114268996
26	0x3caa03db	0.020753792
27	0x3eabd58e	0.33561367
28	0xbd511358	-0.05104384
29	0xbe976c3c	-0.29574764
30	0xbb3fff7c	-0.0029296568
31	0x3e536033	0.20642166
32	0x3e3ecca7	0.18632756
33	0x3ea51d6e	0.32249016
34	0x3c8dca32	0.017308328
35	0x3e0c7ec1	0.13720228
36	0xbdb90367	-0.09033852
37	0x3ca006e1	0.01953453
38	0x3b3dd94a	0.0028968626
39	0x3e65b34f	0.22431682
40	0x3e458ed4	0.19292766
41	0xbe2ea7d9	-0.17056216
42	0x3e8b25f5	0.27177396
43	0xbe00e181	-0.12586023
44	0xbefd1b7d	-0.49435034
45	0x3c035371	0.008015499
46	0x3e1b9738	0.15194404
47	0x3e82ea34	0.25569308
48	0x3dc486b8	0.09596008
49	0x3daa4f98	0.083159626
50	0xbe4703f6	-0.19435105
51	0xbcda9e59	-0.026686834
52	0x3e43706c	0.19085854
53	0x3db18d53	0.086695336
54	0x3e86382a	0.26214725
55	0xbdfb1850	-0.122604966
56	0xbd7d5eaf	-0.061857875
57	0xbddb9111	-0.107210286
58	0xbed29e71	-0.41136506
59	0xbdfa00fa	-0.122072175
60	0xbe68a26d	-0.2271821
61	0xbeaec5c0	-0.34135246
62	0xbe5929f1	-0.21207406
63	0x3e834065	0.25635067
64	0xbceca2de	-0.028886255
65	0xbe73f259	-0.23822917
66	0x3c8bbc24	0.017057486
67	0x3e9bb2c9	0.3040984
68	0x3df894f3	0.12137785
69	0xbddf94d1	-0.10917056
70	0xbe58d708	-0.21175778
71	0xbd7ff0cb	-0.062485497
72	0x3ec37c93	0.3818098
73	0xbdc57127	-0.09640723
74	0x3dea4e13	0.11440673
75	0xbdb7a6e5	-0.089673795
76	0x3e1da29e	0.15394065
77	0x3e4a103a	0.19732752
78	0x3cf13a42	0.029446725
79	0x3e905627	0.2819073
80	0x3c06440d	0.0081949355
81	0x3e702b89	0.23454107
82	0xbdd16e19	-0.102260776
83	0xbe321e9e	-0.17394492
84	0x3e9b420f	0.30323836
85	0x3d87fb4c	0.06639728
86	0xbdd12c82	-0.10213567
87	0xbd133343	-0.03593756
88	0xbb6ead9f	-0.0036419404
89	0x3e7ee321	0.2489133
90	0x3c541c80	0.012946248
91	0xbde88d87	-0.11355119
92	0x3ecc1778	0.39861655
93	0x3e47b9cb	0.19504468
94	0xbddcd723	-0.107832216
95	0x3eaf12af	0.34193942
96	0xbe8dafd5	-0.27673212
97	0xbe1ebc5a	-0.15501538
98	0xbd14f39c	-0.036365137
99	0xbd86e9c2	-0.065875545
100	0x3e638248	0.22217667
101	0xbd6925e5	-0.056920905
102	0xbe122daf	-0.1427524
103	0x3db775e6	0.08958034
104	0x3e7d4cbe	0.24736306
105	0xbd8394f1	-0.06424893
106	0xbe9f2e63	-0.31090078
107	0xbceea8ae	-0.029133167
108	0x3e3b0d93	0.18266897
109	0xbe87d346	-0.26528376
110	0x3db162ec	0.08661446
111	0x3d3491de	0.044084422
112	0xbe6f3546	-0.23360166
113	0xbdd70ef7	-0.10500901
114	0x3d854998	0.065081775
115	0xbda55477	-0.08072751
116	0xbeba7c9f	-0.36423203
117	0x3ed3a850	0.4133935
118	0x3e620285	0.22071274
119	0x3e9d8220	0.3076334
120	0x3e4d9da1	0.20079662
121	0x3eee22fc	0.46511066
122	0xbe893837	-0.268007
123	0x3e4fac34	0.20280534
124	0x3eeeca1a	0.46638566
125	0x3d1c956f	0.03822845
126	0xbceba504	-0.028765209
127	0xbbd2621b	-0.0064203865
128	0x3edcc4f7	0.43119022
129	0xbf0567b8	-0.5211139
130	0xbd606c83	-0.054790985
131	0xbe7d916b	-0.24762504
132	0x3cafad77	0.02144502
133	0xbe501b01	-0.20322801
134	0xbd0eb9da	-0.03484521
135	0xbe9e43c0	-0.30911064
136	0x3eaef9a8	0.34174848
137	0xbe0322b4	-0.12806207
138	0xbc94e981	-0.01817775
139	0xbc1be9a7	-0.009516156
140	0xbdd93c7e	-0.10607241
141	0xbe8a8ffa	-0.2706297
142	0xbe033d95	-0.1281646
143	0xbe8dedec	-0.27720582
144	0xbe9e1214	-0.30873168
145	0xbddf683f	-0.10908555
146	0xbe6d1311	-0.23151805
147	0xbea0570f	-0.3131642
148	0x3f315d96	0.69283426
149	0xbd80a5e0	-0.06281638
150	0x3ebffac5	0.3749601
151	0xbe5f9aee	-0.21836445
152	0x3f1c9f8c	0.6118095
153	0x3e0899bc	0.13339895
154	0xbd435c4c	-0.047695443
155	0x3e25d8dd	0.16196008
156	0x3e14e226	0.14539394
157	0xbe2a82eb	-0.16651504
158	0xbd6d1395	-0.057880003
159	0x3dad1f4b	0.08453234
160	0xbdf32009	-0.118713446
161	0x3e9b9515	0.30387178
162	0xbe34591c	-0.17612118
163	0x3e2016b1	0.15633656
164	0x3ec4b28b	0.38417467
165	0x3d01e5e4	0.03171338
166	0xbcaaa737	-0.020831687
167	0x3e174e7a	0.1477603
168	0xbd9f98cb	-0.07792815
169	0xbed95f0e	-0.42455333
170	0x3e9464e3	0.2898322
171	0xbe587369	-0.21137775
172	0x3c97cb88	0.018529668
173	0x3e9fd095	0.31213823
174	0xbd0b6785	-0.03403427
175	0xbe12c57c	-0.14333147
176	0xbd341039	-0.043960784
177	0x3edaa338	0.4270265
178	0xbe8199d2	-0.25312668
179	0x3e4143d7	0.18873535
180	0x3ec8312c	0.39100015
181	0xbca277c6	-0.019832503
182	0xbe1ae2c0	-0.15125561
183	0xbc9ccbd9	-0.01914017
184	0xbea7db60	-0.32784557
185	0xbec8fced	-0.39255467
186	0x3eb21aa4	0.3478595
187	0x3ce16b33	0.027516937
188	0xbe69d1d8	-0.22833955
189	0x3c5a12ab	0.013310115
190	0x3ddf80d8	0.10913247
191	0xbd15e045	-0.036590833
192	0xbd948585	-0.07252029
193	0xbc9513ff	-0.018198011
194	0xbd52c547	-0.05145767
195	0xbec66187	-0.38746282
196	0xbb80447d	-0.0039144144
197	0xbd761b8b	-0.06008486
198	0xbdbe4d33	-0.09292068
199	0xbe4566be	-0.19277474
200	0x3e8fdb90	0.280972
201	0xbe205f31	-0.15661313
202	0x3eefd670	0.4684329
203	0xbf2a2c1f	-0.66473573
204	0xbf29c302	-0.66313183
205	0x3e8e771e	0.27825254
206	0xbeb1408c	-0.34619558
207	0xbe467529	-0.1938063
208	0x3d8fb150	0.070162416
209	0xbe179914	-0.14804488
210	0x3d688fa9	0.05677763
211	0x3d92f603	0.07175829
212	0xbea4316b	-0.32068953
213	0x3e643dfb	0.22289269
214	0x3d84063b	0.06446501
215	0xbc2b8c68	-0.010470487
216	0xbe5fe064	-0.21862942
217	0x3e115a92	0.14194706
218	0xbe9e9e71	-0.30980256
219	0x3dbe7eec	0.09301552
220	0xbd134640	-0.035955667
221	0xbda2a219	-0.07941074
222	0xbe194058	-0.14965951
223	0xbe100775	-0.14065345
224	0x3edaac01	0.42709354
225	0xbe88f1b6	-0.2674691
226	0x3ead444f	0.33841178
227	0xbe212c05	-0.15739448
228	0xbe4963a9	-0.19666924
229	0x3ee20d6c	0.44150865
230	0xbd9077ee	-0.07054125
231	0x3e3ea3aa	0.1861712
232	0x3df11082	0.11770727
233	0x3dc90388	0.09815127
234	0xbdac7b87	-0.084219985
235	0xbe6a9fd8	-0.22912538
236	0xbda39fb8	-0.07989448
237	0xbeef33bb	-0.46719155
238	0x3ea77f9f	0.32714555
239	0x3d0990de	0.03358542
240	0xbdcac102	-0.099000946
241	0xbe54dfd0	-0.20788503
242	0xbe6edc66	-0.23326263
243	0xbe868418	-0.26272655
244	0x3e04ac7e	0.12956426
245	0x3e892744	0.2678777
246	0x3d042e98	0.032270998
247	0x3d6a8419	0.057254884
248	0xbbb891c3	-0.0056326105
249	0x3e8ad915	0.27118745
250	0x3e5b7742	0.21432212
251	0xbe1f7276	-0.15571007
252	0xbe4d0b80	-0.20023918
253	0xbe214885	-0.1575032
254	0x3d7cf8fe	0.061760895
255	0xbdb4dbac	-0.088309616

architecture.2.bias f4 [64]
0	0xbf05b4dc	-0.52229095
1	0xbcb0580a	-0.021526355
2	0x3f09346a	0.535956
3	0xbf3e4cfe	-0.7433623
4	0xbe8882cc	-0.2666229
5	0xbeefc866	-0.4683258
6	0x3e650311	0.22364451
7	0xbef3d52f	-0.47623584
8	0xbe34f607	-0.17671977
9	0xbead0625	-0.3379375
10	0xbd069777	-0.032859292
11	0xbe754062	-0.23950341
12	0x3df1d28f	0.11807739
13	0xbec9a971	-0.39387086
14	0x3e793d8b	0.24339883
15	0x3ca0e165	0.019638726
16	0x3e39649f	0.1810479
17	0x3f25d228	0.647738
18	0x3f890496	1.0704525
19	0x3eeb1b5c	0.4591931
20	0xbee6332b	-0.44960913
21	0xbd131622	-0.03590978
22	0x3b2cd373	0.002637115
23	0xbf28a1b8	-0.65871763
24	0xbf1c1733	-0.609729
25	0x3f031c7a	0.51215327
26	0x3d4ca966	0.04996624
27	0x3e692cbb	0.2277097
28	0x3f71fcc9	0.94526345
29	0xbe5a643e	-0.21327302
30	0x3ee2b395	0.44277635
31	0x3e9be798	0.3045013
32	0xbe530188	-0.20606053
33	0xbed9fdf4	-0.42576563
34	0x3e5d9b7c	0.21641344
35	0xbd86310a	-0.06552322
36	0xbeafd9ea	-0.34345943
37	0xbd67f758	-0.05663237
38	0xbe9a2c00	-0.30111694
39	0x3ea846e9	0.328666
40	0xbf8d2af1	-1.102873
41	0x3dd8492c	0.105608314
42	0xbe79ac50	-0.24382138
43	0xbd832a47	-0.06404548
44	0x3ec97d85	0.39353576
45	0x3f4ec50f	0.8076944
46	0xbf606780	-0.8765793
47	0x3d38775d	0.04503571
48	0x3e6b4b2d	0.22977896
49	0xbcfb10b0	-0.030647606
50	0xbf1229fa	-0.570953
51	0xbe37ce23	-0.17949729
52	0x3e917b59	0.2841442
53	0x3cb14bfa	0.021642674
54	0xbf11b649	-0.5691877
55	0x3f1acc0d	0.60467607
56	0xbddc35c1	-0.1075244
57	0x3d37afe9	0.044845495
58	0x3e0f10f4	0.13971311
59	0xbb16bab6	-0.0022999472
60	0xbe538620	-0.20656633
61	0x3e4fd176	0.20294747
62	0x3c01abbe	0.007914482
63	0xbd195c02	-0.03744126

architecture.4.weight f4 [9, 64]
0	0x3c192961	0.009348244
1	0x3d5442e3	0.0518216
2	0xbda9c315	-0.08289162
3	0xbcfc762f	-0.030818073
4	0x3cd0fc43	0.025510913
5	0xbc9e86ad	-0.019351328
6	0xbca4fca6	-0.020140003
7	0xbca30803	-0.019901281
8	0x3cba69ec	0.022755586
9	0xbc9126f3	-0.017718768
10	0x3c07e4b2	0.008294271
11	0xbc711ee6	-0.014716839
12	0x3ca784cc	0.020449065
13	0xbd1d8321	-0.038455132
14	0x3cdc1a11	0.026867898
15	0xbc8a3274	-0.016869761
16	0xbd0abfa5	-0.033874173
17	0x3d21438a	0.03937105
18	0xb948f67c	-0.00019165309
19	0xbc712004	-0.014717106
20	0x3be6a39c	0.0070385467
21	0x3b519c5a	0.0031984062
22	0x3b3487a1	0.0027546661
23	0x3d1dc978	0.038522214
24	0x3cf9d68a	0.030497808
25	0x3d31958a	0.043355502
26	0x3cd3622b	0.025803646
27	0x3c03fd82	0.008056046
28	0x3d43f182	0.04783774
29	0x3c09ae6b	0.008403401
30	0xba610e9a	-0.00085852447
31	0x3b4450c8	0.0029955376
32	0xbd2ce600	-0.042211533
33	0x3c8029c6	0.01564492
34	0x3c2f898f	0.010713949
35	0xbcce3293	-0.0251706
36	0xbd2db8fe	-0.04241275
37	0xbd6a878b	-0.05725817
38	0x3d2b5080	0.041824818
39	0xb902d95c	-0.00012478739
40	0xbd856516	-0.06513421
41	0x3c83d18f	0.016091136
42	0xbd2c8629	-0.042120133
43	0xbc27f828	-0.010252036
44	0x3dae3594	0.08506313
45	0xbd996f36	-0.07491915
46	0xbd23b192	-0.039964266
47	0x3c649a35	0.013952781
48	0x3d8f0a19	0.06984348
49	0x3c442b65	0.011973237
50	0xbcfffd5f	-0.031248746
51	0xbdaf4130	-0.085573554
52	0xbc3f9b8e	-0.011694802
53	0xbb99ac90	-0.0046897605
54	0x3d731877	0.059349503
55	0xbcc3075f	-0.023807226
56	0xbdb7720a	-0.08957298
57	0x3ca7df19	0.020492123
58	0x3d16b534	0.036793903
59	0xbcbb6535	-0.022875408
60	0x3c7f40bc	0.015579399
61	0xbd41d8c1	-0.047325853
62	0xbc62cb39	-0.013842397
63	0x3c2136a0	0.009839684
64	0x3bfc732f	0.0077041606
65	0x3dd28c99	0.10280723
66	0xbcd7d372	-0.026345942
67	0xbd39d857	-0.045372333
68	0xbdd66c48	-0.10469872
69	0x3e04dfba	0.1297597
70	0xbc867056	-0.016410988
71	0xbc9c5aa5	-0.019086191
72	0x3cca0836	0.024662118
73	0x3b025f51	0.0019893239
74	0x3cdc6f87	0.02690865
75	0x3bceafd0	0.0063075796
76	0x3d50608e	0.05087333
77	0x3d891e40	0.06695223
78	0x3c92bcaa	0.017912228
79	0xbc1eddfd	-0.009696481
80	0x3c9d7581	0.01922107
81	0x3d601664	0.054708853
82	0x3cf0ca31	0.029393287
83	0xbe17c95e	-0.14822909
84	0xbc464914	-0.012102384
85	0x3d62c432	0.055362888
86	0x3c81131f	0.015756188
87	0xbc85a093	-0.01631192
88	0xbcf91a92	-0.030408178
89	0x3dac65d0	0.08417857
90	0xbb233cb0	-0.0024907999
91	0x3c453134	0.012035657
92	0x3b8c5ad0	0.0042832866
93	0xbb51ed03	-0.003203214
94	0x3c8505fe	0.016238209
95	0x3ca47753	0.02007643
96	0x3d053793	0.032523703
97	0xbd6956f1	-0.05696768
98	0x3c9f9e11	0.019484552
99	0xbd1942f1	-0.037417356
100	0x3d113c32	0.035457797
101	0xbb89e571	-0.0042082598
102	0x3c957e57	0.01824872
103	0x3cd3cdd1	0.025854977
104	0x3e0ee5f7	0.13954912
105	0x3c6b6d17	0.014369271
106	0xbd7b75bd	-0.06139158
107	0x3c9f9d1a	0.019484092
108	0x3d40db3f	0.04708409
109	0x3d8634de	0.06553052
110	0x3dcfa823	0.101394914
111	0x3cbf2a3b	0.023335567
112	0xbbddf1a4	-0.0067731906
113	0x3c1e5a4c	0.009665083
114	0x3dad8484	0.08472541
115	0xbd1f9f49	-0.038970266
116	0xbc83112a	-0.015999395
117	0xbcbe1154	-0.023201622
118	0xbdbf7a7e	-0.093495354
119	0xbc7a3564	-0.015271518
120	0x3ce44c77	0.027868493
121	0x3c98aa27	0.018635822
122	0x3d1b1167	0.037858393
123	0xbcc597f4	-0.024120308
124	0xbba678d0	-0.00508032
125	0xbd5f720a	-0.054552115
126	0xbbba81c9	-0.005691741
127	0x3beabbec	0.0071635153
128	0xbc067756	-0.008207163
129	0xbe02640c	-0.12733477
130	0xbcf1d429	-0.029520111
131	0x3d8018b0	0.06254709
132	0xbd181f46	-0.0371392
133	0xbbe8d9f9	-0.0071060625
134	0xbcb1d915	-0.021709958
135	0x3c90c4d7	0.017671986
136	0xbcf82231	-0.030289741
137	0x3ba277cf	0.00495813
138	0xbc23e886	-0.010004168
139	0x3c20dbb4	0.009818006
140	0x3d19a459	0.03751025
141	0xbd511443	-0.051044714
142	0xbc735643	-0.014852109
143	0xbaaf37e4	-0.0013368097
144	0x3d43041c	0.04761134
145	0xbd8a0776	-0.06739704
146	0xbe053c32	-0.13011244
147	0xbced5607	-0.028971685
148	0xbd559f81	-0.052154068
149	0xbc1dd1fd	-0.009632585
150	0xbc8772c5	-0.016534219
151	0x3bd54ec8	0.0065096356
152	0xbd000153	-0.031251263
153	0xbbf62e29	-0.007512827
154	0xbbaf83f7	-0.0053563076
155	0xbbac4108	-0.0052567758
156	0x3e5011e2	0.20319322
157	0xbcb5f904	-0.022213466
158	0x3bb407fa	0.005494115
159	0xbccda80e	-0.025104549
160	0xbd9153d0	-0.07096064
161	0x3b921413	0.0044579594
162	0xbc87be11	-0.016570123
163	0xbc37fd70	-0.011229858
164	0x3a7c11a7	0.00096156675
165	0xbca861f3	-0.020554518
166	0x3cbdd992	0.023175035
167	0x3cd54c5b	0.026037386
168	0x3d4fb49f	0.050709363
169	0xbbac9069	-0.0052662385
170	0xbd2f5c10	-0.042812407
171	0xbd256e36	-0.04038831
172	0xbabbde4a	-0.0014333215
173	0xbce5c4e8	-0.028047994
174	0xbca2a174	-0.019852377
175	0xbccb46d9	-0.024814056
176	0xbddfbe79	-0.10925002
177	0x3b935e49	0.0044973237
178	0x3b312eb1	0.0027035887
179	0x3d92a356	0.0716006
180	0x3d2c49d3	0.04206259
181	0x3c9612bc	0.01831948
182	0xbc3267a0	-0.010888964
183	0x3cedd6e5	0.029033134
184	0xbc5e3bd7	-0.013564072
185	0x3c948719	0.018130826
186	0xbcb9a6b6	-0.022662502
187	0xbc2c2d75	-0.010508885
188	0xbcf1f405	-0.029535303
189	0xbcc1b18d	-0.023644233
190	0xbb7a4abc	-0.0038191518
191	0xbd08d145	-0.0334027
192	0xbf0b9246	-0.5452007
193	0xba73cf05	-0.00093005627
194	0x3f0a9505	0.54133636
195	0xbed924a9	-0.42410782
196	0x3d25b505	0.040455837
197	0xbe965b29	-0.29366425
198	0x3d8d0bb7	0.06887
199	0xbe0d981e	-0.1382756
200	0xbe4a18ac	-0.19735974
201	0x3db4ba9a	0.08824654
202	0xbe8446cc	-0.25835264
203	0x3e4eca27	0.20194302
204	0x3e161267	0.14655457
205	0xbebccf3d	-0.3687686
206	0x3de551cd	0.11197243
207	0x3ec8dd76	0.3923146
208	0x3dc9f387	0.09860902
209	0x3efb3ead	0.49071255
210	0x3ede3cac	0.43405664
211	0x3e8c44bf	0.273962
212	0xbef9e180	-0.48804855
213	0xbe8391de	-0.25697225
214	0x3d30fea5	0.043211598
215	0xbee91a32	-0.45527798
216	0xbf03931d	-0.5139635
217	0x3eb3a5e8	0.35087514
218	0x3d85eb48	0.06539017
219	0x3e169a80	0.14707375
220	0x3eb212c8	0.34779954
221	0xbe97e02a	-0.2966321
222	0x3cf53f2d	0.029937351
223	0x3e1b5f1b	0.15172999
224	0xbca79187	-0.020455135
225	0xbd7bf324	-0.061511174
226	0x3e8311fb	0.25599656
227	0xbe9f9fb1	-0.31176522
228	0xbe5344b2	-0.20631674
229	0xbd29ceba	-0.041456915
230	0xbe618a7a	-0.22025481
231	0x3dc2d95f	0.095141165
232	0xbe90df7c	-0.28295505
233	0xbe25ddd5	-0.16197903
234	0xbe450292	-0.19239262
235	0x3e58a1e4	0.21155506
236	0x3ef6aa45	0.4817678
237	0x3f241705	0.64097625
238	0xbdfa2be8	-0.12215406
239	0xbe228260	-0.15870047
240	0x3d874765	0.06605414
241	0x3db3b5b4	0.087748915
242	0xbda444e7	-0.080209546
243	0x3cdf272d	0.02724036
244	0xbdbfb043	-0.09359791
245	0x3e4e102d	0.20123358
246	0xbef24933	-0.47321472
247	0x3ea81d1c	0.3283471
248	0xbcaec281	-0.021332981
249	0xbca501ba	-0.020142425
250	0x3ef04fe9	0.46935967
251	0x3de4e2fd	0.11176107
252	0x3d91e318	0.07123393
253	0x3d8bc5c1	0.06824828
254	0xbe92fd76	-0.28709
255	0xbdc819c2	-0.09770538

architecture.4.bias f4 [9]
0	0xbd970714	-0.07374397
1	0x3ba49283	0.0050223484
2	0xbd1c9bc2	-0.03823448
3	0x3f1935b9	0.598476
4	0x3df5b2e8	0.11997014
5	0xbde91004	-0.11380008
6	0xbc4b6877	-0.012415043
7	0x3f0e8077	0.5566477
8	0xbde63ea9	-0.1124242

std f4 [9]
0	0x3e4ccccd	0.2
1	0x3e4ccccd	0.2
2	0x3e4ccccd	0.2
3	0x3e4ccccd	0.2
4	0x3e4ccccd	0.2
5	0x3e4ccccd	0.2
6	0x3e4ccccd	0.2
7	0x3e4ccccd	0.2
8	0x3e4ccccd	0.2

architecture.0.weight f4 [64, 27]
0	0xbd5404ce	-0.051762395
1	0x3dc95163	0.098299764
2	0xbcca273a	-0.024676908
3	0x3e728d2e	0.23686668
4	0x3e901760	0.28142834
5	0xbe88b4f0	-0.26700544
6	0xbea8c0ef	-0.32959697
7	0xbef108f1	-0.47077134
8	0xbf3ec6fe	-0.7452239
9	0xbc6ee78d	-0.014581573
10	0x3da4512f	0.08023297
11	0xbd348e57	-0.04408106
12	0x3d80385d	0.062607504
13	0x3c3655cd	0.011128855
14	0x3daed458	0.08536595
15	0xbd2041a6	-0.039125107
16	0xbde5cab8	-0.11220306
17	0xbe964f07	-0.29357168
18	0xbd043144	-0.032273546
19	0xbead2adb	-0.3382176
20	0x3e81ce98	0.2535293
21	0x3e948576	0.29008073
22	0x3ee452ae	0.4459433
23	0x3f405dbf	0.75143045
24	0xbe58f635	-0.2118767
25	0xbdc2a8a1	-0.0950482
26	0x3d63b0a0	0.055588365
27	0xbd93cd3c	-0.0721688
28	0x3bba1f6e	0.0056800162
29	0x3d52face	0.051508717
30	0xbdc16937	-0.09443896
31	0x3ca8f9ad	0.020626867
32	0x3de3f2e8	0.11130315
33	0x3d170857	0.036873188
34	0xbeb1fa4e	-0.3476128
35	0x3e6a0737	0.22854315
36	0x3d9cf25c	0.07663414
37	0xbe5201be	-0.20508477
38	0x3dc955cb	0.09830817
39	0x3e054d05	0.13017662
40	0x3dcfce98	0.101468265
41	0xbb450f93	-0.0030069097
42	0x3c8865c8	0.016650096
43	0xbce9e97f	-0.028553722
44	0x3c9f8e4d	0.019477034
45	0xbed81e45	-0.42210594
46	0x3d9e71f8	0.077365816
47	0x3e4c8525	0.19972666
48	0xbe1469ea	-0.14493528
49	0x3f031333	0.5120117
50	0x3de038ac	0.10948309
51	0x3d960930	0.07325971
52	0xbd9da25e	-0.07696985
53	0xbd834d52	-0.06411232
54	0xbda44b14	-0.080221325
55	0xbd1718b4	-0.036888793
56	0xba100f66	-0.00054954586
57	0x3e0ef6a0	0.13961267
58	0xbeb2bd4a	-0.3491004
59	0x3ea3b76d	0.3197588
60	0x3e6ddd12	0.23228863
61	0x3eccc265	0.3999206
62	0xbe2d805b	-0.16943495
63	0x3e23eb1c	0.16007656
64	0xbe6e783b	-0.23288052
65	0x3e0e6e8d	0.1390936
66	0xbd2ef852	-0.042717285
67	0xbc311ff8	-0.010810845
68	0xbd206e09	-0.039167438
69	0x3d1e4b07	0.03864577
70	0x3bf1eaa4	0.0073827077
71	0x3cc5462a	0.024081308
72	0xbde2dc3c	-0.110771626
73	0x3e82bdad	0.25535336
74	0xbef8883a	-0.48541433
75	0xbdd9711a	-0.106172755
76	0xbe8a7b75	-0.27047315
77	0x3e3524fb	0.17689888
78	0x3cae50ad	0.021278704
79	0x3d035f86	0.03207352
80	0xbc64160d	-0.013921273
81	0x3da5d124	0.08096531
82	0xbdcb3252	-0.09921707
83	0x3e6e0dab	0.23247401
84	0xbec0cf7b	-0.37658295
85	0x3e5cc1c6	0.21558294
86	0x3e88f565	0.2674972
87	0x3de4ec8a	0.11177929
88	0xbdfafc05	-0.122551
89	0x3e024a27	0.127236
90	0xbec151d2	-0.37757736
91	0x3eccf293	0.4002882
92	0x3ea13688	0.31486917
93	0xbbe3143a	-0.0069299014
94	0xbd65452c	-0.05597417
95	0x3bc95642	0.006144316
96	0x3cb56f86	0.022147905
97	0x3c145c04	0.009055141
98	0x3cc594f2	0.024118874
99	0x3ea96402	0.33084112
100	0xbe49382e	-0.19650337
101	0xbe2518a5	-0.16122682
102	0xbe17a255	-0.14808019
103	0x3e0cd575	0.13753302
104	0xbe4b38c4	-0.19845873
105	0x3edfa775	0.43682447
106	0xbec341c2	-0.38136107
107	0xbe9f93fb	-0.31167588
108	0x3d762957	0.06009802
109	0xbd02e21b	-0.031953912
110	0xbd806e37	-0.06271022
111	0xbdae9023	-0.08523586
112	0x3e1bc303	0.1521111
113	0xbe263a90	-0.16233277
114	0xbe97c3ba	-0.29641515
115	0x3df2328b	0.118260466
116	0xbd4455ca	-0.047933377
117	0xbd42cd7c	-0.047559246
118	0xbe0c4f8b	-0.13702218
119	0xbe054055	-0.13012822
120	0x3db23470	0.08701408
121	0x3cf78126	0.03021295
122	0x3c785135	0.01515608
123	0xbc97db6b	-0.018537244
124	0x3ca3715d	0.019951517
125	0x3da19495	0.07889668
126	0xbe38bcac	-0.18040723
127	0xbc9d44b4	-0.0191978
128	0x3d22f563	0.0397848
129	0xbd757685	-0.059927482
130	0xbe13791b	-0.14401667
131	0x3d954f06	0.07290463
132	0xbc862da3	-0.016379183
133	0xbc6f5823	-0.014608416
134	0xbe612f22	-0.21990636
135	0xbb58cc53	-0.003308077
136	0xbc4ae396	-0.012383362
137	0x3beafd2f	0.007171295
138	0x3dbdee3c	0.09273955
139	0xbd52594d	-0.051354695
140	0xbdaa7c48	-0.08324486
141	0xbd19daca	-0.03756217
142	0x3e0a2bb4	0.13493234
143	0xba36e557	-0.00069769233
144	0x3d713332	0.058886714
145	0x3c92e1b1	0.017929884
146	0xbc8fd207	-0.017556204
147	0x3d966e20	0.073452234
148	0x3ef87ff9	0.48535135
149	0x3f18a16a	0.596213
150	0x3d8cb7ee	0.06871019
151	0xbc7a148b	-0.015263687
152	0xbc4d5932	-0.012533473
153	0xbdc543c4	-0.09632066
154	0x3d3518a8	0.044212967
155	0x3d82a16e	0.063784465
156	0x3d50526a	0.050859846
157	0xbdca1b92	-0.0986854
158	0xbc2b8689	-0.010469087
159	0xbd9d4520	-0.076792
160	0xbc5ba5aa	-0.013406197
161	0xbcae83b3	-0.021303033
162	0xbb83b993	-0.004019925
163	0xbc25ae6d	-0.010112387
164	0x3cd08d6b	0.025458058
165	0xbe7d5883	-0.24740796
166	0x3df681b0	0.12036455
167	0x3d9c91b0	0.07644975
168	0xbe43f452	-0.1913617
169	0xbd86544e	-0.065590486
170	0xbc58c156	-0.013229689
171	0x3cdd4856	0.027012032
172	0xbd9adc52	-0.07561554
173	0xbe38a4b4	-0.1803158
174	0xbd6afb51	-0.05736858
175	0xbd72cb3a	-0.059275843
176	0x3d07efcf	0.033187684
177	0xbbde8c38	-0.0067916177
178	0xbd1f32ce	-0.03886681
179	0x3cbda7cb	0.023151299
180	0x3d35e193	0.044404577
181	0x3c4024b0	0.011727497
182	0x3e5a17d4	0.21298152
183	0xbc4e8c2d	-0.012606663
184	0x3dfa2c6e	0.122155055
185	0x3dfe3c11	0.124138005
186	0xbdc1296b	-0.09431728
187	0xbd00450d	-0.031315852
188	0x3de13b40	0.10997629
189	0xbcbf386e	-0.023342337
190	0x3d2127ed	0.039344717
191	0xbc6b3f9e	-0.014358429
192	0x3da3eaec	0.08003792
193	0xbdca8db0	-0.09890306
194	0x3e511b3b	0.20420544
195	0xbcfb1764	-0.030650802
196	0x3e96396a	0.29340678
197	0xbb10179f	-0.0021986736
198	0x3db03e84	0.08605674
199	0x3a528e95	0.00080321106
200	0x39ab6afb	0.00032695368
201	0x3e072f95	0.13201745
202	0xbf13eb1f	-0.5778064
203	0x3e589af9	0.21152867
204	0x3da91b62	0.08257176
205	0x3dae21bc	0.08502528
206	0x3e0b8a56	0.1362699
207	0xbd8b8fd5	-0.06814543
208	0x3dc6272c	0.0967544
209	0xbe024b54	-0.12724048
210	0x3cefe416	0.029283565
211	0xbd7c79af	-0.061639484
212	0xbda550e0	-0.08072066
213	0xbd8f702d	-0.07003818
214	0x3c56adee	0.0131029915
215	0xbc3caf44	-0.011516396
216	0xbd2d9a02	-0.0423832
217	0xbd248843	-0.04016901
218	0xbe02cdac	-0.1277377
219	0x3db87548	0.090067446
220	0x3e4a6b4d	0.19767494
221	0xbe22ac0a	-0.1588594
222	0xbd8fbf77	-0.07018941
223	0x3e1819f6	0.14853653
224	0x3e217fda	0.15771428
225	0xbda7780e	-0.081771955
226	0xbcc6853d	-0.024233455
227	0xbe5d2904	-0.21597677
228	0xbd01dc29	-0.0317041
229	0xbd708c82	-0.05872775
230	0xbe1ea400	-0.15492249
231	0xbb1940d6	-0.0023384592
232	0x3d93b639	0.072124906
233	0x3d4cc9b3	0.049997043
234	0xbdfc13b7	-0.12308448
235	0xbe72c09b	-0.23706286
236	0x3ee87bec	0.45407045
237	0x3d3ebafa	0.046565033
238	0xbdc0d865	-0.09416274
239	0xbcfc50a8	-0.030800179
240	0x3ceedda3	0.029158419
241	0xbd4bbafd	-0.049738873
242	0xbea79584	-0.3273126
243	0x3e85e4ce	0.26151127
244	0xbd4053c9	-0.046954904
245	0xbda62e4a	-0.08114298
246	0x3c9d10fc	0.019173138
247	0x3ec9291f	0.39289185
248	0xbcd2a0d9	-0.025711464
249	0xbd84d886	-0.06486611
250	0xbe57fccd	-0.2109253
251	0x3ed2f6cf	0.41203925
252	0x3e756e9e	0.23967978
253	0xbebc940f	-0.3683171
254	0x3ecba8c1	0.39777187
255	0x3d405020	0.046951413

architecture.0.bias f4 [64]
0	0xbeaaf24b	-0.3338798
1	0xbf691810	-0.9105234
2	0x3ee8a282	0.45436484
3	0x3f9b14c7	1.2115716
4	0x3f289cf9	0.6586452
5	0xbf8542eb	-1.0411047
6	0xbf9b7df3	-1.2147812
7	0x3f720f67	0.9455475
8	0x3e931f00	0.2873459
9	0x3fb5b53b	1.4195932
10	0xbf385c06	-0.72015417
11	0x3eb5b341	0.35488322
12	0x3f949135	1.1606814
13	0x3efc9018	0.49328685
14	0xbf8f025d	-1.1172596
15	0x3eb73a3a	0.3578661
16	0x3ed42f37	0.41442272
17	0x3f1f91d6	0.62331903
18	0xbf7aa993	-0.97915
19	0xbf83a3c9	-1.0284358
20	0xbf8765b0	-1.0577908
21	0xbfa4e6f5	-1.2882982
22	0xbf945764	-1.158917
23	0x3dc8e285	0.0980883
24	0xbf22f1b5	-0.63650066
25	0x3e6b3bce	0.22972032
26	0xbf9c1ed0	-1.2196903
27	0xbf1b0437	-0.60553306
28	0xbf183b8f	-0.5946588
29	0xbf71d765	-0.9446929
30	0xbf3d9233	-0.7405121
31	0xbf3be78a	-0.73400176
32	0xbf956b20	-1.1673317
33	0x3edfa6aa	0.43681842
34	0xbef13738	-0.4711244
35	0x3f438a2f	0.76382726
36	0x3f6598bb	0.89686173
37	0xbe87ee3f	-0.26548955
38	0xbf9eb63a	-1.2399361
39	0xbe4cc0a7	-0.19995366
40	0x3db66bce	0.08907281
41	0x3f834d28	1.0257921
42	0xbf4f2527	-0.80916065
43	0x3f2daa10	0.6783762
44	0xbe265bef	-0.16246007
45	0xbf8c82b7	-1.0977391
46	0x3f5be473	0.8589546
47	0x3f6b43c9	0.91900307
48	0x3d29f610	0.04149443
49	0x3f29c448	0.66315126
50	0xbf758cec	-0.95918155
51	0x3f40fcfc	0.75386024
52	0xbf9f2cf0	-1.2435589
53	0x3f99d817	1.201907
54	0x3e813ec7	0.25243208
55	0xbf9352f8	-1.1509695
56	0xbf4cd139	-0.8000675
57	0x3f818c2f	1.0120906
58	0x3db18b08	0.08669096
59	0xbf70f80e	-0.941285
60	0x3cce001f	0.025146542
61	0xbea155da	-0.31510812
62	0xbed84a8f	-0.42244384
63	0xbe084d07	-0.13310634

architecture.2.weight f4 [64, 64]
0	0xbef95111	-0.4869466
1	0xbf0b4d1c	-0.54414535
2	0x3e71dc0a	0.23619094
3	0xbf0f477d	-0.5596846
4	0x3f088c22	0.53338826
5	0x3c91f04f	0.017814783
6	0x3e87458d	0.2642025
7	0x3d313260	0.043260932
8	0x3e970e71	0.29503205
9	0xbf2d59b3	-0.67714995
10	0xbe6dda7c	-0.23227876
11	0xbc3cff35	-0.0115354555
12	0xbe3cd5f7	-0.18440996
13	0x3de9ce1c	0.11416265
14	0x3eeeb541	0.4662266
15	0x3e328288	0.17432606
16	0x3dc4f0b0	0.0961622
17	0xbf4dc9b6	-0.8038591
18	0x3f15572d	0.58336145
19	0xbe4aa1df	-0.19788311
20	0x3e212ee9	0.15740551
21	0xbedeef08	-0.4354174
22	0x3efc545d	0.49283114
23	0x3e0b933b	0.13630383
24	0xbe861b76	-0.26192826
25	0xbd0503e4	-0.032474414
26	0x3f320b34	0.69548345
27	0xbe56f0ac	-0.20990247
28	0x3d5724eb	0.052525442
29	0x3e855496	0.26041096
30	0x3e893862	0.2680083
31	0xbcaafb18	-0.020871684
32	0x3f286500	0.65779114
33	0x3e9b2845	0.3030416
34	0xbe13055f	-0.14357518
35	0x3eb652cb	0.3561004
36	0x3e480d3b	0.19536297
37	0xbd7fc735	-0.062445838
38	0x3eb1e06f	0.34741542
39	0xbe58eba5	-0.21183641
40	0x3e8d39dc	0.27583206
41	0x3df5bcb7	0.11998885
42	0x3e10d791	0.14144732
43	0x3f5eddcf	0.87057203
44	0x3d6a6ff8	0.057235688
45	0x3f0a68c8	0.54066133
46	0x3ed53b04	0.41646588
47	0x3e684933	0.22684173
48	0x3e3b3301	0.18281175
49	0x3e90cfa0	0.28283405
50	0x3d465d6e	0.048428945
51	0x3e4140aa	0.18872324
52	0xbe25326d	-0.16132517
53	0x3e370eee	0.17876789
54	0x3eb6115e	0.35560125
55	0x3f274272	0.6533576
56	0x3d17ed07	0.03709128
57	0xbe9dbcaf	-0.30808017
58	0xbf2e7465	-0.68146354
59	0x3c81bf5a	0.015838314
60	0x3dd86181	0.105654724
61	0x3efbdc86	0.49191684
62	0xbe68ecbd	-0.22746558
63	0x3e143778	0.14474285
64	0xbec1f0b7	-0.37878963
65	0xbf305995	-0.6888669
66	0x3ebf1327	0.373193
67	0x3f29d224	0.66336274
68	0x3f07da69	0.5306764
69	0xbf09dde9	-0.53854233
70	0xbf6795fb	-0.9046323
71	0x3ed564bc	0.41678417
72	0x3ed79347	0.4210455
73	0x3ecd1604	0.4005586
74	0xbf15728a	-0.583779
75	0x3edf9162	0.43665606
76	0x3e35e015	0.17761262
77	0x3e3cd4be	0.1844053
78	0xbef56c89	-0.47934368
79	0x3e6790f2	0.22613886
80	0x3c5e70b1	0.013576672
81	0x3ea16b99	0.31527403
82	0xbefbd7ad	-0.49187985
83	0xbf81fd60	-1.0155449
84	0xbf06be11	-0.5263377
85	0xbf839dec	-1.0282569
86	0xbf0b5979	-0.544334
87	0xbd815cd9	-0.063165374
88	0xbe865356	-0.26235455
89	0xbda69ed6	-0.08135764
90	0xbec902fb	-0.39260086
91	0x3e974393	0.29543743
92	0xbe9b127e	-0.30287546
93	0xbf249a6c	-0.6429813
94	0xbef3b37a	-0.47597867
95	0xbf12e974	-0.5738747
96	0xbf2dcbbd	-0.67889005
97	0x3e795395	0.2434829
98	0xbf0a097e	-0.53920734
99	0x3f010a2f	0.50406164
100	0x3e6c5306	0.23078546
101	0xbecfbfde	-0.4057607
102	0xbe3be9b6	-0.18350872
103	0xbde57721	-0.11204363
104	0x3e2ef066	0.17083892
105	0x3eee7942	0.46576887
106	0xbeb43d2d	-0.35202923
107	0x3c75e864	0.0150090195
108	0xbe3f3be7	-0.18675195
109	0x3d87ab52	0.06624474
110	0xbe16dba1	-0.1473222
111	0x3ea468d0	0.32111216
112	0xbe5688b0	-0.2095058
113	0x3e1ab315	0.15107377
114	0xbef33542	-0.4750157
115	0xbd154fba	-0.036452986
116	0xbf123a5c	-0.571203
117	0x3f3b8571	0.7325049
118	0xbcb37b3d	-0.02190935
119	0xbf2eaa32	-0.6822845
120	0xbea63c58	-0.32467914
121	0x3f54da07	0.83145183
122	0xbe9435bf	-0.28947255
123	0xbef9c49a	-0.48782808
124	0xbdfdbdab	-0.12389692
125	0xbe8c01eb	-0.27345213
126	0x3dc13765	0.09434394
127	0xbbefd371	-0.007318907
128	0x3f08fcba	0.5351063
129	0x3f2b3570	0.66878414
130	0xbee857fa	-0.4537962
131	0xbf75bdc7	-0.959927
132	0xbea9f533	-0.33194885
133	0x3f1ede7f	0.6205825
134	0x3f220cfb	0.63301057
135	0xbf1ebad5	-0.62003833
136	0xbee35321	-0.4439936
137	0xbf2a1fe6	-0.66454923
138	0x3eb4baa0	0.35298634
139	0xbea9cfd9	-0.33166388
140	0xbe3c2219	-0.18372382
141	0xbebe925c	-0.37221038
142	0x3efeafc4	0.49743474
143	0xbf0c84be	-0.5489005
144	0xbe4dd103	-0.20099263
145	0xbe5828c8	-0.21109307
146	0x3f4df3d7	0.80450195
147	0x3f3da8ef	0.740859
148	0x3e541d60	0.2071433
149	0x3f626e73	0.8844978
150	0x3e6dad38	0.23210609
151	0xbdd57c79	-0.10424132
152	0x3e9b9d9f	0.30393693
153	0xbd757c5a	-0.059933044
154	0x3ecb737e	0.3973655
155	0xbe1365b7	-0.1439427
156	0x3de2c504	0.11072734
157	0x3f0d9bcf	0.5531587
158	0x3f39c996	0.7257322
159	0x3f108d4b	0.56465596
160	0x3f5412d4	0.8284123
161	0xbcd8b359	-0.026452707
162	0x3f07c6aa	0.5303751
163	0xbeb475be	-0.3524608
164	0xbe935daa	-0.28782398
165	0x3f27306a	0.6530825
166	0xbdd45202	-0.10367204
167	0x3e9f540e	0.31118816
168	0x3ddcc33b	0.10779425
169	0xbf56d985	-0.8392566
170	0x3edb0bc8	0.42782426
171	0xbd12ef48	-0.035872728
172	0xbe22bfbe	-0.15893456
173	0xbe05b75c	-0.13058227
174	0xbd3f9c04	-0.046779647
175	0xbf034da0	-0.5129032
176	0x3cafd29e	0.021462735
177	0xbdef9a90	-0.11699402
178	0x3b944551	0.0045248647
179	0xbebc139e	-0.36733717
180	0x3f128bd7	0.5724463
181	0xbf376c85	-0.7164996
182	0xbdfc2c6f	-0.123131625
183	0x3deab676	0.11460583
184	0x3f27e383	0.6558153
185	0xbfb77b3b	-1.4334482
186	0x3edee5b3	0.43534622
187	0x3f4cb2e9	0.79960495
188	0x3e797335	0.24360354
189	0x3eea9a44	0.4582082
190	0xbdde490d	-0.10853777
191	0x3b4e2a7f	0.0031458435
192	0x3cbb87cc	0.022891901
193	0xbdf5702f	-0.11984288
194	0xbe80bfaf	-0.25146243
195	0x3f3fb23c	0.7488134
196	0xbcbecb7b	-0.023290386
197	0x3e04de90	0.12975526
198	0x3e8d701b	0.27624592
199	0x3c19fb63	0.009398314
200	0x3f0523bd	0.5200766
201	0x3f1eee01	0.62081915
202	0x3d8327ea	0.064040974
203	0x3d519624	0.051168576
204	0x3e944bc0	0.28964043
205	0xbee0723e	-0.4383716
206	0xbf15b0af	-0.5847272
207	0x3b66b0f5	0.003520069
208	0x3f21ba10	0.63174534
209	0xbf222b96	-0.63347757
210	0xbefcf97c	-0.4940909
211	0x3ed03141	0.40662578
212	0x3e6e1c9b	0.232531
213	0x3e8d0a09	0.2754672
214	0xbefee423	-0.4978343
215	0x3d3b8ed9	0.045790527
216	0x3f0a4abb	0.5402028
217	0xbebb1e5c	-0.365466
218	0xbf565d7e	-0.8373641
219	0x3e9c5d2b	0.30539832
220	0xbe7f7ea9	-0.24950661
221	0x3ec94356	0.39309186
222	0xbdb15ac2	-0.08659889
223	0x3e0cc3db	0.13746588
224	0xbf09b672	-0.53794014
225	0x3cc14d6d	0.02359649
226	0x3edb2ace	0.42806095
227	0x3e65c7e4	0.22439533
228	0xbe3fa60f	-0.1871569
229	0x3e3de6b2	0.18545035
230	0xb9a5dc04	-0.00031635177
231	0x3e847027	0.25866815
232	0x3a4be688	0.0007778187
233	0x3ee33198	0.44373775
234	0xbe36278c	-0.17788523
235	0x3ebd7eb1	0.3701072
236	0x3eff77d9	0.49896124
237	0xbf374732	-0.7159301
238	0x3f0109b9	0.5040546
239	0x3d10563f	0.0352385
240	0x3c37db91	0.011221782
241	0xbe32455f	-0.17409275
242	0xbf01b7a8	-0.5067086
243	0xbea8b8db	-0.32953534
244	0x3f087f0b	0.5331885
245	0xbf056536	-0.5210756
246	0x3e1b55f8	0.15169513
247	0xbf27f59e	-0.6560916
248	0x3e9868d8	0.2976749
249	0xbe36e373	-0.17860202
250	0xbdff27a2	-0.12458731
251	0xbe03c372	-0.12867525
252	0x3ab25d6e	0.0013608166
253	0x3e0813b8	0.13288772
254	0xbe0d80d6	-0.13818678
255	0xbeb17991	-0.3466306

architecture.2.bias f4 [64]
0	0x3ea5536c	0.32290208
1	0x3f82f48e	1.0230882
2	0xbfa084e3	-1.2540554
3	0xbeb6ad51	-0.35679105
4	0x3dfe54e9	0.12418539
5	0xbf948bb0	-1.1605129
6	0x3f91d315	1.1392542
7	0xbf3921ea	-0.72317374
8	0xbfa4b8b6	-1.2868869
9	0x3f1bffac	0.60937
10	0x3f22027d	0.63285047
11	0xbfa39a20	-1.278141
12	0xbf773161	-0.9655972
13	0x3ed8fb91	0.4237943
14	0x3ca9b56b	0.02071639
15	0x3f059008	0.521729
16	0x3f9f022e	1.242254
17	0x3ef84a4a	0.48494178
18	0xbee9726b	-0.45595106
19	0x3f9cb73f	1.2243422
20	0x3ea5cf7d	0.32384863
21	0xbf2fbd62	-0.6864835
22	0x3ecbfaa2	0.39839655
23	0x3fa48bff	1.2855223
24	0xbecbe53d	-0.39823332
25	0x3efa6964	0.48908532
26	0x3faae6fe	1.3351743
27	0xbe2a3f0a	-0.1662561
28	0xbf42ed39	-0.76143223
29	0xbead6bf3	-0.3387142
30	0xbf9e2003	-1.2353519
31	0xbecba9c5	-0.3977796
32	0xbf98f16f	-1.194868
33	0x3ea37c6a	0.31930858
34	0x3f00b7f7	0.5028071
35	0xbf9bde82	-1.2177279
36	0xbf9b514d	-1.2134186
37	0x3fb86b98	1.4407835
38	0xbf027a49	-0.5096784
39	0xbf3f3881	-0.74695593
40	0xbebaf39a	-0.36513978
41	0xbfa27b36	-1.2693851
42	0xbf218c69	-0.63104874
43	0x3f091815	0.5355237
44	0xbf999a83	-1.2000278
45	0x3f012afc	0.50456214
46	0xbe86f5a4	-0.26359284
47	0x3f4b692d	0.7945736
48	0xbec5be10	-0.3862157
49	0x3f979b1f	1.1844214
50	0x3fb65818	1.4245634
51	0xbed1be78	-0.4096563
52	0xbfa12c28	-1.25916
53	0xbf61fb33	-0.88273925
54	0xbf37449c	-0.71589065
55	0x3e8411af	0.25794742
56	0x3e9f2588	0.31083322
57	0x3ef0afc5	0.47009102
58	0xbec73645	-0.38908592
59	0x3f8cb84d	1.0993744
60	0xbf3b5e1d	-0.7319048
61	0x3eef3985	0.4672357
62	0xbf95859c	-1.1681399
63	0x3f9e300c	1.2358413

architecture.4.weight f4 [1, 64]
0	0xc1002645	-8.009343
1	0xc0a515bc	-5.158903
2	0x40a43358	5.1312675
3	0x40fd1b45	7.909579
4	0xc0e409fb	-7.1262183
5	0x40a37496	5.1079817
6	0xc0a283a8	-5.0785713
7	0x40a56383	5.1683974
8	0x40a5ac9e	5.1773214
9	0xc0aa0068	-5.3125496
10	0xc0a18677	-5.047664
11	0x40a6cb0a	5.212285
12	0x40a6ab05	5.2083764
13	0xc0feb1c5	-7.9592004
14	0xc0d4b64e	-6.647254
15	0xc0d06d95	-6.5133767
16	0xc0aa2e02	-5.318116
17	0xc0f3fefd	-7.6248765
18	0x40cfd12d	6.494284
19	0xc0a99aac	-5.300131
20	0xc0da710d	-6.8263
21	0x40cb7827	6.358417
22	0xc0d6117c	-6.6896343
23	0xc0a53c3c	-5.163603
24	0x40d44053	6.632852
25	0xc10548d9	-8.330285
26	0xc0a26a9a	-5.075513
27	0x40ead425	7.3383965
28	0x40aac376	5.33636
29	0x40d773b0	6.732872
30	0x40a44af4	5.1341496
31	0x40ff07be	7.969695
32	0x40a2ada2	5.0836954
33	0xc0e4d020	-7.150406
34	0xc0f46fab	-7.6386313
35	0x40a1e84c	5.0596066
36	0x40a37b47	5.1087985
37	0xc0a2f3ec	-5.0922756
38	0x40a346be	5.1023855
39	0x40a5ed98	5.185253
40	0x40d46a59	6.637982
41	0x40a1420a	5.0393114
42	0x4098c181	4.773621
43	0xc0a68ba6	-5.204547
44	0x40a650d0	5.197365
45	0xc0f4a935	-7.645655
46	0x40c1102e	6.033225
47	0xc0ac9780	-5.3934937
48	0x40cdeec0	6.4353943
49	0xc0a438da	-5.13194
50	0xc0a1e31a	-5.0589724
51	0x40f57432	7.670434
52	0x40a1aa5a	5.052045
53	0x40a41d80	5.128601
54	0x40a4c2ae	5.1487646
55	0xc1037155	-8.215169
56	0xc0f8bb76	-7.7728834
57	0xc0acdf69	-5.4022717
58	0x40f04216	7.508067
59	0xc0aee6af	-5.4656596
60	0x40a7539b	5.2289557
61	0xc0a746c2	-5.2273874
62	0x40a0389c	5.0069103
63	0xc0a74ff0	-5.228508

exp_avg f4 [64, 27]
0	0x37110eb4	8.646097e-06
1	0x3881e81e	6.1944345e-05
2	0xb8945e3e	-7.074744e-05
3	0xb787b0fd	-1.617567e-05
4	0x3893caf6	7.047311e-05
5	0xb6f5ea36	-7.3288347e-06
6	0x37ea1955	2.790677e-05
7	0xb75317c0	-1.258211e-05
8	0xb7aef5e1	-2.0856913e-05
9	0x37ad7eb7	2.0682213e-05
10	0xb70b10ae	-8.288929e-06
11	0xb8289d2d	-4.0200703e-05
12	0x38053384	3.175765e-05
13	0x3657834b	3.211392e-06
14	0x37cea688	2.463466e-05
15	0x385b54c5	5.2292617e-05
16	0xb82b24c3	-4.0803814e-05
17	0x38e0818f	0.000107052845
18	0xb68e005c	-4.2319716e-06
19	0x38990dc8	7.2981755e-05
20	0xb6a11d5b	-4.8015913e-06
21	0x37fa940d	2.9871264e-05
22	0xb79d279e	-1.8734307e-05
23	0xb7d68473	-2.5572464e-05
24	0x3717583b	9.020844e-06
25	0xb70090d7	-7.663118e-06
26	0xb816b941	-3.5935318e-05
27	0x38b7291c	8.733777e-05
28	0xb82546b0	-3.94049e-05
29	0x38bb8a64	8.942632e-05
30	0x373a2266	1.1094473e-05
31	0x37839388	1.5685117e-05
32	0xb7ace27f	-2.0609468e-05
33	0xb7cee62b	-2.4664294e-05
34	0x387a90ea	5.9739607e-05
35	0x37beaa81	2.2729162e-05
36	0xb7b1b682	-2.1185031e-05
37	0xb7c24809	-2.3160146e-05
38	0x389dad50	7.518625e-05
39	0xb8086c37	-3.252571e-05
40	0xb821d5d6	-3.858454e-05
41	0xb7f87b84	-2.962142e-05
42	0xb816bce8	-3.593872e-05
43	0x37a55ecb	1.9713674e-05
44	0xb8c7acc1	-9.5212374e-05
45	0xb7887dbd	-1.6271015e-05
46	0x37b1cb2a	2.119465e-05
47	0xb7c38bce	-2.3310913e-05
48	0xb7e73bc7	-2.7565182e-05
49	0x38751878	5.843534e-05
50	0x383c6b74	4.4922766e-05
51	0xb6f3c698	-7.2650837e-06
52	0xb7a7240c	-1.9924737e-05
53	0x389da1ce	7.516482e-05
54	0x379a7ddf	1.8416844e-05
55	0x3832ab01	4.2597767e-05
56	0xb8c03098	-9.164325e-05
57	0x3721a76a	9.635327e-06
58	0x38557e96	5.090105e-05
59	0x37a98d1f	2.0212085e-05
60	0x3886e8ef	6.433005e-05
61	0xb7a2f72b	-1.9427001e-05
62	0x371b4a8e	9.256079e-06
63	0xb71ea4fd	-9.455948e-06
64	0x36d19cb8	6.24693e-06
65	0xb6f61794	-7.334116e-06
66	0xb7ce4358	-2.4588473e-05
67	0x3675a16f	3.6601812e-06
68	0xb853b1af	-5.04718e-05
69	0xb8303c03	-4.201756e-05
70	0x38007efc	3.063584e-05
71	0x38e2a54e	0.0001080731
72	0x37b2baed	2.1306298e-05
73	0x385af149	5.2199965e-05
74	0x3785f2ce	1.59679e-05
75	0x38847e5f	6.317789e-05
76	0xb7ae91ee	-2.081037e-05
77	0xb71c3bcd	-9.312248e-06
78	0xb784d82a	-1.5836285e-05
79	0x37360a9f	1.0850518e-05
80	0xb71b6ed1	-9.264521e-06
81	0xb8091ea8	-3.2691896e-05
82	0x37b2aaf3	2.1298858e-05
83	0x34afb31e	3.2726615e-07
84	0xb81885c2	-3.6364196e-05
85	0xb83dd1e6	-4.5256595e-05
86	0xb51a1b6d	-5.740938e-07
87	0x37ea3be3	2.792286e-05
88	0xb7730ab1	-1.4486418e-05
89	0x37f4a62e	2.916445e-05
90	0x37d76620	2.5677553e-05
91	0xb6afe7c4	-5.2423875e-06
92	0xb6a72958	-4.981801e-06
93	0x35cb6d22	1.515644e-06
94	0xb7acb9e4	-2.059056e-05
95	0xb74e62bb	-1.2301544e-05
96	0xb74f2e6e	-1.2348972e-05
97	0xb72217be	-9.66148e-06
98	0x37b0371d	2.1006499e-05
99	0xb802ea3c	-3.1212563e-05
100	0xb8308930	-4.2089436e-05
101	0xb679865b	-3.7182097e-06
102	0x37a88687	2.0089805e-05
103	0xb752f886	-1.2574839e-05
104	0x37b91a05	2.2065835e-05
105	0x38098b42	3.279304e-05
106	0xb7087b55	-8.134947e-06
107	0xb5f4ea12	-1.824754e-06
108	0x37aa7b45	2.0322981e-05
109	0x37817890	1.543414e-05
110	0x38528faa	5.02017e-05
111	0xb848ba80	-4.7857407e-05
112	0xb789b64b	-1.641656e-05
113	0xb6ae9049	-5.202401e-06
114	0x37bd3356	2.255446e-05
115	0xb877911c	-5.9024533e-05
116	0x3649f9b0	3.0096671e-06
117	0x36ec4798	7.0416827e-06
118	0x35a5a2f1	1.234088e-06
119	0x381c6543	3.7287606e-05
120	0x37acb2a1	2.0587178e-05
121	0x3802bed2	3.117213e-05
122	0xb76bf236	-1.4063486e-05
123	0x37e3e3a2	2.7166509e-05
124	0x355750b0	8.021116e-07
125	0x37f9da12	2.978466e-05
126	0xb8427dd4	-4.637039e-05
127	0xb7bfba88	-2.2855835e-05
128	0xb72c221b	-1.025994e-05
129	0x37c80996	2.3846322e-05
130	0xb878a52a	-5.928163e-05
131	0x376a24f7	1.3956093e-05
132	0x36e871bd	6.9273797e-06
133	0x371b43ed	9.254535e-06
134	0x38330c6d	4.2688498e-05
135	0x36766409	3.6715085e-06
136	0xb8200990	-3.815588e-05
137	0x391c7e20	0.00014924305
138	0x38101dc5	3.436e-05
139	0xb7d378e3	-2.5209452e-05
140	0x3790c7bf	1.7259152e-05
141	0x3752ff51	1.2576421e-05
142	0xb6eac38b	-6.9965076e-06
143	0x37f1d476	2.8828374e-05
144	0x379b57b6	1.8518283e-05
145	0x37b95c96	2.2096832e-05
146	0x35452fba	7.345767e-07
147	0x37a63fc6	1.9818439e-05
148	0x3796ed66	1.799194e-05
149	0x34955e7f	2.7822168e-07
150	0xb6e4d3e9	-6.819599e-06
151	0xb70d22a9	-8.412325e-06
152	0xb840eb7e	-4.5995686e-05
153	0x380b517b	3.3216067e-05
154	0xb81d8050	-3.7551217e-05
155	0x37588d2c	1.2907472e-05
156	0x37523514	1.2529334e-05
157	0xb5479540	-7.4350464e-07
158	0x37f944c2	2.9715131e-05
159	0x38087d63	3.2541702e-05
160	0x37980857	1.8123696e-05
161	0x36d372d7	6.301659e-06
162	0x38fb433b	0.00011981135
163	0xb907a4c2	-0.0001293598
164	0x3961a165	0.00021517796
165	0x38a12cee	7.685447e-05
166	0xb8d418da	-0.00010113577
167	0xb944206c	-0.00018704095
168	0xb8dd9cab	-0.00010567283
169	0x38ab15e0	8.15799e-05
170	0xb83c4d5e	-4.4894747e-05
171	0x37e74773	2.7570617e-05
172	0xb8e88440	-0.000110872556
173	0x37e4d4e4	2.7278853e-05
174	0xb90ba792	-0.00013318498
175	0xb9838708	-0.00025086873
176	0x390c6741	0.00013389906
177	0xb914c834	-0.00014188961
178	0x38ffc7c6	0.00012196558
179	0xb9cf5889	-0.0003954808
180	0x3828ada7	4.0216048e-05
181	0xb8db793a	-0.00010465314
182	0xb9214f80	-0.00015383773
183	0xb8ed2f0a	-0.00011309802
184	0x388c61bc	6.693925e-05
185	0x37841dfc	1.5749589e-05
186	0x388d1332	6.726979e-05
187	0xb8b90b35	-8.823575e-05
188	0x3884a5dd	6.325145e-05
189	0x390aceb9	0.00013237716
190	0xb94c516b	-0.00019485287
191	0x3941d593	0.00018485477
192	0x38d3bd06	0.000100964724
193	0x3785491a	1.5888876e-05
194	0xb86244b6	-5.394659e-05
195	0xb8293f72	-4.0351828e-05
196	0x37d6b912	2.5596968e-05
197	0xb84acb91	-4.835014e-05
198	0x3689a3ed	4.1020016e-06
199	0xb65880d0	-3.2261487e-06
200	0x37de1f7c	2.6479123e-05
201	0xb7a80ad7	-2.0032208e-05
202	0xb85ed681	-5.3128697e-05
203	0x35ca894a	1.5090129e-06
204	0xb860c561	-5.3589585e-05
205	0x387aa393	5.9756985e-05
206	0xb97a897b	-0.00023893073
207	0x3888109b	6.488078e-05
208	0x3779d2f2	1.4890671e-05
209	0xb81378ba	-3.5159967e-05
210	0xb80a976d	-3.304279e-05
211	0x37dba575	2.6183881e-05
212	0xb75a970e	-1.3028983e-05
213	0x378c7cfa	1.6747497e-05
214	0xb596e85d	-1.1243498e-06
215	0x38041549	3.1491076e-05
216	0x37db2561	2.612424e-05
217	0xb7b4f5fa	-2.1572214e-05
218	0xb88cb159	-6.708754e-05
219	0x37317bc3	1.0578838e-05
220	0x37ea3cc3	2.7923268e-05
221	0xb721a8cc	-9.635649e-06
222	0xb76d7798	-1.4154146e-05
223	0xb691a5f9	-4.3406585e-06
224	0x36fc2177	7.514081e-06
225	0x3688d00c	4.0773357e-06
226	0x368dec74	4.229654e-06
227	0x320deccf	8.261124e-09
228	0xb58db241	-1.0557197e-06
229	0xb74f4117	-1.2353316e-05
230	0xb640a68d	-2.8707175e-06
231	0x3782bc4b	1.5584888e-05
232	0x3763edae	1.35855935e-05
233	0x378660cc	1.601912e-05
234	0x374d31a5	1.2230511e-05
235	0x37ea5f73	2.793942e-05
236	0xb6fd8c47	-7.556318e-06
237	0xb7836f75	-1.5668318e-05
238	0xb6c3fa8c	-5.8406204e-06
239	0x365eaad8	3.3180022e-06
240	0xb68b5c7a	-4.1532885e-06
241	0x35159bd0	5.573356e-07
242	0xb69ec412	-4.7315925e-06
243	0x381395c2	3.5187004e-05
244	0x3700d690	7.679351e-06
245	0x38ada081	8.279179e-05
246	0x37680dc3	1.3831482e-05
247	0xb890b68b	-6.900456e-05
248	0xb64ae669	-3.0234462e-06
249	0xb6d4a4cd	-6.3372777e-06
250	0xb7519a49	-1.2493293e-05
251	0x36884ba9	4.061924e-06
252	0x37ac3e1b	2.0532918e-05
253	0x373b537e	1.1165508e-05
254	0xb725e853	-9.888859e-06
255	0xb805b34c	-3.1876654e-05
