raisimGymTorch/data/ouzel_delta_planning/2022-05-27-14-33-19/full_36000.pt (torch, 178160 bytes, 36 tensors)

architecture.0.weight f4 [64, 36]
00000000: 8e6e b43e ced3 06bb f74b d7bc 5edf 1a3d
00000010: e0c2 133e 67c2 2dbe d388 b53d b7b3 a23e
00000020: ffc6 89bf a04e a2be 0b4d ff3e 36ea 1abf
00000030: 5ae5 383e 25f6 0f3e fcc1 da3e 70c5 0fbf
00000040: 7096 413d f89e 763e 771d 4dbe 262e 043e
00000050: ad09 96be 7f77 acbe 9677 b73e 681f 483d
00000060: 2b72 003e 55d0 043f 91bf 3ebf f9b7 d3be
00000070: b0b9 813e 8638 433e 5f52 cbbd 5f17 fcbe
00000080: 4346 553d e147 5b3f a67e d1bc a7c4 643e
00000090: 2cfa e3be 4132 783f 96b8 553f 10c4 8bbd
000000a0: 43a6 913d 1295 ff3d 8cf5 163e 931e f8bd
000000b0: bb3d 89bf 7553 3b3f 9bb6 54bd 8fd0 98be
000000c0: 33b0 ac3e 9468 d0be 2c14 b33d ebf3 5ebe
000000d0: bb92 22be abfd a1bf 60f1 823f 7f6d 3e3e
000000e0: b9bb 043f 09c2 1e3e fa08 a93d 5035 20be
000000f0: 9518 353f d95c 0bbd e298 0cbf d001 95be
00000100: ea3f a03e 90c6 fa3d 0755 ab3e 89ba 8a3e
00000110: 2314 893e c759 df3e 9326 1240 023a b2bd
00000120: 4d5d e7bc d4ea 063f 76f5 cfbe 4a85 2abe
00000130: 3d8f d23d fcc0 6fbe 0ffe c0bd 8be5 373f
00000140: 0888 283f df33 09bd 6d7e 08bf 9241 ba3e
00000150: 80e0 0f39 7cdf 323d c150 d1be 94b7 e73e
00000160: 9886 98be ccca 11bd 86be 81be 7635 81be
00000170: 4efe 0e3d b6d7 d63d 11c0 a43e 048a c13e
00000180: d07a 003c e0a7 483e 9cb4 973d 2975 a4bd
00000190: ab22 bdbd d289 e43e 8917 40bb 333f 36be
000001a0: 367e 23be f3aa 8dbc f077 673e bc16 4f3e
000001b0: 3b46 a63e 24b1 77bf e59d 53bf 166a 37be
000001c0: 3a6e 6f3e 0537 84be a565 133f df3e 33bd
000001d0: e4d7 89be 40e3 03bf b03a b9be 4b0f 31be
000001e0: 8f9b cbbd 5d70 93be ddd2 39be 62cc 843d
000001f0: 0a38 5b3d 145c d1be 7a79 a73e a2e6 523e
00000200: 49bb 8f3e 5b22 9f3d 15da c5be d6a9 f6be
00000210: 5223 d6be 30c6 aebe 1ad4 9fbd cd7d 103e
00000220: 2aa9 d53e 2de4 aebd ae43 873e f859 aabe
00000230: 39c0 413e 7014 3f3e cbc6 75bd ce16 03c0
00000240: 1609 2f40 1a03 9240 a677 9d40 9d0d 53be
00000250: ab3a 00be c715 0abd e9a0 e43d 8c81 ec3d
00000260: f67b 173e bccf 083d 6131 dbba 7334 1d3a
00000270: 8442 953d 8a7b 74bc a152 a23d 44a3 02be
00000280: da7a 03bf 598f b4bc 6e4e 03ba c585 1cbd
00000290: b348 95bb b074 93bd f1d8 08be d08b ecbd
000002a0: 9313 193d 7a87 da3b 4fc2 c2bd 2439 643e
000002b0: 3aba 8d3d 843f b43c b894 1e3d 44a7 3d3d
000002c0: 77e9 473c cb76 e63d 2515 a9bd 1f9d 853d
000002d0: 7c15 1d40 4460 0ec1 af35 9a3f 8eab 8bbe
000002e0: dd39 933e b5e8 0dbe 1ab5 2cbd 0dcf 233d
000002f0: 312c b6be 49c6 593d a412 423d a933 673c
00000300: 7329 963d 2e83 93bd 5410 96be d399 133e
00000310: c295 35bf ab49 5dbf ecb8 1bbe 5623 4c3d
00000320: 2d47 d8bd 4915 b83c 32da 523d bc8a 983e
00000330: 744b c63d de42 bb3c 36bf c2bc 0a66 333e
00000340: 6a4a 82be ff60 d43e 8563 8b3d d9e8 d83d
00000350: e4a2 41bd c491 1a3c db17 403d fb95 463e
00000360: f775 01be 41c1 89be 566a fd3c 0f82 8a3e
00000370: 2cab 403e 2423 803c 71c4 55be cdff 2a3e
00000380: be18 9ebf 20e5 77be 6583 de3d 1acb 103e
00000390: a59d fd3e 7657 243f f668 103f 55aa b4bd
000003a0: a473 05be f598 9d3c 0ca8 cdbd 63f8 e7bd
000003b0: ba8f 36be 9a50 ea3d a089 95bd dfd8 273e
000003c0: 793b 4ebc 5746 5bbe 38ed b53e dd6b 8bbf
000003d0: 3213 32bf 55fd 8d3d 6ede 0abd 526d 30bb
000003e0: 0ef9 93bd 58e6 473e 6184 04bd ba30 003d
000003f0: e724 d23d 4eed 3a3e 08f0 2b3e 13bc 60bd
0.35240597 -0.0020573023 -0.02628134 0.037810676 0.14429808 -0.1696869 0.08863988 0.31777737
-1.0763854 -0.3170061 0.49863467 -0.6051363 0.1805624 0.1405874 0.42726123 -0.5616064
0.04726261 0.2408408 -0.20030771 0.12908229 -0.29304257 -0.33684918 0.35833424 0.048858076
0.12543552 0.5188039 -0.7451106 -0.41351297 0.2533698 0.1906453 -0.099278204 -0.4923658
0.05206896 0.85656554 -0.025573086 0.22340642 -0.44526803 0.9695168 0.8348478 -0.06824505
0.0711179 0.12479605 0.14742106 -0.121152066 -1.0721964 0.7317422 -0.05193196 -0.29846618
0.3372818 -0.40704787 0.08744082 -0.21772735 -0.15876286 -1.2655538 1.0229912 0.18596457
0.5184894 0.15503706 0.08253665 -0.15645337 0.70740634 -0.034024093 -0.5492078 -0.29102945
0.31298763 0.12244904 0.33463308 0.2709544 0.26773176 0.43623182 2.2836044 -0.0870247
-0.028242731 0.5270207 -0.4061696 -0.16652408 0.10281227 -0.23413461 -0.09423458 0.7183463
0.6583257 -0.033496734 -0.5331791 0.3637815 0.00013721175 0.043670163 -0.40881923 0.45257246
-0.29790187 -0.035593793 -0.2534067 -0.252361 0.034910493 0.10490362 0.32177785 0.3780061
0.007841781 0.19595289 0.074074954 -0.08030159 -0.09235128 0.446364 -0.0029310903 -0.17797546
-0.15966114 -0.017293429 0.22604346 0.20223516 0.32475457 -0.9675467 -0.826628 -0.17911562
0.23381892 -0.25823227 0.5757697 -0.04376113 -0.26922524 -0.5151863 -0.36177588 -0.1729099
-0.0994178 -0.28796664 -0.18146844 0.064842954 0.05352024 -0.40890563 0.32709867 0.20595792
0.28072575 0.07770225 -0.38642946 -0.4817645 -0.41823822 -0.3413558 -0.07804127 0.14110489
0.41730624 -0.08539615 0.26418823 -0.33271766 0.18920983 0.1866014 -0.060004037 -2.048267
2.7349296 4.5628786 4.9208555 -0.20610662 -0.1252238 -0.033712175 0.11163504 0.115481466
0.14793381 0.033401236 -0.001672309 0.000599689 0.072880775 -0.014922032 0.079259165 -0.12757593
-0.5135933 -0.02204101 -0.00050089404 -0.03821351 -0.0045557856 -0.07199991 -0.13364007 -0.115501046
0.037372183 0.006668982 -0.09509718 0.22287422 0.069202855 0.022002943 0.038716048 0.046302095
0.012201658 0.11253127 -0.08255986 0.06524109 2.4544363 -8.898502 1.2047633 -0.27279323
0.28755084 -0.13858302 -0.0421649 0.03999238 -0.3558059 0.053167615 0.04738106 0.014111438
0.073321246 -0.07202755 -0.29309332 0.14414148 -0.7093164 -0.86440533 -0.15207261 0.049838386
-0.10560451 0.022471087 0.05147762 0.29793346 0.0968236 0.022859033 -0.023772817 0.17519394
-0.25447398 0.41480252 0.06806091 0.10591287 -0.047274485 0.009434167 0.04689775 0.1939315
-0.12642656 -0.26905254 0.030934494 0.27052352 0.18815297 0.015641756 -0.20875718 0.16699143
-1.2351301 -0.24208498 0.10864905 0.14139977 0.49534336 0.64195955 0.5641016 -0.08821551
-0.13032395 0.019237975 -0.10041818 -0.11326673 -0.17828265 0.11441155 -0.073016405 0.16391324
-0.012587422 -0.21413551 0.35532546 -1.0892292 -0.6956054 0.06933085 -0.03390353 -0.0026920629
-0.07225238 0.19521463 -0.03235281 0.03129647 0.10260945 0.18254587 0.16790783 -0.05486686

architecture.0.bias f4 [64]
00000000: 4ae9 113f 69d6 3b3f 5c78 d03e 6ad0 ff3e
00000010: b22e 40bf 880b 15bf 7e9d 4e3d 59f3 85be
00000020: 0f7b 4dbf 5406 bc3e 3978 983e d03a d93e
00000030: 9e13 20bf e733 0e3e 6b3c 1dbe c3b7 323f
00000040: 9345 51be 4403 c1be cd93 c5bf f2b6 0bbf
00000050: 56d5 66bf eb78 23bd e914 02bd 9562 6bbe
00000060: ba18 90bd 0168 253f b59a 09bf a7de a03f
00000070: 0d8d bebf 4c24 7dbd 972a 0f3f bd94 ecbf
00000080: 1c48 5cbc 6e7d b13e 1700 97bf f4eb b2bf
00000090: 3ac6 35be ead1 2e3f 00c8 d43e 099e 62bf
000000a0: f696 38bf d7e0 5a3f 60e4 aebf a552 973e
000000b0: e3c4 6c3d 51c9 8cbd cfb7 3dbf 2560 b5be
000000c0: 7f75 f43d 78db 073f fadf 993e 46d9 a4bf
000000d0: 85d8 e1be 1cb4 debf d06c 0e3f e236 053d
000000e0: 8c80 9dbf 0b65 1ebe c711 e33d aed2 fd3e
000000f0: a93e b2be 4fa3 c43d c6df 373e 655f b8be
0.56996596 0.7337404 0.40716827 0.49963695 -0.7507125 -0.5822072 0.050443165 -0.26162222
-0.802659 0.36723578 0.29779223 0.42427683 -0.62529933 0.13886987 -0.15355079 0.6981165
-0.20436697 -0.37697804 -1.543573 -0.5457603 -0.90169275 -0.03991024 -0.031758223 -0.22986825
-0.07035966 0.6461182 -0.5375169 1.2567948 -1.4886795 -0.061802194 0.5592436 -1.8482891
-0.013444927 0.34666008 -1.1796902 -1.3978257 -0.17751399 0.68289053 0.41558838 -0.8852239
-0.7210535 0.8549933 -1.3663445 0.2955524 0.057804953 -0.068743356 -0.74108595 -0.35424915
0.11936473 0.5306926 0.30053693 -1.2878807 -0.44110504 -1.7398715 0.55634785 0.032523043
-1.2304854 -0.15468232 0.11087375 0.49574798 -0.3481343 0.09601461 0.17956457 -0.3601028

architecture.2.weight f4 [64, 64]
00000000: 110a c0bc 396a 273a 9891 0cbc 390d ea39
00000010: d71a e13c 8619 853d b03d 2bbc e969 643c
00000020: e9d6 703c b9a8 7fba 34c0 dcbc 763f 743c
00000030: 7afc 503c 8392 493a c0ab d4bc 5031 363e
00000040: 33d7 03bc fe55 aebc c200 5b3e 8130 f6bb
00000050: 260a c73b 38e5 da3b 2f44 193e 00a8 143c
00000060: 8b80 2b3d b842 a9be 1499 98bb 8d7e 323d
00000070: 1bc9 f1be 8ed8 be3c 6245 d63a f8b4 563e
00000080: 0574 2c3d 4182 5bbc 5793 ef3d ae97 f03d
00000090: 1133 0dbb 1360 0c3b 8afa 2f3c e071 5f3d
000000a0: 5b23 ff3c 2cc0 353b d2c1 33bd 9e1e 1e3f
000000b0: 36ff 01b9 a0c1 0ebf d692 9e39 88fc 46bd
000000c0: d9bf aebc 0673 7ebc 1d14 04bd 3f98 83bd
000000d0: 73b1 183f 63da c63d 4817 2ebb 256e 9d3c
000000e0: 7b5c 3dbd d4e1 0cbd d4ef aebe b31b d93d
000000f0: 16d7 49bc ea91 a6bb 2fb2 91bc c965 703c
00000100: 1580 e0be 4ca5 bcbf 92b0 a73e cf7f ffbd
00000110: c8ae cabe 3259 793f 37f9 293e 234b d2be
00000120: 3b4f 15bf 8a8e 973f a9c9 68bf 0f8a 10bf
00000130: f6d8 043f 1534 63bf e4ac 653e 74dd 123f
00000140: 8f30 10bf ff8c 42bd 10ed f63e 83bf bebe
00000150: b3d3 f43e b1d1 813e a555 5d3e a958 9b3c
00000160: 5426 4fbf f744 24bf 62c8 1d3d 7c0e 34bf
00000170: 6e6f 68bd afad b1be 954a ccbe 6c03 f13d
00000180: b7e5 64be 1854 513e f65f 013f 6de7 a03e
00000190: 718d 10bf 3cb4 2a3e e53f 85bf 0c3e ab3f
000001a0: c931 90be 9c85 c7bd fb97 23bb 1596 353e
000001b0: a9d5 51bf df19 63be 007e c13e 44a4 7f3e
000001c0: 2302 e53e a543 3cbd 6a26 57be db8d bf3e
000001d0: 3886 913e b843 e9bd 3fe4 87be 5454 1abe
000001e0: b168 1bbe decf b0be c465 bebd 58ab 10be
000001f0: dfaa 44bf ddc8 49bf bdf1 40bb ecfc 783e
00000200: 6c3f edbe 8c4a 073e c284 ad3d 34f2 cc3d
00000210: f5a8 4f3f 01f3 26be 7f34 123c 3905 ba3e
00000220: de3d 773f f08c 3b3f 3b7d 0a3f 04bc b93f
00000230: fafc ed3d e122 7a3f 945c babe 5f8b c83e
00000240: ebfc b13e 72fc 07bd eec4 c0be 4c13 3b3b
00000250: 6992 eb3e d60a f53e e87e 893f c06e 093f
00000260: 1d30 ccbe 72ce 8a3f cb9a 0abf 49ec 013f
00000270: a584 febe 8f02 ec3d ba42 9c3d fce4 253e
00000280: 1c49 c63e 7fd3 b9bd 9ddb 16bf a28c 31bf
00000290: 7ed7 fa3e 162e cd3e 2a86 763d 8160 07bf
000002a0: c8e4 06bf b619 f43e f2c8 f63d 12bb b4bd
000002b0: b23e db3e 54f9 5dbe 224c 59bd b703 0c3f
000002c0: ac43 2a3e 4900 75bf e0ef c1bd ef29 133e
000002d0: fe66 eabe c21d c0be 22c6 69be ca98 1a3e
000002e0: c410 e0be 2a96 88be 0dce 37be 9585 95bf
000002f0: b40e a93e ff84 c93e 93ae 5abf 6f78 013f
00000300: b272 aebe 3cb1 a6bf 86a7 72be 3bc0 02bf
00000310: 9bfd 313f 7e7f aebe 8d6e 8dbe 2eb5 b33e
00000320: b743 7ebd 2ce3 bb3e 4cf7 533d d3ac f73c
00000330: dc9f 00bd b26c 053f 7129 babe 06c8 d6bc
00000340: c6be 50be 6977 0440 c5d5 253e ede8 c6bd
00000350: ba8a 78be fb32 62bf c400 1c3f f5ae dd3f
00000360: df59 583f 2730 433e 1938 023e 2063 783e
00000370: 8c14 ae3c a6cb 513a b015 fabe 13af ad3d
00000380: 196d 27be 9f58 d33c 5bae 83be 047d 6ebe
00000390: 2997 4d3e 15c6 d7be 29e1 89bf 07b4 36bf
000003a0: 4814 e13e 864d b03e d505 62bd 21fe abbd
000003b0: 2a7e a9be 7580 253e 9998 003f 282e 7c3f
000003c0: 5486 333c 32f4 9cbe a92f 83be c88d 493d
000003d0: acfc 2ebf 998a aebe 8b14 fb3c 4e8b 633e
000003e0: 68ab 1cbf 261d abbc be6c a03e 9547 c13e
000003f0: c118 41bd ed3d 9c3e 88e0 e8be 8b32 1f3f
-0.0234423 0.0006386373 -0.008579634 0.0004464181 0.027478619 0.06499009 -0.010451719 0.013941267
0.014699676 -0.00097526197 -0.026947118 0.014907708 0.012755508 0.00076893735 -0.025960803 0.17792249
-0.008046913 -0.021281239 0.21387008 -0.0075131063 0.006074208 0.006680157 0.14967416 0.009073257
0.041870635 -0.33058715 -0.00465692 0.04357772 -0.47223744 0.02329662 0.0016347582 0.20967472
0.042102832 -0.013397754 0.11698025 0.117476806 -0.002154533 0.002141957 0.0107408855 0.05455196
0.031144788 0.0027732952 -0.043886013 0.6176547 -0.00012397472 -0.557642 0.0003024551 -0.048580676
-0.021331714 -0.015530353 -0.032245744 -0.06425523 0.59645766 0.09709623 -0.002656417 0.01921756
-0.046230774 -0.034395054 -0.3416735 0.10600986 -0.012319347 -0.0050833123 -0.01778516 0.014672705
-0.4384772 -1.4737945 0.327519 -0.124755494 -0.39586473 0.97401726 0.16598974 -0.4107295
-0.5832402 1.1840374 -0.9093271 -0.5646066 0.51893556 -0.88751346 0.22429234 0.5736916
-0.56324095 -0.047497746 0.4822774 -0.37255487 0.47817764 0.25355294 0.21614702 0.018963175
-0.8091786 -0.6416773 0.038521178 -0.703346 -0.056746893 -0.34702823 -0.39900652 0.11768231
-0.22353254 0.20442235 0.5053705 0.31426564 -0.5646582 0.16670316 -1.0410124 1.337831
-0.28162983 -0.09742281 -0.0024962414 0.17733033 -0.81966645 -0.22177838 0.37791443 0.24965006
0.44728193 -0.04596295 -0.21010748 0.37412915 0.28422713 -0.113898695 -0.26541325 -0.15071231
-0.15176655 -0.3453359 -0.09296754 -0.14127862 -0.7682323 -0.7882212 -0.0029440962 0.24315232
-0.4633745 0.13212031 0.08472587 0.10007134 0.8111718 -0.16303636 0.008923649 0.3633211
0.96578777 0.7326193 0.54097337 1.4510503 0.11620517 0.9770947 -0.36398757 0.39168832
0.34763274 -0.033199735 -0.37650245 0.0028545437 0.4601014 0.4785983 1.0741854 0.53684616
-0.39880458 1.0844252 -0.54142445 0.5075117 -0.49710575 0.115239255 0.076299146 0.16200632
0.38727653 -0.09073543 -0.58928853 -0.69355214 0.48992532 0.40074223 0.060186543 -0.5288163
-0.5269284 0.47675866 0.12050046 -0.08824743 0.4282127 -0.21677142 -0.05305112 0.5469317
0.16627377 -0.9570356 -0.09469581 0.14371465 -0.45781702 -0.37522703 -0.22829488 0.15097347
-0.4376279 -0.26677066 -0.17949696 -1.1681391 0.3301903 0.3935928 -0.8542263 0.5057439
-0.3407188 -1.3022838 -0.23696718 -0.5107457 0.69527596 -0.34081644 -0.27623406 0.35099167
-0.062076297 0.36696756 0.051749513 0.030233776 -0.031402454 0.5211898 -0.36359742 -0.026218425
-0.20385274 2.0697882 0.16194828 -0.09712396 -0.2427167 -0.8835904 0.6093867 1.7319018
0.8451213 0.19061337 0.12716712 0.24256563 0.021250032 0.0008003063 -0.4884467 0.084806584
-0.16350211 0.025799094 -0.2571896 -0.23289877 0.20077194 -0.42143312 -1.0771838 -0.7136845
0.43960786 0.34434146 -0.055181343 -0.083980806 -0.33104068 0.16162284 0.50232846 0.9850793
0.010957319 -0.30655056 -0.256223 0.04920748 -0.68354297 -0.34090117 0.030649444 0.2222111
-0.61199045 -0.020887922 0.31332964 0.37749925 -0.047142748 0.30515996 -0.45483804 0.621865

architecture.2.bias f4 [64]
00000000: 9e3b 413d 62c0 89bf 83a1 063e a8d1 e13d
00000010: a897 11bf 3222 4d3f 256a a03e 14f9 b33e
00000020: d41e 803e 128e 953e 678b 7d3f 2b54 d6bf
00000030: 81d9 df3e 7aee 343f 7de2 b3be b330 8e3f
00000040: 47bc 1a3f d591 6fbe fb00 5e3d 07d7 06be
00000050: bcb3 2c3f b16b 2a3f 2f6e c3bd ac31 5a3f
00000060: ef0b 43bf 3177 ef3e c175 4f3e ea7f 0640
00000070: ee08 f23e 1fea 44be 77a3 3d3f f3b2 4dbf
00000080: 38f4 113d fb05 80be b5dd 24be 9fa7 813e
00000090: 7cc6 8f3e 35db ce3e 91d9 a9be d2e1 9abd
000000a0: a6b7 e5be f8c7 fabe 9061 3fbf 0100 73bf
000000b0: d75b 9abf ef5f 703f c627 debe f84e 713e
000000c0: 0fac 93bf b03c 54be 8d93 82bf a35a b3be
000000d0: b6e8 e7be 8873 28bf e6e8 00bf a11a 27bf
000000e0: c08b 393d bad4 64be ed92 39bf fe08 7ebf
000000f0: e71e 41bf a842 203f 984a 24bf 10a0 173f
0.047175996 -1.0761836 0.1314755 0.11026317 -0.56872034 0.801303 0.31330982 0.3515097
0.2502352 0.29209954 0.99040836 -1.6744436 0.4372063 0.70676386 -0.35133734 1.1108612
0.6044354 -0.23395474 0.054200154 -0.13167964 0.6746175 0.66570574 -0.095425 0.85232043
-0.76190084 0.46770623 0.20259763 2.1015573 0.47272438 -0.19229935 0.7407755 -0.8035118
0.035633296 -0.25004563 -0.161002 0.25323197 0.2808112 0.40401617 -0.33173802 -0.07562603
-0.44866675 -0.4898069 -0.74758244 -0.9492188 -1.2059277 0.93896383 -0.4338972 0.2356528
-1.1536883 -0.20726275 -1.0201279 -0.35030088 -0.45294732 -0.65801287 -0.50355375 -0.6527501
0.04529929 -0.22346774 -0.72489816 -0.9923247 -0.7543778 0.6260171 -0.6417632 0.5922861

architecture.4.weight f4 [12, 64]
00000000: a80a 9fbd 6295 0cbb a273 05bb 3e30 85bb
00000010: f74d 28bc abac d93a 7992 c73a 56fd 433b
00000020: 0e71 07bb bb08 403a e0cd 3ebc ad86 92bc
00000030: 6acf d63b e363 063b 7d3c 323a f103 a33b
00000040: 28b8 f0ba a6b7 8c3a 80e6 253b 9b4d e63a
00000050: e9e6 d2bb da07 8eba 2a85 ccbb c016 1abd
00000060: 5eaf a43b 3f03 e93a 1f1c 75bb ae3d 7bbc
00000070: e5c4 d2ba b69b a5ba 1b60 07bd 80fd 1aba
00000080: bda3 7dbb 0a09 0b3a 3bb0 3cbe f84f 533a
00000090: eede 3eba 405c 4dbb 69e7 8738 ec4a b03d
000000a0: 189b 973a 8a8c ebb8 616f 343b 3e28 5f3b
000000b0: 0132 8e3b 7367 e9bb 0149 8eba fec5 bcba
000000c0: c622 a03b 640b 1d3b 47f8 eb3b 0b74 c0ba
000000d0: f0e6 803b 859e c4bb 4787 54ba 67a6 493b
000000e0: 2c17 9a3a 6ee3 153e ba0c 333c 9c23 93bb
000000f0: bf9b 1bbc 71ed 913b 310c c93a 37cb eaba
00000100: 14e0 febd 61f6 49bb 0d3c f33b 1fd1 9b3b
00000110: cf88 67bc 86fd a3bb bff1 723a f61d 45bb
00000120: 7213 a3ba cad4 e837 ec37 99bd 186e 1a3c
00000130: cc7f 093b 981f 2bb9 4666 12bc 7427 6bbc
00000140: 4545 c3b9 fee1 2e3a 214d 963a 10dd cfba
00000150: 2a7a b23d a0c6 33b7 8801 9fbb 7135 373c
00000160: 362c 283c 3657 4a3b cddc 6fba 7636 843c
00000170: 02f2 3dbb 3077 b8b9 5ba5 1d3d d604 f8ba
00000180: 54da 993a d945 2eb9 30bb d43b e1cb d53b
00000190: 5b49 0c3b da60 fe3a 3336 2e3b 55a6 3cbe
000001a0: a7f5 973b 6dc5 833b f732 4d3b 0b03 343c
000001b0: 2ce8 06bc aec6 463a 02e6 7a3b e068 41bb
000001c0: a1d8 c1bb bfc2 17ba e237 16bc 8ee0 88ba
000001d0: 2598 623a 1c58 82bb 1966 4eba 505c 02bc
000001e0: eb9b 2f3b 5458 093d 6f17 bb3a ece9 853a
000001f0: 1932 673b b75a 93bc 5bc5 ceba f0ff e9ba
00000200: 95a5 4a3e 0af3 223b 008c d2bb f49c af3b
00000210: 79a4 09bc dcb6 773a a5e5 ca3b b459 603a
00000220: e86d 01bc 4f87 81ba ee8f 943d e109 c6bb
00000230: 3b78 b5bc 14a4 a4bb 0e7a 58b9 8b82 c5bb
00000240: 4df5 573b 9a3e 28bb 69ea 0e3b 3c37 c4bb
00000250: baff cf3c 6e24 4dba e9b4 77ba b008 653b
00000260: 082d a13b 603e c9bb f694 1d3b d0f3 ebba
00000270: 6f3f 5c3a 9db8 e839 33fc 353d 5211 f5ba
00000280: 3b65 7dbb bf8c 58ba 2d6d 4fbd f857 b3bb
00000290: 73d8 803b d37a 353c cdd9 91bb f5ee 05be
000002a0: 9604 763a cfbb de3a 5b0d 7a3b 5622 743c
000002b0: 9b35 fe38 d338 ffba 6626 c3ba 3ac4 ea3b
000002c0: 14b9 63bc 4e8e 073c e026 dd3a ab61 8e3b
000002d0: c5af 2dba 1a6d 373b 7271 e7ba 7867 f53b
000002e0: b85e 443b a917 cc3d e121 2abc fba1 01bc
000002f0: 1f51 64bb 3b0e d33c 1b90 c73b 83ce 96ba
00000300: 16b1 17bd b076 cfbe d482 83be da96 b6bd
00000310: f262 c2bd 425e 6f3e a104 b53e 267b 2a3f
00000320: 62ad dabd de1f 043f b1be 943d b35d 3abf
00000330: 321d f43b fa31 1f3c 608d 313e 4ec1 8f3e
00000340: beec aa3e 40b9 52be d522 48be 0e33 b9be
00000350: 44d2 0a3d 37cd f93e 2677 06bd 9d3d 663e
00000360: 97f0 ccbe 55ed bf3d 3fc2 e4bd 918a 1e3f
00000370: c5d8 cb3e e0e3 80be f2a3 cc3d fef1 bebe
00000380: bf3f 1c3e c801 5dbe 9223 8e3d f43b a53e
00000390: c6bd b33d 146f 83bb 35e7 cdbc 1936 153d
000003a0: 78b8 aebe ff0d fbbd 8e4e 9cbe c148 a4be
000003b0: 3389 60be cd55 f13d 0cfe d8bd f1c6 613d
000003c0: 94f1 24bf 710a 00bf cf7a aabe 378d 35be
000003d0: 6668 92be 8314 03be 343d 61be 7361 31bd
000003e0: 0a71 83bd c59a 77bd 8786 6abe 6da3 a6bd
000003f0: ee24 adbd 6781 2c3e caca 97bd 77a3 0a3e
-0.077657044 -0.0021451344 -0.0020363112 -0.004064589 -0.0102724945 0.0016607245 0.0015226147 0.0029905639
-0.002066675 0.00073255197 -0.011645764 -0.017886484 0.0065554874 0.0020506314 0.00067991746 0.004974835
-0.001836543 0.0010735884 0.002531439 0.0017570736 -0.006436218 -0.001083608 -0.0062414603 -0.037619352
0.005025788 0.0017777457 -0.0037400795 -0.01533453 -0.0016080408 -0.0012634906 -0.033050638 -0.0005912408
-0.0038702332 0.0005303776 -0.18426602 0.00080609275 -0.0007281144 -0.0031335503 6.480405e-05 0.0860804
0.0011566607 -0.00011231851 0.0027532207 0.0034051086 0.004339457 -0.007122928 -0.0010855497 -0.0014402268
0.004886958 0.0023963088 0.007201228 -0.0014683021 0.00393378 -0.0060003423 -0.0008107316 0.003076935
0.0011756173 0.14637539 0.010928327 -0.004490329 -0.009497582 0.004453354 0.0015338716 -0.0017913346
-0.12445083 -0.003081702 0.00742293 0.004755154 -0.014131739 -0.0050045876 0.00092675904 -0.0030077673
-0.0012441708 2.7755643e-05 -0.074813694 0.009425662 0.0020980714 -0.000163196 -0.008935517 -0.014352668
-0.00037244908 0.00066712487 0.0011467078 -0.0015858728 0.08714707 -1.0715477e-05 -0.0048524775 0.011182175
0.010264447 0.0030874736 -0.00091500283 0.01613925 -0.002898336 -0.00035184016 0.038487773 -0.001892234
0.001173804 -0.00016619953 0.006492041 0.0065245484 0.0021406028 0.0019407526 0.0026582598 -0.18422826
0.0046374383 0.0040213377 0.0031310895 0.010987054 -0.008234065 0.0007582706 0.0038284068 -0.0029511973
-0.0059157168 -0.00057892123 -0.009168597 -0.0010442899 0.0008643887 -0.0039777886 -0.000787349 -0.007956579
0.0026795815 0.033531502 0.0014273952 0.0010216809 0.0035277663 -0.017987592 -0.0015775369 -0.0017852765
0.19789727 0.00248641 -0.0064253807 0.0053592864 -0.00840103 0.00094495504 0.0061919265 0.00085582887
-0.007899739 -0.0009882244 0.07254015 -0.006043658 -0.022152057 -0.0050244424 -0.00020644834 -0.006027525
0.0032952607 -0.002567208 0.00218072 -0.0059880298 0.025390495 -0.0007825558 -0.000944926 0.0034947805
0.004918698 -0.006141469 0.0024045086 -0.0018001739 0.00084017863 0.00044388036 0.04442997 -0.0018697178
-0.0038665074 -0.0008260719 -0.050641228 -0.005473133 0.0039320528 0.011076647 -0.0044510127 -0.13079436
0.00093848386 0.0016993227 0.0038154933 0.014900764 0.000121216486 -0.0019471891 -0.0014888763 0.0071645053
-0.0138991065 0.008273674 0.0016872548 0.004345139 -0.0006625618 0.0027988614 -0.0017657711 0.007489141
0.0029963683 0.0996545 -0.010384054 -0.007912154 -0.003483839 0.025763622 0.0060901768 -0.0011505637
-0.037034117 -0.4052024 -0.2568575 -0.089154914 -0.094915286 0.233758 0.35355094 0.6659416
-0.106776014 0.51611125 0.07262934 -0.72799224 0.0074497694 0.009716505 0.17339087 0.28077167
0.33383745 -0.2057848 -0.19544537 -0.36171764 0.03389193 0.4878938 -0.032828473 0.22484441
-0.40027305 0.09371439 -0.11169862 0.61930186 0.3981382 -0.25173855 0.099922076 -0.37294
0.15258692 -0.2158271 0.06940378 0.32272303 0.08776431 -0.0040110443 -0.025134662 0.036428545
-0.34125113 -0.12258529 -0.30528682 -0.32086757 -0.21927337 0.11783943 -0.105953306 0.055121366
-0.6443112 -0.5001593 -0.3329682 -0.1772965 -0.28595275 -0.12800793 -0.21996003 -0.043305825
-0.06418045 -0.060450334 -0.2290288 -0.0813664 -0.084543094 0.16846238 -0.07411726 0.1353892

architecture.4.bias f4 [12]
00000000: e417 873c d266 e4ba a91a a43d b20a a83f
00000010: dcaf a43c 9db8 3ebc e1ec 84be c583 883f
00000020: 9dc6 24be c2f6 b3bc 5f83 bf3d 8a6e 7bbe
0.016490884 -0.0017425662 0.080128975 1.3128264 0.020103388 -0.011640695 -0.25961974 1.0665213
-0.1609139 -0.02196825 0.09351229 -0.24553886

std f4 [12]
00000000: cdcc 4c3e cdcc 4c3e cdcc 4c3e cdcc 4c3e
00000010: d0bb 4d3e 23b7 4f3e cdcc 4c3e af1e 4f3e
00000020: a7b4 4d3e cdcc 4c3e cdcc 4c3e cdcc 4c3e
0.2 0.2 0.2 0.2 0.20091176 0.20284705 0.2 0.20226549
0.20088445 0.2 0.2 0.2

architecture.0.weight f4 [64, 36]
00000000: 5b32 c5be 72a4 6c3e 9ddd 9d3e 057c 29be
00000010: 8151 d43d 96d5 4f3e dd88 dbbe 0c1f c1be
00000020: b097 493e 7222 20bf a723 66bf 0a0b 143e
00000030: 6e85 093f f0c7 ee3e 89ef 463f 7077 9fbc
00000040: 4400 46bd 47dd 293e 1aef 2dbb f661 943c
00000050: bc58 523d 42ea cc3e 4b09 c73e cebf 4cbe
00000060: 78d7 223f 542f 733f 0466 09be 67fb dfbe
00000070: 97bc 10bf e94d 8abf 387d 4e3c a45c f93c
00000080: 37a5 b03b 125a 07bc 9533 a9bb fe52 fc3a
00000090: cca2 7b3c 4a6b d63c 1865 25bd f6eb 7e3c
000000a0: 2e74 7d3c 78c4 9abd 3aaa 61bd 9e94 5a3c
000000b0: 5d2f 0b3c 4cc5 0fbe c1ce 1a3e e876 893e
000000c0: 25eb a73d d20a 3ebd 0796 0abe a99b 2b3b
000000d0: 9a53 5cbc 6ef6 e03d 78aa 003d 4ad0 35bd
000000e0: 276d 72bd 1545 06bd 4a42 033d 8623 723e
000000f0: 3c68 e9bd a9f2 2fbe 6ae3 233e bba9 223e
00000100: 6c52 d73d 3860 5abd 4a24 ae3c efc2 b03c
00000110: 848e cabc 328f 103c f4a1 05bc 3d74 60ba
00000120: e743 04bd 24c9 8bbe a902 f2bc 9bf8 89bb
00000130: 7e21 29be 7933 9d3c 42d6 9cba 3f5b 703e
00000140: 0e91 533e 40da fc3e ca04 aebe d86d 29be
00000150: cc4e adbe 4f14 473c 90b9 493d 4997 ea3c
00000160: ff99 79bd 962d 7d3d e0e2 4bbc c1a4 623b
00000170: 3d50 55bc 08d2 04bd 1178 81be 9890 0abe
00000180: 06fd d6be 282f a03e 7036 023e 4fc4 9e3e
00000190: ad8e 153e da82 cabd 4cd8 0d3d ad9e 4c3d
000001a0: 4109 86bc 309f ee3b 3826 223c 5e21 8dbb
000001b0: 6460 573c ca43 143c 0623 c63c df6d 0dbd
000001c0: dfdb 553d c2f5 52bc aa0d 88bd e75d bcbd
000001d0: 91a5 50bc 4ad7 593e 3dc2 6e3e 0265 35be
000001e0: 3c14 6bbd 5a62 08be 7e7f 9f3c b664 f7bc
000001f0: 468e 67be 5e99 8d3d 6ba7 7ebc 2883 fa3b
00000200: bb4d a3bc f97c 213e c24b 433d 49f9 e43c
00000210: 2c89 6b3d 63e8 953e f9e0 eabd 0220 763d
00000220: 76f1 1bbd 048d 193e fa59 39bb 0a49 643c
00000230: 275f 03bc 6349 2abb cb8a c73b cc2e c53b
00000240: 5bff f03c 8426 aebc de32 87bd 4fc2 033e
00000250: 5074 b2bd 9677 a5bc f415 02be 8cf9 fbbd
00000260: 0a39 68bd 380e 0abd 2174 e43d 6d78 283e
00000270: 5b3f 49be 0b11 cbbe 38cb a7be 7175 353d
00000280: 66c7 8d3d 1b1e 16bd 6d3a 9dbd ad31 f73d
00000290: 6a77 c03d 47c9 193e ad1d 5a3e 0a7f c53e
000002a0: 1e29 3e3c ea4d a03c cf52 fa3d b739 9e3e
000002b0: ab34 d23c c2c2 d1be 3e00 16bb 23fd 20bc
000002c0: 4f22 c5bb 9492 20bd 3e52 ab3c c1ab b9bb
000002d0: 8532 df3c 094a 2cbc 2f77 5c3c 06c0 493e
000002e0: 974c 843d 7b62 24bd 080d 123e e01e a1bd
000002f0: d671 993d d960 c63d eea3 62bd 0bdb 03be
00000300: e30e 713d 43af 46bd 7402 eb3d 4911 443e
00000310: dc51 1f3e 1e2c 6c3e b903 9b3c fa86 ee3c
00000320: 9882 533b c5ca d33d 5746 42ba ed8f 12be
00000330: 2172 a33d 021b f53d e492 d03d 0dd7 85bd
00000340: f72c 0438 2ca3 29bd c7be 153c ce7e c3bb
00000350: c1a6 36bb 1763 cbbc 729c 053b 568b 293c
00000360: 14ad ff3d be43 083e 10f1 52bd b1bd 093e
00000370: 4e87 3e3e 1ed4 5abc 3ffa 963f 690e 77be
00000380: b686 fa3d 6bfb c9be 6e0c 143e d8cf 1e3f
00000390: d71e fabe a4eb e1bd 1d67 bb3e 7d30 7bbc
000003a0: 3203 2d3c 472e 023d 7cf6 523a 9887 a03b
000003b0: a089 20ba 5a9a 90bf f855 933e 41e3 17be
000003c0: 996f ca3e 7ada 47be 86d3 1ebf cb57 c13e
000003d0: f59b 5abd dc02 a0be 51d4 953c 1b6e ae3c
000003e0: aafc 08bb 04ab 853a 8cbd b43b 4c8f edba
000003f0: 54ee c6be dcc0 313c 15e8 1cbe 5b4e a4bc
-0.3851498 0.23109606 0.3083314 -0.16551216 0.10367108 0.2029632 -0.42877856 -0.37719
0.1968677 -0.6255256 -0.8989815 0.14457336 0.5371922 0.46636915 0.7770925 -0.019466132
-0.048340097 0.16588317 -0.002654022 0.018113118 0.051354155 0.40022475 0.38874277 -0.19995043
0.6361003 0.9499409 -0.13417822 -0.43746492 -0.56537765 -1.0805026 0.012603097 0.030439682
0.005390789 -0.0082612205 -0.0051636198 0.0019250808 0.015358638 0.026174206 -0.040379614 0.015559187
0.015469594 -0.07557005 -0.05509398 0.013341097 0.008495179 -0.14040107 0.15117933 0.2684853
0.08199147 -0.046397038 -0.13533793 0.002618531 -0.013447667 0.10984503 0.03141257 -0.044388093
-0.059186127 -0.032780726 0.03204564 0.23646364 -0.11396834 -0.17182411 0.1600472 0.1588506
0.105137676 -0.053314418 0.021257538 0.021577327 -0.02472616 0.008823203 -0.008156288 -0.0008562243
-0.03229132 -0.27301896 -0.029542284 -0.0042105443 -0.16516683 0.019189583 -0.0011965709 0.23472308
0.20660803 0.49385262 -0.3398803 -0.16545808 -0.3384918 0.012150838 0.04924923 0.028636592
-0.060937878 0.061811052 -0.012444228 0.0034583064 -0.013019619 -0.032426864 -0.25286916 -0.1353172
-0.41989917 0.31285977 0.12716079 0.31009147 0.14605208 -0.09888239 0.034630105 0.049956013
-0.016361834 0.00728216 0.009896807 -0.004306956 0.01314554 0.009049365 0.024186622 -0.03452861
0.05221164 -0.012875976 -0.06643231 -0.09197598 -0.012734787 0.21273533 0.23316284 -0.17714313
-0.057392344 -0.13318768 0.019469973 -0.03019939 -0.22612867 0.06914018 -0.015542845 0.0076450296
-0.019934526 0.1577033 0.04767967 0.0279509 0.057503864 0.2927886 -0.114686914 0.06008912
-0.038072072 0.149952 -0.002828239 0.0139334295 -0.008018292 -0.0025983683 0.0060895435 0.0060175415
0.029418638 -0.0212586 -0.06601499 0.12867092 -0.08713591 -0.020198625 -0.12703687 -0.12303457
-0.05669502 -0.033704966 0.11154962 0.16452189 -0.19653074 -0.3966144 -0.3277223 0.044301454
0.06922798 -0.036649805 -0.076771595 0.12070022 0.093977764 0.15018187 0.21300383 0.38573486
0.011606483 0.019568402 0.12222826 0.30903408 0.02565988 -0.409689 -0.0022888328 -0.0098259775
-0.006016053 -0.039202288 0.02091324 -0.0056662266 0.02724577 -0.010515698 0.01345615 0.19702157
0.06459921 -0.04013298 0.14262784 -0.07867217 0.074924156 0.09686441 -0.055332117 -0.12876527
0.058852088 -0.048506986 0.11475077 0.19147219 0.1555857 0.23063704 0.018922674 0.029117096
0.0032273885 0.103414096 -0.0007410994 -0.14312716 0.07980753 0.11968042 0.10184267 -0.06535158
3.151313e-05 -0.04141538 0.009139723 -0.005966044 -0.002787039 -0.024827523 0.0020387438 0.010348162
0.12484184 0.13307092 -0.051499426 0.13451268 0.18606302 -0.013356237 1.1795119 -0.24126591
0.12232725 -0.3944963 0.14457867 0.62035894 -0.48851654 -0.11031273 0.36602107 -0.015331385
0.010559844 0.031782415 0.00080475933 0.0048989765 -0.00061240233 -1.1297104 0.28776526 -0.14832784
0.39538267 -0.19516936 -0.6204151 0.37762293 -0.05337139 -0.31252182 0.018289717 0.021292737
-0.0020902553 0.0010198061 0.00551576 -0.0018124371 -0.38853705 0.010849204 -0.15322907 -0.020056894

architecture.0.bias f4 [64]
00000000: 92c1 993e 85c4 1740 f6a8 c63f c24c 69bf
00000010: 4d1f 323f 1ea2 cf3f 11e4 aa3f bc8b 47bf
00000020: a624 ff3b 7a45 a9bf d601 51be b268 2dbf
00000030: e69d a63f 2eff a43e 0c71 0fbe 644b a63f
00000040: 9b40 103f 5d8c 603f 6878 9fbf 124c 21c0
00000050: 4bf1 90bf 38ce 823f 2c2c d2bf 4b22 5abf
00000060: 3929 aebf 0ade 1abd 149e a0bf 9034 89bf
00000070: d361 383f 7131 a83f e632 a2bf 98b1 cb3f
00000080: 7897 80bf 7c36 af3f 89cb ea3e 921a c6bf
00000090: 6844 453f 0709 763f 01c3 41bf 2f6b bbbf
000000a0: 65b4 a0bf fe53 80bf 5e27 bbbf fdcc bc3f
000000b0: 2913 713f 8201 4b3e c81c aabf 8c8d 663f
000000c0: ed56 563f 2dbf 463f b9e5 29bf a99c 87bb
000000d0: 0118 643e 3d91 d63f 7a7f c73f 11de d9be
000000e0: 330b 3340 9e51 983f a594 10bd 00bd 85bf
000000f0: b791 453f abb2 d43f 7892 afbf 7e1f 70bd
0.30030495 2.3713696 1.5520313 -0.9113275 0.6957901 1.6221349 1.335085 -0.7794759
0.0077863513 -1.3224328 -0.20410857 -0.6773788 1.3016937 0.32225937 -0.14007968 1.2991757
0.5634858 0.8771418 -1.245862 -2.520268 -1.1323637 1.0219183 -1.641973 -0.85208577
-1.360633 -0.03780941 -1.2548242 -1.0719166 0.7202427 1.3140088 -1.2671783 1.5913572
-1.0046225 1.3688502 0.4585841 -1.5476859 0.77057505 0.96107525 -0.7568818 -1.4642085
-1.2555052 -1.0025632 -1.4621389 1.4750057 0.9416986 0.19824794 -1.3290033 0.90059733
0.8372639 0.7763546 -0.66366154 -0.0041385484 0.22274782 1.6763073 1.5585778 -0.42552236
2.7975585 1.1899908 -0.03529801 -1.0448303 0.7717547 1.6617025 -1.3716574 -0.058623783

architecture.2.weight f4 [64, 64]
00000000: 8aa6 c8bd 7be8 35bf 2033 e6be ec21 733e
00000010: e982 ddbe b85b 16bf 0b44 a0be 4103 893e
00000020: 332a b8be 9931 ff3d aa56 5fbe a39d 813e
00000030: 78a3 a2be dfac c7be f2b1 08bf 46be 04bf
00000040: f7d2 b8be f693 1abf 5125 0f3f 218f 563f
00000050: 259f b53d 4c03 42bd 08d3 4d3f f223 383f
00000060: 5d77 2a3f 0be2 353e bbf0 fe3d 6002 373f
00000070: 8a54 f9be 70be 22bf f601 e53e c64b 32bf
00000080: d82e b3bc 247c fabe a470 c0be c64e 273d
00000090: ee58 7cbf d80f b7be 7387 153f 80e0 9d3e
000000a0: ece1 1f3f dbd8 aa3e bcd5 453f 3ae6 d9be
000000b0: 1880 c1be 02ee a4be 39c7 ed3e ff74 f4be
000000c0: 0cf6 bfbe 2dd5 41be 31cb 1b3f 2316 31bd
000000d0: 9e76 b03d 6dac 9cbe a191 d7bb 733d c13e
000000e0: 2634 38bf 6dad 15bf be6d 81be c0d1 543f
000000f0: 10f9 1abf 8712 a0bd 1939 8e3e f53c 78be
00000100: beae b13e d13f 3e3f 49ae 353e 3276 0bbf
00000110: 9e04 de3e 7dba 4d3f 05a0 9dbc 6d47 9abe
00000120: aedc 403e 2aa9 afbe a3d1 9a3e 152e d3be
00000130: d84f e23e 6f92 ed3e f2f4 b73e ffb2 d73e
00000140: 02c2 b93e 548a d13e c343 09bf 84e7 48bf
00000150: 3c45 71be e7d4 39be 3981 0abf 9f1e 09bf
00000160: 54df e8bd 670c 31bd 604a 10be 0e3b a2be
00000170: bab7 d33e a47c ef3e 12d4 9bbe 2c49 1a3f
00000180: cec7 72be 8e90 bb3e 57f8 213e 2f34 f7be
00000190: 791d 463f b7e4 ec3e 95b2 043d 94c3 3ebe
000001a0: fc6a a4be 59da 3cbf e2da 00bf e063 853e
000001b0: 69de a03e ab26 5d3e 091b 09bf f16c 9d3e
000001c0: 95d4 393f 4a4c a43e 93f5 52bf bbb7 e03e
000001d0: 42fe 82be bf4c 003f 3fdd f2bc bdd7 36bf
000001e0: b64e 1f3f 4d48 813e 1c60 e5bb 95eb 47bf
000001f0: e637 203f 00bd 323e 7463 c9be c9e9 8a3e
00000200: 3b98 933e 4fa4 133f e43b fcbe 9547 a339
00000210: 1993 88bd 1c54 2c3e 3acb b8be 1825 0b3f
00000220: 8bdf a7bd daa4 b23e 9327 efbd 0797 8bbd
00000230: a8ee 493e f75e 0abf 4f4f 46be 6108 02be
00000240: 25d7 803d 32ed 963d eee7 453d 906d 0bbf
00000250: a7fc 393f 1b9a bbbd 4b87 88bd bf8e 46bb
00000260: a795 be3e b79a cdbe 4a80 4ebe 3ffd ef3d
00000270: 3925 1fbe 75a7 eabd 44c8 573e 8d0d 06bd
00000280: 6f68 ad3e b8da 99be dbe6 953e c261 503e
00000290: bf55 82be ac9e d9bd 8a53 613d 69c0 0abe
000002a0: 6d5a 983d 483f 75be a386 1d3e 4b74 f6be
000002b0: 9fd4 b4be 81d2 5bbc a210 e9be 689a 30bd
000002c0: f7da 463e 54fb 7cbe 32e5 3ebd 2371 2d3f
000002d0: 0292 0cbe a14d 99be 2706 7dbe d463 08bd
000002e0: 9b9b 0f3f c2af c1bb 6abf 3f3e 9f42 d9be
000002f0: a04c b93e 6072 8dbe 3571 0fbc 1954 c7bd
00000300: 696f 17be e209 2dbf 533e d4be 7d09 c83d
00000310: e3ff eebe 8898 0dbf 5f32 1cbe dc42 cf3e
00000320: 5340 d7be 6657 9b3e fee4 75be 0738 f73e
00000330: 9033 1bbf df85 3bbe fe6f bbbe 3b53 14bf
00000340: 47c1 18bf 4dea 12bf e02b 683f 2187 163f
00000350: 4faa bf3e b469 12be 675c 3f3f cc13 483f
00000360: 9a36 0f3f a914 7c3e d0dc 4c3e 739a 0b3f
00000370: b9d1 17bf e0b3 00bf f89b 073f c18f 36bf
00000380: 8403 0abe 1b0b c9be 8b9b 97be e781 3b3e
00000390: 2a85 51bf 27f3 a0be cd4d cf3e 5eec a83e
000003a0: 7a89 483f adcc 2e3f a534 da3e 2db2 c83b
000003b0: a35b f2be 7ce9 e9be 06a1 f63e 84b6 dbbe
000003c0: f42f ffbe c0ce bfbe ef78 f83e 98d1 18be
000003d0: ef31 a33d 1e4e 9dbe 6a3f 3ebe 1e01 ee3e
000003e0: b458 3abf 2058 17bf 1c91 80be f50b 443f
000003f0: b1f8 22bf 6fa9 d1bd 6c50 d73e a611 adbe
-0.0979739 -0.7105786 -0.4496088 0.23743409 -0.4326394 -0.587337 -0.31301913 0.26760295
-0.35969695 0.12460632 -0.21810403 0.2531558 -0.31765342 -0.38999078 -0.53396523 -0.51852834
-0.36098453 -0.6038202 0.55916315 0.8381215 0.08868245 -0.047366425 0.80400133 0.7192985
0.66588384 0.1776201 0.124482594 0.71488 -0.4869731 -0.63571835 0.4472806 -0.6964687
-0.021872923 -0.48922837 -0.37585938 0.04084661 -0.98573196 -0.35754275 0.58409804 0.30835342
0.62454104 0.33368573 0.7727926 -0.4255846 -0.3779304 -0.32212836 0.46441057 -0.4774551
-0.37492406 -0.18928976 0.6085692 -0.043234 0.086163744 -0.306003 -0.0065786396 0.37742195
-0.7195457 -0.5846775 -0.2527904 0.83132553 -0.6053629 -0.07816034 0.27777937 -0.24242003
0.3470363 0.74316126 0.17742266 -0.54477227 0.43362898 0.80362684 -0.019241342 -0.3013262
0.18834183 -0.3430875 0.30238065 -0.41246095 0.4420154 0.46400782 0.35929066 0.4212875
0.3628083 0.40925848 -0.5361902 -0.78478265 -0.23561567 -0.18147622 -0.5410343 -0.5356235
-0.113707215 -0.04322472 -0.14090872 -0.3168568 0.4135111 0.4677478 -0.30435234 0.602679
-0.23709032 0.36633724 0.1581739 -0.48282 0.7738872 0.46268246 0.03239687 -0.18629295
-0.32112873 -0.7377067 -0.5033399 0.2605276 0.31419685 0.21596782 -0.5355688 0.30747178
0.7259 0.32089454 -0.82405967 0.43890175 -0.25584608 0.50117105 -0.029646514 -0.7142294
0.6222948 0.25250474 -0.0069999825 -0.78093845 0.62585294 0.1745491 -0.3933369 0.2713149
0.2882708 0.5767259 -0.49264443 0.00031143115 -0.06668682 0.1682896 -0.3609255 0.54353476
-0.08196934 0.34891397 -0.1167747 -0.068159156 0.19719946 -0.54051155 -0.19366191 -0.12698509
0.062910356 0.0736946 0.04831689 -0.54464054 0.7265114 -0.09160253 -0.0666643 -0.0030297486
0.3722355 -0.401571 -0.20166126 0.11718225 -0.15541543 -0.11457721 0.21072489 -0.032727767
0.3386874 -0.30049682 0.2927769 0.20349792 -0.25456044 -0.106259674 0.05501131 -0.13549961
0.07439122 -0.23949921 0.15383391 -0.481356 -0.35318467 -0.013416887 -0.45520502 -0.043116003
0.19419466 -0.24705249 -0.046605296 0.6775076 -0.13727573 -0.2994204 -0.24709378 -0.03329833
0.5609681 -0.0059108445 0.18725362 -0.4243364 0.36191273 -0.27626324 -0.008755018 -0.09732837
-0.14788593 -0.67593205 -0.414538 0.09767435 -0.466796 -0.5531087 -0.1525359 0.40480697
-0.42041263 0.30340117 -0.24013135 0.48284933 -0.60625553 -0.18312787 -0.3660888 -0.579395
-0.5966992 -0.57388765 0.9069195 0.5879994 0.37434623 -0.14298135 0.7475037 0.7815521
0.5594269 0.24617256 0.20006108 0.54532546 -0.59304386 -0.5027447 0.52972364 -0.713131
-0.13477904 -0.39266285 -0.29610857 0.18311273 -0.8184382 -0.3143551 0.40489045 0.32992834
0.7833477 0.6828106 0.4261829 0.006124756 -0.47335538 -0.45685947 0.48169726 -0.42912686
-0.49841273 -0.37462425 0.48529765 -0.14923704 0.079685085 -0.3072366 -0.18578878 0.46485227
-0.727916 -0.59118843 -0.2511071 0.76580745 -0.6366072 -0.10237395 0.42053545 -0.33802527

architecture.2.bias f4 [64]
00000000: 62a6 8cbf faa4 8d3f 7b7f 523f 21dd 9bbf
00000010: dc7b 80bf e215 8cbf cb99 93bf d58c 753f
00000020: 7248 6dbf 38b1 0abf 5461 113f 8ffd 39bf
00000030: bc20 90bf 385a 2e3e d53f 8ebf 496f 243f
00000040: a7c9 533f e17f 323f 174f 8fbf 7bc2 8abf
00000050: 08a5 553f e11e 2b3f 332e 893f 3b68 7bbe
00000060: 4b3b f8be bdce 46bf 0377 873f 9246 83bf
00000070: cc27 153f 69be df3e 7691 82bf 9b88 933f
00000080: ba54 a0bf d3ce c43e 78f4 eabe 257a 63be
00000090: a038 66bf 9286 e1be 54c5 583f a2a5 83bf
000000a0: dcb3 87bf 7819 40bf 08a9 c3be 3ddf 883f
000000b0: a705 593e ffd2 063f cdb1 cb3e b571 9abe
000000c0: 56d1 73bf 9169 22bf f6e7 183f b840 06bf
000000d0: d47c 7cbf 8fea 78bf db04 88bf 0023 123f
000000e0: d51a 88bf 48b8 853f 8638 98bf 4dba 86bf
000000f0: 1fc9 703f 41c4 ddbd da96 853f d40f 823f
-1.0988276 1.1065972 0.8222577 -1.2176858 -1.0037799 -1.0944178 -1.1531309 0.9591802
-0.9268867 -0.54176664 0.56789136 -0.72652525 -1.125999 0.17026603 -1.111323 0.6423231
0.8272957 0.6972638 -1.1196011 -1.0840601 0.8345494 0.6684399 1.0717224 -0.2455148
-0.48482737 -0.7765921 1.0583194 -1.0255911 0.5826385 0.4369996 -1.0200641 1.1526064
-1.2525856 0.38439044 -0.4588964 -0.22214563 -0.8993015 -0.44047982 0.846761 -1.0284922
-1.0601764 -0.7503886 -0.38214898 1.0693127 0.21193562 0.52665704 0.3978409 -0.30164877
-0.95241296 -0.6344233 0.59728944 -0.524425 -0.9862797 -0.9723291 -1.0626482 0.57084656
-1.0633188 1.0446863 -1.189225 -1.0525604 0.94056886 -0.10828448 1.0436661 1.016108

architecture.4.weight f4 [1, 64]
00000000: 45ad c140 f7a3 bec0 b4fa dec0 b960 b840
00000010: 87f9 c340 6db3 c140 fd70 bf40 9ba1 bec0
00000020: 2b0c f940 1d81 ed40 1a9c c0c0 e4f6 b840
00000030: 8ea3 e740 17ee 03c1 e5f3 b740 254d f5c0
00000040: 3953 e9c0 8746 0541 7bf3 bd40 b751 bb40
00000050: 4753 c2c0 10a5 fbc0 fffc c1c0 cb34 f240
00000060: ee36 e240 0b96 c240 5918 c0c0 1f97 bd40
00000070: ab72 b1c0 2dce 01c1 7aed d440 d742 bdc0
00000080: 1323 bf40 3609 f7c0 ab95 0241 a62b ee40
00000090: c290 af40 82b0 bf40 f405 cdc0 156f ba40
000000a0: 91ff bf40 ce14 bf40 0eef bc40 bf69 bcc0
000000b0: 5c1a e9c0 af1c e2c0 bb48 f9c0 1d37 fc40
000000c0: 61cf c240 326d f840 980a c2c0 21ea 0441
000000d0: cdb2 bb40 691c bd40 c5e0 ba40 23dc 0bc1
000000e0: 7750 c040 dbab bfc0 9359 ba40 bb89 bf40
000000f0: c0d8 bac0 b9e6 f6c0 132b c4c0 c30e b9c0
6.052401 -5.9575152 -6.9681034 5.761807 6.12421 6.0531526 5.9825425 -5.957227
7.7827353 7.422011 -6.0190554 5.780138 7.238715 -8.245627 5.7485223 -7.665667
-7.291409 8.329719 5.9359717 5.853725 -6.0726657 -7.863899 -6.0621333 7.5689445
7.0692053 6.080816 -6.002972 5.9246974 -5.5452476 -8.112836 6.653989 -5.914409
5.9730315 -7.7198744 8.16154 7.442828 5.4864206 5.9902964 -6.4069767 5.82606
5.999947 5.9712896 5.9041815 -5.8879085 -7.2844677 -7.0660014 -7.790128 7.8817277
6.087815 7.7633295 -6.063793 8.30716 5.8655763 5.909718 5.8399377 -8.741244
6.0098224 -5.9897285 5.8234344 5.985563 -5.8389587 -7.7156644 -6.130258 -5.783052

exp_avg f4 [64, 36]
00000000: caab 0e38 a334 64b8 2e23 bdb8 61d0 42b7
00000010: 95b8 b1b8 d58b 34b8 77d4 4337 acc6 b938
00000020: e756 64b6 12b6 beb7 20c4 60b6 73f2 33b7
00000030: f798 d8b6 1eab ccb8 48f0 76b8 0315 3fb8
00000040: 20b9 5eb8 159e a9b8 1ce5 0937 9f01 82b8
00000050: cbff c0b6 c21c a536 119f ae38 891b 0d37
00000060: e8df ecb7 ece4 6735 deac dbb7 f8a5 92b7
00000070: c2ee afb8 2e9f 5bb8 7a0d 7839 8a9b 4f38
00000080: b5e6 8238 ba6a 8c37 fb69 20b7 f658 8eb8
00000090: 89bd 9537 39b3 adb8 9e99 20b8 7139 4636
000000a0: f72d 3438 13b1 cdb8 e06f efb6 3367 25b8
000000b0: 4aa5 6d36 d69f 8bb8 a417 46b8 6cd1 afb8
000000c0: 5745 cd37 4a66 4d38 0f8e dcb8 a13b 8f38
000000d0: e568 f3b7 3ffe d538 852c cc38 4a0b 30b9
000000e0: 65f1 1938 6e6c 2a36 0888 9036 2d51 98b7
000000f0: 67c0 b4b8 6cd3 56b8 0345 7bb8 76f7 2b38
00000100: 30a7 2d38 86dd d4b8 7ba1 3538 46b3 8f37
00000110: 7801 8b38 be30 f2b8 c6e5 0739 d3d7 8f37
00000120: eb3d 9536 21d1 4938 9b3b 2736 944c 67b5
00000130: 5925 16b8 8815 8437 24b6 8a34 8dab 5638
00000140: 503a 9836 65a6 0838 7518 1f38 843b c1b7
00000150: bac1 cdb6 9354 84b8 7450 b2b6 0c08 5838
00000160: c088 bd37 1181 e237 4584 4db8 60fe 5638
00000170: 0848 afb8 1de2 c0b5 446f 8238 d603 39b6
00000180: 25b5 1e38 49de 9137 afbe b9b7 5c03 d5b7
00000190: 2683 91b8 742a 8c34 7f54 1739 18ad 2d39
000001a0: 5f7b 6f38 bca4 bb36 0660 8a36 9865 ce37
000001b0: 1726 aeb8 3a41 8cb8 d04c b7b8 5b5c 8d37
000001c0: 8e97 73b8 9e21 2e38 3138 f338 faaf 21b7
000001d0: 2c41 35b8 c8d2 5238 a12a e638 619a 0e38
000001e0: 4bdf 2537 9c78 6ab8 74e7 fa34 2185 16b8
000001f0: abe3 6b37 0466 40b8 98ed 12b8 cbb8 1a38
00000200: 0a83 c038 fe02 e338 dd7c 2f37 5134 c1b7
00000210: 0681 2838 2846 c838 92a6 7538 4274 b637
00000220: d091 8ab8 19c1 13b7 ec25 0e39 acdd 0c39
00000230: c421 4d38 f3cf acb8 9ee0 30b9 9fdb 7e38
00000240: f1ee a7b7 7679 8e37 2f9b 3d37 f009 2739
00000250: b2dd 27b9 4564 a5b8 444b 0ab9 b38c 0239
00000260: 2f13 94b8 5a38 a138 98ff f8b8 7203 6db9
00000270: 1849 1939 5e64 12b9 8f39 64b8 451e a838
00000280: c2ed 38b7 0289 eeb6 0cf1 26b8 98fc 8fb7
00000290: 6757 a737 c236 10b9 1fdd 0139 83d0 85b8
000002a0: 73cb aa38 b146 02b9 1831 67b9 79e0 1c39
000002b0: d27b 17b9 a656 68b8 761d 69b8 a9bd 0fb9
000002c0: a5b1 89b8 9fbf 87b7 1cb6 bcb8 0d86 80b6
000002d0: dc01 8536 26b9 60b6 d913 a637 0986 67b6
000002e0: 557f 5539 224c 9538 932e c9b8 235a 85b8
000002f0: b0e3 c836 34f2 3138 f459 fd38 7a64 7838
00000300: 6e57 5336 20e1 3a39 8343 a238 1bbc 49b7
00000310: dca0 ae38 2f69 9b38 98eb 87b8 24fd c0b8
00000320: 99df 4735 713e d0b8 d68e 7eb8 981a 9a37
00000330: 5f4d 2838 b54f f238 1a7c 6d38 1171 4736
00000340: a94c 3739 d8b7 b138 4200 0db8 5527 51b9
00000350: 097e 85b9 2eb9 8838 a8a8 0539 2bae 19b8
00000360: 5d0a 4fb8 bf1e 8c38 d036 e538 17e0 6038
00000370: b552 deb8 528d 18b9 94ba 78b8 8c61 4a39
00000380: 5554 0fb9 fef2 3eb9 e9bc 21b9 99b9 9b37
00000390: 6b63 8738 7aa6 dbb8 c26a 35b9 bc71 02b9
000003a0: 31ef 3738 e9a7 c6b8 49d5 e9b8 ea86 05b9
000003b0: ff8d 94b8 ff32 8db8 3be6 3d39 bc37 0db9
000003c0: f26f 31b9 f9bd 08b9 d469 41b7 ec68 4538
000003d0: afb3 a1b8 116c 35b9 3041 5b39 135a 3c39
000003e0: 10ac 0339 1cf2 d337 ccd8 c8b7 8322 8d37
000003f0: 094b 0438 6141 9037 7ffd d1b7 92d8 6037
3.401543e-05 -5.4408458e-05 -9.018775e-05 -1.1611818e-05 -8.474399e-05 -4.3045573e-05 1.1672374e-05 8.858493e-05
-3.4025231e-06 -2.2734548e-05 -3.349276e-06 -1.0725681e-05 -6.455109e-06 -9.759351e-05 -5.887475e-05 -4.5557517e-05
-5.3101336e-05 -8.087993e-05 8.21918e-06 -6.199185e-05 -5.751824e-06 4.920731e-06 8.326595e-05 8.410666e-06
-2.8237657e-05 8.638733e-07 -2.6187332e-05 -1.7481841e-05 -8.3891224e-05 -5.2361916e-05 0.00023656143 4.9497503e-05
6.2418556e-05 1.6738999e-05 -9.561419e-06 -6.787658e-05 1.7850443e-05 -8.282666e-05 -3.829004e-05 2.9537734e-06
4.2958152e-05 -9.8081444e-05 -7.135779e-06 -3.9435177e-05 3.5411963e-06 -6.657808e-05 -4.7228896e-05 -8.383658e-05
2.4470193e-05 4.8971073e-05 -0.00010516878 6.829878e-05 -2.9016703e-05 0.000102039885 9.7357704e-05 -0.00016788873
3.670286e-05 2.5395088e-06 4.3073705e-06 -1.8157612e-05 -8.6189066e-05 -5.1218478e-05 -5.9907336e-05 4.1000043e-05
4.140212e-05 -0.0001015021 4.3304153e-05 1.713041e-05 6.62831e-05 -0.00011548538 0.000129602 1.714743e-05
4.4477542e-06 4.81169e-05 2.4919634e-06 -8.616564e-07 -3.579757e-05 1.5745652e-05 2.5837028e-07 5.1181345e-05
4.5367415e-06 3.2579894e-05 3.793133e-05 -2.3035107e-05 -6.132029e-06 -6.310004e-05 -5.3141794e-06 5.1505907e-05
2.2594235e-05 2.70014e-05 -4.8998994e-05 5.125848e-05 -8.358067e-05 -1.4370922e-06 6.219608e-05 -2.756938e-06
3.783884e-05 1.7388857e-05 -2.2142513e-05 -2.5393143e-05 -6.938567e-05 2.610792e-07 0.0001443196 0.00016563048
5.709694e-05 5.592212e-06 4.123899e-06 2.4604422e-05 -8.304061e-05 -6.6878696e-05 -8.7404274e-05 1.6851516e-05
-5.807686e-05 4.151614e-05 0.000115976094 -9.6373205e-06 -4.321446e-05 5.0264207e-05 0.00010975195 3.3999215e-05
9.886756e-06 -5.5902274e-05 4.6734533e-07 -3.5886773e-05 1.40601e-05 -4.5871377e-05 -3.503039e-05 3.6888563e-05
9.1796814e-05 0.00010824761 1.0459885e-05 -2.3031755e-05 4.0174484e-05 9.549811e-05 5.8567683e-05 2.1750227e-05
-6.6075125e-05 -8.806842e-06 0.00013556302 0.0001343402 4.8907255e-05 -8.240333e-05 -0.00016868344 6.0762857e-05
-2.0019217e-05 1.6984279e-05 1.1301409e-05 0.00015930063 -0.00016008949 -7.88649e-05 -0.00013188744 0.0001245018
-7.060763e-05 7.6875745e-05 -0.000118731696 -0.00022603365 0.00014618447 -0.00013961035 -5.441304e-05 8.0165024e-05
-1.1022612e-05 -7.1089025e-06 -3.9801977e-05 -1.7164552e-05 1.9948651e-05 -0.00013753309 0.00012384773 -6.3807725e-05
8.144127e-05 -0.000124241 -0.00022048166 0.00014960942 -0.00014446609 -5.5393808e-05 -5.5578967e-05 -0.00013708197
-6.565758e-05 -1.6182485e-05 -8.998459e-05 -3.830303e-06 3.9639253e-06 -3.3486372e-06 1.9797984e-05 -3.44997e-06
0.00020360698 7.1190545e-05 -9.593102e-05 -6.3587235e-05 5.986971e-06 4.2425658e-05 0.00012080735 5.9221384e-05
3.149234e-06 0.00017822208 7.737337e-05 -1.202433e-05 8.326929e-05 7.410568e-05 -6.4811844e-05 -9.2024246e-05
7.4458654e-07 -9.9298435e-05 -6.0691345e-05 1.8370614e-05 4.012638e-05 0.00011554306 5.6620782e-05 2.9719124e-06
0.00017480798 8.474261e-05 -3.361726e-05 -0.00019946446 -0.0002546164 6.519478e-05 0.00012746698 -3.664025e-05
-4.9362297e-05 6.681447e-05 0.000109297805 5.361446e-05 -0.0001060119 -0.00014548496 -5.9301572e-05 0.0001930056
-0.00013668959 -0.00018210334 -0.00015424531 1.8563866e-05 6.45582e-05 -0.000104737424 -0.00017301276 -0.00012440135
4.3853364e-05 -9.4726514e-05 -0.00011150033 -0.00012734128 -7.083639e-05 -6.732903e-05 0.00018110212 -0.0001346757
-0.00016921738 -0.00013040741 -1.15283365e-05 4.7066176e-05 -7.710547e-05 -0.00017301763 0.00020909752 0.00017962632
0.00012557232 2.5265901e-05 -2.3942812e-05 1.682458e-05 3.1541134e-05 1.7196582e-05 -2.5032785e-05 1.3401865e-05
