raisimGymTorch/data/ouzel_delta_planning/2022-05-27-14-33-19/full_27000.pt (torch, 178160 bytes, 36 tensors)

architecture.0.weight f4 [64, 36]
0	0x3be9139c	0.0071129333
1	0x3e48263c	0.19545835
2	0xbe430dc8	-0.19048226
3	0xbd0b6ff6	-0.03404232
4	0x3dc2cb98	0.09511489
5	0xbe6ae27a	-0.22937956
6	0x3e24c902	0.16092303
7	0x3daf5c15	0.08562485
8	0xbf9addbc	-1.2098918
9	0xbecb61bc	-0.39723003
10	0x3e9efc07	0.31051657
11	0xbf38434c	-0.71977687
12	0x3dd71eaa	0.105038956
13	0x3dceaf38	0.10092014
14	0x3e9c7cd3	0.30563983
15	0xbeba6eae	-0.36412567
16	0x3c76fd43	0.015075031
17	0x3e8df013	0.27722225
18	0xbd846164	-0.06463888
19	0x3e1ba24d	0.15198632
20	0xbe91d00a	-0.28479034
21	0xbea22f0e	-0.31676525
22	0x3e19f2dc	0.1503405
23	0xbe170aeb	-0.14750259
24	0x3d0f7d07	0.035031345
25	0x3ea8ce5a	0.32969934
26	0xbf502937	-0.8131289
27	0xbeed6bf8	-0.46371436
28	0x3e46e4b4	0.19423181
29	0x3ce39d7c	0.027785055
30	0xbd894966	-0.06703453
31	0xbede2e76	-0.43394822
32	0x3deefac7	0.11668926
33	0x3f10891a	0.564592
34	0xbee6b213	-0.45057735
35	0x3de9c72f	0.114149444
36	0xbe91e9d7	-0.28498718
37	0x3f978e58	1.1840315
38	0x3f8429fe	1.0325315
39	0x3e1e79c4	0.15476137
40	0x3d34674e	0.04404383
41	0x3ec236fb	0.37932572
42	0x3d9e872a	0.07740624
43	0x3d46c48b	0.04852728
44	0xbf8c7be7	-1.0975312
45	0x3eea0acb	0.4571136
46	0xbd82f6f5	-0.063947596
47	0xbe87551f	-0.2643213
48	0x3f128fb4	0.57250524
49	0xbeebe2d7	-0.46071503
50	0x3eac69e5	0.3367454
51	0x3e0f70e8	0.14007914
52	0xbe414c5a	-0.18876782
53	0xbf922e6a	-1.1420414
54	0x3f4ec6b9	0.80771977
55	0xbdd2b6dc	-0.10288784
56	0x3eb10950	0.34577417
57	0x3d4e65ab	0.050389927
58	0x3e5c8b88	0.21537602
59	0xbe3e8ae6	-0.18607673
60	0x3ede6369	0.4343522
61	0xbc8a94bd	-0.016916627
62	0xbf032ce1	-0.51240355
63	0xbda01f8a	-0.078185156
64	0x3e8a6cd5	0.27036157
65	0x3eb60a47	0.35554716
66	0x3ef666fe	0.48125452
67	0x3eaf6755	0.34258524
68	0x3e95b6c5	0.29241005
69	0x3e8e0cc5	0.27744117
70	0x3fde1a0a	1.7351696
71	0xbd5a606c	-0.05331461
72	0xbe464b8d	-0.19364758
73	0x3f4e2fb0	0.80541515
74	0xbe101c31	-0.14073254
75	0x3be5f55e	0.0070177754
76	0x3e3321e4	0.17493397
77	0xbe6cc136	-0.23120579
78	0xbd856e76	-0.065152094
79	0x3f1fbea0	0.62400246
80	0x3f062dea	0.5241381
81	0xbd2bc7b6	-0.041938506
82	0xbf0f5022	-0.5598165
83	0x3edbf0be	0.4295711
84	0x3e1e746f	0.15474103
85	0x3e05a6cd	0.1305191
86	0xbebdf97c	-0.37104404
87	0x3edac801	0.42730716
88	0x3d4f0e3f	0.050550696
89	0x3d25ab4e	0.040446572
90	0xbe40ba47	-0.18821059
91	0xbea35a92	-0.31905037
92	0xbd879681	-0.06620503
93	0x3e2918f6	0.16513428
94	0x3e5c5130	0.21515346
95	0x3e8b18e0	0.27167416
96	0x3c2d499a	0.01057663
97	0x3e026bcc	0.12736434
98	0x3df40d10	0.11916554
99	0x3d8eb250	0.06967604
100	0x3c42e375	0.01189505
101	0x3ef990a5	0.48743168
102	0xbd909530	-0.07059705
103	0xbe3a1fcf	-0.18176197
104	0xbe0734af	-0.13203691
105	0xbdec37d6	-0.11534087
106	0x3e66d5db	0.22542517
107	0x3daf22f6	0.0855159
108	0x3ea89149	0.32923344
109	0xbf57e8e4	-0.8433974
110	0xbf4b5d0d	-0.7943886
111	0xbe6c786b	-0.23092811
112	0x3e78ef0f	0.24309944
113	0xbec5dd0b	-0.38645205
114	0x3f15fe95	0.58591586
115	0x3e2b3acb	0.16721646
116	0xbe308a62	-0.17240289
117	0xbe993f93	-0.29931316
118	0xbe7ea958	-0.24869287
119	0xbebd4490	-0.36966372
120	0xbe0a0758	-0.13479364
121	0xbe80adf7	-0.25132725
122	0xbe89b5d6	-0.26896542
123	0xbdffccbc	-0.12490222
124	0xbe112b5d	-0.14176698
125	0xbe744447	-0.2385417
126	0x3ed4de6a	0.41575938
127	0x3e02dafe	0.12778851
128	0x3e0544e6	0.13014564
129	0x3d8d3ee9	0.06896765
130	0xbe2469fb	-0.16056053
131	0xbeca849a	-0.39554292
132	0xbe5ae802	-0.21377566
133	0xbe884430	-0.26614523
134	0xbe7bab23	-0.24577002
135	0x3dc7ff04	0.09765437
136	0x3eddc2ad	0.43312588
137	0xbe362a46	-0.17789564
138	0x3e27adc9	0.16374888
139	0xbee4fe57	-0.44725296
140	0x3df7c997	0.12098997
141	0x3e7c86f7	0.2466086
142	0xbe1f0875	-0.1553057
143	0xbff82b75	-1.9388262
144	0x400dcf29	2.215769
145	0x40897d39	4.296536
146	0x4096cf1c	4.712782
147	0xbe8146a5	-0.2524921
148	0xbe045315	-0.12922318
149	0xbd523768	-0.05132237
150	0x3d7d960d	0.061910678
151	0x3d456c8a	0.048199214
152	0x3e0257d2	0.12728813
153	0xbcfed2c9	-0.03110637
154	0xbd873d24	-0.066034585
155	0xbc98ae39	-0.018637763
156	0x3da5ba2e	0.080921516
157	0x3c2e56d8	0.010640822
158	0x3db4525f	0.088047735
159	0xbe88d55f	-0.2672529
160	0xbf083d44	-0.53218484
161	0xbd70b717	-0.058768358
162	0x3da762b9	0.08173127
163	0xbdc62c71	-0.09676445
164	0x3e80c8b7	0.25153133
165	0xbde97f86	-0.11401276
166	0xbe571fbc	-0.210082
167	0xbe098487	-0.13429461
168	0xbca91cca	-0.02064361
169	0xbd21e5f8	-0.039525956
170	0xbdeee2e1	-0.116643675
171	0x3e55db94	0.20884544
172	0x3df3124b	0.118687235
173	0x3c2ae2b3	0.010430026
174	0x3d4045d5	0.046941597
175	0x3d561363	0.052264582
176	0xbd4cf63a	-0.050039507
177	0x3e04f22f	0.1298301
178	0xbe3ba4db	-0.18324606
179	0x3e0a261c	0.134911
180	0x400f5e9f	2.2401502
181	0xc105da39	-8.365777
182	0x3f871576	1.0553424
183	0xbe8ce924	-0.27521622
184	0x3eb7428a	0.35792953
185	0xbe2a2c4b	-0.16618459
186	0xbd443031	-0.04789752
187	0xbbbfead6	-0.005856852
188	0xbeb5fa10	-0.35542345
189	0xbd9cd2c8	-0.07657391
190	0xbb7811c9	-0.0037852398
191	0x3d463c54	0.048397377
192	0x3d5b15ab	0.05348746
193	0xbd2f2f7b	-0.04276989
194	0xbea20bee	-0.31649727
195	0x3eea8b11	0.45809224
196	0xbec74f59	-0.38927725
197	0xbf8043de	-1.0020711
198	0xbdddc1b0	-0.108279586
199	0xbc53817f	-0.012909292
200	0x3de670aa	0.11251958
201	0x3bd4433c	0.0064777415
202	0x3be03cd3	0.0068431883
203	0x3e9b89aa	0.30378467
204	0xbc3e0a13	-0.011599082
205	0xbcc8dcc5	-0.024519334
206	0xbcb0f861	-0.021602811
207	0x3e25ffdc	0.16210884
208	0xbe435344	-0.19074732
209	0x3eb15edc	0.34642684
210	0x3c0181e8	0.007904507
211	0x3d8db007	0.0691834
212	0xbd44d7ce	-0.04805737
213	0xbe1bf7e6	-0.15231284
214	0x3d724bd4	0.059154347
215	0x3ea88885	0.32916656
216	0x3cb3c788	0.02194573
217	0xbb441e00	-0.0029925108
218	0x3d972e8a	0.073819235
219	0x3e9ecaa7	0.31013986
220	0x3e8b972d	0.27263775
221	0xbbb6554f	-0.005564369
222	0xbe144653	-0.14479952
223	0x3bf31749	0.0074185473
224	0xbf8b3a33	-1.0877136
225	0xbe5fe742	-0.21865562
226	0x3aac169e	0.0013129299
227	0x3dae3069	0.08505327
228	0x3efdab32	0.49544674
229	0x3f3066ca	0.68906844
230	0x3f0ad449	0.5423017
231	0x3e017c19	0.12644996
232	0xbd233d95	-0.03985365
233	0xbcfe5ee7	-0.031051112
234	0x3c8ec2b9	0.017426835
235	0xbdd955c9	-0.10612065
236	0xbda846f4	-0.08216658
237	0x3e2dce7e	0.16973302
238	0xbde4a877	-0.111649446
239	0x3e72a731	0.23696591
240	0xbd9a7be2	-0.0754316
241	0xbe9cc60f	-0.30619857
242	0x3e9e052f	0.3086333
243	0xbf81edc1	-1.0150682
244	0xbf1edf90	-0.6205988
245	0x3d5c9bc4	0.053859487
246	0x3befc169	0.0073167575
247	0x3cb575f1	0.022150965
248	0xbd90d055	-0.07070986
249	0x3e8d2750	0.27569056
250	0x3c9e78cc	0.01934471
251	0x3ca4cc19	0.020116853
252	0xbc6263fd	-0.013817784
253	0xbec298ce	-0.38007206
254	0x3e8a4d9a	0.2701233
255	0x3c4b3208	0.012402065

architecture.0.bias f4 [64]
0	0x3f0443e6	0.51666105
1	0x3f1fe5b7	0.6245989
2	0x3edc60c2	0.4304257
3	0x3f18d80a	0.5970465
4	0xbf43b72d	-0.7645138
5	0xbf0869a1	-0.53286177
6	0x3b387fc9	0.0028152338
7	0xbe62138b	-0.22077768
8	0xbf245b89	-0.6420217
9	0x3ebfb044	0.37439167
10	0x3e941ce4	0.28928292
11	0x3ed9621e	0.4245767
12	0xbf167469	-0.5877138
13	0x3e28815d	0.16455598
14	0xbe890880	-0.26764297
15	0x3f378bf8	0.7169795
16	0xbe8b5ce1	-0.27219298
17	0xbec4ca4c	-0.3843559
18	0xbfc60ffe	-1.547363
19	0xbf18d008	-0.5969243
20	0xbf61566a	-0.8802248
21	0xbca89b65	-0.02058191
22	0xbd11dd47	-0.035611417
23	0xbe5644b1	-0.20924641
24	0xbd6d6d3a	-0.057965495
25	0x3f255b72	0.6459266
26	0xbecfbb7c	-0.40572727
27	0x3f947bc8	1.1600275
28	0xbfb71c94	-1.4305596
29	0xbd84442b	-0.064583145
30	0x3f0d0197	0.5508055
31	0xbfe96f32	-1.8237059
32	0x3bf6a6b6	0.0075271977
33	0x3e8c369f	0.27385423
34	0xbf953f21	-1.165989
35	0xbfaef29f	-1.3667792
36	0xbe1253d1	-0.14289786
37	0x3f2cb512	0.6746379
38	0x3ec3a919	0.3821495
39	0xbf673a53	-0.9032337
40	0xbf2a102e	-0.6643094
41	0x3f4d0595	0.8008664
42	0xbfb306ee	-1.398649
43	0x3e58e50c	0.21181124
44	0x3d160608	0.036626846
45	0xbcc264b1	-0.023729654
46	0xbf2f9cf4	-0.68598866
47	0xbe962a48	-0.29329133
48	0x3db7e226	0.08978681
49	0x3f0c91a7	0.5490975
50	0x3ea97abd	0.33101454
51	0xbfad8f5d	-1.3559376
52	0xbee731a0	-0.45155048
53	0xbfd97163	-1.6987728
54	0x3f1f35cb	0.62191457
55	0x3dc8b278	0.09799665
56	0xbfa0ede0	-1.2572594
57	0xbe31f400	-0.17378235
58	0x3ddc9514	0.10770622
59	0x3f07cbd8	0.53045416
60	0xbe86ba77	-0.26314136
61	0x3e22f1f5	0.15912612
62	0x3e40028d	0.18750973
63	0xbe96490a	-0.293526

architecture.2.weight f4 [64, 64]
0	0xbcbd4ebc	-0.023108833
1	0xbae4db42	-0.0017460363
2	0x3ab82d4b	0.0014051584
3	0x3c9c28d0	0.01906243
4	0x3dab09ed	0.083515026
5	0x3d52fd26	0.051510952
6	0x3b4964cc	0.0030730246
7	0x3c49aacb	0.012308787
8	0xbd34c547	-0.04413345
9	0x3cd1c793	0.02560786
10	0x3bc69ac1	0.0060609286
11	0xbb33a3e0	-0.002741091
12	0x3bfdf16e	0.007749728
13	0xbcb99dfe	-0.022658344
14	0xbc9b30b9	-0.018944131
15	0x3e0eae2c	0.13933629
16	0xbc13cd96	-0.0090211835
17	0x3c1cd4a5	0.009572183
18	0x3e66b255	0.22528966
19	0x3abc7b39	0.0014379985
20	0x3d847066	0.06466751
21	0xbd10dbf8	-0.03536603
22	0x3e1a1ddd	0.15050454
23	0x3ca175ce	0.019709494
24	0x3c9345fb	0.017977705
25	0xbe8554bb	-0.26041207
26	0x3c2c4524	0.010514531
27	0x3d356f71	0.044295732
28	0xbed504a3	-0.416051
29	0x3c67cccd	0.014147949
30	0x3cf4a41f	0.029863415
31	0x3e54ffc6	0.20800695
32	0x3d8e9f78	0.0696401
33	0x3c87c9e2	0.016575757
34	0x3d99ed9f	0.07516026
35	0x3e250f66	0.16119155
36	0x3c7fed45	0.015620534
37	0xbd1f2b34	-0.03885956
38	0x3d05e4e1	0.03268898
39	0x3dce302a	0.1006778
40	0x3c7a4df1	0.015277372
41	0x3c6aa5f4	0.014321793
42	0xbe102832	-0.14077833
43	0x3f0cd121	0.55006605
44	0xbc714211	-0.014725224
45	0xbf0c7f4e	-0.5488175
46	0x3b4b6376	0.0031034625
47	0xbd50d48f	-0.05098396
48	0xbd7ad966	-0.061242484
49	0xbc554e62	-0.013019176
50	0xbbe494b8	-0.0069757365
51	0xbd08bd10	-0.03338343
52	0x3f0ce491	0.55036265
53	0x3e0c4d12	0.13701275
54	0x3c3186a5	0.010835324
55	0x3b0f4f11	0.0021867196
56	0xbdeeb52c	-0.116556495
57	0xbd5cfe33	-0.05395336
58	0xbec0581d	-0.37567225
59	0x3d89bdc3	0.06725647
60	0x3c9f940c	0.019479774
61	0x3d055718	0.032553762
62	0xbc33e960	-0.010980934
63	0x3bd9510b	0.0066319755
64	0xbecf581f	-0.4049692
65	0xbfb626e9	-1.4230624
66	0x3ed45080	0.41467667
67	0xbe8f676c	-0.28008592
68	0xbefa035a	-0.48830682
69	0x3f6e9032	0.93188775
70	0x3e243da5	0.1603914
71	0xbe3cb7c7	-0.1842948
72	0xbec3e0b7	-0.3825738
73	0x3f8d2efc	1.1029963
74	0xbf372b49	-0.7155042
75	0xbf308702	-0.68956006
76	0x3e90fb8b	0.28316912
77	0xbf2f1aac	-0.68400073
78	0x3ecca127	0.399667
79	0x3f1240f8	0.57130384
80	0xbf0afcae	-0.5429181
81	0xbe9c5786	-0.30535525
82	0x3f0b2f8f	0.54369444
83	0xbea8c80a	-0.32965118
84	0x3e342021	0.17590381
85	0x3e8bf991	0.27338842
86	0x3e4704ce	0.19435427
87	0xbe07d99a	-0.13266602
88	0xbf26fd64	-0.65230393
89	0xbf34f10c	-0.7068031
90	0x3e4e1832	0.20126417
91	0xbf413bda	-0.7548195
92	0x3d8bff67	0.068358235
93	0xbe5330d1	-0.2062409
94	0xbf1e26b7	-0.61777824
95	0x3e599316	0.21247515
96	0x3c9dbf5c	0.019256286
97	0x3eabde21	0.33567908
98	0x3ef81e57	0.48460647
99	0x3e89756f	0.26847407
100	0xbf093b64	-0.5360625
101	0x3ea207f3	0.3164669
102	0xbf823939	-1.0173713
103	0x3fc0a435	1.5050112
104	0x3ce21bde	0.027601179
105	0xbdc830e1	-0.09774948
106	0xbcbe2741	-0.023212077
107	0x3d23c9d7	0.03998741
108	0xbf38ed6c	-0.7223728
109	0xbf03e42d	-0.51520044
110	0x3eac8dbe	0.3370189
111	0x3e900afd	0.28133383
112	0x3e64af7c	0.22332567
113	0xbd865b3f	-0.065603726
114	0xbdaaf596	-0.08347623
115	0x3ea72550	0.32645655
116	0x3e82a7b9	0.25518587
117	0xbd12a402	-0.03580094
118	0xbe81fac5	-0.25386634
119	0x3da42296	0.08014409
120	0x3e206d30	0.15666652
121	0xbe272c5f	-0.1632552
122	0xbc8b2ec0	-0.016990066
123	0xbedf19ff	-0.4357452
124	0xbf297a27	-0.66202015
125	0xbf3cd968	-0.73769236
126	0x3c3964a2	0.011315497
127	0x3d524f4d	0.05134516
128	0xbf010971	-0.5040503
129	0x3ea4307a	0.32068235
130	0xbdffb9d5	-0.124866165
131	0x3def875a	0.11695738
132	0x3f89d336	1.0767581
133	0xbed19f8d	-0.4094204
134	0xbe6ec89c	-0.23318714
135	0x3e461265	0.19342954
136	0x3f56df19	0.8393417
137	0x3ef6247a	0.48074704
138	0x3f1a0c15	0.60174686
139	0x3f660994	0.89858365
140	0x3cc46198	0.023972318
141	0x3f72a8b6	0.9478868
142	0xbeb9f1ae	-0.363172
143	0x3e64ab1b	0.22330897
144	0x3edcf335	0.43154302
145	0x3d2a13a4	0.041522637
146	0xbe93c89c	-0.2886399
147	0x3de282d0	0.11060107
148	0x3f075df4	0.52877736
149	0x3f5db489	0.866036
150	0x3f4645d1	0.7745028
151	0x3f114c45	0.56757003
152	0xbed9baf3	-0.42525443
153	0x3f6da798	0.9283385
154	0xbf23ab16	-0.6393293
155	0x3e2cf355	0.16889699
156	0xbedce28f	-0.431416
157	0x3eb37b2e	0.35054916
158	0x3c6ef980	0.014585853
159	0x3ea8efc1	0.32995418
160	0x3f363fd0	0.7119112
161	0xbe001b5a	-0.12510434
162	0xbf0dd634	-0.55404973
163	0xbf1ddcee	-0.61665237
164	0x3e79e065	0.24402006
165	0x3dd1fb46	0.10253005
166	0x3e1bba84	0.15207869
167	0xbef9ec1c	-0.4881295
168	0xbf7cc38d	-0.98735887
169	0x3ec984a0	0.39358997
170	0x3e478063	0.1948257
171	0x3c33088d	0.010927332
172	0x3ece5633	0.4030014
173	0xbe1530b3	-0.14569359
174	0x3da71a39	0.081592984
175	0x3f1031df	0.563261
176	0x3daf212b	0.08551248
177	0xbf8090c3	-1.0044178
178	0x3de678b1	0.11253489
179	0x3e6f3376	0.23359475
180	0xbd0894e8	-0.033345133
181	0xbe4de970	-0.2010858
182	0xbe87049c	-0.26370704
183	0xbd5c952b	-0.053853195
184	0xbe9df7ae	-0.30853027
185	0xbe75fd0d	-0.24022312
186	0x3d5f7925	0.05455889
187	0xbf33456f	-0.7002782
188	0x3d85e722	0.06538226
189	0x3f0e5a65	0.5560668
190	0xbf659028	-0.8967309
191	0x3ee44908	0.44586968
192	0xbebdfd45	-0.37107292
193	0xbf8e13ec	-1.109983
194	0xbec85b8a	-0.3913234
195	0xbedd8b9c	-0.43270576
196	0x3f3e0910	0.7423258
197	0xbe2f1663	-0.17098384
198	0xbe26580d	-0.16244526
199	0x3ddf8970	0.10914886
200	0x3dd6331e	0.104589686
201	0x3eb34668	0.35014653
202	0xbc7b3511	-0.015332476
203	0xbe4f64bd	-0.20253272
204	0xbc44ae0b	-0.012004386
205	0x3f001548	0.5003247
206	0xbeabc644	-0.33549702
207	0x3d1e2d00	0.038617134
208	0xbe1397d1	-0.14413382
209	0x400118f1	2.0171473
210	0x3e900143	0.28125963
211	0x3ccf3c61	0.025297346
212	0xbea9e679	-0.3318365
213	0xbf06cfb7	-0.526607
214	0x3f6b15f6	0.91830385
215	0x3fad6523	1.354649
216	0x3f29c21e	0.66311824
217	0x3d763ce0	0.06011665
218	0x3e3d2b8f	0.18473648
219	0x3e097346	0.1342288
220	0x3e134747	0.14382659
221	0x3c0c2c66	0.008555507
222	0xbe91de17	-0.28489754
223	0x3e2938b3	0.16525535
224	0x3e519108	0.20465481
225	0xbeb16321	-0.34645942
226	0xbe28c593	-0.16481619
227	0xbd6e7567	-0.058217432
228	0xbd735e30	-0.059415996
229	0xbf00264a	-0.50058424
230	0xbf369957	-0.7132773
231	0xbf4f04b8	-0.80866575
232	0x3ed2601a	0.41088945
233	0x3e70d0e6	0.23517188
234	0x3b9f09bd	0.004853456
235	0xbd8d0d1f	-0.06887268
236	0xbf01ef4c	-0.50755763
237	0x3de41f34	0.11138764
238	0x3f2226e1	0.63340575
239	0x3f8ffd72	1.124922
240	0xbd35e83a	-0.04441092
241	0xbea34d40	-0.31894875
242	0xbe8789d3	-0.2647234
243	0x3d7fe133	0.062470626
244	0xbf2743e7	-0.65337986
245	0xbe95cefa	-0.29259473
246	0x3e6c270f	0.23061775
247	0x3d0073bf	0.031360384
248	0xbf0cb330	-0.5496092
249	0xbdb8c39d	-0.09021685
250	0x3e3244e6	0.17409095
251	0x3eb7ba9b	0.35884556
252	0xbe90067f	-0.28129956
253	0x3e36053a	0.17775431
254	0xbef4b306	-0.47792834
255	0x3f02f3d5	0.5115331

architecture.2.bias f4 [64]
0	0x3d05fd99	0.032712553
1	0xbf883480	-1.0641022
2	0x3ca0186b	0.019542893
3	0x3d7d550d	0.06184869
4	0xbf11aea9	-0.56907135
5	0x3f4cc537	0.79988426
6	0x3e92766a	0.28605968
7	0x3eaf61da	0.34254342
8	0x3ea77b55	0.32711282
9	0x3e973b4f	0.29537436
10	0x3f651284	0.8948138
11	0xbfcc7624	-1.5973554
12	0x3edd3661	0.4320555
13	0x3f2e41a2	0.680689
14	0xbe84bc89	-0.2592509
15	0x3f8796af	1.059286
16	0x3ec4cf2f	0.3843932
17	0xbe9ac922	-0.30231577
18	0x3d2eac51	0.042644802
19	0xbe06b482	-0.13154796
20	0x3f17dd58	0.5932212
21	0x3f198bf7	0.59979194
22	0xbd538bcd	-0.051646996
23	0x3f4568b8	0.77112913
24	0xbf3dae1c	-0.74093795
25	0x3efc8d42	0.4932652
26	0x3e2cbe8d	0.16869564
27	0x400072fb	2.0070179
28	0x3ef06f58	0.4695995
29	0xbe9120bd	-0.2834529
30	0x3f32fcb9	0.69916874
31	0xbf4ba570	-0.7954931
32	0x3d61369f	0.05498373
33	0xbe4ca27e	-0.19983861
34	0xbdd111d1	-0.10208476
35	0x3e7ad90f	0.24496864
36	0x3e4ae8fe	0.19815442
37	0x3ecd0816	0.40045232
38	0xbe9c2874	-0.30499613
39	0xbdc6ec9c	-0.097130984
40	0xbec5ace1	-0.3860846
41	0xbef21f18	-0.47289348
42	0xbf401ae2	-0.7504102
43	0xbf6c859f	-0.9239139
44	0xbf93225c	-1.1494861
45	0x3f6957ec	0.91149783
46	0xbeceed82	-0.4041558
47	0x3e674f14	0.2258876
48	0xbf8cfdac	-1.1014915
49	0xbe502d1d	-0.2032971
50	0xbf846aec	-1.034513
51	0xbe9bb214	-0.304093
52	0xbee6ee5b	-0.45103726
53	0xbf210a3b	-0.62906235
54	0xbef56b33	-0.4793335
55	0xbf160455	-0.5860036
56	0x3cf1cba3	0.029516047
57	0xbe6bbbb3	-0.2302082
58	0xbf367196	-0.7126707
59	0xbf62c47e	-0.88581073
60	0xbf35fdc7	-0.7109036
61	0x3f0cbb13	0.5497295
62	0xbf323586	-0.6961292
63	0x3f18205b	0.5942437

architecture.4.weight f4 [12, 64]
0	0xbd389128	-0.045060307
1	0xbb86504b	-0.004098927
2	0x3b79eef5	0.0038136814
3	0xbb8ca450	-0.0042920485
4	0x3b0f2039	0.0021839275
5	0xba68d383	-0.00088816154
6	0xbbeed849	-0.007288967
7	0xbb693907	-0.003558697
8	0x39fae07b	0.00047850967
9	0xba4a521d	-0.00077179243
10	0xbbe82146	-0.0070840446
11	0xbc03b6b5	-0.008039166
12	0x3b8f0b4a	0.0043653594
13	0xbc351126	-0.011051452
14	0xbb6b1b0d	-0.0035874278
15	0xbc2096d2	-0.009801583
16	0xba8fe79b	-0.0010979058
17	0xbb21da75	-0.002469686
18	0x3b846124	0.0040399004
19	0xbab09a11	-0.001347365
20	0x3bfd975f	0.007738992
21	0xb95cd2d6	-0.00021059377
22	0x3b70780d	0.003669265
23	0xbcd25ce7	-0.025679065
24	0x3bb03750	0.0053776875
25	0xbaa93ece	-0.0012912394
26	0x3b2358e6	0.0024924814
27	0xbc0527b3	-0.008127141
28	0xb9dfdc27	-0.000426979
29	0x3b53d609	0.003232362
30	0xbd10c029	-0.03533951
31	0xba3daf36	-0.00072358863
32	0xba9faade	-0.001218166
33	0xba91e488	-0.001113073
34	0xbe486a9b	-0.19571917
35	0x39bcfb07	0.00036045184
36	0x3b099b79	0.002099721
37	0xbb4afcbd	-0.0030973398
38	0x3aabe308	0.0013113925
39	0x3dcdf732	0.100569144
40	0x3bb4108a	0.0054951357
41	0xba9fbf5e	-0.0012187769
42	0xbbe1b933	-0.0068885325
43	0xbaabc614	-0.0013105297
44	0xbbb90742	-0.005646617
45	0xbb4f62f8	-0.0031644683
46	0x3abdc6bb	0.0014478782
47	0xbb242849	-0.0025048426
48	0x3c0b203f	0.008491575
49	0x3b4014ce	0.0029309276
50	0x3ada88c8	0.0016672844
51	0x3b6adbe9	0.0035836643
52	0xbb1f8c5a	-0.002434513
53	0x3b905308	0.0044044293
54	0xbb1c0453	-0.0023806288
55	0xbad519ca	-0.0016258296
56	0x3b6bc266	0.0035974025
57	0x3e12c5e0	0.14333296
58	0x39939658	0.0002815004
59	0xbc633192	-0.013866799
60	0xbc9422cb	-0.018082997
61	0x3b40668f	0.0029358005
62	0x3b09fcc3	0.0021055199
63	0xbbd66a97	-0.006543468
64	0xbe01b534	-0.1266678
65	0xb98fa715	-0.0002739957
66	0x375abc18	1.3037607e-05
67	0x39f136d2	0.00046007946
68	0x3bf91996	0.007601927
69	0x3a9bb866	0.0011880517
70	0xbbeb989d	-0.007189824
71	0x3b4059b0	0.0029350333
72	0x3a65fe84	0.00087735825
73	0xba0096f7	-0.0004905308
74	0xbdacc8a9	-0.084367104
75	0xbc133dc2	-0.008986892
76	0x3c5fd360	0.013661236
77	0x3b32ab58	0.0027262773
78	0xbb5c47c7	-0.0033612119
79	0xbc9a52f7	-0.018838389
80	0x3a656de4	0.0008752032
81	0xbb72860d	-0.003700617
82	0xbbbb9a1d	-0.005725159
83	0xba16d6d6	-0.0005754059
84	0x3da5e8b3	0.081010245
85	0xba525d59	-0.0008024774
86	0x3b5ee61f	0.0034011675
87	0x3c1b5869	0.009481528
88	0x3be4b0a0	0.006979063
89	0xbb694c47	-0.0035598443
90	0xbac43fc6	-0.0014972619
91	0x3cbc66ce	0.02299824
92	0x3a89ed34	0.0010522963
93	0xbaec7215	-0.001803937
94	0x3c9b668e	0.0189698
95	0x3b968748	0.0045937635
96	0xbae310b4	-0.0017323704
97	0x3be05701	0.006846309
98	0x3c98a49e	0.018633183
99	0xbb111a71	-0.0022141004
100	0x3b84b0ac	0.0040493812
101	0x3ab0e751	0.0013496672
102	0x3b3093d6	0.0026943586
103	0xbe296c9b	-0.16545336
104	0x3b8ba9bb	0.004262177
105	0x3beb82bf	0.007187217
106	0xba3c032b	-0.0007172103
107	0xb958d452	-0.0002067846
108	0x3b8fc86b	0.0043879054
109	0xba95a5de	-0.001141723
110	0x3a98c01c	0.0011653933
111	0x389578f9	7.1274066e-05
112	0x3c1113b1	0.008854792
113	0x3a497d85	0.00076862454
114	0xbca2e1d3	-0.019883072
115	0x3b092fa5	0.002093294
116	0xbba83849	-0.005133663
117	0xbba7b6d2	-0.0051182294
118	0x3a46d1a3	0.0007584339
119	0xbc525c73	-0.012839424
120	0x3b6a7b47	0.0035779045
121	0x3d578340	0.052615404
122	0x3af1c5c8	0.0018445784
123	0x3bb5fe1d	0.0055539743
124	0x3c2a8f04	0.010410074
125	0xbcd2f112	-0.025749717
126	0x3b2c169c	0.0026258593
127	0xbb2f42c4	-0.0026742676
128	0x3e1ec78b	0.15505807
129	0x3a9df098	0.0012049852
130	0x3a6e8838	0.00090992777
131	0x3b032b68	0.0020014886
132	0xbb558343	-0.0032579459
133	0x382775ec	3.9925726e-05
134	0x3bf1ac68	0.0073752888
135	0x3bb026b0	0.0053757057
136	0xbafa8784	-0.0019113873
137	0x3ac69343	0.0015150089
138	0x3d7762d5	0.060396988
139	0xbc6c8824	-0.014436755
140	0xbcc6e9f4	-0.02428148
141	0xbca2b725	-0.01986272
142	0xbab9e809	-0.0014183532
143	0xbb97a1cd	-0.0046274425
144	0x39e4d567	0.00043646546
145	0x3b8d04cb	0.00430355
146	0xbb9a85e2	-0.004715667
147	0x3ae469f3	0.0017426595
148	0x3c324f06	0.0108830985
149	0x39aaa83a	0.00032550265
150	0xba38deb2	-0.0007052227
151	0x3bd2bc83	0.0064311638
152	0x3c090f11	0.0083654085
153	0xbbbc1555	-0.0057398477
154	0xba3da828	-0.0007234835
155	0x3a952d3a	0.0011381276
156	0x3ad309cf	0.0016100946
157	0xbac76350	-0.0015212093
158	0x3d5ca082	0.05386401
159	0xbb443126	-0.0029936521
160	0xbbaa8e04	-0.005204918
161	0xbb41b107	-0.002955498
162	0xbd2cf726	-0.042227887
163	0x39532e8e	0.00020139871
164	0xbb56c7d1	-0.0032772908
165	0xbae9d488	-0.0017839829
166	0xbba2a3bd	-0.004963367
167	0xbe0fe673	-0.14052753
168	0xbb2a964c	-0.0026029525
169	0x3c20aea8	0.009807266
170	0x3979484b	0.00023773422
171	0x3c0a875e	0.008455126
172	0xbbc12ca5	-0.0058952146
173	0x3b8bfab2	0.0042718286
174	0xba976e83	-0.0011553321
175	0x3b9a9391	0.0047172983
176	0xbc8a2334	-0.01686249
177	0x3b824166	0.0039750813
178	0xb8cfff5f	-9.918096e-05
179	0x3bee9e64	0.007282065
180	0x3b18e590	0.002333019
181	0x3b81362a	0.0039432244
182	0xbba67376	-0.005079682
183	0x3b42a9f0	0.0029703341
184	0x3b8a3d8f	0.004218764
185	0x3dba36ae	0.090924606
186	0xbc6599c3	-0.01401371
187	0xbc51c5e0	-0.012803525
188	0x3c8e79b1	0.017392011
189	0x3cc5ba46	0.024136674
190	0xbb51ae7e	-0.0031994875
191	0x3b9bfd46	0.004760417
192	0xbc2bf7a9	-0.0104960585
193	0xbebc9188	-0.36829782
194	0xbe521ead	-0.20519514
195	0xbe4ad95f	-0.19809483
196	0xbd50458b	-0.05084757
197	0x3e58b0d6	0.21161208
198	0x3ebea494	0.37234938
199	0x3f039ea6	0.51413953
200	0xbdf0a056	-0.11749332
201	0x3f0e4da1	0.555872
202	0x3db84599	0.0899765
203	0xbf34cb50	-0.7062273
204	0xbb2bc249	-0.0026208332
205	0x3b8d7097	0.0043164003
206	0x3e47409d	0.19458242
207	0x3e851e2b	0.2599958
208	0x3e9782b7	0.29591915
209	0xbe5ad29b	-0.21369402
210	0xbdacf4fd	-0.08445165
211	0xbed7432a	-0.4204343
212	0x3d75199b	0.059838872
213	0x3ee22455	0.44168344
214	0xbd81842d	-0.06324039
215	0x3e4bcd5f	0.19902562
216	0xbed17278	-0.40907645
217	0xbae4be45	-0.0017451724
218	0xbe10808a	-0.14111534
219	0x3f13cc68	0.57733774
220	0x3eb19dec	0.34690797
221	0xbe436a7d	-0.19083591
222	0x3de80d68	0.11330682
223	0xbed42e19	-0.4144142
224	0x3e380e12	0.17974117
225	0xbe2e3526	-0.17012462
226	0x3dc53177	0.09628575
227	0x3eae53b9	0.3404825
228	0x3e36d324	0.17853981
229	0x3cabf8a1	0.020992579
230	0xbbd612ea	-0.0065330165
231	0x3d5d09a6	0.05396428
232	0xbe729938	-0.23691261
233	0xbcde8c70	-0.027166575
234	0xbe87bd6a	-0.265117
235	0xbe8433c2	-0.25820738
236	0xbe670cce	-0.22563478
237	0x3e068185	0.13135345
238	0xbde8dd3e	-0.113703236
239	0x3e6abe34	0.22924119
240	0xbf1bfed4	-0.6093571
241	0xbee2d8df	-0.44306085
242	0xbea619ab	-0.32441458
243	0xbd9ad28b	-0.07559689
244	0xbe841e68	-0.25804448
245	0xbdad2b9d	-0.08455584
246	0xbe1b5028	-0.15167296
247	0xbd8b0605	-0.067882575
248	0xbe863427	-0.26211664
249	0xbbfca557	-0.0077101397
250	0xbe487a7d	-0.19577976
251	0xbd827ed0	-0.06371844
252	0xbd961cce	-0.07329713
253	0x3e2614fd	0.16218944
254	0xbc91213e	-0.017716046
255	0x3dc17d7d	0.09447763

architecture.4.bias f4 [12]
0	0x3cb53767	0.022121144
1	0x3b313756	0.002704104
2	0x3da29397	0.07938307
3	0x3fa23a0b	1.2673963
4	0x3bf21003	0.0073871627
5	0x3abd2f2d	0.0014433615
6	0xbe8a46ec	-0.27007234
7	0x3f81449d	1.0099064
8	0xbe0f8e38	-0.14019096
9	0xbccb0a5c	-0.024785213
10	0x3db7398d	0.08946524
11	0xbe64efb2	-0.22357062

std f4 [12]
0	0x3e4ccccd	0.2
1	0x3e4ccccd	0.2
2	0x3e4ccccd	0.2
3	0x3e4ccccd	0.2
4	0x3e4df267	0.20112
5	0x3e4ccccd	0.2
6	0x3e4ccccd	0.2
7	0x3e4ccccd	0.2
8	0x3e4ccccd	0.2
9	0x3e4ccccd	0.2
10	0x3e4ccccd	0.2
11	0x3e4ccccd	0.2

architecture.0.weight f4 [64, 36]
0	0xbeb7d244	-0.35902607
1	0x3dfeb50c	0.12436876
2	0x3ea5b929	0.32367828
3	0xbd98d3a5	-0.07462243
4	0x3d3e4ca6	0.046459816
5	0x3e2a5954	0.16635638
6	0xbedbd44d	-0.4293541
7	0xbed5a4ff	-0.41727445
8	0x3df99565	0.12186698
9	0xbf150eec	-0.58225894
10	0xbf56f1d1	-0.8396273
11	0x3dcec70e	0.100965604
12	0x3ef6599d	0.48115245
13	0x3f04e633	0.51913756
14	0x3f4dcb96	0.8038877
15	0xbbcd4423	-0.006264226
16	0xbc02fbe2	-0.007994624
17	0x3e400710	0.18752694
18	0xba3adf00	-0.00071285665
19	0xbb8d1717	-0.004305731
20	0x3c9ab8a5	0.018886873
21	0x3eca8191	0.39551976
22	0x3ed95579	0.42448023
23	0xbe2f555d	-0.17122407
24	0x3f1d3cce	0.61420906
25	0x3f5e8590	0.8692255
26	0xbd97e6fb	-0.07417103
27	0xbeefaa08	-0.4680941
28	0xbf147705	-0.5799411
29	0xbf8265e9	-1.018735
30	0x3c8d8e47	0.017279757
31	0x3b613529	0.0034363961
32	0x3b4ead99	0.0031536578
33	0xbb70c96d	-0.0036741153
34	0xbbd0df1c	-0.006374253
35	0xbb167f02	-0.0022963886
36	0xbb84b6c6	-0.0040501086
37	0x3cdd2d9a	0.026999284
38	0xbcbe8b34	-0.023259737
39	0xbd1da3e3	-0.038486373
40	0x3d57588b	0.052574676
41	0xbde0ddd3	-0.109798096
42	0xbd2135c7	-0.039357927
43	0xbd8c1131	-0.068392165
44	0xbb997477	-0.004683073
45	0xbddaccbd	-0.10683582
46	0x3e4b6546	0.19862852
47	0x3e868923	0.26276502
48	0x3c940783	0.018069988
49	0xbc96ecf3	-0.018423533
50	0xbe1846bd	-0.14870735
51	0xbd2d49da	-0.04230676
52	0x3b842be7	0.004033554
53	0x3da7af40	0.08187723
54	0x3d676387	0.0564914
55	0x3c948651	0.018130453
56	0xbd1d88a6	-0.038460396
57	0x3cf0af31	0.029380413
58	0x3cf268e9	0.02959104
59	0x3e4f5ff1	0.20251442
60	0xbd836e29	-0.06417496
61	0xbdc94e6a	-0.098294094
62	0x3dfd08d8	0.123552024
63	0x3df063f3	0.11737814
64	0x3e06ce2f	0.1316459
65	0xbdc592bb	-0.09647127
66	0x3cfbf74a	0.030757565
67	0x3ca2e0d8	0.019882604
68	0xbbb2db55	-0.0054582753
69	0xbc4bf47a	-0.0124484245
70	0xbcb5ca54	-0.022191204
71	0x3c962c6d	0.01833173
72	0xbcdf448a	-0.027254362
73	0xbe6b6ac4	-0.22989947
74	0xbd2225a4	-0.03958668
75	0x3c96d56f	0.01841232
76	0xbe4890a6	-0.19586429
77	0xbc2064cd	-0.009789658
78	0xbba38df2	-0.0049912864
79	0x3e74ea88	0.23917592
80	0x3dead8d5	0.11467139
81	0x3ee4528f	0.44594237
82	0xbea7512e	-0.32679123
83	0xbe2d741d	-0.16938825
84	0xbeb38356	-0.3506114
85	0xbcd2b447	-0.025720729
86	0x3d926752	0.07148613
87	0x3d17b1a3	0.037034642
88	0xbd28b3cf	-0.041187104
89	0x3d92fe54	0.071774155
90	0xbc726236	-0.014793923
91	0x3b8846f0	0.004158847
92	0xbcd7f4f0	-0.026361912
93	0x3c05f053	0.008174974
94	0xbe888155	-0.26661173
95	0xbdb25983	-0.08708479
96	0xbed7ad1a	-0.42124254
97	0x3ea744c1	0.32669643
98	0x3e11ed91	0.1425078
99	0x3e9aa179	0.3020132
100	0x3e286c41	0.16447546
101	0xbdf10eab	-0.11770376
102	0x3cdff45a	0.027338196
103	0x3cf9cbbb	0.030492654
104	0xbc73c954	-0.014879543
105	0xba44aeff	-0.0007502883
106	0x3c47f184	0.012203578
107	0xbb8d4762	-0.004311488
108	0x3c99ea10	0.018788368
109	0xbae8dfaa	-0.0017766852
110	0x3c5a64a1	0.013329656
111	0xbd1400f3	-0.036133718
112	0x3dc445a8	0.095835984
113	0x3ae9f6ca	0.0017850038
114	0xbd9d6f6a	-0.07687266
115	0xbd199624	-0.0374967
116	0xbd33f4bf	-0.04393458
117	0x3e148e27	0.14507352
118	0x3e4b1ba7	0.19834767
119	0xbe0e1985	-0.13876922
120	0xbd2740ca	-0.040833272
121	0xbe00a745	-0.12563808
122	0xbcb3aaaa	-0.021931965
123	0xbd36fc60	-0.044674277
124	0xbe5eb323	-0.21748023
125	0x3d92c81e	0.071670756
126	0xbd11e430	-0.035618007
127	0x3c7fba73	0.015608418
128	0xbbed81e8	-0.007248152
129	0x3e0b8b3b	0.13627331
130	0x3d4921e4	0.049104586
131	0x3c422b0f	0.011851086
132	0x3cf8124b	0.03028216
133	0x3e97c8ac	0.29645288
134	0xbdbeb7a3	-0.0931237
135	0x3d607caa	0.05480639
136	0xbdb7ad56	-0.08968608
137	0x3e1ef7c7	0.15524207
138	0x3bdf0ea5	0.0068071657
139	0xbc056cf2	-0.00814365
140	0x3b84ca30	0.004052423
141	0x3c366676	0.011132827
142	0xbb452a0a	-0.0030084872
143	0x3c2901cc	0.01031537
144	0x3c6f91fb	0.014622207
145	0xbc4fafeb	-0.012676219
146	0xbd6be2fe	-0.057589523
147	0x3df53eef	0.11974894
148	0xbd4bacea	-0.04972545
149	0xbd96ea76	-0.073689386
150	0xbe0d6e80	-0.13811684
151	0xbd903916	-0.07042138
152	0xbd076a0f	-0.03306013
153	0xbd355a60	-0.04427564
154	0x3db9b031	0.09066809
155	0x3e32b3d9	0.17451419
156	0xbe5529db	-0.20816748
157	0xbeb9fd68	-0.36326146
158	0xbe9496b1	-0.29021218
159	0x3ca8a04b	0.020584246
160	0x3d03e9eb	0.032205503
161	0xbcc199a8	-0.02363284
162	0xbdadffe3	-0.08496072
163	0x3e143264	0.14472347
164	0x3de3a05f	0.11114573
165	0x3d968096	0.073487446
166	0x3df3baf1	0.119008906
167	0x3ed662c0	0.41872215
168	0x3dd18cba	0.102319196
169	0xbda5b567	-0.080912404
170	0x3e0deec9	0.1386062
171	0x3ead4e15	0.33848634
172	0x3d14c37d	0.036319245
173	0xbe94e9c4	-0.290846
174	0x3bc6fcb7	0.0060726064
175	0xbbdc6813	-0.006726274
176	0xbca60cc6	-0.020269763
177	0xbd082677	-0.033239808
178	0x3d26fda9	0.040769253
179	0xbadba384	-0.0016757105
180	0x3cd4938a	0.025949258
181	0xbbb03609	-0.0053775352
182	0xbb5cd042	-0.0033693467
183	0x3e66c776	0.22537026
184	0x3da122dc	0.07867977
185	0xbd5fc303	-0.054629337
186	0x3deb31f4	0.11484137
187	0xbd865dff	-0.06560897
188	0x3d28f2f8	0.041247338
189	0x3d7d07b2	0.061774917
190	0xbd0cfcfc	-0.034420952
191	0xbe2652d3	-0.16242532
192	0x3d87fd10	0.06640065
193	0x3cb0b0b1	0.021568628
194	0x3daba9f7	0.083820276
195	0x3e1fae0a	0.15593734
196	0x3e26834d	0.16261025
197	0x3e6b7020	0.22991991
198	0x3b5fa58d	0.0034125776
199	0x3c99ad30	0.01875934
200	0xbb948078	-0.004531916
201	0x3d6d7a54	0.05797799
202	0x3c62ee62	0.01385078
203	0xbdea1dc0	-0.114314556
204	0x3d4a03be	0.049319975
205	0x3e02f611	0.1278918
206	0x3dc2c007	0.095092826
207	0xbd0cd6e7	-0.034384634
208	0x3caf3115	0.021385709
209	0xbd5db31f	-0.0541259
210	0x3c12b1cc	0.008953523
211	0xbc18a881	-0.009317518
212	0xbb7b7361	-0.0038368332
213	0xbcceb344	-0.025231965
214	0xbbc9d78d	-0.006159729
215	0xbb02f2a5	-0.0019981053
216	0x3dc50ff8	0.096221864
217	0x3e094f08	0.13409054
218	0xbd27ba98	-0.040949434
219	0x3dbef6d4	0.093244225
220	0x3e4f1edb	0.20226614
221	0xbcfdcb0d	-0.030980611
222	0x3f905f0b	1.1279005
223	0xbe87b889	-0.26507977
224	0x3dff239f	0.12457966
225	0xbead4995	-0.338452
226	0x3e2368e6	0.15957984
227	0x3f1dda27	0.61661
228	0xbeead887	-0.45868322
229	0xbdce4072	-0.10070886
230	0x3eae6339	0.34060076
231	0xbbe9ab29	-0.0071309996
232	0xbc47c1e7	-0.012192226
233	0x3cff621e	0.031174716
234	0xbbbe70ff	-0.00581181
235	0x3b871312	0.0041221464
236	0xbb23c94d	-0.002499181
237	0xbf8eb4f4	-1.1148973
238	0x3e818eed	0.25304356
239	0xbe0581d9	-0.13037814
240	0x3ea7f2d8	0.32802463
241	0xbe7b054d	-0.24513741
242	0xbf1476a9	-0.5799356
243	0x3eb48c70	0.35263395
244	0xbd89ab72	-0.06722154
245	0xbe8a3ff0	-0.27001905
246	0x3c2ae4e7	0.010430551
247	0x3cd6fa07	0.02624227
248	0x3a892504	0.0010463302
249	0xbb803869	-0.0039129746
250	0x3bf20dc4	0.007386895
251	0x3a3242a4	0.00068000914
252	0xbeb62708	-0.35576653
253	0xbcc100b4	-0.023559906
254	0xbe003ccc	-0.12523192
255	0xbc8be73a	-0.01707803

architecture.0.bias f4 [64]
0	0x3e65e132	0.22449186
1	0x401374c4	2.3040018
2	0x3fc4ee11	1.5385152
3	0xbf7a927e	-0.9787978
4	0x3f552f1e	0.8327502
5	0x3fcd3d51	1.6034337
6	0x3fad32f8	1.353118
7	0xbf4f3ea3	-0.8095495
8	0x3c88866c	0.01666566
9	0xbfab3fb2	-1.3378813
10	0xbe549dd6	-0.20763335
11	0xbf2cd8f6	-0.67518556
12	0x3fae29ac	1.3606467
13	0x3ec07e77	0.37596485
14	0xbe1a1e6d	-0.15050669
15	0x3faca6c7	1.3488396
16	0x3f27301e	0.65307796
17	0x3f6fb0d6	0.93629205
18	0xbf91c342	-1.1387713
19	0xc019f30a	-2.405459
20	0xbf9958e7	-1.1980256
21	0x3f8fb81e	1.1228063
22	0xbfd11cc6	-1.6336906
23	0xbf6ef5cc	-0.93343806
24	0xbfb1719b	-1.3862795
25	0xbc991d54	-0.018690743
26	0xbfbac8f8	-1.4592581
27	0xbf99397b	-1.1970667
28	0x3f5bd939	0.8587833
29	0x3f95c454	1.170054
30	0xbfa73741	-1.3063737
31	0x3fc6d100	1.5532532
32	0xbf850aec	-1.0393958
33	0x3fae4478	1.3614645
34	0x3ecbf5ad	0.39835873
35	0xbfc096b7	-1.5045995
36	0x3f4928f3	0.7857811
37	0x3f77e552	0.9683429
38	0xbf5920b0	-0.848155
39	0xbfbc12ef	-1.4693278
40	0xbfa14d88	-1.2601786
41	0xbf89784a	-1.0739834
42	0xbfca35d8	-1.5797682
43	0x3fbbcb8f	1.4671496
44	0x3f5dac13	0.8659069
45	0x3e1b637f	0.15174673
46	0xbfa11b0f	-1.2586383
47	0x3f6de607	0.9292912
48	0x3f53edc5	0.8278468
49	0x3f7238ba	0.9461781
50	0xbf3eb2a9	-0.74491364
51	0xbc4ccca9	-0.012499967
52	0x3e4e27fa	0.20132437
53	0x3fe6269b	1.7980531
54	0x3fcabc95	1.5838801
55	0xbeffb5ac	-0.49943292
56	0x402cae59	2.6981413
57	0x3f9a4eed	1.2055336
58	0xbc5c7fe2	-0.013458224
59	0xbf96dd46	-1.1786277
60	0x3f4f53e6	0.80987394
61	0x3fce847b	1.613418
62	0xbfad6213	-1.3545555
63	0xbd970969	-0.07374842

architecture.2.weight f4 [64, 64]
0	0xbdc8a68a	-0.0979739
1	0xbf35e87b	-0.7105786
2	0xbee63320	-0.4496088
3	0x3e7321ec	0.23743409
4	0xbedd82e9	-0.4326394
5	0xbf165bb8	-0.587337
6	0xbea0440b	-0.31301913
7	0x3e890341	0.26760295
8	0xbeb82a33	-0.35969695
9	0x3dff3199	0.12460632
10	0xbe5f56aa	-0.21810403
11	0x3e819da3	0.2531558
12	0xbea2a378	-0.31765342
13	0xbec7acdf	-0.38999078
14	0xbf08b1f2	-0.53396523
15	0xbf04be46	-0.51852834
16	0xbeb8d2f7	-0.36098453
17	0xbf1a93f6	-0.6038202
18	0x3f0f2551	0.55916315
19	0x3f568f21	0.8381215
20	0x3db59f25	0.08868245
21	0xbd42034c	-0.047366425
22	0x3f4dd308	0.80400133
23	0x3f3823f2	0.7192985
24	0x3f2a775d	0.66588384
25	0x3e35e20b	0.1776201
26	0x3dfef0bb	0.124482594
27	0x3f370260	0.71488
28	0xbef9548a	-0.4869731
29	0xbf22be70	-0.63571835
30	0x3ee501f6	0.4472806
31	0xbf324bc6	-0.6964687
32	0xbcb32ed8	-0.021872923
33	0xbefa7c24	-0.48922837
34	0xbec070a4	-0.37585938
35	0x3d274ec6	0.04084661
36	0xbf7c58ee	-0.98573196
37	0xbeb70fd8	-0.35754275
38	0x3f158773	0.58409804
39	0x3e9de080	0.30835342
40	0x3f1fe1ec	0.62454104
41	0x3eaad8db	0.33368573
42	0x3f45d5bc	0.7727926
43	0xbed9e63a	-0.4255846
44	0xbec18018	-0.3779304
45	0xbea4ee02	-0.32212836
46	0x3eedc739	0.46441057
47	0xbef474ff	-0.4774551
48	0xbebff60c	-0.37492406
49	0xbe41d52d	-0.18928976
50	0x3f1bcb31	0.6085692
51	0xbd311623	-0.043234
52	0x3db0769e	0.086163744
53	0xbe9cac6d	-0.306003
54	0xbbd791a1	-0.0065786396
55	0x3ec13d73	0.37742195
56	0xbf383426	-0.7195457
57	0xbf15ad6d	-0.5846775
58	0xbe816dbe	-0.2527904
59	0x3f54d1c0	0.83132553
60	0xbf1af910	-0.6053629
61	0xbda01287	-0.07816034
62	0x3e8e3919	0.27777937
63	0xbe783cf5	-0.24242003
64	0x3eb1ab76	0.34701127
65	0x3f3e4164	0.7431853
66	0x3e35b69d	0.17745443
67	0xbf0b77f6	-0.5447992
68	0x3ede088b	0.43365893
69	0x3f4dbc3d	0.80365354
70	0xbc9d6caf	-0.019216863
71	0xbe9a4ba2	-0.30135828
72	0x3e40d62c	0.188317
73	0xbeafacab	-0.34311423
74	0x3e9ace95	0.30235735
75	0xbed32e08	-0.41246057
76	0x3ee25425	0.44204822
77	0x3eed8f0b	0.46398196
78	0x3eb7f825	0.35931507
79	0x3ed7b4cf	0.42130134
80	0x3eb9bf69	0.36278847
81	0x3ed18953	0.40925083
82	0xbf0943d4	-0.5361912
83	0xbf48e93b	-0.7848088
84	0xbe714538	-0.23561561
85	0xbe39d3ad	-0.18147154
86	0xbf0a8300	-0.5410614
87	0xbf091dbd	-0.53561
88	0xbde8ea7b	-0.113728486
89	0xbd310c47	-0.0432246
90	0xbe1052ad	-0.14094038
91	0xbea23f4c	-0.31688917
92	0x3ed3b441	0.4134846
93	0x3eef7f9e	0.46777052
94	0xbe9bd84e	-0.30438465
95	0x3f1a4b1d	0.60270864
96	0xbe72d04a	-0.23712268
97	0x3ebb901d	0.36633387
98	0x3e21f993	0.15817861
99	0xbef7360d	-0.48283425
100	0x3f461cb9	0.7738758
101	0x3eece7d7	0.4627063
102	0x3d0492cc	0.03236656
103	0xbe3ecc27	-0.18632565
104	0xbea46b76	-0.32113236
105	0xbf3cdc61	-0.7377377
106	0xbf00dcf9	-0.5033718
107	0x3e85674c	0.26055372
108	0x3ea0dd24	0.31418717
109	0x3e5d2021	0.21594287
110	0xbf091d1a	-0.5356003
111	0x3e9d701f	0.30749604
112	0x3f39d3b4	0.7258866
113	0x3ea4492c	0.32087076
114	0xbf52f3f5	-0.824035
115	0x3ee0b35a	0.43886834
116	0xbe82fb25	-0.25582233
117	0x3f004db2	0.50118554
118	0xbcf29d66	-0.029616069
119	0xbf36d9db	-0.7142617
120	0x3f1f509d	0.6223238
121	0x3e814bd4	0.25253165
122	0xbbe49517	-0.0069757807
123	0xbf47eca0	-0.78095436
124	0x3f203759	0.62584454
125	0x3e32bf1b	0.17455713
126	0xbec9674f	-0.3933663
127	0x3e8ae6bd	0.27129164
128	0x3ea2120b	0.3165439
129	0x3f1209af	0.57046026
130	0xbf01dc8d	-0.5072716
131	0xbc4054c3	-0.011738959
132	0xbc9ccb58	-0.01913993
133	0x3e1f3d0e	0.15550634
134	0xbe9b70ee	-0.30359596
135	0x3f11eaaf	0.56998724
136	0xbdac6ac0	-0.084187984
137	0x3eb7459c	0.35795295
138	0xbdeb9052	-0.11502136
139	0xbc4cd40d	-0.012501729
140	0x3e4e0060	0.2011733
141	0xbee90372	-0.4551044
142	0xbe03cdd3	-0.12871484
143	0xbdcf08d8	-0.10109109
144	0x3d70bdd6	0.05877479
145	0x3daab382	0.0833502
146	0x3d100669	0.035162363
147	0xbf084b23	-0.5323965
148	0x3f3574c1	0.7088128
149	0xbdcd364a	-0.100201204
150	0xbd8ce6ba	-0.06879945
151	0x3c57f9c1	0.013182105
152	0x3ec3123b	0.38099846
153	0xbee874b8	-0.4540155
154	0xbe04ebe5	-0.12980612
155	0x3dd13cec	0.10216698
156	0xbdf0dca4	-0.11760834
157	0xbdd39de3	-0.10332849
158	0x3e4889f7	0.1958388
159	0xbd09e295	-0.03366335
160	0x3ebd57d8	0.36981082
161	0xbe89a91b	-0.2688683
162	0x3e9bf40f	0.3045964
163	0x3e799507	0.24373256
164	0xbe3ad38c	-0.18244761
165	0xbddc95de	-0.107707724
166	0x3db12acd	0.08650742
167	0xbe0cce33	-0.13750534
168	0x3da8d036	0.08242838
169	0xbe4c82ff	-0.19971846
170	0x3e012181	0.12610437
171	0xbefbf124	-0.49207413
172	0xbea68cb9	-0.32529238
173	0x3da2e7d5	0.07954375
174	0xbee53b01	-0.4477158
175	0xbda93898	-0.082627475
176	0x3e42aba3	0.19010787
177	0xbe9a1d87	-0.30100653
178	0xbd78eb4c	-0.06077127
179	0x3f191f07	0.5981297
180	0xbd5aa990	-0.053384364
181	0xbe9c548a	-0.30533248
182	0xbe6bee90	-0.23040223
183	0xbc766b71	-0.015040264
184	0x3f0d41db	0.5517861
185	0x3d16cd52	0.036816902
186	0x3dd42c6d	0.10360036
187	0xbed8c10c	-0.42334783
188	0x3ec032f3	0.3753887
189	0xbe871f41	-0.26391032
190	0x3ba1b1ad	0.0049345107
191	0xbdf7c737	-0.12098544
192	0xbe176f69	-0.14788593
193	0xbf2d09e2	-0.67593205
194	0xbed43e53	-0.414538
195	0x3dc8097d	0.09767435
196	0xbeeeffe3	-0.466796
197	0xbf0d9888	-0.5531087
198	0xbe1c325f	-0.1525359
199	0x3ecf42dc	0.40480697
200	0xbed74053	-0.42041263
201	0x3e9b5766	0.30340117
202	0xbe75e4fe	-0.24013135
203	0x3ef73807	0.48284933
204	0xbf1b3390	-0.60625553
205	0xbe3b85df	-0.18312787
206	0xbebb6ffe	-0.3660888
207	0xbf14533b	-0.579395
208	0xbf18c147	-0.5966992
209	0xbf12ea4d	-0.57388765
210	0x3f682be0	0.9069195
211	0x3f168721	0.5879994
212	0x3ebfaa4f	0.37434623
213	0xbe1269b4	-0.14298135
214	0x3f3f5c67	0.7475037
215	0x3f4813cc	0.7815521
216	0x3f0f369a	0.5594269
217	0x3e7c14a9	0.24617256
218	0x3e4cdcd0	0.20006108
219	0x3f0b9a73	0.54532546
220	0xbf17d1b9	-0.59304386
221	0xbf00b3e0	-0.5027447
222	0x3f079bf8	0.52972364
223	0xbf368fc1	-0.713131
224	0xbe0a0384	-0.13477904
225	0xbec90b1b	-0.39266285
226	0xbe979b8b	-0.29610857
227	0x3e3b81e7	0.18311273
228	0xbf51852a	-0.8184382
229	0xbea0f327	-0.3143551
230	0x3ecf4dcd	0.40489045
231	0x3ea8ec5e	0.32992834
232	0x3f48897a	0.7833477
233	0x3f2eccad	0.6828106
234	0x3eda34a5	0.4261829
235	0x3bc8b22d	0.006124756
236	0xbef25ba3	-0.47335538
237	0xbee9e97c	-0.45685947
238	0x3ef6a106	0.48169726
239	0xbedbb684	-0.42912686
240	0xbeff2ff4	-0.49841273
241	0xbebfcec0	-0.37462425
242	0x3ef878ef	0.48529765
243	0xbe18d198	-0.14923704
244	0x3da331ef	0.079685085
245	0xbe9d4e1e	-0.3072366
246	0xbe3e3f6a	-0.18578878
247	0x3eee011e	0.46485227
248	0xbf3a58b4	-0.727916
249	0xbf175820	-0.59118843
250	0xbe80911c	-0.2511071
251	0x3f440bf5	0.76580745
252	0xbf22f8b1	-0.6366072
253	0xbdd1a96f	-0.10237395
254	0x3ed7506c	0.42053545
255	0xbead11a6	-0.33802527

architecture.2.bias f4 [64]
0	0xbf8ca662	-1.0988276
1	0x3f8da60a	1.1066296
2	0x3f4e3c2b	0.8056056
3	0xbf9bdd21	-1.2176858
4	0xbf7d3d90	-0.9892206
5	0xbf8c15e2	-1.0944178
6	0xbf9399cb	-1.1531309
7	0x3f758cf2	0.9591819
8	0xbf69a662	-0.91269505
9	0xbf03d500	-0.5149689
10	0x3f1019ca	0.5628935
11	0xbf339e39	-0.70163304
12	0xbf8abc1a	-1.0838654
13	0x3e1964aa	0.14979807
14	0xbf8719cf	-1.0554751
15	0x3f22be61	0.63571745
16	0x3f4b78ce	0.7948121
17	0x3f2dcb2f	0.6788816
18	0xbf8a0813	-1.0783714
19	0xbf8ac27b	-1.0840601
20	0x3f52e2ea	0.82377493
21	0x3f1e9ba1	0.6195622
22	0x3f892e33	1.0717224
23	0xbe538767	-0.2065712
24	0xbefb0ea2	-0.490346
25	0xbf452e44	-0.7702372
26	0x3f877703	1.0583194
27	0xbf834677	-1.0255879
28	0x3f115179	0.5676494
29	0x3edae4ff	0.42752835
30	0xbf800561	-1.0001642
31	0x3f93889b	1.1526064
32	0xbfa054ba	-1.2525856
33	0x3ec1973f	0.37810704
34	0xbee9907b	-0.45618042
35	0xbe6023e5	-0.21888693
36	0xbf600359	-0.8750511
37	0xbee2fb09	-0.4433215
38	0x3f4f3fa5	0.8095649
39	0xbf83a5a2	-1.0284922
40	0xbf87b3da	-1.0601761
41	0xbf396762	-0.72423375
42	0xbec6b457	-0.38809463
43	0x3f88df3d	1.0693127
44	0x3e9d9ada	0.30782205
45	0x3f04f6af	0.5193891
46	0x3ec850f8	0.39124274
47	0xbe9c1d67	-0.30491182
48	0xbf73d117	-0.9524092
49	0xbf1d34ca	-0.61408675
50	0x3f192a83	0.5983049
51	0xbf04f174	-0.5193093
52	0xbf7c7cd4	-0.9862797
53	0xbf78ea89	-0.9723287
54	0xbf8804db	-1.0626482
55	0x3f1c4279	0.6103893
56	0xbf881ad5	-1.0633188
57	0x3f85f74f	1.0466098
58	0xbf983886	-1.189225
59	0xbf86ba4d	-1.0525604
60	0x3f75cf40	0.96019363
61	0xbe004efb	-0.12530129
62	0x3f8596da	1.0436661
63	0x3f820fd4	1.016108

architecture.4.weight f4 [1, 64]
0	0x40c1d4ab	6.0572104
1	0xc0becb5d	-5.9623246
2	0xc0dd5cb6	-6.9175673
3	0x40b8881f	5.7666163
4	0x40c41e6e	6.1287146
5	0x40c1dad3	6.057962
6	0x40bf9863	5.987352
7	0xc0bec901	-5.9620366
8	0x40f73ed3	7.726419
9	0x40ec4bc3	7.3842483
10	0xc0c09d0d	-6.019171
11	0x40b98145	5.79703
12	0x40e4bbdb	7.1479316
13	0xc1034955	-8.205403
14	0x40b816d7	5.752788
15	0xc0f50af9	-7.6575894
16	0xc0e7a808	-7.2392616
17	0x4104c458	8.2979355
18	0x40be24e4	5.9420033
19	0x40bb791d	5.8585343
20	0xc0c2a8d8	-6.083111
21	0xc0f97033	-7.794946
22	0xc0c22465	-6.0669427
23	0x40f07644	7.5144367
24	0x40e40aea	7.1263323
25	0x40c2b9ff	6.0852046
26	0xc0c03fbf	-6.0077815
27	0x40bdbe85	5.929507
28	0xc0b3eb78	-5.6224937
29	0xc101a08c	-8.101696
30	0x40d2b8bf	6.585052
31	0xc0bd6a3d	-5.9192185
32	0x40bf4a79	5.977841
33	0xc0f6792e	-7.7022924
34	0x4102ac8f	8.167129
35	0x40ec55b0	7.38546
36	0x40afb11c	5.49037
37	0x40bfe311	5.996468
38	0xc0cab628	-6.334736
39	0x40ba967b	5.830869
40	0x40c026f7	6.0047565
41	0x40bf56da	5.979352
42	0x40bd499d	5.915236
43	0xc0bc9125	-5.892718
44	0xc0e79f49	-7.238194
45	0xc0e1999a	-7.05
46	0xc0f7b006	-7.740237
47	0x40fb9965	7.862475
48	0x40c2f6c7	6.092624
49	0x40f77260	7.732712
50	0xc0c22f85	-6.0683007
51	0x4103aba5	8.229405
52	0x40bbda33	5.8703856
53	0x40bd43cf	5.9145274
54	0x40bb082b	5.844747
55	0xc10b2e00	-8.69873
56	0x40c077dd	6.0146317
57	0xc0bfd341	-5.994538
58	0x40ba80f9	5.8282437
59	0x40bfb121	5.990372
60	0xc0ba9f32	-5.831933
61	0xc0f5a1c5	-7.6759973
62	0xc0c45279	-6.1350675
63	0xc0b93629	-5.7878613

exp_avg f4 [64, 36]
0	0x378cc6fb	1.6781958e-05
1	0x37abef18	2.0496125e-05
2	0x378e6270	1.6973558e-05
3	0xb89290d2	-6.9887974e-05
4	0x37a34da6	1.9467272e-05
5	0xb5eab4f1	-1.748702e-06
6	0x37810acf	1.5383031e-05
7	0xb68d9a84	-4.2201154e-06
8	0x3893869c	7.034579e-05
9	0x37ced50a	2.4656318e-05
10	0xb85301e4	-5.030808e-05
11	0xb8449bf0	-4.687527e-05
12	0xb88b60c3	-6.64606e-05
13	0x37c5bad5	2.357123e-05
14	0x36ed5795	7.0733463e-06
15	0x381b60ef	3.7045156e-05
16	0x377e5ea8	1.5161619e-05
17	0xb7e3f79e	-2.7175814e-05
18	0x37fa2fb3	2.9824534e-05
19	0xb7f9dc51	-2.9785706e-05
20	0xb813d949	-3.5249894e-05
21	0x37b35161	2.1376358e-05
22	0x35eb74ae	1.7542823e-06
23	0x3897016f	7.200508e-05
24	0x377f93ed	1.5233626e-05
25	0xb883eab0	-6.290281e-05
26	0xb82adec8	-4.073864e-05
27	0xb8906d8c	-6.88686e-05
28	0x37946eae	1.7694514e-05
29	0xb5ceeee4	-1.5417722e-06
30	0xb8986807	-7.2673014e-05
31	0x3801b302	3.092271e-05
32	0x3800defd	3.0725252e-05
33	0x388ba89d	6.659443e-05
34	0x36c63d5f	5.9080044e-06
35	0xb696fe7b	-4.499974e-06
36	0xb8a101cc	-7.677413e-05
37	0x3776a9ff	1.4702323e-05
38	0xb857e71a	-5.1475225e-05
39	0xb8e68f20	-0.00010993914
40	0x384e351e	4.9163697e-05
41	0xb6cacb69	-6.043749e-06
42	0x380f0cd7	3.4105815e-05
43	0xb864a8cd	-5.4516644e-05
44	0x384e6c0d	4.9214857e-05
45	0xb721ec33	-9.651342e-06
46	0xb7e670ca	-2.7470658e-05
47	0xb85e444f	-5.2992542e-05
48	0xb8cfd8b4	-9.910893e-05
49	0x382d600b	4.133586e-05
50	0xb79ae9cb	-1.8467099e-05
51	0x38e819a6	0.000110673995
52	0xb88e23c9	-6.777753e-05
53	0xb8290ee8	-4.0306622e-05
54	0x38a9647b	8.077264e-05
55	0x38648bdc	5.448969e-05
56	0x39064fe9	0.00012809005
57	0x380d46da	3.3683005e-05
58	0xb86e5275	-5.6820416e-05
59	0x382562d0	3.9431092e-05
60	0x356c782f	8.809174e-07
61	0xb7c7f088	-2.3834655e-05
62	0xb8410ed1	-4.6028585e-05
63	0xb8c3c006	-9.334092e-05
64	0x381e1ec5	3.7698792e-05
65	0xb79650ee	-1.791908e-05
66	0x33811812	6.011409e-08
67	0x390b0147	0.00013256549
68	0x380518be	3.1732714e-05
69	0x385469a2	5.0643117e-05
70	0xb88e2e36	-6.779695e-05
71	0xb8d08486	-9.942897e-05
72	0xb7fbe174	-3.0026516e-05
73	0xb7ec2523	-2.8150685e-05
74	0xb841097f	-4.602363e-05
75	0xb7dc7206	-2.627914e-05
76	0xb78f577c	-1.7087666e-05
77	0x36c97f43	6.005082e-06
78	0x3821c998	3.857314e-05
79	0xb6e1be5b	-6.727683e-06
80	0x389af5cc	7.3890755e-05
81	0xb7c7683c	-2.3771187e-05
82	0x3844e2a6	4.6941124e-05
83	0xb6642668	-3.3997003e-06
84	0xb7b24abf	-2.125406e-05
85	0xb7c890c5	-2.3909271e-05
86	0x378b7a9c	1.6627186e-05
87	0x359139a7	1.0820121e-06
88	0xb81bda17	-3.715799e-05
89	0xb71f8ff6	-9.510657e-06
90	0x36377211	2.733552e-06
91	0xb6003485	-1.9104057e-06
92	0xb68ab9f9	-4.1343706e-06
93	0x3827e0ae	4.0025152e-05
94	0xb778b0ff	-1.4823162e-05
95	0x38924ef7	6.976531e-05
96	0xb7b6d12d	-2.1793496e-05
97	0x38437652	4.6601817e-05
98	0x363c945e	2.8100544e-06
99	0xb7bd17b5	-2.2541595e-05
100	0xb7fefa7d	-3.0395802e-05
101	0x376c4703	1.408323e-05
102	0x3797d802	1.810119e-05
103	0xb87d3602	-6.03702e-05
104	0x37b65739	2.1736707e-05
105	0xb85008de	-4.9599323e-05
106	0xb86f333c	-5.7029756e-05
107	0xb8b17fb7	-8.4638064e-05
108	0x3825b08b	3.9503484e-05
109	0x36d4f31e	6.346395e-06
110	0x37de69d0	2.6513735e-05
111	0xb887a49c	-6.4679625e-05
112	0xb6e8950c	-6.93149e-06
113	0x381f8a6d	3.8037473e-05
114	0x381de200	3.7642196e-05
115	0xb8492c3b	-4.7963327e-05
116	0x385cb883	5.2623927e-05
117	0x382da1cc	4.13971e-05
118	0xb6f53ee6	-7.3088913e-06
119	0x377798ae	1.4757896e-05
120	0xb8813813	-6.161644e-05
121	0xb707fcfb	-8.105529e-06
122	0x37808ef7	1.5325362e-05
123	0xb7ee9796	-2.8442399e-05
124	0x370b0f6b	8.288635e-06
125	0x3896045b	7.153369e-05
126	0x37c20819	2.3130373e-05
127	0x38366904	4.3489985e-05
128	0x37b852f3	2.1973136e-05
129	0x3806e9f7	3.2165986e-05
130	0xb8389def	-4.4016106e-05
131	0x382dd3aa	4.144354e-05
132	0x38360b16	4.3402506e-05
133	0xb7aeded1	-2.0846173e-05
134	0xb664ef4b	-3.4113934e-06
135	0xb87c25d1	-6.01167e-05
136	0xb49974ff	-2.8583597e-07
137	0x3776f3a0	1.4719466e-05
138	0x3890bce0	6.901636e-05
139	0x38caf428	9.677588e-05
140	0x38d5bcee	0.000101918224
141	0x378f2f04	1.7068822e-05
142	0xb8316f31	-4.2303644e-05
143	0xb7b33892	-2.1364805e-05
144	0x37b6191d	2.1707785e-05
145	0xb6a3ae81	-4.8780935e-06
146	0x3692aa87	4.370991e-06
147	0x38714634	5.752426e-05
148	0x3913a0cd	0.00014078915
149	0xb90defee	-0.00013536189
150	0xb801ae08	-3.0918076e-05
151	0xb8f58ec5	-0.00011709103
152	0xb8bd1af7	-9.017245e-05
153	0xb85d550a	-5.2769705e-05
154	0xb6a80a40	-5.0079834e-06
155	0xb8211687	-3.840637e-05
156	0x385fe4a1	5.338027e-05
157	0x3925a87e	0.00015798394
158	0xb90124cf	-0.00012316111
159	0xb702c254	-7.793849e-06
160	0xb77eb26a	-1.518112e-05
161	0xb810fef1	-3.4569708e-05
162	0xb8ae0dc6	-8.299532e-05
163	0xb713cb00	-8.809147e-06
164	0xb7b0c3fc	-2.1072097e-05
165	0xb7ef46b7	-2.852395e-05
166	0xb8dd86dc	-0.00010563221
167	0xb8d6672e	-0.00010223534
168	0xb84932c0	-4.79694e-05
169	0xb6b0a22f	-5.2640894e-06
170	0xb84a39ec	-4.8214497e-05
171	0x3880eb60	6.1473576e-05
172	0x392a492a	0.00016239719
173	0xb8fbb368	-0.0001200203
174	0xb807f3f3	-3.2413704e-05
175	0x3887a3d6	6.4678185e-05
176	0xb739b60c	-1.1069245e-05
177	0x37867ed5	1.6033106e-05
178	0xb6d0b84f	-6.2203394e-06
179	0xb7b162e7	-2.11461e-05
180	0xb6f86734	-7.4029904e-06
181	0x373cb592	1.1247948e-05
182	0xb5ab1134	-1.27455e-06
183	0x37219fe6	9.633577e-06
184	0xb8b3bfc9	-8.571108e-05
185	0xb8795954	-5.944942e-05
186	0xb8bc9798	-8.992775e-05
187	0xb7a2b560	-1.9396364e-05
188	0xb85d2820	-5.2727875e-05
189	0xb82fbfb1	-4.1901778e-05
190	0xb7e6662f	-2.746572e-05
191	0x37cd66aa	2.4485711e-05
192	0x37b1fd1a	2.1217904e-05
193	0xb8a7a443	-7.993777e-05
194	0xb8d9c39f	-0.000103838036
195	0xb8aa57fc	-8.12262e-05
196	0xb8bdc81c	-9.0494956e-05
197	0xb7401473	-1.1448853e-05
198	0x37e5e582	2.74058e-05
199	0xb8d897af	-0.00010327936
200	0x38382c29	4.3910146e-05
201	0xb8b7159c	-8.730145e-05
202	0xb7bd5372	-2.2569413e-05
203	0xb878e39a	-5.9339778e-05
204	0xb81994a5	-3.661648e-05
205	0xb80d2649	-3.3652675e-05
206	0x37e2ae14	2.702236e-05
207	0x378b040c	1.6571976e-05
208	0xb89f778f	-7.60398e-05
209	0xb8da2a53	-0.000104029335
210	0x394da19a	0.00019610525
211	0xb6e4252d	-6.7992573e-06
212	0x395b0e00	0.00020890683
213	0xb82f2f75	-4.176745e-05
214	0x38e387b3	0.000108494794
215	0xb8acb0b4	-8.234513e-05
216	0xb89583ab	-7.129399e-05
217	0xb917c831	-0.0001447506
218	0xb813f3a1	-3.527443e-05
219	0xb8d366c0	-0.00010080403
220	0x37f896df	2.9634159e-05
221	0x386b9bb4	5.6173376e-05
222	0xb830504c	-4.2036452e-05
223	0x382c58d6	4.109073e-05
224	0x38c4d84e	9.386298e-05
225	0xb7e81741	-2.7667384e-05
226	0x37947a2b	1.7699864e-05
227	0xb898be45	-7.283365e-05
228	0xb8df42d7	-0.000106459185
229	0x380583b3	3.1832325e-05
230	0x38ab5102	8.169004e-05
231	0x397ff953	0.00024411576
232	0x388517f0	6.346393e-05
233	0xb908379b	-0.00012990685
234	0xb92d4878	-0.00016525562
235	0x38cc0a0c	9.7293494e-05
236	0x382b0cce	4.0781502e-05
237	0xb82306f5	-3.8868708e-05
238	0x37dae451	2.6093943e-05
239	0x38cba01a	9.7096156e-05
240	0xb7c7799a	-2.3779274e-05
241	0x37fa9b87	2.9874745e-05
242	0xb888239c	-6.491618e-05
243	0xb8e14a1f	-0.00010742642
244	0x381a3740	3.6767917e-05
245	0x38aab008	8.13902e-05
246	0xb767d655	-1.3818576e-05
247	0x38c0841e	9.179882e-05
248	0x388bf11f	6.672949e-05
249	0x38939724	7.037658e-05
250	0xb8c69961	-9.469945e-05
251	0xb7ec6445	-2.8180084e-05
252	0x3885cd79	6.3802065e-05
253	0xb7d88fe0	-2.5816204e-05
254	0xb76a56fa	-1.3967738e-05
255	0x3785657d	1.5902095e-05
