raisimGymTorch/data/ouzel_delta_planning/2022-05-27-14-33-19/full_21000.pt (torch, 178160 bytes, 36 tensors)

architecture.0.weight f4 [64, 36]
-0.092112996 0.1163156 -0.18015614 0.039360717 0.16187312 -0.17756268 0.10980143 0.06736947
-1.219483 -0.31949458 0.38123077 -0.60378295 0.19116436 0.17828716 0.35626796 -0.4254649
0.0017050812 0.19957195 -0.22162893 -0.11369588 -0.04911183 -0.3647574 0.1552929 -0.19942208
0.093047656 0.41679063 -0.6964484 -0.40333888 0.25980696 0.071286276 -0.111447476 -0.26100576
0.050490227 0.40259477 -0.22114263 0.20275998 -0.42287323 0.84760725 0.9329347 0.1282624
-0.009617177 0.3339856 0.13953133 0.28278396 -1.0018233 0.4469863 0.036663275 -0.2382194
0.56034243 -0.4890045 0.29652536 0.10402331 -0.17402077 -1.1104425 0.8514291 -0.16798946
0.42362773 0.12056026 0.4306356 -0.109245956 0.41886288 0.09828001 -0.48178077 -0.11143109
0.22490643 0.30830014 0.3759919 0.33058694 0.40458995 0.33447084 1.6371685 -0.17376308
0.009049086 0.5562606 -0.27860248 0.045815807 0.14341623 -0.24282986 -0.04827149 0.5552141
0.4105114 -0.008838525 -0.5377572 0.46159345 0.18273331 0.07899727 -0.34869885 0.559457
0.23433143 -0.1259404 -0.079644844 -0.1605348 0.13158108 0.18227854 0.15147637 0.20108424
0.08629008 0.12839867 0.1271608 0.11864432 -0.020642681 0.49674624 -0.08057171 -0.2586091
-0.25604588 0.030086217 0.17971641 0.007995338 0.20584862 -0.5738293 -1.0126618 -0.11687126
0.16404738 -0.36857307 0.6271839 0.13453625 -0.072104916 -0.46351305 -0.176838 -0.32535586
-0.014639999 -0.35317332 -0.2638519 -0.11412859 0.0012355564 -0.11593563 0.64129645 0.099530965
0.3002655 0.10215529 -0.17473474 -0.30484897 -0.3793495 -0.26942176 -0.17252523 0.21289016
0.32683077 -0.20882769 0.089629166 -0.29487774 -0.02492588 0.12175072 -0.15483026 -1.6775205
1.9730293 4.259539 4.5524774 -0.2619543 -0.14629708 -0.08400973 0.11463985 0.091966376
0.119853094 -0.03020173 -0.019484313 0.00495172 0.07119896 0.030944958 0.08945907 -0.28130367
-0.45959866 -0.23035157 0.08545767 -0.076344445 0.18822613 -0.062117986 -0.18979084 -0.13758498
-0.019046295 0.0123772435 -0.104248255 0.16771159 0.15424956 0.010819495 0.02451142 0.06243329
-0.10508893 0.16867836 -0.026883347 0.20084387 2.5355055 -7.949315 1.135541 -0.2519542
0.27257138 -0.09616878 -0.06351993 -0.01222559 -0.39702022 -0.03690391 -0.0121189365 -0.021321729
0.06655542 -0.10421899 -0.24689882 0.21499719 -0.17969684 -0.8176878 -0.15762322 0.15403685
0.041964576 -0.017855015 0.0070807296 0.26705253 0.036905337 -0.041889183 -0.10698796 0.16160867
-0.22656609 0.38579884 0.07064845 0.112203434 -0.14282909 -0.09470694 0.20103864 0.3537021
-0.093158014 -0.0014562776 -0.11118835 0.27316204 0.2324004 -0.040442824 -0.15845586 0.05057322
-0.99463433 -0.13257764 -0.01821529 0.083635904 0.4302996 0.59876436 0.52448034 0.18980342
0.0053924127 0.031806745 0.075259335 -0.122999035 -0.01459783 0.16263026 0.0063612955 0.25177053
-0.029619668 -0.30451244 0.32119033 -1.0073851 -0.68026894 0.065030225 -0.001643141 -0.07903518
-0.07052056 -0.07090989 0.028567491 -0.06676459 0.1547635 -0.36458772 0.45323098 0.028764475
00000000: bda5 bcbd e036 ee3d da7a 38be b438 213d
00000010: 11c2 253e fed2 35be 92df e03d 01f9 893d
00000020: 0518 9cbf cb94 a3be ae30 c33e 8591 1abf
00000030: 97c0 433e e990 363e c168 b63e 89d6 d9be
00000040: 087d df3a 975c 4c3e b2f2 62be 63d9 e8bd
00000050: 7c29 49bd 7bc1 babe 1a05 1f3e 4d35 4cbe
00000060: c58f be3d 9565 d53e 714a 32bf 6f82 cebe
00000070: 6b05 853e 8afe 913d 933e e4bd 8ca2 85be
00000080: d7ce 4e3d e720 ce3e 3773 62be 50a0 4f3e
00000090: d782 d8be cafc 583f cfd4 6e3f 3857 033e
000000a0: 5d91 1dbc 2900 ab3e 4de1 0e3e 0fc9 903e
000000b0: bf3b 80bf 63db e43e 3b2c 163d c9ef 73be
000000c0: 9a72 0f3f cc5e fabe 2cd2 973e 2c0a d53d
000000d0: 8032 32be fb22 8ebf 42f7 593f 6e05 2cbe
000000e0: bce5 d83e 4ce8 f63d 457c dc3e 58bc dfbd
000000f0: 3275 d63e 0847 c93d f8ab f6be fc35 e4bd
00000100: df4d 663e 84d9 9d3e 0382 c03e b142 a93e
00000110: 6a26 cf3e c33f ab3e bd8e d13f f3ee 31be
00000120: 9e42 143c 1867 0e3f fca4 8ebe 5ba9 3b3d
00000130: b4db 123e 64a8 78be 53b8 45bd 8322 0e3f
00000140: 8d2e d23e 76cf 10bc 75aa 09bf fa55 ec3e
00000150: 711e 3b3e 52c9 a13d a888 b2be 9338 0f3f
00000160: 94f4 6f3e 85f6 00be d61c a3bd 3c63 24be
00000170: 31bd 063e 3aa7 3a3e 9f1c 1b3e 07e9 4d3e
00000180: dab8 b03d f17a 033e 7136 023e cbfb f23d
00000190: d71a a9bc 8655 fe3e c802 a5bd 6968 84be
000001a0: 7218 83be 5f77 f63c 9407 383e e1fe 023c
000001b0: fbc9 523e 7ae6 12bf e79e 81bf 335a efbd
000001c0: 09fc 273e 9cb5 bcbe 208f 203f dfc3 093e
000001d0: beab 93bd 9551 edbe 0515 35be 0b95 a6be
000001e0: 9bdc 6fbc 22d3 b4be 9917 87be 40bc e9bd
000001f0: 65f2 a13a a96f edbd 012c 243f e4d6 cb3d
00000200: 66bc 993e cb36 d13d aaed 32be 2a15 9cbe
00000210: 193a c2be a6f1 89be 74aa 30be e1ff 593e
00000220: 5d56 a73e edd6 55be 7f8f b73d 37fa 96be
00000230: 5c31 ccbc 7158 f93d d38b 1ebe feb8 d6bf
00000240: 398c fc3f 254e 8840 e5ad 9140 e01e 86be
00000250: e7ce 15be 4b0d acbd 4cc8 ea3d de58 bc3d
00000260: 8a75 f53d 9e69 f7bc 919d 9fbc 0a42 a23b
00000270: c3d0 913d 4880 fd3c 5136 b73d 0907 90be
00000280: 8450 ebbe 48e1 6bbe 6e04 af3d 7a5a 9cbd
00000290: 5abe 403e 6e6f 7ebd 8858 42be 14e3 0cbe
000002a0: fa06 9cbc ecc9 4a3c 1c80 d5bd 96bc 2b3e
000002b0: 99f3 1d3e 4044 313c 2ccc c83c 0dba 7f3d
000002c0: dd38 d7bd 05ba 2c3e 773a dcbc 04aa 4d3e
000002d0: b945 2240 ca60 fec0 6859 913f 2400 81be
000002e0: 7a8e 8b3e 23f4 c4bd bd16 82bd d74d 48bc
000002f0: 3c46 cbbe 8e28 17bd 818e 46bc e8aa aebc
00000300: 354e 883d c470 d5bd 0bd3 7cbe 3928 5c3e
00000310: 7302 38be fd53 51bf fb67 21be d6bb 1d3e
00000320: 0ce3 2b3d ae44 92bc 7705 e83b 1cbb 883e
00000330: 0d2a 173d fe93 2bbd 811c dbbd be7c 253e
00000340: f100 68be 6d87 c53e 22b0 903d eaca e53d
00000350: ca41 12be b6f5 c1bd 13dd 4d3e 7118 b53e
00000360: a1c9 bebd 91e0 beba b8b6 e3bd e5db 8b3e
00000370: 5ffa 6d3e 60a7 25bd 4142 22be dd25 4f3d
00000380: 5ba0 7ebf 6fc2 07be 3b38 95bc 4d49 ab3d
00000390: 3b50 dc3e 9f48 193f 5844 063f d45b 423e
000003a0: d6b2 b03b ca47 023d 9121 9a3d ebe6 fbbd
000003b0: bd2b 6fbc 8c88 263e 6a72 d03b 11e8 803e
000003c0: f2a4 f2bc 0ee9 9bbe 0f73 a43e fff1 80bf
000003d0: 1b26 2ebf 912e 853d aa5e d7ba 32dd a1bd
000003e0: 156d 90bd 3439 91bd 5f06 ea3c e0bb 88bd
000003f0: 537a 1e3e 3eab babe e40d e83e 7aa3 eb3c

architecture.0.bias f4 [64]
0.58062905 0.68099743 0.48928687 0.57029384 -0.71286815 -0.5166837 0.011296917 -0.22204432
-0.54888576 0.30049607 0.26720542 0.46652097 -0.4654672 0.07917317 -0.40825158 0.74169815
-0.29175597 -0.42438892 -1.5032597 -0.7744274 -0.92626095 -0.0070408178 -0.03969117 -0.21074128
-0.107866004 0.58412564 -0.40808547 1.1787003 -1.3881857 -0.24329339 0.51083845 -1.7190876
0.057550844 0.21186641 -1.1491235 -1.3792015 -0.16636182 0.76311016 0.41666663 -0.9116933
-0.7807902 0.7347668 -1.3459485 0.22833504 -0.02847272 0.017410345 -0.8136785 -0.21603611
0.04041216 0.5258661 0.35367298 -1.3721232 -0.41061664 -1.5413443 0.6998935 0.074602105
-1.1701896 -0.13178416 -0.04449789 0.58024424 -0.18197267 0.07935797 0.18119441 -0.31870213
00000000: 1ba4 143f d955 2e3f cf83 fa3e c7fe 113f
00000010: 877e 36bf 6245 04bf b416 393c 965f 63be
00000020: c783 0cbf 9fda 993e 26cf 883e d6db ee3e
00000030: b851 eebe 8b25 a23d 5a06 d1be eedf 3d3f
00000040: 0a61 95be 8149 d9be d06a c0bf e040 46bf
00000050: 701f 6dbf a9b6 e6bb 3593 22bd 90cc 57be
00000060: dae8 dcbd 4289 153f 94f0 d0be a7df 963f
00000070: 12b0 b1bf e721 79be 4fc6 023f 100b dcbf
00000080: 6fba 6b3d 82f3 583e 7b16 93bf ad89 b0bf
00000090: c15a 2abe 305b 433f 5455 d53e bb64 69bf
000000a0: dee1 47bf ad19 3c3f 0a48 acbf a9d0 693e
000000b0: 9f3f e9bc 24a0 8e3c 3c4d 50bf 9238 5dbe
000000c0: 3987 253d 299f 063f a014 b53e bca1 afbf
000000d0: 583c d2be c54a c5bf 382c 333f fdc8 983d
000000e0: c6c8 95bf 6df2 06be 6b43 36bd e38a 143f
000000f0: 0b57 3abe 6e86 a23d 078b 393e ed2c a3be

architecture.2.weight f4 [64, 64]
0.0007706259 0.021353113 0.033439413 0.010638863 0.035209086 0.051249802 0.024460362 -0.0115292575
0.016814934 0.030456357 -0.0011608127 0.012214555 0.027491955 0.026228279 -0.013257768 0.13835633
0.021889227 -0.050206993 0.22940299 -0.010965927 0.025319465 -0.028376846 0.16054651 0.034889393
0.029041944 -0.28500998 0.019376945 0.026780633 -0.45130813 0.023235284 0.030038722 0.18264809
0.04620552 0.0029543603 0.042026583 0.13945115 0.014943519 -0.025525207 -0.0054992507 0.05249109
0.022805534 0.057439912 -0.089745596 0.58953637 -0.0163919 -0.43419522 0.0015600271 0.0030828242
-0.041685704 -0.0008218107 -0.00981743 0.043461397 0.5376843 0.10405481 0.026198871 -0.006059368
-0.016209558 -0.052845262 -0.34903997 0.08791816 0.0056697605 0.018145734 -0.00052632537 0.030541956
-0.33834374 -1.4320562 0.4224831 -0.25474843 -0.2493407 0.69554085 0.18290539 0.052917864
-0.37581852 1.032966 -0.77310497 -0.79423106 0.26635364 -0.5618686 0.25880903 0.5312995
-0.5927748 -0.12118218 0.5480269 -0.5420188 0.17211173 0.5536429 0.42920864 0.1518755
-0.29881865 -0.51075125 0.23466189 -0.43937343 0.03716804 -0.23962745 -0.7392485 0.18173546
0.015935544 0.23618013 0.4701826 0.3259061 -0.56744075 0.3320738 -0.77335733 1.4426425
0.019673731 -0.16497846 0.05905643 -0.124744475 -0.588561 -0.5598636 0.4322188 0.2063863
0.047566544 -0.18540089 0.18643525 0.31160685 0.19575876 -0.07606882 -0.3566503 0.004413905
0.02637105 -0.09904174 -0.016824033 -0.3849631 -0.84079653 -0.82765454 0.07417419 0.06072863
-0.45981547 0.29316476 0.027441131 0.11978339 1.20292 -0.15544885 0.15451136 0.28516445
0.7643568 0.52821463 0.46884936 0.73382765 0.05011082 0.96401525 -0.54860216 0.26736668
0.69184387 0.03376496 -0.23026851 0.031391647 0.5668715 0.79231185 0.77374357 0.43709177
-0.24961485 0.81206834 -0.5705206 0.3830646 -0.28128907 0.3765371 0.05254412 0.40175462
0.84669125 0.018946238 -0.25941703 -0.52040625 0.28925505 -0.048439685 0.06434527 -0.4821066
-0.6683948 0.24914671 0.18530571 -0.05996762 0.37581027 -0.14269373 0.16150466 0.53590846
-0.005718534 -0.9869227 -0.062265128 0.2852973 -0.086095616 -0.1533931 -0.37938574 0.23440342
-0.3027286 -0.0947655 -0.022418078 -0.62062573 0.41585448 0.31774414 -0.8784173 0.47934666
-0.21025911 -1.0558168 -0.44869193 -0.5883323 0.6184859 -0.29032198 -0.11521545 -0.05456631
0.06578863 0.3331151 -0.0016418593 -0.18296397 -0.017985815 0.56438965 -0.61685604 -0.08001255
-0.07528004 1.7815701 0.35688987 -0.1438344 -0.16709955 -0.32956418 1.0087498 1.3870945
0.2961105 -0.05815476 0.020797098 0.015795955 0.2420548 0.0012769882 -0.1549385 0.12731312
0.2939575 -0.13482599 -0.11250814 -0.15365762 -0.13357532 -0.24043666 -0.6387602 -0.7239213
0.31548667 0.17099288 -0.05450515 0.016538534 -0.6161641 0.06534409 0.7084097 1.2104326
-0.103021346 -0.40623614 -0.122612655 0.09047055 -0.46863925 -0.23020352 0.16956392 0.14837644
-0.35941544 -0.038320184 0.15884359 0.6551141 -0.3063911 0.03529607 -0.57168335 0.37060872
00000000: d403 4a3a b9ec ae3c c4f7 083d a04e 2e3c
00000010: 6737 103d 50eb 513d 1961 c83c 36e5 3cbc
00000020: 79bf 893c 9c7f f93c 6926 98ba 8f1f 483c
00000030: cf36 e13c b0dc d63c 1c37 59bc 48ad 0d3e
00000040: 0951 b33c d9a5 4dbd 9ee8 6a3e 6eaa 33bc
00000050: c46a cf3c 8f76 e8bc 4e66 243e 2ee8 0e3d
00000060: 5fe9 ed3c d4ec 91be 66bc 9e3c 0f63 db3c
00000070: dc11 e7be ec57 be3c c413 f63c 1a08 3b3e
00000080: 0042 3d3d f19d 413b 1124 2c3d 48cc 0e3e
00000090: a9d5 743c 3d1a d1bc 0f33 b4bb e600 573d
000000a0: acd2 ba3c 1d46 6b3d 8acc b7bd dbeb 163f
000000b0: 4e48 86bc d64e debe d379 cc3a 3509 4a3b
000000c0: a1be 2abd c86e 57ba 49d9 20bc 9404 323d
000000d0: aea5 093f b01a d53d 049f d63c aa8d c6bb
000000e0: e8c9 84bc 4674 58bd 5eb5 b2be 700e b43d
000000f0: 66c9 b93b 5da6 943c 19f9 09ba 2033 fa3c
00000100: 643b adbe 9e4d b7bf b44f d83e 636e 82be
00000110: 2b53 7fbe f70e 323f 8d4b 3b3e 67c0 583d
00000120: 496b c0be 3b38 843f 35ea 45bf ba52 4bbf
00000130: 815f 883e 9fd6 0fbf 9e82 843e 3e03 083f
00000140: 17c0 17bf 5d2e f8bd 7e4b 0c3f bec1 0abf
00000150: 0f3e 303e 8bbb 0d3f 3cc1 db3e 4085 1b3e
00000160: c2fe 98be 98c0 02bf 354b 703e 8ef5 e0be
00000170: 843d 183d e660 75be 643f 3dbf dc18 3a3e
00000180: 428b 823c 34d9 713e c6bb f03e 2add a63e
00000190: cc43 11bf 9405 aa3e bffa 45bf 82a8 b83f
000001a0: ce2a a13c 1df0 28be 28e5 713d 087a ffbd
000001b0: efab 16bf 3953 0fbf c84b dd3e ee56 533e
000001c0: 23d5 423d bbd9 3dbe e2e8 3e3e ef8a 9f3e
000001d0: fc74 483e f8c9 9bbd de9a b6be 85a2 903b
000001e0: 1a08 d83c 65d6 cabd 8ed2 89bc e219 c5be
000001f0: 713e 57bf 2be1 53bf a3e8 973d 95be 783d
00000200: ef6c ebbe b119 963e 39cc e03c fe50 f53d
00000210: 48f9 993f fc2d 1fbe 3a38 1e3e 1301 923e
00000220: e3ac 433f 1339 073f 060d f03e 21dc 3b3f
00000230: 0141 4d3d b4c9 763f 3171 0cbf 49e4 883e
00000240: ae1c 313f 204d 0a3d 82cb 6bbe 8794 003d
00000250: 7e1e 113f f3d4 4a3f 0f14 463f 7eca df3e
00000260: 099b 7fbe b6e3 4f3f a30d 12bf 0b21 c43e
00000270: 1f05 90be 79c9 c03e 8138 573d c8b2 cd3e
00000280: c2c0 583f 2435 9b3c 4fd2 84be 5839 05bf
00000290: 3d19 943e b168 46bd 74c7 833d add6 f6be
000002a0: ec1b 2bbf 5120 7f3e c8c0 3d3e 9ba0 75bd
000002b0: 346a c03e 4e1e 12be 7a61 253e 4c31 093f
000002c0: 8a62 bbbb f7a6 7cbf b809 7fbd 7d12 923e
000002d0: e652 b0bd 1513 1dbe d93e c2be 7307 703e
000002e0: 3eff 9abe 6a14 c2bd 1ea6 b7bc 54e1 1ebf
000002f0: e1ea d43e 5caf a23e f5df 60bf ed6c f53e
00000300: 2a4e 57be 0125 87bf f3ba e5be f29c 16bf
00000310: 1855 1e3f 15a5 94be 14f6 ebbd ec80 5fbd
00000320: 30bc 863d 108e aa3e a833 d7ba e85a 3bbe
00000330: fd56 93bc d77b 103f 47ea 1dbf 9fdd a3bd
00000340: 6c2c 9abd 7d0a e43f 45ba b63e 5349 13be
00000350: 251c 2bbe a3bc a8be b71e 813f 508c b13f
00000360: cc9b 973e b033 6ebd ad5e aa3c 8566 813c
00000370: 37dd 773e 9d60 a73a 33a8 1ebe 5f5e 023e
00000380: 9981 963e d30f 0abe ab6a e6bd 6c58 1dbe
00000390: f8c7 08be 0735 76be ca85 23bf e852 39bf
000003a0: 7887 a13e c218 2f3e cb40 5fbd d27b 873c
000003b0: eebc 1dbf 1fd3 853d 575a 353f 75ef 9a3f
000003c0: dbfc d2bd 2ffe cfbe 581c fbbd a048 b93d
000003d0: 7cf1 efbe 79ba 6bbe 2aa2 2d3e feef 173e
000003e0: 4d05 b8be a0f5 1cbd e5a7 223e 8fb5 273f
000003f0: 4bdf 9cbe 9d92 103d d759 12bf 6dc0 bd3e

architecture.2.bias f4 [64]
0.071858376 -1.0475438 -0.0549741 0.08213429 -0.53571415 0.7738981 0.24173662 0.27578542
0.30464017 0.39186093 0.82286596 -1.5617942 0.37785506 0.6466778 -0.20074046 1.0066183
0.38673764 -0.19078496 0.0935023 -0.11855994 0.4576125 0.5009356 -0.050814886 0.72679424
-0.71181065 0.5553068 0.14605922 1.954159 0.3685043 -0.29098293 0.6976452 -0.71161175
-0.09415829 -0.3465511 -0.0544912 0.23212424 0.16984831 0.39686567 -0.31748155 -0.081527196
-0.34976602 -0.45851123 -0.70746946 -0.9188894 -1.0676776 0.87297785 -0.4403776 0.1733835
-1.140423 -0.22694315 -0.9897896 -0.260647 -0.4211293 -0.5775698 -0.45650843 -0.57506996
0.02997927 -0.21698803 -0.68996274 -0.86523867 -0.65328085 0.5371223 -0.6542685 0.5993333
00000000: 7c2a 933d ea15 86bf 862c 61bd 0636 a83d
00000010: 9024 09bf 301e 463f ce89 773e bf33 8d3e
00000020: ccf9 9b3e ffa1 c83e 58a7 523f dfe8 c7bf
00000030: 3876 c13e ad8c 253f e88e 4dbe ded8 803f
00000040: 7a02 c63e 225d 43be 227e bf3d 8ecf f2bd
00000050: 304c ea3e 513d 003f 4523 50bd 300f 3a3f
00000060: 3939 36bf 9628 0e3f 8c90 153e e221 fa3f
00000070: 98ac bc3e b7fb 94be e098 323f 302c 36bf
00000080: 10d6 c0bd 256f b1be 2a32 5fbd fab1 6d3e
00000090: b7ec 2d3e fa31 cb3e f18c a2be bbf7 a6bd
000000a0: 8814 b3be fcc1 eabe b81c 35bf 563c 6bbf
000000b0: a9a9 88bf 7a7b 5f3f 2c79 e1be 728b 313e
000000c0: 62f9 91bf c963 68be da62 7dbf 8673 85be
000000d0: 429e d7be 9ddb 13bf 79bb e9be c937 13bf
000000e0: 1697 f53c 1c32 5ebe 66a1 30bf 4880 5dbf
000000f0: 6a3d 27bf d980 093f 247e 27bf e86d 193f

architecture.4.weight f4 [12, 64]
-0.041679908 -0.003309558 -0.002796451 0.000100397934 -0.009914283 -0.002389931 -0.004535625 0.0010411338
-0.0028977895 -0.0008165424 -0.00014469241 0.0056675146 0.001551364 -0.0070655523 -0.0011899157 0.0021771656
-0.0021638244 0.00021948577 -0.005771268 0.0026215722 0.0057155904 -0.0003839755 0.0060712076 -0.029828813
0.00932971 -0.0006270754 0.0008334322 0.0055327783 -0.0010919294 0.0004874908 -0.035812896 0.00023330492
-0.0014464464 -0.0017541888 -0.19665249 0.002472083 0.0013540118 -0.0047562486 0.0014087018 0.0660158
0.0031476368 -0.0010176245 -0.0031581223 -0.0061959894 0.001192645 -0.0019027089 0.0008871654 -0.0013756645
-0.0065695383 -0.0005035541 0.0029478786 -0.0025329574 0.0046479157 -0.004575564 -0.006131718 0.0032128543
0.0023996697 0.1408113 0.011762706 -0.0053754393 -0.02356877 0.005143897 0.002874601 -0.012393253
-0.12766355 0.0011547767 -0.0009239296 -0.0004303477 -0.00954411 -0.005309714 0.001887502 -0.0060784286
0.0014279102 0.0032382533 -0.07963773 0.006090287 0.0035946174 -0.0035954767 0.00050328387 0.0018351062
-0.0031504624 0.0005873442 -9.0770205e-05 -0.00080238294 0.093692936 2.4298206e-05 0.0018524638 0.0019241855
0.0017004664 -0.0021478573 0.00012946146 0.016834263 -0.0023421233 0.002471084 0.019198766 0.000745782
0.0003086747 0.0014547696 0.0025654829 0.0006748134 -0.00028566073 0.0004332448 0.0011906098 -0.16283746
-0.0008829625 -0.0018536851 -0.0014837788 0.0074763014 -0.004194818 0.00019977559 -0.0009895085 -0.0040890044
0.0025215747 0.002043047 -0.007614024 0.0011233983 0.002158753 -0.006807669 0.0054075336 -0.007641128
-0.0015645702 0.04227637 0.01549895 0.0044981563 -8.272737e-05 -0.026480803 -0.006571011 0.009409389
0.1849529 -0.0011065713 -0.006817974 0.00063630665 0.00282798 -0.00028755024 0.0055451095 0.0004016817
0.0040440424 0.001834974 0.06570411 -0.006605681 -0.017667277 4.5415065e-05 0.0036161216 0.004513947
0.0058858283 -0.0010728077 0.006257541 -0.0021807456 0.03334959 0.0033747992 0.0058712894 0.0006128137
0.0075800107 0.003507718 -0.0025098645 -0.003120129 0.0020219246 -0.004180086 0.06385829 -0.0017208285
-0.002711933 0.0008155686 -0.031493742 0.0036371115 0.0025110976 -0.010748675 -0.0039390232 -0.144653
-0.0011338046 0.016281445 -0.0060414067 0.005895825 0.00865265 0.0023646185 -0.0038152987 0.0024628814
-0.022204006 -0.0070860544 0.0052223452 -0.001011244 -9.009456e-05 -0.012150189 0.0027777934 0.0035099974
-0.00086465874 0.05587188 -0.007812106 -0.0054701823 0.010086796 0.02240822 0.0039043934 0.0018955794
0.055404812 -0.33501214 -0.21855362 -0.24514514 -0.07407067 0.24268948 0.36803925 0.4721666
-0.27022463 0.43239856 0.14693369 -0.64364606 -0.06955498 0.031479962 0.21822892 0.32925254
0.21996301 -0.2294764 -0.069985 -0.408946 0.0315278 0.38877296 0.028509794 0.18348946
-0.40344205 0.019921992 -0.16190445 0.55696464 0.22839111 -0.21962482 0.155707 -0.43102965
0.0861933 -0.15899467 0.011106777 0.32129553 0.15353677 0.026096962 0.03311058 0.1362238
-0.16735339 -0.03505317 -0.28026098 -0.24834387 -0.19776766 0.11908371 -0.13273779 0.13357726
-0.57187814 -0.3387679 -0.35401788 -0.16400921 -0.2015804 -0.035347287 -0.10536668 -0.02825539
-0.3327595 0.06116898 -0.22967552 -0.102690816 -0.09220931 0.1740241 -0.0070890654 0.097738996
00000000: 8db8 2abd 2be5 58bb aa44 37bb bb8c d238
00000010: 846f 22bc 63a0 1cbb 959f 94bb a776 883a
00000020: d7e8 3dbb 3c0d 56ba 93b8 17b9 8fb6 b93b
00000030: 2357 cb3a 2686 e7bb f2f6 9bba c7ae 0e3b
00000040: f3ce 0dbb c325 6639 e81c bdbb afce 2b3b
00000050: d949 bb3b 5250 c9b9 fbf0 c63b 8e5b f4bc
00000060: a4db 183c 5162 24ba b07a 5a3a 4f4c b53b
00000070: 121f 8fba e895 ff39 8bb0 12bd 50a3 7439
00000080: b096 bdba cfec e5ba 455f 49be ac02 223b
00000090: 1979 b13a 4eda 9bbb 30a4 b83a 4b33 873d
000000a0: 9548 4e3b d061 85ba 80f8 4ebb ba07 cbbb
000000b0: 8752 9c3a 5164 f9ba aa90 683a a44f b4ba
000000c0: 4845 d7bb f200 04ba 3231 413b f9ff 25bb
000000d0: 8b4d 983b 9dee 95bb 94ec c8bb c08e 523b
000000e0: c743 1d3b d630 103e 5db8 403c 7424 b0bb
000000f0: 4b13 c1bc 238e a83b cd63 3c3b 120d 4bbc
00000100: 3cba 02be e05b 973a de33 72ba 4aa0 e1b9
00000110: e65e 1cbc 1cfd adbb 0f66 f73a 8e2d c7bb
00000120: b728 bb3a e038 543b 1b19 a3bd 0891 c73b
00000130: ac93 6b3b 17a2 6bbb cfee 033a f287 f03a
00000140: fd77 4ebb 01f8 193a e25b beb8 0257 52ba
00000150: 15e2 bf3d 00d4 cb37 5fce f23a f434 fc3a
00000160: 2fe2 de3a 11c3 0cbb 0cc0 0739 02e8 893c
00000170: 4f7e 19bb e9f1 213b bb46 9d3c 9580 433a
00000180: 9ed5 a139 f8ad be3a a921 283b f6e5 303a
00000190: bcc4 95b9 2225 e339 3c0e 9c3a ddbe 26be
000001a0: 9c76 67ba 5af7 f2ba 5b7b c2ba c3fb f43b
000001b0: af74 89bb da7a 5139 65b2 81ba 0efd 85bb
000001c0: 0141 253b a4e4 053b 107f f9bb fe3e 933a
000001d0: de79 0d3b de12 dfbb ae31 b13b 6d62 fabb
000001e0: 4412 cdba fd29 2d3d 4fef 7d3c 4565 933b
000001f0: eb7d adb8 45ee d8bc a351 d7bb d729 1a3c
00000200: 4b64 3d3e 5f0a 91ba 5069 dfbb d1cd 263a
00000210: a255 393b 57c2 96b9 c0b3 b53b ce98 d239
00000220: e383 843b 8383 f03a e08f 863d 7874 d8bb
00000230: f7ba 90bc 0e7c 3e38 74fc 6c3b bbe9 933b
00000240: e8dd c03b 749d 8cba 0f0c cd3b d7ea 0ebb
00000250: 9499 083d bc2b 5d3b f263 c03b 3ba5 203a
00000260: bd61 f83b bee1 653b 8a7c 24bb 147b 4cbb
00000270: 4482 043b 1af9 88bb 23c8 823d 6c8d e1ba
00000280: b0ba 31bb e2cb 553a 95ff 00bd 9b5c 6e3b
00000290: 3a91 243b 361b 30bc ec12 81bb eb1f 14be
000002a0: 2b9c 94ba aa60 853c fef6 c5bb c431 c13b
000002b0: d8c3 0d3c b7f7 1a3b 170a 7abb 4b68 213b
000002c0: 2de5 b5bc 2232 e8bb 3520 ab3b b88b 84ba
000002d0: 26f1 bcb8 9611 47bc a40b 363b fc07 663b
000002e0: 44aa 62ba ead9 643d b2fc ffbb 373f b3bb
000002f0: 1743 253c 7291 b73c dae0 7f3b 1775 f83a
00000300: 28f0 623d b686 abbe 85cc 5fbe 5407 7bbe
00000310: 5db2 97bd 9783 783e a46f bc3e d2bf f13e
00000320: e25a 8abe 5863 dd3e c975 163e fdc5 24bf
00000330: d772 8ebd 22f1 003d 6777 5f3e ca93 a83e
00000340: fc3d 613e ddfb 6abe 4c54 8fbd 5f61 d1be
00000350: 4b23 013d 400d c73e 5f8d e93c a9e4 3b3e
00000360: f58f cebe 7233 a33c 48ca 25be 3c95 0e3f
00000370: 5cdf 693e 54e5 60be a871 1f3e ebaf dcbe
00000380: 1d86 b03d 80cf 22be 33f9 353c d980 a43e
00000390: be38 1d3e 4cc9 d53c f69e 073d 407e 0b3e
000003a0: b05e 2bbe ea93 0fbd 5e7e 8fbe db4d 7ebe
000003b0: 9b83 4abe 29e2 f33d 6aec 07be 7ac8 083e
000003c0: 9b66 12bf fc72 adbe d541 b5be 08f2 27be
000003d0: 186b 4ebe 51c8 10bd 7cca d7bd d977 e7bc
000003e0: 745f aabe 538c 7a3d 0f30 6bbe 904f d2bd
000003f0: 3cd8 bcbd 6033 323e 644b e8bb 622b c83d

architecture.4.bias f4 [12]
0.026025888 -0.009535374 0.05046993 1.2364508 0.015974682 -0.0018805178 -0.2566671 0.99159515
-0.12469289 -0.017278539 0.10085095 -0.22024564
00000000: 3e34 d53c 423a 1cbc 8fb9 4e3d 0544 9e3f
00000010: 56dd 823c b57b f6ba df69 83be 2ed9 7d3f
00000020: fc5e ffbd b98b 8dbc f18a ce3d 1388 61be

std f4 [12]
0.2 0.2 0.2 0.2 0.2 0.20002593 0.2 0.2
0.2 0.2 0.2 0.2
00000000: cdcc 4c3e cdcc 4c3e cdcc 4c3e cdcc 4c3e
00000010: cdcc 4c3e 99d3 4c3e cdcc 4c3e cdcc 4c3e
00000020: cdcc 4c3e cdcc 4c3e cdcc 4c3e cdcc 4c3e

architecture.0.weight f4 [64, 36]
-0.310742 0.13257666 0.3029375 -0.0415467 0.022770248 0.15236568 -0.38276753 -0.3806594
0.09185902 -0.6403226 -0.7790825 0.0058050756 0.4361315 0.5881048 0.7866987 -0.004807235
-0.036786802 0.16217545 -0.019851144 0.002680629 0.044501625 0.36431286 0.3821619 -0.11093852
0.6230689 0.7977363 5.9559727e-05 -0.4533849 -0.5883599 -0.9704659 0.0066964845 0.00025923608
0.004438957 -0.0042651137 -0.0057487027 -0.009475395 0.003962588 0.013497553 -0.015385422 -0.003566676
0.057329927 -0.08010615 -0.07909225 -0.12454488 -0.0042379233 -0.12595291 0.19790837 0.22367638
0.062781364 0.0091468785 -0.1421011 -0.01881361 -0.04741964 0.042630438 0.036263626 0.027828295
-0.07028673 0.004010521 -0.019087201 0.16509528 -0.06636111 -0.10388065 0.07386869 0.120300755
0.16064565 -0.10948542 0.026327845 0.016721131 0.0051712766 -0.008762044 -0.013854875 0.022220261
0.0040049776 -0.21768665 -0.031086545 0.030603394 -0.18625711 -0.0070607965 -0.041059244 0.2481716
0.0775229 0.4625544 -0.32952204 -0.17124887 -0.35766536 -0.029483942 0.079416096 0.033470668
-0.023962393 0.068473965 0.0059923255 -0.002181425 -0.0072320397 0.010157349 -0.25838983 -0.059140872
-0.44980964 0.32740209 0.16259357 0.30202317 0.18417212 -0.11799 0.0420704 0.026272886
-0.013942109 0.006027391 0.0036009527 0.00087983423 0.011019264 0.005463448 0.017019005 -0.074628726
0.10098606 0.0093664145 -0.07364558 0.0014583294 -0.06486155 0.13218641 0.13129103 -0.17948943
-0.041893136 -0.09854584 -0.030214442 -0.071010895 -0.16754512 0.05717119 -0.023150796 0.01213015
0.0030732797 0.17287126 0.095450774 -0.04942906 0.032008395 0.27682966 -0.08687481 0.09544591
-0.10595212 0.15620466 -0.01723175 0.014944715 -0.0051700645 0.007913775 0.0038303914 -0.0054635336
0.0070670266 -0.028465208 -0.06489996 0.09195478 -0.06125209 -0.033538863 -0.10731485 -0.07562084
-0.009374673 -0.13163556 0.09581955 0.09284711 -0.24623506 -0.36972156 -0.23626404 0.031904005
0.025739959 -0.012260785 -0.051218867 0.14343454 0.09434106 0.076590665 0.07060541 0.42085263
0.0067196633 -0.10587269 0.09435381 0.29593956 0.010461262 -0.26747862 -0.019038144 -0.014313014
-0.013916786 -0.04079988 0.034041103 0.008222802 0.012736253 -0.021904945 0.0020441285 0.19598576
0.056599963 -0.06542579 0.11100175 -0.052605823 0.031787954 0.054149386 -0.0021717937 -0.120580584
0.07583824 0.029518971 0.092205554 0.149378 0.086220555 0.24400695 0.03141041 0.0027291025
0.043518156 0.04778463 0.05067235 -0.150879 0.022577299 0.11544414 0.11934885 -0.0060329284
0.019043392 -0.060340736 0.018885527 -0.017193682 -0.0012369897 -0.0077343085 0.0010262631 0.009630522
0.103474855 0.12832777 -0.06443097 0.06703382 0.20473488 -0.06280791 1.1162177 -0.2912935
0.11518375 -0.28770584 0.16193895 0.61619973 -0.42956588 -0.1263415 0.32701606 0.021039698
0.020148106 0.0039054123 0.012695989 -0.0024630036 -0.004882184 -1.0765595 0.28014848 -0.12409669
0.29943803 -0.2757248 -0.57300425 0.3569238 -0.058785476 -0.2583188 -0.0036905783 0.012031533
0.0012218356 -0.0016268686 -0.005175465 -0.00044198174 -0.31238493 -0.007765226 -0.1195223 0.01241234
00000000: 9319 9fbe 2dc2 073e a01a 9b3e df2c 2abd
00000010: ac88 ba3c c005 1c3e 1bfa c3be cae5 c2be
00000020: 9520 bc3d 2fec 23bf f371 47bf 8138 be3b
00000030: a14c df3e 098e 163f 1665 493f 0386 9dbb
00000040: c2ad 16bd 5211 263e de9e a2bc 7ead 2f3b
00000050: 5647 363d 3787 ba3e b9aa c33e bc33 e3bd
00000060: 7281 1f3f 7238 4c3f c5cf 7938 1122 e8be
00000070: c19e 16bf 7470 78bf 2f6e db3b 14ea 8739
00000080: ac74 913b 5ec2 8bbb 9d5f bcbb b03e 1bbc
00000090: 99d8 813b d724 5d3c 2313 7cbc e5be 69bb
000000a0: c9d2 6a3d b10e a4bd 1efb a1bd 6311 ffbd
000000b0: 47de 8abb cdf9 00be 7ea8 4a3e 6c0b 653e
000000c0: 8493 803d cadc 153c f382 11be 001f 9abc
000000d0: 193b 42bd 419d 2e3d 2b89 143d 2af8 e33c
000000e0: 7df2 8fbd b06a 833b c35c 9cbc bd0e 293e
000000f0: 55e8 87bd 61bf d4bd 7848 973d 3e60 f63d
00000100: 4b80 243e e439 e0bd 7ead d73c c1fa 883c
00000110: d073 a93b ad8e 0fbc 8fff 62bc 4407 b63c
00000120: 303c 833b 40e9 5ebe 36a9 febc f8b3 fa3c
00000130: 2fba 3ebe 415e e7bb bd2d 28bd b220 7e3e
00000140: 54c4 9e3d eed3 ec3e 1db7 a8be dd5b 2fbe
00000150: ea1f b7be 4f88 f1bc e8a4 a23d 8a18 093d
00000160: c84c c4bc 143c 8c3d 455b c43b 3df6 0ebb
00000170: bffa ecbb 026b 263c ac4b 84be b33d 72bd
00000180: 734d e6be 3fa1 a73e ee7e 263e c8a2 9a3e
00000190: 9e97 3c3e bea4 f1bd 0352 2c3d 3c3a d73c
000001a0: 726d 64bc 6c81 c53b f6fd 6b3b ada4 663a
000001b0: 258a 343c b906 b33b 716b 8b3c f2d6 98bd
000001c0: c8d1 ce3d 9775 193c 7ed3 96bd 6a25 bf3a
000001d0: 22d6 84bd e05b 073e 2871 063e 14cc 37be
000001e0: 2398 2bbd 67d2 c9bd 4784 f7bc 296e 91bd
000001f0: f390 2bbe 562c 6a3d bda6 bdbc 89bd 463c
00000200: 1469 493b 2a05 313e b27b c33d 2076 4abd
00000210: 3c1b 033d 9ebc 8d3e 6ceb b1bd 2579 c33d
00000220: 6dfd d8bd 1df4 1f3e 9929 8dbc aeda 743c
00000230: a569 a9bb c7a8 013c 4e07 7b3b 7107 b3bb
00000240: 8492 e73b de2f e9bc 45ea 84bd ca52 bc3d
00000250: 79e3 7abd 0c60 09bd e3c7 dbbd 19df 9abd
00000260: 3a98 19bc 79cb 06be 0a3d c43d a026 be3d
00000270: 0b25 7cbe 254c bdbe 33ef 71be c6ad 023d
00000280: 9bdc d23c 76e1 48bc e0ca 51bd 81e0 123e
00000290: e335 c13d 91db 9c3d 9299 903d ff79 d73e
000002a0: 9f30 dc3b c8d3 d8bd 923c c13d 6485 973e
000002b0: b765 2b3c f5f2 88be e2f5 9bbc 2281 6abc
000002c0: 3b03 64bc c61d 27bd af6e 0b3d eeb8 063c
000002d0: b8ab 503c 0072 b3bc c9f6 053b 7eb0 483e
000002e0: 5dd5 673d f5fd 85bd e354 e33d 3479 57bd
000002f0: 1634 023d bfcb 5d3d a754 0ebb f4f2 f6bd
00000300: 1451 9b3d c5d1 f13c 44d6 bc3d 8cf6 183e
00000310: 6794 b03d f5dc 793e 34a8 003d beda 323b
00000320: 1840 323d d1b9 433d cf8d 4f3d 0680 1abe
00000330: 07f4 b83c fa6d ec3d 2b6d f43d dfaf c5bb
00000340: e300 9c3c d927 77bd d2b5 9a3c c4d9 8cbc
00000350: 7d22 a2ba 1570 fdbb ad83 863a 56c9 1d3c
00000360: a0ea d33d 5b68 033e 62f4 83bd 0749 893d
00000370: 05a6 513e 6fa1 80bd 39e0 8e3f 6c24 95be
00000380: 75e5 eb3d 2e4e 93be 53d3 253e 44bf 1d3f
00000390: 0ff0 dbbe ab5f 01be a66e a73e 725b ac3c
000003a0: a40d a53c f2f1 7f3b d602 503c 586a 21bb
000003b0: bafa 9fbb b4cc 89bf 9f6f 8f3e 6826 febd
000003c0: f14f 993e cd2b 8dbe 68b0 12bf b7be b63e
000003d0: 0ac9 70bd 5d42 84be a1dd 71bb e81f 453c
000003e0: 0026 a03a a73c d5ba f296 a9bb c9b9 e7b9
000003f0: ebf0 9fbe 7073 febb 1cc8 f4bd 215d 4b3c

architecture.0.bias f4 [64]
0.18823515 2.254493 1.5496505 -0.9889835 0.7758568 1.6149296 1.3707153 -0.8075217
0.08209706 -1.3424035 -0.21946412 -0.71259594 1.3584354 0.42626682 -0.16722031 1.335877
0.71353734 0.9519661 -1.1637417 -2.3067467 -1.1924808 1.107895 -1.6555333 -0.94194764
-1.427024 -0.0053424095 -1.487012 -1.2526137 0.89092755 1.1240401 -1.2819394 1.5005827
-1.0660342 1.3625205 0.41143566 -1.4568309 0.8202526 0.9326367 -0.7740798 -1.4513379
-1.2773216 -1.1860011 -1.6875591 1.4313301 0.8102726 0.1559861 -1.1904542 0.95066327
0.7869658 0.9300324 -0.8895785 0.01335588 0.21738823 1.9116335 1.5802122 -0.47597376
2.6029766 1.2313497 0.010624125 -1.2070441 0.8212394 1.5640577 -1.2489979 -0.09931243
00000000: b7c0 403e 9d49 1040 f35a c63f 062e 7dbf
00000010: 8d9e 463f 03b6 ce3f 9973 af3f beb9 4ebf
00000020: 8122 a83d e1d3 abbf 34bb 60be b06c 36bf
00000030: 36e1 ad3f a53f da3e cd3b 2bbe 04fe aa3f
00000040: 62aa 363f 0db4 733f 7df5 94bf bda1 13c0
00000050: 36a3 98bf 81cf 8d3f 84e8 d3bf 7b23 71bf
00000060: b9a8 b6bf 610f afbb 6956 bebf a555 a0bf
00000070: d413 643f 8ce0 8f3f 9716 a4bf 1813 c03f
00000080: cf73 88bf 1267 ae3f b2a7 d23e 6f79 babf
00000090: 13fc 513f 47c1 6e3f 182a 46bf 71c5 b9bf
000000a0: 467f a3bf e2ce 97bf f001 d8bf d335 b73f
000000b0: 066e 4f3f d2ba 1f3e ce60 98bf ab5e 733f
000000c0: 9776 493f 9a16 6e3f 6bbb 63bf 9fd2 5a3c
000000d0: 059b 5e3e 68b0 f43f 6544 ca3f d5b2 f3be
000000e0: 2b97 2640 de9c 9d3f cf10 2e3c 6c80 9abf
000000f0: bf3c 523f 0b33 c83f 2adf 9fbf 5164 cbbd

architecture.2.weight f4 [64, 64]
-0.0979739 -0.7105786 -0.4496088 0.23743409 -0.4326394 -0.587337 -0.31301913 0.26760295
-0.35969695 0.12460632 -0.21810403 0.2531558 -0.31765342 -0.38999078 -0.53396523 -0.51852834
-0.36098453 -0.6038202 0.55916315 0.8381215 0.08868245 -0.047366425 0.80400133 0.7192985
0.66588384 0.1776201 0.124482594 0.71488 -0.4869731 -0.63571835 0.4472806 -0.6964687
-0.021872923 -0.48922837 -0.37585938 0.04084661 -0.98573196 -0.35754275 0.58409804 0.30835342
0.62454104 0.33368573 0.7727926 -0.4255846 -0.3779304 -0.32212836 0.46441057 -0.4774551
-0.37492406 -0.18928976 0.6085692 -0.043234 0.086163744 -0.306003 -0.0065786396 0.37742195
-0.7195457 -0.5846775 -0.2527904 0.83132553 -0.6053629 -0.07816034 0.27777937 -0.24242003
0.3470221 0.7431977 0.17746848 -0.54481286 0.4336764 0.8036658 -0.019202307 -0.30134824
0.18830481 -0.34313115 0.30236208 -0.41248435 0.44207522 0.4639673 0.35932133 0.42131025
0.36276725 0.40923184 -0.53620136 -0.7848219 -0.23563138 -0.18147156 -0.5410558 -0.5355982
-0.11375335 -0.043240555 -0.1409539 -0.31690308 0.4134641 0.46777347 -0.30439755 0.60272133
-0.23713613 0.3663506 0.1581809 -0.4828639 0.7738962 0.4626797 0.032357622 -0.18633664
-0.32113892 -0.7377517 -0.503404 0.26055688 0.3141703 0.21594207 -0.53559655 0.3075017
0.72589564 0.32085842 -0.82402164 0.4388796 -0.25580877 0.5012004 -0.029613435 -0.7142755
0.6223383 0.25254408 -0.0069687003 -0.7809426 0.6258257 0.17454895 -0.39335674 0.27128464
0.35153526 0.5696993 -0.5203698 -0.03612771 0.014063341 0.14477092 -0.27653795 0.60424954
-0.069003776 0.37290385 -0.003178667 -0.0199376 0.1982325 -0.44118163 -0.07314525 -0.07976477
0.051565636 0.03275065 0.02292411 -0.5210697 0.66374636 -0.083930396 -0.06512282 0.022981137
0.38652003 -0.36145303 -0.08294229 0.112430975 -0.096377045 -0.11479237 0.19547251 -0.028056704
0.37921023 -0.23340265 0.28830302 0.27656555 -0.17433968 -0.0880668 0.084558286 -0.1388476
0.08215545 -0.17928155 0.12435729 -0.48974234 -0.29649985 0.108449355 -0.41758043 -0.09289156
0.1339724 -0.31167436 -0.070785716 0.56105953 -0.12170219 -0.289855 -0.22280389 -0.02340614
0.542341 0.095053256 0.057545345 -0.46062946 0.3544382 -0.24807355 0.00623854 -0.12117696
-0.14788593 -0.67593205 -0.414538 0.09767435 -0.466796 -0.5531087 -0.1525359 0.40480697
-0.42041263 0.30340117 -0.24013135 0.48284933 -0.60625553 -0.18312787 -0.3660888 -0.579395
-0.5966992 -0.57388765 0.9069195 0.5879994 0.37434623 -0.14298135 0.7475037 0.7815521
0.5594269 0.24617256 0.20006108 0.54532546 -0.59304386 -0.5027447 0.52972364 -0.713131
-0.13477904 -0.39266285 -0.29610857 0.18311273 -0.8184382 -0.3143551 0.40489045 0.32992834
0.7833477 0.6828106 0.4261829 0.006124756 -0.47335538 -0.45685947 0.48169726 -0.42912686
-0.49841273 -0.37462425 0.48529765 -0.14923704 0.079685085 -0.3072366 -0.18578878 0.46485227
-0.727916 -0.59118843 -0.2511071 0.76580745 -0.6366072 -0.10237395 0.42053545 -0.33802527
00000000: 8aa6 c8bd 7be8 35bf 2033 e6be ec21 733e
00000010: e982 ddbe b85b 16bf 0b44 a0be 4103 893e
00000020: 332a b8be 9931 ff3d aa56 5fbe a39d 813e
00000030: 78a3 a2be dfac c7be f2b1 08bf 46be 04bf
00000040: f7d2 b8be f693 1abf 5125 0f3f 218f 563f
00000050: 259f b53d 4c03 42bd 08d3 4d3f f223 383f
00000060: 5d77 2a3f 0be2 353e bbf0 fe3d 6002 373f
00000070: 8a54 f9be 70be 22bf f601 e53e c64b 32bf
00000080: d82e b3bc 247c fabe a470 c0be c64e 273d
00000090: ee58 7cbf d80f b7be 7387 153f 80e0 9d3e
000000a0: ece1 1f3f dbd8 aa3e bcd5 453f 3ae6 d9be
000000b0: 1880 c1be 02ee a4be 39c7 ed3e ff74 f4be
000000c0: 0cf6 bfbe 2dd5 41be 31cb 1b3f 2316 31bd
000000d0: 9e76 b03d 6dac 9cbe a191 d7bb 733d c13e
000000e0: 2634 38bf 6dad 15bf be6d 81be c0d1 543f
000000f0: 10f9 1abf 8712 a0bd 1939 8e3e f53c 78be
00000100: e1ac b13e 3442 3e3f 4cba 353e db78 0bbf
00000110: d50a de3e 0bbd 4d3f 284e 9dbc 514a 9abe
00000120: fad2 403e e3ae afbe 34cf 9a3e 2631 d3be
00000130: af57 e23e 1f8d ed3e f7f8 b73e fab5 d73e
00000140: a1bc b93e d686 d13e 7e44 09bf 17ea 48bf
00000150: 5a49 71be aed3 39be a282 0abf f71c 09bf
00000160: 84f7 e8bd 021d 31bd 3856 10be 1f41 a2be
00000170: 91b1 d33e 0180 ef3e ffd9 9bbe f24b 1a3f
00000180: d0d3 72be 4e92 bb3e 2dfa 213e f039 f7be
00000190: 101e 463f 5be4 ec3e 6d89 043d 08cf 3ebe
000001a0: 526c a4be 4cdd 3cbf 16df 00bf b667 853e
000001b0: eeda a03e eb1f 5d3e db1c 09bf dd70 9d3e
000001c0: 4cd4 393f 8e47 a43e 15f3 52bf d4b4 e03e
000001d0: 5ef9 82be ab4e 003f e097 f2bc c2da 36bf
000001e0: 9051 1f3f 754d 813e b259 e4bb dbeb 47bf
000001f0: 1d36 203f f6bc 323e 0e66 c9be d2e5 8a3e
00000200: 6efc b33e d0d7 113f f536 05bf a6fa 13bd
00000210: ed69 663c d43e 143e 6296 8dbe 19b0 1a3f
00000220: da51 8dbd 41ed be3e 2f51 50bb 2d54 a3bc
00000230: 76fd 4a3e 8fe2 e1be 2dcd 95bd b65b a3bd
00000240: 7d36 533d 8c25 063d 58cb bb3c d364 05bf
00000250: 48eb 293f b3e3 abbd 1d5f 85bd f042 bc3c
00000260: f4e5 c53e 5f10 b9be a6dd a9bd 3642 e63d
00000270: 5461 c5bd 4318 ebbd f229 483e 2cd7 e5bc
00000280: d827 c23e 1b01 6fbe 749c 933e 009a 8d3e
00000290: 1a86 32be 5e5c b4bd e52c ad3d 112e 0ebe
000002a0: 1e41 a83d 9595 37be 09af fe3d 82bf fabe
000002b0: d4ce 97be b21a de3d 1acd d5be ee3d bebd
000002c0: 1030 093e c893 9fbe 1af8 90bd 99a1 0f3f
000002d0: ff3e f9bd e067 94be b426 64be 3cbe bfbc
000002e0: dcd6 0a3f 48ab c23d abb4 6b3d a0d7 ebbe
000002f0: ec78 b53e fe06 7ebe ab6c cc3b a02b f8bd
00000300: 696f 17be e209 2dbf 533e d4be 7d09 c83d
00000310: e3ff eebe 8898 0dbf 5f32 1cbe dc42 cf3e
00000320: 5340 d7be 6657 9b3e fee4 75be 0738 f73e
00000330: 9033 1bbf df85 3bbe fe6f bbbe 3b53 14bf
00000340: 47c1 18bf 4dea 12bf e02b 683f 2187 163f
00000350: 4faa bf3e b469 12be 675c 3f3f cc13 483f
00000360: 9a36 0f3f a914 7c3e d0dc 4c3e 739a 0b3f
00000370: b9d1 17bf e0b3 00bf f89b 073f c18f 36bf
00000380: 8403 0abe 1b0b c9be 8b9b 97be e781 3b3e
00000390: 2a85 51bf 27f3 a0be cd4d cf3e 5eec a83e
000003a0: 7a89 483f adcc 2e3f a534 da3e 2db2 c83b
000003b0: a35b f2be 7ce9 e9be 06a1 f63e 84b6 dbbe
000003c0: f42f ffbe c0ce bfbe ef78 f83e 98d1 18be
000003d0: ef31 a33d 1e4e 9dbe 6a3f 3ebe 1e01 ee3e
000003e0: b458 3abf 2058 17bf 1c91 80be f50b 443f
000003f0: b1f8 22bf 6fa9 d1bd 6c50 d73e a611 adbe

architecture.2.bias f4 [64]
-1.0988276 1.1066443 0.79049623 -1.2176858 -0.9738902 -1.0944178 -1.1531428 0.9592388
-0.90238804 -0.50234944 0.55418205 -0.69877195 -1.0584887 0.13936533 -1.0413085 0.6307171
0.77369756 0.6752137 -1.063396 -1.0840787 0.8118501 0.5872946 1.0717224 -0.17706653
-0.49320787 -0.7598386 1.0583346 -1.0256171 0.555183 0.42062795 -0.98146677 1.1526064
-1.2525862 0.37492877 -0.45363158 -0.2211129 -0.8691442 -0.5159606 0.782665 -1.0284922
-1.0602182 -0.73350424 -0.4188174 1.0693136 0.38634083 0.51269966 0.39511773 -0.3067189
-0.9524479 -0.5991011 0.6003682 -0.514191 -0.9862797 -0.9723287 -1.0626482 0.6328357
-1.0633233 1.048654 -1.1892401 -1.0525604 0.97494763 -0.12797244 1.0436817 1.016108
00000000: 62a6 8cbf 85a6 8d3f f65d 4a3f 21dd 9bbf
00000010: de50 79bf e215 8cbf 2f9a 93bf ad90 753f
00000020: e702 67bf f999 00bf e0de 0d3f b8e2 32bf
00000030: 8f7c 87bf c9b5 0e3e 9949 85bf ad76 213f
00000040: 0b11 463f ceda 2c3f 5c1d 88bf 17c3 8abf
00000050: 68d5 4f3f f058 163f 332e 893f ee50 35be
00000060: be85 fcbe c884 42bf 8277 873f 6c47 83bf
00000070: 7920 0e3f 8c5c d73e 6841 7bbf 9b88 933f
00000080: bf54 a0bf aaf6 bf3e 6642 e8be 6c6b 62be
00000090: 3c80 5ebf fe15 04bf bc5c 483f a2a5 83bf
000000a0: 3bb5 87bf efc6 3bbf 3c6f d6be 45df 883f
000000b0: 77ce c53e 4940 033f df4c ca3e 420a 9dbe
000000c0: a0d3 73bf b15e 19bf bbb1 193f 05a2 03bf
000000d0: d47c 7cbf 89ea 78bf db04 88bf 8501 223f
000000e0: fa1a 88bf 4b3a 863f 0539 98bf 4dba 86bf
000000f0: 2b96 793f 350b 03be 5d97 853f d40f 823f

architecture.4.weight f4 [1, 64]
6.057695 -5.962809 -6.8951864 5.767101 6.128326 6.0584464 5.9878364 -5.962521
7.703754 7.366121 -6.0178833 5.80318 7.110665 -8.185966 5.7533793 -7.6564956
-7.212269 8.283585 5.943463 5.859019 -6.086369 -7.7599406 -6.067427 7.485399
7.1925473 6.083946 -6.008266 5.9299912 -5.6842666 -8.101017 6.556911 -5.919703
5.9783254 -7.701569 8.179482 7.3595524 5.492661 5.996994 -6.3299003 5.8313537
6.005241 5.9814186 5.9178543 -5.8932023 -7.218816 -7.0408716 -7.712945 7.8524685
6.0931087 7.7258925 -6.069382 8.194381 5.87087 5.915012 5.8452315 -8.678277
6.015116 -5.9950223 5.828728 5.9908566 -5.8251977 -7.656712 -6.135552 -5.788346
00000000: a3d8 c140 55cf bec0 5ea5 dcc0 178c b840
00000010: 3f1b c440 cbde c140 5b9c bf40 f9cc bec0
00000020: 2785 f640 43b7 eb40 8092 c0c0 a7b3 b940
00000030: 918a e340 b7f9 02c1 af1b b840 0302 f5c0
00000040: e8ca e6c0 9089 0441 d930 be40 157d bb40
00000050: 89c3 c2c0 6f51 f8c0 5d28 c2c0 6388 ef40
00000060: 5929 e640 b0af c240 b743 c0c0 7dc2 bd40
00000070: 83e5 b5c0 c49d 01c1 37d2 d140 356e bdc0
00000080: 714e bf40 4173 f6c0 29df 0241 7481 eb40
00000090: e1c3 af40 60e7 bf40 8b8e cac0 739a ba40
000000a0: ef2a c040 c867 bf40 105f bd40 1d95 bcc0
000000b0: 8a00 e7c0 d24e e1c0 72d0 f6c0 6c47 fb40
000000c0: bffa c240 833a f740 6138 c2c0 2f1c 0341
000000d0: 2bde bb40 c747 bd40 230c bb40 39da 0ac1
000000e0: d57b c040 39d7 bfc0 f184 ba40 19b5 bf40
000000f0: 0568 bac0 c903 f5c0 7156 c4c0 213a b9c0

exp_avg f4 [64, 36]
0.000136046 -0.00011840778 0.00010174755 -7.082998e-05 -0.00013476875 -0.00014012083 7.686681e-06 9.169029e-05
-0.00013141052 9.4762545e-05 -8.5217e-05 -3.6566238e-05 -4.948206e-05 -0.00012254265 -0.00012656626 1.1152079e-05
3.995103e-05 2.7380438e-05 9.2221075e-05 -2.2374787e-05 6.293571e-05 4.441734e-06 8.469462e-05 -0.00011350118
0.00010514136 -6.728369e-05 -3.4532677e-05 -5.8612735e-05 -0.00012816199 -0.00011821585 -3.2088745e-05 2.8762746e-05
-0.00013046381 -5.6493667e-05 6.645042e-05 -0.0001894215 0.00014754084 -4.4676814e-05 7.058779e-05 0.0002149633
-0.000109181055 5.6478355e-05 -1.2387118e-05 -0.00025379995 1.6771863e-05 1.5360645e-05 0.00012472791 7.3257565e-05
0.00022792812 -9.582511e-05 5.0367315e-05 4.4529872e-05 -3.996323e-05 -2.3786264e-05 -0.00021018721 9.892688e-05
3.0964216e-05 -2.6397714e-05 -0.0002705454 3.555655e-05 -1.5197968e-06 0.00012763069 5.6936762e-05 0.0001874296
-7.61045e-05 3.950413e-05 0.00017359875 -5.9617825e-05 3.6171856e-05 0.00020503276 0.00014383589 -1.241872e-05
2.3708517e-05 5.316765e-05 3.8332455e-05 0.00010851274 -9.362057e-05 0.00012322178 0.00015876247 -6.491368e-05
-6.9107125e-05 0.00017742053 5.6344365e-05 1.9985626e-05 0.00010624969 -0.0001047206 9.4532144e-05 -2.1048609e-05
-2.2648599e-05 1.27491285e-05 7.4051986e-06 3.7091868e-05 -8.966935e-05 0.0001557201 -6.919203e-05 -6.315214e-05
0.00017683602 4.3909673e-05 9.12196e-06 0.00012326486 -0.00010632691 0.000104253195 -0.00012125016 -8.654977e-05
2.0872354e-05 0.00011235532 4.3735363e-05 -6.733473e-05 -7.140526e-05 -0.00010215184 1.0881891e-05 0.00011490113
0.000132629 0.00011811515 -5.5661818e-05 3.2674594e-05 -5.779562e-05 -8.38879e-05 0.00010236019 -3.545056e-05
0.00011555931 0.00016645648 0.000112665424 4.0682662e-05 -4.151225e-06 1.4036029e-05 -3.1129526e-05 -2.549196e-05
-3.3175867e-05 -6.113843e-05 3.3784854e-05 -5.8158104e-05 -7.0615635e-05 9.183381e-05 -3.413369e-05 0.00012040453
0.00017056197 0.00010525824 -5.3197887e-06 4.908842e-05 0.00010793962 -0.00017340087 -0.00014843536 1.6823544e-05
-6.9656104e-05 -1.0288083e-05 1.4609744e-05 -0.00016137613 7.6193865e-05 0.0001166649 -0.00017267025 0.00018696676
2.6857726e-05 -0.0003125096 -0.0002722159 -0.00018458076 -0.000134489 0.00011326623 5.117928e-05 -0.00014013915
-0.000110651185 5.533737e-05 -9.459927e-05 -0.00028180395 0.000101778765 -0.00016337154 0.00021360989 3.3357595e-05
-0.0003032143 -0.00026889975 -0.00018264285 -0.00013434504 0.00010035023 4.8969767e-05 6.994684e-05 -5.03621e-06
0.00012464254 -0.00015011206 -3.2872952e-06 0.00014199196 -4.456403e-05 -3.2692114e-05 1.4905117e-05 0.00029554314
0.00018196506 -7.582279e-05 -0.00017852124 0.0002857537 9.4716095e-05 0.00012016539 0.00011130937 0.00033614738
0.00026667878 0.00018261652 -2.4544324e-05 -0.00019972208 -5.2085725e-05 -0.00016834612 -0.0001821458 -0.00012733394
-1.6200333e-05 -0.00019950449 0.0002853372 9.2268005e-05 0.00013339786 0.0001400563 0.00032191063 0.0002718778
0.00018169152 -3.160676e-05 0.0001569169 7.1211754e-05 -1.7060242e-05 -0.00013519038 -7.0713046e-05 -5.7892346e-05
0.00012496412 2.2195181e-05 0.00014371375 1.1677266e-05 7.689789e-05 6.9137546e-05 0.00016370318 -0.00010960238
2.13963e-05 7.472214e-05 -1.8094827e-06 -6.693931e-05 -4.2653297e-05 5.424462e-05 0.000109904795 1.3562114e-05
2.4722041e-05 4.177345e-05 0.00018277719 -5.5462474e-06 1.9238467e-05 0.00016546212 -0.00011470366 2.521724e-05
6.711127e-05 -3.7877471e-06 -7.8335215e-05 -3.1550215e-05 5.5046698e-05 8.8564026e-05 -8.753929e-05 4.0466e-05
-0.00010957921 0.00013433362 -0.00011660171 0.0003004201 -5.750926e-05 0.000107121414 -5.810912e-05 2.3709366e-05
00000000: 92a7 0e39 b151 f8b8 4d61 d538 8e8a 94b8
00000010: b650 0db9 66ed 12b9 0bf6 0037 da49 c038
00000020: 3ecb 09b9 41bb c638 87b6 b2b8 b35e 19b8
00000030: f58a 4fb8 cb7e 00b9 dfb6 04b9 d119 3b37
00000040: 1891 2738 0baf e537 d066 c138 7db1 bbb7
00000050: 5afc 8338 340a 9536 149e b138 7b07 eeb8
00000060: 567f dc38 a81a 8db8 2ed7 10b8 f2d6 75b8
00000070: 3963 06b9 a7ea f7b8 0797 06b8 8747 f137
00000080: 1dcd 08b9 9df3 6cb8 4c5b 8b38 729f 46b9
00000090: 31b5 1a39 5d63 3bb8 8808 9438 c567 6139
000000a0: 22f8 e4b8 2ce3 6c38 44d2 4fb7 7410 85b9
000000b0: 4db1 8c37 bcda 8037 65c9 0239 dba1 9938
000000c0: fdff 6e39 b7f5 c8b8 7e41 5338 96c5 3a38
000000d0: 319e 27b8 9d88 c7b7 b365 5cb9 f776 cf38
000000e0: 93df 0138 a970 ddb7 fdd7 8db9 8e22 1538
000000f0: d2fb cbb5 9ad4 0539 62cf 6e38 c088 4439
00000100: 4b9a 9fb8 3db1 2538 0f08 3639 270e 7ab8
00000110: 3cb7 1738 10fe 5639 a7d2 1639 ff59 50b7
00000120: a7e1 c637 5400 5f38 29c7 2038 5591 e338
00000130: 2956 c4b8 1835 0139 7a79 2639 4422 88b8
00000140: 9bed 90b8 f609 3a39 4d53 6c38 cea6 a737
00000150: 5ed2 de38 729d dbb8 8f3f c638 8b91 b0b7
00000160: 7ffd bdb7 17e5 5537 2c7a f836 1793 1b38
00000170: de0c bcb8 cc48 2339 301b 91b8 8c70 84b8
00000180: 0f6d 3939 a72b 3838 850a 1937 a940 0139
00000190: d3fb deb8 82a2 da38 af47 feb8 0e82 b5b8
000001a0: 0a17 af37 4ea0 eb38 7d70 3738 0f36 8db8
000001b0: 68bf 95b8 5a3a d6b8 5e91 3637 13f7 f038
000001c0: 5312 0b39 97b4 f738 6c76 69b8 140c 0938
000001d0: 9369 72b8 f9ec afb8 35aa d638 c0b0 14b8
000001e0: 6f58 f238 d28a 2e39 ca46 ec38 ada2 2a38
000001f0: c04a 8bb6 497c 6b37 1391 02b8 91d7 d5b7
00000200: 5126 0bb8 7237 80b8 36b4 0d38 caee 73b8
00000210: 7b17 94b8 e796 c038 c52a 0fb8 b181 fc38
00000220: e1d8 3239 16be dc38 a380 b2b6 4ae4 4d38
00000230: a45d e238 f1d2 35b9 50a5 1bb9 4920 8d37
00000240: 5614 92b8 fb9a 2cb7 5f1c 7537 1337 29b9
00000250: 45ca 9f38 fea9 f438 d10e 35b9 820c 4439
00000260: 874c e137 54d8 a3b9 33b8 8eb9 058c 41b9
00000270: 9e05 0db9 5889 ed38 55a9 5638 51f2 12b9
00000280: 670d e8b8 0c1a 6838 9963 c6b8 16bf 93b9
00000290: 0f72 d538 b74e 2bb9 78fc 5f39 72e9 0b38
000002a0: bcf8 9eb9 1dfb 8cb9 d183 3fb9 f9de 0cb9
000002b0: 1f73 d238 e364 4d38 6cb0 9238 b7fc a8b6
000002c0: 7ab2 0239 6667 1db9 4d9b 5cb6 ade3 1439
000002d0: 43ea 3ab8 e41e 09b8 fd10 7a37 21f3 9a39
000002e0: e0cd 3e39 0d03 9fb8 6e31 3bb9 36d1 9539
000002f0: 51a2 c638 4d01 fc38 c36e e938 f03c b039
00000300: 05d1 8b39 c07c 3f39 89e4 cdb7 7d6c 51b9
00000310: 9f76 5ab8 1186 30b9 64fe 3eb9 f284 05b9
00000320: f3e5 87b7 1432 51b9 5099 9539 0280 c138
00000330: b7e0 0b39 14dc 1239 1dc6 a839 d28a 8e39
00000340: 7284 3e39 8091 04b8 0f8a 2439 8557 9538
00000350: 971c 8fb7 e4c1 0db9 c74b 94b8 6fd1 72b8
00000360: cd08 0339 ca2f ba37 deb1 1639 7ae9 4337
00000370: 3e44 a138 f0fd 9038 bda7 2b39 54da e5b8
00000380: 347c b337 25b4 9c38 5add f2b5 c561 8cb8
00000390: a1e6 32b8 b884 6338 b07c e638 d688 6337
000003a0: 2e62 cf37 e735 2f38 e1a7 3f39 e719 bab6
000003b0: 4b62 a137 e67f 2d39 0f8d f0b8 9c89 d337
000003c0: 17be 8c38 0031 7eb6 e647 a4b8 c954 04b8
000003d0: f1e1 6638 73bb b938 4c95 b7b8 09ba 2938
000003e0: e4cd e5b8 e8db 0c39 1188 f4b8 b481 9d39
000003f0: 1936 71b8 5fa6 e038 31ba 73b8 7ae3 c637
