raisimGymTorch/data/ouzel_delta_planning/2022-05-27-14-33-19/full_38000.pt (torch, 178160 bytes, 36 tensors)

architecture.0.weight f4 [64, 36]
0	0x3e8d26ac	0.27568567
1	0xbe092bd7	-0.1339563
2	0xbd8c1c60	-0.068413496
3	0x3bb5281a	0.005528462
4	0x3e19f3b5	0.15034373
5	0xbe252e1d	-0.16130872
6	0x3de364ba	0.111031964
7	0x3e848c27	0.25888178
8	0xbf85d49c	-1.0455508
9	0xbeb11fc7	-0.34594557
10	0x3ef2950d	0.47379342
11	0xbf1fdaa0	-0.6244297
12	0x3e1cddeb	0.1531903
13	0x3e14d910	0.14535928
14	0x3ed58081	0.41699603
15	0xbf2b2c17	-0.6686415
16	0x3d8d3dc7	0.06896549
17	0x3e7c70fb	0.24652474
18	0xbe29a68a	-0.16567436
19	0x3e0c7f57	0.13720451
20	0xbed2b0c2	-0.4115048
21	0xbea025ec	-0.31278932
22	0x3ea3094b	0.31843027
23	0x3db4243e	0.08795975
24	0x3da955cb	0.08268317
25	0x3efb61ca	0.49098045
26	0xbf3d9bb4	-0.7406571
27	0xbedf5de2	-0.43626314
28	0x3e839867	0.2570221
29	0x3e3b2276	0.18274865
30	0xbe0a84d1	-0.13527228
31	0xbf019b94	-0.5062802
32	0x3da7e72f	0.08198392
33	0x3f5ca56c	0.86189914
34	0x3e13bdd3	0.14427881
35	0x3e9f9a1d	0.31172267
36	0xbefb23d3	-0.4905077
37	0x3f86d2b0	1.0533047
38	0x3f563b2e	0.8368405
39	0xbd0ceaf8	-0.03440377
40	0x3e0fef20	0.14056063
41	0x3e413140	0.18866444
42	0x3e111e77	0.14171778
43	0xbdc7e7da	-0.09761019
44	0xbf85907d	-1.0434719
45	0x3f3a17c1	0.72692496
46	0xbd665763	-0.056235682
47	0xbeb0d4e7	-0.34537432
48	0x3eb54cf0	0.3541026
49	0xbeaa6eda	-0.33287698
50	0x3e266b25	0.1625181
51	0xbe6da4c3	-0.23207383
52	0xbe1bd9d0	-0.15219808
53	0xbfa4da0f	-1.2879046
54	0x3f873c4e	1.0565279
55	0x3eaac3f4	0.33352625
56	0x3ebd907b	0.37024292
57	0x3e1049ad	0.14090605
58	0x3dafbead	0.085812904
59	0xbdfbdf56	-0.12298457
60	0x3f36a5a1	0.7134648
61	0xbd5f19f9	-0.05446813
62	0xbf1b2185	-0.6059802
63	0xbe8b88e4	-0.27252877
64	0x3ec105eb	0.37699828
65	0x3e48f124	0.19623238
66	0x3eadc078	0.33935905
67	0x3e8cb59a	0.274823
68	0x3e892e1f	0.26793
69	0x3eecf828	0.46283078
70	0x400f3423	2.2375572
71	0xbdaaa46e	-0.08332144
72	0xbd8d4aa5	-0.06899003
73	0x3f1021b3	0.5630142
74	0xbec4e4b1	-0.38455728
75	0xbe13e719	-0.14443626
76	0x3dfd921b	0.12381383
77	0xbe267380	-0.16254997
78	0xbd7bbded	-0.061460424
79	0x3f4e75a0	0.8064823
80	0x3f242f74	0.6413491
81	0x3d3205aa	0.043462433
82	0xbf0b735d	-0.54472905
83	0x3e9e94e1	0.3097296
84	0x3afe90aa	0.0019421775
85	0x3d3f643b	0.046726447
86	0xbeacb4cb	-0.33731684
87	0x3ec9a1fa	0.3938139
88	0xbed4f1c8	-0.41590714
89	0xbdf3f537	-0.119120054
90	0xbe8976cb	-0.26848444
91	0xbe269a0e	-0.16269705
92	0x3d27783d	0.040886153
93	0x3e10eec7	0.14153586
94	0x3ed204d9	0.41019323
95	0x3eb4cc91	0.35312322
96	0x3dade0ce	0.08490144
97	0x3e41495b	0.18875639
98	0x3cc14c07	0.023595823
99	0xbda5da3f	-0.08098268
100	0xbdb33c91	-0.087517865
101	0x3f049ed6	0.51804864
102	0x3d0e1e7b	0.034697037
103	0xbe19cab2	-0.15018728
104	0xbe03d21d	-0.1287312
105	0xbdb57e0b	-0.088619314
106	0x3e9af0c0	0.30261803
107	0x3dd16d64	0.10225943
108	0x3e9387b4	0.2881447
109	0xbf8e18e2	-1.1101344
110	0xbf35cd5c	-0.7101648
111	0xbe202cdd	-0.15642114
112	0x3e1ca8ba	0.15298739
113	0xbe827557	-0.25480148
114	0x3f1aa74c	0.60411525
115	0xbd1174f8	-0.03551194
116	0xbe861e89	-0.2619517
117	0xbf25bf3b	-0.6474492
118	0xbeb2d9af	-0.34931704
119	0xbe4708f2	-0.19437006
120	0xbdc3ee36	-0.095669195
121	0xbeafc1d4	-0.34327567
122	0xbe4fe24a	-0.20301166
123	0x3de47efe	0.11157034
124	0x3ddf8ceb	0.1091555
125	0xbed88a5d	-0.42293063
126	0x3eaea92f	0.34113452
127	0x3e7a2ef0	0.24431968
128	0x3e64614d	0.22302742
129	0x3ddb54a6	0.10709505
130	0xbec22557	-0.37919113
131	0xbef233eb	-0.47305235
132	0xbf0a9090	-0.54126835
133	0xbea5195b	-0.32245907
134	0xbdcb4eaf	-0.09927117
135	0x3e245c6a	0.16050878
136	0x3ebe0793	0.37115154
137	0xbdcab2e3	-0.09897401
138	0x3e90fbc2	0.28317076
139	0xbe81cab2	-0.25349957
140	0x3e650b3c	0.22367567
141	0x3dc445b7	0.095836096
142	0xbd3ca6fe	-0.046057694
143	0xbffc6c67	-1.9720582
144	0x402f9087	2.7431962
145	0x40911425	4.533709
146	0x40a14282	5.0393686
147	0xbe5bd291	-0.21467043
148	0xbdee0e1a	-0.116237834
149	0xbd1e8759	-0.038703296
150	0x3e0edbcd	0.13951035
151	0x3de4acbb	0.11165758
152	0x3e2d9bc6	0.16953954
153	0x3ca20f24	0.01978261
154	0xbb30cc8f	-0.0026977395
155	0x3cbf95fa	0.023386944
156	0x3d5afea2	0.053465493
157	0xbc0e9bd9	-0.008704149
158	0x3d92467c	0.0714235
159	0xbe03465f	-0.12819813
160	0xbf2d6097	-0.6772551
161	0xbc5f6adb	-0.013636316
162	0x3ccb070a	0.02478363
163	0xbce38231	-0.027772041
164	0xbda110d7	-0.0786454
165	0xbd49e4cf	-0.049290475
166	0xbe05d1e9	-0.13068356
167	0xbdbaec8f	-0.09127151
168	0x3c98f41f	0.018671094
169	0xb9f0a0f4	-0.00045896287
170	0xbd9a9b8d	-0.075492
171	0x3e49b3c2	0.19697478
172	0x3d903f3e	0.070433125
173	0x3cd83fdb	0.026397636
174	0x3d10ca09	0.035348926
175	0x3d4ea22e	0.050447635
176	0x3d610734	0.05493851
177	0x3c89abcc	0.016805552
178	0xbd352d01	-0.044232372
179	0x3d0f7071	0.03501934
180	0x4012113e	2.2823024
181	0xc112e5ce	-9.181105
182	0x3f972414	1.1807885
183	0xbe863a9e	-0.26216596
184	0x3e8ebf40	0.27880287
185	0xbe020806	-0.12698373
186	0xbdbe490a	-0.09291275
187	0x3c62314a	0.013805697
188	0xbeb7477e	-0.35796732
189	0x3d63de62	0.055632003
190	0x3c891c51	0.016737135
191	0xbab83a10	-0.001405539
192	0x3da57e0c	0.08080682
193	0xbd4f7f73	-0.050658654
194	0xbe9290c7	-0.2862608
195	0x3d8b3bcc	0.06798515
196	0xbf425e77	-0.7592539
197	0xbf5ccd28	-0.86250544
198	0xbde4672d	-0.11152492
199	0x3d8516e7	0.06498509
200	0xbdeac508	-0.11463362
201	0xbccf06f5	-0.025271872
202	0x3cb7b60c	0.022425674
203	0x3e9b27a4	0.3030368
204	0x3dd074a8	0.101785004
205	0xbb9cfcee	-0.0047908938
206	0xbd1d0417	-0.03833398
207	0x3e3e3720	0.18575716
208	0xbe7d4d80	-0.24736595
209	0x3ed90997	0.4239013
210	0x3d5bcb82	0.053660877
211	0x3ddf98c7	0.10917812
212	0xbd886f05	-0.066618
213	0xbad02bc3	-0.0015882183
214	0x3dbb6f83	0.091521285
215	0x3e06c17f	0.1315975
216	0xbe232654	-0.1593259
217	0xbed87de5	-0.4228355
218	0x3a87194a	0.0010307219
219	0x3e922ee7	0.2855141
220	0x3e585859	0.21127452
221	0xbd314fe7	-0.04328909
222	0xbe338f6a	-0.17535177
223	0x3e09abb4	0.13444406
224	0xbf9d4465	-1.2286497
225	0xbe7e0177	-0.24805246
226	0x3d97b96a	0.07408412
227	0x3e349240	0.17633915
228	0x3f040701	0.5157319
229	0x3f2817dd	0.6566141
230	0x3f06714b	0.5251662
231	0x3d6c259e	0.057653062
232	0xbe887c28	-0.26657224
233	0xbdce9a56	-0.10088031
234	0x3c34bb5e	0.011031
235	0xbd5badb4	-0.053632453
236	0xbdec40c6	-0.11535792
237	0x3e0e0a47	0.13871108
238	0xbdcdce6e	-0.10049139
239	0x3e38dbfd	0.18052669
240	0xbcaf0d15	-0.021368543
241	0xbe868987	-0.262768
242	0x3ecca997	0.39973137
243	0xbf894d67	-1.0726746
244	0xbf33b5dd	-0.70199376
245	0x3cfa814c	0.030579232
246	0xbd422502	-0.047398575
247	0xbc085085	-0.008319979
248	0xbc29118f	-0.010319128
249	0x3e85824b	0.26075968
250	0x3d16c09e	0.036804788
251	0xbd54bf5e	-0.051940314
252	0x3e597093	0.2123435
253	0x3e7cc26c	0.24683541
254	0x3e9708f6	0.29499024
255	0xbbdb7f3e	-0.006698518

architecture.0.bias f4 [64]
0	0x3f0de37a	0.55425227
1	0x3f3a4512	0.7276164
2	0x3ec6c976	0.38825577
3	0x3ee77c0c	0.45211828
4	0xbf3fa991	-0.7486811
5	0xbf13bf46	-0.57713735
6	0x3d36a731	0.04459304
7	0xbe84e5ef	-0.25956675
8	0xbf5b150e	-0.85579
9	0x3ea9a3d1	0.33132794
10	0x3ea22965	0.31672207
11	0x3eda72af	0.42665622
12	0xbf2a1a45	-0.66446334
13	0x3e60bb88	0.21946537
14	0xbe26f50f	-0.1630442
15	0x3f266793	0.6500179
16	0xbe6ce34b	-0.2313358
17	0xbec287ef	-0.37994334
18	0xbfc86395	-1.565539
19	0xbeec9839	-0.46209887
20	0xbf6805ef	-0.90634054
21	0xbc655581	-0.0139974365
22	0xbcc31d3c	-0.023817651
23	0xbe605cd6	-0.21910414
24	0xbdb7e78c	-0.08979711
25	0x3f29178b	0.6605155
26	0xbf0d8957	-0.5528769
27	0x3fabcbe2	1.3421595
28	0xbfbd5438	-1.4791327
29	0xbdbafcb6	-0.09130232
30	0x3f1739bd	0.59072477
31	0xbff1263e	-1.8839796
32	0xbd75ef77	-0.060042825
33	0x3eaa1c3f	0.33224675
34	0xbf948f66	-1.1606262
35	0xbfb591e5	-1.4185148
36	0xbe529d8b	-0.2056791
37	0x3f3543bb	0.70806473
38	0x3eda97ff	0.4269409
39	0xbf67090b	-0.90248173
40	0xbf2e466a	-0.68076193
41	0x3f578589	0.84188133
42	0xbfb0f44a	-1.3824551
43	0x3ea5180e	0.32244915
44	0x3d31c4b2	0.043400474
45	0xbd8021dd	-0.06256459
46	0xbf381244	-0.7190287
47	0xbeaebab2	-0.34126812
48	0x3e126ddb	0.14299719
49	0x3f014be2	0.50506413
50	0x3e9910a5	0.2989551
51	0xbfa47881	-1.2849275
52	0xbee5ae83	-0.44859704
53	0xbfdda7e5	-1.7316862
54	0x3f0fabce	0.5612153
55	0x3d378284	0.044802204
56	0xbf9f67ad	-1.2453514
57	0xbe35f76e	-0.17770168
58	0x3e0364f4	0.1283148
59	0x3ef2e285	0.47438446
60	0xbebfb587	-0.37443182
61	0x3d8cad75	0.06869022
62	0x3e022a95	0.12711556
63	0xbe9fe094	-0.31226027

architecture.2.weight f4 [64, 64]
0	0xbafa0432	-0.0019074737
1	0x3a056bf9	0.00050896365
2	0x3c209b19	0.009802603
3	0x3c75ce70	0.015002832
4	0x3d59d71e	0.053183667
5	0x3d67c745	0.056586523
6	0xbd22b56d	-0.039723802
7	0x3c967951	0.018368395
8	0x3b9d2c37	0.0047965306
9	0x3cd4785d	0.0259363
10	0xbd120daa	-0.035657562
11	0x3b207113	0.002448146
12	0x3c927c85	0.017881641
13	0xbc6c020b	-0.014404784
14	0xbb9a935e	-0.0047172746
15	0x3e190ae8	0.14945567
16	0xbc0be66f	-0.008538826
17	0xbc90234b	-0.017594954
18	0x3e48e14d	0.19617195
19	0xbb977a8b	-0.0046227626
20	0x3c572f23	0.013133797
21	0xbc767619	-0.015042805
22	0x3e36878c	0.17825145
23	0xbb15aa32	-0.002283704
24	0x3c170070	0.009216413
25	0xbec9fdc3	-0.39451417
26	0xbbf46030	-0.0074577555
27	0x3d05f0ed	0.032700468
28	0xbee94788	-0.45562387
29	0x3c04bab9	0.008101159
30	0x3bd904f1	0.0066229035
31	0x3e4fd87d	0.20297427
32	0x3d9b765d	0.075909354
33	0x3aea2d10	0.0017866213
34	0x3dee4261	0.116337545
35	0x3e260ed5	0.16216595
36	0x3c2664ae	0.01015584
37	0xbb9d36a7	-0.004797775
38	0xbc075c66	-0.008261776
39	0x3db06d0a	0.086145476
40	0x3d481558	0.04884848
41	0xbc8647b0	-0.016391605
42	0xbd76d8a4	-0.0602652
43	0x3f1754ef	0.59113973
44	0xbcafc566	-0.021456432
45	0xbf018be8	-0.50604105
46	0x3c014aee	0.0078914
47	0xbce2f985	-0.02770687
48	0xbcc24cb4	-0.023718216
49	0x3c4ddede	0.012565343
50	0x3ba2420e	0.004951722
51	0xbd849b21	-0.06474901
52	0x3f137b76	0.5761026
53	0x3daa16d1	0.08305133
54	0x3c4b7dc0	0.012420118
55	0x3c2e52dc	0.010639872
56	0xbd8f01df	-0.06982779
57	0xbd153e3d	-0.03643631
58	0xbeca2067	-0.39477846
59	0x3de6e605	0.112743415
60	0x3c603982	0.013685586
61	0xbbe3f440	-0.006956607
62	0x3ba15842	0.004923851
63	0x3b9d20ae	0.0047951555
64	0xbedfc797	-0.43706962
65	0xbfc86513	-1.5655845
66	0x3ea62b91	0.32455114
67	0xbe05c5c5	-0.13063724
68	0xbe9131c8	-0.28358293
69	0x3f50448a	0.8135458
70	0x3e340184	0.17578703
71	0xbed98782	-0.42486197
72	0xbf2e3301	-0.68046576
73	0x3fa52595	1.2902094
74	0xbf794d40	-0.973835
75	0xbf0f8efc	-0.5607755
76	0x3ed43c3d	0.41452208
77	0xbf7525af	-0.95760626
78	0x3e377323	0.17915015
79	0x3f26081d	0.6485613
80	0xbee9d042	-0.456667
81	0xbe227c38	-0.15867698
82	0x3ed5e312	0.41774803
83	0xbeb655f0	-0.3561244
84	0x3f0a1ba4	0.53948426
85	0x3ecb3bd3	0.3969408
86	0x3da6252a	0.08112557
87	0xbd86f419	-0.06589527
88	0xbf43f4de	-0.7654551
89	0xbf106b97	-0.5641417
90	0x3d19750b	0.037465136
91	0xbf36e3cf	-0.7144136
92	0xbd488ef1	-0.048964445
93	0xbe72e830	-0.23721385
94	0xbecbbbca	-0.3979171
95	0x3e17cf6d	0.1482522
96	0xbe9f2afb	-0.3108748
97	0x3e8dd094	0.27698195
98	0x3f0babec	0.54559207
99	0x3e83e51a	0.25760728
100	0xbf1c0d89	-0.60958153
101	0x3e4e42e4	0.20142704
102	0xbf6fb01f	-0.93628114
103	0x3fa39ad4	1.2781625
104	0xbe6aa827	-0.22915708
105	0xbe57bc6b	-0.2106797
106	0xbd4d3a3b	-0.05010436
107	0x3e034b35	0.12821658
108	0xbf54c4dd	-0.8311289
109	0xbdc70841	-0.09718371
110	0x3ee7d9af	0.45283267
111	0x3e95840c	0.29202306
112	0x3ee0eddb	0.4393147
113	0xbddde908	-0.10835463
114	0xbe3060f3	-0.17224483
115	0x3ec54378	0.38528037
116	0x3e840a3e	0.25789064
117	0xbdaea3e0	-0.085273504
118	0xbeaeac54	-0.3411585
119	0xbe751c4e	-0.23936579
120	0xbe3b2679	-0.18276395
121	0xbeb3805b	-0.35058865
122	0x3d25513c	0.040360674
123	0xbe73dfe6	-0.23815879
124	0xbf4826c4	-0.7818415
125	0xbf3f96e5	-0.7483962
126	0xbd3efc90	-0.04662758
127	0x3e588bfd	0.21147151
128	0xbeeee898	-0.4666183
129	0x3db2d35a	0.08731718
130	0x3e11b9c0	0.14231014
131	0x3da35359	0.07974882
132	0x3f3e7afa	0.744064
133	0xbea0e805	-0.31427017
134	0x3d0d9034	0.03456135
135	0x3ec5ee84	0.38658535
136	0x3f7eeafc	0.9957731
137	0x3f4d16e8	0.8011308
138	0x3f25e68d	0.6480492
139	0x3fcb6cd0	1.5892582
140	0x3d96aa09	0.073566504
141	0x3f597468	0.84943247
142	0xbe847ff7	-0.2587888
143	0x3ef9eb2f	0.48812243
144	0x3e67ca56	0.22635779
145	0x3c9d789e	0.019222554
146	0xbed13388	-0.40859628
147	0xbbe1f154	-0.0068952236
148	0x3eb268a4	0.3484546
149	0x3edd6c39	0.4324663
150	0x3f831cea	1.0243199
151	0x3f026c22	0.5094625
152	0xbecd6a99	-0.4012039
153	0x3f80e470	1.0069714
154	0xbf0cb9bd	-0.54970914
155	0x3f06c8ed	0.5265034
156	0xbf0effc5	-0.55859023
157	0x3cf03cd3	0.029325878
158	0x3dbe01c8	0.092776835
159	0x3de7b453	0.11313691
160	0x3ecba2e3	0.3977271
161	0xbda6676b	-0.08125194
162	0xbf2ac241	-0.6670266
163	0xbf1bcede	-0.6086253
164	0x3edf93fb	0.43667588
165	0x3eec3f91	0.46142247
166	0xbcbbefc8	-0.022941485
167	0xbf0df8a1	-0.554575
168	0xbf0d6e41	-0.5524636
169	0x3f04b514	0.51838803
170	0x3dc1b553	0.09458413
171	0xbcdfcaa1	-0.0273183
172	0x3ee95bf3	0.45577964
173	0xbe8fcdaa	-0.28086597
174	0xbd0c8701	-0.034308437
175	0x3ee5224f	0.44752738
176	0x3da8a697	0.082348995
177	0xbf7d8b44	-0.9904063
178	0xbe64eafd	-0.22355266
179	0x3d8c121a	0.0683939
180	0xbf0152a4	-0.50516725
181	0xbeca075c	-0.3945874
182	0xbe3e7f09	-0.18603148
183	0x3e6dde11	0.23229243
184	0xbedd73eb	-0.432525
185	0xbebb9b8f	-0.3664212
186	0xbe46e9c0	-0.19425106
187	0xbf99f0ef	-1.2026652
188	0x3eadaab4	0.339193
189	0x3e86eb8a	0.26351577
190	0xbf4b2ce9	-0.793654
191	0x3f1807c2	0.5938684
192	0xbecbf072	-0.39831883
193	0xbfaabf1d	-1.3339573
194	0xbe3fe8be	-0.18741128
195	0xbf0c73c3	-0.5486414
196	0x3f3480ac	0.7050884
197	0xbebeb5ef	-0.3724818
198	0xbea850ad	-0.3287405
199	0x3ec34813	0.38140926
200	0xbe1e7f08	-0.15478146
201	0x3ebf38e9	0.37348107
202	0xba8ad92a	-0.0010593284
203	0x3c93ba0b	0.018033048
204	0xbdccb5ab	-0.09995588
205	0x3f208ff0	0.6271963
206	0xbec6ba9e	-0.38814253
207	0xbd03232d	-0.032015968
208	0xbe0a5c34	-0.13511735
209	0x3ffeae68	1.9896975
210	0x3e1a3f7a	0.15063277
211	0xbe0cbf01	-0.13744737
212	0xbe315a1c	-0.1731953
213	0xbf591ad4	-0.8480656
214	0x3f2ee8e5	0.6832412
215	0x3febb412	1.8414328
216	0x3f4e4fb6	0.8059038
217	0x3e03b529	0.12862076
218	0x3d0229c4	0.031778112
219	0x3e8824a8	0.26590466
220	0x3c3c1fce	0.011482192
221	0x3b576408	0.003286602
222	0xbede5543	-0.43424425
223	0x3dfe0975	0.124041475
224	0xbe15e242	-0.14637092
225	0x3c160c53	0.009158212
226	0xbe883049	-0.2659934
227	0xbe5832de	-0.21113154
228	0x3e9825fb	0.29716477
229	0xbf060a5e	-0.5235957
230	0xbf8ea99c	-1.1145511
231	0xbf2f8f6f	-0.6857824
232	0x3eed9933	0.46405944
233	0x3ea6a3db	0.32546887
234	0xbc76f850	-0.015073851
235	0xbe2d1eb0	-0.16906238
236	0xbebf08b7	-0.37311336
237	0xbbf451bb	-0.007456032
238	0x3eeb58e8	0.45966268
239	0x3f6b2b0b	0.91862553
240	0xbd2f1063	-0.042740237
241	0xbeedcc75	-0.4644505
242	0xbe78cd2a	-0.24297014
243	0x3d52f088	0.05149892
244	0xbf13e404	-0.577698
245	0xbea93be6	-0.3305351
246	0xbced79da	-0.028988767
247	0x3ea3ff7b	0.32030854
248	0xbf06267f	-0.5240249
249	0x3dccddf5	0.100032724
250	0x3ebd566f	0.36980006
251	0x3e4cb59c	0.19991153
252	0x3c538994	0.012911219
253	0x3e7cd092	0.24688938
254	0xbf08ef8c	-0.5349052
255	0x3f2931be	0.66091526

architecture.2.bias f4 [64]
0	0x3d61917c	0.055070385
1	0xbf87bd1b	-1.0604585
2	0x3e257499	0.1615776
3	0x3db071ff	0.08615493
4	0xbf1403b7	-0.5781817
5	0x3f4f49ec	0.8097217
6	0x3e98254f	0.29715964
7	0x3ea3f2e7	0.32021257
8	0x3e8dbc65	0.27682796
9	0x3e9f41e2	0.31104952
10	0x3f811857	1.0085553
11	0xbfd36175	-1.6514117
12	0x3ee45a86	0.44600314
13	0x3f361238	0.7112155
14	0xbea68395	-0.32522264
15	0x3f8f1506	1.1178291
16	0x3f12ef0e	0.5739602
17	0xbe6f04e2	-0.23341706
18	0x3d29f008	0.041488677
19	0xbe30b059	-0.17254771
20	0x3f3318a3	0.6995947
21	0x3f268f99	0.6506286
22	0xbda56f04	-0.08077815
23	0x3f5a6e3f	0.8532447
24	0xbf4a0777	-0.7891764
25	0x3effcc72	0.49960667
26	0x3e3e4df2	0.18584421
27	0x4006ec54	2.1081743
28	0x3ee6a880	0.4505043
29	0xbe63f1df	-0.22260235
30	0x3f4111e8	0.7541795
31	0xbf44a941	-0.7682076
32	0x3d0ff905	0.035149593
33	0xbe838a16	-0.2569129
34	0xbe1af874	-0.1513384
35	0x3e74e59b	0.23915713
36	0x3e919403	0.28433236
37	0x3ecc0029	0.39843872
38	0xbeace743	-0.3377019
39	0xbd924a3e	-0.07143067
40	0xbf00deae	-0.5033978
41	0xbf002d4d	-0.50069124
42	0xbf36aea3	-0.71360224
43	0xbf6eb36d	-0.9324253
44	0xbf9ac2c9	-1.2090694
45	0x3f703c3c	0.9384191
46	0xbef2df7e	-0.47436136
47	0x3e79a195	0.24378045
48	0xbf964023	-1.1738323
49	0xbe44b3f2	-0.19209269
50	0xbf8214c9	-1.0162593
51	0xbebb9c3a	-0.3664263
52	0xbee798c9	-0.45233753
53	0xbf295c85	-0.661568
54	0xbf022d07	-0.50849956
55	0xbf2af4c1	-0.66779715
56	0x3d57720f	0.05259901
57	0xbe6d1420	-0.23152208
58	0xbf35846d	-0.7090519
59	0xbf827cff	-1.0194396
60	0xbf4bd637	-0.7962374
61	0x3f276f8a	0.6540457
62	0xbf2afd38	-0.6679263
63	0x3f1e133e	0.6174811

architecture.4.weight f4 [12, 64]
0	0xbd8779f3	-0.06615057
1	0x3b13103a	0.0022440092
2	0x3aa38626	0.0012475892
3	0xbb0dcdd5	-0.0021637578
4	0x3a2ab764	0.00065123127
5	0xbb8c2a62	-0.0042775134
6	0x3a4f3189	0.00079038047
7	0x3b362e51	0.0027798603
8	0xbb7fc6a7	-0.0039028318
9	0x3b20654f	0.0024474447
10	0xbcc3d282	-0.023904089
11	0xbc8de997	-0.017323298
12	0xbb2e0c04	-0.0026557455
13	0x3c49bb21	0.012312681
14	0xb884f272	-6.3394094e-05
15	0x3b67ad14	0.0035350965
16	0xba835ab6	-0.0010021541
17	0x3bc204f2	0.0059209997
18	0x3aa5be97	0.0012645301
19	0x3b682f12	0.0035428447
20	0xbc15dd62	-0.00914702
21	0x3ad5366a	0.0016266827
22	0x3b22bcdc	0.0024831807
23	0xbd04ff06	-0.03246977
24	0x3bb975e1	0.005659804
25	0x3b5e3b12	0.003390972
26	0xbb0aa3af	-0.0021154692
27	0xbc611c41	-0.013739646
28	0x39ca7921	0.0003861869
29	0x3a63a491	0.0008683885
30	0xbd4f2984	-0.0505767
31	0xbb7954a9	-0.0038044846
32	0xbae56a66	-0.0017503023
33	0x3a52c64c	0.0008040413
34	0xbe4a0fef	-0.1973264
35	0x3a9bc6ce	0.001188481
36	0xb9a333b4	-0.00031128305
37	0xba0f57fb	-0.0005468127
38	0xbbe0515c	-0.0068456363
39	0x3db0fd90	0.08642113
40	0x39b6e010	0.00034880685
41	0x3b85cff9	0.00408363
42	0x3c00e48a	0.007866988
43	0x3bcfb5e3	0.0063388213
44	0xbc0d06c5	-0.008607571
45	0xbb93ac04	-0.00450659
46	0xba6dbf31	-0.0009069322
47	0xbba8c5e7	-0.005150545
48	0x3a4fc6c5	0.00079260423
49	0xba3476e1	-0.00068841694
50	0x3ba2ff6f	0.0049742977
51	0xb9bb139a	-0.00035682024
52	0x39086ba7	0.00013010074
53	0xba75a573	-0.0009370662
54	0x3b4cda03	0.0031257875
55	0x3be6552d	0.0070291967
56	0x3ae00b21	0.001709316
57	0x3e100e11	0.14067866
58	0x3b0b22b8	0.002123041
59	0xbb81e073	-0.003963524
60	0xbccfd77f	-0.025371311
61	0x3c474102	0.012161495
62	0xbb882b60	-0.0041555613
63	0xbb472867	-0.0030389072
64	0xbe0e9b08	-0.13926327
65	0xba35563a	-0.0006917451
66	0x3b3f0dc3	0.002915249
67	0x37275668	9.974094e-06
68	0xbbf8f396	-0.007597397
69	0xbbb4d150	-0.005518116
70	0xb9aa7bd0	-0.00032517174
71	0xbbc4fe94	-0.0060117934
72	0xbbc12a7f	-0.0058949585
73	0xb84a814c	-4.828097e-05
74	0xbd9fd96b	-0.07805141
75	0x3c1c0e9d	0.009524968
76	0x3c65faa7	0.014036811
77	0xbba15aac	-0.004924139
78	0xbba851ec	-0.005136719
79	0xbc66b277	-0.014080635
80	0xbb9db4a7	-0.004812795
81	0xb9b38d40	-0.0003424678
82	0xbb10ba16	-0.0022083572
83	0x3b85b9a0	0.004080966
84	0x3dbf0149	0.09326417
85	0xbb839272	-0.0040152604
86	0x39be1846	0.0003625771
87	0x3ca6c8d2	0.02035943
88	0x3b8f29fe	0.0043690195
89	0x39b5b189	0.00034655284
90	0xbacb0022	-0.001548771
91	0x3c532074	0.012886155
92	0xbb0ade06	-0.0021189465
93	0x3b3394ee	0.0027402001
94	0x3d1e4d68	0.03864804
95	0xbac59a45	-0.0015075883
96	0x3a6ace2f	0.00089571154
97	0xbb18390a	-0.0023227357
98	0xbbca72ff	-0.0061782594
99	0x39aa3731	0.00032466048
100	0x3b6d0645	0.0036167067
101	0x3b13e6cd	0.0022567988
102	0x3b7282d9	0.003700426
103	0xbe48a754	-0.1959508
104	0x3b4a2e93	0.0030850514
105	0x3c3d0ee3	0.011539194
106	0x3ae19bb5	0.0017212542
107	0xba440da9	-0.0007478842
108	0x3c046c86	0.008082515
109	0xbb05abb0	-0.0020396523
110	0x3b03f098	0.0020132419
111	0xb8b2a420	-8.518272e-05
112	0xbbb945c8	-0.0056540705
113	0xb90648f4	-0.00012806413
114	0xbb4268d4	-0.0029664533
115	0xbba738af	-0.0051031928
116	0xbb05b90f	-0.0020404493
117	0xbc1eac2b	-0.009684603
118	0xbb501a28	-0.0031753872
119	0xbbc2557e	-0.0059306016
120	0xbab226be	-0.0013591868
121	0x3d314d2e	0.043286495
122	0x3bba8914	0.0056926105
123	0xbbbab850	-0.0056982413
124	0x3c13404a	0.008987496
125	0xbce04136	-0.027374845
126	0xbaa8cb1f	-0.0012877918
127	0xbbb2501c	-0.0054416787
128	0x3e39b837	0.18136679
129	0x3b4c71cb	0.0031195756
130	0xbb21d83c	-0.0024695536
131	0x39a3ddba	0.00031254982
132	0xbb504e3c	-0.0031784913
133	0x3aadd7eb	0.0013263201
134	0xbb6a138b	-0.0035717215
135	0xbadc2250	-0.0016794894
136	0x3b1723dc	0.0023062145
137	0xbb596f44	-0.0033177892
138	0x3dbfe43e	0.093697056
139	0xbc0ba1d0	-0.008522466
140	0xbc8b23e9	-0.016984897
141	0xbc9ecf4c	-0.019385956
142	0x3a0e42bc	0.00054268143
143	0xbad1a9a7	-0.0015995995
144	0xbb65e651	-0.0035079906
145	0x39ae7852	0.00033277512
146	0xbb62281e	-0.0034508775
147	0xba96c2e2	-0.0011502171
148	0x3ccf4560	0.025301635
149	0xbb168921	-0.0022969919
150	0x397db838	0.00024196587
151	0x3c144424	0.009049449
152	0x3b5276e5	0.0032114324
153	0xba8cc623	-0.0010740202
154	0x3a7ed47a	0.00097209925
155	0xbb59303d	-0.0033140325
156	0xba61c078	-0.0008611749
157	0xbac4292a	-0.0014965881
158	0x3d4a44d2	0.04938204
159	0xbaf7b9ce	-0.0018899979
160	0x3a5365e8	0.00080641964
161	0xba17cee7	-0.0005791024
162	0xbd6d36af	-0.05791348
163	0x3beedc23	0.007289426
164	0x3ab4c467	0.0013791443
165	0x3a9e093f	0.0012057199
166	0xbc03139d	-0.008000282
167	0xbe0973a8	-0.13423026
168	0xbbec52c4	-0.007212015
169	0x3c69e560	0.014275879
170	0xba81645e	-0.0009871831
171	0x3be2d853	0.0069227605
172	0xba9a4242	-0.0011769014
173	0x3a82f828	0.0009992169
174	0x398d609f	0.00026965604
175	0x3b025faf	0.0019893458
176	0xbbe0e9f6	-0.006863828
177	0xba86e811	-0.001029255
178	0xbabf86a8	-0.0014612274
179	0x3ab02ebd	0.0013441663
180	0xbb37f413	-0.0028069064
181	0xbb7b11fc	-0.003831028
182	0xbb4a9a84	-0.0030914852
183	0x3c3ee03e	0.011650143
184	0xba483ad5	-0.0007638161
185	0x3dba12d3	0.09085622
186	0xbb55f299	-0.003264582
187	0xbbe5f2db	-0.007017476
188	0x3c5a9eb6	0.013343504
189	0x3cbba8f4	0.022907712
190	0xba828672	-0.0009958281
191	0x3b948f07	0.0045336518
192	0xbd5a24ec	-0.053257868
193	0xbee17f1b	-0.44042286
194	0xbe52eee4	-0.20598942
195	0xbd22d047	-0.03974941
196	0xbdb2b890	-0.08726609
197	0x3e8c24b4	0.27371752
198	0x3ebee962	0.37287432
199	0x3f2e4793	0.68077964
200	0xbd861d2b	-0.06548532
201	0x3f087117	0.5329756
202	0x3dafca3d	0.08583496
203	0xbf3bdb55	-0.7338155
204	0xbbdb5607	-0.006693605
205	0xbc816bab	-0.01579841
206	0x3e268dce	0.16265032
207	0x3e8e419c	0.2778443
208	0x3ea90db5	0.3301827
209	0xbe5f070b	-0.2178003
210	0xbdfaf35c	-0.12253448
211	0xbedf6d68	-0.43638158
212	0x3d0ac757	0.03388151
213	0x3efe5ece	0.49681705
214	0xbaf81500	-0.0018927157
215	0x3e3c981c	0.184174
216	0xbec64d32	-0.3873077
217	0x3e06b2fd	0.13154216
218	0xbdc6ad0d	-0.097009756
219	0x3f1f05fd	0.6211851
220	0x3ecc1d7f	0.39866254
221	0xbe57d13c	-0.2107591
222	0x3db13e4d	0.08654461
223	0xbecf20fc	-0.40454853
224	0x3e22ada8	0.15886557
225	0xbe6137b7	-0.2199391
226	0x3d147cde	0.036251895
227	0x3eb5c0b0	0.3549857
228	0x3dcf9fe2	0.10137917
229	0xbc70d73e	-0.014699755
230	0xbcb59a2f	-0.022168247
231	0x3d04b951	0.032403294
232	0xbece2ad4	-0.4026705
233	0xbe0c059f	-0.1367402
234	0xbe9309ff	-0.28718564
235	0xbe90d380	-0.28286362
236	0xbe605972	-0.2190912
237	0x3dec7d08	0.11547285
238	0xbdf77b55	-0.120840706
239	0x3d547f63	0.051879298
240	0xbf2719fe	-0.65274036
241	0xbf0253da	-0.509092
242	0xbeaeb872	-0.34125096
243	0xbe70ae3e	-0.23503968
244	0xbe955f3e	-0.29174227
245	0xbe025be7	-0.1273037
246	0xbe3fed85	-0.1874295
247	0xbd1c1309	-0.03810409
248	0xbda900c4	-0.08252099
249	0xbdc1b3d2	-0.09458126
250	0xbe59bc42	-0.21263221
251	0xbd9ce7af	-0.07661378
252	0xbdbe93cd	-0.093055345
253	0x3e240265	0.16016538
254	0xbda901d3	-0.08252301
255	0x3e01859c	0.12648624

architecture.4.bias f4 [12]
0	0x3c961ffd	0.0183258
1	0xbbb48707	-0.0055092606
2	0x3da0ddf0	0.07854831
3	0x3fa879c6	1.3162162
4	0x3ba3f75a	0.005003852
5	0xbbd5746a	-0.006514122
6	0xbe861e28	-0.26194882
7	0x3f893448	1.071908
8	0xbe2d3284	-0.16913801
9	0xbcb9a0f0	-0.022659749
10	0x3db65c96	0.08904378
11	0xbe7bb940	-0.24582386

std f4 [12]
0	0x3e4ccccd	0.2
1	0x3e4ccccd	0.2
2	0x3e4ccccd	0.2
3	0x3e4ccccd	0.2
4	0x3e4ccccd	0.2
5	0x3e4ccccd	0.2
6	0x3e4ccccd	0.2
7	0x3e4ccccd	0.2
8	0x3e4d335d	0.20039125
9	0x3e4ccccd	0.2
10	0x3e4ccccd	0.2
11	0x3e4ccccd	0.2

architecture.0.weight f4 [64, 36]
0	0xbebe87aa	-0.37212878
1	0x3e81e363	0.25368795
2	0x3ea46f77	0.3211629
3	0xbe15484d	-0.14578362
4	0x3dee1c81	0.116265304
5	0x3e4ed446	0.20198163
6	0xbed64c99	-0.41855314
7	0xbebf8765	-0.37407985
8	0x3e5c3a42	0.21506599
9	0xbf255415	-0.64581424
10	0xbf6b2552	-0.9185382
11	0x3e10be42	0.14135078
12	0x3f0ac394	0.5420468
13	0x3ee76df9	0.4520109
14	0x3f4997cb	0.7874724
15	0x3b21470f	0.0024609005
16	0xbd0def12	-0.034651823
17	0x3e40b1bb	0.18817799
18	0xbc284c94	-0.010272164
19	0x3d18e538	0.037327975
20	0x3d1306ab	0.03589503
21	0x3ed0b1da	0.4076069
22	0x3ec3f297	0.3827102
23	0xbe5aada5	-0.21355303
24	0x3f255fa3	0.64599055
25	0x3f72df1c	0.9487169
26	0xbe2b4565	-0.1672569
27	0xbee16887	-0.4402506
28	0xbf0e3354	-0.5554707
29	0xbf8ba6c2	-1.0910265
30	0x3d0f43f8	0.03497693
31	0x3ce6bf6f	0.028167455
32	0xbc09e3f8	-0.008416168
33	0xbc45cb11	-0.012072341
34	0xbb6475de	-0.0034860293
35	0x3bc235af	0.0059268097
36	0x3c91ec6f	0.017812936
37	0x3d202274	0.039095357
38	0xbd2baaa7	-0.041910794
39	0x3d4252d1	0.04744226
40	0x3d2aa112	0.041657515
41	0xbdc5036a	-0.09619792
42	0xbe00b883	-0.12570386
43	0x3d4d3a39	0.050104354
44	0x3d1fb643	0.038992178
45	0xbdc2cfe0	-0.09512305
46	0x3dde2ebf	0.1084876
47	0x3e6b3c6f	0.22972272
48	0x3ddce19a	0.107852176
49	0xbd098a7d	-0.03357934
50	0xbe2d6af0	-0.16935325
51	0xbcae6a0c	-0.021290801
52	0xbad6b430	-0.0016380604
53	0x3dafab6b	0.08577617
54	0xbc58b0c0	-0.013225734
55	0xbc6cbc71	-0.014449225
56	0xbd3782a5	-0.044802327
57	0xbde30670	-0.11085212
58	0x3d3cc4cb	0.046086114
59	0x3e88278d	0.26592675
60	0xbd82da13	-0.063892506
61	0xbe72762b	-0.2367789
62	0x3df0484f	0.11732542
63	0x3e419b8d	0.18906994
64	0x3ded6730	0.11591947
65	0xbdacf631	-0.08445395
66	0x3c152bc1	0.00910467
67	0x3c8d81b1	0.017273756
68	0xbcf657cf	-0.030071167
69	0xbba6c327	-0.005089182
70	0xba2317ac	-0.0006221484
71	0x3af6aa36	0.0018819037
72	0xbcf6279b	-0.030048182
73	0xbe8ea756	-0.27862042
74	0xbcbe02e1	-0.023194732
75	0x3bf554ab	0.0074869
76	0xbe282e13	-0.16423826
77	0x3c94e294	0.018174447
78	0x3c09c638	0.008409075
79	0x3e5fba77	0.21848474
80	0x3e525ab6	0.20542416
81	0x3ef40953	0.47663364
82	0xbeb8267c	-0.3596686
83	0xbe25cb54	-0.16190845
84	0xbea2087b	-0.31647095
85	0x3cc717fa	0.024303425
86	0x3d40dfbd	0.047088373
87	0x3cab7e34	0.020934202
88	0xbd699280	-0.05702448
89	0x3d97ae9f	0.07406353
90	0xbc8c61e1	-0.017136516
91	0x3c0ef491	0.008725301
92	0xbc9cd55f	-0.019144712
93	0xbce2b839	-0.027675735
94	0xbe897093	-0.268437
95	0xbe1cb5aa	-0.15303674
96	0xbedf7934	-0.43647158
97	0x3e9cad97	0.3060119
98	0x3e14e87e	0.14541814
99	0x3ea6d009	0.32580593
100	0x3e0e47c3	0.13894562
101	0xbdb44fc0	-0.088042736
102	0x3cb5e09d	0.02220183
103	0x3d4846ed	0.048895765
104	0xbc8349f2	-0.01602647
105	0xbbc3ff7a	-0.005981383
106	0x3c9efc82	0.019407514
107	0xbb583d11	-0.0032995383
108	0x3c2f04ae	0.010682268
109	0x3c3542a8	0.011063255
110	0x3caf0633	0.02136526
111	0xbd1440a2	-0.03619445
112	0x3d4ec47a	0.050480343
113	0xbbf7ffd4	-0.007568339
114	0xbda55adf	-0.08073973
115	0xbdca8017	-0.098877124
116	0xbd0fa88b	-0.035072844
117	0x3e5cb858	0.21554697
118	0x3e7a8284	0.2446385
119	0xbe2fed4a	-0.17180362
120	0xbd1a8475	-0.037723977
121	0xbde8cd9c	-0.11367342
122	0x3cda93ba	0.02668177
123	0xbbbbd648	-0.0057323314
124	0xbe6e525f	-0.2327361
125	0x3d98c833	0.0746006
126	0xbce56b57	-0.028005285
127	0x3ceee876	0.02916358
128	0xbcaa05aa	-0.020754654
129	0x3e1749d1	0.14774252
130	0x3d472772	0.048621602
131	0x3c85f73f	0.016353248
132	0x3da6380b	0.08116158
133	0x3e9f1ee8	0.31078267
134	0xbda8081b	-0.08204671
135	0x3d6ff449	0.058582578
136	0xbcc18093	-0.02362088
137	0x3e2959e4	0.16538197
138	0x3a82999f	0.0009963996
139	0x3c3106a0	0.010804802
140	0xbc4b5f7f	-0.012412905
141	0xbbe11fc7	-0.006870243
142	0xba17cca7	-0.00057906884
143	0x3b810aef	0.003938071
144	0x3cc4ad53	0.024008429
145	0xbd4294d6	-0.047505222
146	0xbd2c86b4	-0.04212065
147	0x3d402ee6	0.046919726
148	0xbdde4a99	-0.10854072
149	0x3bb9f935	0.0056754597
150	0xbde77fc6	-0.11303668
151	0xbe012c19	-0.12614478
152	0xbdafdc66	-0.085869595
153	0xbd2d44ea	-0.04230205
154	0x3df5bdf3	0.119991206
155	0x3e2c3085	0.16815384
156	0xbe609431	-0.2193153
157	0xbed640a8	-0.41846204
158	0xbea0a20a	-0.31373626
159	0x3d063fa2	0.03277553
160	0x3d92436c	0.07141766
161	0xbd9facae	-0.07796608
162	0xbda17854	-0.07884279
163	0x3e250a00	0.16117096
164	0x3d8424ce	0.064523324
165	0x3e2e72f4	0.17036039
166	0x3e5ec4ea	0.21754804
167	0x3ec68641	0.38774303
168	0x3c9818da	0.018566538
169	0x3cff91b2	0.031197403
170	0x3dcf8ecb	0.101346575
171	0x3e87a57f	0.2649345
172	0x3c1f3c43	0.009718957
173	0xbed7df43	-0.42162523
174	0xbc6e5ddc	-0.014548745
175	0xbc4aaa49	-0.012369701
176	0xbcb832d1	-0.022485169
177	0xbd37025d	-0.04467999
178	0x3d3a1f47	0.045439985
179	0x3b5ce2cb	0.0033704515
180	0x3c3fa071	0.011695967
181	0xbcd56263	-0.026047891
182	0xbc853890	-0.016262323
183	0x3e3d2267	0.18470155
184	0x3d2499df	0.040185805
185	0xbd6096e8	-0.054831415
186	0x3e060b4a	0.13090244
187	0xbdfcef12	-0.123502865
188	0x3d847a78	0.064686716
189	0x3dc545aa	0.09632428
190	0xbd5b0f0c	-0.053481147
191	0xbe02adbf	-0.12761591
192	0x3da9620e	0.082706556
193	0xbd691c9b	-0.056912046
194	0x3da34647	0.07972389
195	0x3e490531	0.19630887
196	0x3e25ad53	0.16179399
197	0x3e7c17b7	0.24618421
198	0x3cd8979e	0.026439484
199	0x3cc8e0d4	0.024521269
200	0x3b078058	0.0020675864
201	0x3de20b6f	0.11037337
202	0xbcd65b5d	-0.026166612
203	0xbe1a2eff	-0.1505699
204	0x3dc3c0fa	0.09558292
205	0x3df9d874	0.12199488
206	0x3df9bccd	0.12194214
207	0xbd2e82cc	-0.042605206
208	0x3b92584c	0.004466092
209	0xbd82774c	-0.0637041
210	0x3c824dd9	0.015906261
211	0xbc2bd617	-0.010488055
212	0x3b4fe21d	0.0031720467
213	0xbd095cce	-0.03353577
214	0xbb133856	-0.0022463999
215	0xbc8833fa	-0.016626347
216	0x3ddef7c1	0.10887099
217	0x3e0aa5aa	0.13539758
218	0xbd24f939	-0.04027674
219	0x3e05d2f3	0.13068752
220	0x3e37ba30	0.17942119
221	0xbc51f7ee	-0.012815459
222	0x3f97b62f	1.1852473
223	0xbe84c0b9	-0.25928286
224	0x3db84ea7	0.08999377
225	0xbed824e7	-0.42215654
226	0x3dfbdc92	0.1229793
227	0x3f1fda9f	0.62442964
228	0xbf0021ec	-0.5005176
229	0xbdea8c1e	-0.114525065
230	0x3ebe26da	0.37139016
231	0x3bbdb40c	0.0057892855
232	0x3bf5c1b8	0.0074998997
233	0x3d403e32	0.046934314
234	0xbc108666	-0.008821106
235	0x3b367a6f	0.0027843972
236	0xbbf363a2	-0.0074276486
237	0xbf929594	-1.1451898
238	0x3e8c902d	0.27453747
239	0xbe2aca6a	-0.16678777
240	0x3ed4ea2c	0.4158491
241	0xbe49a8fe	-0.19693372
242	0xbf2405c8	-0.6407132
243	0x3ebf0a7b	0.37312683
244	0xbd4b3335	-0.04960938
245	0xbea9c351	-0.33156827
246	0x3c896fa9	0.016776877
247	0x3ca1a529	0.019732075
248	0xbaa51aff	-0.0012596546
249	0xbb25c783	-0.002529592
250	0x3c201975	0.009771694
251	0x3b6350dd	0.003468565
252	0xbecb08d3	-0.3965517
253	0x3aecef31	0.0018076656
254	0xbe1b280a	-0.15151992
255	0xbcdab781	-0.02669883

architecture.0.bias f4 [64]
0	0x3e8e08c3	0.2774106
1	0x40192a02	2.393189
2	0x3fc6b229	1.552312
3	0xbf617997	-0.88076156
4	0x3f344c5d	0.7042902
5	0x3fd02500	1.6261292
6	0x3faac4a8	1.3341265
7	0xbf46bcf6	-0.7763208
8	0x3b9a43ff	0.004707813
9	0xbfa90160	-1.3203545
10	0xbe5d04cd	-0.21583863
11	0xbf222019	-0.6333023
12	0x3fa36755	1.276591
13	0x3ea44400	0.3208313
14	0xbe03bc9d	-0.12864919
15	0x3fa44665	1.2833983
16	0x3f04e777	0.5191569
17	0x3f5ad8b0	0.8548689
18	0xbf9df2b2	-1.233969
19	0xc023e440	-2.5608063
20	0xbf8ea357	-1.1143597
21	0x3f8361b9	1.0264198
22	0xbfd59475	-1.668593
23	0xbf555022	-0.833254
24	0xbfacc6dc	-1.3498187
25	0xbd6b741f	-0.05748379
26	0xbf9f6352	-1.2452185
27	0xbf886dc2	-1.0658495
28	0x3f3e2c6a	0.7428652
29	0x3faabc0f	1.3338641
30	0xbfa0171a	-1.250705
31	0x3fcbdbde	1.5926473
32	0xbf7f7c79	-0.99799305
33	0x3faee644	1.3664021
34	0x3ee4a855	0.44659677
35	0xbfc6ba92	-1.5525687
36	0x3f434a69	0.76285416
37	0x3f74956b	0.95540494
38	0xbf41b83c	-0.75671744
39	0xbfbb7b67	-1.4647034
40	0xbfa0e9aa	-1.2571309
41	0xbf7ba6e2	-0.9830152
42	0xbfbb6911	-1.4641439
43	0x3fbeefe0	1.4916954
44	0x3f70ed89	0.9411245
45	0x3e2fb98f	0.17160629
46	0xbfa5d109	-1.2954417
47	0x3f63d496	0.88996255
48	0x3f597eaf	0.8495893
49	0x3f43cfe2	0.7648908
50	0xbf21fb8a	-0.63274443
51	0xbb067984	-0.0020519206
52	0x3e768ac4	0.24076372
53	0x3fd0584d	1.6276947
54	0x3fc76cb6	1.5580051
55	0xbecfa8ac	-0.40558374
56	0x4033601e	2.8027415
57	0x3f985d7b	1.1903528
58	0xbc8fa879	-0.017536389
59	0xbf80d082	-1.0063632
60	0x3f424a80	0.7589493
61	0x3fd4c8d5	1.6623789
62	0xbfafad77	-1.3724812
63	0xbd644d8e	-0.055738024

architecture.2.weight f4 [64, 64]
0	0xbdc8a68a	-0.0979739
1	0xbf35e87b	-0.7105786
2	0xbee63320	-0.4496088
3	0x3e7321ec	0.23743409
4	0xbedd82e9	-0.4326394
5	0xbf165bb8	-0.587337
6	0xbea0440b	-0.31301913
7	0x3e890341	0.26760295
8	0xbeb82a33	-0.35969695
9	0x3dff3199	0.12460632
10	0xbe5f56aa	-0.21810403
11	0x3e819da3	0.2531558
12	0xbea2a378	-0.31765342
13	0xbec7acdf	-0.38999078
14	0xbf08b1f2	-0.53396523
15	0xbf04be46	-0.51852834
16	0xbeb8d2f7	-0.36098453
17	0xbf1a93f6	-0.6038202
18	0x3f0f2551	0.55916315
19	0x3f568f21	0.8381215
20	0x3db59f25	0.08868245
21	0xbd42034c	-0.047366425
22	0x3f4dd308	0.80400133
23	0x3f3823f2	0.7192985
24	0x3f2a775d	0.66588384
25	0x3e35e20b	0.1776201
26	0x3dfef0bb	0.124482594
27	0x3f370260	0.71488
28	0xbef9548a	-0.4869731
29	0xbf22be70	-0.63571835
30	0x3ee501f6	0.4472806
31	0xbf324bc6	-0.6964687
32	0xbcb32ed8	-0.021872923
33	0xbefa7c24	-0.48922837
34	0xbec070a4	-0.37585938
35	0x3d274ec6	0.04084661
36	0xbf7c58ee	-0.98573196
37	0xbeb70fd8	-0.35754275
38	0x3f158773	0.58409804
39	0x3e9de080	0.30835342
40	0x3f1fe1ec	0.62454104
41	0x3eaad8db	0.33368573
42	0x3f45d5bc	0.7727926
43	0xbed9e63a	-0.4255846
44	0xbec18018	-0.3779304
45	0xbea4ee02	-0.32212836
46	0x3eedc739	0.46441057
47	0xbef474ff	-0.4774551
48	0xbebff60c	-0.37492406
49	0xbe41d52d	-0.18928976
50	0x3f1bcb31	0.6085692
51	0xbd311623	-0.043234
52	0x3db0769e	0.086163744
53	0xbe9cac6d	-0.306003
54	0xbbd791a1	-0.0065786396
55	0x3ec13d73	0.37742195
56	0xbf383426	-0.7195457
57	0xbf15ad6d	-0.5846775
58	0xbe816dbe	-0.2527904
59	0x3f54d1c0	0.83132553
60	0xbf1af910	-0.6053629
61	0xbda01287	-0.07816034
62	0x3e8e3919	0.27777937
63	0xbe783cf5	-0.24242003
64	0x3eb1aebe	0.3470363
65	0x3f3e3fd1	0.74316126
66	0x3e35ae49	0.17742266
67	0xbf0b7632	-0.54477227
68	0x3ede049e	0.43362898
69	0x3f4dba7d	0.80362684
70	0xbc9da005	-0.019241342
71	0xbe9a476d	-0.3013262
72	0x3e40dcae	0.18834183
73	0xbeafa92a	-0.3430875
74	0x3e9ad1a3	0.30238065
75	0xbed32e15	-0.41246095
76	0x3ee24fd8	0.4420154
77	0x3eed926f	0.46400782
78	0x3eb7f4f2	0.35929066
79	0x3ed7b2ff	0.4212875
80	0x3eb9c202	0.3628083
81	0x3ed18a54	0.40925848
82	0xbf0943c3	-0.5361902
83	0xbf48e784	-0.78478265
84	0xbe71453c	-0.23561567
85	0xbe39d4e7	-0.18147622
86	0xbf0a8139	-0.5410343
87	0xbf091e9f	-0.5356235
88	0xbde8df54	-0.113707215
89	0xbd310c67	-0.04322472
90	0xbe104a60	-0.14090872
91	0xbea23b0e	-0.3168568
92	0x3ed3b7ba	0.4135111
93	0x3eef7ca4	0.4677478
94	0xbe9bd412	-0.30435234
95	0x3f1a492c	0.602679
96	0xbe72c7ce	-0.23709032
97	0x3ebb908e	0.36633724
98	0x3e21f857	0.1581739
99	0xbef7342f	-0.48282
100	0x3f461d79	0.7738872
101	0x3eece4b7	0.46268246
102	0x3d04b295	0.03239687
103	0xbe3ec394	-0.18629295
104	0xbea46afc	-0.32112873
105	0xbf3cda59	-0.7377067
106	0xbf00dae2	-0.5033399
107	0x3e8563e0	0.2605276
108	0x3ea0de69	0.31419685
109	0x3e5d26ab	0.21596782
110	0xbf091b09	-0.5355688
111	0x3e9d6cf1	0.30747178
112	0x3f39d495	0.7259
113	0x3ea44c4a	0.32089454
114	0xbf52f593	-0.82405967
115	0x3ee0b7bb	0.43890175
116	0xbe82fe42	-0.25584608
117	0x3f004cbf	0.50117105
118	0xbcf2dd3f	-0.029646514
119	0xbf36d7bd	-0.7142294
120	0x3f1f4eb6	0.6222948
121	0x3e81484d	0.25250474
122	0xbbe5601c	-0.0069999825
123	0xbf47eb95	-0.78093845
124	0x3f2037e6	0.62585294
125	0x3e32bd00	0.1745491
126	0xbec96374	-0.3933369
127	0x3e8ae9c9	0.2713149
128	0x3e6b16d6	0.2295793
129	0x3f139f26	0.57664716
130	0xbefc34b4	-0.4925896
131	0x3c52fa3f	0.012877046
132	0xbd9b1548	-0.075724185
133	0x3e3213f0	0.17390418
134	0xbec13343	-0.37734422
135	0x3f0be792	0.54650223
136	0xbdf1beec	-0.118039936
137	0x3eb258b2	0.34833294
138	0xbe194773	-0.14968662
139	0xbda6b82b	-0.08140596
140	0x3e4c7bb2	0.19969061
141	0xbf0a005c	-0.539068
142	0xbe62e5ab	-0.22157924
143	0xbdff122f	-0.1245464
144	0x3d515607	0.051107433
145	0x3da90fc6	0.08254962
146	0x3d46ce00	0.0485363
147	0xbf0b9ff5	-0.5454095
148	0x3f38d96d	0.72206765
149	0xbdcc6ecd	-0.09982071
150	0xbd8c1fa4	-0.068419725
151	0xbc74c328	-0.014939107
152	0x3ebdbd53	0.37058505
153	0xbec93144	-0.392954
154	0xbe5eb2e4	-0.21747929
155	0x3def89d6	0.11696212
156	0xbe2244dc	-0.1584658
157	0xbe0234ce	-0.12715456
158	0x3e59d85d	0.21273942
159	0xbd136452	-0.035984345
160	0x3eaa42e6	0.33254164
161	0xbe9d2857	-0.3069484
162	0x3e92f352	0.28701264
163	0x3e4ae32f	0.19813226
164	0xbe83c701	-0.25737765
165	0xbdfaee04	-0.12252429
166	0x3d52c60e	0.05145841
167	0xbe095f9c	-0.13415378
168	0x3d998e79	0.07497878
169	0xbe8172f9	-0.2528303
170	0x3e1da85a	0.15396252
171	0xbef74c07	-0.48300192
172	0xbeb592f6	-0.35463685
173	0xbce27182	-0.027642015
174	0xbee3dc73	-0.44504127
175	0xbd09db61	-0.03365648
176	0x3e49c8d0	0.1970551
177	0xbe6b28f3	-0.2296484
178	0xbd599eb8	-0.05312988
179	0x3f2b7dc7	0.66988796
180	0xbe18ab97	-0.14909206
181	0xbe979814	-0.29608214
182	0xbe8248dc	-0.25446212
183	0xbd3e578e	-0.046470217
184	0x3f0fd3d1	0.5618258
185	0xbc973340	-0.018457055
186	0x3e45adff	0.19304655
187	0xbed98b1b	-0.42488942
188	0x3eb98e9a	0.3624161
189	0xbe8d5e75	-0.27611127
190	0xbaf6deb9	-0.0018834687
191	0xbe01e108	-0.12683499
192	0xbe176f69	-0.14788593
193	0xbf2d09e2	-0.67593205
194	0xbed43e53	-0.414538
195	0x3dc8097d	0.09767435
196	0xbeeeffe3	-0.466796
197	0xbf0d9888	-0.5531087
198	0xbe1c325f	-0.1525359
199	0x3ecf42dc	0.40480697
200	0xbed74053	-0.42041263
201	0x3e9b5766	0.30340117
202	0xbe75e4fe	-0.24013135
203	0x3ef73807	0.48284933
204	0xbf1b3390	-0.60625553
205	0xbe3b85df	-0.18312787
206	0xbebb6ffe	-0.3660888
207	0xbf14533b	-0.579395
208	0xbf18c147	-0.5966992
209	0xbf12ea4d	-0.57388765
210	0x3f682be0	0.9069195
211	0x3f168721	0.5879994
212	0x3ebfaa4f	0.37434623
213	0xbe1269b4	-0.14298135
214	0x3f3f5c67	0.7475037
215	0x3f4813cc	0.7815521
216	0x3f0f369a	0.5594269
217	0x3e7c14a9	0.24617256
218	0x3e4cdcd0	0.20006108
219	0x3f0b9a73	0.54532546
220	0xbf17d1b9	-0.59304386
221	0xbf00b3e0	-0.5027447
222	0x3f079bf8	0.52972364
223	0xbf368fc1	-0.713131
224	0xbe0a0384	-0.13477904
225	0xbec90b1b	-0.39266285
226	0xbe979b8b	-0.29610857
227	0x3e3b81e7	0.18311273
228	0xbf51852a	-0.8184382
229	0xbea0f327	-0.3143551
230	0x3ecf4dcd	0.40489045
231	0x3ea8ec5e	0.32992834
232	0x3f48897a	0.7833477
233	0x3f2eccad	0.6828106
234	0x3eda34a5	0.4261829
235	0x3bc8b22d	0.006124756
236	0xbef25ba3	-0.47335538
237	0xbee9e97c	-0.45685947
238	0x3ef6a106	0.48169726
239	0xbedbb684	-0.42912686
240	0xbeff2ff4	-0.49841273
241	0xbebfcec0	-0.37462425
242	0x3ef878ef	0.48529765
243	0xbe18d198	-0.14923704
244	0x3da331ef	0.079685085
245	0xbe9d4e1e	-0.3072366
246	0xbe3e3f6a	-0.18578878
247	0x3eee011e	0.46485227
248	0xbf3a58b4	-0.727916
249	0xbf175820	-0.59118843
250	0xbe80911c	-0.2511071
251	0x3f440bf5	0.76580745
252	0xbf22f8b1	-0.6366072
253	0xbdd1a96f	-0.10237395
254	0x3ed7506c	0.42053545
255	0xbead11a6	-0.33802527

architecture.2.bias f4 [64]
0	0xbf8ca662	-1.0988276
1	0x3f8da4fa	1.1065972
2	0x3f5306e3	0.82432383
3	0xbf9bdd21	-1.2176858
4	0xbf817afd	-1.0115658
5	0xbf8c15e2	-1.0944178
6	0xbf9399cb	-1.1531309
7	0x3f758d74	0.95918965
8	0xbf6e53ae	-0.93096435
9	0xbf0cb227	-0.5495934
10	0x3f1168b2	0.5680038
11	0xbf3ad876	-0.72986543
12	0xbf914c35	-1.1351382
13	0x3e2b975e	0.16756961
14	0xbf8eb067	-1.1147584
15	0x3f24fb06	0.6444553
16	0x3f555daf	0.83346075
17	0x3f3506a1	0.7071324
18	0xbf8cceb8	-1.1000586
19	0xbf8ac27b	-1.0840601
20	0x3f55d28c	0.83524394
21	0x3f2d71f9	0.67752033
22	0x3f892e33	1.0717224
23	0xbe81c54d	-0.2534584
24	0xbef86600	-0.4851532
25	0xbf4d2355	-0.8013204
26	0x3f877703	1.0583194
27	0xbf834692	-1.0255911
28	0x3f15797e	0.5838851
29	0x3ee0bef8	0.43895698
30	0xbf834edb	-1.025844
31	0x3f93889b	1.1526064
32	0xbfa054ba	-1.2525856
33	0x3ec490ac	0.38391626
34	0xbeeb7d52	-0.4599405
35	0xbe6526bc	-0.22378057
36	0xbf685b4c	-0.9076431
37	0xbede578d	-0.4342617
38	0x3f5a9674	0.85385823
39	0xbf83a5a2	-1.0284922
40	0xbf87b3dc	-1.0601764
41	0xbf3f5a8a	-0.74747527
42	0xbec1ce7b	-0.37852845
43	0x3f88df3d	1.0693127
44	0x3e475117	0.19464527
45	0x3f074d5e	0.5285243
46	0x3ecdc585	0.40189758
47	0xbe9a4ee0	-0.30138302
48	0xbf73d15f	-0.9524135
49	0xbf22f4aa	-0.6365458
50	0x3f19382a	0.59851325
51	0xbf06d1b9	-0.5266376
52	0xbf7c7cd4	-0.9862797
53	0xbf78ea8f	-0.9723291
54	0xbf8804db	-1.0626482
55	0x3f0f6512	0.56013596
56	0xbf881ad5	-1.0633188
57	0x3f85a6ca	1.0441525
58	0xbf983886	-1.189225
59	0xbf86ba4d	-1.0525604
60	0x3f7312cf	0.94950575
61	0xbdd65904	-0.10466197
62	0x3f8596da	1.0436661
63	0x3f820fd4	1.016108

architecture.4.weight f4 [1, 64]
0	0x40c18fa3	6.048784
1	0xc0be8655	-5.953898
2	0xc0df647d	-6.9810166
3	0x40b84317	5.7581897
4	0x40c3d7c2	6.1200876
5	0x40c195cb	6.0495353
6	0x40bf535b	5.978925
7	0xc0be83f9	-5.95361
8	0x40f99938	7.7999535
9	0x40edfbb6	7.4369764
10	0xc0c080ee	-6.0157385
11	0x40b8d5a9	5.7760816
12	0x40e86b8f	7.2631297
13	0xc1042229	-8.25834
14	0x40b7d32a	5.744527
15	0xc0f5675f	-7.6688685
16	0xc0e9cef7	-7.3065143
17	0x41056d8d	8.339246
18	0x40bdd5f1	5.932366
19	0x40bb3415	5.8501077
20	0xc0c22661	-6.067185
21	0xc0fc4998	-7.8839836
22	0xc0c1df5d	-6.058516
23	0x40f2c969	7.587086
24	0x40e20afe	7.063842
25	0x40c2758d	6.0768495
26	0xc0bffab7	-5.999355
27	0x40bd797d	5.92108
28	0xc0b0bc2c	-5.52297
29	0xc101e4f2	-8.118395
30	0x40d58d0c	6.6734676
31	0xc0bd2535	-5.910792
32	0x40bf0571	5.969414
33	0xc0f76c9c	-7.732008
34	0x41028590	8.157608
35	0x40eea785	7.457949
36	0x40af71f4	5.4826603
37	0x40bf8ccc	5.985937
38	0xc0ce19b5	-6.440638
39	0x40ba5173	5.8224425
40	0x40bfe1ef	5.99633
41	0x40bef3e2	5.967271
42	0x40bcc0a0	5.898514
43	0xc0bc4c1d	-5.884291
44	0xc0e99728	-7.2997017
45	0xc0e26e1e	-7.075942
46	0xc0f9beef	-7.8045573
47	0x40fc9c6a	7.8940935
48	0x40c2b1bf	6.0841975
49	0x40f8b51a	7.772107
50	0xc0c1e9f9	-6.059811
51	0x41055214	8.332539
52	0x40bb952b	5.861959
53	0x40bcfec7	5.9061007
54	0x40bac323	5.8363204
55	0xc10c0cba	-8.753107
56	0x40c032d5	6.006205
57	0xc0bf8e39	-5.986111
58	0x40ba3bf1	5.819817
59	0x40bf6c19	5.9819455
60	0xc0bac835	-5.8369393
61	0xc0f7403b	-7.7265906
62	0xc0c40d71	-6.126641
63	0xc0b8f121	-5.7794347

exp_avg f4 [64, 36]
0	0xb892807c	-6.9857546e-05
1	0xb912bf82	-0.00013994987
2	0x35cbed60	1.5193764e-06
3	0x387e0afc	6.056855e-05
4	0x3937c35e	0.0001752502
5	0xb8a11c06	-7.682298e-05
6	0xb894608d	-7.075174e-05
7	0xb8b3bf76	-8.5710475e-05
8	0xb889cb44	-6.57053e-05
9	0x38a394b3	7.800143e-05
10	0xb95b5e72	-0.00020920651
11	0xb890b4da	-6.900141e-05
12	0x381b3fc9	3.7014284e-05
13	0x393028fc	0.00016799936
14	0xb851ee38	-5.005134e-05
15	0x37fb0798	2.9925068e-05
16	0x388713e3	6.441006e-05
17	0x37846666	1.578331e-05
18	0x381e6679	3.776557e-05
19	0x3938f3ad	0.00017638384
20	0xb8206e13	-3.8249487e-05
21	0xb89bdb17	-7.4317846e-05
22	0xb88e07fe	-6.772576e-05
23	0xb863b79f	-5.4292028e-05
24	0x38a89646	8.038855e-05
25	0xb94c9875	-0.0001951175
26	0xb8949cf3	-7.086424e-05
27	0x37c59555	2.3553768e-05
28	0x39339da3	0.00017129495
29	0xb86e56d7	-5.6824498e-05
30	0x373dfbe0	1.1323922e-05
31	0xb91563fb	-0.00014246993
32	0xb820349e	-3.8195976e-05
33	0x38002411	3.0551168e-05
34	0xb94bc94e	-0.0001943458
35	0xb8d57caf	-0.000101798556
36	0x38bc3ead	8.976213e-05
37	0x37ac6ab3	2.0553683e-05
38	0xb8103e9a	-3.4390578e-05
39	0xb807e001	-3.2395128e-05
40	0x374c5e22	1.21812645e-05
41	0xb9104ef5	-0.00013762324
42	0x392679d8	0.00015876384
43	0x398d1c6a	0.00026914786
44	0xb924e2b4	-0.00015724712
45	0x373aad8d	1.1126872e-05
46	0xb9457b03	-0.0001883321
47	0x386bf591	5.6257068e-05
48	0xb88a9c00	-6.60941e-05
49	0xb7374830	-1.09244575e-05
50	0xb8e2f69d	-0.00010822455
51	0x388eaa1b	6.802772e-05
52	0x37bf1958	2.2780776e-05
53	0x36b79c4b	5.47202e-06
54	0xb89e8035	-7.5579075e-05
55	0xb9199cf4	-0.00014649687
56	0x37c1f8d3	2.312326e-05
57	0x39225b0f	0.00015483446
58	0x397d435d	0.00024153055
59	0xb91601ad	-0.00014305739
60	0x3818df84	3.644779e-05
61	0xb94f3fbc	-0.00019764801
62	0x384c41f3	4.869881e-05
63	0xb8a837b2	-8.021238e-05
64	0x36473a94	2.9687408e-06
65	0xb8d3afcc	-0.00010094009
66	0x38261abd	3.9602386e-05
67	0xb68535dc	-3.969979e-06
68	0xb9328f16	-0.00017028706
69	0x3836da2e	4.3595377e-05
70	0x37a8e667	2.013445e-05
71	0xb833104e	-4.269211e-05
72	0x37240ae0	9.777694e-06
73	0xb83b6c9d	-4.468543e-05
74	0xb8cabfa9	-9.66781e-05
75	0x385b52e7	5.2290878e-05
76	0x35e9167c	1.7366397e-06
77	0x38b1f1eb	8.4850784e-05
78	0xb81e08b1	-3.767823e-05
79	0xb848e401	-4.789606e-05
80	0xb76ffefa	-1.43048765e-05
81	0x38b4411f	8.5951986e-05
82	0xb7cc93be	-2.4387493e-05
83	0x37df8648	2.6646201e-05
84	0x379af775	1.8473462e-05
85	0x36f8e0bc	7.4171385e-06
86	0x38a91699	8.062757e-05
87	0x3723c6ba	9.761827e-06
88	0xb807df0a	-3.239423e-05
89	0x38facb5d	0.00011958808
90	0x390988c1	0.00013116283
91	0x3870486c	5.7287907e-05
92	0xb7579834	-1.2850436e-05
93	0xb8434d8a	-4.6563837e-05
94	0xb78e68f0	-1.6976584e-05
95	0xb7a5bc46	-1.9757204e-05
96	0x38a67f7d	7.9392434e-05
97	0xb82983d9	-4.0415533e-05
98	0x37b1a58f	2.1177138e-05
99	0x37af974c	2.0932079e-05
100	0xb7443f77	-1.1697287e-05
101	0x38bdca3b	9.049891e-05
102	0x389e074e	7.535388e-05
103	0x390a46bd	0.00013187058
104	0xb82ca95a	-4.1165717e-05
105	0x396b0632	0.00022413654
106	0x38709e32	5.736779e-05
107	0x38869d7a	6.41895e-05
108	0x38208464	3.827027e-05
109	0xb7c30bc7	-2.3251296e-05
110	0x38367c75	4.350809e-05
111	0xb8d991df	-0.00010374537
112	0x38588b77	5.16283e-05
113	0xb8bc3002	-8.973481e-05
114	0xb8aea7a3	-8.328191e-05
115	0xb8d79d48	-0.00010281295
116	0xb8b9121f	-8.824863e-05
117	0xb754c47f	-1.2681935e-05
118	0xb9008053	-0.00012254836
119	0xb7d38509	-2.521511e-05
120	0xb8e9491b	-0.00011123923
121	0x384fc316	4.9534334e-05
122	0xb715e1c6	-8.933659e-06
123	0x38286cad	4.0155533e-05
124	0x3830c8b2	4.2148582e-05
125	0x38c8666e	9.555822e-05
126	0xb759ad16	-1.2974508e-05
127	0xb81317d0	-3.506971e-05
128	0x3649ead7	3.0088029e-06
129	0xb8b594e2	-8.658484e-05
130	0xb901fede	-0.00012397344
131	0xb8c6b776	-9.475548e-05
132	0x37c0dc81	2.2990864e-05
133	0xb904e658	-0.0001267431
134	0xb84e605b	-4.9203965e-05
135	0xb8dbe1f3	-0.0001048482
136	0x38864704	6.4028456e-05
137	0xb71db417	-9.39986e-06
138	0xb9deb072	-0.00042474602
139	0xb9d16f04	-0.000399463
140	0xb9d5d0a1	-0.00040781967
141	0xb948a871	-0.00019136236
142	0x395b04bb	0.0002088723
143	0x390ed76d	0.00013622428
144	0xb84455f2	-4.6810084e-05
145	0x36601219	3.3389135e-06
146	0xb8282c3b	-4.0095514e-05
147	0x38b25bc8	8.504797e-05
148	0x3943c936	0.00018671606
149	0x399c79cf	0.00029845393
150	0x39c44c1e	0.00037440745
151	0xb931a20c	-0.00016940403
152	0x39a3ab09	0.00031217214
153	0x39c62227	0.00037790948
154	0x39407325	0.00018353442
155	0x399fadeb	0.00030456422
156	0x3898db4a	7.2887706e-05
157	0x391d9ca2	0.00015031037
158	0x393dec6e	0.00018112522
159	0xb8df9678	-0.000106614956
160	0x368012cd	3.816886e-06
161	0x390f76de	0.00013681824
162	0x38167cc3	3.587898e-05
163	0xb86d29bc	-5.654407e-05
164	0xb8bf576c	-9.123873e-05
165	0x39b7d2b5	0.0003506147
166	0xb931b10a	-0.00016945988
167	0x39a1e5d2	0.00030879542
168	0x39c3abad	0.00037321207
169	0x39532a1b	0.00020138214
170	0x3995897a	0.00028521923
171	0x38a28fbf	7.751537e-05
172	0x3911a2c8	0.00013888918
173	0x393b9a5e	0.00017891216
174	0x387803af	5.913124e-05
175	0x38e9bea3	0.00011145815
176	0x394e83f5	0.00019694849
177	0xb97d4b8f	-0.00024156108
178	0xb93d7f1f	-0.00018071801
179	0xb9d261c2	-0.00040127157
180	0xb7df96c6	-2.6653881e-05
181	0xb732521f	-1.0628747e-05
182	0xb8310f7b	-4.2214506e-05
183	0xb8bf0868	-9.1091555e-05
184	0x39b780a0	0.00035000313
185	0xb7a4ef33	-1.966171e-05
186	0x3833d028	4.2870786e-05
187	0x3860c000	5.3584576e-05
188	0x3935a2e1	0.00017322182
189	0xb93748e9	-0.00017479401
190	0xb9a1f7a6	-0.00030892825
191	0x39009646	0.00012263012
192	0xb8dcfbd6	-0.000105373256
193	0x39a2a62f	0.00031022864
194	0xb799a7a3	-1.8317083e-05
195	0xb8e0d76a	-0.00010721276
196	0xb8097945	-3.2776286e-05
197	0x3835a322	4.3305692e-05
198	0x394aaacd	0.0001932785
199	0x380c4029	3.3438355e-05
200	0xb6a3b8ef	-4.8793077e-06
201	0x383581e7	4.3274744e-05
202	0x3854cf74	5.0737945e-05
203	0x394781d9	0.00019026491
204	0xb941dd70	-0.00018488406
205	0xb9a32caa	-0.0003112306
206	0x38fcda9e	0.00012057017
207	0xb8fc2a40	-0.00012024166
208	0x39a0737d	0.00030603624
209	0xb76b6d67	-1.4032564e-05
210	0x39af47a6	0.00033431983
211	0x39c2e3ca	0.0003717228
212	0x39c85493	0.00038209985
213	0xb8cf5f98	-9.888335e-05
214	0xb6b36eda	-5.3475205e-06
215	0x38c33a09	9.3091345e-05
216	0xb888ba3b	-6.5196735e-05
217	0xb79bd76a	-1.857775e-05
218	0x38de7abe	0.000106086474
219	0xb93cb678	-0.00017997052
220	0x38edf4af	0.000113466165
221	0xb926e25b	-0.00015915318
222	0xb8cc8aa3	-9.753301e-05
223	0x39667cee	0.00021981049
224	0x39364b34	0.00017384888
225	0xb8a3a091	-7.8023535e-05
226	0x3817b905	3.617352e-05
227	0xb8e08821	-0.00010706508
228	0xb919ad2c	-0.00014655729
229	0x38d6e5aa	0.000102470935
230	0xb88405e5	-6.2953484e-05
231	0x388db688	6.757403e-05
232	0x3908518e	0.00013000352
233	0xb987e276	-0.00025917933
234	0xb893bfb3	-7.045213e-05
235	0xb91bc59e	-0.0001485557
236	0xb7be113b	-2.2657789e-05
237	0xb8e55d0e	-0.00010936904
238	0x394b5be3	0.00019393819
239	0x39232338	0.00015558011
240	0xb8778de5	-5.902154e-05
241	0x38702b8f	5.7261026e-05
242	0xb8c8b492	-9.570377e-05
243	0xb92aa740	-0.00016274769
244	0x39030bc5	0.00012497518
245	0xb8701752	-5.7242178e-05
246	0xb9c2ad9c	-0.00037131913
247	0xb9c8497e	-0.0003820173
248	0xb9e0fb04	-0.0004291163
249	0xb93084db	-0.0001683416
250	0x38a77bba	7.9862264e-05
251	0x384f157d	4.937266e-05
252	0x3674beaa	3.6469814e-06
253	0xb7d93d75	-2.5897034e-05
254	0x385e598d	5.3012325e-05
255	0x38952eb0	7.11357e-05
