raisimGymTorch/data/ouzel_delta_planning/2022-05-27-14-33-19/full_37000.pt (torch, 178160 bytes, 36 tensors)

architecture.0.weight f4 [64, 36]
000000 90 47 5a 3e 6a 5a d6 bd 02 4f c6 bd 7a 7a 97 3c
       0.21316361 -0.10466464 -0.09683038 0.018491019
000010 3f 17 2e 3e 3b ec fa bd 87 e9 94 3d d3 ec ac 3e
       0.17001055 -0.12252089 0.07271104 0.33774433
000020 52 14 87 bf c1 2d bb be 79 15 f2 3e 07 e5 15 bf
       -1.0553076 -0.36558345 0.47282007 -0.58552593
000030 b7 5c 2a 3e 01 90 2c 3e 00 2b f3 3e 8a 22 25 bf
       0.1663693 0.16851808 0.47493744 -0.6450583
000040 a5 2d 15 3d c6 ee 89 3e 35 45 0e be 4f e1 f5 3d
       0.036420483 0.26939982 -0.13893588 0.12005865
000050 a9 b4 9d be 78 87 ae be 9a 7b c6 3e d6 78 8c 3d
       -0.30801895 -0.3408773 0.38766176 0.06858985
000060 c4 a0 8f 3d f1 de fd 3e 40 3e 36 bf 9c c5 d6 be
       0.070130855 0.49584153 -0.71188736 -0.4194764
000070 8f f3 92 3e 90 1f 76 3e 7d a7 e1 bd 54 35 00 bf
       0.28701445 0.24035478 -0.11018274 -0.5008137
000080 78 fc b4 3d 43 e0 65 3f 35 75 29 3d b6 8d 6d 3e
       0.08837217 0.8979532 0.041371543 0.2319859
000090 f4 43 ce be 0f a9 87 3f 9d b0 4b 3f a5 9b 4f bd
       -0.4028622 1.0598468 0.79566365 -0.050685544
0000a0 a9 8a bc 3d 0d 3c 2f 3e 9a 2b 4c 3e 37 e9 a4 bd
       0.09206135 0.17112751 0.19938508 -0.08052295
0000b0 f4 c6 88 bf 7e 16 37 3f 84 e3 96 bd 63 f2 ad be
       -1.0685716 0.71518695 -0.07367614 -0.3397399
0000c0 f5 74 b2 3e 11 01 ca be b8 a6 1b 3e ca 1d b4 bd
       0.34854856 -0.3945394 0.15200317 -0.08794744
0000d0 00 ac d2 bd 8e e6 a5 bf 3f 33 84 3f d0 7f a9 3e
       -0.10286713 -1.2960985 1.0328139 0.33105326
0000e0 40 62 c9 3e 65 8e 4b 3e 8f aa de 3d 52 a3 14 be
       0.3933277 0.19878538 0.10872375 -0.14515427
0000f0 ce 0c 33 3f 90 67 9d bd 2a ab 18 bf eb bf 8a be
       0.69941413 -0.076857686 -0.59636176 -0.27099547
000100 22 99 a4 3e 32 fb 39 3e cb 8f a0 3e 33 d8 83 3e
       0.3214808 0.1816223 0.31359705 0.25750884
000110 af de 81 3e c5 0c 0b 3f c9 72 0d 40 15 f1 49 bd
       0.25365207 0.5431636 2.210131 -0.04930218
000120 57 1d a4 3c a0 28 00 3f 1c 8d c3 be a7 43 15 be
       0.020033522 0.5006199 -0.38193595 -0.14576589
000130 13 b8 ed 3d 4f 1f 42 be 15 37 96 bd ec dd 48 3f
       0.11607375 -0.18957256 -0.07334725 0.78463626
000140 16 9d 20 3f ff 1d 93 3c d3 30 16 bf 3f 0d bd 3e
       0.62739694 0.01795864 -0.5866825 0.36924168
000150 40 52 8a 3c 00 17 40 3d 67 df b9 be d1 fe d5 3e
       0.016884923 0.046896935 -0.36303255 0.41795972
000160 cb 71 d3 be a0 5d 7b bd 72 7c a0 be e3 df 70 be
       -0.41297755 -0.061368585 -0.31344944 -0.23522906
000170 fe 00 79 3d 9e cb f8 3d 70 5d c6 3e 5a 77 ae 3e
       0.06079196 0.12148212 0.38743162 0.34075433
000180 46 99 7b 3d 42 a2 16 3e bd 04 96 3d 8d 57 8a bd
       0.06142547 0.14710334 0.073251225 -0.0675498
000190 18 97 a9 bd 57 61 fc 3e 33 d4 9e 3c 59 60 33 be
       -0.08280772 0.49293014 0.019388294 -0.17517222
0001a0 c0 d7 14 be 95 0f b1 bb 1b 06 83 3e d7 7a 11 3e
       -0.14535427 -0.005403469 0.25590596 0.14207016
0001b0 26 5c ad 3e cf 32 86 bf f3 b4 3a bf 7a 09 07 be
       0.33859366 -1.0484256 -0.72932357 -0.13187209
0001c0 96 a5 51 3e cd c7 71 be a7 7a 2b 3f f5 54 1d bd
       0.20473322 -0.23611374 0.6698403 -0.0384111
0001d0 59 70 7f be ba 2f 15 bf 80 01 b4 be 8e 44 2a be
       -0.24945201 -0.5827595 -0.35157394 -0.16627714
0001e0 1f eb 97 bd b7 db a1 be a9 44 2b be dd e1 89 3d
       -0.07417893 -0.31612942 -0.1672541 0.06732533
0001f0 67 f4 64 3d 3d 08 bc be 09 27 b7 3e e3 a3 75 3e
       0.055897143 -0.36725035 0.3577197 0.23988299
000200 64 36 5e 3e c0 44 28 3e 71 a9 c6 be aa d8 ee be
       0.21700436 0.16432476 -0.3880115 -0.46649677
000210 f8 dd f5 be 8f 10 a6 be ff 6e 92 bd 40 93 33 3e
       -0.4802091 -0.32434508 -0.07150077 0.1753664
000220 a8 97 cb 3e ab ff 94 bd f9 e3 93 3e b3 0d a7 be
       0.39764142 -0.07275327 0.28884867 -0.3262764
000230 52 ba 4c 3e 50 5d 32 3e f4 c2 33 bd 49 85 fc bf
       0.1999295 0.17418408 -0.043887094 -1.9728175
000240 e1 07 32 40 6d e8 90 40 89 4d a0 40 d8 17 5f be
       2.781731 4.5283723 5.0094647 -0.2178644
000250 fd 3f 00 be ce 76 24 bd 02 05 d9 3d e1 a5 de 3d
       -0.1252441 -0.040152363 0.10596658 0.10871483
000260 14 a9 19 3e ef 33 78 3c 73 5e f0 3b 5b 99 6c bb
       0.15005904 0.015149101 0.007335478 -0.003610215
000270 d9 5f 6e 3d 56 57 3f bc a5 d1 9e 3d 54 90 23 be
       0.058196876 -0.011678537 0.0775483 -0.15973026
000280 c8 78 04 bf f7 3d dd 3c 8e 91 66 3d 69 6e 67 bd
       -0.517468 0.027007086 0.056291156 -0.05650178
000290 4f 49 9d bc e7 32 a5 bd 20 a0 0a be 5a e7 ec bd
       -0.019199995 -0.080663495 -0.13537645 -0.11567564
0002a0 0d ce a2 3c 4b bb 15 3c 3c c8 cd bd a2 15 55 3e
       0.019873643 0.009138892 -0.10047957 0.20809034
0002b0 3e fb 92 3d b1 d3 c2 3c 77 c9 23 3d e8 68 1f 3d
       0.07176827 0.023782583 0.039987054 0.038918406
0002c0 a9 e6 97 3c bb 2d e8 3d a6 49 ca bd 10 ff 62 3d
       0.018542605 0.113368474 -0.098773286 0.055419028
0002d0 36 09 1f 40 98 9f 0e c1 7b 71 96 3f 50 8f 94 be
       2.4849372 -8.913963 1.1753381 -0.2901559
0002e0 3a dd 8a 3e bf 9d 0a be ab 04 10 bd eb bf d5 ba
       0.27121907 -0.13536738 -0.0351607 -0.0016307806
0002f0 23 2c b6 be 6e f3 8a 3d c3 25 3c 3d 5e 20 21 3c
       -0.3558055 0.06784712 0.04593445 0.009834377
000300 00 6c 56 3d 42 09 a1 bd 88 eb 94 be b5 df bb 3d
       0.05234909 -0.07863094 -0.29085946 0.09173528
000310 8b 71 33 bf 87 40 67 bf 73 f1 09 be 8d 52 3e 3d
       -0.7009513 -0.90332836 -0.13471012 0.046465445
000320 c6 00 25 be ab 72 0b 3d 26 bd ff 3b 28 8b 9b 3e
       -0.16113576 0.034044903 0.0078045307 0.30379605
000330 24 96 e6 3d 89 e7 bb 3c 92 ff f0 bc cc 3d 1b 3e
       0.11259106 0.022937553 -0.02941874 0.15160292
000340 33 c6 89 be 16 9e d6 3e d8 35 12 3d 2e 5b c4 3d
       -0.26909027 0.41917485 0.03569588 0.09587704
000350 bc f1 95 bd f7 51 41 bb a7 fc b9 3d da 45 3c 3e
       -0.07321498 -0.0029498318 0.09081393 0.18386021
000360 af 49 28 be f9 b5 94 be 63 32 01 3c 32 79 92 3e
       -0.16434358 -0.29045084 0.007885548 0.2860809
000370 e2 54 73 3e e0 40 f8 bb b4 f7 3f be 7f eb 36 3e
       0.23762849 -0.007576093 -0.18746835 0.17863272
000380 71 07 9c bf 87 fe 8d be ac 82 af 3d 11 6a 2f 3e
       -1.2189771 -0.2773325 0.085698456 0.17130305
000390 a2 29 03 3f 6f 96 2c 3f 0e e8 0c 3f 6a f9 8b bd
       0.512354 0.67417043 0.5504159 -0.06834681
0003a0 75 e2 53 be 77 5f 13 bc fe b0 6f bd fd 32 88 bc
       -0.20691855 -0.008994929 -0.058518402 -0.016625876
0003b0 55 b4 b6 bd 54 87 04 3e 66 6d 6e bd f3 f0 37 3e
       -0.08921114 0.12942249 -0.0582098 0.17963009
0003c0 79 56 2c bd 50 e7 76 be 7f fa c6 3e 22 10 89 bf
       -0.042074654 -0.24111676 0.38862988 -1.0708048
0003d0 8b 38 2a bf a4 4f 4e 3d 5f c4 26 bd 32 5d 69 bc
       -0.6649253 0.05036892 -0.040714618 -0.014243411
0003e0 46 5d 06 bd 70 f7 9d 3e 96 06 00 bd 6b 33 1b bd
       -0.032803796 0.30852842 -0.03125628 -0.037890833
0003f0 e4 fb 0c 3e ae 6f 89 3e 89 1d 89 3e 6b 92 11 3c
       0.13767964 0.26843017 0.26780346 0.008885006

architecture.0.bias f4 [64]
000000 8f e8 10 3f 80 1e 42 3f 14 10 cb 3e 3a 47 f1 3e
       0.56604856 0.7582779 0.39660704 0.47124654
000010 e0 97 3d bf c1 59 11 bf d7 33 46 3d 95 f8 68 be
       -0.7405987 -0.5677758 0.048389282 -0.22751077
000020 9b 16 56 bf 9f 95 ab 3e e1 bc 96 3e 2a a4 d1 3e
       -0.83628243 0.3351259 0.29440978 0.4094556
000030 96 57 24 bf 9a 16 2a 3e cb ee 2f be d1 6a 2e 3f
       -0.64196146 0.16610184 -0.17180936 0.6813174
000040 9e 39 6d be f2 a8 c9 be 42 2e c6 bf 1b 88 07 bf
       -0.2316651 -0.39386708 -1.5482867 -0.52942055
000050 39 8b 67 bf f1 96 d0 bc d4 8f 94 bc af 44 7e be
       -0.9044681 -0.0254626 -0.018134989 -0.24830888
000060 7f ed 75 bd 1d 0b 28 3f cf d8 0a bf 1b b9 a6 3f
       -0.060040947 0.6564196 -0.54237074 1.302524
000070 ba 19 bf bf f6 53 c5 bd 36 38 12 3f 66 68 ef bf
       -1.4929726 -0.09635155 0.5711702 -1.8703735
000080 9c 97 2e bd 9e e3 ae 3e 35 10 96 bf 89 4e b3 bf
       -0.042625055 0.34158033 -1.1723696 -1.4008342
000090 d8 15 22 be 2f 9f 31 3f a0 ee d0 3e e3 85 64 bf
       -0.15828645 0.6938352 0.40807056 -0.89266795
0000a0 7e d7 2e bf b5 3b 54 3f fa 7c af bf bf 7b 9a 3e
       -0.68297565 0.82903606 -1.3710015 0.30172536
0000b0 f7 a3 c1 3c 71 e2 8d bd ef af 3e bf 4a 3c b2 be
       0.023637755 -0.06927956 -0.74487203 -0.34811622
0000c0 31 31 0c 3e 1f bc 02 3f 65 da 9d 3e b1 c0 a3 bf
       0.1369064 0.510683 0.30830684 -1.279318
0000d0 0a 23 e5 be 61 27 dd bf f4 1e 0f 3f 45 22 40 3d
       -0.44753295 -1.7277642 0.55906606 0.046907682
0000e0 94 b6 9f bf 05 a1 18 be ec af 01 3e ec 9d f8 3e
       -1.2477593 -0.14905174 0.12664765 0.48557985
0000f0 99 68 bf be e7 d3 d0 3d 63 a8 1a 3e ef 9d c0 be
       -0.3738449 0.10196667 0.15103297 -0.37620494

architecture.2.weight f4 [64, 64]
000000 aa 26 6c bc ca 1e 56 3c 72 ab 99 3a ac a1 8d 3b
       -0.014413515 0.013068864 0.0011724068 0.0043222513
000010 e2 a1 37 3d 2a f8 c2 3d c0 7f f6 bc 87 bc 54 bc
       0.044832118 0.0951999 -0.030090213 -0.012984402
000020 65 91 85 bc 80 02 ad 3c 35 f9 a8 bc 3d e1 7d 3c
       -0.016304681 0.021119356 -0.020626644 0.0154955955
000030 a2 41 23 3d b3 41 cc bc 58 31 95 bc dd 12 2d 3e
       0.039857514 -0.024933672 -0.018212005 0.16901727
000040 7f 9f 98 3c 44 3a 01 bd b6 cf 4f 3e 28 35 14 3b
       0.018630741 -0.031549707 0.20294079 0.0022614691
000050 5f ed 51 3a 10 68 05 bd eb da 2e 3e cb c0 01 bc
       0.00080080883 -0.032569945 0.17075698 -0.007919501
000060 28 5f c5 3c f5 f3 b5 be 5e 8a f6 bc 7b 19 11 3d
       0.024093226 -0.35537687 -0.030095275 0.03542469
000070 0e 41 f6 be ff 5f 91 bc bc b5 55 3c 5c 9b 48 3e
       -0.48096508 -0.01774597 0.013043817 0.19590515
000080 5e 3e 6d 3d 71 a8 8d 3c 75 f9 e6 3d e6 ed ec 3d
       0.057920806 0.017292233 0.11278049 0.11568813
000090 20 fa 9a 3a 6e fc d4 bc 8e e5 70 ba 3a d4 5f 3d
       0.0011823811 -0.025999274 -0.000918948 0.054645754
0000a0 7c 7a 01 3d b7 12 5e bc 35 ef 4a bd 41 e5 1e 3f
       0.03161095 -0.013554267 -0.04954453 0.62068564
0000b0 d6 7e ec bc 4b e2 04 bf b2 a2 f0 bb af 2f 2a bd
       -0.028869074 -0.51907796 -0.0073436135 -0.04154938
0000c0 17 4a 51 bb 1b 15 b7 bb ad 0a 66 3c 4d e0 81 bd
       -0.003193503 -0.0055872328 0.014040631 -0.0634161
0000d0 b8 74 0e 3f 94 15 98 3d 33 84 b5 3c c3 9f 0f 3c
       0.5564685 0.07425991 0.022157764 0.0087661175
0000e0 ee 5e 7a bd 3d 37 f6 bc 0d de c5 be 2d 22 f8 3d
       -0.06112569 -0.030055637 -0.38645974 0.121158935
0000f0 92 66 b9 3b 01 d2 d0 bb 89 f9 86 3b b3 4a b2 3c
       0.0056579793 -0.0063726907 0.0041191024 0.021764135
000100 9f 7b e4 be 11 56 c3 bf 35 89 ad 3e ca a7 ce bd
       -0.44625565 -1.526064 0.33893743 -0.10090597
000110 53 9e ae be 28 6a 59 3f a4 04 69 3e 28 18 cc be
       -0.34105167 0.84927607 0.22755677 -0.3986218
000120 7d f7 1e bf 26 07 9e 3f 76 fb 6f bf 76 07 11 bf
       -0.6209639 1.2345932 -0.93743074 -0.5665201
000130 8c d3 f1 3e 8e 51 6f bf c3 15 44 3e f3 37 20 3f
       0.4723171 -0.9348382 0.19148926 0.6258537
000140 36 24 03 bf 81 08 ec bd cc 07 e0 3e d5 c3 c9 be
       -0.5122713 -0.115250595 0.4375595 -0.3940722
000150 d9 e2 ef 3e 4e e9 de 3e 05 87 43 3e 6e a9 65 bd
       0.4685276 0.43537372 0.19094475 -0.056069784
000160 f7 57 43 bf df 0a 11 bf 74 da 12 3d 9d 4e 2e bf
       -0.763061 -0.5665721 0.035852864 -0.68088704
000170 c0 da b7 bd 16 ef 93 be 2c 10 ba be f3 99 e8 3d
       -0.0897727 -0.28893346 -0.36340463 0.113574885
000180 68 10 5a be 06 6c 77 3e 58 09 04 3f d4 c7 89 3e
       -0.21295321 0.24162301 0.5157676 0.2691027
000190 8e a0 1f bf a3 c7 10 3e e5 40 7d bf 81 d3 a7 3f
       -0.6235436 0.14138655 -0.98927146 1.3111421
0001a0 22 ca 6e be dd 45 08 be 7e 38 08 bd 47 7a 23 3e
       -0.23319295 -0.133079 -0.033257 0.15964614
0001b0 14 94 5d bf d8 4c 28 be db 90 c6 3e da 33 8e 3e
       -0.86554074 -0.16435564 0.3878239 0.27773935
0001c0 76 10 f3 3e 01 31 f7 bd b3 57 10 be e1 e1 b6 3e
       0.47473496 -0.12069894 -0.14095955 0.35719207
0001d0 13 b4 8d 3e 05 56 0a be 8b 5b aa be 37 c8 73 be
       0.27676448 -0.13509376 -0.33272967 -0.23806845
0001e0 91 6b 42 be d7 56 b4 be 0c 93 f7 bc e4 a2 36 be
       -0.18986346 -0.35222504 -0.030221485 -0.17835575
0001f0 9b 7b 4e bf e9 a1 51 bf 0d eb 05 bd 77 8e 69 3e
       -0.80657357 -0.8188768 -0.032694865 0.22808252
000200 2f f6 cf be 08 88 1c 3e 3c c0 cc 3d fd e6 09 3e
       -0.4061751 0.15286267 0.09997603 0.13467021
000210 dc 56 53 3f dd 1f 84 be 69 d7 11 3e 7d bd b2 3e
       0.8255441 -0.2580556 0.14242329 0.34910193
000220 0e ef 7d 3f 13 40 39 3f 92 d8 17 3f 62 06 c0 3f
       0.99192894 0.72363394 0.59314835 1.5001948
000230 3c ae cc 3d 01 4e 66 3f 21 d1 d7 be a2 d7 cd 3e
       0.0999417 0.89962775 -0.4215174 0.40203577
000240 96 ea ae 3e a8 95 5b bd 53 40 d5 be f2 30 d0 bc
       0.3416335 -0.05360952 -0.41650638 -0.025413964
000250 e5 f1 d3 3e 53 83 18 3f d8 98 8e 3f e0 52 01 3f
       0.41395488 0.59575385 1.1140394 0.5051708
000260 f4 11 a4 be 61 72 8e 3f 51 e9 09 bf 49 a8 09 3f
       -0.32044947 1.1128656 -0.5387164 0.5377241
000270 b6 9e 08 bf a7 30 74 3d 3c 7d f6 3d c2 c1 c2 3d
       -0.53367174 0.05961671 0.12035605 0.095096126
000280 eb 25 c0 3e c0 19 4d 3d d8 08 23 bf d2 58 32 bf
       0.3752893 0.050073385 -0.6368537 -0.6966678
000290 e0 c7 e7 3e 2f ef d3 3e 45 6b 88 3d 81 bf 0e bf
       0.4526968 0.4139342 0.06661085 -0.5576096
0002a0 96 59 fb be a0 3d 04 3f 41 33 41 3c d8 ee 01 3c
       -0.49091786 0.5165653 0.011792005 0.00793048
0002b0 70 14 fc 3e 85 63 88 be 2a 5f 8a bd 75 f0 d9 3e
       0.49234343 -0.26638427 -0.06756432 0.42566267
0002c0 d2 4b f3 3d b3 27 70 bf 40 c4 ff bd e2 71 04 3e
       0.11879696 -0.93810576 -0.124886036 0.12934068
0002d0 69 f6 ff be 50 76 cd be 65 af 3e be b4 be 3e 3e
       -0.49992684 -0.40129328 -0.18621595 0.18627435
0002e0 90 4c ea be c0 b8 c5 be 50 f4 90 be d6 6a 8e bf
       -0.45761538 -0.38617516 -0.28311396 -1.1126354
0002f0 59 16 a3 3e 7c 52 a0 3e f3 3c 52 bf 00 5f f0 3e
       0.31852987 0.3131293 -0.8212425 0.4694748
000300 d2 e2 d2 be 8a 66 ae bf 61 af 6b be 21 2d d7 be
       -0.41188675 -1.3625042 -0.2301612 -0.42026618
000310 18 6a 30 3f e3 b8 bd be a0 d8 ad be 83 e6 cb 3e
       0.68911886 -0.3705512 -0.33954334 0.39824304
000320 d4 e2 88 bd af 90 c9 3e 9d 5d af 3d 13 a4 b9 bd
       -0.06683889 0.39368197 0.08562777 -0.09064498
000330 a7 cc d9 bd f6 3a 28 3f 00 28 b8 be 73 2c 6c bb
       -0.106347375 0.6571497 -0.35968018 -0.0036037236
000340 7d 1a 59 be 49 79 00 40 b8 cf 03 3e f8 21 f1 bd
       -0.2120151 2.0074027 0.12872207 -0.11774057
000350 a8 9b 61 be 6d e9 5d bf 40 e7 1d 3f ce 29 e2 3f
       -0.22032034 -0.86684304 0.61680984 1.7669008
000360 06 d3 51 3f 16 2d 3b 3e 23 8d f9 3d 6b ec 97 3e
       0.8196262 0.18278918 0.12185123 0.2967256
000370 9c f4 8b bc 68 95 68 3d 22 dd e5 be 6f 6d f0 3d
       -0.017084412 0.05678311 -0.44895273 0.11739623
000380 0a 6b 8f be 4b 36 87 bd 14 b3 86 be ab 1b 80 be
       -0.28011352 -0.066021524 -0.263085 -0.2502111
000390 98 1e 77 3e be 3c 00 bf 9a e5 75 bf 5a fe 3a bf
       0.24132764 -0.50092685 -0.9605347 -0.7304436
0003a0 38 c2 cd 3e 9e 34 c0 3e 5f ea 8e 3b a7 6e 13 be
       0.4018724 0.37540144 0.0043614353 -0.1439768
0003b0 44 8b c4 be 8c 35 fd 3d 04 fd e7 3e 93 f3 80 3f
       -0.383875 0.12363729 0.45310223 1.0074333
0003c0 a0 8f 1b bc 09 7d d8 be ce fd 3e be 56 76 d7 3c
       -0.009494692 -0.42282894 -0.18651506 0.026301544
0003d0 b0 43 2a bf bf f6 bd be 83 d1 30 3c 68 58 8e 3e
       -0.6650953 -0.37102315 0.010792139 0.27801824
0003e0 8d 5d 14 bf 15 a8 88 3d 63 05 b8 3e e3 6a 6b 3e
       -0.5795525 0.06672684 0.3594161 0.22989993
0003f0 2d b7 2a bd ec 02 9b 3e aa 2e 08 bf 76 cc 19 3f
       -0.041678596 0.30275667 -0.53196204 0.6007761

architecture.2.bias f4 [64]
000000 c1 fb 71 3d dd 56 86 bf fd f3 38 3e 58 6a f2 3d
       0.05907798 -1.0495259 0.18061824 0.1183669
000010 9c df 12 bf 92 9f 4c 3f 44 98 9e 3e 3a 6c a8 3e
       -0.5737245 0.79930985 0.30975544 0.3289507
000020 e2 c6 89 3e a7 76 99 3e 89 74 80 3f 56 35 d4 bf
       0.26909548 0.29973337 1.0035564 -1.6578777
000030 63 f2 dd 3e 0b 53 37 3f 38 85 a8 be d2 03 8e 3f
       0.4334899 0.7161109 -0.32914138 1.1094916
000040 9a f2 19 3f f9 55 79 be e5 de 80 3d 8b 20 18 be
       0.60135806 -0.24349202 0.06292514 -0.14856164
000050 fe 3c 2f 3f e8 7d 27 3f 35 88 ab bd c5 4a 5a 3f
       0.6845244 0.6542649 -0.08375589 0.8527034
000060 56 03 47 bf 3d 67 ee 3e a7 95 6f 3e cd f9 05 40
       -0.77739465 0.4656314 0.23396932 2.0933716
000070 94 a1 ea 3e 13 53 4d be 6f f0 40 3f 7f 34 4e bf
       0.458264 -0.20051222 0.7536687 -0.8054885
000080 73 e4 f4 3c 7b 19 8c be b1 5e 1b be 01 b1 80 3e
       0.02989409 -0.2736319 -0.1517284 0.25135043
000090 d8 a2 93 3e cf 44 d0 3e ef 44 af be e5 60 a5 bd
       0.28835177 0.40677497 -0.3423228 -0.08075122
0000a0 a9 01 ff be 6a fc f9 be e3 89 3a bf e1 6e 73 bf
       -0.49805954 -0.4882539 -0.7286665 -0.9509106
0000b0 be 12 9c bf ae 68 6f 3f 35 76 ed be 97 05 74 3e
       -1.219322 0.93519104 -0.46379247 0.23830257
0000c0 28 51 95 bf 0f b5 41 be e8 60 81 bf 66 3e bf be
       -1.1665392 -0.18916725 -1.0107698 -0.37352294
0000d0 c2 3a e8 be 67 d0 27 bf 8c 9d 00 bf 1d 4c 26 bf
       -0.4535733 -0.6555237 -0.502404 -0.6495989
0000e0 99 2c eb 3c 85 88 74 be ec 48 36 bf 09 de 80 bf
       0.02870779 -0.23880203 -0.7120502 -1.006776
0000f0 4a 55 47 bf d7 28 22 3f 02 46 29 bf 8e d9 1e 3f
       -0.77864516 0.63343567 -0.6612245 0.6205071

architecture.4.weight f4 [12, 64]
000000 5e 44 9b bd 29 d0 c4 ba 75 83 b2 39 18 24 98 3a
       -0.075813994 -0.001501565 0.0003404875 0.0011607436
000010 7c 0f 48 bc 50 01 af 38 de a3 5d ba 82 ef 15 3b
       -0.012210723 8.344895e-05 -0.0008454899 0.0022878353
000020 97 4d 7b b9 14 1c c0 3a fb eb 99 bc 9c 9e a7 bc
       -0.0002396613 0.0014656805 -0.018789282 -0.020461373
000030 f6 37 2d 3b 92 47 db 3b e8 5f a8 39 ed 5d 79 ba
       0.002643106 0.0066918815 0.00032114913 -0.0009512592
000040 29 22 3a bb e4 35 8a 3a 06 e8 ea 3a f2 dc b9 3a
       -0.0028401709 0.0010544625 0.0017921932 0.0014180227
000050 67 38 17 3b ca fc b1 3a 2f 18 16 3b 35 34 0c bd
       0.002307439 0.0013579365 0.0022902598 -0.034229476
000060 f8 8f e0 3b ed 2f e3 3b 97 e7 fc ba 2b 40 ba bc
       0.0068531 0.0069332034 -0.0019295093 -0.022735676
000070 c1 a9 05 3a ff 8b 75 3a 65 a7 44 bd 82 39 cb 3a
       0.00050988427 0.00093668693 -0.048011202 0.001550481
000080 20 63 d9 39 2f 8e 92 bb 3d 8f 49 be d9 5b 62 3b
       0.0004146332 -0.004472516 -0.19683547 0.0034539609
000090 5c 61 77 b9 8a a7 19 3c 8b d7 3b 39 e0 12 9d 3d
       -0.00023592025 0.009378323 0.00017914006 0.07669616
0000a0 51 1e 48 b9 4f e6 0e 3b 87 57 72 3b 86 5c 84 3b
       -0.0001908478 0.0021804755 0.003697844 0.00403935
0000b0 fe 8b e7 38 7c 54 79 ba 6c 9b 02 3a b7 b4 fe ba
       0.00011041014 -0.00095111853 0.0004982266 -0.0019432519
0000c0 ce 70 59 bc 0d a7 12 3b e7 42 cd 3b 05 0c 93 3a
       -0.013271524 0.0022377402 0.006264079 0.0011218792
0000d0 a2 46 c4 ba 37 55 18 3b 1b ea 0d bb 03 9f 1d bc
       -0.0014974663 0.0023244151 -0.002165443 -0.009620431
0000e0 bc 7c 30 3a 22 4e 1f 3e 12 99 8e bb 13 ff 76 ba
       0.0006732454 0.15557149 -0.0043517435 -0.00094221643
0000f0 2b 47 aa bc 64 f5 df 3b f6 ab 84 ba 5c c1 6f ba
       -0.020785889 0.0068346728 -0.0010122049 -0.0009145939
000100 6d 68 e2 bd 97 12 e2 3a ae a3 84 3a 84 20 4e ba
       -0.11055074 0.0017247972 0.0010119581 -0.00078631216
000110 ec e8 12 bc fa a0 cf 38 bd a6 31 bb 6c db 1a 3b
       -0.008966666 9.9005134e-05 -0.002710744 0.002362932
000120 3a f8 b3 3a 6b ba ad 3b 43 62 9a bd 3e 31 60 3c
       0.0013730593 0.005301764 -0.07538273 0.013683615
000130 27 32 d8 3b 6e d6 7e 3b 3b d9 41 bb 6a 8d 75 bc
       0.0065977755 0.0038885134 -0.0029578942 -0.014987329
000140 62 db 00 bb 66 21 58 bb 11 c6 3c bb bf c3 1b ba
       -0.0019662012 -0.0032978891 -0.002880458 -0.0005941949
000150 0e 37 b7 3d 46 36 3e 39 5d 93 46 ba 3f 6f 5e 3c
       0.08946048 0.0001814003 -0.00075750594 0.013576328
000160 9d 3c b3 3b 21 a3 81 3a fa 62 bd ba 70 ed 79 3c
       0.005469872 0.0009890535 -0.0014449053 0.015254363
000170 cd f9 cd ba c2 05 fb 39 7e ed 16 3d 9a 3b 12 39
       -0.0015714705 0.0004787874 0.036847584 0.00013945848
000180 43 29 53 3b c0 b9 fb 3a 67 0a ad bb 77 5d 21 bb
       0.0032220639 0.0019205138 -0.005280781 -0.002462236
000190 56 35 4e 3b 2d 8f cc ba c4 57 25 3a 8a 3a 42 be
       0.0031464896 -0.0015606635 0.00063073286 -0.18967643
0001a0 6e a3 89 ba 98 15 57 ba 9e 1b 40 3b 00 85 bf ba
       -0.0010500976 -0.0008204817 0.0029313336 -0.0014611781
0001b0 2e e4 7b 3b bf a4 b4 ba 7a 4d da 39 73 0d e5 ba
       0.0038435566 -0.0013782008 0.00041637925 -0.0017475322
0001c0 03 40 85 3b e6 f3 fb 3a 56 dc 43 bc 05 4e ab bb
       0.0040664687 0.0019222468 -0.011954388 -0.0052278065
0001d0 0a e5 35 39 29 0f 18 bc fa 65 31 bb 73 cd 97 ba
       0.00017346829 -0.009280958 -0.002706884 -0.0011581614
0001e0 97 80 48 3b 31 04 58 3d 51 be 90 3a 17 5e 55 bc
       0.0030594224 0.052738372 0.0011043047 -0.013022921
0001f0 c4 b0 a4 3b df d9 f4 bc e9 0d a4 bb b6 21 0a ba
       0.005025955 -0.029889045 -0.005006541 -0.00052693055
000200 9e df 47 3e 27 c8 db 3a 2e 7f 34 39 28 6d 56 3b
       0.19518897 0.0016768024 0.00017213516 0.003271887
000210 1e 9e 91 3b 67 9b fc 39 06 35 83 3b a9 f6 d5 3b
       0.004443898 0.0004818097 0.0040041236 0.0065296483
000220 b1 41 b4 ba 03 53 63 ba 23 c6 af 3d 0d 11 49 bc
       -0.0013752488 -0.00086717325 0.085827135 -0.012272132
000230 5f 63 90 bc dd 85 27 bc 13 d9 8d 3a e4 dc f4 bb
       -0.017625509 -0.010224787 0.001082214 -0.0074726213
000240 6c d4 12 bb 77 34 35 bb cc 62 d4 39 09 24 66 ba
       -0.0022404445 -0.002764968 0.000405094 -0.00087791734
000250 f2 50 84 3c 82 1a ea 3a 1a 7a 84 bb 14 01 1f 3c
       0.016151879 0.0017860683 -0.004042876 0.009704847
000260 85 0f 1b 3c 22 3f f4 3a ac 20 a9 3b 18 ec 8d ba
       0.009464149 0.0018634538 0.0051613655 -0.0010827808
000270 72 d1 2d 3b b1 f9 5c 3b a5 32 26 3d 1c 5f 0b 3b
       0.0026522544 0.0033718164 0.040575642 0.0021266406
000280 08 a4 00 ba e5 17 ce 3b 7f ef 3f bd ed 37 ca 3a
       -0.0004907255 0.0062894695 -0.04685926 0.0015428044
000290 b8 44 39 3b 74 8c 3e 3c 0f 4a 46 bc 39 e2 01 be
       0.002826972 0.011630166 -0.012102618 -0.12683953
0002a0 37 7f 8b ba 40 c2 38 3c 3e 0b 82 3b d9 7c 0b 3c
       -0.0010642771 0.011276782 0.0039686253 0.008513653
0002b0 e8 9a ce 3b f2 dc 91 bb e7 87 fb 3a f1 3f c2 3a
       0.0063050874 -0.0044513876 0.0019190282 0.0014820081
0002c0 a5 47 6f bc 0b 22 e1 ba ed 0a b8 ba 2b 82 d9 39
       -0.014604484 -0.0017176283 -0.0014041342 0.00041486448
0002d0 b6 71 ad 3b b3 ff ab 3b 00 4b 80 bb 62 f4 6e 3c
       0.0052930964 0.0052489876 -0.0039151907 0.014584633
0002e0 e9 28 aa bb de 24 bd 3d a1 57 7e bb db 9a 34 bc
       -0.005192865 0.092355475 -0.0038809555 -0.011023249
0002f0 ff 30 be 3a 6f 7d cf 3c 48 b1 e1 b7 16 cc 01 3a
       0.0014510452 0.025328366 -2.6904643e-05 0.00049513706
000300 3e b0 2b bd be cf d7 be a1 e7 74 be 2d 89 c3 bd
       -0.041916125 -0.42150682 -0.23916484 -0.095476486
000310 65 28 b7 bd 87 5f 82 3e c0 ca c0 3e 21 bd 26 3f
       -0.089432515 0.25463507 0.37654686 0.6513234
000320 1a f0 da bd 5c e1 07 3f 31 ec 72 3d b0 ef 38 bf
       -0.10690327 0.53078246 0.05930728 -0.72240734
000330 ee 56 22 bc 2f 33 ca 3b 79 e3 27 3e 45 1e 89 3e
       -0.009908421 0.0061706523 0.16395368 0.26780906
000340 30 09 a4 3e 30 ab 58 be e9 84 14 be f7 91 c3 be
       0.3203826 -0.21159053 -0.14503826 -0.381973
000350 f3 c9 fb 3c 6b ba f6 3e ae 28 0f bd df 4d 40 3e
       0.030735945 0.481891 -0.034950905 0.18779705
000360 91 5d c8 be 06 64 fa 3d 27 7a b9 bd eb 8c 1d 3f
       -0.39133886 0.12226109 -0.09056502 0.6154315
000370 96 69 ca 3e c5 6e 6d be 03 48 a6 3d cf b7 bd be
       0.3953368 -0.23186786 0.08119204 -0.37054297
000380 72 c6 36 3e 4f bf 6e be 31 9b 6d 3d d8 f3 b4 3e
       0.17849138 -0.23315166 0.05800933 0.35342288
000390 a0 13 d9 3d 6d 56 0b bc b8 35 9b bb f6 b0 5b 3d
       0.10599446 -0.008504492 -0.0047366284 0.05363556
0003a0 b8 ad d1 be 89 ec 0a be 80 88 90 be 7b 21 97 be
       -0.4095285 -0.13566794 -0.2822914 -0.2951773
0003b0 3b 6b 60 be 09 67 e7 3d d1 4d f6 bd df 7e 94 3d
       -0.21915905 0.11298949 -0.12026561 0.07250761
0003c0 5d b8 25 bf 11 d8 fe be 1f 4b a7 be 99 0e 55 be
       -0.6473444 -0.4977422 -0.326745 -0.2080635
0003d0 10 63 8f be 74 a4 e7 bd 64 2d 41 be b4 b2 54 bd
       -0.28005266 -0.11310664 -0.18864971 -0.051928237
0003e0 2f a2 81 bd 8e fe 8c bd b7 c0 59 be 22 86 9c bd
       -0.06329762 -0.0688449 -0.21264921 -0.07642771
0003f0 15 1c b5 bd 2e 5b 22 3e a2 f5 8e bd d6 f5 00 3e
       -0.08843247 0.15855095 -0.069804445 0.12593779

architecture.4.bias f4 [12]
000000 81 78 25 3c 6b 6c 23 bb 46 ca a4 3d 94 c1 a7 3f
       0.010099531 -0.0024936448 0.08046393 1.310595
000010 a9 56 36 3c 05 94 03 bc 1c 94 86 be 1e 8d 88 3f
       0.01112906 -0.008030896 -0.26284873 1.0668066
000020 98 4f 29 be c0 59 ff bc ff 62 ba 3d 0c fe 80 be
       -0.16534269 -0.031170726 0.09100913 -0.25193822

std f4 [12]
000000 cd cc 4c 3e cd cc 4c 3e cd cc 4c 3e cd cc 4c 3e
       0.2 0.2 0.2 0.2
000010 f6 9b 53 3e cd cc 4c 3e cd cc 4c 3e cd cc 4c 3e
       0.20664963 0.2 0.2 0.2
000020 76 db 4d 3e cd cc 4c 3e cd cc 4c 3e cd cc 4c 3e
       0.20103249 0.2 0.2 0.2

architecture.0.weight f4 [64, 36]
000000 c8 61 bc be 22 9a 80 3e f5 72 a3 3e f1 9a 17 be
       -0.3679335 0.25117594 0.31923643 -0.14805199
000010 22 e6 e3 3d e5 7d 55 3e 60 98 df be 3f e0 b8 be
       0.11127879 0.20848806 -0.4367094 -0.36108586
000020 d5 e1 5b 3e ff 93 24 bf 49 7a 63 bf 21 9b 0a 3e
       0.21472867 -0.64288324 -0.8885847 0.1353574
000030 38 e8 0a 3f c8 33 e5 3e ab 10 4a 3f 18 01 1e bc
       0.5426059 0.44766068 0.78931683 -0.009643815
000040 03 82 24 bd 71 9e 35 3e 3f 2b 52 bb 92 68 e8 3c
       -0.04016305 0.17736222 -0.0032069234 0.028370176
000050 6d 45 21 3d 7c c4 c9 3e 7c 05 cf 3e b6 c9 4b be
       0.03937285 0.39407718 0.40433872 -0.19901165
000060 da 8f 21 3f 7e ff 79 3f 2e ba 18 be c4 65 e3 be
       0.63110125 0.97655475 -0.14914772 -0.4441358
000070 85 aa 13 bf 43 9a 89 bf 1e 57 c2 3c 84 62 ee 3c
       -0.5768207 -1.0750202 0.023723181 0.02909971
000080 bd 7b ff bb 65 76 33 bb cc fe 64 38 59 19 d9 3b
       -0.007796733 -0.00273838 5.4596734e-05 0.006625336
000090 e1 a4 58 3c dd ce 30 3d 7e e9 50 bd 2d 21 e2 3c
       0.013222904 0.04316603 -0.051003926 0.02760371
0000a0 12 d4 eb 3c 61 71 b0 bd 67 13 10 bd c7 c5 a0 3c
       0.028787646 -0.08615375 -0.035174754 0.019625558
0000b0 a5 44 f0 3c eb 1b d9 bd 4d b8 23 3e 05 4c 9a 3e
       0.029329607 -0.10601028 0.15988274 0.30136123
0000c0 b1 33 cb 3d 3e 8b 4c bd a9 85 21 be 4a 72 cf bc
       0.09921969 -0.04993748 -0.15773644 -0.025323052
0000d0 37 89 68 3b 3c a7 ea 3d f6 35 a4 3c 03 96 06 bd
       0.0035482177 0.11457679 0.020045262 -0.032857906
0000e0 de 85 2b bd 31 ad 24 bc 80 1e b8 3c a5 b1 80 3e
       -0.041875713 -0.010051058 0.022475481 0.25135532
0000f0 b0 47 a6 bd bc 78 39 be f1 b9 46 3e 6c 19 37 3e
       -0.08119142 -0.18112463 0.19406869 0.17880791
000100 d2 e4 ea 3d 69 59 a0 bd a1 27 e4 3c ff ee e5 3c
       0.11469425 -0.07829554 0.027850928 0.028068064
000110 6d cd 99 bc 8e 5c 02 3b 04 bc 8a bc fb da 0b bb
       -0.018774712 0.0019891593 -0.016935356 -0.002134024
000120 f3 89 e1 bc fc 5c 8a be ac 1e 10 bd 8a ba d5 ba
       -0.0275316 -0.27024066 -0.0351855 -0.0016306203
000130 3b fb 2c be 1c b0 91 3c a6 5b 9b 3c 42 a8 73 3e
       -0.16892712 0.01778417 0.0189646 0.23794654
000140 04 69 55 3e 30 6c f6 3e d6 24 bf be 84 25 1e be
       0.20840842 0.48129416 -0.3733279 -0.15443999
000150 29 d8 aa be 25 ac 71 3c e0 4c 59 3d 20 1d f0 3c
       -0.33368042 0.014750515 0.05305183 0.029310763
000160 60 1c 80 bd ac 94 66 3d c8 39 7a bc 2f 5a 18 3c
       -0.06255412 0.05629413 -0.015272565 0.009298845
000170 d1 78 de bc 43 05 9a bc 4a 67 82 be 7d 92 07 be
       -0.02715722 -0.018801337 -0.25469428 -0.13239475
000180 b9 c8 dd be de b8 95 3e 2f e3 0e 3e 60 53 a1 3e
       -0.43317202 0.29242605 0.13953851 0.31508923
000190 29 38 09 3e 8c e1 a6 bd 2e 8a c3 3c 90 57 4c 3d
       0.1340033 -0.081484884 0.0238696 0.049888194
0001a0 a4 a6 8d bc 8d b5 fc 3a c3 ce 3d 3c 12 03 0d bc
       -0.017291375 0.001928018 0.01158494 -0.008606689
0001b0 66 07 26 3c 50 8d 4b 3c 58 32 9b 3c 33 74 49 bd
       0.0101336 0.012423828 0.018944904 -0.04918308
0001c0 0f e6 68 3d f7 e9 91 bc a5 11 55 bd b6 e7 d6 bd
       0.056860026 -0.017811758 -0.05201878 -0.10493414
0001d0 db ab be bc 61 d8 68 3e 7d 99 53 3e 0b f6 3d be
       -0.023275306 0.22738792 0.2066402 -0.18550889
0001e0 95 d6 81 bd a9 23 ef bd c6 37 81 3c ae 20 cb bc
       -0.063397564 -0.116767235 0.015773665 -0.024795856
0001f0 bb 3c 75 be 25 dc 87 3d 40 25 80 bc 41 e3 56 3b
       -0.23948948 0.06633786 -0.015642762 0.0032789262
000200 86 d0 46 3b d6 2e 26 3e 0a 0f 3a 3d 56 1b 5b 3c
       0.0030336692 0.16228804 0.0454245 0.013373217
000210 bc f1 b5 3d 63 89 8f 3e 62 38 e5 bd 1a 27 55 3d
       0.08883998 0.28034505 -0.11192395 0.052039243
000220 22 c7 fe bc de 19 16 3e fd 96 d3 ba b3 49 fc ba
       -0.031100813 0.14658305 -0.001614302 -0.0019248038
000230 12 25 2f bc 7b e0 2d bb 07 0f cd bb 14 0d 3a 3c
       -0.010689991 -0.0026531506 -0.006257895 0.011355657
000240 b0 3f 8b 3c 3c 04 e0 bc b1 cd 22 bd 79 03 a8 3d
       0.016998142 -0.02734577 -0.039746944 0.08203787
000250 7f e2 90 bd 6d 1c b0 bc f5 92 ec bd f2 f5 a9 bd
       -0.07074451 -0.02149793 -0.11551467 -0.082988635
000260 c2 f6 76 bd 7e cd 55 bd d1 1c ca 3d ab d6 39 3e
       -0.06029392 -0.052197926 0.098687775 0.18148296
000270 1b 6e 4d be fe e3 c5 be af 70 a6 be 81 79 79 3d
       -0.20061533 -0.38650507 -0.32507846 0.06090689
000280 5d b9 7b 3d 08 ae 82 bd 34 15 64 bd e9 7d 1e 3e
       0.061456073 -0.0638085 -0.055684283 0.15477718
000290 bb 43 9a 3d 3a 3f 29 3e a4 a4 83 3e 3d 64 cc 3e
       0.0753245 0.16528025 0.25711548 0.39920226
0002a0 43 41 bf 3b 51 c4 a2 3b 3a 2e 01 3e bd 1c 98 3e
       0.005836637 0.0049672504 0.1261529 0.29709426
0002b0 70 d3 3b 3d 26 c5 d8 be 60 6a 03 bc 3c d4 da bc
       0.04585594 -0.42337912 -0.008020967 -0.02671253
0002c0 84 d3 9d bc 5b 14 62 bd 29 b8 34 3d 33 de 96 3b
       -0.019265898 -0.055195194 0.04412094 0.004604125
0002d0 3e d5 88 3c dd d0 33 bb e8 d1 5a bc 78 b7 53 3e
       0.016703244 -0.0027437725 -0.01335571 0.20675457
0002e0 02 88 a6 3d 35 14 35 bd e5 40 0b 3e 8b 1a cc bd
       0.0813141 -0.044208724 0.13598974 -0.09966
0002f0 53 80 c0 3d db 92 df 3d 70 e4 5a bd bc 11 01 be
       0.09399476 0.10916682 -0.05344051 -0.12604421
000300 29 26 ac 3d 0c d2 15 bd 59 30 ca 3d 02 f2 17 3e
       0.08405716 -0.03657727 0.09872503 0.14838412
000310 11 65 10 3e ee 99 71 3e 6b db f6 3c db 0d 7b bc
       0.14101054 0.23593876 0.030133924 -0.015323128
000320 90 2c a7 3b ec 67 dc 3d be 89 6f bb cd ed 05 be
       0.005101748 0.10762009 -0.0036550607 -0.13078995
000330 d8 5b d9 3d fc ad f7 3d 4d 48 e5 3d 6b 35 36 bd
       0.10613221 0.12093732 0.11195431 -0.044484537
000340 a8 8b b4 3c c5 0c 46 bd 0e fc a2 3c b7 21 cb bc
       0.02203925 -0.04835202 0.01989558 -0.02479635
000350 46 93 5a bb 3b 2d 9b bc 2e 77 b3 bb dc 4c ea b9
       -0.0033351942 -0.018942466 -0.005476854 -0.00044689223
000360 b9 70 06 3e 62 4a 10 3e b2 71 6a bd 49 aa 0d 3e
       0.13128938 0.14090875 -0.057237335 0.1383449
000370 fd ba 2e 3e 9b c3 10 bc 6f 69 98 3f 4c ef 80 be
       0.17063518 -0.0088356985 1.1907176 -0.2518257
000380 ca 1c 0b 3e 9f 69 d5 be c2 93 15 3e 8c 02 1d 3f
       0.13585201 -0.41682145 0.14607146 0.6133201
000390 97 12 fd be ae 8b f3 bd bf 1c bf 3e eb e8 36 bc
       -0.49428245 -0.11891876 0.3732662 -0.01116393
0003a0 9f e4 fd bb 8a 12 8e 3c 10 ef 86 bc ba 37 c2 bb
       -0.007748201 0.017342824 -0.016471416 -0.0059270533
0003b0 33 7d 2f bb 40 49 90 bf 46 89 8c 3e 23 8d 00 be
       -0.0026777505 -1.1272354 0.2744848 -0.1255384
0003c0 d7 bd cc 3e c3 53 34 be 2d e9 23 bf a2 34 bf 3e
       0.39988586 -0.17610078 -0.64027673 0.37344843
0003d0 5f cf 87 bd eb 49 a2 be 20 4d ac 3c 43 0d 9c 3c
       -0.0663135 -0.3169702 0.02103287 0.019049292
0003e0 d6 94 24 3b 6b e6 0e 3c 36 1e b9 3b 79 a7 12 bb
       0.0025113127 0.008721928 0.0056493534 -0.0022377654
0003f0 bb 7a c2 be 6e 37 c0 3c bb b6 17 be f8 d6 a8 bc
       -0.3798426 0.023463931 -0.148158 -0.020610318

architecture.0.bias f4 [64]
000000 f2 fb 94 3e 9b ac 17 40 3f ce c6 3f e8 1b 64 bf
       0.2909847 2.36991 1.5531691 -0.8910508
000010 de e1 37 3f 9d cd cf 3f e1 da aa 3f 42 7e 47 bf
       0.7182902 1.6234623 1.3348047 -0.7792703
000020 01 e5 f0 bb f2 7b a9 bf 02 c3 63 be 50 96 27 bf
       -0.007351518 -1.324095 -0.22242358 -0.65463734
000030 c7 26 a5 3f 7e 1d a5 3e da 92 f6 bd b3 13 a5 3f
       1.2902459 0.32249063 -0.120397285 1.2896637
000040 57 7c 0b 3f 37 9e 5d 3f 59 49 a0 bf 6d 44 22 c0
       0.544866 0.8656954 -1.2522384 -2.5354264
000050 93 a0 90 bf e7 d7 83 3f ea 95 d2 bf b1 2f 59 bf
       -1.1299003 1.0300263 -1.6452 -0.84838396
000060 9d 60 ad bf ee d7 61 bd 58 c3 a0 bf 59 59 8a bf
       -1.3545109 -0.055137567 -1.2559614 -1.0808517
000070 0e a0 3d 3f 82 cc a9 3f cc 14 a2 bf 26 9b cb 3f
       0.7407235 1.3265536 -1.2662597 1.5906723
000080 6d 79 80 bf be 3c af 3f 6a ce e7 3e 74 2f c6 bf
       -1.0037056 1.3690412 0.4527467 -1.5483232
000090 6b 00 45 3f 02 55 75 3f 72 e4 43 bf 24 3c bb bf
       0.7695376 0.95832837 -0.76520455 -1.4627728
0000a0 9c 57 a0 bf b4 ac 7e bf 67 70 bb bf 55 72 bd 3f
       -1.2526736 -0.99482274 -1.4643677 1.4800516
0000b0 69 d5 6f 3f bf 1f 3f 3e 76 49 a6 bf 07 01 67 3f
       0.93685013 0.18664454 -1.2991168 0.9023594
0000c0 0d f7 55 3f a1 bb 47 3f 27 a1 28 bf 6a d3 70 3a
       0.83580095 0.78020674 -0.658709 0.00091867766
0000d0 cb 89 76 3e 75 7b d2 3f 8f 17 c7 3f b7 1d d1 be
       0.24076001 1.6443926 1.5554065 -0.40842983
0000e0 9f d0 33 40 e5 92 98 3f df 2d c3 bc 75 f1 82 bf
       2.8096082 1.1919829 -0.023825584 -1.0229937
0000f0 dd 94 3f 3f 1c 0a d5 3f 82 b9 af bf 74 b9 17 bd
       0.7483652 1.664371 -1.3728487 -0.037042096

architecture.2.weight f4 [64, 64]
000000 8a a6 c8 bd 7b e8 35 bf 20 33 e6 be ec 21 73 3e
       -0.0979739 -0.7105786 -0.4496088 0.23743409
000010 e9 82 dd be b8 5b 16 bf 0b 44 a0 be 41 03 89 3e
       -0.4326394 -0.587337 -0.31301913 0.26760295
000020 33 2a b8 be 99 31 ff 3d aa 56 5f be a3 9d 81 3e
       -0.35969695 0.12460632 -0.21810403 0.2531558
000030 78 a3 a2 be df ac c7 be f2 b1 08 bf 46 be 04 bf
       -0.31765342 -0.38999078 -0.53396523 -0.51852834
000040 f7 d2 b8 be f6 93 1a bf 51 25 0f 3f 21 8f 56 3f
       -0.36098453 -0.6038202 0.55916315 0.8381215
000050 25 9f b5 3d 4c 03 42 bd 08 d3 4d 3f f2 23 38 3f
       0.08868245 -0.047366425 0.80400133 0.7192985
000060 5d 77 2a 3f 0b e2 35 3e bb f0 fe 3d 60 02 37 3f
       0.66588384 0.1776201 0.124482594 0.71488
000070 8a 54 f9 be 70 be 22 bf f6 01 e5 3e c6 4b 32 bf
       -0.4869731 -0.63571835 0.4472806 -0.6964687
000080 d8 2e b3 bc 24 7c fa be a4 70 c0 be c6 4e 27 3d
       -0.021872923 -0.48922837 -0.37585938 0.04084661
000090 ee 58 7c bf d8 0f b7 be 73 87 15 3f 80 e0 9d 3e
       -0.98573196 -0.35754275 0.58409804 0.30835342
0000a0 ec e1 1f 3f db d8 aa 3e bc d5 45 3f 3a e6 d9 be
       0.62454104 0.33368573 0.7727926 -0.4255846
0000b0 18 80 c1 be 02 ee a4 be 39 c7 ed 3e ff 74 f4 be
       -0.3779304 -0.32212836 0.46441057 -0.4774551
0000c0 0c f6 bf be 2d d5 41 be 31 cb 1b 3f 23 16 31 bd
       -0.37492406 -0.18928976 0.6085692 -0.043234
0000d0 9e 76 b0 3d 6d ac 9c be a1 91 d7 bb 73 3d c1 3e
       0.086163744 -0.306003 -0.0065786396 0.37742195
0000e0 26 34 38 bf 6d ad 15 bf be 6d 81 be c0 d1 54 3f
       -0.7195457 -0.5846775 -0.2527904 0.83132553
0000f0 10 f9 1a bf 87 12 a0 bd 19 39 8e 3e f5 3c 78 be
       -0.6053629 -0.07816034 0.27777937 -0.24242003
000100 be ae b1 3e d1 3f 3e 3f 49 ae 35 3e 32 76 0b bf
       0.3470363 0.74316126 0.17742266 -0.54477227
000110 9e 04 de 3e 7d ba 4d 3f 05 a0 9d bc 6d 47 9a be
       0.43362898 0.80362684 -0.019241342 -0.3013262
000120 ae dc 40 3e 2a a9 af be a3 d1 9a 3e 15 2e d3 be
       0.18834183 -0.3430875 0.30238065 -0.41246095
000130 d8 4f e2 3e 6f 92 ed 3e f2 f4 b7 3e ff b2 d7 3e
       0.4420154 0.46400782 0.35929066 0.4212875
000140 02 c2 b9 3e 54 8a d1 3e c3 43 09 bf 84 e7 48 bf
       0.3628083 0.40925848 -0.5361902 -0.78478265
000150 3c 45 71 be e7 d4 39 be 39 81 0a bf 9f 1e 09 bf
       -0.23561567 -0.18147622 -0.5410343 -0.5356235
000160 54 df e8 bd 67 0c 31 bd 60 4a 10 be 0e 3b a2 be
       -0.113707215 -0.04322472 -0.14090872 -0.3168568
000170 ba b7 d3 3e a4 7c ef 3e 12 d4 9b be 2c 49 1a 3f
       0.4135111 0.4677478 -0.30435234 0.602679
000180 ce c7 72 be 8e 90 bb 3e 57 f8 21 3e 2f 34 f7 be
       -0.23709032 0.36633724 0.1581739 -0.48282
000190 79 1d 46 3f b7 e4 ec 3e 95 b2 04 3d 94 c3 3e be
       0.7738872 0.46268246 0.03239687 -0.18629295
0001a0 fc 6a a4 be 59 da 3c bf e2 da 00 bf e0 63 85 3e
       -0.32112873 -0.7377067 -0.5033399 0.2605276
0001b0 69 de a0 3e ab 26 5d 3e 09 1b 09 bf f1 6c 9d 3e
       0.31419685 0.21596782 -0.5355688 0.30747178
0001c0 95 d4 39 3f 4a 4c a4 3e 93 f5 52 bf bb b7 e0 3e
       0.7259 0.32089454 -0.82405967 0.43890175
0001d0 42 fe 82 be bf 4c 00 3f 3f dd f2 bc bd d7 36 bf
       -0.25584608 0.50117105 -0.029646514 -0.7142294
0001e0 b6 4e 1f 3f 4d 48 81 3e 1c 60 e5 bb 95 eb 47 bf
       0.6222948 0.25250474 -0.0069999825 -0.78093845
0001f0 e6 37 20 3f 00 bd 32 3e 74 63 c9 be c9 e9 8a 3e
       0.62585294 0.1745491 -0.3933369 0.2713149
000200 58 0a 7e 3e 07 da 12 3f b6 33 fe be dc 40 2f 3c
       0.24808633 0.57363933 -0.49648827 0.010696616
000210 6f 80 a4 bd 18 55 29 3e 8b 38 be be 17 ed 0d 3f
       -0.08032309 0.16536367 -0.37152514 0.55439895
000220 0f 7e f2 bd 4c 19 b4 3e e2 79 fd bd f7 48 96 bd
       -0.1184045 0.3517555 -0.12376763 -0.07338136
000230 4a bb 44 3e 21 a6 0b bf 32 05 4b be 1e 78 00 be
       0.1921207 -0.5455037 -0.198262 -0.12545821
000240 7b 6f 46 3d 32 e6 bd 3d cc d2 66 3d bd b0 0a bf
       0.04844616 0.09272422 0.056353375 -0.5417593
000250 f2 c2 39 3f b9 cd db bd 4b c5 69 bd 54 a2 ef bb
       0.7256309 -0.10732598 -0.05707292 -0.007313052
000260 44 e3 bf 3e b8 5a c8 be 95 dd 52 be 44 80 ea 3d
       0.37478077 -0.39131713 -0.2059234 0.11450246
000270 5f c4 14 be 66 a9 ff bd f0 b3 59 3e 8a ac 1f bd
       -0.14528035 -0.12483482 0.21260047 -0.038982905
000280 ff 6a af 3e 92 2f 9d be 8f c3 95 3e b2 25 52 3e
       0.3426132 -0.30700356 0.29250762 0.20522192
000290 ce 93 85 be f0 d9 00 be 69 35 43 3d 1e f1 03 be
       -0.2608933 -0.12583137 0.047658358 -0.12884948
0002a0 da 62 a3 3d 19 2a 82 be dc 73 1f 3e 22 93 f9 be
       0.07977839 -0.25422743 0.1557154 -0.48745066
0002b0 1c 25 b3 be 1f 2d 06 bc a9 32 e3 be b8 91 15 bd
       -0.3498925 -0.008189469 -0.44374588 -0.03651592
0002c0 d6 44 3a 3e a5 c3 7c be 52 dc 05 bd 0b e2 2d 3f
       0.18190321 -0.24684007 -0.032680817 0.6792304
0002d0 bd 9d 18 be 34 87 9b be 1a c6 82 be 0d d8 43 bd
       -0.14903922 -0.3037659 -0.25541764 -0.047813464
0002e0 7a c7 0e 3f 00 d5 58 bc 44 7c 34 3e c7 cf d6 be
       0.5577313 -0.013234377 0.17625529 -0.41955397
0002f0 43 de b4 3e c1 f0 8e be cf be 39 bc 4d d4 ed bd
       0.35325822 -0.27918056 -0.011336996 -0.11612759
000300 69 6f 17 be e2 09 2d bf 53 3e d4 be 7d 09 c8 3d
       -0.14788593 -0.67593205 -0.414538 0.09767435
000310 e3 ff ee be 88 98 0d bf 5f 32 1c be dc 42 cf 3e
       -0.466796 -0.5531087 -0.1525359 0.40480697
000320 53 40 d7 be 66 57 9b 3e fe e4 75 be 07 38 f7 3e
       -0.42041263 0.30340117 -0.24013135 0.48284933
000330 90 33 1b bf df 85 3b be fe 6f bb be 3b 53 14 bf
       -0.60625553 -0.18312787 -0.3660888 -0.579395
000340 47 c1 18 bf 4d ea 12 bf e0 2b 68 3f 21 87 16 3f
       -0.5966992 -0.57388765 0.9069195 0.5879994
000350 4f aa bf 3e b4 69 12 be 67 5c 3f 3f cc 13 48 3f
       0.37434623 -0.14298135 0.7475037 0.7815521
000360 9a 36 0f 3f a9 14 7c 3e d0 dc 4c 3e 73 9a 0b 3f
       0.5594269 0.24617256 0.20006108 0.54532546
000370 b9 d1 17 bf e0 b3 00 bf f8 9b 07 3f c1 8f 36 bf
       -0.59304386 -0.5027447 0.52972364 -0.713131
000380 84 03 0a be 1b 0b c9 be 8b 9b 97 be e7 81 3b 3e
       -0.13477904 -0.39266285 -0.29610857 0.18311273
000390 2a 85 51 bf 27 f3 a0 be cd 4d cf 3e 5e ec a8 3e
       -0.8184382 -0.3143551 0.40489045 0.32992834
0003a0 7a 89 48 3f ad cc 2e 3f a5 34 da 3e 2d b2 c8 3b
       0.7833477 0.6828106 0.4261829 0.006124756
0003b0 a3 5b f2 be 7c e9 e9 be 06 a1 f6 3e 84 b6 db be
       -0.47335538 -0.45685947 0.48169726 -0.42912686
0003c0 f4 2f ff be c0 ce bf be ef 78 f8 3e 98 d1 18 be
       -0.49841273 -0.37462425 0.48529765 -0.14923704
0003d0 ef 31 a3 3d 1e 4e 9d be 6a 3f 3e be 1e 01 ee 3e
       0.079685085 -0.3072366 -0.18578878 0.46485227
0003e0 b4 58 3a bf 20 58 17 bf 1c 91 80 be f5 0b 44 3f
       -0.727916 -0.59118843 -0.2511071 0.76580745
0003f0 b1 f8 22 bf 6f a9 d1 bd 6c 50 d7 3e a6 11 ad be
       -0.6366072 -0.10237395 0.42053545 -0.33802527

architecture.2.bias f4 [64]
000000 62 a6 8c bf fa a4 8d 3f 9e e5 51 3f 21 dd 9b bf
       -1.0988276 1.1065972 0.81990993 -1.2176858
000010 f5 12 81 bf e2 15 8c bf cb 99 93 bf 74 8d 75 3f
       -1.008391 -1.0944178 -1.1531309 0.95918965
000020 e2 ba 6d bf 7d 48 0c bf 77 c1 11 3f 56 49 3a bf
       -0.92863286 -0.5479811 0.5693583 -0.7276815
000030 a0 ab 90 bf 1c 8a 2f 3e 04 a0 8d bf ba 08 25 3f
       -1.1302376 0.17142528 -1.1064458 0.6446644
000040 2e 48 54 3f 95 99 33 3f d3 15 8e bf 7b c2 8a bf
       0.8292264 0.7015622 -1.110041 -1.0840601
000050 d6 5d 56 3f 86 a3 2c 3f 33 2e 89 3f 6c 98 7e be
       0.8373693 0.67437017 1.0717224 -0.24862832
000060 bf 9f f7 be 68 99 4d bf 03 77 87 3f 92 46 83 bf
       -0.48364064 -0.80312204 1.0583194 -1.0255911
000070 9c 1e 15 3f 4a 07 e1 3e ef 0c 83 bf 9b 88 93 3f
       0.5824983 0.43950874 -1.0238322 1.1526064
000080 ba 54 a0 bf 7d 2b c5 3e 0c 3d ec be 98 7e 64 be
       -1.2525856 0.3850974 -0.46140325 -0.22313917
000090 d9 21 67 bf 29 fc e3 be 8c 5a 59 3f a2 a5 83 bf
       -0.9028602 -0.4452832 0.8490379 -1.0284922
0000a0 dc b3 87 bf ca 2a 3f bf 81 11 c1 be 3d df 88 3f
       -1.0601764 -0.74674666 -0.37708667 1.0693127
0000b0 b5 09 52 3e e6 0e 07 3f a4 54 cc 3e f9 1c 99 be
       0.20511515 0.5275711 0.39908326 -0.29904917
0000c0 5f d1 73 bf 74 ef 22 bf e2 3c 1d 3f ea 94 06 bf
       -0.9524135 -0.63646626 0.61421025 -0.52570975
0000d0 d4 7c 7c bf 8f ea 78 bf db 04 88 bf ae 39 11 3f
       -0.9862797 -0.9723291 -1.0626482 0.5672864
0000e0 d5 1a 88 bf 34 b4 85 3f 86 38 98 bf 4d ba 86 bf
       -1.0633188 1.0445619 -1.189225 -1.0525604
0000f0 ee ca 71 3f 2a de dc bd da 96 85 3f d4 0f 82 3f
       0.9445027 -0.10784562 1.0436661 1.016108

architecture.4.weight f4 [1, 64]
000000 4e 9b c1 40 00 92 be c0 59 2c df c0 c2 4e b8 40
       6.050208 -5.9553223 -6.9741635 5.759614
000010 b7 e6 c3 40 76 a1 c1 40 06 5f bf 40 a4 8f be c0
       6.1219134 6.0509596 5.9803495 -5.9550343
000020 6e 62 f9 40 e0 c2 ed 40 fc 8a c0 c0 2d e2 b8 40
       7.7932653 7.4300385 -6.016966 5.7776093
000030 34 13 e8 40 82 09 04 c1 09 e0 b7 40 87 59 f5 c0
       7.252344 -8.252321 5.746098 -7.6671786
000040 46 9a e9 c0 d3 5a 05 41 32 e2 bd 40 c0 3f bb 40
       -7.300082 8.334674 5.9338617 5.851532
000050 9b 3a c2 c0 44 f7 fb c0 08 eb c1 c0 b5 82 f2 40
       -6.069654 -7.873934 -6.0599403 7.5784554
000060 39 1f e2 40 f1 81 c2 40 62 06 c0 c0 28 85 bd 40
       7.0663114 6.078362 -6.000779 5.9225044
000070 a1 fa b0 c0 74 db 01 c1 87 34 d5 40 e0 30 bd c0
       -5.5305943 -8.116077 6.662662 -5.912216
000080 1c 11 bf 40 69 45 f7 c0 f1 90 02 41 1c 67 ee 40
       5.9708385 -7.727223 8.160386 7.4500866
000090 79 7c af 40 4a 9b bf 40 be d2 cd c0 1e 5d ba 40
       5.4839444 5.987706 -6.4319754 5.823867
0000a0 9a ed bf 40 6e ff be 40 5c d4 bc 40 c8 57 bc c0
       5.997754 5.9686804 5.900923 -5.8857155
0000b0 b6 5e e9 c0 c0 4d e2 c0 3d 79 f9 c0 40 69 fc 40
       -7.2928114 -7.071991 -7.7960496 7.887848
0000c0 6a bd c2 40 da 92 f8 40 77 f5 c1 c0 89 15 05 41
       6.085622 7.767926 -6.061214 8.317758
0000d0 d6 a0 bb 40 72 0a bd 40 ce ce ba 40 8b f7 0b c1
       5.8633833 5.907525 5.8377447 -8.747935
0000e0 80 3e c0 40 e4 99 bf c0 9c 47 ba 40 c4 77 bf 40
       6.0076294 -5.9875355 5.8212414 5.98337
0000f0 e3 cb ba c0 a1 17 f7 c0 1c 19 c4 c0 cc fc b8 c0
       -5.8373885 -7.7216344 -6.128065 -5.780859
