raisimGymTorch/data/ouzel_delta_planning/2022-05-27-14-33-19/full_14000.pt (torch, 178160 bytes, 36 tensors)

architecture.0.weight f4 [64, 36]
000000 94 e2 cd bd 66 98 22 3e e8 a6 a0 bd df af 61 3d
       -0.10052982 0.15878448 -0.07844335 0.055099364
000010 e5 d5 ab bc d0 00 b4 bd 14 2e 55 3e 7f d1 6c 3d
       -0.020976016 -0.087892175 0.20818359 0.05781698
000020 e7 cb 8e bf 96 30 8a be cb b8 b2 3e 03 ae 2b bf
       -1.1155976 -0.26990193 0.3490661 -0.67062396
000030 3b 0a 8a 3e e0 0b d0 3c f3 18 d5 3e b9 f4 54 be
       0.2696093 0.025396287 0.41620597 -0.2079648
000040 bd 75 f9 b8 bd 87 ed 3d 6b d2 86 be 4b 54 a7 be
       -0.00011895176 0.11598156 -0.2633241 -0.32681498
000050 ff a4 09 be 43 27 7e be ef aa 06 3e 2f a3 20 be
       -0.13441847 -0.24819665 0.13151143 -0.1568725
000060 d3 77 ec 3d 3e 27 ba 3e ba 59 3f bf 3c b6 a3 be
       0.11546292 0.36358064 -0.74746287 -0.3197497
000070 d4 9e 0d 3d 57 f5 f3 3d fd 21 08 be b6 75 bf bd
       0.0345753 0.11912029 -0.13294216 -0.093486235
000080 ea f1 0b bd 33 58 c4 3e 90 c7 77 bd 53 ff 15 3f
       -0.034166254 0.3834854 -0.060493052 0.5859272
000090 25 43 08 bf f0 16 7f 3f 15 7f 5e 3f 4b 07 87 3d
       -0.53227454 0.99644375 0.8691266 0.06593188
0000a0 7f 8a ec bd 06 da 3c 3e db 08 27 3e 45 7d 7a 3e
       -0.115498535 0.18442544 0.16311972 0.24461849
0000b0 42 c5 58 bf d2 42 fe 3e 8a 8d 6f 3e 31 63 bc be
       -0.8467599 0.49660355 0.23393837 -0.36794427
0000c0 3a 15 fa 3e 2d 69 12 bf c0 3c 1a 3e ef 0d ef 3d
       0.4884432 -0.57191736 0.15062237 0.116725795
0000d0 49 c5 0b be 76 46 5a bf f6 83 37 3f 07 89 83 3e
       -0.13649477 -0.85263765 0.7168573 0.2569048
0000e0 37 0e 37 3e 20 00 17 3e e1 c8 cf 3e 11 a1 98 3c
       0.17876516 0.14746141 0.40582946 0.01863149
0000f0 71 29 dc 3e 0a 3c a2 3e 07 4d 1c bf 72 c2 22 be
       0.43000367 0.3168643 -0.61055034 -0.15894488
000100 ef 6e 32 3e 10 3f 41 3e 1b 21 a6 3e 9b b2 82 3e
       0.1742513 0.18871713 0.32447132 0.2552689
000110 66 b6 9d 3e 8a aa a6 3e 37 63 b4 3f 8f 36 52 be
       0.3080322 0.32551986 1.4092778 -0.20528625
000120 20 08 6e 3d be 93 82 3e a8 6b 9d be 8c c4 03 3d
       0.058113217 0.25503343 -0.30746198 0.032169864
000130 ca 8d 56 3e 24 c2 19 be ea 1e a0 bd 9c 6d 10 3f
       0.20952526 -0.15015465 -0.078183964 0.5641725
000140 98 bd e8 3e 26 04 4e bd 01 2b fa be fc ae 0f 3f
       0.4545715 -0.050296925 -0.48860934 0.5612638
000150 2d 52 2b 3e 95 c0 04 3e 23 01 78 be fe d2 2e 3f
       0.16730566 0.12964089 -0.24219184 0.682907
000160 54 c3 a7 3e 41 9c ab bd b1 73 83 bd ad 4f 71 be
       0.3276621 -0.083794124 -0.06418551 -0.2356555
000170 07 b5 e3 3e d3 88 fd 3d a3 28 28 3e 6e c0 99 3e
       0.4447405 0.12379613 0.16421752 0.30029625
000180 9d 8f a1 3d 33 04 33 3e 38 90 6b 3e b2 ed ca 3d
       0.0788872 0.1748207 0.23004234 0.09908618
000190 98 44 89 3d 50 19 0b 3f 9b 41 ce 3c 87 70 50 be
       0.06702536 0.543355 0.025177768 -0.20355426
0001a0 0d 55 e9 bd 26 a2 3d be f2 e2 5a 3e b7 b5 e9 bc
       -0.11393175 -0.18518886 0.21375635 -0.028529031
0001b0 e7 45 c6 3d 57 ec 57 be f8 57 99 bf 4b 94 47 be
       0.096813016 -0.2108625 -1.1979971 -0.19490163
0001c0 ee c2 17 3d 4a 2d 42 be da aa 2a 3f f4 d7 03 3e
       0.037051134 -0.18962589 0.6666695 0.12875348
0001d0 81 0f 09 3c cd 7c b1 be 96 27 93 be dc 2d 89 be
       0.008365513 -0.34665528 -0.2874114 -0.267928
0001e0 85 eb f7 bd 59 67 d1 be 08 b6 ed bd 06 fd 25 3e
       -0.12105469 -0.4089916 -0.11606985 0.16209802
0001f0 fe 97 00 3d 51 d8 4f bd 66 16 00 3f 7e 49 87 bd
       0.03139495 -0.050743405 0.5003418 -0.066058144
000200 dd b2 d1 3e df 58 1a 3e 22 08 1a be 09 68 8b be
       0.40956774 0.15072964 -0.15042165 -0.2722781
000210 94 1a 8a be 7e 91 b6 be 90 e8 ce bd 6e 4c d4 3d
       -0.26973403 -0.35657877 -0.101029515 0.1036614
000220 78 57 6d 3e eb 55 a0 bd b3 6c 96 3d 88 37 a7 3d
       0.23177898 -0.078288876 0.073449515 0.081648886
000230 05 64 16 3e fb 82 ba bd 13 7e b6 bd 64 8e d2 bf
       0.14686592 -0.09107014 -0.089107655 -1.6449704
000240 4e da da 3f 13 bd 7a 40 cd aa 8a 40 b2 e8 4a be
       1.7097871 3.9177902 4.3333497 -0.19815329
000250 85 d7 05 be 95 8d 90 bd 8d bb ce 3d 3b 3c e4 3d
       -0.13070495 -0.07058255 0.10094366 0.111443006
000260 41 a5 22 3e ca 46 99 bc 7b 88 11 bd 17 a3 26 3d
       0.15883352 -0.018710513 -0.03553055 0.04068288
000270 c2 da bb 3d 80 71 60 3d 9c de b3 3d 45 8f 5c be
       0.09172584 0.054795742 0.08782694 -0.21539028
000280 00 3a 25 bf 64 49 e1 bd 67 57 1a bd 76 54 07 be
       -0.64541626 -0.11000326 -0.03768101 -0.13215813
000290 29 4f d7 3d 37 93 90 bd 36 bb 65 be 9b 96 c6 bd
       0.105131455 -0.07059329 -0.22434697 -0.096966945
0002a0 9d 80 3b 3c 60 e1 2e bc de 4d 9b bd b2 20 20 3e
       0.011444238 -0.010673851 -0.07583211 0.15637472
0002b0 93 a1 4f 3e 7d 93 c6 bb a0 57 33 3c 34 28 88 3b
       0.2027648 -0.0060600624 0.010946184 0.004155183
0002c0 8f 6a 06 bd 7a 85 d7 3d bd b2 98 bd a3 cc 60 3d
       -0.032816466 0.105235055 -0.074559666 0.054882657
0002d0 db 84 1d 40 87 76 fa c0 af a9 54 3f 64 9c 42 be
       2.4612339 -7.8269687 0.83071417 -0.19004971
0002e0 67 cc 86 3e 80 d9 a1 bd 94 11 2e bd 7e 97 94 bb
       0.26327822 -0.07902813 -0.042497233 -0.004534661
0002f0 89 b7 b4 be 76 d8 20 3c 85 25 04 3c 1a ed 03 3d
       -0.35296276 0.009817233 0.008065586 0.03220854
000300 cf ee b5 3d 2b ec 03 be 24 03 73 be c6 01 b1 3d
       0.0888344 -0.1288306 -0.23731667 0.086429164
000310 27 fd 03 bf 67 03 50 bf 9c 5d 82 bd 38 82 86 3d
       -0.51558155 -0.8125519 -0.06365511 0.06567806
000320 17 de 20 be 3d 8a 40 bc 3e ad 8a 3c d3 e5 a1 3e
       -0.1570972 -0.011751709 0.016928311 0.31620654
000330 88 da d8 3d 83 27 f5 bc 44 2e 8a bd b5 d0 30 3e
       0.105885565 -0.029926067 -0.06747106 0.17267115
000340 19 cb 6b be 67 c9 bd 3e 29 1f 4c 3c 38 ed aa 3d
       -0.23026694 0.3706772 0.012458601 0.08346027
000350 37 23 84 bd 28 68 42 be df 67 09 3e b5 b3 9d 3e
       -0.06452029 -0.18985045 0.1341853 0.30801168
000360 98 27 d4 3d 94 fa e9 bb d2 cc 2d bb 4e 88 81 3e
       0.103591144 -0.007140467 -0.0026519787 0.25299305
000370 ec 51 b2 3e 2f 48 47 bd 93 73 20 be ac aa 38 3d
       0.34828126 -0.048652824 -0.15669088 0.04508464
000380 43 d9 57 bf eb e1 5f be 4a 18 49 bd b7 54 95 3b
       -0.8431589 -0.21863525 -0.04909543 0.004557218
000390 eb 7a cb 3e 6c 5a 2b 3f d6 fa 01 3f 69 4c ab 3e
       0.39742216 0.6693485 0.5077337 0.33456734
0003a0 35 c2 df bd 17 40 aa 3c f3 98 5e 3c cb 6f 52 be
       -0.10925714 0.020782514 0.013586271 -0.20550458
0003b0 c3 a9 53 bd b0 0a 28 3e 55 70 13 39 2e c9 b3 3e
       -0.05167557 0.16410327 0.0001406086 0.35114425
0003c0 90 00 e0 bd d1 b9 ab be 4a b0 2b 3e a7 cd 6e bf
       -0.10937607 -0.33540204 0.16766468 -0.9328255
0003d0 84 40 0f bf 08 ab 24 3d 75 57 95 bd 03 62 9b 3d
       -0.5595782 0.04020217 -0.07292072 0.075870536
0003e0 1e d3 2b be a2 1d 23 3e cb bb 59 3d 53 46 dd 3d
       -0.16779754 0.15929273 0.05315761 0.10804429
0003f0 85 2b 29 3e 2b 96 e0 bd ba b4 26 3f 99 54 7f bd
       0.16520508 -0.10966142 0.65119517 -0.062336538

architecture.0.bias f4 [64]
000000 d0 d3 ae 3e 7a 69 4e 3f 84 33 eb 3e e5 fc 14 3f
       0.34145975 0.80629694 0.4593774 0.58198386
000010 1f f9 2e bf 65 b0 fc be 5f 9c 9f bc 63 e4 01 be
       -0.6834888 -0.49353328 -0.019483743 -0.12684779
000020 67 fc 29 bf fe aa c1 3e 95 d8 75 3e b8 9b 07 3f
       -0.6640076 0.3782577 0.240084 0.5297198
000030 01 70 0f bf 03 bd 1d 3e b8 f9 dd be 99 94 38 3f
       -0.5603028 0.15404133 -0.43354583 0.7210174
000040 8b 5f 37 be 75 2e d7 be 9b be b7 bf b8 d0 54 bf
       -0.1790754 -0.4202763 -1.4355043 -0.8313098
000050 73 ad 4d bf a2 2d fa bc fa 11 5e bd c2 2e 39 be
       -0.8034279 -0.030539338 -0.054216363 -0.18084243
000060 c1 5c 14 be dc a2 14 3f 3d 94 8a be 1b 88 85 3f
       -0.14488508 0.58061004 -0.27066222 1.0432161
000070 a8 54 ac bf 64 d7 f2 bd b3 16 15 3f d2 ac c2 bf
       -1.3463335 -0.11857489 0.5823776 -1.520899
000080 c9 f0 bb 3d 02 4a 8d 3e 69 6d 93 bf 34 5e b9 bf
       0.091767855 0.27595526 -1.1517764 -1.4481874
000090 ee 80 9b be c0 b8 4f 3f 58 c1 a5 3e 06 4b 47 bf
       -0.30371803 0.8114128 0.32374072 -0.7784885
0000a0 28 8e 5f bf 4c e2 00 3f 0a a9 a6 bf d5 96 66 3e
       -0.8732629 0.503453 -1.3020337 0.22518475
0000b0 ff bb 97 3d b0 44 38 3d 2a 80 5a bf 6d e5 03 be
       0.07408904 0.04498738 -0.8535181 -0.12880488
0000c0 0b 3a ee 3d 04 bf 0e 3f 41 08 f4 3e 51 4a a1 bf
       0.116321646 0.55760217 0.47662547 -1.2600805
0000d0 e8 20 eb be 22 fd c5 bf 9b 5a 17 3f 0c fe f8 3d
       -0.45923543 -1.5467875 0.5912263 0.121578306
0000e0 e6 f5 8e bf 83 94 84 be 3e 03 87 bc 48 b3 15 3f
       -1.1168792 -0.25894555 -0.016481038 0.58476686
0000f0 46 34 42 be f3 be 34 3d 24 02 76 3e f8 f9 9d be
       -0.18965253 0.044127416 0.24024254 -0.30854774

architecture.2.weight f4 [64, 64]
000000 94 27 71 3b 99 7c 9a bb 12 52 e0 3b 91 46 82 3c
       0.0036797272 -0.00471456 0.006845721 0.01590279
000010 53 73 16 bd 44 d1 bc 3c 05 c1 59 bd 55 fa b3 3c
       -0.036731075 0.023049004 -0.053162593 0.021969954
000020 37 d7 82 bd c5 2f bf ba 16 8c 87 bc e0 86 a4 bc
       -0.06388705 -0.001458638 -0.01654629 -0.020083845
000030 a5 4d 36 3d ce 62 d2 b9 bf d2 1b bd 50 7e c9 3d
       0.04450764 -0.00040127937 -0.03804278 0.09838545
000040 0e 13 82 bc 95 8d 24 3d fb f1 7b 3e 41 04 d6 bc
       -0.015878227 0.040174086 0.24604027 -0.026125075
000050 be 6f fc 3c 85 b7 c6 bc 8f bb 05 3e 7f cb d4 bb
       0.030815002 -0.02425743 0.13059829 -0.006493985
000060 57 ae d4 3c c5 5f 93 be 08 eb 84 bc 40 d1 88 3d
       0.025962038 -0.28784004 -0.016225353 0.06680536
000070 f0 95 fe be 34 22 09 3d ae 06 bb 3c 02 e9 23 3e
       -0.49723768 0.033479884 0.022830334 0.16006854
000080 36 75 be 3d 6f 26 93 bc f9 78 ac 3d f8 79 87 3d
       0.092997 -0.017962663 0.08421511 0.066150606
000090 7a 11 f7 3b 6d de 54 bd 83 c3 a9 3c ec a6 4f 3d
       0.007539925 -0.051969934 0.02072311 0.0506963
0000a0 52 cc 6a 3d 97 79 f3 3b 27 9b d2 bd 39 9f 09 3f
       0.05732376 0.007430266 -0.10283499 0.5375858
0000b0 7b 0e d1 bc 6b 8f d3 be af 9e 0f bc 88 44 fb 3c
       -0.0255196 -0.41320357 -0.00876586 0.030672327
0000c0 39 07 0d bd 1e d1 71 bc 63 c5 73 bd bc de b5 3c
       -0.034430716 -0.01475933 -0.059514415 0.022200935
0000d0 a2 3a 02 3f a9 67 9f 3d f1 c1 d7 ba 83 38 a1 bb
       0.50870717 0.077834435 -0.0016460997 -0.004920067
0000e0 ca 5b 94 3b 7c 43 51 bd 9e c5 80 be 69 31 1d 3e
       0.0045275437 -0.05108975 -0.2515077 0.1535088
0000f0 b2 82 85 3c ec c2 43 3c 15 ad 7b bc 84 3b 06 bc
       0.016297672 0.011948328 -0.01536109 -0.008192901
000100 57 7e 83 be 08 74 83 bf db be cb 3e 00 13 e5 be
       -0.25682327 -1.0269785 0.3979405 -0.44741058
000110 a6 3e 78 be f5 86 68 3f 8c 8f d0 3d 59 50 10 be
       -0.24242648 0.9083093 0.101836294 -0.1409315
000120 6d b4 16 bf fd e3 5a 3f 1f 8e 26 bf 65 5e 28 bf
       -0.5886906 0.8550413 -0.6506061 -0.65769035
000130 ba a1 3b 3e e2 4a 16 bf 6f 48 86 3e b0 1e c8 3e
       0.18323413 -0.5870801 0.26227137 0.39085913
000140 14 4f eb be 26 a9 2a be 7d c4 0f 3f ec 50 d8 be
       -0.4595877 -0.16666088 0.5615919 -0.42249238
000150 cc 8a 2a 3e ac e2 1d 3f 57 a9 a4 3e 07 49 9b bd
       0.1665451 0.61674 0.32160446 -0.07582288
000160 fc 86 7e be 95 32 f0 be 4e 56 ca 3d b3 73 f6 be
       -0.2485618 -0.4691359 0.098797426 -0.48135146
000170 8c 80 81 3d 69 d6 7c be a1 e4 45 bf cb a7 90 3e
       0.063233465 -0.24691166 -0.77301985 0.28253016
000180 13 72 38 be 95 73 de 3d 84 69 f1 3e b1 2b 45 3e
       -0.18012266 0.10861889 0.47150815 0.19254948
000190 1a 68 0a bf f7 30 f1 3e 29 9d 2e bf 95 db 9c 3f
       -0.54065096 0.4710767 -0.6820856 1.2254511
0001a0 d4 f8 70 3b 74 b5 cf bd aa 1d 64 3d 9c 2b d3 bd
       0.0036769407 -0.10142031 0.055692352 -0.10311052
0001b0 56 e1 28 bf 4c 8b 19 bf ae 68 e4 3e 52 3f 06 3e
       -0.65968835 -0.59978175 0.44611114 0.13110092
0001c0 ee fd 85 3e 55 39 fd bd 35 6b a1 3e bc 08 d7 3e
       0.26170295 -0.12364451 0.31527105 0.4199885
0001d0 bc 13 bc 3e f3 40 69 bd a7 6a b5 be b4 d4 dc 3c
       0.36733806 -0.056946706 -0.35432932 0.026956894
0001e0 af 3b 30 3d ac 22 04 be 4e 48 18 3e 27 93 fe be
       0.04302567 -0.12903851 0.14871332 -0.49721643
0001f0 a0 2a 4f bf 38 25 47 bf e8 bf 9e 3d cb 03 93 bd
       -0.80924416 -0.77791166 0.07751447 -0.07178458
000200 cb cb e3 be 1f d9 b8 3e a7 6d 1a 3e 40 fc 89 3e
       -0.4449142 0.3610315 0.15080892 0.26950264
000210 50 6b 88 3f a0 87 8a be b9 a8 4d 3d a8 a6 c0 3e
       1.0657749 -0.270566 0.050209735 0.3762715
000220 df b1 25 3f 45 2f aa 3e 2c 93 db 3e 8a 3d ff 3e
       0.64724535 0.3323919 0.4288572 0.49851638
000230 af 64 ee 3d 7e 89 61 3f 43 c7 b1 be f4 a6 6f 3e
       0.116402976 0.8810042 -0.34722337 0.23403531
000240 92 46 0e 3f f4 4d 92 3b 34 b0 70 be 7a 2f 87 3d
       0.5557643 0.004464859 -0.23504716 0.06600852
000250 f1 2a 0a 3f 77 15 8b 3f e0 bf 0d 3f 94 d5 16 3f
       0.53971773 1.0865926 0.55370903 0.58919644
000260 b1 2f 0a be 11 d9 33 3f fb 2b 27 bf c8 03 41 3e
       -0.13494755 0.7025309 -0.65301484 0.18849099
000270 b0 39 69 be be 12 8f 3e 9a 39 83 3c f3 ce e8 3e
       -0.22775912 0.27943987 0.016018678 0.4547039
000280 83 cd 76 3f 2e 5a 8c be af 93 70 bd 75 b9 e6 be
       0.96407336 -0.27412552 -0.058734592 -0.45063367
000290 d5 23 7f 3e 8c 08 1e be 29 8f 95 3e 63 da 95 be
       0.24916013 -0.15432948 0.29210785 -0.29268178
0002a0 19 ea 1c bf e0 bc 74 3e 7e aa 86 3e 1d 1d 2a bd
       -0.61294705 0.23900175 0.2630195 -0.04153167
0002b0 d7 9d 8e 3e dc 14 a2 bc 4a 79 53 3e 9c 60 f4 3e
       0.27854797 -0.019785337 0.20651737 0.47729957
0002c0 f4 00 9d 3d 48 12 71 bf 4f b5 67 3e 66 c7 98 3e
       0.076661974 -0.9416852 0.22627757 0.2983963
0002d0 c1 a3 af bd 38 a8 8b bd ef 00 09 be ea 89 b5 3e
       -0.085761555 -0.068191946 -0.13379262 0.35456783
0002e0 08 f7 6d be 61 3f 6c be 84 05 91 3d 0d 61 2a bf
       -0.23238766 -0.23071052 0.0708113 -0.6655434
0002f0 1b fd 3e 3e 46 62 df 3e 7c 29 86 bf 71 f4 27 3f
       0.1865124 0.43629664 -1.048141 0.65607363
000300 35 12 eb bd a8 15 7f bf 7a 17 f4 be d8 92 1d bf
       -0.11478082 -0.9964242 -0.4767416 -0.6155219
000310 79 70 1a 3f 36 69 22 be 52 88 2f 3d e4 b8 03 be
       0.6032787 -0.15860447 0.042854615 -0.12863499
000320 a5 e6 17 3e 7c ee b8 3e a1 eb 3a be c4 d1 21 be
       0.14834078 0.3611945 -0.18253948 -0.15802675
000330 e8 c3 ab bd 0a b3 0e 3f 31 c6 4d bf a1 ce 13 3e
       -0.083869755 0.5574194 -0.8038054 0.14434291
000340 63 25 05 3e 8b 81 c8 3f 05 e8 85 3e e2 a3 8e bd
       0.13002543 1.5664533 0.2615358 -0.06964852
000350 b0 3d 06 be 57 f7 41 be 91 61 6b 3f 59 07 8f 3f
       -0.1310947 -0.18942009 0.9194575 1.1174117
000360 08 88 14 3e 11 d4 d2 3d 50 b2 b9 bd fd 8c 48 bd
       0.14505017 0.10294355 -0.090672135 -0.048962582
000370 a9 d6 8b 3e d2 1d 57 be ac c1 e0 3d 82 cf 23 3e
       0.2731221 -0.2100747 0.1097444 0.15997127
000380 cd fb 94 3e 6b c4 f7 3d b5 0a 7a bd 8f 7f 6b be
       0.2909836 0.12098011 -0.061045367 -0.22997878
000390 c2 87 9c be 28 47 b1 be ab c9 0b bf e6 22 58 bf
       -0.30572325 -0.346246 -0.54604596 -0.8442825
0003a0 87 7c d7 3e 3b 3f ab 3e 3a 58 bc bd aa f3 01 3d
       0.42087194 0.3344668 -0.091965154 0.031726517
0003b0 70 fb d5 be c2 bc 2c bd 0a 2b 44 3f 97 85 66 3f
       -0.41793394 -0.0421722 0.7662817 0.9004759
0003c0 6b fd 8d be 23 38 60 be f2 85 8b be fb 54 12 be
       -0.27732405 -0.21896414 -0.2725063 -0.1429023
0003d0 fa 36 cd be 46 8c 0c be 8d ad c0 bd df ba 9d 3e
       -0.40081006 -0.13725385 -0.09408102 0.30806634
0003e0 63 98 0f bf cb 5a 9c bd 89 95 e7 3d 60 b6 f8 3e
       -0.560919 -0.07634505 0.113078184 0.4857664
0003f0 f4 80 95 be ac c8 38 3d b8 85 0a bf 5c af a2 3e
       -0.29199946 0.04511325 -0.5411029 0.31774414

architecture.2.bias f4 [64]
000000 3b f9 a5 3d 4e fd 87 bf f8 12 e5 bd d2 41 14 3e
       0.081041776 -1.0624177 -0.111852586 0.14478233
000010 65 cc 01 bf d8 ef 46 3f ef fb 8b 3e a0 f7 49 3e
       -0.50702506 0.7770972 0.27340648 0.19723368
000020 89 19 75 3e 92 8d d4 3e 40 78 4d 3f 1a b8 c4 bf
       0.23935522 0.4151426 0.8026161 -1.5368683
000030 0d c8 a9 3e f6 25 20 3f d8 76 3a be 30 9f 76 3f
       0.3316044 0.62557924 -0.18209398 0.9633665
000040 50 dc 8d 3e 59 88 8d be 27 32 80 37 a6 84 21 bd
       0.27707148 -0.27643088 1.5282143e-05 -0.039433144
000050 21 d3 d0 3e a7 de 05 3f 36 53 c6 bc e8 97 2b 3f
       0.4078608 0.52292866 -0.0242096 0.67028666
000060 c0 ec 36 bf 05 de 1a 3f 82 a7 0d 3e ff 40 00 40
       -0.71455 0.60495025 0.1383343 2.003967
000070 90 1d 8f 3e 52 8f bc be e6 e1 2a 3f 93 ea 1b bf
       0.27952242 -0.36828095 0.66750944 -0.60904807
000080 c5 4c c4 bd 9b 3c cb be af 98 52 bd 57 a6 14 3e
       -0.09584955 -0.39694676 -0.05141514 0.14516579
000090 7e 8b 83 3e 36 dc c6 3e 10 92 a4 be 3f 04 c9 bd
       0.25692362 0.38839883 -0.32142687 -0.09815263
0000a0 55 7f ad be 7c cc cb be 21 a9 2d bf 55 6c 6b bf
       -0.3388621 -0.39804447 -0.67836195 -0.91962177
0000b0 41 54 80 bf 4b c6 4b 3f 58 b3 e2 be b0 c0 c9 3d
       -1.0025712 0.79599446 -0.44277453 0.09851205
0000c0 a7 28 87 bf d6 63 25 be 94 47 7c bf c8 c0 85 be
       -1.0559281 -0.16151366 -0.9854672 -0.26123643
0000d0 8b 64 8a be 75 d5 0a bf 02 e0 b0 be 19 d2 04 bf
       -0.27029833 -0.5423196 -0.34545904 -0.51883084
0000e0 d5 23 b1 3d 06 a2 4c be 8c 1b 2b bf 6a 5f 59 bf
       0.086494125 -0.19983682 -0.6683891 -0.84911215
0000f0 db d8 17 bf 8e 06 0c 3f c9 16 1a bf db cf 14 3f
       -0.5931527 0.546975 -0.6019102 0.5812966

architecture.4.weight f4 [12, 64]
000000 d7 ec e0 bc 8c 22 75 3b dd 71 db b9 e6 74 17 bb
       -0.027456684 0.0037404625 -0.0004185577 -0.0023110448
000010 25 58 c7 bb ea f5 86 b9 19 97 3a bb aa b2 32 3a
       -0.0060835057 -0.00025741692 -0.002847141 0.0006816784
000020 e4 6e 6f 3b 83 ea 0d 3b 95 60 b8 3b ce 58 8f bc
       0.0036534602 0.0021654672 0.005626748 -0.0174984
000030 19 5e 9f 3a eb a9 f6 bb ec d9 e2 39 11 48 d4 3b
       0.0012158781 -0.00752758 0.00043268444 0.0064783175
000040 91 64 2e bb 54 f1 1e bb 88 e5 90 3b 28 1f 97 bb
       -0.0026610235 -0.002425273 0.0044218935 -0.0046118684
000050 ef f0 4d bb ad 13 2d ba be f4 87 3b 73 69 d4 bc
       -0.0031424125 -0.0006602358 0.0041490486 -0.025929188
000060 64 69 e1 3b 9f 5f 02 bc 30 6c 59 bb a0 a1 5c ba
       0.0068790186 -0.007957368 -0.0033176057 -0.0008416418
000070 12 70 f3 bb 04 f4 c1 ba d0 ed 00 bd 97 af f4 ba
       -0.0074291313 -0.0014797454 -0.031476796 -0.0018668053
000080 bc 5f 1e ba 38 a7 78 3b 31 53 58 be a0 d5 f0 bb
       -0.0006041487 0.0037941467 -0.21125485 -0.007349685
000090 83 d6 30 3b fc 13 bc 3b f2 82 8a 3b 6e d5 89 3d
       0.0026983328 0.005739687 0.0042270357 0.067301616
0000a0 34 fa 9b bb 56 8d ad bb 7c 89 05 bb 40 fe 2d 3a
       -0.004760051 -0.0052963896 -0.0020376137 0.00066373125
0000b0 c2 76 9b bb 62 56 2f bc f8 25 0e 3c 4a ac 48 bb
       -0.0047443816 -0.010701748 0.008676045 -0.003062027
0000c0 7a 92 74 3b 05 14 bc 39 33 92 e7 bb ae 62 18 3b
       0.0037318752 0.0003587307 -0.007066989 0.0023252177
0000d0 23 c8 8b 3b 29 1d 47 ba 71 86 ac ba 7a df 2e bb
       0.0042658015 -0.0007595593 -0.0013162625 -0.0026683495
0000e0 2f 0d f0 ba f7 30 18 3e 68 4a 0b 3c 83 41 c8 3a
       -0.0018314476 0.14862429 0.008501627 0.0015278313
0000f0 9a 53 3c bc 5d 30 96 3c 06 13 cb ba ef 3a 12 bc
       -0.011494542 0.018333608 -0.001549334 -0.008925184
000100 94 38 16 be d3 c5 ad bb 84 40 43 ba 07 20 ef ba
       -0.1467002 -0.0053031235 -0.0007448273 -0.0018243798
000110 22 28 0d bc 96 65 8f 3b 20 44 ae 3b ce 90 fc b9
       -0.008615525 0.0043761237 0.0053181797 -0.00048173073
000120 cf 85 fb ba 38 f0 cf ba e2 fe 8e bd b8 9a cc 3c
       -0.0019189658 -0.0015864437 -0.06982209 0.02497612
000130 c9 80 30 3b f1 0f ba 38 2b 33 f0 3a 37 f9 39 3b
       0.002693223 8.8721405e-05 0.0018325796 0.0028377303
000140 58 91 80 3b 5d 14 f3 3a 63 3a e9 bb 86 4b 19 3b
       0.0039235763 0.0018545497 -0.007117556 0.0023390963
000150 c7 87 bd 3d 15 5e ba 3a 25 52 8b 3b 59 0e cf 3b
       0.09254413 0.0014218712 0.0042517358 0.006318849
000160 bd 77 7e 3c fa 0b 71 bb 22 26 40 bb fa a9 c2 3c
       0.0155314775 -0.003678082 -0.0029319604 0.023762692
000170 35 71 9a 3b 67 e5 9e bb 23 c9 6f 3c 79 8a 71 ba
       0.0047132024 -0.0048491242 0.014635357 -0.00092140544
000180 1e a3 6f 3b 78 41 a5 ba 79 2f f2 38 a8 3c 67 bb
       0.0036565731 -0.0012608012 0.00011548302 -0.0035283957
000190 8b b8 f2 3a 1c b6 48 3b 71 72 61 bb 91 01 17 be
       0.0018518133 0.0030626124 -0.0034400488 -0.14746691
0001a0 ea 75 17 bb 89 55 69 37 76 e8 1b b9 99 b8 95 3a
       -0.0023111054 1.3907797e-05 -0.0001486855 0.0011422812
0001b0 f3 e8 26 bb 89 c3 a6 ba ec 16 a5 bb b2 d9 6c 3b
       -0.0025468438 -0.0012723069 -0.005038133 0.0036140499
0001c0 fd 0c 68 bc 55 c1 47 3b ff 4c 36 bc c2 38 96 bb
       -0.014163253 0.0030480225 -0.011126756 -0.004584403
0001d0 c3 ab 88 b9 c5 0a 92 bb 1f bf 8b 3b 16 ba 17 ba
       -0.00026067914 -0.0044568502 0.004264727 -0.0005787922
0001e0 72 c4 6a 3a 1b cf 8d 3d 52 52 f1 3b c2 64 1a bc
       0.0008955664 0.06924268 0.0073645497 -0.009423437
0001f0 ad 24 92 3b d7 6c 9d bc a6 20 77 3b c1 89 dc bb
       0.0044599385 -0.019216938 0.003770867 -0.0067302887
000200 09 9e 53 3e c4 a8 d1 3b f4 0d 98 ba db 63 6f 3b
       0.20665754 0.0063982923 -0.0011600838 0.0036528024
000210 46 de 09 bb 31 38 01 bb 28 4f 81 3b 54 be 1e 3b
       -0.0021037026 -0.001971733 0.0039462037 0.002422233
000220 6a 0a a1 3b a6 4a 55 b9 d8 51 87 3d 2e 4e 58 bc
       0.0049145715 -0.00020341072 0.06607407 -0.013202233
000230 15 df 5a bc 4f 13 e4 bb 82 53 08 bc d6 02 ac ba
       -0.013358851 -0.0069603096 -0.008320691 -0.0013123404
000240 ae 86 a4 3b 16 7e 33 bc 2b 8a e7 ba f3 1d ef bb
       0.005020938 -0.010955354 -0.0017665079 -0.0072972714
000250 df 41 2e 3c 00 7b 2f 3a 23 48 3b 3b 56 64 81 3a
       0.010635822 0.00066940486 0.0028576932 0.0009871821
000260 5d 6e 8f bb 1d 45 29 bb 38 e1 4e ba 84 4c 62 3c
       -0.00437717 -0.0025828548 -0.00078918366 0.013812188
000270 13 94 0b 3b 47 bc 9e bb 34 66 7c 3d 58 fc 9c ba
       0.0021297976 -0.0048442218 0.061620906 -0.001197706
000280 b8 a1 94 ba 38 1b 97 bb ad 19 ff bb 86 17 da ba
       -0.00113397 -0.004611399 -0.007785043 -0.0016639091
000290 b7 1f 9b 3a 9a 59 04 bc cb 7f 1a bb 6e 23 f5 bd
       0.0011835013 -0.008078003 -0.0023574706 -0.11969648
0002a0 70 a1 48 bb c1 e6 7e 3b 1d fd c2 3b 49 de 64 bc
       -0.0030613802 0.0038894864 0.0059505836 -0.013969013
0002b0 c7 0a 09 3b c7 58 5c bb c4 9b 71 bb 78 ba 89 3b
       0.0020910965 -0.0033622251 -0.0036866525 0.004203137
0002c0 1b e2 c7 bc f7 c6 0a bb 81 ee 06 3c 71 9f 9e ba
       -0.024399808 -0.0021175721 0.008235575 -0.0012101961
0002d0 7a 08 94 bb 07 0c 58 3b 89 bd 9f bb 3b 7c 21 bb
       -0.004517612 0.0032966153 -0.0048748893 -0.0024640698
0002e0 f3 76 94 3a 32 7f 9d 3d cb 32 9e bb ce 77 f5 bb
       0.0011326954 0.07690276 -0.0048278323 -0.0074910885
0002f0 6f 19 3f 3c b8 39 09 3d d0 05 87 3b 58 8c 82 3b
       0.011663779 0.03350231 0.004120566 0.0039840154
000300 ec 5f b5 3c 59 af 93 be 4e 09 5d be 99 f8 1c be
       0.022140466 -0.28844717 -0.2158558 -0.15329207
000310 f1 c1 36 bd ff 76 32 3e a8 11 8e 3e 07 f5 b4 3e
       -0.04461855 0.17428206 0.27747846 0.3534319
000320 77 3a 04 be 14 a0 a0 3e 72 0b a1 3d fa 7b 1b bf
       -0.12912928 0.3137213 0.07863511 -0.6073605
000330 5b 9c b9 bd 2a 95 3d 3c 6d 94 31 3e 7c b6 90 3e
       -0.090630256 0.011571208 0.17341776 0.28264225
000340 26 aa 45 3e 64 54 1c be 13 9e 96 bd 11 2f a3 be
       0.19303188 -0.15266567 -0.07354369 -0.31871846
000350 b5 86 73 3d 2e f6 9d 3e 2a 68 ca 3d e3 54 02 3e
       0.05945464 0.30851883 0.09883149 0.12727694
000360 6e 59 c5 be cb d0 1b 3d fe 74 04 be 1e 13 08 3f
       -0.38544792 0.038040917 -0.12935254 0.5315417
000370 04 03 34 3e 5d 18 e4 bd 29 61 1f 3e 27 12 ef be
       0.17579275 -0.111374594 0.15564407 -0.46693537
000380 5e 24 03 3e 27 5b 1d bd 1b ad 7b bc c1 9e de 3e
       0.12806842 -0.038417008 -0.015361096 0.43480495
000390 95 2a 6d 3e 8c cb ba 3c 77 c4 7d 3c 23 38 e0 3d
       0.23160775 0.022802137 0.015488735 0.10948207
0003a0 90 d6 68 bc 8d 1d 5c 3b 6a 17 84 be 3e 30 87 be
       -0.014211312 0.003358695 -0.25799114 -0.26403993
0003b0 79 78 07 be bc 7f e1 3d bc 0b 4b bc 51 e9 95 bd
       -0.1322955 0.110106915 -0.012392934 -0.07319892
0003c0 6c 64 0d bf 37 dd ae be 82 0d a5 be 82 c3 cb bd
       -0.55231357 -0.3415315 -0.32236868 -0.099493995
0003d0 44 1e 3d be 5e 04 a8 bd 3a 3f 95 bd 50 86 84 3c
       -0.18468577 -0.08203958 -0.0728745 0.016177326
0003e0 be 5c 84 be bd 7f 75 3d 20 40 77 be fb 2c 14 be
       -0.25852007 0.059936274 -0.24145555 -0.14470284
0003f0 54 2e 8f bd 64 71 04 3e 3e 30 26 be 87 01 c5 3d
       -0.06991258 0.1293388 -0.1622934 0.09619432

architecture.4.bias f4 [12]
000000 e3 96 3f 3c e4 5e 0a bc 43 8b 4b 3d 8d 1c 9b 3f
       0.011693689 -0.008445475 0.049693357 1.2118088
000010 9c 56 2f 3c b0 a1 58 3b ca 0b 6a be f4 18 70 3f
       0.010701802 0.0033055358 -0.2285606 0.93788075
000020 6d 97 9b bd 53 67 50 bd 55 95 d3 3d 06 14 5d be
       -0.075972416 -0.050879788 0.10331217 -0.2158967

std f4 [12]
000000 cd cc 4c 3e cd cc 4c 3e cd cc 4c 3e cd cc 4c 3e
       0.2 0.2 0.2 0.2
000010 cd cc 4c 3e cd cc 4c 3e a4 01 52 3e 28 07 51 3e
       0.2 0.2 0.20508438 0.20412886
000020 cd cc 4c 3e cd cc 4c 3e cd cc 4c 3e cd cc 4c 3e
       0.2 0.2 0.2 0.2

architecture.0.weight f4 [64, 36]
000000 de fd 9e be 7b 14 3f 3e 61 e2 ae 3e c9 64 a3 bc
       -0.3105306 0.18660156 0.34157088 -0.019945519
000010 2a 76 cf 3b c2 97 c1 3d 2e b1 c5 be bb e9 b8 be
       0.006331225 0.09452774 -0.3861174 -0.36115822
000020 25 bc b3 3c f8 ec 25 bf 64 9b 33 bf 1a cb 03 bd
       0.0219403 -0.6481471 -0.7015898 -0.032176115
000030 a8 f9 ca 3e cd 61 23 3f 2f 5c 49 3f 97 1f 22 3b
       0.39643598 0.6382111 0.78656286 0.0024738067
000040 da 2d 46 3c c8 e6 3f 3e 57 e9 23 bc 3a 24 ff 3c
       0.012095893 0.1874038 -0.010004363 0.031145204
000050 43 c0 8b 3c ac ad c4 3e 3b a4 ab 3e c2 7f cf bc
       0.017059451 0.3841375 0.33523735 -0.025329474
000060 7d 15 23 3f 22 52 32 3f 22 74 d4 3d 51 7c d4 be
       0.63704664 0.69656575 0.10373713 -0.41501096
000070 a6 e0 1b bf 16 3c 72 bf 3a 9c 12 3d 41 06 b6 3c
       -0.6088966 -0.94622934 0.03579352 0.022219779
000080 99 9c 93 3c 09 83 5b bc 8b a2 08 3c 90 51 03 3b
       0.018019008 -0.01339794 0.0083395345 0.0020037629
000090 d2 e1 46 3c 2d 94 9b 3c 6b 0b 8d bc 92 82 cd bc
       0.012138801 0.018991554 -0.017217359 -0.025086675
0000a0 8b c9 f0 3c 47 74 9c bd 55 fd 10 be 05 51 43 be
       0.029392978 -0.07639366 -0.14159139 -0.19073875
0000b0 51 a0 b5 bd 3d 74 e5 bd 44 67 09 3e 2a 70 84 3e
       -0.088684686 -0.11203811 0.13418299 0.25866824
0000c0 22 70 b1 3d 9f 6e 2f bd ff fb f2 bd 36 67 04 bc
       0.08663966 -0.042830106 -0.11864471 -0.008081248
0000d0 4e a2 3f 3c 7d c6 a2 3d 58 3f 2c 3a d2 d7 5f 3b
       0.011696411 0.07948015 0.0006570718 0.0034155739
0000e0 3e c0 f0 bc 8a 66 5d bd 88 57 56 bd 3c 9e ab 3d
       -0.029388543 -0.054052867 -0.05232957 0.0837979
0000f0 c7 8c 9d bd be fa 11 be 54 44 5e 3d 85 66 bb 3d
       -0.07692867 -0.14255807 0.05426438 0.091504134
000100 a8 f3 05 3e 21 e0 c3 bd 62 73 07 3d 34 23 34 3c
       0.13081229 -0.095642336 0.033069022 0.010994721
000110 61 43 88 bc ec 4a 4c bc 89 05 86 bb b5 8f dc b9
       -0.016633691 -0.012469035 -0.0040900153 -0.0004206874
000120 89 29 13 3d d6 79 5e be 4d 3c 01 bd 6d 73 16 3d
       0.035928283 -0.21726164 -0.031551648 0.036731172
000130 b2 d7 2f be 0c e2 94 bc 93 be d1 bd 1a 1a 91 3e
       -0.17172125 -0.018174194 -0.10241427 0.28340226
000140 10 62 45 3d 4a 6e fc 3e 5a 2c b5 be 67 74 43 be
       0.048189223 0.49302894 -0.353854 -0.19087373
000150 0f 17 c3 be d0 10 06 bd 7c 02 80 3d ce ba 6b 3d
       -0.3810353 -0.032730877 0.06250474 0.057551198
000160 d2 c3 d1 bc 92 64 76 3d 7d 8e cb ba 21 a4 a6 3b
       -0.02560607 0.060154505 -0.0015530136 0.0050854837
000170 7c 02 21 3a ee 14 94 3c 57 64 98 be 8e 78 27 3c
       0.0006142033 0.018076386 -0.29764053 0.010221614
000180 4c ec ed be fc d6 b6 3e e9 c0 5b 3e 3c b5 9f 3e
       -0.46469343 0.35710895 0.21460308 0.31192958
000190 14 66 7b 3e a0 e1 04 be 22 ca 36 3d 01 0b db 3c
       0.24550658 -0.12976694 0.044626363 0.026738646
0001a0 88 b1 57 bc 3c d1 7b 3b c1 2b 52 3b c7 c8 c3 bb
       -0.013164885 0.0038424274 0.0032069536 -0.0059748623
0001b0 5d 7d a3 3c 74 ce bb 3c 31 60 2e 3c 6c 0a 91 bd
       0.019957239 0.022925593 0.010643051 -0.07082066
0001c0 96 83 ee 3d f5 5f d6 3c ad 2c c1 bd 56 da d1 bc
       0.11646192 0.026168803 -0.09432349 -0.025616806
0001d0 b1 42 48 bd e7 94 d5 3d 6a aa ec 3d d5 54 5e be
       -0.048891727 0.104287915 0.115559414 -0.21712048
0001e0 7c bd f4 bc 0b aa be bd 34 9f 70 bd 57 9f 3f bd
       -0.02987551 -0.09309777 -0.058745578 -0.046782818
0001f0 20 f9 43 be d8 c3 44 3d c4 95 0c bd f4 31 b9 3c
       -0.19138002 0.048038334 -0.034322515 0.022606827
000200 fd 03 36 bc dd 38 27 3e 87 98 08 3d ca 59 1b b9
       -0.011109349 0.16330285 0.033348586 -0.00014815401
000210 96 14 6c 3d 13 ab 93 3e 17 66 4a bd 5b 23 c5 3d
       0.05763682 0.28841457 -0.049413767 0.09625884
000220 e6 cb ef bd f6 54 e5 3d 27 2b c6 bb 06 51 50 3c
       -0.117088124 0.11197846 -0.0060476246 0.01271463
000230 0a 47 bc 3a 7e fe 1b 3c c5 2c 0c bb 91 0b e6 3b
       0.0014364433 0.009521125 -0.002138899 0.007020422
000240 bb 77 0d 3c 92 19 f3 bc 11 68 41 bd 48 16 17 3e
       0.008634503 -0.029675279 -0.047218386 0.14754593
000250 98 7b cf bd 03 c3 50 bd 50 81 ff bd 75 b3 c2 3a
       -0.101309955 -0.050967228 -0.12475836 0.0014854508
000260 8b 74 76 bd d2 a0 c0 bd cf 30 47 3e eb 0d 12 3e
       -0.060169738 -0.09405674 0.19452213 0.14263122
000270 10 1b 65 be c1 7f c5 be 09 4c 2b be 32 a5 06 3c
       -0.22373605 -0.3857403 -0.16728224 0.008218097
000280 9f 15 c2 3c 32 02 ce bc 40 a0 8a bd ba c9 2b 3e
       0.02369195 -0.025147531 -0.067688465 0.16776171
000290 2b 26 ff 3d 55 62 4d 3d 4b 2b 35 3d 5f 96 b1 3e
       0.12458452 0.050142605 0.04423074 0.34685037
0002a0 5c c7 fd 3c 36 55 b0 bd 21 07 3e 3e db 49 ae 3e
       0.030978851 -0.08610003 0.18557407 0.34040722
0002b0 04 66 87 bc 23 78 8e be 2c 95 3b bb 29 bb 7a bb
       -0.016528137 -0.27826032 -0.002862285 -0.0038258529
0002c0 e9 00 c4 bb 64 78 3e bd 52 09 f7 3c ca 95 11 3b
       -0.005981554 -0.046501532 0.030155811 0.0022214525
0002d0 2c 83 fb 3c 67 f5 85 bb 62 13 96 ba c0 50 2b 3e
       0.030702196 -0.004088092 -0.0011449868 0.16730022
0002e0 67 60 9f 3d 2b f4 d0 bd 63 03 8f 3d 9d 03 93 bd
       0.07782059 -0.10202821 0.06983068 -0.071784236
0002f0 f2 23 95 3d 9d 0e bf 3d c4 a2 3a 3d 45 7b d8 bd
       0.07282247 0.09328959 0.04556538 -0.10570387
000300 3c 10 e5 3d 48 b4 9a 3d a4 d5 b7 3d 99 0f 1e 3e
       0.11184737 0.07553917 0.089762956 0.15435638
000310 b7 3b 2e 3e 50 4e 19 3e 1c 00 ba 3c c2 b3 b7 bb
       0.17014967 0.1497128 0.02270513 -0.0056061456
000320 85 bd f5 3c dc cf 40 3d d0 ac c6 3d b8 4b c0 bd
       0.029997597 0.04707323 0.0970093 -0.09389442
000330 11 ec 9c 3d 6b 15 09 3e f2 10 9f 3d 1f 05 97 3c
       0.076622136 0.13387077 0.07766904 0.01843506
000340 fc 0e 1c bc aa 92 44 bd 72 bf 37 3c 9f 56 18 3c
       -0.009525057 -0.047991432 0.011215078 0.009297996
000350 86 c7 9a 3c 67 8e 1d bc ca 93 16 3c 29 90 54 bc
       0.018893968 -0.009616471 0.009190509 -0.012973824
000360 e2 34 c7 3d fb 06 03 3e 85 eb a3 bd e1 1a 7b 3d
       0.097268835 0.12795632 -0.08003906 0.06130493
000370 9e c9 59 3e b9 54 a4 bd 43 f4 95 3f ff 22 a5 be
       0.21268317 -0.08023972 1.1715168 -0.32253262
000380 aa e1 dd 3d 3e 93 6f be 40 11 4a 3e b7 f3 1b 3f
       0.10834058 -0.23396012 0.19733143 0.60918754
000390 26 63 da be 4b f2 e4 bd 21 64 a7 3e b2 66 4d 3c
       -0.4265377 -0.11179026 0.3269358 0.0125366915
0003a0 22 7c 88 3c 8e 5b 2a bc b8 a7 18 3c 9b 89 6d 3b
       0.016660754 -0.010397805 0.009317331 0.003624535
0003b0 7f b6 3c 3b ab f3 8b bf a8 ee 90 3e 0a ef dc bd
       0.00287953 -1.0933737 0.2830708 -0.107877806
0003c0 40 6d 6e 3e 6c 22 9c be d2 81 0b bf 70 59 aa 3e
       0.23283863 -0.30495012 -0.54494965 0.3327136
0003d0 3f b5 82 bd d6 21 74 be f3 34 a9 ba c8 ab 87 3c
       -0.06382226 -0.23841032 -0.0012909457 0.016561404
0003e0 65 19 2e 3b 2d 5c 8d b9 27 91 06 3b 45 66 f2 3a
       0.002656543 -0.00026962292 0.0020533295 0.0018493613
0003f0 9f ec b5 be b5 f4 83 bd 00 0a eb bd cb 1d 07 3d
       -0.3553209 -0.064431585 -0.11476517 0.032987397

architecture.0.bias f4 [64]
000000 e0 bd 3f 3e 41 81 08 40 66 e6 c2 3f 2e a7 71 bf
       0.18724775 2.132889 1.5226562 -0.9439572
000010 35 02 58 3f 1a 8d d0 3f 22 63 af 3f e2 4f 4b bf
       0.8437837 1.6293061 1.3702128 -0.79418766
000020 67 d0 9a 3d d7 60 a9 bf 46 10 6f be 8d 89 27 bf
       0.07559281 -1.3232678 -0.23346052 -0.6544426
000030 a2 fe 9d 3f 98 a8 e4 3e 25 ff 95 bd c8 fd b1 3f
       1.2343333 0.44659877 -0.073240556 1.3905573
000040 56 46 1b 3f 5e c7 67 3f 73 90 9b bf e6 03 0a c0
       0.606542 0.90538585 -1.2153457 -2.156488
000050 62 dc 93 bf 5c 91 80 3f bb 5f c2 bf 20 06 4e bf
       -1.155163 1.004436 -1.5185465 -0.80478096
000060 87 21 b6 bf b9 c0 71 3c 54 43 c3 bf f7 29 98 bf
       -1.4228982 0.014755421 -1.5254922 -1.1887807
000070 d8 6d 37 3f d8 a8 8c 3f 97 aa a0 bf 4b 85 b7 3f
       0.71651983 1.0989027 -1.255206 1.4337553
000080 77 c3 88 bf 34 e7 a9 3f 01 26 c9 3e 29 74 ba bf
       -1.0684651 1.3273683 0.39286807 -1.4566699
000090 db b1 74 3f aa 77 73 3f 26 5b 16 bf b7 b1 b5 bf
       0.95583886 0.9510447 -0.5873283 -1.4194859
0000a0 7d 61 a1 bf 7f 79 95 bf cd ca d6 bf bc 28 b6 3f
       -1.2607876 -1.1677703 -1.678064 1.4231181
0000b0 16 94 4c 3f 37 4a 01 3e 9c 55 98 bf ea 53 77 3f
       0.7991346 0.12625967 -1.1901126 0.9661242
0000c0 09 ac 5b 3f b1 19 76 3f a1 74 5d bf d0 d6 04 3b
       0.8580938 0.9613295 -0.86506087 0.002026964
0000d0 76 85 3e 3e 0f 11 01 40 a6 c9 ca 3f ba c0 04 bf
       0.18605599 2.0166662 1.5842788 -0.5185658
0000e0 c3 f9 1e 40 91 f4 a0 3f 68 c6 8e bc 35 29 9b bf
       2.4839942 1.2574636 -0.017428592 -1.212195
0000f0 05 3a 46 3f ca f2 c4 3f 22 ab a8 bf 93 44 6d bd
       0.7743228 1.5386593 -1.3177226 -0.057926726

architecture.2.weight f4 [64, 64]
000000 8a a6 c8 bd 7b e8 35 bf 20 33 e6 be ec 21 73 3e
       -0.0979739 -0.7105786 -0.4496088 0.23743409
000010 e9 82 dd be b8 5b 16 bf 0b 44 a0 be 41 03 89 3e
       -0.4326394 -0.587337 -0.31301913 0.26760295
000020 33 2a b8 be 99 31 ff 3d aa 56 5f be a3 9d 81 3e
       -0.35969695 0.12460632 -0.21810403 0.2531558
000030 78 a3 a2 be df ac c7 be f2 b1 08 bf 46 be 04 bf
       -0.31765342 -0.38999078 -0.53396523 -0.51852834
000040 f7 d2 b8 be f6 93 1a bf 51 25 0f 3f 21 8f 56 3f
       -0.36098453 -0.6038202 0.55916315 0.8381215
000050 25 9f b5 3d 4c 03 42 bd 08 d3 4d 3f f2 23 38 3f
       0.08868245 -0.047366425 0.80400133 0.7192985
000060 5d 77 2a 3f 0b e2 35 3e bb f0 fe 3d 60 02 37 3f
       0.66588384 0.1776201 0.124482594 0.71488
000070 8a 54 f9 be 70 be 22 bf f6 01 e5 3e c6 4b 32 bf
       -0.4869731 -0.63571835 0.4472806 -0.6964687
000080 d8 2e b3 bc 24 7c fa be a4 70 c0 be c6 4e 27 3d
       -0.021872923 -0.48922837 -0.37585938 0.04084661
000090 ee 58 7c bf d8 0f b7 be 73 87 15 3f 80 e0 9d 3e
       -0.98573196 -0.35754275 0.58409804 0.30835342
0000a0 ec e1 1f 3f db d8 aa 3e bc d5 45 3f 3a e6 d9 be
       0.62454104 0.33368573 0.7727926 -0.4255846
0000b0 18 80 c1 be 02 ee a4 be 39 c7 ed 3e ff 74 f4 be
       -0.3779304 -0.32212836 0.46441057 -0.4774551
0000c0 0c f6 bf be 2d d5 41 be 31 cb 1b 3f 23 16 31 bd
       -0.37492406 -0.18928976 0.6085692 -0.043234
0000d0 9e 76 b0 3d 6d ac 9c be a1 91 d7 bb 73 3d c1 3e
       0.086163744 -0.306003 -0.0065786396 0.37742195
0000e0 26 34 38 bf 6d ad 15 bf be 6d 81 be c0 d1 54 3f
       -0.7195457 -0.5846775 -0.2527904 0.83132553
0000f0 10 f9 1a bf 87 12 a0 bd 19 39 8e 3e f5 3c 78 be
       -0.6053629 -0.07816034 0.27777937 -0.24242003
000100 02 af b1 3e a3 43 3e 3f 59 bf 35 3e de 78 0b bf
       0.34703833 0.74321955 0.17748775 -0.54481304
000110 60 0c de 3e b7 be 4d 3f d1 27 9d bc 49 46 9a be
       0.43368816 0.8036913 -0.019184025 -0.30131748
000120 50 c9 40 3e 81 b1 af be f6 c9 9a 3e 2a 35 d3 be
       0.18826795 -0.34315112 0.3023221 -0.41251498
000130 44 5a e2 3e 01 8b ed 3e dd fc b7 3e 81 b9 d7 3e
       0.44209492 0.46395114 0.35935107 0.42133716
000140 73 bb b9 3e 54 82 d1 3e 10 46 09 bf d6 ea 48 bf
       0.36275825 0.40919745 -0.5362253 -0.7848333
000150 1d 4d 71 be a0 db 39 be 4b 82 0a bf 60 1c 09 bf
       -0.23564573 -0.18150187 -0.5410506 -0.5355892
000160 42 f9 e8 bd e7 24 31 bd 46 5b 10 be 55 40 a2 be
       -0.11375667 -0.043248083 -0.14097318 -0.31689706
000170 dd b2 d3 3e 88 80 ef 3e 2c db 9b be dc 4c 1a 3f
       0.413474 0.4677775 -0.30440652 0.6027353
000180 d8 d6 72 be d4 92 bb 3e 67 00 22 3e 70 3c f7 be
       -0.23714769 0.36635458 0.15820466 -0.48288298
000190 b4 20 46 3f dc e4 ec 3e 97 63 04 3d 42 d2 3e be
       0.7739365 0.46268356 0.03232154 -0.18634894
0001a0 75 6b a4 be 5d de 3c bf 32 e1 00 bf c6 69 85 3e
       -0.32113233 -0.737768 -0.5034362 0.2605726
0001b0 17 dc a0 3e ba 26 5d 3e 3f 1a 09 bf 06 75 9d 3e
       0.31417915 0.21596804 -0.53555673 0.30753344
0001c0 cd d6 39 3f a3 45 a4 3e a6 f1 52 bf 2b b7 e0 3e
       0.72593385 0.3208438 -0.82399976 0.43889746
0001d0 1d f7 82 be 2e 51 00 3f b5 8b f2 bc f4 d8 36 bf
       -0.25579157 0.5012387 -0.029607633 -0.71424794
0001e0 ec 52 1f 3f 6e 50 81 3e 2f 4c e3 bb 59 ea 47 bf
       0.62235904 0.25256675 -0.006936572 -0.7809196
0001f0 33 35 20 3f bf c7 32 3e d8 62 c9 be c1 e0 8a 3e
       0.62581176 0.1745901 -0.39333224 0.271246
000200 25 ae c6 3e ae 4f 12 3f 53 09 08 bf f5 43 97 bc
       0.38804737 0.5715283 -0.5313923 -0.018465022
000210 35 6e 32 bb 24 c2 fd 3d 98 58 79 be cf af 1c 3f
       -0.0027226333 0.12390545 -0.24350202 0.6120576
000220 4e 5d d5 bc 8a 24 c8 3e 38 ad 90 3c c3 f3 09 bd
       -0.026045468 0.39090377 0.017660722 -0.033679735
000230 c1 09 2b 3e 88 21 ea be 31 af 88 3c 06 63 61 bd
       0.1670294 -0.45728707 0.0166851 -0.055026077
000240 32 6d 0d 3e bc ce d0 bc 55 a2 cd 3c da 1b 04 bf
       0.13811186 -0.025489204 0.02510182 -0.51605
000250 c7 57 1f 3f b2 45 aa bd 4f 73 7b bd 27 41 c7 bc
       0.6224331 -0.083140746 -0.061389264 -0.02432306
000260 b3 9a cb 3e d4 da a3 be 0f c4 87 bd cd de 09 3e
       0.39766464 -0.3200289 -0.06629192 0.13463898
000270 4f 2e 0c bd 64 de b4 bd e6 b3 44 3e b2 2e 40 bc
       -0.03422385 -0.0883148 0.19209251 -0.011729883
000280 3c 78 ca 3e a5 ee 46 be ed 73 a9 3e 02 34 9b 3e
       0.39544857 -0.19426973 0.33096257 0.30313116
000290 a0 2f 3a be 48 1d d1 bd 07 b5 fa 3d 5c d0 19 be
       -0.1818223 -0.10210663 0.122415595 -0.15020889
0002a0 d3 b4 be 3d 91 7c 45 be 79 ae 04 3e 3b 70 ff be
       0.09311833 -0.192858 0.12957181 -0.49890313
0002b0 0a b2 86 be bc 83 d3 3d 22 52 b8 be 80 39 de bd
       -0.26307708 0.10327861 -0.36000162 -0.10850811
0002c0 a2 e1 dd 3d 1f df a5 be db 2c 06 bd 47 4e eb 3e
       0.10834052 -0.3239679 -0.03275762 0.45958158
0002d0 81 36 21 be 23 82 84 be 8d d0 52 be 89 7d 3f 3c
       -0.15743448 -0.25880536 -0.20587368 0.011687645
0002e0 07 51 09 3f 17 3b 0c 3e 75 61 1e 3d ba 6d ee be
       0.5363926 0.13694416 0.03866716 -0.4656809
0002f0 0d c4 a8 3e 3a 34 7f be 63 ee 71 bb 0b 81 16 be
       0.32962075 -0.24922267 -0.0036915771 -0.14697663
000300 69 6f 17 be e2 09 2d bf 53 3e d4 be 7d 09 c8 3d
       -0.14788593 -0.67593205 -0.414538 0.09767435
000310 e3 ff ee be 88 98 0d bf 5f 32 1c be dc 42 cf 3e
       -0.466796 -0.5531087 -0.1525359 0.40480697
000320 53 40 d7 be 66 57 9b 3e fe e4 75 be 07 38 f7 3e
       -0.42041263 0.30340117 -0.24013135 0.48284933
000330 90 33 1b bf df 85 3b be fe 6f bb be 3b 53 14 bf
       -0.60625553 -0.18312787 -0.3660888 -0.579395
000340 47 c1 18 bf 4d ea 12 bf e0 2b 68 3f 21 87 16 3f
       -0.5966992 -0.57388765 0.9069195 0.5879994
000350 4f aa bf 3e b4 69 12 be 67 5c 3f 3f cc 13 48 3f
       0.37434623 -0.14298135 0.7475037 0.7815521
000360 9a 36 0f 3f a9 14 7c 3e d0 dc 4c 3e 73 9a 0b 3f
       0.5594269 0.24617256 0.20006108 0.54532546
000370 b9 d1 17 bf e0 b3 00 bf f8 9b 07 3f c1 8f 36 bf
       -0.59304386 -0.5027447 0.52972364 -0.713131
000380 84 03 0a be 1b 0b c9 be 8b 9b 97 be e7 81 3b 3e
       -0.13477904 -0.39266285 -0.29610857 0.18311273
000390 2a 85 51 bf 27 f3 a0 be cd 4d cf 3e 5e ec a8 3e
       -0.8184382 -0.3143551 0.40489045 0.32992834
0003a0 7a 89 48 3f ad cc 2e 3f a5 34 da 3e 2d b2 c8 3b
       0.7833477 0.6828106 0.4261829 0.006124756
0003b0 a3 5b f2 be 7c e9 e9 be 06 a1 f6 3e 84 b6 db be
       -0.47335538 -0.45685947 0.48169726 -0.42912686
0003c0 f4 2f ff be c0 ce bf be ef 78 f8 3e 98 d1 18 be
       -0.49841273 -0.37462425 0.48529765 -0.14923704
0003d0 ef 31 a3 3d 1e 4e 9d be 6a 3f 3e be 1e 01 ee 3e
       0.079685085 -0.3072366 -0.18578878 0.46485227
0003e0 b4 58 3a bf 20 58 17 bf 1c 91 80 be f5 0b 44 3f
       -0.727916 -0.59118843 -0.2511071 0.76580745
0003f0 b1 f8 22 bf 6f a9 d1 bd 6c 50 d7 3e a6 11 ad be
       -0.6366072 -0.10237395 0.42053545 -0.33802527

architecture.2.bias f4 [64]
000000 62 a6 8c bf 1a a7 8d 3f bb 2b 47 3f 21 dd 9b bf
       -1.0988276 1.106662 0.778011 -1.2176858
000010 4e a9 75 bf e2 15 8c bf df 99 93 bf 9f 93 75 3f
       -0.95961463 -1.0944178 -1.1531333 0.95928377
000020 d6 2d 64 bf 2d da fc be 63 e8 0a 3f 91 29 31 bf
       -0.8913244 -0.49385205 0.54260844 -0.6920405
000030 1f 75 83 bf 62 7a 0a 3e 3f 7a 82 bf 05 57 22 3f
       -1.0270118 0.13523248 -1.0193557 0.6341403
000040 98 fc 41 3f a8 e8 2c 3f 55 02 85 bf 22 c4 8a bf
       0.7577605 0.67542505 -1.0391337 -1.0841105
000050 ec 82 4c 3f b4 f5 0e 3f 33 2e 89 3f 71 32 20 be
       0.7988727 0.55843663 1.0717224 -0.15644242
000060 91 c6 fb be fe 07 38 bf ce 77 87 3f 8d 48 83 bf
       -0.49174932 -0.71887195 1.0583436 -1.0256516
000070 2d a8 0b 3f 68 34 d6 3e 8d 15 75 bf 9b 88 93 3f
       0.5455349 0.41836858 -0.9573601 1.1526064
000080 c5 54 a0 bf fd b2 c6 3e 00 44 e8 be ac c8 67 be
       -1.252587 0.38808432 -0.4536438 -0.22635144
000090 0a 4a 5d bf 82 29 05 bf 91 97 40 3f a2 a5 83 bf
       -0.864411 -0.5201646 0.7523127 -1.0284922
0000a0 c2 b7 87 bf 9b 9e 3f bf 40 ff de be 05 df 88 3f
       -1.0602953 -0.7485139 -0.43554115 1.069306
0000b0 b7 7a df 3e c0 a4 01 3f 40 7d d1 3e 81 59 9c be
       0.43648311 0.50642014 0.4091587 -0.30537036
0000c0 bb d6 73 bf 6a cd 14 bf ba aa 1c 3f 3c 89 02 bf
       -0.9524953 -0.58125937 0.6119801 -0.50990653
0000d0 d4 7c 7c bf 89 ea 78 bf d9 04 88 bf 6d f1 25 3f
       -0.9862797 -0.9723287 -1.0626479 0.6482151
0000e0 0c 1b 88 bf ed 5e 87 3f 1b 3a 98 bf 4d ba 86 bf
       -1.0633254 1.0575844 -1.1892732 -1.0525604
0000f0 83 13 7b 3f 3e 89 f9 bd e9 97 85 3f e5 0f 82 3f
       0.9807665 -0.1218438 1.0436984 1.0161101

architecture.4.weight f4 [1, 64]
000000 eb 95 c1 40 9d 8c be c0 1b 3e dc c0 5f 49 b8 40
       6.0495505 -5.9546647 -6.882581 5.7589564
000010 25 e5 c3 40 13 9c c1 40 a3 59 bf 40 41 8a be c0
       6.1217217 6.050302 5.979692 -5.9543767
000020 e8 db f5 40 ae 39 eb 40 35 4c c0 c0 4c 92 b9 40
       7.683094 7.350791 -6.0093026 5.7991085
000030 d9 c8 e2 40 e3 b8 02 c1 46 e0 b7 40 34 70 f5 c0
       7.0870175 -8.170138 5.746127 -7.6699467
000040 a9 2d e6 c0 5b 71 04 41 c2 f0 bd 40 5d 3a bb 40
       -7.1930737 8.277675 5.9356394 5.8508744
000050 90 9b c2 c0 c6 69 f7 c0 a5 e5 c1 c0 fa bd ee 40
       -6.0814896 -7.731662 -6.059283 7.4606905
000060 11 73 e9 40 44 62 c2 40 ff 00 c0 c0 c5 7f bd 40
       7.295296 6.0744953 -6.0001216 5.921847
000070 3f ee b8 c0 58 fa 01 c1 7b 49 d1 40 7d 2b bd c0
       -5.779083 -8.123619 6.54022 -5.9115586
000080 b9 0b bf 40 26 5b f7 c0 cf 0c 03 41 9a d1 ea 40
       5.970181 -7.7298765 8.190627 7.338086
000090 2d 81 af 40 25 a8 bf 40 e2 44 ca c0 bb 57 ba 40
       5.4845185 5.9892755 -6.3209085 5.8232093
0000a0 37 e8 bf 40 68 2f bf 40 2a 35 bd 40 65 52 bc c0
       5.9970965 5.974537 5.9127398 -5.885058
0000b0 20 b9 e6 c0 85 8a e1 c0 6c 56 f6 c0 97 21 fb 40
       -7.2100983 -7.048159 -7.6980495 7.8478503
0000c0 07 b8 c2 40 43 0e f7 40 f6 f5 c1 c0 78 ae 02 41
       6.0849643 7.720491 -6.0612745 8.167595
0000d0 73 9b bb 40 0f 05 bd 40 6b c9 ba 40 ea b2 0a c1
       5.8627257 5.9068675 5.837087 -8.66868
0000e0 1d 39 c0 40 81 94 bf c0 39 42 ba 40 61 72 bf 40
       6.006972 -5.986878 5.820584 5.9827123
0000f0 ac d5 b9 c0 90 7d f4 c0 b9 13 c4 c0 69 f7 b8 c0
       -5.807333 -7.6403275 -6.1274076 -5.7802014
