raisimGymTorch/data/ouzel_delta_planning/2022-05-27-14-33-19/full_2000.pt (torch, 178160 bytes, 36 tensors)

architecture.0.weight f4 [64, 36]
-0.030969908 -0.12802015 -0.39591488 0.20336811 0.1177457 -0.24168487 0.20104672 0.09772652
-0.93353736 -0.28303292 0.37300706 -0.505068 0.41190276 0.2280387 0.2983724 -0.40397424
-0.009324575 -0.030596372 -0.075599834 0.11552423 -0.27831092 -0.21312961 0.21823682 -0.08027476
0.12862387 0.34329087 -0.566546 -0.11842205 0.17882116 0.029559942 -0.45007488 -0.0038174165
0.094194196 0.4848079 0.09772404 0.25849694 -0.15260844 0.8833765 0.53998417 0.054812193
-0.11071788 0.10380173 0.16703995 0.26275408 -0.6962364 0.38545147 0.15480971 -0.5787115
0.43436453 -0.4968808 0.017215053 -0.011335069 -0.2308959 -0.8024188 0.6247282 0.4806208
0.14888908 0.16496043 0.44378772 0.074499674 0.3736172 0.22259177 -0.8457035 -0.12521258
0.17396984 0.0671005 0.38027757 -0.13679165 0.59428364 0.18295477 0.9946393 -0.0984375
0.20099354 0.14155972 -0.14184462 0.07117399 0.24725495 -0.077770084 0.006365017 0.45696333
0.46857578 -0.12562142 -0.38981393 0.45670772 0.16451205 0.17369264 -0.23519619 0.78343374
0.04216804 -0.22884487 -0.0018277483 -0.10885378 0.4220039 0.14021628 -0.0069232336 0.3482267
6.018409e-05 0.25741348 0.13837945 0.10777349 0.12617637 0.40086436 0.08204854 -0.2933113
0.035321802 0.03180402 0.37649423 0.08026699 0.16019927 -0.19154015 -0.8516393 -0.2254754
0.012768872 -0.20599432 0.5054553 0.12098948 -0.031286936 -0.4098266 -0.32239434 -0.33081135
-0.15386003 -0.34405938 -0.10603281 0.07060563 -0.14172691 -0.2222936 0.12971525 0.0791687
0.22532737 0.027749533 -0.16971777 -0.35432765 -0.25438157 -0.36694536 -0.12453465 0.111796856
0.19074696 -0.07195659 0.16533275 -0.1111827 0.18535142 0.25800583 -0.0058870185 -1.4054356
1.3870304 3.8453257 3.7704918 -0.16777547 -0.16584378 -0.0169257 0.0220149 0.21645018
0.14966185 -0.0033482644 -0.0401114 0.10522075 0.09263896 0.05278438 0.101507016 -0.20924878
-0.92275137 -0.31757927 -0.18604796 0.022427442 0.22286029 -0.1279077 -0.17412034 -0.07889575
0.048379 -0.03639689 -0.050369304 0.105181284 0.257918 0.029240185 0.04128955 0.06053329
-0.03890738 0.03039305 -0.07994865 0.107720196 2.1281047 -7.43066 0.54035985 -0.16727018
0.32180104 -0.012744416 -0.08799928 0.069525026 -0.38304418 0.026840301 0.025383152 0.109012425
0.07246549 -0.04738101 -0.20577396 0.25012615 -0.32472068 -0.67052335 -0.16947138 0.094147325
0.1718058 -0.0676847 0.09032879 0.2791877 0.14331906 -0.010921725 -0.0042966446 0.15549053
-0.12639804 0.3477235 0.14650711 0.20140015 -0.044115283 -0.071459785 0.09045284 0.22154473
0.024216577 0.024662364 0.018496448 0.036200542 0.22442298 -0.11045362 -0.13369298 -0.020889534
-0.85092175 -0.111156985 -0.0946906 0.11740395 0.13972625 0.51478773 0.47162363 0.18869393
-0.30553073 0.10085144 -0.039754994 0.12433822 -0.08809302 0.17323168 -0.027389498 0.19316404
-0.057391718 -0.36106393 0.24632558 -1.0530396 -0.66584736 0.09385097 -0.01092048 0.019121984
-0.24793616 0.07046039 -0.18202554 0.06922474 -0.124126606 -0.19637442 0.72303 0.05323671
00000000: 9bb4 fdbc b717 03be 5bb5 cabe bb3f 503e
00000010: a824 f13d 3d7c 77be 31df 4d3e d724 c83d
00000020: 4efc 6ebf b1e9 90be c8fa be3e 234c 01bf
00000030: ebe4 d23e fa82 693e 44c4 983e b6d5 cebe
00000040: 1ac6 18bc 3ea5 fabc 16d4 9abd f897 ec3d
00000050: c57e 8ebe a63e 5abe 7979 5f3e 1867 a4bd
00000060: fab5 033e d2c3 af3e 2909 11bf 4287 f2bd
00000070: e51c 373e b127 f23c 3770 e6be 9f2d 7abb
00000080: e3e8 c03d be38 f83e 8b23 c83d b659 843e
00000090: 6345 1cbe f624 623f 673c 0a3f c082 603d
000000a0: 0ec0 e2bd 0096 d43d 850c 2b3e b487 863e
000000b0: 8c3c 32bf e559 c53e 7086 1e3e 7026 14bf
000000c0: 0765 de3e 2967 febe 9506 8d3c bab6 39bc
000000d0: fa6f 6cbe 526b 4dbf 30ee 1f3f ee13 f63e
000000e0: 6176 183e 63eb 283e 2538 e33e 4993 983d
000000f0: c14a bf3e 19ef 633e 0680 58bf ba37 00be
00000100: 2625 323e fd6b 893d beb3 c23e 1c13 0cbe
00000110: f922 183f 7f58 3b3e aea0 7e3f 9a99 c9bd
00000120: 40d1 4d3e 08f5 103e b73f 11be abc3 913d
00000130: 6730 7d3e ec45 9fbd a291 d03b 19f7 e93e
00000140: 2ae9 ef3e e7a2 00be b195 c7be 98d5 e93e
00000150: d975 283e 7cdc 313e 45d7 70be 1d8f 483f
00000160: 65b8 2c3d 4f56 6abe 0e91 efba bbee debd
00000170: e510 d83e db94 0f3e 4bdc e2bb c54a b23e
00000180: 2d6e 7c38 b3cb 833e 58b3 0d3e 59b8 dc3d
00000190: 6134 013e 183e cd3e 1109 a83d e62c 96be
000001a0: 98ad 103d ef44 023d dac3 c03e 0563 a43d
000001b0: 470b 243e 1a23 44be 0805 5abf 06e3 66be
000001c0: 8834 513c 2df0 52be 8565 013f 55c9 f73d
000001d0: bb26 00bd cbd4 d1be df10 a5be 1b60 a9be
000001e0: 7c8d 1dbe 8d28 b0be bb27 d9bd af99 903d
000001f0: dc20 11be efa0 63be 13d4 043e 3323 a23d
00000200: 38bc 663e fd52 e33c 7fca 2dbe 6f6a b5be
00000210: 4d3e 82be 43e0 bbbe 060c ffbd c0f5 e43d
00000220: 2c53 433e fa5d 93bd fd4c 293e c1b3 e3bd
00000230: c3cc 3d3e 5719 843e e4e7 c0bb 50e5 b3bf
00000240: 368a b13f d119 7640 bd4f 7140 55cd 2bbe
00000250: f4d2 29be c4a7 8abc 9758 b43c 1ea5 5d3e
00000260: f540 193e 8e6e 5bbb da4b 24bd fa7d d73d
00000270: 7fb9 bd3d 6f34 583d e9e2 cf3d 5045 56be
00000280: 6f39 6cbf c099 a2be 5b83 3ebe c1b9 b73c
00000290: 7d35 643e 3cfa 02be 9a4c 32be 1894 a1bd
000002a0: 0f29 463d e814 15bd 0b50 4ebd 4969 d73d
000002b0: d40d 843e 1d89 ef3c 3b1f 293d c1f1 773d
000002c0: 585d 1fbd d8fa f83c 1ebc a3bd 689c dc3d
000002d0: de32 0840 f7c7 edc0 0655 0a3f e048 2bbe
000002e0: 1bc3 a43e f4cd 50bc f738 b4bd 2363 8e3d
000002f0: 5e1e c4be 31e0 db3c 54f0 cf3c e841 df3d
00000300: c968 943d 9712 42bd 69b6 52be 8910 803e
00000310: ca41 a6be 6ba7 2bbf e889 2dbe 50d0 c03d
00000320: dced 2f3e 479e 8abd 4dfe b83d b1f1 8e3e
00000330: 3bc2 123e 09f1 32bc deca 8cbb e938 1f3e
00000340: 7d6e 01be d108 b23e f605 163e d73b 4e3e
00000350: 3ab2 34bd 8259 92bd 573f b93d 9fdc 623e
00000360: d861 c63c ba08 ca3c dd85 973c 0547 143d
00000370: 23cf 653e 8235 e2bd d0e6 08be 8720 abbc
00000380: 02d6 59bf 46a6 e3bd 25ed c1bd 7b71 f03d
00000390: 6614 0f3e 21c9 033f a778 f13e fb38 413e
000003a0: 866e 9cbe 338b ce3d 22d6 22bd 09a5 fe3d
000003b0: 1d6a b4bd a563 313e f15f e0bc cbcc 453e
000003c0: 9413 6bbd 5fdd b8be c63c 7c3e 00ca 86bf
000003d0: f974 2abf f034 c03d d0eb 32bc b5a5 9c3c
000003e0: fae2 7dbe 894d 903d e764 3abe b3c5 8d3d
000003f0: 1736 febd 6016 49be 7e18 393f bd0e 5a3d

architecture.0.bias f4 [64]
0.2834896 0.77747387 0.32212484 0.62321043 -0.6669684 -0.48057878 0.029877767 -0.27927956
-0.63078105 0.25789985 -0.19067837 0.39648202 -0.56853765 0.054707836 -0.5472279 0.5782422
0.003428911 -0.5283317 -1.0886741 -0.57877076 -0.62471527 -0.08935131 -0.07969042 -0.2452958
-0.1782815 0.5811714 -0.1876647 0.7270078 -1.1320624 -0.12557736 0.41728848 -1.3023374
0.1674789 0.2968781 -0.8939849 -1.351273 -0.10537162 0.9873387 0.06373625 -0.5805907
-0.8769133 0.14391483 -1.1209528 0.3264406 0.10883062 0.113058485 -0.7100604 -0.23328307
0.33548844 0.51104915 0.4490609 -1.0733087 -0.43409485 -1.405775 0.38833585 0.28628713
-1.010095 -0.16022821 -0.05528804 0.30474478 0.029166078 -0.018219894 -0.024306126 -0.2629252
00000000: 8d25 913e 8708 473f 8ced a43e b88a 1f3f
00000010: 71be 2abf 6c0e f6be 38c2 f43c bbfd 8ebe
00000020: de7a 21bf 730b 843e 3141 43be b1ff ca3e
00000030: af8b 11bf 5315 603d 2117 0cbf ae07 143f
00000040: 95b7 603b bf40 07bf ac59 8bbf 522a 14bf
00000050: 57ed 1fbf d2fd b6bd bb34 a3bd d22e 7bbe
00000060: 6d8f 36be a6c7 143f 2d2b 40be 2f1d 3a3f
00000070: 6ce7 90bf 5a97 00be d6a6 d53e feb2 a6bf
00000080: 977f 2b3e 6800 983e 32dc 64bf 83f6 acbf
00000090: 13cd d7bd 3bc2 7c3f 2788 823d 98a1 14bf
000000a0: 647d 60bf 695e 133e 627b 8fbf 3923 a73e
000000b0: 97e2 de3d 358b e73d 85c6 35bf c2e1 6ebe
000000c0: 24c5 ab3e 1ed4 023f 4feb e53e 2e62 89bf
000000d0: ae41 debe 6ff0 b3bf f5d3 c63e 3a94 923e
000000e0: cb4a 81bf dd12 24be b675 62bd 8207 9c3e
000000f0: b3ed ee3c e341 95bc a41d c7bc 229e 86be

architecture.2.weight f4 [64, 64]
-0.018627405 -0.011244848 -0.02986921 0.018581716 0.015827471 0.01669746 -0.04729619 -0.032226074
-0.016992534 0.039986413 0.043747887 0.022868013 -0.041028608 -0.032388154 -0.017063078 0.104782246
0.03316181 0.036868136 0.21002072 0.014997819 0.021774802 0.016140139 0.039372995 0.008456383
0.038313746 -0.24681945 -0.027268177 -0.0038584294 -0.49125782 0.02025444 -0.023940256 0.21361949
0.052830026 -0.0013601584 0.109234974 0.08762219 -0.0023161543 -0.06950702 -0.011222684 -0.0006458845
0.039848473 -0.009706339 -0.2347881 0.40017816 -0.044194303 -0.41898632 -0.0022874759 -0.03757708
-0.010656149 -0.010535131 -0.05673863 0.052285854 0.36384514 0.17419724 -0.016997686 0.006202716
-0.08682038 -0.077445485 -0.29143053 0.07214018 0.010544149 -0.013538589 -0.02740846 -0.02018896
-0.18332377 -0.688191 0.42966473 -0.25413343 -0.3876472 0.69281036 0.059830695 0.061049405
-0.50621367 0.37296692 -0.34037355 -0.76371056 0.058108278 -0.52280045 0.34747282 0.21083981
-0.43216336 -0.140529 0.4386169 -0.5652157 -0.11568737 0.43164676 0.36570203 -0.16250616
-0.32245213 -0.50121033 0.010634443 -0.6005909 -0.14051718 0.058169026 -0.82018906 0.2100899
-0.60343754 0.059255783 0.24083078 0.089818574 -0.47262356 0.41508526 -0.74640787 1.3308417
0.11246133 0.00805557 0.061360337 -0.14272615 -0.45029944 -0.37305954 0.548938 0.0751675
0.2986748 -0.023785213 0.29616886 0.1846358 0.14131527 0.013588329 -0.27242905 0.03197813
-0.074426 0.047015395 0.07045731 -0.2735965 -0.7265455 -0.7075071 0.4093176 -0.06426394
-0.24865738 0.2872783 0.13928103 0.5450476 0.7350352 -0.19158179 0.054498438 0.65506613
0.6930797 0.3668886 0.29001617 0.17292432 -0.050063312 0.62070197 -0.47743598 0.38194475
0.6900452 -0.086775355 -0.39842886 -0.040770568 0.4692337 0.4117606 0.34720138 0.78935736
-0.13371181 0.7442659 -0.90244985 0.2675703 -0.3445906 0.41877854 0.070756644 0.29977247
0.48764452 -0.37143093 -0.25800228 -0.44730732 0.3107542 0.07568713 0.09203323 -0.0370097
-0.29417837 0.39620417 0.12518162 -0.20100117 0.34055755 -0.08312123 0.14543779 0.5570166
-0.057885777 -0.6454432 0.17698705 0.2399306 -0.25355867 -0.16172016 -0.11281526 0.40533474
-0.27551684 0.12927797 0.23194696 -0.77071273 0.1781969 0.14584255 -0.8671189 0.47566098
0.023115559 -0.9823558 -0.34798047 -0.09289606 0.31549177 0.028931372 0.3276318 -0.22400995
-0.01664707 -0.008453246 -0.08210818 -0.18476088 -0.09100147 0.28621483 -0.7571268 0.056149583
0.17373385 1.2066845 0.3188518 -0.046783928 -0.2219412 0.006834533 0.8823435 0.8564468
0.11581277 -0.20784423 -0.3102478 -0.38670707 0.3816347 -0.41209114 0.065714344 0.15972066
0.3554259 0.289923 -0.22394264 -0.055904124 -0.51137006 -0.23232926 -0.44600067 -0.6362407
0.65949714 0.293901 0.022712259 0.0897743 -0.4529084 -0.14386278 0.4879171 0.5132252
-0.43657377 -0.12719524 -0.27671778 -0.14645894 -0.2823568 -0.068614446 -0.28388202 0.32750508
-0.26781204 -0.09739726 -0.28006807 0.2051048 -0.66441816 0.046733472 -0.45671076 0.3509664
00000000: 8098 98bc 503c 38bc 46b0 f4bc af38 983c
00000010: 9da8 813c 1dc9 883c a6b9 41bd 7dff 03bd
00000020: ed33 8bbc cbc8 233d fc30 333d b355 bb3c
00000030: 9d0d 28bd 71a9 04bd dec7 8bbc 1398 d63d
00000040: aed4 073d 0b03 173d ac0f 573e 6ab9 753c
00000050: 1261 b23c 5338 843c 9445 213d a48c 0a3c
00000060: e0ee 1c3d 3dbe 7cbe 8361 dfbc b4dd 7cbb
00000070: 2586 fbbe a4ec a53c 5b1e c4bc 11bf 5a3e
00000080: 4c64 583d 5847 b2ba 96b6 df3d 4373 b33d
00000090: 9fca 17bb b259 8ebd 59df 37bc 9350 29ba
000000a0: 2738 233d 5607 1fbc 4b6c 70be 27e4 cc3e
000000b0: 1605 35bd 6085 d6be 7ae9 15bb 6dea 19bd
000000c0: 2197 2ebc 8b9b 2cbc c466 68bd b129 563d
000000d0: e949 ba3e c360 323e bb3e 8bbc 2740 cb3b
000000e0: e2ce b1bd bd9b 9ebd 6236 95be 3bbe 933d
000000f0: 5ec1 2c3c f5d0 5dbc b587 e0bc 5163 a5bc
00000100: 3ab9 3bbe 492d 30bf 04fd db3e c71d 82be
00000110: b279 c6be 055c 313f 0811 753d f10e 7a3d
00000120: 3897 01bf 85f5 be3e 7145 aebe 8982 43bf
00000130: f202 6e3d 40d6 05bf f5e7 b13e 64e6 573e
00000140: 8444 ddbe d6e6 0fbe 6592 e03e fab1 10bf
00000150: 80ed ecbd ce00 dd3e 4c3d bb3e 0468 26be
00000160: 7218 a5be 524f 00bf 163c 2e3c 53c0 19bf
00000170: bce3 0fbe a542 6e3d e9f7 51bf cf21 573e
00000180: e27a 1abf 31b6 723d 589c 763e cdf2 b73d
00000190: b7fb f1be 0e86 d43e 9614 3fbf 0559 aa3f
000001a0: 2052 e63d 82fb 033c fa54 7b3d ce26 12be
000001b0: a68d e6be a901 bfbe 3387 0c3f 6bf1 993d
000001c0: e7eb 983e 35d9 c2bc 72a3 973e 2b11 3d3e
000001d0: f3b4 103e 95a1 5e3c d27b 8bbe 80fb 023d
000001e0: a96c 98bd 3793 403d ec4b 903d d714 8cbe
000001f0: e3fe 39bf 2f1f 35bf 1492 d13e d09c 83bd
00000200: 0aa0 7ebe 2416 933e b09f 0e3e 3d88 0b3f
00000210: 442b 3c3f 042e 44be c139 5f3d 6ab2 273f
00000220: ac6d 313f d3d8 bb3e 007d 943e 1313 313e
00000230: 300f 4dbd 53e6 1e3f 7d72 f4be 438e c33e
00000240: cda6 303f 47b7 b1bd defe cbbe 0aff 26bd
00000250: 663f f03e 49d2 d23e 61c4 b13e 5313 4a3f
00000260: c0eb 08be 3688 3e3f f406 67bf f9fe 883e
00000270: 2e6e b0be 246a d63e dce8 903d c77b 993e
00000280: 8bac f93e 322c bebe e018 84be 7705 e5be
00000290: 2d1b 9f3e db01 9b3d eb7b bc3d 7c97 17bd
000002a0: 8c9e 96be 46db ca3e 9c2f 003e 40d3 4dbe
000002b0: 8f5d ae3e 773b aabd a5ed 143e a498 0e3f
000002c0: a319 6dbd c43b 25bf 183c 353e 5eb0 753e
000002d0: 71d2 81be f899 25be b00b e7bd 0988 cf3e
000002e0: 8b10 8dbe 7261 043e 8183 6d3e 6e4d 45bf
000002f0: 4079 363e c057 153e 81fb 5dbf d689 f33e
00000300: d75c bd3c ab7b 7bbf 7f2a b2be 4a40 bebd
00000310: 2388 a13e 7c01 ed3c 5bbf a73e dd62 65be
00000320: 705f 88bc 7c7f 0abc 5528 a8bd f531 3dbe
00000330: fb5e babd c08a 923e 10d3 41bf 1bfd 653d
00000340: 49e7 313e a374 9a3f 8b40 a33e 81a0 3fbd
00000350: 8e44 63be 38f4 df3b 43e1 613f 1940 5b3f
00000360: 3f2f ed3d 1ed5 54be cdd8 9ebe 78fe c5be
00000370: a065 c33e 9cfd d2be 3e95 863d d08d 233e
00000380: 62fa b53e ca70 943e 3851 65be b9fb 64bd
00000390: 26e9 02bf b9e7 6dbe 335a e4be ace0 22bf
000003a0: ced4 283f 317a 963e 0f0f ba3c 97db b73d
000003b0: 9ce3 e7be c450 13be 45d0 f93e ba62 033f
000003c0: 9986 dfbe 783f 02be f4ad 8dbe 55f9 15be
000003d0: 1291 90be bb85 8cbd fc58 91be bfae a73e
000003e0: a91e 89be 3778 c7bd 1565 8fbe fe06 523e
000003f0: 4f17 2abf 996b 3f3d fed5 e9be deb1 b33e

architecture.2.bias f4 [64]
0.12816289 -0.93739325 -0.005037552 0.11429262 -0.45828456 0.7795515 0.2789624 0.2270748
0.2142116 0.44581085 0.7260056 -1.3693569 0.3197223 0.50466615 -0.16385749 0.858791
0.37773955 -0.35614097 0.086700864 -0.026445426 0.23219666 0.46268213 -0.036718916 0.61321837
-0.6417903 0.5239484 0.22137092 1.6939592 0.20775853 -0.23410095 0.62131864 -0.64353335
0.038255673 -0.38373291 0.009121767 0.06985538 0.23815437 0.36017942 -0.264688 -0.10842282
-0.32540122 -0.35942677 -0.583863 -0.92446613 -0.9085223 0.6986895 -0.40297824 0.04196415
-0.94197506 -0.13557251 -0.9351328 -0.22464272 -0.058027495 -0.44983745 -0.2894938 -0.41006577
0.08760418 -0.1504599 -0.6256177 -0.8252883 -0.51636726 0.43022904 -0.58525956 0.5723345
00000000: 223d 033e 01f9 6fbf 0d12 a5bb 4012 ea3d
00000010: 46a4 eabe b090 473f 29d4 8e3e 4c86 683e
00000020: 495a 5b3e 5241 e43e 81db 393f 1647 afbf
00000030: a4b2 a33e cd31 013f 42ca 27be bad9 5b3f
00000040: 1467 c13e 1c58 b6be 3990 b13d 14a4 d8bc
00000050: f6c4 6d3e ace4 ec3e 9366 16bd e1fb 1c3f
00000060: 5e4c 24bf 7b21 063f 0faf 623e a8d3 d83f
00000070: a7be 543e 29b8 6fbe bd0e 1f3f 9abe 24bf
00000080: fbb1 1c3d a478 c4be 7773 153c 5610 8f3d
00000090: bdde 733e 7069 b83e 2f85 87be c90c debd
000000a0: fd9a a6be c906 b8be 0c78 15bf d0a9 6cbf
000000b0: eb94 68bf 51dd 323f 2a53 cebe 9ae2 2b3d
000000c0: 4725 71bf 85d3 0abe dd64 6fbf be08 66be
000000d0: 3dae 6dbd 1851 e6be 8838 94be 24f4 d1be
000000e0: d269 b33d 2912 1abe 7b28 20bf 1846 53bf
000000f0: a530 04bf fb46 dc3e 92d3 15bf 8484 123f

architecture.4.weight f4 [12, 64]
-0.02085473 -0.003104609 0.0028283163 -0.0015394074 -0.0017006075 -0.0033173456 -0.005726021 -0.0028757313
-0.0069862683 0.0020803919 -0.003777854 -0.031091586 0.006019328 -0.0030842784 0.0012218626 -0.005644794
0.0020556315 0.001899977 -0.0041514197 -0.004979493 0.013468984 0.0001857105 0.0020789958 -0.021948136
-0.0015081838 -0.0010443197 -0.0017089695 -0.0019514139 -0.0028944195 0.005748284 -0.03509423 -0.0004378297
0.0023450856 0.0057195877 -0.20997655 -0.00079577876 -0.0016573658 0.011397455 0.001745919 0.039797593
0.0019051802 -0.0018162329 0.00088732294 -0.00914951 -0.0014735037 -0.009843736 0.0030795275 0.0019726234
0.0022513368 -0.000622243 -0.002531617 0.0025116114 0.002686499 0.0042527993 0.0008726247 0.008024286
-0.002854103 0.13846642 0.018361486 -0.007027364 -0.0025198595 0.0053747115 -0.001860867 -0.001912845
-0.11620173 -0.0024321482 0.0036231235 0.008728202 -0.0090947235 0.0026350184 -0.001695341 -0.0029647034
-0.0027055184 -0.0016653665 -0.061125137 0.0071094357 0.009468024 -0.019342922 -0.0073902686 -0.0009898673
-0.00064739375 -0.00408185 -0.0086706225 -0.001363809 0.11038483 0.0049844547 0.0049703796 0.017829712
0.002535953 -0.009610323 -0.00047877675 0.019897336 -0.0034416183 0.003240989 0.0062722405 0.0009660019
-0.0023906247 -0.0033543466 0.0045557003 0.0053865393 -3.1243675e-05 -0.005666327 -0.0173694 -0.14183457
-0.00031223582 0.0026094893 0.0053052343 -0.009232032 -0.0012912641 0.0063416325 0.0057830014 -0.0010657111
-0.0006015861 0.0010824732 -0.013230473 0.008632423 -0.0013213535 -0.0035625566 0.00017924969 -0.008327255
-0.0016988625 0.050914243 0.008378848 0.0031756312 0.004788781 -0.020369843 -0.0041255867 -0.00951331
0.20221752 -0.0072712656 0.0027331715 -0.0020349007 0.0005968674 0.00025912636 0.00035993737 0.00013450212
-0.0029537939 -0.008618865 0.04597002 -0.007946939 -0.009527637 -0.0087864 -0.009682869 -0.0024721737
0.0047100596 0.0020137988 0.0013627975 -0.000862755 0.014479985 0.0024562124 -0.0017678469 0.0039956737
-0.001311094 -0.0060176915 -0.005580535 0.02248691 -0.00030578545 0.0031380753 0.0701319 0.0013961955
0.0006245245 0.010004637 -0.023751657 0.0004134206 0.005689596 -0.0077922978 0.01601781 -0.11615291
0.001902352 0.014967291 -0.0015948282 0.005894405 0.0046911323 -0.0011300793 0.0074796216 0.006801995
-0.025547786 0.0036820997 -0.0019243241 -0.007355936 0.001824328 0.0070565776 0.0010641051 -0.0005779295
0.0009774762 0.064263985 -0.022635443 -0.0018711094 0.0070484625 0.018697875 -0.0027934837 -0.0013366253
-0.08554337 -0.30140114 -0.050136887 0.05561284 -0.06557186 0.19757266 0.19999675 0.13527623
0.016912125 0.30876827 0.04324562 -0.552341 -0.018177802 -0.038201295 0.18951046 0.29145628
0.16571659 -0.06387327 -0.098550536 -0.3551005 0.0056272666 0.32409996 0.15544593 0.122909114
-0.40958562 -0.00889631 -0.19309638 0.45479146 0.111323014 -0.09491344 0.102730654 -0.43959138
0.06729736 -0.07546298 -0.0026034508 0.40797776 0.29872042 0.032422982 0.03835098 0.04206028
-0.06649943 -0.020795349 -0.22827448 -0.3087507 -0.15177688 0.044726294 0.029597642 0.08871654
-0.45615166 -0.22795989 -0.31025386 0.02811223 -0.17013836 0.0051252292 -0.041245025 0.02423606
-0.11695534 0.080947585 -0.11094311 -0.1175691 -0.02205156 0.1553693 -0.1653874 0.17076385
00000000: 8ad7 aabc b276 4bbb 465b 393b f1c5 c9ba
00000010: ebe6 deba d367 59bb 58a1 bbbb c476 3cbb
00000020: 11ed e4bb 2f57 083b df95 77bb c8b3 febc
00000030: c83d c53b 9b21 4abb e826 a03a f7f7 b8bb
00000040: c6b7 063b a608 f93a a208 88bb 042b a3bb
00000050: 03ad 5c3c 48bb 4239 c33f 083b 94cc b3bc
00000060: 40ae c5ba 8ee1 88ba 80ff dfba 96c6 ffba
00000070: 4db0 3dbb 1a5c bc3b f8be 0fbd 828c e5b9
00000080: 02b0 193b 616b bb3b 1804 57be cf9b 50ba
00000090: f83b d9ba 64bc 3a3c 52d7 e43a cd02 233d
000000a0: 3db7 f93a aa0e eeba 3c9b 683a d4e7 15bc
000000b0: 9422 c1ba 9f47 21bc e6d1 493b 2147 013b
000000c0: 2a8b 133b 051e 23ba 7ce9 25bb d999 243b
000000d0: f90f 303b 115b 8b3b dac0 643a 4b78 033c
000000e0: e70b 3bbb 24ca 0d3e d46a 963c cd45 e6bb
000000f0: 3a24 25bb 591e b03b 56e8 f3ba 6db8 faba
00000100: 2cfb edbd ad64 1fbb ed71 6d3b bc00 0f3c
00000110: 0902 15bc 46b0 2c3b 3436 deba 784b 42bb
00000120: 114f 31bb 6d48 daba 5a5e 7abd 45f6 e83b
00000130: c51f 1b3c 0c75 9ebc 112a f2bb 6fbe 81ba
00000140: dcb5 29ba 0ac1 85bb 3a0f 0ebc d6c1 b2ba
00000150: 7111 e23d a354 a33b 91de a23b 9e0f 923c
00000160: 3b32 263b 9e74 1dbc 5404 fbb9 bdff a23c
00000170: c68c 61bb c666 543b 5e87 cd3b 4a3b 7d3a
00000180: 07ac 1cbb 99d4 5bbb fc47 953b 9181 b03b
00000190: a40b 03b8 99ac b9bb 464a 8ebc 153d 11be
000001a0: 95b3 a3b9 f703 2b3b 88d7 ad3b f341 17bc
000001b0: a23f a9ba 78cd cf3b 557f bd3b 55af 8bba
000001c0: c3b3 1dba c6e1 8d3a a0c4 58bc 026f 0d3c
000001d0: 4431 adba c879 69bb f9f4 3b39 0a6f 08bc
000001e0: 5eac deba 748b 503d 7047 093c 401e 503b
000001f0: 35eb 9c3b a8de a6bc ee2f 87bb b7dd 1bbc
00000200: 1c12 4f3e cc43 eebb 021f 333b f85b 05bb
00000210: 1877 1c3a 5adb 8739 fab5 bc39 2309 0d39
00000220: 7094 41bb 2436 0dbc 0f4b 3c3d e133 02bc
00000230: ce19 1cbc d5f4 0fbc e5a4 1ebc 3104 22bb
00000240: d856 9a3b f0f9 033b e59f b23a 822a 62ba
00000250: 763d 6d3c 68f8 203b 19b7 e7ba 24ee 823b
00000260: 04d9 abba 0e30 c5bb ecdc b6bb 7836 b83c
00000270: d451 a0b9 2ba8 4d3b 50a1 8f3d 8c00 b73a
00000280: 21b7 233a 7dea 233c d692 c2bc 60c0 d839
00000290: ca6f ba3b 8856 ffbb c837 833c 94e1 edbd
000002a0: 5758 f93a 5e39 753c 8e09 d1ba da25 c13b
000002b0: 12b8 993b 2b1f 94ba 9d17 f53b 45e3 de3b
000002c0: 9749 d1bc 624f 713b 9a39 fcba 100a f1bb
000002d0: 4a1e ef3a dd3a e73b 7179 8b3a 3180 17ba
000002e0: a91e 803a d69c 833d f76d b9bc 0340 f5ba
000002f0: caf6 e63b 492c 993c e112 37bb b431 afba
00000300: 5d31 afbd 4051 9abe 565c 4dbd 4aca 633d
00000310: 8a4a 86bd 7d50 4a3e f3cb 4c3e da85 0a3e
00000320: 4c8b 8a3c e016 9e3e 5222 313d 3866 0dbf
00000330: 9de9 94bc f678 1cbd 080f 423e c239 953e
00000340: 9cb1 293e fdcf 82bd ddd4 c9bd bccf b5be
00000350: ef64 b83b 6ef0 a53e 382d 1f3e c6b7 fb3d
00000360: 35b5 d1be d4c1 11bc 0fbb 45be 6dda e83e
00000370: 52fd e33d fa61 c2bd 7364 d23d 1f12 e1be
00000380: 33d3 893d 568c 9abd a89e 2abb 76e2 d03e
00000390: e2f1 983e f6cd 043d eb15 1d3d 6647 2c3d
000003a0: da30 88bd 025b aabc c9c0 69be 9214 9ebe
000003b0: 666b 1bbe eb32 373d c176 f23c 04b1 b53d
000003c0: b68c e9be 516e 69be 98d9 9ebe 9f4b e63c
000003d0: c038 2ebe 8af1 a73b 8bf0 28bd b48a c63c
000003e0: 4886 efbd d9c7 a53d 2436 e3bd 11c8 f0bd
000003f0: 79a5 b4bc 2119 1f3e 515b 29be b8dc 2e3e

architecture.4.bias f4 [12]
8.871568e-06 -0.015795264 0.03840194 1.1285173 -0.0030105764 -0.020543566 -0.1882288 0.94560456
-0.07033841 -0.06711215 0.073309965 -0.19118929
00000000: 18d7 1437 1265 81bc 5a4b 1d3d 4173 903f
00000010: 174d 45bb fb4a a8bc 0dbf 40be 2413 723f
00000020: 960d 90bd 1872 89bd 8923 963d 20c7 43be

std f4 [12]
0.2 0.2 0.2 0.2 0.2000897 0.2 0.2 0.2
0.20050763 0.2 0.2 0.2
00000000: cdcc 4c3e cdcc 4c3e cdcc 4c3e cdcc 4c3e
00000010: 50e4 4c3e cdcc 4c3e cdcc 4c3e cdcc 4c3e
00000020: df51 4d3e cdcc 4c3e cdcc 4c3e cdcc 4c3e

architecture.0.weight f4 [64, 36]
-0.34968266 0.1582872 0.3592502 -0.022854658 0.011237316 0.08314927 -0.35098043 -0.35021508
-0.12210281 -0.6301295 -0.5373865 -0.08981377 0.38346714 0.70429826 0.86220616 0.042961795
0.0017556957 0.14828141 -0.035703287 0.12693834 0.024477676 0.3113642 0.32791877 0.17051913
0.5936108 0.6090143 0.13055733 -0.35502136 -0.7091511 -0.98209006 0.048333462 -0.00630119
0.011597159 -0.03177407 0.029181613 -0.0011923182 -0.011577044 0.009381464 -0.021123936 -0.07870231
0.009998986 -0.039621927 -0.07381257 -0.23995176 -0.054442417 0.014350091 0.2088189 0.18618378
0.032242816 -0.051381677 -0.061447017 0.015872883 -0.07720068 0.093077235 0.008830322 0.05420703
-0.096361406 0.0071192323 -0.019779427 0.061201464 -0.08842438 -0.07494349 -0.007314585 0.043464206
0.1154612 -0.093987726 0.0032648095 0.012712477 -0.0064482787 -0.023710936 -0.0077542714 0.0041033374
0.04652188 -0.23013116 -0.03383404 0.02653975 -0.1548516 0.026084064 -0.10338038 0.4140186
-0.012926642 0.6087237 -0.42707914 -0.2184031 -0.41644853 -0.04813647 0.044610627 0.0932036
-0.05360828 0.07610102 -0.01317952 -0.0052573876 -0.016554965 0.08136698 -0.37390056 0.067054294
-0.55093974 0.4383078 0.1824162 0.36267012 0.19034976 -0.077974804 0.06689192 0.012574605
-0.026882319 0.017189436 0.011969006 -0.01111327 0.03719079 0.010424482 0.030828571 -0.06678561
0.08142255 0.047743037 -0.08456118 0.0613568 -0.14361776 0.014559838 0.18993613 -0.22431983
-0.014826673 -0.09757381 0.0056497455 -0.0696124 -0.2262991 0.024388153 0.019901007 0.029677192
0.009451099 0.23850723 0.022372827 0.013284969 0.15900034 0.29376137 -0.067095354 0.015080762
-0.064202525 0.08752467 -0.006038265 0.01602502 -0.020807423 0.00084720796 -0.011165018 0.012640348
0.051855244 -0.021523122 -0.052077793 0.14134997 -0.063868254 -0.066015035 -0.1758885 0.09528469
-0.1167572 -0.14125627 0.27801123 0.014280348 -0.2755883 -0.34833837 -0.1928199 0.043912947
0.050460376 -0.037741743 -0.09404056 0.20205499 0.1374013 0.0074570053 0.085620224 0.39259496
0.06386437 -0.12694952 0.24052729 0.3091867 -0.06659441 -0.41689473 -0.040665615 0.0154407965
-0.024540931 -0.06418907 0.060264356 0.008428548 0.021546505 0.022789214 -0.011713953 0.12540396
0.01995657 -0.07819196 0.075045496 -0.06356723 0.032151073 0.12080241 0.0155673195 -0.13565046
0.07715502 0.07103279 0.09103712 0.19021012 0.13157775 0.2106142 0.015489861 0.03674562
0.029558199 0.055776745 0.09945504 -0.09185499 0.10837042 0.12360974 -0.030050145 -0.06269527
-0.009777875 -0.052190986 0.0064551304 -0.0075846184 0.001796948 -0.033184357 0.018239483 -0.008159423
0.055437304 0.14881158 -0.09900462 -0.0103545245 0.1942011 -0.122081056 1.2030262 -0.30535874
0.14193226 -0.12765934 0.22628655 0.58582157 -0.43162897 -0.17584072 0.3526648 0.021035628
-0.018592644 0.0028910257 0.0073120864 0.0020682614 -0.0088262595 -1.1697482 0.34889263 -0.0807122
0.15937497 -0.33687413 -0.58750856 0.39381108 -0.061308473 -0.19927654 0.024545297 0.021815632
-0.0005336988 0.0065662013 -0.0018796077 0.0034626997 -0.4015741 -0.09138954 -0.08977535 0.05197744
00000000: 9b09 b3be 0a16 223e a4ef b73e b139 bbbc
00000010: b81c 383c 2a4a aa3d b5b3 b3be 644f b3be
00000020: 0a11 fabd 2b50 21bf 2992 09bf 48f0 b7bd
00000030: ce55 c43e e44c 343f 8bb9 5c3f b5f8 2f3d
00000040: 5f1f e63a 15d7 173e 9c3d 12bd 20fc 013e
00000050: 6885 c83c 216b 9f3e f8e4 a73e 919c 2e3e
00000060: e1f6 173f 5ce8 1b3f d2b0 053e 5cc5 b5be
00000070: ed8a 35bf 416a 7bbf 4ff9 453d 367a cebb
00000080: 0302 3e3c 8725 02bd 470e ef3c 8f47 9cba
00000090: a4ad 3dbc b6b4 193c 1b0c adbc ad2e a1bd
000000a0: c9d2 233c 9a4a 22bd 0b2b 97bd eab5 75be
000000b0: 03ff 5ebd a51c 6b3c 9fd4 553e f6a6 3e3e
000000c0: 0b11 043d 9875 52bd deaf 7bbd d907 823c
000000d0: 641b 9ebd 479f be3d 0ead 103c 3108 5e3d
000000e0: 2159 c5bd 7348 e93b 7708 a2bc 63ae 7a3d
000000f0: d717 b5bd f97b 99bd 30af efbb 8607 323d
00000100: ec76 ec3d a37c c0bd 6af6 553b fe47 503c
00000110: 154c d3bb 703d c2bc 8b17 febb 4a75 863b
00000120: ba8d 3e3d 81a7 6bbe 9095 0abd e469 d93c
00000130: 6b91 1ebe 3fae d53c 18b9 d3bd 3ffa d33e
00000140: 44ca 53bc 51d5 1b3f 1eaa dabe 10a5 5fbe
00000150: be38 d5be bf2a 45bd a2b9 363d 87e1 be3d
00000160: 5b94 5bbd dada 9b3d eaee 57bc 2a46 acbb
00000170: 479e 87bc bba3 a63d e56f bfbe c353 893d
00000180: 630a 0dbf e169 e03e 50cb 3a3e e6af b93e
00000190: 0ceb 423e 41b1 9fbd a2fe 883d b705 4e3c
000001a0: 4f38 dcbc dcd0 8c3c a619 443c 6f14 36bc
000001b0: 5f55 183d 72cb 2a3c 338c fc3c e5c6 88bd
000001c0: dec0 a63d 348e 433d 692e adbd 4551 7b3d
000001d0: 8910 13be 638c 6e3c 9e7e 423e 19b4 65be
000001e0: 93eb 72bc c7d4 c7bd 8021 b93b f290 8ebd
000001f0: f4ba 67be aac9 c73c 7007 a33c 951d f33c
00000200: c8d8 1a3c 3d3b 743e 3847 b73c 33a9 593c
00000210: fcd0 223e e467 963e 4a69 89bd 4d15 773c
00000220: 9d7c 83bd 2240 b33d a3dc c5bb e746 833c
00000230: 5474 aabc 2a17 5e3a 7bed 36bc 7619 4f3c
00000240: 2a66 543d 4251 b0bc 864f 55bd 0cbe 103e
00000250: 5ccd 82bd e432 87bd 1d1c 34be 9f24 c33d
00000260: 661e efbd 7ca5 10be 7d57 8e3e 1ff8 693c
00000270: e919 8dbe 6859 b2be 9472 45be 10de 333d
00000280: 8aaf 4e3d 1697 1abd 5698 c0bd 81e7 4e3e
00000290: edb2 0c3e e559 f43b a859 af3d 3502 c93e
000002a0: 53cb 823d 0eff 01be c94c 763e b84d 9e3e
000002b0: a662 88bd 3a73 d5be fd90 26bd 65fb 7c3c
000002c0: 100a c9bc 8f75 83bd c2d7 763d e517 0a3c
000002d0: 4c82 b03c 72b0 ba3c e1eb 3fbc e569 003e
000002e0: f67b a33c 1b23 a0bd 74b1 993d 892f 82bd
000002f0: d8b0 033d 4167 f73d 120e 7f3c f4e7 0abe
00000300: 7303 9e3d a479 913d ab71 ba3d 71c6 423e
00000310: 51bc 063e 40ab 573e 30c9 7d3c 9382 163d
00000320: 0924 f23c 2876 643d 16af cb3d 781e bcbd
00000330: 50f1 dd3d 1a27 fd3d b92b f6bc 6166 80bd
00000340: 6133 20bc 37c6 55bd 8f85 d33b 6488 f8bb
00000350: 9287 eb3a 52ec 07bd f86a 953c 1aaf 05bc
00000360: 3a12 633d 1062 183e efc2 cabd 06a6 29bc
00000370: a7dc 463e a205 fabd c3fc 993f fb57 9cbe
00000380: b156 113e 21b9 02be a9b7 673e 67f8 153f
00000390: 79fe dcbe 970f 34be 7b90 b43e e952 ac3c
000003a0: 9a4f 98bc 5d77 3d3b 3a9a ef3b ab8b 073b
000003b0: 049c 10bc 4fba 95bf 0ea2 b23e 704c a5bd
000003c0: 3133 233e c47a acbe f666 16bf 9ba1 c93e
000003d0: 981e 7bbd 260f 4cbe 3813 c93c b2b6 b23c
000003e0: ece7 0bba 4a29 d73b 2b5d f6ba 76ee 623b
000003f0: 1f9b cdbe 702a bbbd 24dc b7bd 4ce6 543d

architecture.0.bias f4 [64]
0.17471853 1.9151148 1.4995677 -0.8225495 0.7481473 1.5640254 1.2742388 -0.77375793
0.019245425 -1.2668518 -0.29204044 -0.604928 1.1282736 0.49507317 0.005084462 1.3565605
0.4085987 0.9468149 -1.3608859 -1.8902396 -1.0534774 0.84760684 -1.3655195 -0.7379591
-1.3620498 0.06707137 -1.2307255 -0.9722405 0.846751 1.0779457 -1.1552396 1.3234136
-1.0270166 1.3371415 0.31938148 -1.3585949 0.72208834 1.0425583 -0.45444074 -1.325806
-1.2339122 -1.1226199 -1.6783535 1.3945624 0.9145341 0.16239671 -1.3644738 1.0712763
1.0202494 0.7320942 -0.77811366 0.022888346 0.09592143 1.8179024 1.5123017 -0.3583537
2.2682161 1.2236937 0.007159663 -1.2778956 0.6820098 1.5093747 -1.304046 -0.13629787
00000000: 6ae9 323e 7b22 f53f d6f1 bf3f 9b92 52bf
00000010: 9586 3f3f fc31 c83f 421a a33f 0015 46bf
00000020: 95a8 9d3c 3328 a2bf 5386 95be 90dc 1abf
00000030: 456b 903f 3b7a fd3e 8f9b a63b c6a3 ad3f
00000040: d933 d13e 7662 723f 8231 aebf 5ff3 f1bf
00000050: 59d8 86bf c3fc 583f 58c9 aebf e3ea 3cbf
00000060: a657 aebf b75c 893d 6a88 9dbf c1e4 78bf
00000070: acc4 583f 20fa 893f e4de 93bf 9e65 a93f
00000080: 4875 83bf 7427 ab3f f885 a33e 70e6 adbf
00000090: c8da 383f 8d72 853f 75ac e8be 03b4 a9bf
000000a0: d6f0 9dbf 02b2 8fbf 4ad4 d6bf 0581 b23f
000000b0: e81e 6a3f 534b 263e 14a7 aebf 951f 893f
000000c0: 8897 823f 876a 3b3f 7532 47bf 5780 bb3c
000000d0: 7472 c43d 07b1 e83f 1a93 c13f 237a b7be
000000e0: 742a 1140 ffa1 9c3f 9b9b ea3b 1592 a3bf
000000f0: 3298 2e3f 3133 c13f fbea a6bf ab91 0bbe

architecture.2.weight f4 [64, 64]
-0.0979916 -0.71057665 -0.44961852 0.23742443 -0.43258864 -0.58733535 -0.3129922 0.2676108
-0.35975003 0.12460246 -0.2180985 0.2531383 -0.31765398 -0.38998604 -0.5339377 -0.5185186
-0.3609695 -0.60382515 0.5591697 0.8381242 0.08864741 -0.047390506 0.8040169 0.71928704
0.6658867 0.1776033 0.12448739 0.7148551 -0.48697832 -0.6357297 0.44726604 -0.6964713
-0.021871485 -0.48922744 -0.3758377 0.040835746 -0.98571396 -0.35755914 0.5840296 0.30835825
0.6245474 0.33367178 0.7727943 -0.42558995 -0.37794968 -0.32213357 0.4644103 -0.47740754
-0.37492618 -0.18931824 0.60860133 -0.043225676 0.08617413 -0.30600402 -0.0065791286 0.37742355
-0.7195503 -0.58472943 -0.25277993 0.83135384 -0.6053816 -0.07820367 0.2778127 -0.24245702
0.3469137 0.74309516 0.17734824 -0.5447041 0.43357688 0.80357575 -0.019263642 -0.30127913
0.18831678 -0.34294406 0.30242527 -0.41223878 0.4419536 0.46411148 0.35934588 0.4211613
0.36282614 0.4093515 -0.53604305 -0.7846916 -0.23551017 -0.18154338 -0.5410023 -0.5356991
-0.11362167 -0.043169484 -0.14085741 -0.3167484 0.41353905 0.46781537 -0.30417994 0.60258627
-0.23699158 0.36629632 0.15820992 -0.48262125 0.7738064 0.46311137 0.03247782 -0.18624659
-0.32099408 -0.7375485 -0.50329834 0.26055562 0.3142177 0.21603444 -0.53544694 0.30749607
0.72576696 0.32100528 -0.8241329 0.43898386 -0.25587797 0.5011347 -0.029686633 -0.71420825
0.62226844 0.2525776 -0.0068863216 -0.7810154 0.6259695 0.17466357 -0.3933189 0.2712636
0.44212228 0.5518662 -0.5463762 -0.036117677 -0.07088467 0.11117986 -0.20062341 0.5970727
-0.18502453 0.4555496 -0.033051368 0.050708693 0.080180384 -0.54141694 0.086792484 -0.029434161
0.08107322 -0.019518081 -0.04902952 -0.49161625 0.5942066 -0.014169467 -0.11809713 -0.08781414
0.43129408 -0.2043163 0.031875324 0.15024336 -0.0075828144 -0.06711376 0.16012679 0.0007230811
0.48031822 -0.15478867 0.31483203 0.37891293 -0.17183766 -0.14384216 0.2154199 -0.17793022
0.18995497 -0.11429458 0.116713904 -0.50496864 -0.2287126 0.1552319 -0.26429603 -0.16976507
0.0161596 -0.24333498 0.008539108 0.22552682 -0.067938 -0.2194254 -0.17826927 -0.015755605
0.5205488 0.15765162 0.1289847 -0.44075623 0.34159374 -0.27556214 -0.063714884 0.049187645
-0.14786588 -0.6759423 -0.41455045 0.09767822 -0.46679473 -0.5531133 -0.15254495 0.404821
-0.42043188 0.30341306 -0.24015172 0.48283172 -0.60626894 -0.18311742 -0.36607277 -0.57938373
-0.59668803 -0.5738769 0.9069058 0.5880112 0.37433854 -0.14298582 0.7475189 0.78155
0.55943656 0.24616934 0.20007508 0.5453285 -0.5930479 -0.502751 0.5297101 -0.7131421
-0.13476552 -0.39266422 -0.2961255 0.18309392 -0.8184265 -0.31437466 0.404872 0.3299439
0.7833606 0.6828126 0.42619672 0.0061084293 -0.47334474 -0.45684612 0.48171103 -0.429111
-0.4984085 -0.37462398 0.48530573 -0.14922312 0.079692736 -0.3072502 -0.18580271 0.46486625
-0.7279298 -0.5912101 -0.25110117 0.7658267 -0.6366207 -0.102374166 0.4205517 -0.3380341
00000000: d2af c8bd 5ae8 35bf 6634 e6be 641f 733e
00000010: 427c ddbe 9c5b 16bf 8340 a0be 4804 893e
00000020: 2831 b8be 932f ff3d 3755 5fbe 589b 813e
00000030: 8ba3 a2be 40ac c7be 24b0 08bf a3bd 04bf
00000040: ffd0 b8be 4994 1abf bf25 0f3f 4f8f 563f
00000050: c68c b53d 8c1c 42bd 0dd4 4d3f 3223 383f
00000060: 8d77 2a3f a4dd 353e 3ff3 fe3d be00 373f
00000070: 3955 f9be 2ebf 22bf 0e00 e53e f14b 32bf
00000080: d42b b3bc 057c fabe cd6d c0be 6243 273d
00000090: c057 7cbf fe11 b7be f782 153f 22e1 9d3e
000000a0: 57e2 1f3f 07d7 aa3e d9d5 453f ede6 d9be
000000b0: 9f82 c1be b1ee a4be 30c7 ed3e c36e f4be
000000c0: 53f6 bfbe a4dc 41be 4ccd 1b3f 680d 31bd
000000d0: 107c b03d 8fac 9cbe bb95 d7bb a93d c13e
000000e0: 7334 38bf d4b0 15bf 5f6c 81be 9bd3 543f
000000f0: 4afa 1abf 3f29 a0bd 773d 8e3e a746 78be
00000100: ac9e b13e 7c3b 3e3f c79a 353e ba71 0bbf
00000110: cafd dd3e 24b7 4d3f c9ce 9dbc 4241 9abe
00000120: 1dd6 403e 5d96 afbe 7cd7 9a3e f610 d3be
00000130: be47 e23e 05a0 ed3e 2ffc b73e 74a2 d73e
00000140: 59c4 b93e 8596 d13e 1e3a 09bf 8ce1 48bf
00000150: 9429 71be 82e6 39be 207f 0abf 9423 09bf
00000160: 7ab2 e8bd 7cd2 30bd ed3c 10be d92c a2be
00000170: 64bb d33e 7f85 ef3e 79bd 9bbe 1843 1a3f
00000180: ecad 72be 318b bb3e c801 223e 221a f7be
00000190: 2d18 463f ef1c ed3e 7607 053d 6db7 3ebe
000001a0: 5659 a4be facf 3cbf 29d8 00bf 8c67 853e
000001b0: 24e1 a03e 2238 5d3e 0d13 09bf 2070 9d3e
000001c0: ddcb 393f ce5a a43e 60fa 52bf 7ec2 e03e
000001d0: 7002 83be 5d4a 003f 6231 f3bc 5ad6 36bf
000001e0: fc4c 1f3f da51 813e a7a6 e1bb a0f0 47bf
000001f0: 8a3f 203f 02db 323e 1861 c9be 10e3 8a3e
00000200: da5d e23e 1a47 0d3f 50df 0bbf 21f0 13bd
00000210: fb2b 91bd 44b2 e33d 3970 4dbe c2d9 183f
00000220: 1277 3dbe cc3d e93e df60 07bd ebb3 4f3d
00000230: 9d35 a43d 4d9a 0abf 42c0 b13d e91f f1bc
00000240: b709 a63d 62e4 9fbc 2ed3 48bd 20b5 fbbe
00000250: ec1d 183f 0d27 68bc e8dc f1bd e6d7 b3bd
00000260: 94d2 dc3e 4b38 51be b38f 023d 65d9 193e
00000270: 4279 f8bb f072 89bd 47f8 233e 278d 3d3a
00000280: 45ec f53e ec80 1ebe aa31 a13e e000 c23e
00000290: 36f6 2fbe 5c4b 13be 0997 5c3e 5733 36be
000002a0: 8e83 423e 4713 eabd b307 ef3d a045 01bf
000002b0: a333 6abe 1cf5 1e3e cf51 87be e5d6 2dbe
000002c0: 2361 843c ce2c 79be 9de7 0b3c 81f0 663e
000002d0: 1423 8bbd 0db1 60be 388c 36be e611 81bc
000002e0: b042 053f 6d6f 213e 9114 043e cdaa e1be
000002f0: 60e5 ae3e 7b16 8dbe f37c 82bd fc78 493d
00000300: 276a 17be 8e0a 2dbf f53f d4be 850b c83d
00000310: b8ff eebe d598 0dbf be34 1cbe b344 cf3e
00000320: d942 d7be f558 9b3e 55ea 75be b835 f73e
00000330: 7134 1bbf 2283 3bbe e46d bbbe 7e52 14bf
00000340: 8cc0 18bf 99e9 12bf fa2a 683f e787 163f
00000350: 4da9 bf3e e06a 12be 665d 3f3f a913 483f
00000360: 3c37 0f3f d113 7c3e 7be0 4c3e a69a 0b3f
00000370: fdd1 17bf 4ab4 00bf 159b 073f 7b90 36bf
00000380: f9ff 09be 490b c9be c39d 97be f97c 3b3e
00000390: 6684 51bf b7f5 a0be 624b cf3e 68ee a83e
000003a0: 528a 483f cecc 2e3f 7536 da3e 3829 c83b
000003b0: 3e5a f2be bce7 e9be d4a2 f63e 70b4 dbbe
000003c0: 662f ffbe b7ce bfbe fe79 f83e f2cd 18be
000003d0: f235 a33d e64f 9dbe 1143 3ebe f302 ee3e
000003e0: 9b59 3abf 8c59 17bf 5590 80be 380d 443f
000003f0: 93f9 22bf 8ca9 d1bd 8d52 d73e ce12 adbe

architecture.2.bias f4 [64]
-1.09883 1.1065085 0.7367089 -1.2176999 -0.9412877 -1.094433 -1.1531031 0.9594162
-0.8592418 -0.4733155 0.52588737 -0.742748 -0.9590665 0.15223455 -1.0363321 0.6415502
0.71596956 0.64553106 -1.0328448 -1.0840397 0.83638287 0.5075228 1.0717384 -0.13613866
-0.4863384 -0.7314863 1.058277 -1.0256153 0.5294637 0.40268716 -0.89650863 1.1526042
-1.2525986 0.3951066 -0.44075114 -0.24306273 -0.83705777 -0.63841313 0.68216527 -1.0284876
-1.060264 -0.7425896 -0.5169417 1.0693059 0.49271286 0.50755215 0.39476493 -0.30676425
-0.9522775 -0.5561177 0.62959665 -0.47965783 -0.98627794 -0.97230786 -1.0626503 0.6718158
-1.0633149 1.0592923 -1.1890584 -1.0525601 1.0316759 -0.101731464 1.0436283 1.0160915
00000000: 76a6 8cbf 12a2 8d3f f498 3c3f 97dd 9bbf
00000010: 3bf8 70bf 6116 8cbf e298 93bf 4d9c 753f
00000020: 45f7 5bbf 6956 f2be 8ea0 063f bc24 3ebf
00000030: 6285 75bf 60e3 1b3e 88a6 84bf a23c 243f
00000040: c849 373f 8641 253f 4234 84bf d0c1 8abf
00000050: 301d 563f 04ed 013f b92e 893f ef67 0bbe
00000060: 5901 f9be b042 3bbf 9f75 873f 5d47 83bf
00000070: ef8a 073f 032d ce3e 9781 65bf 8988 933f
00000080: 2755 a0bf 6a4b ca3e 22aa e1be 70e5 78be
00000090: 6b49 56bf 0b6f 23bf 62a2 2e3f 7ba5 83bf
000000a0: bbb6 87bf 5a1a 3ebf 4b56 04bf 04df 883f
000000b0: dc44 fc3e f0ee 013f a11e ca3e 3410 9dbe
000000c0: 75c8 73bf bb5d 0ebf 3f2d 213f b695 f5be
000000d0: b67c 7cbf 2be9 78bf ed04 88bf 1ffc 2b3f
000000e0: b41a 88bf e496 873f 1133 98bf 4aba 86bf
000000f0: f50d 843f 9658 d0bd 9d95 853f 490f 823f

architecture.4.weight f4 [1, 64]
6.1201324 -6.0252466 -6.779475 5.8295383 6.191944 6.120884 6.050274 -6.0249586
7.5756702 7.246691 -6.079455 5.8775535 6.966465 -8.066215 5.817126 -7.6020446
-7.081655 8.192681 6.0067067 5.9214563 -6.156673 -7.5899124 -6.1298647 7.320867
7.3468304 6.1434913 -6.0707035 5.992429 -5.844953 -8.082446 6.4370017 -5.9821405
6.040763 -7.69743 8.114182 7.2289863 5.5544515 6.0583534 -6.2287 5.893791
6.0676785 6.048747 5.993359 -5.95564 -7.112895 -7.0108547 -7.6083236 7.7486396
6.155546 7.654589 -6.1300297 8.066856 5.9333076 5.9774494 5.907669 -8.578245
6.0775537 -6.05746 5.8911657 6.053294 -5.856072 -7.5306926 -6.1979895 -5.8507833
00000000: 20d8 c340 d2ce c0c0 76f1 d8c0 948b ba40
00000010: 6824 c640 48de c340 d89b c140 76cc c0c0
00000020: e46b f240 e5e4 e740 e58a c2c0 eb14 bc40
00000030: 48ed de40 370f 01c1 e525 ba40 f343 f3c0
00000040: eb9c e2c0 3915 0341 f136 c040 927c bd40
00000050: 7703 c5c0 90e0 f2c0 da27 c4c0 8b44 ea40
00000060: 3c19 eb40 7b97 c440 3443 c2c0 fac1 bf40
00000070: db09 bbc0 b351 01c1 ebfb cd40 b26d bfc0
00000080: ee4d c140 5951 f6c0 b1d3 0141 db53 e740
00000090: 11be b140 08de c140 8351 c7c0 f099 bc40
000000a0: 6c2a c240 568f c140 99c9 bf40 9a94 bec0
000000b0: d69c e3c0 ec58 e0c0 6377 f3c0 dbf4 f740
000000c0: 3cfa c440 65f2 f440 3429 c4c0 d811 0141
000000d0: a8dd bd40 4447 bf40 a00b bd40 7e40 09c1
000000e0: 527b c240 b6d6 c1c0 6e84 bc40 96b4 c140
000000f0: f164 bbc0 6ffb f0c0 ee55 c6c0 9e39 bbc0

exp_avg f4 [64, 36]
-8.249981e-06 -1.3727654e-05 4.4759807e-05 -6.0547438e-05 -2.466006e-05 2.9639436e-05 1.3011551e-05 0.00010926001
-5.02941e-05 -3.314043e-05 1.2528033e-06 1.9781946e-05 -6.4055544e-05 -3.487069e-05 2.6705677e-05 6.036057e-06
-2.6924263e-05 -1.8000225e-07 9.318619e-05 -7.56273e-06 -2.064001e-05 2.2974667e-05 9.9702476e-05 -4.900346e-05
-2.8361164e-05 -1.0948714e-05 2.5548006e-05 -7.143113e-05 -3.085825e-05 3.033709e-05 -1.954034e-05 -8.467651e-05
5.02138e-06 3.8816943e-05 1.4598805e-05 -7.311678e-05 -4.4526798e-05 2.4969397e-05 -5.215184e-05 -2.1824733e-05
4.667148e-05 -6.7271976e-05 7.6491066e-05 3.41004e-05 1.4283414e-05 2.606771e-05 7.9243924e-05 -4.26562e-05
-2.017506e-05 3.4691213e-05 -6.282763e-05 -5.369847e-05 4.4842847e-05 2.9683782e-05 -2.014838e-05 -6.0005514e-05
-1.0357522e-06 8.2481565e-05 1.8771902e-05 9.819033e-06 1.6662707e-05 7.7964214e-05 -3.6710495e-05 -2.6873166e-05
3.4478642e-05 -6.1933046e-05 -5.327499e-05 -2.5561008e-05 -5.367775e-05 -6.8658587e-06 -1.5584868e-05 -0.00012425112
1.9185336e-06 3.5619672e-05 -1.1442809e-05 -3.137502e-05 4.242494e-05 -2.2245571e-05 2.4103416e-05 4.7290046e-05
-0.00015563672 1.499605e-06 2.478361e-05 7.26008e-05 -3.4830002e-05 3.9430808e-05 -2.0243953e-05 2.1087073e-05
5.7807133e-06 8.696971e-05 2.4339979e-05 -4.6377404e-06 -1.7973945e-05 2.4645224e-05 4.665132e-05 -0.00015309815
7.89403e-06 2.3710467e-05 7.170397e-05 -3.28559e-05 4.13485e-05 -2.150743e-05 -5.6694298e-05 -1.2643957e-05
-0.000113033864 2.0404288e-05 -2.4596397e-06 3.410529e-05 -3.5654797e-05 -4.355288e-05 -6.360901e-05 7.726894e-05
4.4774937e-05 -0.00013309978 -0.0002138641 0.000101855534 -0.00014309266 0.00019282596 -9.625539e-06 -6.1826315e-05
6.907589e-05 6.678956e-05 -0.00010978904 0.0001497167 1.508805e-05 -9.6412325e-05 -2.5373662e-05 2.3448223e-05
-3.601506e-05 -0.00020624143 9.5865755e-05 -0.0001355632 0.00019838658 -5.145595e-06 -5.631295e-05 4.9425213e-05
6.813406e-05 -0.00011625071 -3.2684334e-06 0.00011437087 -1.784869e-05 8.5655316e-05 7.565486e-05 1.2099835e-05
8.796118e-06 -6.987971e-05 4.737122e-05 0.000101015605 -0.00019650238 -3.844005e-05 -0.000115817864 0.00025850383
-0.00024048456 2.9146004e-05 -0.00015565433 0.00015380728 9.09472e-05 -0.00020625092 -3.7088572e-05 -0.0002206022
-9.088681e-06 3.8085227e-06 6.5262655e-05 -0.000198491 3.4337776e-05 -0.00012261326 0.00026209597 -0.00024410422
3.412079e-05 -0.00015145098 0.00013526977 7.495562e-05 -0.00020931171 -2.9630448e-05 1.0644445e-05 -0.00022080015
-1.8409235e-05 -0.00035505707 0.00038613795 -0.00024049838 -2.2982575e-05 9.576904e-06 4.6394425e-06 -4.7093807e-05
-6.570044e-05 0.00017712431 0.00016907668 1.8675562e-05 -0.00014251092 -0.00037094243 -5.951822e-06 2.2265422e-06
-3.6544294e-05 -4.144689e-05 0.00016795118 -0.00010451312 -6.225687e-05 -9.061057e-05 -7.976494e-05 -9.299294e-05
-1.05181925e-05 0.0001754027 1.8253635e-05 -0.00013581001 -0.00037632906 -1.636485e-05 2.486515e-06 -4.2375723e-05
-2.860294e-05 0.00016851824 0.00018577425 -0.00011277002 -6.749066e-05 1.3494017e-05 -0.00017804083 0.00019947608
2.3715058e-05 3.902634e-05 -9.437706e-05 -1.2192544e-05 -8.228516e-05 1.7285018e-05 -4.2984928e-05 -1.2534995e-05
-2.1336324e-05 7.425461e-05 1.8142157e-06 1.9875166e-05 -7.11868e-06 -0.000101527556 -9.0244225e-07 -1.981757e-06
-0.00014017266 -2.190148e-05 -5.6376043e-06 4.0840372e-05 4.991704e-07 -4.516515e-05 6.937193e-07 -2.5240852e-05
6.633018e-05 -1.097386e-05 -8.907518e-07 -5.971196e-06 -0.00010248099 2.9075438e-06 3.5234945e-05 -6.1374034e-05
0.00010420886 7.757774e-05 -0.00012389584 -4.540219e-05 4.1862262e-05 4.1680985e-05 1.5062336e-05 8.99155e-07
00000000: 6669 0ab7 d34f 66b7 7abc 3b38 51f4 7db8
00000010: 13dd ceb7 34a2 f837 304c 5a37 8522 e538
00000020: e1f2 52b8 4400 0bb8 fe25 a835 68f1 a537
00000030: 8f55 86b8 1e42 12b8 0106 e037 5689 ca36
00000040: 6adb e1b7 a446 41b4 f46c c338 5bc3 fdb6
00000050: 1524 adb7 b9b9 c037 5c17 d138 1189 4db8
00000060: 23e9 edb7 5eb0 37b7 ed4f d637 4ccd 95b8
00000070: cb6d 01b8 687c fe37 90ea a3b7 5b94 b1b8
00000080: 537d a836 60cf 2238 64ed 7437 4656 99b8
00000090: 49c2 3ab8 5f75 d137 9dbd 5ab8 4214 b7b7
000000a0: 1fc1 4338 5e14 8db8 d469 a038 0707 0f38
000000b0: cca2 6f37 fbab da37 c22f a638 bfe9 32b8
000000c0: 9d3d a9b7 6881 1138 54c2 83b8 4b3a 61b8
000000d0: a415 3c38 7001 f937 5104 a9b7 6eae 7bb8
000000e0: 2d04 8bb5 f4f9 ac38 5a78 9d37 6dbc 2437
000000f0: e4c6 8b37 b880 a338 98f9 19b8 af6d e1b7
00000100: 299d 1038 0de2 81b8 9673 5fb8 d96b d6b7
00000110: 0c24 61b8 4761 e6b6 40bc 82b7 6849 02b9
00000120: 28c0 0036 5566 1538 7efa 3fb7 ac98 03b8
00000130: 6ff1 3138 009c bab7 b131 ca37 4d59 4638
00000140: 6a32 23b9 0946 c935 66e6 cf37 4241 9838
00000150: 6e16 12b8 8262 2538 8fd1 a9b7 25e4 b037
00000160: f3f7 c136 8263 b638 b52d cc37 e39d 9bb6
00000170: c1c6 96b7 37bd ce37 79ab 4338 f988 20b9
00000180: 9a70 0437 d7e5 c637 c75f 9638 c1ce 09b8
00000190: 9d6d 2d38 db6a b4b7 0acb 6db8 6221 54b7
000001a0: 980c edb8 e029 ab37 4a10 25b6 470c 0f38
000001b0: 0c8c 15b8 8cac 36b8 d465 85b8 720b a238
000001c0: b9cc 3b38 b390 0bb9 b540 60b9 469b d538
000001d0: 250b 16b9 5331 4a39 607d 21b7 c0a8 81b8
000001e0: d6dc 9038 5f11 8c38 8b3e e6b8 45fd 1c39
000001f0: ae22 7d37 f930 cab8 86d9 d4b7 adb2 c437
00000200: e00e 17b8 8342 58b9 890b c938 f825 0eb9
00000210: fe05 5039 53a8 acb6 9231 6cb8 eb4d 4f38
00000220: 32e3 8e38 a0cb f3b8 4257 5bb6 65da ef38
00000230: c5b9 95b7 d9a1 b338 e5a8 9e38 6500 4b37
00000240: 0a93 1337 628c 92b8 76b0 4638 57d8 d338
00000250: 350c 4eb9 b03a 21b8 3ee3 f2b8 cc87 8739
00000260: 952a 7cb9 917e f437 2437 23b9 5447 2139
00000270: e8ba be38 0f45 58b9 8d8f 1bb8 7451 67b9
00000280: 967b 18b7 ec95 7f36 9fdd 8838 0622 50b9
00000290: e805 1038 bf91 00b9 ed69 8939 3af6 7fb9
000002a0: eb1c 0f38 d0ce 1eb9 34d7 0d39 7e31 9d38
000002b0: af7a 5bb9 e78e f8b7 8b95 3237 9786 67b9
000002c0: 886d 9ab7 f426 bab9 8f72 ca39 4b2e 7cb9
000002d0: b4ca c0b7 7dac 2037 82ac 9b36 9786 45b8
000002e0: a8c8 89b8 72ba 3939 2d4a 3139 77a9 9c37
000002f0: fc6e 15b9 0d7b c2b9 c3b5 c7b6 b46b 1536
00000300: 2347 19b8 42d7 2db8 0d1c 3039 0e2e dbb8
00000310: e78f 82b8 2e06 beb8 7a47 a7b8 3405 c3b8
00000320: 4b77 30b7 4eec 3739 621f 9937 3968 0eb9
00000330: 084e c5b9 3f47 89b7 01de 2636 96bc 31b8
00000340: 59f0 efb7 45b4 3039 65cc 4239 f27e ecb8
00000350: c689 8db8 5d64 6237 79b0 3ab9 742a 5139
00000360: b3ef c637 37b0 2338 4cec c5b8 948e 4cb7
00000370: 8290 acb8 4bff 9037 b74a 34b8 654d 52b7
00000380: 68fb b2b7 24b9 9b38 fa7f f335 98b9 a637
00000390: ffdc eeb6 31eb d4b8 5c3f 72b5 53fe 04b6
000003a0: 50fb 12b9 12b9 b7b7 a72a bdb6 044c 2b38
000003b0: bbfe 0535 b66f 3db8 0738 3a35 51bc d3b7
000003c0: bf1a 8b38 5f1c 38b7 ff1b 6fb5 2f5c c8b6
000003d0: 10eb d6b8 391f 4336 3cc9 1338 efb5 80b8
000003e0: b58a da38 3bb1 a238 09ea 01b9 3b6e 3eb8
000003f0: 4395 2f38 9ed2 2e38 3eb4 7c37 765d 7135
